models/GFDL-ESM4-livneh/QM_SST_layers5/2000/1980_1990/livneh_bci/model_200.pth (torch, 108308 bytes, 10 tensors)

transform_generator.0.weight f8 [64, 3]
000000 3b be 90 de 69 dc e8 bf ff e6 f2 6f 26 c3 d5 bf
       -0.776905951211979 -0.34003601963523516
000010 14 db 6f f8 0d 4f d2 bf 1d 79 b9 e1 39 9c d5 bf
       -0.28607510816020576 -0.3376602844563353
000020 8d cf 14 c9 b4 33 ed bf 95 cb 4c 5e d2 72 8c bf
       -0.9125617911690697 -0.01389088011055665
000030 36 66 30 10 1d 49 e2 3f 81 c6 2a 26 3f 4b db 3f
       0.5714249912445613 0.42646769263510725
000040 c7 35 4c ec dc 16 d8 bf 33 d2 05 10 b5 34 d7 bf
       -0.37639544559428056 -0.3625919968101556
000050 9f 75 f5 e1 7c 3d ea bf 34 3a 31 cd 1c 03 04 c0
       -0.8200058377512284 -2.5015197783134457
000060 eb 9d 6b 7d 8e 6f da 3f 1b 4f c8 ad 88 2c d8 3f
       0.41305887458881213 0.37771813364928314
000070 fc c4 f3 e7 bf 77 96 bf 5e fe 1b 9e 5c 81 c9 3f
       -0.02194118359779383 0.19926030845816717
000080 9f 9d ef f0 3b fd de bf f3 6a 42 a4 71 81 8f bf
       -0.48420618561655177 -0.015383613419819286
000090 8e 3a c6 97 23 e2 cb 3f 20 d3 22 14 85 87 80 bf
       0.21783871565681462 -0.008070983578684798
0000a0 aa 55 52 1d 83 53 da bf fa 07 fc 8a 3d 79 c3 3f
       -0.4113471781104986 0.15213746343948725
0000b0 85 4b 3f 1e e6 2e d4 bf 10 72 92 68 12 a9 c2 bf
       -0.31536248163063646 -0.1457846651654937
0000c0 41 2e a4 1f f3 58 e1 bf 8c d6 b6 c3 e7 d4 f0 bf
       -0.5421081178660146 -1.0519788403593422
0000d0 58 d0 99 75 e3 2f ec 3f c5 01 ba 90 eb 10 02 c0
       0.8808457657710376 -2.2582618052258305
0000e0 3e c2 5b de 24 b2 c7 bf 58 8b 01 83 cb 65 e0 bf
       -0.18512402398438782 -0.5124261435233661
0000f0 de 1a 6d bb 5c 28 c6 bf d2 a5 55 f6 f2 97 9b bf
       -0.17310675765676015 -0.02694682720667691
000100 ef 47 23 ce bd 5a a5 bf b8 98 5c 95 27 b5 d0 3f
       -0.04170792714434401 0.2610568007097629
000110 de 92 84 23 16 6d f2 bf 13 9b 04 40 b3 56 a9 bf
       -1.1516324412743226 -0.04948959499806995
000120 7d a6 65 94 98 aa e0 3f 2b b2 df 6d b5 44 d8 bf
       0.5208247087841326 -0.3791936467157792
000130 1f 6a 3d 2e fd 4a d0 bf 35 32 df 68 1a 23 83 3f
       -0.2545769645272759 0.009344297719416786
000140 d6 05 9f 20 eb a0 de 3f b8 7f e2 a5 5c f3 da bf
       0.4785716837469328 -0.42110363197025036
000150 03 7c ef a0 88 ec bb bf fb c2 6e 07 28 04 d1 bf
       -0.10907796792115225 -0.2658786842903706
000160 63 d5 02 09 5b 3b e4 3f f6 da 35 d6 b6 19 dd 3f
       0.6322455574033196 0.45469447058660195
000170 e1 d2 8b 79 a7 b6 bd bf a5 64 cd 3a ea d6 d9 bf
       -0.11606833188472933 -0.403742368148935
000180 ca b1 7a 2d dc c2 d1 3f 98 6d 67 88 82 b2 bb 3f
       0.27751831475577815 0.10819259481598065
000190 cd e2 b0 4f 1b 6b ce 3f f3 4f 07 2c 0e b5 c3 3f
       0.23764363661918822 0.15396287107307635
0001a0 5f 37 22 c6 e0 06 e1 bf c4 61 a6 ba c8 51 b0 3f
       -0.5320896024511333 0.06374792630084075
0001b0 19 86 bb a4 cf cf b5 bf fd 35 bf 88 f2 44 da 3f
       -0.08520219585218348 0.4104582152766339
0001c0 33 a9 bb af 89 ab 53 3f 2c 70 68 6d e3 9b dc bf
       0.001200565776282203 -0.44701467213031054
0001d0 85 c7 ba 93 c3 27 c4 bf 2b 83 ef 24 fb 45 ab 3f
       -0.15746350015029634 0.053268287905444765
0001e0 f4 5d 37 8a 70 16 e7 bf 45 82 cc e8 60 8f d7 3f
       -0.7214892100845973 0.36812613233818
0001f0 ba 8f fa f5 c7 82 d7 3f 4e 39 78 91 55 8e cd 3f
       0.36735724469530917 0.23090619662293438
000200 73 c8 94 ef b9 e1 c5 bf a9 23 d4 7f 51 73 bb bf
       -0.17095112036037427 -0.10722836848084562
000210 33 82 c7 a0 1a 63 c6 3f 33 7d 45 00 14 66 d2 3f
       0.1748994145446133 0.28748035456188176
000220 a7 a5 b2 d0 20 f2 d4 3f d2 84 f3 c3 37 fc e4 bf
       0.32727833157204106 -0.655788309781338
000230 58 ee f6 97 a0 de e0 bf 37 82 01 c3 8e 3c e5 3f
       -0.5271761863763897 0.6636422928532458
000240 ef 1b d0 a6 76 86 ce 3f 0c 4e db 51 d3 b8 f6 bf
       0.23847849984323896 -1.4201234052205818
000250 00 a8 69 18 80 c2 ba 3f 54 0a dc b5 e6 8f f0 bf
       0.1045303401566855 -1.035132131947326
000260 d5 a5 57 cf 38 1c e9 bf 95 37 1a 3a d3 39 e6 bf
       -0.7846950578361268 -0.6945587286770541
000270 82 a4 b5 d2 a5 38 f1 bf 1f 4c 8e a8 05 c9 bc bf
       -1.0763300162164176 -0.1124423538697532
000280 b5 91 5a 0f ea a9 77 3f 93 81 18 f5 93 ef a1 bf
       0.005777277275829486 -0.035030959767257695
000290 89 78 61 6b fb c2 ad 3f 01 94 89 44 a6 ec d4 bf
       0.058128220422745853 -0.3269439381895723
0002a0 0e 90 d5 fc 9a 01 db 3f 55 1b ee 97 98 fb d7 3f
       0.42197298708765707 0.37473120533870957
0002b0 ac 29 c5 cd c2 c4 b9 bf 4f 3b a4 bf 47 06 c2 3f
       -0.10065858386693688 0.14081665856834966
0002c0 51 bb ca 78 3e eb e4 bf bd b3 20 18 da 0f d6 bf
       -0.6537163123337938 -0.3447175250647055
0002d0 ee 92 b6 2f 4c 7d e2 3f 9a 95 b2 9c bd 90 d0 3f
       0.5777951175592457 0.25883426954745803
0002e0 89 a9 c9 fc 6b aa db bf 81 18 8c a3 05 e1 73 bf
       -0.43227672277739565 -0.0048532696025686
0002f0 3a 07 e1 b7 fb e7 c8 3f 06 9c 4b 0d f4 94 e0 bf
       0.1945795677038918 -0.5181827792811198
000300 c1 b3 33 29 e8 72 bc 3f f3 4a 31 92 35 ab 9f 3f
       0.11112833982379212 0.03092654900349152
000310 be 19 cd e7 84 90 e8 bf 59 3c 9e 9f c2 54 e1 3f
       -0.7676414992682152 0.5415967099705866
000320 dd 7a d5 4f c8 55 cb bf ea 19 38 e7 d0 f4 9f bf
       -0.2135553731740946 -0.031207336533066433
000330 55 51 47 35 7d 68 da 3f 31 a4 42 be cd 7b a6 3f
       0.41262750819193644 0.04391329715264936
000340 c7 36 76 9e 03 48 d6 3f fc ad eb 4d 21 d9 ad 3f
       0.348145394084764 0.05829719616107451
000350 d7 98 6c fa a3 26 a5 bf 59 48 b9 a1 c2 66 c3 bf
       -0.04131042892395136 -0.1515734948794172
000360 73 49 3f 90 13 fa c6 3f c4 4a 83 b7 e9 e3 c5 3f
       0.17950672667809506 0.17101785145367476
000370 4a 35 e5 1d e0 36 b8 bf 54 b5 52 3d a9 8e d6 bf
       -0.09458733301035696 -0.3524573420389363
000380 46 43 43 f0 dc 2a e0 bf 9d b0 07 c9 7b 78 df bf
       -0.5052323048240417 -0.49172873145904267
000390 fa eb a7 4d 87 1e eb bf 42 b3 c8 83 ad ea d4 bf
       -0.8474766270368257 -0.326823595710085
0003a0 15 30 b3 39 4b f8 d1 3f f1 53 b3 71 1c 13 e7 bf
       0.28077965388070086 -0.7210828991616137
0003b0 a3 11 33 b0 9d 9d d1 3f 5f b8 4d d8 95 4c d3 3f
       0.27524511534672963 0.3015493976917067
0003c0 f7 a0 7f 22 99 65 cc 3f a4 41 93 ac 67 62 d8 bf
       0.22185053047656542 -0.381006163149346
0003d0 59 1c d6 9e a2 56 d2 bf 00 2a ba df 77 0d d0 bf
       -0.28653779517521155 -0.25082203720435814
0003e0 80 8b 8b 45 07 2b 97 3f b5 09 08 38 a3 87 e1 3f
       0.022625077838607677 0.547807321010899
0003f0 a2 64 7d 1c d8 54 c5 bf ba 23 a2 05 76 9f cc 3f
       -0.16665173903564773 0.22361636424127856
000400 9b 47 68 5c a6 52 d0 bf b0 53 65 f9 38 f3 f4 bf
       -0.2550445463576751 -1.3093805067085036
000410 e9 4d 70 99 d7 de dd 3f 11 89 93 14 90 98 db 3f
       0.46672620758292155 0.43118669518857283
000420 15 f3 4f 1a 59 97 92 bf 82 e2 c8 f5 cc f4 b2 bf
       -0.018155472022033232 -0.07404786110499553
000430 47 8e f4 b2 43 1b df bf cb 5e 86 6c d0 c1 e0 3f
       -0.4860390899286568 0.5236589545847549
000440 3a da a6 f2 bc cc ab bf 3f de e1 c5 79 96 d7 3f
       -0.05429640256936748 0.368559306377822
000450 d5 69 87 0a 3d 13 d4 3f 44 54 15 27 f5 21 d2 bf
       0.31367422130793204 -0.28332260910730533
000460 61 12 cc a7 82 cd d7 bf 7a 4c ba b7 23 c1 d1 3f
       -0.371918357719812 0.27741330091630056
000470 4a 8c 7a a5 73 e9 8f bf 28 2f 52 22 91 a7 d2 bf
       -0.01558199261427808 -0.29147747375167166
000480 b3 49 1e ef c2 ad c5 bf d5 e5 f6 c8 c4 4a aa 3f
       -0.16936527896593886 0.051351689845840966
000490 19 bb 70 77 42 97 c0 bf a6 73 a0 8b 38 78 a3 3f
       -0.12961607772873476 0.038026587528498454
0004a0 16 02 51 4e 8f ed 66 3f 6f 1b 59 e2 61 57 dc 3f
       0.0027988242095775646 0.4428333959989947
0004b0 6c 8c 47 4c 63 48 f5 bf 43 13 76 18 76 1c ec bf
       -1.330172822920555 -0.878474281097262
0004c0 97 49 73 f0 a5 02 e3 3f 63 20 42 8a ba f7 bb bf
       0.594073266629766 -0.10924878955313626
0004d0 d3 cd 88 27 69 44 d0 3f 0d 46 19 4d a7 03 de 3f
       0.25417546139507613 0.46897299317524316
0004e0 20 e0 b3 14 df 73 9e 3f 23 4a df 38 a9 6c c1 3f
       0.029738889349545272 0.13612857129062758
0004f0 7c 92 ee ec 95 6c da 3f 33 c5 96 87 bb 5b e1 bf
       0.41287754190333437 -0.5424478195401775
000500 9a 29 82 e6 70 2b a5 bf f3 5d f0 1a 40 a5 b5 3f
       -0.04134705365966625 0.08455277116478736
000510 54 47 ee 35 02 49 c8 bf 7d 41 42 6e 5a a4 d8 bf
       -0.18972804673517862 -0.3850313259836396
000520 8d 6b 56 9a d1 20 ac 3f 35 a8 0c 34 6d 4e d1 3f
       0.05493788727763791 0.27041177828744206
000530 37 19 1a 86 3f d4 d4 3f 0c 85 8d 5e 48 30 e4 3f
       0.32545459838765417 0.6308938833937261
000540 c0 7d 91 7a ad 32 c9 3f f3 a9 3b 31 0b 9a e1 bf
       0.1968590591886663 -0.5500541650374643
000550 de af eb 93 be 46 b3 3f cb e8 80 50 2e b9 da 3f
       0.075298224557343 0.4175525461356641
000560 d3 a1 7b e9 8e 08 d0 3f 23 cb a1 a8 ab ba ed 3f
       0.25052235413616336 0.9290369313806405
000570 92 9c 8d d9 06 87 e2 3f 1e 3a ea 7c 69 be ee bf
       0.5789827584348066 -0.9607436599488357
000580 30 cf 71 6e c8 5b eb bf 36 d9 4f cf 8e 88 e9 bf
       -0.8549539715881789 -0.7979196595249849
000590 c1 41 8d 3c ff 60 e3 bf db a9 2c cd d2 60 c0 bf
       -0.6055904562618296 -0.127954816992612
0005a0 7d 81 16 c2 24 08 d6 bf d2 a9 7e 87 75 fc b7 3f
       -0.3442470450773028 0.09369597013452527
0005b0 79 f4 cd 01 4f 9f a0 bf cf 6f 55 d6 2d 3d e1 3f
       -0.03246542832401018 0.5387181459623153
0005c0 a8 37 a8 12 0b 0f d8 bf 05 75 8e 0b fe 12 a7 3f
       -0.3759181673238978 0.04506677523679951
0005d0 20 33 02 65 01 eb d2 3f 11 9b e7 9a 7c cf e0 bf
       0.2955935942089116 -0.5253279710276236
0005e0 20 40 de 87 ab 0a a0 bf bb 01 e1 05 33 ad d9 bf
       -0.03133140595957706 -0.4011962468539669
0005f0 0e 42 94 15 26 3e 9d 3f af 8c 60 b7 fd de b1 bf
       0.028557391230664968 -0.06980882384282226

transform_generator.0.bias f8 [64]
000000 43 f8 5d a1 70 9e e6 bf 1c 75 85 28 60 7f 00 40
       -0.7068408157063079 2.062195126126097
000010 53 59 6c 38 f7 ab c5 bf 7b c7 b4 0f 8d ed f1 3f
       -0.16931047682801167 1.1204958547136517
000020 47 5e 61 05 5f bc d2 3f 90 92 59 d1 0f d0 e2 bf
       0.2927472641508512 -0.587898167501935
000030 f5 02 bf 89 dd 0c d7 3f 4b 04 5c af 4a cd db bf
       0.36016024066707014 -0.43440501332230913
000040 5b a3 51 1f 4d f9 b2 3f 53 f5 18 92 7a ff bf bf
       0.07411653532620958 -0.12499204699357351
000050 47 80 4a e0 14 da ea bf 46 ca 4a b9 e8 0b fb 3f
       -0.8391212826427442 1.690407489583451
000060 12 a6 b4 c6 f2 d9 e3 3f 90 99 75 e6 d2 9b dd 3f
       0.6203550225229171 0.46263573175237926
000070 1c 21 9a 0b 8f 02 d8 3f 3f 22 9e 2b 04 2a dd 3f
       0.3751561749745791 0.45568947085897443
000080 a8 f1 7c 76 c7 bb b7 bf dc 50 77 89 04 02 e4 bf
       -0.09270903246664963 -0.6252463040241554
000090 72 ad c9 7c bb 49 cd 3f 48 4c 3a c2 da 5f ec bf
       0.2288126334491199 -0.8867009919653208
0000a0 2b 86 b0 e5 e5 c0 d4 bf 75 3d ad 71 8f 1e ca bf
       -0.32427356176967476 -0.20405762720700307
0000b0 3b d9 c0 02 7c 03 a1 3f d5 2c f4 25 08 00 f0 3f
       0.03322970899209784 1.000007770783488
0000c0 53 3d ea 8b bb e3 00 c0 2b d5 4f 3f 82 91 06 40
       -2.111197560392307 2.8210492082822802
0000d0 dc 90 11 20 87 e0 d6 bf 1c f7 2b c1 ad 1f d9 bf
       -0.3574540913744053 -0.3925585161631362
0000e0 bb bc a4 61 b1 f4 d1 3f 69 bf 0f 13 6d ef d4 3f
       0.28055986915110126 0.32711340772129077
0000f0 d3 bf 9c 5c 21 fe dd 3f bf 11 e7 6f 1d d5 e1 bf
       0.4686358837525379 -0.55726501327495
000100 a5 5b 9c 0b ea 06 d9 bf 40 b1 4b ac b6 6d c2 3f
       -0.3910470116983851 0.1439731923377483
000110 2f ee b4 0b 47 21 d2 3f a7 9f ea 3f f2 1a e0 bf
       0.2832810987781355 -0.5032893417710412
000120 e3 7f 51 c1 d8 3b e1 3f b8 ba 6e 23 b8 63 72 bf
       0.538555505347173 -0.004489630976350405
000130 00 ee 29 a9 d0 39 e5 3f b7 3a 86 83 0a 4e e2 bf
       0.6633075050335151 -0.5720264977297437
000140 43 a2 8d 0b cd af 96 3f 83 b4 7d 78 f4 40 b3 3f
       0.02215500243201719 0.07520988408733058
000150 15 00 57 31 14 86 df 3f 66 de fa c8 8d 91 c3 3f
       0.4925585252603935 0.1528794509265367
000160 0c d9 7d a1 74 ab e1 bf 50 6e 13 6b eb df d7 3f
       -0.5521796373493841 0.3730419679320436
000170 d1 0c f2 8a 17 1e e0 3f 27 b6 b6 f7 be 34 d6 3f
       0.5036733354358153 0.3469693583564059
000180 7b 95 8b d5 c9 49 e0 bf 55 d5 01 31 4f ee c6 3f
       -0.5090073748403222 0.1791476239483624
000190 e9 55 26 f4 7b 8e d6 3f 00 ab db 58 8a 07 e9 bf
       0.35244654505490175 -0.7821704612264
0001a0 1b 94 8d a9 35 28 c0 3f c8 57 85 af 9d 2f e8 bf
       0.1262271001716336 -0.7558124950544363
0001b0 0f be 42 3e 44 d7 7d bf ef 6d 68 90 d9 49 d0 3f
       -0.0072853723287802504 0.25450743772827783
0001c0 e9 cc f9 be d1 60 e5 bf f3 61 48 d1 07 76 d3 3f
       -0.6680687646861801 0.3040790122772982
0001d0 ae 61 f4 a6 49 b8 00 c0 d0 fb 0f 02 cd 55 02 40
       -2.089984230359014 2.291894928086073
0001e0 38 52 e2 c6 dc 2e e9 bf ad 6c ad b5 d1 00 ec bf
       -0.7869705090002475 -0.8750999973666659
0001f0 9d a6 9e f0 a4 40 e9 bf b7 9b ee 79 11 27 da bf
       -0.7891411494831179 -0.40863453776767805

transform_generator.3.weight f8 [64, 64]
000000 5e 96 fd 6f 9d 0a df bf c6 6b a5 d9 83 2e e6 bf
       -0.4850228875787702 -0.6931781054403181
000010 d8 66 8e 39 91 f4 a9 bf 2f 4c 0c 44 ad f2 b7 bf
       -0.05069402530280137 -0.0935467044003395
000020 07 a4 db 23 fb fc ce bf 79 8f cf fe 0a a2 c0 bf
       -0.24209536791684647 -0.12994515840466273
000030 2b c8 7e f8 87 e1 e0 bf f9 3f 75 aa 5c d7 e2 3f
       -0.5275306561873142 0.5887893037088353
000040 52 1f 59 75 4a 30 e1 bf aa 2f f7 c4 ed 2e e3 bf
       -0.5371448795276399 -0.5994786116584596
000050 a8 d8 36 fc e4 f2 52 bf 8b 52 42 8d dd 97 ec bf
       -0.0011565433677396628 -0.8935382613149881
000060 63 b7 d9 c5 2e 2b e3 bf 81 d3 55 97 5d 51 d3 bf
       -0.5990213264719667 -0.30184116152604906
000070 21 c1 65 93 ad 83 e2 bf 38 a5 b6 04 94 20 e5 bf
       -0.5785739783150669 -0.6602268306789147
000080 68 fa 63 d2 86 46 c7 bf e6 f1 f6 30 3b df b9 bf
       -0.18183980248427933 -0.10106248803544524
000090 db 96 a9 b5 5c 3f cb bf 64 26 5b a4 5e 6c b3 bf
       -0.21287115926968778 -0.07587234032248485
0000a0 d2 0e f7 b2 16 08 cf bf 6c 9d 3a b2 c2 8a dc bf
       -0.24243434656647495 -0.44596927075550385
0000b0 21 d1 b9 9b a6 9f c3 bf 57 d0 ac 55 ec 8b e5 bf
       -0.15330965617943895 -0.6733304665890597
0000c0 b2 8b 0a ea 77 61 d0 3f d6 56 b6 45 41 b8 e0 bf
       0.2559489999350105 -0.5224920617644908
0000d0 3d 05 9f d7 48 97 b3 bf 5c 25 65 19 16 49 60 bf
       -0.07652716888607798 -0.001987975275515792
0000e0 d2 f5 ec 8f c3 90 c8 bf bc de a4 0e e0 9d da bf
       -0.19191784408205464 -0.41588593893127856
0000f0 83 eb 26 87 4c 8d d0 bf 2c b0 99 eb 53 39 ba 3f
       -0.2586242027133993 0.1024372530170587
000100 0c 23 6a 72 5b 0e b3 3f 4d 0d 8c 01 5e 13 e7 bf
       0.07443782370877389 -0.7211141615120283
000110 dd e2 90 0e 72 68 e0 bf bf 55 bb 83 3d 53 66 bf
       -0.512749699067253 -0.0027252389389597893
000120 c3 3d ab a2 36 57 d2 bf 54 30 d5 2e 68 50 c9 bf
       -0.28657308469425063 -0.19776632582432063
000130 10 df 88 99 a3 28 e0 bf 77 50 f4 5d 00 26 b3 bf
       -0.504960822937365 -0.07479860585982744
000140 06 f1 e5 35 64 40 d7 bf 46 d6 76 7a 6a b9 d9 bf
       -0.3633051420545289 -0.4019418903293154
000150 e1 7d 4b cb ac 94 cc bf a7 bf 34 09 4f 27 c7 bf
       -0.2232872002268627 -0.18088710736765032
000160 bd c7 85 63 d8 06 b6 3f 96 e4 e9 77 44 c8 e1 bf
       0.08604195050955261 -0.5556967107833255
000170 43 c6 15 7b 1a 9c e5 bf 01 74 86 65 ab d5 e3 bf
       -0.6753055957798967 -0.6198327048219882
000180 e1 ca 08 bc 99 c1 bd bf a3 6f c0 59 0b 43 db bf
       -0.11623535957987087 -0.42596706166090764
000190 70 0f 40 27 0c 96 c4 bf d2 87 95 a9 61 3b e0 bf
       -0.16082908550753983 -0.5072487175168539
0001a0 e3 41 97 55 dd d8 cc bf 31 99 02 35 50 e1 90 bf
       -0.2253681819843357 -0.01648450206325797
0001b0 30 74 22 ca 36 0d e6 bf 7f 4e 98 40 ee 8e c8 bf
       -0.6891130397740479 -0.1918618979840296
0001c0 de da b6 80 f6 87 ae bf f2 7f 7c 1b 3e ca d9 bf
       -0.05963106461734012 -0.4029689091130414
0001d0 02 49 50 b7 c1 fd d7 3f fc 03 4c ef 5c 1b ea bf
       0.37486308004112356 -0.8158402131813314
0001e0 20 0d ec ea 95 57 a8 bf 73 04 bd eb 47 bf d7 bf
       -0.047543225218783514 -0.37104986211131247
0001f0 16 5a 40 c7 32 05 c3 bf 08 76 a8 2a 7f 29 b1 bf
       -0.14859614113875413 -0.06703944007355045
000200 3e 97 2d 93 f3 94 c1 3f ff d3 d8 97 68 e8 5e bf
       0.13735813795499924 -0.0018864652078154351
000210 8d 6e 29 4d cb 75 c6 bf c8 89 ea 5b 49 bb bb bf
       -0.175469792057687 -0.10832651609465593
000220 51 d3 1e 35 11 02 ac bf 87 3a 14 63 74 30 c1 bf
       -0.05470327161257294 -0.13429121816485098
000230 b2 88 34 eb a0 cc bb bf f6 3f 46 ce c1 e4 80 3f
       -0.10859113447489468 0.008248819453712013
000240 50 e9 b5 4d 55 08 ba bf 40 fa 42 fa cd 72 96 3f
       -0.1016896548007129 0.021922319793470146
000250 40 db a3 87 fb 84 c1 bf 55 c7 79 c2 37 98 bb bf
       -0.13687080500650417 -0.10779140947286454
000260 65 cc c0 3c 4a 38 b4 bf 09 37 ee 37 05 79 96 bf
       -0.07898391707640114 -0.02194603113053176
000270 eb a2 05 32 c6 6b c1 bf 62 40 67 f8 cb 7d b8 bf
       -0.13610150759202297 -0.09566950621160822
000280 82 fb 09 67 e9 a8 9e 3f 38 70 cc 7d d3 12 c5 bf
       0.029941222108841987 -0.16463702814587733
000290 c7 c6 3c e8 2d 35 c6 bf d4 d1 d0 60 cf 91 a4 bf
       -0.1734979042026252 -0.04017494255859658
0002a0 86 d1 88 1a d3 30 c1 3f ce 6e 19 0b 2b 67 a3 bf
       0.13430250926616 -0.03789648542871547
0002b0 10 1b 36 42 75 55 8d bf 85 88 53 d6 f9 4b 84 3f
       -0.01432315452872282 0.009910537579745924
0002c0 b4 19 3e f1 40 33 c3 bf 02 16 bc dd 10 05 b7 bf
       -0.15000163821623647 -0.08992104924626435
0002d0 4b 37 32 15 16 c5 a6 3f 3d 3f e5 f5 0f c1 84 bf
       0.044472398841306125 -0.010133862201342598
0002e0 be ba 76 30 31 15 c1 bf 0e fc 1c 10 27 9f 7b bf
       -0.1334592329635224 -0.0067435766121084605
0002f0 1e 29 cb c9 df 1e b8 bf 91 1b 75 f9 f8 49 c6 bf
       -0.09422110249139279 -0.17413246326961176
000300 40 86 bb ab 70 24 c9 bf a2 58 11 7f c1 3f 9b bf
       -0.19642456422211474 -0.026610396748161798
000310 82 36 7b d1 54 d9 ab bf 03 e4 e9 c6 db 5b a6 3f
       -0.05439248139519483 0.04366957476754154
000320 7f 98 b9 e8 69 9f bc bf a4 79 d3 06 d3 69 94 bf
       -0.11180746013414654 -0.019934937755232376
000330 09 43 cb 77 01 fa a2 bf 4d 68 d1 f4 d2 a4 a5 bf
       -0.037063642380990976 -0.042273132691392414
000340 f9 7b a2 e7 c2 30 a6 3f 0c 5a 0e 23 a1 4d b2 bf
       0.043340769553871845 -0.0714970312677467
000350 b0 e2 a9 b7 9c 75 b1 bf 02 2d ff 3d a0 4c b4 bf
       -0.06820086940741521 -0.07929421914666437
000360 e9 d5 84 bf 36 53 b8 bf 16 64 87 65 76 64 85 bf
       -0.09501974273447157 -0.010445523236670733
000370 1b 84 a8 6b ed b3 b1 bf f3 ac 82 6c f1 ec c3 bf
       -0.06915172460914258 -0.15566842840539827
000380 37 a2 44 8c 56 bc be 3f f1 5f 91 e8 5b 79 c7 bf
       0.12006131100191274 -0.18339108329632794
000390 24 33 34 85 7f 12 ab bf 0f 0c 1a d8 fb 41 a7 bf
       -0.05287550450348125 -0.04542529118500493
0003a0 f4 1d d2 40 83 49 bb bf ab d5 50 ac 44 10 b3 3f
       -0.10659046490228957 0.07446698386123411
0003b0 bc eb af a9 41 2e 83 3f ae 32 21 a5 57 43 c1 bf
       0.009365571013395406 -0.13486762583706507
0003c0 68 f1 9b 79 1a 82 bc bf e3 9e 9e 0a 63 63 a2 bf
       -0.11136022061322637 -0.03591451172479567
0003d0 c7 20 ca 14 b0 42 c6 bf f3 60 07 02 2f bb b0 bf
       -0.17391015067210544 -0.06535619544536413
0003e0 8d 79 3d 9d 78 e6 bf bf 16 f4 93 cf e4 24 a6 3f
       -0.12461046065207011 0.04325022729788246
0003f0 00 d7 78 e9 82 b0 c5 bf 09 e6 92 7e 0d e7 a5 bf
       -0.16944919967652794 -0.04277841730204208
000400 b0 5f 75 f6 24 2c c5 bf f7 d9 90 d2 de e4 fe bf
       -0.16540967973810217 -1.9308765626170705
000410 26 ab 90 e0 7a 05 b3 3f 88 d6 15 c5 6c 0f 01 c0
       0.07430236799761455 -2.132531680802291
000420 20 77 98 35 44 68 7b bf f6 64 6a bd 6c 50 88 3f
       -0.006691233103564703 0.011872148066049065
000430 33 d9 88 60 47 7f a8 3f ef 3f 2c 46 8d 56 a5 bf
       0.047846060308460635 -0.041675963226339145
000440 64 b1 58 1a 8b e6 e3 bf 75 c6 10 3f 80 b8 db bf
       -0.6218925013140901 -0.4331360450624751
000450 0f 0d 0f bf af 7e ba bf 92 44 b7 86 a9 16 fc bf
       -0.10349558271905245 -1.755532766565271
000460 cd 93 bb 0b 71 84 97 bf 79 63 35 14 69 4b 96 3f
       -0.022966162053211826 0.0217720430931396
000470 bf 3e f9 18 c5 78 e1 bf a1 4e 36 63 0f fa a2 3f
       -0.5459924209371464 0.037064057217461206
000480 a4 d0 57 6d 8c b0 a9 bf 0f 8a 09 2a d4 9f a5 bf
       -0.050175083491837996 -0.042235021716596426
000490 8f ee b8 e1 02 03 bd 3f d9 09 fe 5a 6d 21 84 bf
       0.11332719813156643 -0.009829382266393448
0004a0 1b 95 37 1a b4 38 d4 bf 19 eb 62 37 0d 6d b0 bf
       -0.31596090851083297 -0.0641639957638457
0004b0 df f4 8d 7d 6b 07 c3 bf ac 68 cb 53 f8 6f f0 bf
       -0.14866393690673527 -1.0273364327645522
0004c0 89 f1 d6 99 2f c8 e4 bf a3 d0 c8 9d ac c8 0e c0
       -0.6494367603950632 -3.847985489550483
0004d0 de 2f d3 9d e0 36 d3 bf 5e 44 dc 66 0d 64 a6 3f
       -0.3002244511851567 0.04373208885784473
0004e0 45 e4 7a 9e ae 34 c8 3f 70 9f 4c 8d 10 2a ae 3f
       0.1891077302769039 0.0589146778568751
0004f0 e4 18 76 eb 07 81 d9 bf bb fa 8a c3 0c fc da bf
       -0.39850042337674396 -0.42163390251145544
000500 96 c2 8e 16 ce 18 ef bf 73 58 3d 1f af bb 49 bf
       -0.9717779579714996 -0.0007853131378208325
000510 93 73 88 6e eb 2b 95 3f 67 9c 73 e4 c7 3b b7 3f
       0.0206753526891706 0.0907559330695321
000520 6e 92 b6 f2 2c 54 a6 bf 29 6d 50 bf 50 22 d7 bf
       -0.04361095869834207 -0.36146944697402944
000530 0c d7 a5 00 42 7d c7 bf b5 19 c2 03 31 3a d1 bf
       -0.1835100653803966 -0.2691767250729769
000540 fc 0e 93 87 e3 61 c5 3f 7e a5 36 5f b2 21 e7 bf
       0.16704982871862473 -0.7228633746755546
000550 0e 98 ac 82 cb c3 b9 bf 24 24 d3 95 54 a3 db bf
       -0.10064384403503387 -0.43184389716458527
000560 27 7d c5 d2 aa 43 a6 3f 75 1e 02 19 4a c1 c6 3f
       0.043485010365424785 0.17777372571093833
000570 8b 59 f7 4f d8 48 c4 3f b3 e5 cc d1 31 0b b8 3f
       0.1584730520687113 0.09392081615523899
000580 df c8 29 44 28 ec b8 bf 56 3d 35 b6 df a1 c9 bf
       -0.0973534742750277 -0.20025249859689137
000590 5a 32 4e 92 aa 7e da bf 7e 90 fc c9 7f a5 e0 bf
       -0.41398109710352105 -0.5202025361109148
0005a0 d3 ff 0f c5 72 49 c8 bf d4 be 70 9b 1f d3 b0 bf
       -0.18974146482650997 -0.06572148842746667
0005b0 d7 5e 03 92 eb f9 97 3f b0 ae 99 de 2e c4 c0 3f
       0.02341430739110603 0.13098703259617173
0005c0 d2 3c 20 d1 c0 1c b8 3f 6e 2f 5b 2a 95 86 c0 3f
       0.0941887388764713 0.12910713737653218
0005d0 38 c3 6d 29 bf 7d f0 bf 4a c9 dd 60 a4 b7 00 c0
       -1.0306998842535915 -2.089668995636349
0005e0 8e d3 87 a0 e2 37 aa 3f 3a 34 0d ac 15 e0 ca 3f
       0.05120762071229655 0.20996352101283994
0005f0 fa eb bd 25 fc ce 9b 3f de e0 dd 30 3d e9 d0 3f
       0.027156772426206267 0.26423578045024765
000600 8f ba 64 20 c9 5a d8 bf 39 2e be 90 08 ae f6 bf
       -0.38054111636567084 -1.4174886373538256
000610 fc 98 22 ab 99 ba aa 3f 68 ec 9b ee 3a 68 f2 bf
       0.052204897060891015 -1.1504468269984276
000620 ff fa 77 3d 8d 4c bb 3f 47 d0 2f b8 84 74 6d bf
       0.10663683653545418 -0.0035955993821464058
000630 03 d6 96 0b 78 87 b6 3f c6 fe 11 f5 53 1e c9 3f
       0.08800459177913215 0.1962380358345312
000640 4c d1 2b c6 62 78 d8 bf 65 92 0e 6c 81 b9 e4 bf
       -0.3823477683320291 -0.6476447210776085
000650 5e e5 99 59 06 b9 cd bf c8 fc a5 54 f6 6c f5 bf
       -0.232209008932652 -1.339102106721656
000660 82 54 28 66 e2 0b bc 3f 25 ed 38 20 52 84 8d bf
       0.10955634111481241 -0.014412538154934549
000670 2c 47 7d ba 97 f8 c0 bf 01 2b e5 ae ea b8 b5 3f
       -0.132586446818601 0.0848528553953365
000680 19 a1 ec d0 61 06 a5 3f 77 7e 4a a3 0d 4c bb 3f
       0.04106431651445259 0.1066292308482789
000690 47 59 72 b9 08 0b ba bf 37 e6 d0 17 5f 07 a3 3f
       -0.10173086669451435 0.037165614754894376
0006a0 f2 2e d4 32 81 1f bb bf 74 b5 9d 0d 99 22 c2 3f
       -0.10594947329462537 0.14168084301801864
0006b0 a5 e2 fa 6f 52 93 b4 3f 16 68 65 38 f1 1e f2 bf
       0.0803729556454394 -1.1325542643521707
0006c0 e2 c3 6e fc 52 12 c3 bf d2 c1 d6 2b 63 82 05 c0
       -0.14899670911611823 -2.6886657166398686
0006d0 eb c0 7a 79 a6 5f c4 bf 4d a5 6b 70 59 bb 90 3f
       -0.15916901523224367 0.01633968113575195
0006e0 91 ec 08 0a 66 2a c1 bf 0d 50 54 3b 00 a6 7c 3f
       -0.13410640230162987 0.006994248299879058
0006f0 c6 22 a3 8c b3 00 bd bf 31 49 b3 68 67 f9 dc bf
       -0.11329195197607608 -0.45272240852968354
000700 6d 68 03 8e 3a 2c d8 bf 33 ef 67 77 38 f3 c4 3f
       -0.3776995074127914 0.16367250280733855
000710 ee 1c 83 b7 f9 d7 c2 3f 95 a3 2c 9b 16 b5 b0 bf
       0.1472160478644819 -0.06526318825184625
000720 49 a8 c3 ff 7a 01 b1 3f 84 6a fc a9 31 d6 ab 3f
       0.06642884010548857 0.05436854553245943
000730 20 16 24 12 aa 87 cb bf 32 80 5e 37 26 c1 c3 bf
       -0.21507764707364263 -0.15433194831439462
000740 4a b6 eb 52 ce 48 ad 3f 15 9f 93 33 2b cd d2 bf
       0.05719609033790769 -0.29377250706464625
000750 8d 70 4c 28 61 c4 c3 bf 96 0e a7 5d c0 98 c6 bf
       -0.15443052737908083 -0.17653660366896834
000760 0d b7 1f a9 f1 17 bb bf e0 e4 a1 86 ba 93 7b 3f
       -0.10583410624505181 0.006732681862666484
000770 cc b7 9c 7d f3 30 af 3f ef 01 ec 8b 61 1d b2 3f
       0.060920342525022514 0.0707608191114628
000780 93 f7 ad ef 3a 0d a6 bf fa 1d 9f cc eb 2b 95 3f
       -0.043069688565977725 0.020675358165844294
000790 c9 0c 02 91 5d 15 db bf 52 4c f9 95 0c 37 c9 bf
       -0.4231790462583374 -0.19699246714535207
0007a0 df 59 16 31 64 86 b4 3f 50 d6 ba eb 67 9d c0 3f
       0.08017564962788225 0.12980364809270606
0007b0 97 fd 6a a6 8c 26 c8 3f e8 04 ca 65 27 38 a3 3f
       0.18867643476367554 0.037537795234138305
0007c0 7b 80 5d 24 91 71 88 3f d7 a1 ff a8 e3 85 b8 bf
       0.011935361788062196 -0.09579298854772077
0007d0 8e fd b7 d1 e0 3a c6 bf eb 03 c4 1a 20 5f f6 bf
       -0.1736718200699951 -1.3982239766630709
0007e0 91 a3 7f 46 d8 5c 8b bf 19 9b e6 af 2b 15 a0 3f
       -0.013360681201406684 0.03141151926256764
0007f0 29 71 d6 7d 92 24 61 3f 00 fb e8 b4 a8 39 a0 3f
       0.002092634311976611 0.03168990333914756

transform_generator.3.bias f8 [64]
000000 e0 3a f3 a7 42 27 e6 bf 2c c9 a1 16 05 0e 94 3f
       -0.6922925262714124 0.019584731584879098
000010 ed 73 29 8d 32 a4 b0 3f 43 99 fa 1b a5 f3 27 3f
       0.06500545450531066 0.00018273725981039256
000020 e9 d1 8e 6c 90 8b bb 3f 0f 27 7e 4c 95 3d c0 bf
       0.10759833002413867 -0.1268793700694961
000030 21 7c 1e c3 2e c9 c3 3f 07 04 da c8 50 ff a7 bf
       0.15457710768984703 -0.04686977817346621
000040 01 36 f6 88 8a 7e c7 bf 5f e6 18 66 e5 0f 78 bf
       -0.1835492295034982 -0.0058745346919351895
000050 54 d4 d1 1f c1 2e c6 bf 64 b6 d5 14 08 ca a7 3f
       -0.17330183080381067 0.046463253539383215
000060 ef ad 04 38 a7 0e b6 3f 60 d8 72 5e 52 05 a0 bf
       0.08616109006532445 -0.03129060175835785
000070 41 21 21 05 cf 94 cb bf 3c cb 7b 1b db 9d c4 3f
       -0.21547878027400638 0.16106737939807114
000080 c0 ff d9 11 5f ad c1 3f df eb c8 8f 51 a9 b5 bf
       0.13810337421091212 -0.08461484680530827
000090 a7 83 27 cd 00 a7 ac 3f 08 f4 68 43 9f 68 cc 3f
       0.05596163276982873 0.22194281379225367
0000a0 35 a7 07 09 d5 93 79 3f eb f1 80 b2 85 2d c3 3f
       0.0062444993677475595 0.14982672897339397
0000b0 3b ae 92 a7 91 59 a8 3f 2d 9a 7a 89 66 b4 c6 3f
       0.04755835695808882 0.17738038742864273
0000c0 98 4c 0d d9 92 38 cc 3f 24 92 24 94 ac 95 a5 bf
       0.22047649000396485 -0.042157548030705067
0000d0 e3 55 81 d2 af d6 be 3f 67 9a b7 f9 49 c0 b6 3f
       0.12046336068427581 0.08887159678088495
0000e0 4d d9 e4 46 c4 c7 c5 bf aa 21 5c 14 29 2a bb 3f
       -0.17015889608019066 0.10611206767146678
0000f0 52 f6 2b cf d8 fb a6 3f 8c 65 13 f1 78 0a 75 bf
       0.0448901894469428 -0.005136940411114021
000100 85 9f 68 27 30 86 8f 3f 3d ef f3 93 6e 57 bb 3f
       0.015392662241609187 0.10680285560732457
000110 79 23 fd c9 54 8d 7d 3f 58 98 37 0f ae 3f c5 3f
       0.0072148620673225744 0.16600585692430303
000120 a7 9c 97 0a 3f 05 b6 3f cb 23 7d fb bc a2 a0 3f
       0.08601755150413003 0.032491594027824165
000130 ad 3d 62 63 ee 78 a1 3f 2a 74 1b d6 77 81 a2 bf
       0.03412575686626993 -0.036144013296258784
000140 15 7f 0b ab cc 4e 95 bf d2 13 d2 4a 8f cc 8c 3f
       -0.020808408679726293 0.014062041731685602
000150 7c 17 7b d9 6c 1d b1 3f e8 d5 a2 bf 75 a5 c6 3f
       0.0668552428206492 0.1769244371150045
000160 1c e6 28 52 06 78 99 bf da a5 0e 8e 1f 05 a8 bf
       -0.024871920361169683 -0.04691408738228704
000170 e4 67 a0 2f de 3c d1 3f 06 78 68 20 a8 52 c1 3f
       0.26934008265527454 0.13533498365808344
000180 48 6d e8 9c 9f 74 b2 bf ed bb 95 93 f7 98 82 bf
       -0.07209203320274071 -0.009080824080880812
000190 1d a8 7e 46 ee ad b8 3f 75 98 8d fc 35 75 aa 3f
       0.09640397282660769 0.05167549808429409
0001a0 1b e8 cf 7d 3f 48 c9 bf 2d ab 19 08 6e 75 a3 bf
       -0.19751733439608263 -0.038005293358614224
0001b0 75 6b 25 14 7d 62 b3 3f f1 f0 8f 2a 5f 87 cc 3f
       0.07572156659936786 0.22288121774898387
0001c0 30 af 79 4e 1d a3 a5 bf 5f d5 f2 84 7a 13 72 bf
       -0.04226008971167372 -0.0044131074820844265
0001d0 ac a2 68 68 57 70 9e 3f 5b 8b 62 90 7d 7b a0 bf
       0.029725423572161944 -0.03219215762626134
0001e0 1e bf 7a 48 22 4a 59 bf 20 81 38 d2 94 92 b8 3f
       -0.00154355380974986 0.09598665363637737
0001f0 ce 88 d1 d0 32 8f a8 3f ef b6 31 4e a2 39 a7 3f
       0.047967517843760285 0.045361587567510735

transform_generator.6.weight f8 [64, 64]
000000 0e 56 cf 37 d1 d0 d1 bf da 6e 55 70 1a 27 b3 bf
       -0.27837019396005835 -0.07481541864893462
000010 e7 34 ee cb 19 56 bc 3f 01 23 29 ff 78 ae 79 bf
       0.11068879345676273 -0.006269905703967239
000020 81 2b 6d 4f 89 11 b4 3f d3 e3 dd 54 70 07 b1 bf
       0.07839258374330706 -0.06651975700323413
000030 d5 1f d9 9a c4 96 a8 bf 34 32 06 a5 3c 68 b4 bf
       -0.04802526846157177 -0.07971552876387805
000040 e7 cd 5a 02 5d 9f c8 3f b9 d4 67 aa 17 57 67 bf
       0.19236338248229787 -0.0028491461009659516
000050 7c 77 00 f2 ff 89 64 bf 70 61 8e 9e d4 28 b5 3f
       -0.00250720967598189 0.0826542746639285
000060 2d 06 cf af be a1 a7 3f 21 b0 54 ed f7 ad ab bf
       0.046155890427609904 -0.05406164905647893
000070 7d 3b a2 bd 74 c0 69 3f 3a ec 37 ed f1 71 c3 bf
       0.0031435279934792213 -0.15191482623035474
000080 fd d1 98 cb 6d e0 be 3f e4 ae cf 78 b8 69 d0 3f
       0.1206120130598904 0.2564526729390606
000090 18 5b 5b 07 a7 ea c2 3f ff 5c 51 13 77 c0 b3 3f
       0.1477860246584093 0.07715553495050996
0000a0 c7 a7 11 10 bd b1 b6 3f c5 7a b0 b8 ec 8f 94 3f
       0.08864957468327282 0.02008027913336254
0000b0 34 04 7f 53 19 97 b0 3f 41 12 69 14 f8 31 c1 3f
       0.06480558670502107 0.13433743473628293
0000c0 4b 83 d9 31 be f2 aa 3f 23 a8 28 53 14 68 a2 bf
       0.05263323172108033 -0.03595031275865803
0000d0 05 02 0d 28 68 7e be bf 87 cd fe 4b 26 97 c1 3f
       -0.11911631562998799 0.13742521963795815
0000e0 e4 d7 26 ba 54 cf af bf 17 c4 ca 1a e3 d7 b0 3f
       -0.062128684733963074 0.06579417614081283
0000f0 b1 14 70 8e e1 f5 96 3f 2a 03 6e af c2 72 b3 3f
       0.02242233688231882 0.07596985609962972
000100 37 90 dd e2 24 0f 65 bf 06 4e 56 da ea 4e b8 3f
       -0.002570697825762049 0.0949541838693265
000110 84 c5 6f 20 e0 d4 92 3f 59 00 4a 14 75 3e a3 3f
       0.018390180568478978 0.03758588669461522
000120 e9 68 cd 00 5d 40 9b bf d2 e5 e1 c1 bb 20 c1 3f
       -0.02661271397969581 0.13381144492068003
000130 33 4f 7c f9 fa fd a8 bf 44 00 48 12 e9 4a c5 bf
       -0.048812716440947666 -0.16634858505858763
000140 64 7d 02 43 7a 28 8f 3f 7e b4 a3 b2 02 8d d9 bf
       0.015213923616385024 -0.399231600239382
000150 95 e0 b2 11 c8 aa 90 3f 4f 50 c5 67 ee 0c 79 3f
       0.016276479797597238 0.006115847845951163
000160 cf cc 00 9d af e9 b0 3f 0c e9 97 3e 11 4f a6 bf
       0.06606576521953687 -0.04357198609428012
000170 7c 60 d2 7f 3f 76 c0 3f 72 67 ff 88 6c 1b c8 3f
       0.12860864392564852 0.18833691300715888
000180 79 6c 3d 10 28 d1 a9 3f 9b cc e0 c1 c8 3f b8 bf
       0.05042386244050418 -0.09472326978066052
000190 60 31 e7 22 72 50 5d bf 1e 07 e0 6c a3 bb e2 bf
       -0.001789199315328359 -0.58540507568998
0001a0 4b 03 5e 45 89 94 e2 bf a1 4d f8 89 55 7f 88 bf
       -0.5806318621472227 -0.011961620591171509
0001b0 9f 1a fa 36 ba 61 98 3f 53 52 ad e4 43 89 a9 3f
       0.023810300450828433 0.04987537542789213
0001c0 30 3f 0e 4e 2a 35 71 bf 6d 4c 01 af 9f ce c5 3f
       -0.004201092961821293 0.17036815686387588
0001d0 39 88 e9 6e 11 cd a1 bf 12 d0 34 da cf 89 bc 3f
       -0.034767670430270355 0.11147784306814426
0001e0 eb e9 87 0a 33 4d c2 3f 88 73 22 4b 9f 91 6f 3f
       0.14298093809323062 0.0038536177826941666
0001f0 74 c2 b4 36 db 1b b6 bf 2d eb 75 63 69 ca 89 3f
       -0.08636255345914795 0.012593100879475816
000200 26 4b c2 a8 b9 bd bd bf 59 94 be 1f aa be c3 bf
       -0.11617622728435303 -0.1542561202051356
000210 35 e7 a3 50 28 e6 c2 bf 2b 60 39 72 92 ac bc bf
       -0.1476488488913731 -0.11200824059176344
000220 73 10 39 b3 b6 52 86 bf 76 c8 cb 4f 70 30 c2 bf
       -0.010899951309632372 -0.1421032323483506
000230 f7 d4 07 4d 29 2d c9 bf e8 5a 1c 9e e9 e4 bb 3f
       -0.19669071446666184 0.10896167860151318
000240 49 af 8b f7 7b 3b c4 3f 73 7c 99 27 63 cd 9c 3f
       0.15806531512441271 0.028127240459408797
000250 ab b5 54 d9 c1 3d c3 3f 00 09 d1 ee 32 34 51 3f
       0.15032218086109359 0.0010500428573015363
000260 58 0d 8b da 1e 65 d4 bf 66 1a d5 0c e0 0d bb 3f
       -0.318671906872813 0.10568046868602607
000270 13 d4 99 f8 cd 22 ab bf 4c da 86 d3 56 ca b8 bf
       -0.052999912831104855 -0.09683745063998933
000280 48 7a be ee 39 76 c6 bf bb f1 a8 4c d7 05 a8 bf
       -0.17548298032211762 -0.04691956339636102
000290 98 4b 9f f4 bb 12 9d bf 56 b7 09 f0 e4 0f d7 bf
       -0.028391777806813318 -0.36034511033255023
0002a0 9b 47 2f 82 a3 04 b8 bf 41 a9 67 84 8c 7e ab bf
       -0.09382078102433271 -0.05369986645003389
0002b0 02 9a d5 e9 84 32 c1 bf da b7 7b e7 36 03 ca bf
       -0.13435422342008968 -0.20322309782881015
0002c0 d7 fc 67 32 1c 20 cd bf 6b 52 73 de d9 78 c6 3f
       -0.22754242383232423 0.1755630813774077
0002d0 b7 e1 3d d8 da c8 93 3f 36 de 15 e3 10 b4 b6 bf
       0.019320887993190285 -0.08868508857801136
0002e0 63 c7 d4 e8 97 5e 6a bf 76 a7 14 3d 1d 1e c4 bf
       -0.003218933771358333 -0.15716901285605517
0002f0 cd 0c d9 76 45 58 bc bf e7 d9 89 05 84 a4 9a 3f
       -0.11072191382941128 0.026018202627222122
000300 2e bc f1 f0 e8 a3 c2 bf cb 7e 47 fc 9c 26 c9 bf
       -0.14562713398797328 -0.1964908820946135
000310 49 2c c7 09 51 0b ae 3f c6 e9 1d 68 a6 7a d6 bf
       0.05868008846626844 -0.3512359635130021
000320 68 23 12 6a 2e 3a bf 3f 30 fe 38 bf cb 49 ca bf
       0.12198152627582959 -0.2053770717338792
000330 bb 7b 14 de 5f 19 c7 bf f1 45 d6 48 7e cb b8 bf
       -0.18046186774969705 -0.09685506132361589
000340 5a fc 5b 13 05 3f b9 3f 1e 88 3b c1 2c d8 c1 3f
       0.09861785624160416 0.13940963206465623
000350 ab 92 65 01 89 ab d3 bf f6 40 9a d2 29 ea ca bf
       -0.3073446763649296 -0.21027109893157786
000360 9b a3 73 ef d9 91 c8 bf 50 6c 97 88 44 e8 ad bf
       -0.19195102874735145 -0.05841268699051538
000370 38 08 6c 94 cc ce b7 3f c9 e8 10 e2 2d 05 a0 3f
       0.09299925445159907 0.031289514394715896
000380 40 5f 6d f0 d9 bd bc 3f 75 1e 94 8c ae 78 d0 bf
       0.11227190131955656 -0.2573658345067778
000390 6d 5b 37 01 f2 77 b9 bf 2f 29 29 6f 0b 81 d9 bf
       -0.0994864705056508 -0.3985012612871683
0003a0 1a 36 a6 b4 e5 a1 e6 bf 1e 69 64 63 a4 15 b4 3f
       -0.707262852507202 0.07845523287361231
0003b0 e0 48 a7 27 96 72 91 3f f8 49 6f c5 6a b2 c9 bf
       0.017038675470595233 -0.20075735702864939
0003c0 7b 67 e6 5d fc 91 ab 3f 41 8b a4 52 3b 8e d4 bf
       0.05384815832367359 -0.32118113585072555
0003d0 d9 92 2f 12 40 4c d1 bf cb 0a a4 89 d3 c2 c3 bf
       -0.2702789476009407 -0.15438312741033253
0003e0 fa cf 28 c8 b7 41 90 3f 5f e1 41 a8 b5 0e d4 bf
       0.01587569388557595 -0.31339780265218126
0003f0 c9 22 59 df e0 1a 82 bf 64 2c c5 20 36 0b 99 bf
       -0.008840328994794604 -0.024456830740103533
000400 1e 48 38 9e 48 ee c6 bf 3f fd 3b 3a af 3c be 3f
       -0.17914684033945688 0.11811347171532292
000410 f1 16 b4 95 e4 d9 b1 3f 78 df 41 41 1e 58 c8 3f
       0.06973103194112774 0.19018915354149235
000420 74 14 0a 62 b4 1e c8 3f 62 87 b0 70 14 16 bc 3f
       0.18843703066901052 0.10971191168985464
000430 76 45 24 16 39 5d 90 3f 7f 01 c6 8d 8e 9a 6d bf
       0.01598061750070686 -0.00361373751201216
000440 3f 62 a1 7d 7c d0 c8 3f 59 a3 7a 9e 8b f0 c3 3f
       0.19386249670312058 0.15577836263880832
000450 3b c9 dc 6b 39 a8 a5 bf d4 8b 87 26 89 64 76 3f
       -0.04229907457046741 0.005466972107089203
000460 5b c6 aa a4 d4 83 c5 3f 47 00 dd 2e ee b9 c0 3f
       0.16808565178284848 0.13067414558645593
000470 f5 41 18 a9 60 3e c3 bf 7c 21 0b 52 dc 71 c1 3f
       -0.15034111267642883 0.13628725057629854
000480 45 41 1b 36 8e 7d c6 3f 4b 34 6c 6a 69 3d b4 3f
       0.1757066501800272 0.07906206939897335
000490 cc 6e 11 6e 7c 62 c2 3f 48 55 35 3c f1 f6 c4 3f
       0.14363055586260598 0.16378608169422137
0004a0 c7 14 0f d1 5a 94 71 3f 91 77 f5 2e 5e c1 c6 3f
       0.004291872742162534 0.17777612011826396
0004b0 c0 6b c8 8e 8b 2f bd 3f 63 50 38 4d 18 b0 c7 3f
       0.11400673137579442 0.18506149073130293
0004c0 cb 16 47 7b 89 4d c6 3f 3d 58 4f cd 57 cb a9 3f
       0.174241242593942 0.05037950879311424
0004d0 e8 cc 11 aa af 85 7e bf 9e 8e 05 a7 08 a6 6d bf
       -0.007451711834721687 -0.0036192101471657764
0004e0 4e 98 82 2a 3b a1 b6 3f f3 12 a0 fc 10 6d b7 3f
       0.08839769161076669 0.09150797050103758
0004f0 f7 24 cc 0e 5e ae b4 3f c5 16 50 ff a9 f1 90 3f
       0.08078563557878114 0.016546875198421036
000500 be 6c 97 7c 92 4b 90 bf b9 c6 6c 79 7f 96 af 3f
       -0.015913285116636137 0.061695083210350395
000510 8b 39 04 8c 5a 37 ca 3f dc 18 2c 7a e5 45 92 3f
       0.20481426083319962 0.01784475858860267
000520 35 82 20 a4 30 cb ca 3f 5e 0d 74 38 d7 3f a7 3f
       0.2093258668328574 0.045408940926814564
000530 c9 c8 e8 77 bd 2c 99 3f ef b3 7c fd c2 5f af 3f
       0.02458473247879381 0.06127747864079668
000540 a1 3b fa 6c 23 63 b7 3f 12 d3 88 90 39 cb b4 3f
       0.09135648165304967 0.08122596529649354
000550 95 07 69 1d 01 28 af bf c2 6d ab 3b cb 92 be 3f
       -0.06085208400737866 0.11942739683893591
000560 cd fd 69 5a 52 e6 bd 3f 04 e4 5a 12 56 53 b5 3f
       0.11679568011640314 0.08330285976525437
000570 bb e4 ae 0f 98 2b c0 3f 7f a6 aa 4a e1 b8 c1 3f
       0.1263303829744354 0.1384545912344954
000580 0e ba 9d e6 da f2 64 bf 5d 23 8e c3 e4 c4 a5 3f
       -0.0025572085768808045 0.04251780402325409
000590 33 f3 61 73 82 fa b6 3f 69 ad 9f d8 a9 96 c3 3f
       0.08975997273405482 0.1530353839619736
0005a0 b5 59 88 7a ac 3d bf 3f e2 0c 14 91 45 bd b7 3f
       0.12203481666106238 0.092731807631981
0005b0 83 08 30 fa 37 16 b5 bf bf 8e 68 cd 89 89 8f bf
       -0.08237027986618455 -0.015399052220409158
0005c0 d0 cb 9c f2 c0 e3 c2 3f 98 8f 52 9d 57 62 aa 3f
       0.1475754913932108 0.05153154178086011
0005d0 44 e6 68 4a 4a 50 9c bf 07 16 fd 01 8b c6 b3 bf
       -0.02765003279839663 -0.07724827574300984
0005e0 8c 23 56 96 ce cf be 3f b7 d3 e1 69 79 b4 b3 bf
       0.12035838289570061 -0.07697256884587388
0005f0 db 6e 74 4d c9 52 c6 3f 40 b1 14 38 fb 12 a6 3f
       0.17440143854115928 0.04311356601314964
000600 89 0e b4 2e 6d 29 c7 bf ab 5e ab 21 bc 8d b3 bf
       -0.18095173626362662 -0.07638145277030144
000610 d1 a5 58 25 a2 e8 7c 3f bf 78 96 5f ad d7 9f 3f
       0.007057793981894504 0.031096180876936993
000620 3a 09 63 1b 0a 30 88 bf 1c 9a 9c af da b9 be bf
       -0.011810378037243486 -0.12002341067691485
000630 88 e5 fb 07 0f 4a b7 bf fc 5e 56 8b d4 88 c4 bf
       -0.09097379631920977 -0.1604257278784117
000640 21 01 25 2d b8 b2 b0 bf f6 4a 46 f8 7e a8 c7 bf
       -0.06522704221879795 -0.18482958910734454
000650 08 3a 75 9b f1 80 b2 bf cc 89 44 8e 5a 30 a0 bf
       -0.07228002591475768 -0.03161890970865819
000660 9c 86 14 2c 61 37 9f bf 10 ff a7 f2 f2 6e c7 bf
       -0.03048469382804929 -0.18307339523743638
000670 a0 ab 96 4a e5 b6 b3 bf d6 35 30 b7 14 ab 85 3f
       -0.07700951643953013 0.010580217209304726
000680 08 a9 61 2d 00 0f b4 bf 44 16 2f 58 fd 45 a2 3f
       -0.07835389240213797 0.035690228476181335
000690 96 ee 0f 28 6b e1 c1 bf 37 a0 19 5e 55 be c0 bf
       -0.13969172912753852 -0.13080851645213595
0006a0 f0 57 28 16 7f c6 b2 bf d0 6d 59 27 e0 ab 95 bf
       -0.07334131518322784 -0.021163465882961863
0006b0 af 78 2c ba 11 99 93 bf 88 fa 1f c5 88 0b c4 bf
       -0.01913860033811748 -0.1566019976161963
0006c0 9e 24 34 b9 24 5e b7 bf 0c ae de d4 cd ca c1 bf
       -0.0912802650601798 -0.13900158781085314
0006d0 14 99 df ad cc 2d c2 bf 68 39 44 16 53 09 b0 bf
       -0.14202269067681839 -0.0626422814714026
0006e0 5b 0e 86 02 bd ee b3 bf d3 d0 5d 16 2d 58 b4 bf
       -0.07786160766232213 -0.07947046085411395
0006f0 3e 9e b0 91 44 a5 7c 3f 81 c5 d1 20 53 94 a0 3f
       0.006993549202014613 0.03238162780406651
000700 a0 73 ab dc 12 05 a6 3f 26 88 46 d9 fa f7 b2 3f
       0.04300745910379722 0.07409637264802935
000710 29 a6 7d 51 f9 93 c0 bf f9 af 11 74 1b 03 83 bf
       -0.12951580504459173 -0.009283270339629711
000720 c1 cd 34 21 21 27 a8 3f a6 a5 29 2c ae 8b a3 bf
       0.04717353372907552 -0.03817505158515226
000730 59 1f 28 41 87 93 ae 3f f6 f8 67 cf 46 50 ab 3f
       0.059719301894857586 0.05334683687031998
000740 0b 4a ce 51 23 7c b0 3f 5a ca e0 7a fc 32 95 3f
       0.06439419505321824 0.02070230960834816
000750 9e c4 81 a3 f5 5b c4 3f c7 f5 07 7b 05 13 b7 bf
       0.15905638202415145 -0.09013399366082019
000760 7f 4d 4a 83 4b 6d 83 3f 07 0d 85 fb 04 15 d3 3f
       0.009485807365570363 0.29815792620156895
000770 31 1b 5b ea a8 5c c1 bf 8d d8 e0 b6 f7 f7 9a bf
       -0.135640253478607 -0.02633654645634258
000780 48 76 a7 b5 ea 7f c6 bf 3a 62 fe a7 0b 2a c1 3f
       -0.17577871198493455 0.1340956278115913
000790 1e 39 ee 57 3f a0 af bf c7 60 e6 b6 e8 55 bc bf
       -0.061769465907774754 -0.11068586793260514
0007a0 ad 50 0a 8a f1 40 b3 3f a1 bb 83 70 19 3a 9c bf
       0.07520970935940126 -0.027565381519646718
0007b0 89 5f e4 aa d9 c2 a8 3f 4e 57 b9 0c 42 68 c1 bf
       0.04836158953747744 -0.13599420186317918
0007c0 c7 92 e8 b8 ef 26 aa 3f ba 2a 98 b2 ac 33 bf 3f
       0.05107831127341949 0.12188224182333843
0007d0 01 75 95 0f 50 30 b3 3f 43 6a 3d 6d f8 48 9c bf
       0.07495594387497208 -0.027622110049700287
0007e0 b8 d0 23 1c a6 6f bd bf 99 a4 71 d6 30 a2 79 bf
       -0.11498487650880207 -0.006258192798761852
0007f0 5e fa 84 93 2d e8 b5 bf 9e 0c 36 3b 87 df 78 3f
       -0.0855740056185623 0.006072548148384231

transform_generator.6.bias f8 [64]
000000 8a 02 a2 66 99 97 d3 3f 39 6d 37 11 66 0d b6 bf
       0.3061278822206438 -0.08614194794011078
000010 a7 fa 8f ff d6 9e d1 3f 0b d0 22 c6 a2 8c a6 bf
       0.2753198142744772 -0.0440417162766665
000020 71 f7 e9 57 44 60 80 bf 5d 2c 4c 41 a5 06 cd 3f
       -0.00799611466686276 0.22676530540806797
000030 b6 8d 74 8d 5e 02 a2 bf 12 00 dd 03 bb 89 ae bf
       -0.03517432667492974 -0.059644550534813004
000040 f8 ee 3a 88 8f 48 ba bf 1a b9 80 6e ee 71 7d bf
       -0.1026696879952701 -0.007188731549872674
000050 48 a1 5f 9d 56 1b 83 bf dd 74 69 79 91 9d bc bf
       -0.009329487493190528 -0.11177930082472494
000060 db 65 42 43 91 2a c5 3f 77 03 a2 95 5a 16 af bf
       0.16536155494831814 -0.06071742130826057
000070 99 64 95 5b 70 46 c0 3f ca bc 5f 26 90 49 ad 3f
       0.12714962455610104 0.05720186680252366
000080 25 51 0a d8 37 31 c8 3f 25 b8 9f 19 24 84 d3 3f
       0.1890020184406548 0.3049402475579675
000090 69 4c 85 40 ba e3 9d 3f 73 04 a2 87 a4 eb ca 3f
       0.029189024150877794 0.210316244341843
0000a0 6c 2a e1 d9 b1 01 ca 3f 83 9d 20 ba f6 4e a3 bf
       0.20317671908044888 -0.037711820812826445
0000b0 e9 63 b4 2d eb e3 c7 3f d2 a6 75 9a ff 9c b9 bf
       0.18664302570030536 -0.10005185624109039
0000c0 ea 80 70 35 86 79 7c bf 83 30 19 51 a8 42 96 bf
       -0.006951832058831745 -0.02173865313515978
0000d0 c3 68 2d ca a3 64 bb bf 38 ae 54 43 55 da e2 3f
       -0.10700439153643786 0.5891519846968043
0000e0 05 8d 2d f7 cc f3 d1 3f d4 77 0a b2 e8 fc c7 3f
       0.2805054105612757 0.18740566914942625
0000f0 d5 c5 fa 9b 36 3d be 3f d2 ba 7f 84 85 3d cd 3f
       0.11812154110045665 0.22843998880076427
000100 47 b6 43 89 fb f0 af 3f 7a 79 e5 40 d3 09 ac 3f
       0.062385426050110264 0.05476246039573858
000110 e4 9e 69 32 82 ea c4 3f 54 d0 fd a7 39 29 c0 bf
       0.16340663396407884 -0.12625809385974895
000120 1b 5b 98 28 6e cd b7 3f 25 ed fa 97 13 3d cf 3f
       0.0929783677205304 0.2440514080134132
000130 83 c5 9b f5 3a 90 63 3f 7a 98 47 62 f0 c5 b4 bf
       0.002388110308736814 -0.0811453094425775
000140 5a bb 60 48 91 a6 c6 3f 80 e2 73 9c ef e9 f1 3f
       0.17695823701930175 1.119613276618253
000150 6a e1 d3 39 a0 0e cb 3f 28 ce af 03 63 c0 90 bf
       0.21138384650817993 -0.01635889730455467
000160 3b ee e9 21 01 6c c3 3f df 61 61 59 90 85 c8 3f
       0.1517335334391293 0.19157604564931227
000170 aa e0 f7 2e 39 f7 a3 3f bc 42 cc 5d 6d 31 b6 3f
       0.03899553964942133 0.08669169940936688
000180 9f 99 38 1e 8b 8d b9 bf 69 85 75 38 b0 b9 d4 3f
       -0.09981603133983306 0.32383351815777545
000190 d7 6e 94 99 2a a8 c8 3f d6 01 f9 74 55 df 92 bf
       0.1926320314313361 -0.018430075897642194
0001a0 47 3e 67 38 5a 0a c3 3f d0 33 a6 e6 ec 18 b5 bf
       0.14875343088214008 -0.08241158133587523
0001b0 4f 5a 8d 69 36 71 ba bf a5 56 65 21 16 a5 54 bf
       -0.10328998639065755 -0.001260062801141806
0001c0 d7 4b b7 30 ab c9 cc 3f 02 bf 75 a8 c9 f6 c0 3f
       0.2249044406767939 0.13253136373122493
0001d0 34 6e d1 60 7f 4b b7 3f 8e 50 ed 0a 72 8c c4 bf
       0.09099575151179168 -0.16053605588479453
0001e0 93 a8 e5 68 6d 56 db 3f 4a 27 c4 41 47 c6 a3 bf
       0.42715010875566256 -0.03862211873827322
0001f0 20 c2 e9 94 02 86 b9 bf 4d 79 30 1f 45 e1 b1 bf
       -0.09970108161520175 -0.06984359752138865
