models/GFDL-ESM4-livneh/QM_SST_layers5/2000/1980_1990/livneh_bci/model_600.pth (torch, 108308 bytes, 10 tensors)

transform_generator.0.weight f8 [64, 3]
-0.7725020158591919 -0.3331856250114311 -0.2783014276975653 -1.4078474180632818 -0.5053310846052079 0.2284705589352579 0.2923149728463575 0.16012634580514343
0.36957230407894703 -0.9160735750873752 -0.7503373428517658 -3.3582419876072636 0.07718847470840859 0.0001754261636212619 -0.017740494507594764 0.2461436304979358
-0.14206854366744837 0.057980441069376845 0.023110428441946915 -0.18931180408489187 -0.1109822748358328 0.15068314172860453 -0.23911996411144776 -0.152322279889879
0.17641624492698857 -1.4950596677511014 0.5021537910813082 -2.260803135243747 -0.182531323219406 -0.5512456291329784 -0.17310675765676015 -0.02694682720667691
-0.04170792714434401 -0.5427392455397134 -1.1240904133642786 0.05302150451306608 0.2506347629954636 -0.4673962442940561 0.17322841371036699 -0.1932817196103266
-0.19543857874661155 -0.12440095594286851 -0.05929985141297119 -0.8091812059863496 1.0469073680456904 0.18151340001596372 -0.3781689830160084 -0.26012013993404187
0.22387199002753583 0.01361490217761944 -0.03653370846909221 0.06095678327446964 -0.31650435880110694 0.18022397365377602 -0.37749811452562765 -0.03587593420148953
1.1018796706499716 -0.44701467213031054 -0.15746350015029634 0.053268287905444765 -1.1954128100537842 0.6817034530320262 0.21526355734785227 0.17221428358287974
-0.15985740559100234 0.01735756246269162 0.13383109284316722 -0.06965404888591806 0.000862464115768844 -1.068751160993848 -0.7887135083306487 0.07133435956300324
0.3028958015545795 -1.0529766756503465 0.21397646463104958 -1.7628840594104092 -0.751377616469053 -1.136695155899617 -1.0745122350363954 -0.11116693886598178
0.006424691843676426 -0.04485547605001077 0.041370764736161095 -0.32601633315424555 0.06282450496406534 -0.018446081561880222 -0.000990871793441045 -0.05988487163221693
-0.08372166079732402 -0.13326290402262692 0.42802696283312064 0.2737384289997375 0.6006211910824327 0.08519517912534488 -0.04415247294701299 -0.6124201104162331
0.17283331048078626 -0.12007194728794121 -1.0036181974025924 0.37092768113356694 -0.1807336902925032 0.2872465665040636 0.13688630636312374 -0.10425934880120159
0.013932355377067811 0.05829719616107451 -0.04131042892395136 -0.1515734948794172 -0.06613426272067426 -0.11250665234084192 -0.025568083176119978 -0.5435946609148026
-0.18650286764686702 -0.31337918338716736 -2.026265224214803 0.019771129990341446 -0.10663525712230003 -1.0151924833548895 0.13053712843768606 0.25798828556517484
0.06982650314236692 -0.1853727135079715 -0.0947269372510832 -0.45920283614578244 -0.00028330194191068515 0.8359383258153387 -0.6503948602674413 -0.20376991098915728
0.20073450677566962 -2.1696327800137687 0.29315720332359213 0.6471641903645624 -0.018155472022033232 -0.07404786110499553 -0.4860390899286568 0.22253921606086646
-0.32779446901219556 0.4827067257868776 0.1119245717896829 -0.24859386113329637 -0.1632556669709129 0.0841902313143658 -0.13563674341198337 -0.08605532888389694
-0.16936527896593886 0.051351689845840966 -0.12961607772873476 -0.10826619220098307 -0.01960013861150816 0.011304551288754468 -2.330947583463938 0.03436050421341862
-0.08305455868150645 0.4863789769728388 -0.0961621279112522 0.8581224277852125 -0.09814686008536427 -0.13378166219155513 0.08550428484896629 -0.5424478195401775
-0.04134705365966625 0.08455277116478736 -0.8395038135788961 -0.38876432319878873 -0.013450344810651068 0.12575767313192782 -0.19128751896081636 0.5153890955896023
0.25232899343712617 -0.3139977570458804 0.15957355162472067 0.11569236356132044 -0.0315316176053704 0.0584165969056146 0.7396391907036466 -0.5772617797436335
-0.3823600739497745 -1.1941445842760632 -0.8043008916896844 -0.5293632621160389 -0.3442470450773028 0.09369597013452527 -0.03246542832401018 1.1450942524890368
-0.8078282855571525 -0.055209184840300664 0.2389929909550296 -0.18968864020116316 0.12567898122257268 -0.4011962468539669 0.028557391230664968 -0.06980882384282226
00000000: 9bb2 c625 56b8 e8bf 7cf8 bacc e952 d5bf
00000010: a008 99ca b0cf d1bf f76f a503 8b86 f6bf
00000020: ae02 4118 ac2b e0bf 23e6 5cf5 853e cd3f
00000030: 2166 20dc 49b5 d23f 9904 3b25 057f c43f
00000040: 46b1 e197 12a7 d73f ca5c b787 7950 edbf
00000050: 0982 9075 c302 e8bf 2d9e a6f9 addd 0ac0
00000060: 5e30 80b6 9fc2 b33f 0678 6f45 53fe 263f
00000070: 0763 e66e 902a 92bf 66bd 8d6d a281 cf3f
00000080: ecc7 6b52 4d2f c2bf d2b8 66c4 9caf ad3f
00000090: 2939 6b99 42aa 973f 9b4b a583 5e3b c8bf
000000a0: a907 db98 5569 bcbf b835 e4ce 9549 c33f
000000b0: 54f5 d6a4 7b9b cebf dc22 4ae5 4b7f c3bf
000000c0: bfe6 38b9 ce94 c63f 26f4 a8af c3eb f7bf
000000d0: 5b36 c8d3 a411 e03f 7e87 44f4 1f16 02c0
000000e0: c389 dcb7 2f5d c7bf 000d a6df cda3 e1bf
000000f0: de1a 6dbb 5c28 c6bf d2a5 55f6 f297 9bbf
00000100: ef47 23ce bd5a a5bf 3b29 bbb1 1e5e e1bf
00000110: e058 b23a 46fc f1bf 6f96 bc77 a225 ab3f
00000120: 3a99 9363 660a d03f 6109 e1ef d1e9 ddbf
00000130: b7de cf41 592c c63f 1d0c 5294 74bd c8bf
00000140: 19f5 0ba0 2104 c9bf 42a2 5db5 bdd8 bfbf
00000150: dbe6 f3d4 8c5c aebf 89f9 07fc cfe4 e9bf
00000160: ae29 bbf0 21c0 f03f b05a 6dc2 d43b c73f
00000170: db94 9aad eb33 d8bf c10c 83f1 cea5 d0bf
00000180: 6e50 d45d d6a7 cc3f 559a ba3c 21e2 8b3f
00000190: 4017 27d6 8bb4 a2bf b233 443d ba35 af3f
000001a0: ace6 857f 9b41 d4bf 3e29 6644 9411 c73f
000001b0: 661c 0cda ed28 d8bf 96ba 3798 545e a2bf
000001c0: 211a d993 4ca1 f13f 2c70 686d e39b dcbf
000001d0: 85c7 ba93 c327 c4bf 2b83 ef24 fb45 ab3f
000001e0: 4c68 c62e 6920 f3bf 6bf8 8ac2 83d0 e53f
000001f0: d731 6a99 c18d cb3f b13e f21d 1e0b c63f
00000200: a3b4 841c 3576 c4bf 864f 764c 2ec6 913f
00000210: 1184 7993 6021 c13f aebe ff05 d9d4 b1bf
00000220: ece7 e995 df42 4c3f 5f7d 40d1 9a19 f1bf
00000230: a431 861c 243d e9bf e679 67f5 f742 b23f
00000240: b072 7112 a562 d33f 94e7 1512 fed8 f0bf
00000250: 981e daae 9463 cb3f 3aeb 5cea c534 fcbf
00000260: ddca 3512 490b e8bf 83c4 8142 e72f f2bf
00000270: 8521 cabd 3331 f1bf 2469 d3be 6f75 bcbf
00000280: 6bff af15 c750 7a3f 57d4 5c05 4cf7 a6bf
00000290: f2c9 1a83 8c2e a53f 2fff 369c 73dd d4bf
000002a0: c942 354a 4415 b03f 63c4 3094 87e3 92bf
000002b0: 1a84 a17c 043c 50bf c5fd 5eda 3aa9 aebf
000002c0: 3860 1763 c86e b5bf a609 4643 c20e c1bf
000002d0: 5d2a cb33 cb64 db3f 2b96 0d30 ee84 d13f
000002e0: c779 9fee 4938 e33f 9ec6 1eec 59cf b53f
000002f0: b39c b026 279b a6bf 53d0 340f f298 e3bf
00000300: 7252 16e4 661f c63f 5ecc c4fe 08bd bebf
00000310: d43b 78f4 d10e f0bf 1996 e974 47bd d73f
00000320: a0bc 8b14 4822 c7bf cd7c 416c 3f62 d23f
00000330: fdc7 8c90 7d85 c13f 6146 679d bdb0 babf
00000340: f625 9b15 9188 8c3f fcad eb4d 21d9 ad3f
00000350: d798 6cfa a326 a5bf 5948 b9a1 c266 c3bf
00000360: 31c6 87cf 2cee b0bf 5ae8 6268 3ccd bcbf
00000370: f259 4004 852e 9abf e018 5da1 2065 e1bf
00000380: 3aa6 9372 53df c7bf d548 f98f 670e d4bf
00000390: 8f32 b88a ca35 00c0 d89a da12 e23e 943f
000003a0: 37da f0bd 724c bbbf e977 3279 3a3e f0bf
000003b0: ccdc c6cc 70b5 c03f ea39 504c e182 d03f
000003c0: 47f8 6353 26e0 b13f b133 0b07 4bba c7bf
000003d0: 6a2c 8b49 0640 b8bf 5380 de4a 9463 ddbf
000003e0: cb64 4d93 0491 32bf 2732 5bbb 01c0 ea3f
000003f0: 8db9 cae1 08d0 e4bf bfba cde7 2115 cabf
00000400: 50dd e316 abb1 c93f dbe8 536e 685b 01c0
00000410: 4925 376e 16c3 d23f 7842 18ad 91b5 e43f
00000420: 15f3 4f1a 5997 92bf 82e2 c8f5 ccf4 b2bf
00000430: 478e f4b2 431b dfbf 048a 873f 2a7c cc3f
00000440: 66e4 0da7 95fa d4bf 9916 34c0 aae4 de3f
00000450: 249b 74b7 16a7 bc3f 53e5 c673 ecd1 cfbf
00000460: 296c 43cb 8fe5 c4bf db4b 23b2 7d8d b53f
00000470: 9f92 8b78 8b5c c1bf bcee 33d7 b807 b6bf
00000480: b349 1eef c2ad c5bf d5e5 f6c8 c44a aa3f
00000490: 19bb 7077 4297 c0bf 1e03 c44a 55b7 bbbf
000004a0: 8e7f 5509 0f12 94bf a434 a630 d726 873f
000004b0: bf57 bdd8 c7a5 02c0 cfcc bd33 b397 a13f
000004c0: d71e 5245 1043 b5bf 9fdb e349 d520 df3f
000004d0: d61a 7eca 149e b8bf c9a6 692a bd75 eb3f
000004e0: ec8f 4512 2720 b9bf 6a68 f5eb c11f c1bf
000004f0: 151c 18db 9be3 b53f 33c5 9687 bb5b e1bf
00000500: 9a29 82e6 702b a5bf f35d f01a 40a5 b53f
00000510: 5609 061a 37dd eabf 4062 7fc1 83e1 d8bf
00000520: 6b42 a7b8 da8b 8bbf d64d a9d2 d318 c03f
00000530: 7aeb 0803 1c7c c8bf 2cb7 c845 117e e03f
00000540: 9748 a981 2826 d03f dae1 610c 8a18 d4bf
00000550: 7572 c4f8 e76c c43f 6b8f e4c5 039e bd3f
00000560: e361 cf84 e924 a0bf 4ca7 81ba c7e8 ad3f
00000570: ac2f ddce 1fab e73f 6259 27b2 ed78 e2bf
00000580: 5f44 3a63 9678 d8bf 4e94 025a 371b f3bf
00000590: 396d 3e39 d5bc e9bf 9ec0 4f39 8bf0 e0bf
000005a0: 7d81 16c2 2408 d6bf d2a9 7e87 75fc b73f
000005b0: 79f4 cd01 4f9f a0bf 9b72 d459 4e52 f23f
000005c0: 150e 68b4 bad9 e9bf dde3 a7d6 6044 acbf
000005d0: 7d02 1084 5297 ce3f 3419 0ba5 b747 c8bf
000005e0: 4fa1 12b5 3f16 c03f bb01 e105 33ad d9bf
000005f0: 0e42 9415 263e 9d3f af8c 60b7 fdde b1bf

transform_generator.0.bias f8 [64]
-0.7133932978508115 3.0362312381406964 -0.7044119336852186 1.4933931605383697 -0.25654643420872925 -1.1680575555018056 0.08332903885667406 -0.9957607016820089
1.0471421086221346 -0.08869375487235998 -0.8391212826427442 2.589160457260832 0.18293728973518789 0.38442682445008314 0.4560741506554997 0.05182866105327831
-0.5631376360613238 -1.313112487704036 -0.09092278043490543 -0.8867009919653208 -0.40866193515990656 -0.7502532506021617 -0.45405493714494394 2.961626128063952
-2.8592809030281883 3.250252155244755 -0.35923089389819973 -0.40274182093193334 -0.2985858588941304 -0.01612172403064058 0.0744683085523159 -0.7202499821426807
-1.0608508954668834 -0.609001039551742 -0.4095382266577839 -0.5032893417710412 0.1841860218725768 -0.2870638605403963 2.6800712017861716 -0.8034779571017198
-0.5530312739683931 0.03529246664030912 0.8733766921501128 0.1512872517166424 -0.5521796373493841 -0.18611686961717147 -0.008334487935659048 -0.05730548472243897
-0.5090073748403222 0.0028110844137323164 3.1849726344943785 -1.3637454196586274 -0.13783027008194618 -0.7558124950544363 -0.0448207785196348 -0.16093100973376417
-1.348671421424564 -0.4433477747493576 -2.752770342831542 3.112870957298947 -0.7869705090002475 -3.140841408331015 -1.4616452148002983 -0.40863453776767805
00000000: e88d 6e2e 1ed4 e6bf 5643 779a 334a 0840
00000010: 62e2 42e5 8a8a e6bf 6951 093a f0e4 f73f
00000020: fa3d 35bc 416b d0bf 889d 8b1e 5db0 f2bf
00000030: ae4f b248 0d55 b53f 3eb8 0b8c 45dd efbf
00000040: a9be 6c15 18c1 f03f 2846 8948 a2b4 b6bf
00000050: 4780 4ae0 14da eabf e140 00c2 99b6 0440
00000060: 45d5 5036 7d6a c73f a6f7 adf7 729a d83f
00000070: 4072 67a2 5130 dd3f fe47 7048 4989 aa3f
00000080: e0f6 4038 3905 e2bf 5287 6a3d 8202 f5bf
00000090: 18e7 6d20 b746 b7bf 484c 3ac2 da5f ecbf
000000a0: 9470 a863 8427 dabf 2eba e11a 1302 e8bf
000000b0: defd 6770 3c0f ddbf 3a1c 180a 69b1 0740
000000c0: d6aa 84aa cedf 06c0 e73c b433 8400 0a40
000000d0: fa5b 4093 a3fd d6bf c895 68a1 85c6 d9bf
000000e0: 25e5 bfdc 071c d3bf b9f0 dd95 3682 90bf
000000f0: 1015 d2e5 5a10 b33f aeea c7b0 490c e7bf
00000100: b966 dfc9 3ef9 f0bf fc59 83bf ef7c e3bf
00000110: c53f 7dd2 df35 dabf a79f ea3f f21a e0bf
00000120: f759 2956 6893 c73f c39b 3819 415f d2bf
00000130: f4fb 942b c970 0540 81e1 9967 17b6 e9bf
00000140: bc80 6ba4 6eb2 e1bf 3ad5 07ac da11 a23f
00000150: d9f2 3bad b3f2 eb3f 895c 3673 615d c33f
00000160: 0cd9 7da1 74ab e1bf c5ac 1e76 add2 c7bf
00000170: fe86 e608 ac11 81bf b952 87fd 2457 adbf
00000180: 7b95 8bd5 c949 e0bf bddf f173 4507 673f
00000190: 6f77 beee d27a 0940 bf0e 98b7 e6d1 f5bf
000001a0: 9d4d 331b 6ca4 c1bf c857 85af 9d2f e8bf
000001b0: 5a9f d8c3 bff2 a6bf d000 dc27 6399 c4bf
000001c0: e817 017c 2894 f5bf 2662 5358 cf5f dcbf
000001d0: a7e1 1e75 ac05 06c0 3423 72e3 28e7 0840
000001e0: 3852 e2c6 dc2e e9bf 64a2 d575 7120 09c0
000001f0: 3cc1 be17 e662 f7bf b79b ee79 1127 dabf

transform_generator.3.weight f8 [64, 64]
-0.4850228875787702 -0.6931781054403181 -0.05069402530280137 -0.0935467044003395 -0.24209536791684647 -0.12994515840466273 -0.5275306561873142 0.5887893037088353
-0.5371448795276399 -0.5994786116584596 -0.0011565433677396628 -0.8935382613149881 -0.5990213264719667 -0.30184116152604906 -0.5785739783150669 -0.6602268306789147
-0.18183980248427933 -0.10106248803544524 -0.21287115926968778 -0.07587234032248485 -0.24243434656647495 -0.44596927075550385 -0.15330965617943895 -0.6733304665890597
0.2559489999350105 -0.5224920617644908 -0.07652716888607798 -0.001987975275515792 -0.19191784408205464 -0.41588593893127856 -0.2586242027133993 0.1024372530170587
0.07443782370877389 -0.7211141615120283 -0.512749699067253 -0.0027252389389597893 -0.28657308469425063 -0.19776632582432063 -0.504960822937365 -0.07479860585982744
-0.3633051420545289 -0.4019418903293154 -0.2232872002268627 -0.18088710736765032 0.08604195050955261 -0.5556967107833255 -0.6753055957798967 -0.6198327048219882
-0.11623535957987087 -0.42596706166090764 -0.16082908550753983 -0.5072487175168539 -0.2253681819843357 -0.01648450206325797 -0.6891130397740479 -0.1918618979840296
-0.05963106461734012 -0.4029689091130414 0.37486308004112356 -0.8158402131813314 -0.047543225218783514 -0.37104986211131247 -0.14859614113875413 -0.06703944007355045
-0.211261717898993 -2.497151229051349 -0.4463416202146198 0.46611852222979067 -0.05367831739052311 -0.13429121816485098 -0.1267345390883675 0.008248819453712013
-2.320285963910491 -1.0911390517334016 -0.13687080500650417 -2.2851982624413707 -0.10339005585100469 -0.017126330540890973 -0.09529871848608619 -0.20768977404232336
0.02946793173564163 -0.16463702814587733 -0.27212063952837046 -0.04017494255859658 -0.06461923985181724 -0.03789648542871547 -0.014470802644511376 -1.7397872382355395
-0.15000163821623647 -1.9740579337609836 -0.2847652899936847 -0.010166239937036718 -0.14066794512373423 -0.009337566325672309 -0.23085814570048604 -0.17413246326961176
-0.21323465553908907 -0.05057405108688731 -0.07691083380398044 0.04366957476754154 -0.11941134872597378 -0.02209421920148722 -0.6016728339521051 -0.04432457676729861
0.04335103754641036 -0.1708701604473975 0.008511470440000744 0.3506958409667945 -0.09501974273447157 -0.05591670148977009 -0.0772403284711912 -0.15041508045877122
0.12006131100191274 -0.18381538780879494 0.7230489909765582 0.10856592166560511 -0.10454181044047511 0.07446698386123411 0.006482626266339356 -0.12228061111391789
-0.11136022061322637 -0.05664745664630923 -0.17391015067210544 -2.3609907460543065 -0.12461046065207011 0.037485497260746195 -0.16944919967652794 -0.04277841730204208
-0.16540967973810217 -7.846026841812008 0.48132446427549885 -3.323545170161354 0.03809641215812475 -0.008490822409029285 -0.19051816473596006 -0.07855767481154052
-3.851621843862481 -0.4331360450624751 -0.10349558271905245 -6.912153637120946 -0.2954501689881014 0.1428722089625144 -0.2751329826609211 -0.3482251409712702
-0.03686930890591189 -0.07010293553993753 -0.0619882773858884 -0.009829382266393448 0.020268773892763808 -0.11422919550770831 -0.05720806704986561 -6.26710336554652
-0.759307429338181 -3.8184354989366085 -0.3002244511851567 0.07324965960577023 0.06868552515473125 -0.05035254048961537 -1.8163806851937132 0.2785019090837062
-0.2165855441235218 -0.06650719528366812 -0.02279617743447913 0.0907559330695321 -0.13872872857095192 -0.3824510131736941 -2.352563172278543 -0.6633799070623498
0.13857215640598539 0.1223617348116766 0.23582208110074185 -0.9578387305709425 0.043485010365424785 -0.011530179769923939 -0.22206131766226486 -0.1236091849860206
-0.0973534742750277 -0.4576120542224799 -2.549793354545818 -0.09035411558670435 -0.7342104131824115 -0.06572148842746667 0.020512596336722033 0.08731156088395751
0.006165091571107805 0.03319855355248084 -1.0489027589549906 -6.314852670678794 0.05120762071229655 -0.6943054643984115 0.004972085847050524 0.26423578045024765
-0.38054111636567084 -1.3197676942901113 -0.11433208048715277 -1.8011691512099175 0.08886800760763301 -0.009143495202086984 -0.006188044023783318 0.18621728250040767
-0.8811905104916677 -0.6476447210776085 -0.232209008932652 -1.447308830889442 0.0864408146648667 -0.1527804843710961 -0.7687009032808924 -0.02503673426352507
0.13606605441559155 0.09356993525511996 -0.1845222912737612 0.037165614754894376 -1.085479892960001 0.12056797584469305 0.12455882850594412 -1.7921787350792586
-0.16951386870549348 -2.9700604569502325 -0.15916901523224367 0.01650250271149171 -0.2821312553855817 -0.010678454357197586 -0.22808179857454536 -1.129489985973402
-0.9778780121758576 0.15974623950013928 0.16271684851655382 -0.06526318825184625 -0.0016511974402154224 0.04345058242089033 -0.7685067829100141 -0.21415160125550278
0.04670550442042108 -0.7745069432468009 -0.33470167076788404 -0.25891593706777183 -0.10583410624505181 0.044464298015498935 -0.001870403883453837 -0.0008885033875823359
-0.043069688565977725 0.07135079863101597 -1.4285430916808446 -1.2676580514514622 0.041728150136691414 0.12980364809270606 0.18738362088373148 0.07157509591639512
-0.003093597526425797 -0.09343297085126785 -0.21278218966835818 -1.6108664603162308 -0.013360681201406684 0.06515906500811817 -0.009481271119584554 0.03168990333914756
00000000: 5e96 fd6f 9d0a dfbf c66b a5d9 832e e6bf
00000010: d866 8e39 91f4 a9bf 2f4c 0c44 adf2 b7bf
00000020: 07a4 db23 fbfc cebf 798f cffe 0aa2 c0bf
00000030: 2bc8 7ef8 87e1 e0bf f93f 75aa 5cd7 e23f
00000040: 521f 5975 4a30 e1bf aa2f f7c4 ed2e e3bf
00000050: a8d8 36fc e4f2 52bf 8b52 428d dd97 ecbf
00000060: 63b7 d9c5 2e2b e3bf 81d3 5597 5d51 d3bf
00000070: 21c1 6593 ad83 e2bf 38a5 b604 9420 e5bf
00000080: 68fa 63d2 8646 c7bf e6f1 f630 3bdf b9bf
00000090: db96 a9b5 5c3f cbbf 6426 5ba4 5e6c b3bf
000000a0: d20e f7b2 1608 cfbf 6c9d 3ab2 c28a dcbf
000000b0: 21d1 b99b a69f c3bf 57d0 ac55 ec8b e5bf
000000c0: b28b 0aea 7761 d03f d656 b645 41b8 e0bf
000000d0: 3d05 9fd7 4897 b3bf 5c25 6519 1649 60bf
000000e0: d2f5 ec8f c390 c8bf bcde a40e e09d dabf
000000f0: 83eb 2687 4c8d d0bf 2cb0 99eb 5339 ba3f
00000100: 0c23 6a72 5b0e b33f 4d0d 8c01 5e13 e7bf
00000110: dde2 900e 7268 e0bf bf55 bb83 3d53 66bf
00000120: c33d aba2 3657 d2bf 5430 d52e 6850 c9bf
00000130: 10df 8899 a328 e0bf 7750 f45d 0026 b3bf
00000140: 06f1 e535 6440 d7bf 46d6 767a 6ab9 d9bf
00000150: e17d 4bcb ac94 ccbf a7bf 3409 4f27 c7bf
00000160: bdc7 8563 d806 b63f 96e4 e977 44c8 e1bf
00000170: 43c6 157b 1a9c e5bf 0174 8665 abd5 e3bf
00000180: e1ca 08bc 99c1 bdbf a36f c059 0b43 dbbf
00000190: 700f 4027 0c96 c4bf d287 95a9 613b e0bf
000001a0: e341 9755 ddd8 ccbf 3199 0235 50e1 90bf
000001b0: 3074 22ca 360d e6bf 7f4e 9840 ee8e c8bf
000001c0: deda b680 f687 aebf f27f 7c1b 3eca d9bf
000001d0: 0249 50b7 c1fd d73f fc03 4cef 5c1b eabf
000001e0: 200d ecea 9557 a8bf 7304 bdeb 47bf d7bf
000001f0: 165a 40c7 3205 c3bf 0876 a82a 7f29 b1bf
00000200: 1ef0 a2bc 9f0a cbbf b488 6f6c 2afa 03c0
00000210: a596 6a71 dc90 dcbf ee5a 42c8 e2d4 dd3f
00000220: 63a9 6473 b97b abbf 873a 1463 7430 c1bf
00000230: fb3e 545e d638 c0bf f63f 46ce c1e4 803f
00000240: 3ce8 6216 f28f 02c0 a855 e938 4e75 f1bf
00000250: 40db a387 fb84 c1bf 637e d006 1648 02c0
00000260: f896 9c4c c577 babf 2261 4b96 9089 91bf
00000270: 799a 3f2f 7f65 b8bf 30da 9c19 9495 cabf
00000280: b763 576c d72c 9e3f 3870 cc7d d312 c5bf
00000290: 39d2 d5af 6c6a d1bf d4d1 d060 cf91 a4bf
000002a0: 8d1e dbf1 e28a b0bf ce6e 190b 2b67 a3bf
000002b0: b622 d740 dea2 8dbf 5084 a324 2bd6 fbbf
000002c0: b419 3ef1 4033 c3bf a99a 9ec5 bd95 ffbf
000002d0: e7c3 e331 9839 d2bf cf42 6ca0 09d2 84bf
000002e0: 7773 f33f 6801 c2bf 8da6 f1ef 921f 83bf
000002f0: c53e e67c c28c cdbf 911b 75f9 f849 c6bf
00000300: ed04 f5ef 454b cbbf 448a e38e d7e4 a9bf
00000310: 876c e5ab 6db0 b3bf 03e4 e9c6 db5b a63f
00000320: 7e9f 8cfd bd91 bebf faaa 9af3 dd9f 96bf
00000330: e6e8 1663 e740 e3bf 1fca 3fff b5b1 a6bf
00000340: 43dd 0471 1b32 a63f a2ee 7dcb 12df c5bf
00000350: 2c05 7239 766e 813f 1aeb f2f7 cc71 d63f
00000360: e9d5 84bf 3653 b8bf 7bc3 6528 1da1 acbf
00000370: f64f b7ac 05c6 b3bf 0aa4 b225 cd40 c3bf
00000380: 37a2 448c 56bc be3f 61f6 913b 4387 c7bf
00000390: c1cd 34a3 3723 e73f 1a8d 03eb f9ca bb3f
000003a0: 8c0e e888 40c3 babf abd5 50ac 4410 b33f
000003b0: 1ddc e5bc 868d 7a3f d24e ab39 c84d bfbf
000003c0: 68f1 9b79 1a82 bcbf 921b 653b e500 adbf
000003d0: c720 ca14 b042 c6bf f2b1 c31d 4fe3 02c0
000003e0: 8d79 3d9d 78e6 bfbf ca4f 9e91 4c31 a33f
000003f0: 00d7 78e9 82b0 c5bf 09e6 927e 0de7 a5bf
00000400: b05f 75f6 242c c5bf a37b 44dc 5462 1fc0
00000410: c1fd 3420 05ce de3f 63f9 a4d9 9e96 0ac0
00000420: 6fcf a078 5f81 a33f acde 80e4 a263 81bf
00000430: a4dd 6a33 e662 c8bf a855 2a14 5b1c b4bf
00000440: ae96 ff1c 1fd0 0ec0 75c6 103f 80b8 dbbf
00000450: 0f0d 0fbf af7e babf 9a72 619a 0ba6 1bc0
00000460: 4eb3 59d3 a7e8 d2bf dc29 80f4 a249 c23f
00000470: 0618 a55e c79b d1bf 4c76 071a 5249 d6bf
00000480: 103b f4b7 88e0 a2bf 8964 7f17 44f2 b1bf
00000490: 3e2d 3770 edbc afbf d909 fe5a 6d21 84bf
000004a0: fb6c ff63 56c1 943f 2b39 f4e2 1f3e bdbf
000004b0: 24d5 1732 604a adbf 02b2 6e8b 8311 19c0
000004c0: 12c1 1318 3f4c e8bf a08b 2ee9 278c 0ec0
000004d0: de2f d39d e036 d3bf a82d 735c 7dc0 b23f
000004e0: 2887 3fe4 5f95 b13f b3c9 58e5 cec7 a9bf
000004f0: 9de3 7f31 e50f fdbf 5cd6 d8ab f9d2 d13f
00000500: 8700 663a 13b9 cbbf 8929 b194 9d06 b1bf
00000510: fb37 3892 e157 97bf 679c 73e4 c73b b73f
00000520: ce2b 1dec dcc1 c1bf 16cc 79d0 137a d8bf
00000530: cfae f5a3 0cd2 02c0 8200 b57f 683a e5bf
00000540: 0f30 f37f bbbc c13f 2348 4c41 1953 bf3f
00000550: df4c 00ff 6a2f ce3f 8b9e d468 9da6 eebf
00000560: 277d c5d2 aa43 a63f 2408 3b88 229d 87bf
00000570: cb75 8858 816c ccbf 510b 00ff d9a4 bfbf
00000580: dfc8 2944 28ec b8bf ff04 c911 8449 ddbf
00000590: cca8 ea0e fa65 04c0 87ff 8083 7221 b7bf
000005a0: 0d09 20d6 a67e e7bf d4be 709b 1fd3 b0bf
000005b0: b067 b009 4101 953f f72e 8fea 0c5a b63f
000005c0: 19ca cb2a 9140 793f 0598 909b 66ff a03f
000005d0: 6d55 6642 4ec8 f0bf a67e 0ebd 6842 19c0
000005e0: 8ed3 87a0 e237 aa3f 02cf e017 c037 e6bf
000005f0: db1e b221 9c5d 743f dee0 dd30 3de9 d03f
00000600: 8fba 6420 c95a d8bf 94b1 d4ba c41d f5bf
00000610: 2c72 9302 de44 bdbf b92b 70be 96d1 fcbf
00000620: e7e0 55c2 0dc0 b63f 6eab e926 d3b9 82bf
00000630: c76e 556b a258 79bf f305 25c9 f7d5 c73f
00000640: a86e 0371 b632 ecbf 6592 0e6c 81b9 e4bf
00000650: 5ee5 9959 06b9 cdbf 471d fe4d 2d28 f7bf
00000660: 7c73 0638 fc20 b63f 82a2 eb97 4f8e c3bf
00000670: 2de8 ffa2 3299 e8bf 6922 71cb 3aa3 99bf
00000680: bec5 e7ca 9c6a c13f 7b40 cf03 33f4 b73f
00000690: 69af 332b 6d9e c7bf 37e6 d017 5f07 a33f
000006a0: 1aa9 0b2a 205e f1bf e9a7 32f9 8add be3f
000006b0: 3771 dc5e 16e3 bf3f 7408 fc9b c3ac fcbf
000006c0: fd7d 2765 a1b2 c5bf d8f3 8d0e afc2 07c0
000006d0: ebc0 7a79 a65f c4bf abc2 ca35 08e6 903f
000006e0: 30df c340 700e d2bf f34f e3e1 95de 85bf
000006f0: 5863 d8cc c831 cdbf e8a4 6e17 6412 f2bf
00000700: c3ba 38d4 c64a efbf 4af2 2795 9072 c43f
00000710: 2a82 71db e7d3 c43f 95a3 2c9b 16b5 b0bf
00000720: 2c55 51c0 9f0d 5bbf 17d1 fa9c 273f a63f
00000730: 2c49 6b89 9b97 e8bf 2ba3 e3d5 5169 cbbf
00000740: eeca 0eac c8e9 a73f 55a3 f8c8 c2c8 e8bf
00000750: f455 778e c06b d5bf 30a2 8726 1492 d0bf
00000760: 0db7 1fa9 f117 bbbf 76e0 a143 06c4 a63f
00000770: 1eac 9fe0 0aa5 5ebf da89 fb7e 4e1d 4dbf
00000780: 93f7 adef 3a0d a6bf ede7 a9c2 0b44 b23f
00000790: a422 3b00 50db f6bf feeb 17cf 5348 f4bf
000007a0: f2bf 5160 645d a53f 50d6 baeb 679d c03f
000007b0: 5b37 c0bd 2ffc c73f 4942 2bd8 be52 b23f
000007c0: 04db 7e86 be57 69bf 05a0 2c22 39eb b7bf
000007d0: c1ff e560 723c cbbf ff80 d4e8 1bc6 f9bf
000007e0: 91a3 7f46 d85c 8bbf 2f70 3fb5 43ae b03f
000007f0: d2a3 10ab ea6a 83bf 00fb e8b4 a839 a03f

transform_generator.3.bias f8 [64]
-0.6922925262714124 -0.19420975391630968 1.508000936785462 -0.004423721608664278 0.7089194465434653 -0.12756985314409344 -0.00019011743468803514 -0.058866054704179355
-0.11537390092517924 -0.046147581593036814 -0.17330309329212645 -0.11402942717200493 0.20051114634499312 -0.004348313655545317 -0.4274097716826578 0.06074896072418562
0.13841101803822053 -0.8302832165638218 0.443133339756093 0.6901809319782203 -0.010751387984379631 0.5786480666196933 -0.23591975911455523 0.5806265405858549
0.4447606392717326 -0.042150274144031316 0.7714218694200926 0.20550521692638185 -0.17015889608019066 0.6147997641902817 0.5174167182032462 0.19366990047746005
-0.004006733966312446 0.178467718156013 0.09993975308992979 0.3154365619422234 0.5433976525024513 0.30538211180510266 -0.03181105379392413 -0.07060810229468277
0.41008128203159816 -0.11393170044025114 0.02512113439729756 0.0040697001836237446 -0.0454003564939829 -0.842458268831453 0.4331202699540749 -0.10798263245822218
-0.07253389862933633 -0.04696336670754985 0.7169517478915466 -0.011145120273743385 -0.6801209069511454 -0.0888319743361119 -0.008992104284800252 0.07196147692155482
-0.042265489286866006 0.01484324050786056 -0.015521963889248551 -0.25301894031403843 0.19491293652263403 0.020695345340839864 0.44542619455870863 -0.08482292325114654
00000000: e03a f3a7 4227 e6bf c03f d17e dddb c8bf
00000010: 764b 1d97 c520 f83f 4153 2cba 9b1e 72bf
00000020: 21e2 ccd5 77af e63f c1cd 9a7d 3554 c0bf
00000030: 6e35 2a54 48eb 28bf 2c16 9907 b123 aebf
00000040: 5c1c 49db 2489 bdbf 4592 76e3 a7a0 a7bf
00000050: f81e feb6 cb2e c6bf 8841 7c54 0831 bdbf
00000060: f081 0468 59aa c93f eed3 178f 89cf 71bf
00000070: ba8a d783 ae5a dbbf 6819 27df 7c1a af3f
00000080: 28ab f0c5 73b7 c13f c9e5 b11b ae91 eabf
00000090: 5f42 81f0 4b5c dc3f 8d6a 6552 f615 e63f
000000a0: de73 3cde d204 86bf 89ce 40f3 4884 e23f
000000b0: 8148 f060 9e32 cebf 0930 601c 7e94 e23f
000000c0: da16 0e54 f576 dc3f f69d ee81 b894 a5bf
000000d0: e982 92ea 7caf e83f d297 edb4 fe4d ca3f
000000e0: 4dd9 e446 c4c7 c5bf 0b25 198e 70ac e33f
000000f0: 59c5 6281 ad8e e03f 1198 62e0 2cca c83f
00000100: 71d9 9575 5d69 70bf d797 6fba 07d8 c63f
00000110: b370 17d3 a695 b93f 2f4a 60d5 1c30 d43f
00000120: 1414 4779 8363 e13f 0e20 bf69 618b d33f
00000130: 7074 64d7 8949 a0bf 7333 3062 5f13 b2bf
00000140: 03c2 c18f c53e da3f 2059 5ebf a02a bdbf
00000150: 5c02 b3ca 5ab9 993f 894d 17d3 63ab 703f
00000160: a29e bc2c b73e a7bf 1a07 1c0b 6bf5 eabf
00000170: 11ff ab14 3eb8 db3f 6aad f1f2 bfa4 bbbf
00000180: 87e1 76e2 9491 b2bf 2feb 3c18 950b a8bf
00000190: a622 c0ca 44f1 e63f 098b afb8 40d3 86bf
000001a0: fcca 95eb 8cc3 e5bf b0da 9c38 b1bd b6bf
000001b0: 877f 9ace 736a 82bf 0d2f f33d 116c b23f
000001c0: 2e1a 797c d2a3 a5bf bc25 6204 2266 8e3f
000001d0: 092f 31ba fac9 8fbf 35b6 7a5a 7631 d0bf
000001e0: fe4c f737 e8f2 c83f 895f ac1d 2931 953f
000001f0: 2954 9ade dc81 dc3f 3c96 5081 f4b6 b5bf

transform_generator.6.weight f8 [64, 64]
-0.27837019396005835 -0.28032688849203974 -0.4100309244623094 0.018269603037909483 -0.1599320033552818 -0.0662651279809763 -0.0905530113019922 -0.07771701380456314
0.4055258898180437 0.17739078508525544 -0.0025167445289359996 0.37917313383932294 -0.04101314291470868 -0.18637819821453297 -0.0004278879770343672 -0.3221635092545647
0.011456529967681468 -0.48171955475918593 0.08932523973908174 0.02483557560290084 0.12912577437334596 -0.13472203701952407 0.5260035452135285 0.08202789338264606
0.001384123424552051 -0.03575646168239471 -0.2688585021674618 -0.06408188160617624 -0.062128684733963074 -0.05720143608459732 -0.06701969353021661 -0.03887512433607959
0.0061478614077385375 0.0006737969749901581 -0.3251356631506071 -0.04278918555070224 -0.17447412400154685 0.05313277830692849 -0.03654737812454894 -0.28123371930812285
-0.16433340897521506 -0.578234647037419 -0.08347030558914652 -0.06027380166963791 0.14725958648695275 -0.20079412688350706 0.003995753730478086 0.3060649914358885
0.05039168379418442 -0.10612201821301138 -0.0764357197369993 -0.5881327175367299 -0.4783838927909369 -0.7213809408146505 0.041408353116574516 -0.08437999859004983
-0.0041994558097860814 0.062378936335143874 -0.10090571220632454 0.17347950095771453 0.05962241732144824 0.015289484215788822 -0.2184269712708307 -0.05121685957954707
-0.11617622728435303 -0.1542561202051356 -0.1384513535654648 -0.11196924263362139 -0.0580482156820963 -0.1421032323483506 -0.19669072259560386 0.10896167860151318
-0.1103679320019255 0.028412420088085602 0.15032218086109359 -0.00035457116404422745 -0.31854214252000984 0.0981748862585381 -0.05316873846082886 -0.1639423540561772
-0.18469888468693402 -0.046919997086846375 -0.02440264277278581 -0.3976609580070251 -0.09348901625363176 -0.060441815638456346 -0.1343609321014522 -0.21240334403379385
-0.2221575604000888 0.1755611028802066 -0.002970955291487786 -0.18399409917317075 -0.003218933771358333 -0.1754047441138771 -0.13863172239901192 0.010116134234295615
-0.14596594473813396 -0.19957769868468983 -0.11142077050674526 -0.35120826778797853 0.09082673654559056 -0.2054277754142505 -0.18045945352615217 -0.09687152472829415
0.08566553446972398 0.029654794663895704 -0.3073446763649296 -0.2326421938353641 -0.18800971773334801 -0.10843292389610118 0.07145036043803445 0.012671644007091476
0.11226474970808319 -0.2573657729928246 -0.1475353362147776 -0.39975151701367684 -0.7072626655435397 -0.1429943425341616 0.017003545012620767 -0.2033565893826126
0.05384815832367359 -0.32021864800474964 -0.2702790836713296 -0.10227065762520744 0.00265896627383601 -0.3133976081533436 -0.02518736504893884 -0.02487706779830117
-0.17914684033945688 -0.02550866365967043 0.748653673949629 0.11718552263757857 0.33744682638636214 0.10959321228935372 -0.025851950873743694 -0.007821430940265984
0.09154868094695556 0.11916295729528179 -0.04229979516089757 -0.039606465024707396 0.16257613460884845 0.07827142435471268 0.24649949395792264 0.061467792312513196
0.09733078586228706 0.1993921471487663 0.276619371678393 0.42195429283635233 -0.014277577104500758 0.35374633663201777 -0.05291131057737542 0.43384089157783545
0.2683411998175942 0.05037852520707028 0.24543166500007613 -0.06318346258789717 0.08839769161076669 0.2432387106938004 0.29683528122643793 -0.0219163890894454
-0.1003278039236482 0.01636844721215593 0.08797568585034396 0.06274252749345598 0.3231273555233881 0.1414902664908024 -0.057028123670471116 0.009100553411317866
0.12635058692903786 0.010926268366699911 -0.18478793530063653 -0.058453400477265036 -0.03446748060747696 0.19753301264870957 0.09167450141810032 -0.129449849946226
-0.0026272649977468867 0.0442175646483616 0.37191077165895886 0.12779140244374645 0.3365392971538384 0.009418959944076166 -0.0861146822488797 -0.10477384820319695
0.14757537278785163 0.014320937391669541 -0.015241574204959146 -0.15925947881815763 0.10482941024051574 -0.10513580159809575 0.29864557076695664 0.038406137313683406
-0.18095173626362662 -0.07695893640429707 -0.1274511708761962 0.03095107644269542 -0.013464056147253907 -0.12002341067691485 -0.1042006012340926 -0.1604257278784117
-0.06680856592128212 -0.18483033760374673 -0.07228002591475768 -0.03161890970865819 -0.0657894247035672 -0.18308150601619733 -0.07712828599245364 0.010048179610410993
-0.09993693797071675 -0.07285590142056045 -0.14911332386489462 -0.1485261456090771 -0.07334131518322784 -0.026952471271974265 -0.01852245236814928 -0.16503576010484833
-0.17501334960551487 -0.13900158781085314 -0.17163420252832243 -0.06405571935090534 -0.07786160766232213 -0.08176151898612237 -0.0028973364210409455 0.030051875619744806
0.039772897702759144 0.020431616639357855 -0.13151358674163063 -0.02426595387020993 0.044187382825532355 -0.05270157168360819 0.05967403967850442 -0.16394799850306946
0.06325563055280208 0.019537770082651052 0.10333422466357742 -0.11557123019951078 0.01036943438428282 -0.008685463702476175 -0.1403827775022939 -0.02637864121538783
-0.17577871035539216 0.00513603485122082 -0.07061813240015094 -0.1133346348752092 -0.131703924002857 -0.030119484600024195 0.04828936593487956 -0.28923512835176
0.05107831127341949 0.027654763530072856 0.07795573677300477 -0.031505936722000735 -0.12996104089189262 -0.06142041421964059 -0.09126584555200686 0.006039457348820234
00000000: 0e56 cf37 d1d0 d1bf e3d0 9030 e0f0 d1bf
00000010: 5283 ba58 f23d dabf 0222 3c4e 44b5 923f
00000020: 4052 ffe1 a678 c4bf f125 8b5d c0f6 b0bf
00000030: 06ac 186e 7b2e b7bf 2425 a220 43e5 b3bf
00000040: 7ac9 9cdc 22f4 d93f a1c6 46c2 bdb4 c63f
00000050: ce9d 36ee fe9d 64bf 7826 5764 5f44 d83f
00000060: ddb8 0cb7 acff a4bf d968 02a5 3ddb c7bf
00000070: aa84 22de c40a 3cbf f4a0 0db2 539e d4bf
00000080: 9770 4b6c 8576 873f 5c33 6241 7ed4 debf
00000090: ccff 62d7 04de b63f 0099 f743 7f6e 993f
000000a0: 7d89 0081 3187 c03f 5651 865b 923e c1bf
000000b0: 8eb5 0863 05d5 e03f 7930 70af c7ff b43f
000000c0: 919d e435 6fad 563f 08d7 17c3 ab4e a2bf
000000d0: 0be4 834a fa34 d1bf 79c1 c391 ab67 b0bf
000000e0: e4d7 26ba 54cf afbf 3700 89b2 8149 adbf
000000f0: 0675 e6df 3328 b1bf b883 4db7 70e7 a3bf
00000100: bb38 fcfa 7f2e 793f 5988 61fc 3714 463f
00000110: 35b0 ffcf 05cf d4bf b41f 20d1 76e8 a5bf
00000120: c1dd 4a08 2b55 c6bf 4a06 5932 3834 ab3f
00000130: e755 9983 56b6 a2bf 437e bdb6 bbff d1bf
00000140: af28 988c e008 c5bf fd12 4ef2 e580 e2bf
00000150: 5b48 b158 4f5e b5bf 0f10 f42d 35dc aebf
00000160: eef1 fdf1 66d9 c23f d4c5 1838 9fb3 c9bf
00000170: 613d 86f9 d95d 703f f6ba 2a9e 9196 d33f
00000180: 9ad5 c553 f0cc a93f 3143 9c05 d02a bbbf
00000190: 1b42 8494 4a91 b3bf 3ce4 70b4 fbd1 e2bf
000001a0: 7b18 9e79 d79d debf 5c36 987b 8d15 e7bf
000001b0: dd74 d5c4 7933 a53f 767b 6176 ed99 b5bf
000001c0: 760f d3d5 7233 71bf 3b94 09c7 21f0 af3f
000001d0: 5bdf e7ed f4d4 b9bf 76e4 9187 9334 c63f
000001e0: 5017 0259 d486 ae3f cfa8 6fd5 1750 8f3f
000001f0: 1916 163d 6af5 cbbf e6c3 cba1 1839 aabf
00000200: 264b c2a8 b9bd bdbf 5994 be1f aabe c3bf
00000210: 0147 d321 c6b8 c1bf 5ff0 442b 04aa bcbf
00000220: 633a e4e7 7eb8 adbf 76c8 cb4f 7030 c2bf
00000230: d9c3 7c5e 292d c9bf e85a 1c9e e9e4 bb3f
00000240: 3fb5 79a2 1241 bcbf 146d 503c 2518 9d3f
00000250: abb5 54d9 c13d c33f 7e9e bd8d b73c 37bf
00000260: 8f5b 2195 fe62 d4bf 50d9 c445 fd21 b93f
00000270: 87b9 b7d1 ee38 abbf 4cde 8c24 10fc c4bf
00000280: 7245 ab8a 36a4 c7bf 4368 08da e505 a8bf
00000290: 6091 94a2 01fd 98bf 2351 62f2 4673 d9bf
000002a0: 2435 586b e5ee b7bf 87c0 f4ca 3af2 aebf
000002b0: 252f 9e30 bd32 c1bf cad4 1764 0830 cbbf
000002c0: 931f 3db0 a86f ccbf 9efb a845 c978 c63f
000002d0: 98fd 127a 8b56 68bf 2f89 4d5f 1e8d c7bf
000002e0: 63c7 d4e8 975e 6abf 1124 c4a3 a973 c6bf
000002f0: 012a f22c afbe c1bf d301 968d c4b7 843f
00000300: 9471 7d17 03af c2bf b24b 6e14 c38b c9bf
00000310: 78ed 6b55 1286 bcbf c6fc 0e3e 327a d6bf
00000320: fed2 10c7 6b40 b73f 0410 8c14 754b cabf
00000330: b20d 939d 4b19 c7bf 5526 9f7e 92cc b8bf
00000340: 751b f12c 2dee b53f 510d 0195 d35d 9e3f
00000350: ab92 6501 89ab d3bf 84a6 182b 38c7 cdbf
00000360: 9259 7fd2 b310 c8bf 6a83 f195 42c2 bbbf
00000370: b967 5e21 924a b23f 60ae c644 97f3 893f
00000380: 5766 7df4 61bd bc3f d24a 874a ae78 d0bf
00000390: aafe 051a 70e2 c2bf 8668 0663 8795 d9bf
000003a0: 0a1f 4650 e5a1 e6bf 5a3f 597c a34d c2bf
000003b0: 1628 fb96 6069 913f a986 69b6 9607 cabf
000003c0: 7b67 e65d fc91 ab3f aafb 2f5b 767e d4bf
000003d0: 3c51 4aa4 404c d1bf bd36 d7e9 682e babf
000003e0: 244d fea5 41c8 653f 6c72 6ad7 b40e d4bf
000003f0: 6763 a174 b7ca 99bf eed0 74c2 5f79 99bf
00000400: 1e48 389e 48ee c6bf c456 bb70 f11e 9abf
00000410: dc9a b48c f8f4 e73f 7b06 4bd3 deff bd3f
00000420: 84fa dd92 ba98 d53f d177 a5fe 4c0e bc3f
00000430: 1e80 290e ef78 9abf fa5a c5b0 ae04 80bf
00000440: 98bb a8fe bb6f b73f 5656 7aac 7681 be3f
00000450: 53e6 af99 51a8 a5bf da89 fb6f 4c47 a4bf
00000460: 0ca7 a076 4bcf c43f a098 d097 9809 b43f
00000470: 62d1 83a0 4b8d cf3f 2fa8 7adb b478 af3f
00000480: 1929 2c9e abea b83f 58a5 8a8f ae85 c93f
00000490: fe1e b3bc 21b4 d13f 66e4 0894 4c01 db3f
000004a0: 92ef d6f5 8f3d 8dbf 4584 baac c7a3 d63f
000004b0: 1162 09f9 3017 abbf 5ea2 3f96 0cc4 db3f
000004c0: b4b3 5891 802c d13f 9bc2 5ecc 36cb a93f
000004d0: fa00 4a07 4e6a cf3f f68a 7699 ca2c b0bf
000004e0: 4e98 822a 3ba1 b63f bb89 c631 7222 cf3f
000004f0: 29a8 4a68 59ff d23f 47d5 8af9 3f71 96bf
00000500: 2448 bb3c 15af b9bf c59c d9e5 e3c2 903f
00000510: 8e05 9215 9385 b63f 371c a7ef e40f b03f
00000520: 629e 1a5c 1eae d43f 8fe1 a361 5a1c c23f
00000530: 89dc 3b4c ca32 adbf 3886 379a 4fa3 823f
00000540: 5366 588b 412c c03f e119 6bea 8260 863f
00000550: 70e2 678d 21a7 c7bf a699 c7a6 9aed adbf
00000560: 2121 f8bb b8a5 a1bf 9f70 9a02 c348 c93f
00000570: cac4 77e9 fa77 b73f f0dd fe0b d091 c0bf
00000580: dab0 c827 c685 65bf 049f 2544 afa3 a63f
00000590: e38a 53d6 62cd d73f cd59 1afb 775b c03f
000005a0: 4d0d c61e dc89 d53f 868b 6067 3f4a 833f
000005b0: f5e0 f69f 9c0b b6bf ab40 827b 75d2 babf
000005c0: 75cf e8f3 bfe3 c23f 9357 f6ad 4b54 8d3f
000005d0: e3b4 ff75 f936 8fbf 110e 8d56 9d62 c4bf
000005e0: f958 a4a8 19d6 ba3f 27a8 800d 2eea babf
000005f0: 6c84 e24f 021d d33f 96b6 741f f8a9 a33f
00000600: 890e b42e 6d29 c7bf 60cc fdb2 94b3 b3bf
00000610: 9505 60e9 5150 c0bf b5b5 6394 a3b1 9f3f
00000620: 117a 9706 0b93 8bbf 1c9a 9caf dab9 bebf
00000630: 9122 86fe e3ac babf fc5e 568b d488 c4bf
00000640: 367d b9bd 5d1a b1bf a68a a83f 85a8 c7bf
00000650: 083a 759b f180 b2bf cc89 448e 5a30 a0bf
00000660: 0944 8663 93d7 b0bf 7cc6 6bfc 366f c7bf
00000670: b422 efe9 adbe b3bf 6207 7dd6 2394 843f
00000680: c521 3f98 7795 b9bf 1a02 ec31 afa6 b2bf
00000690: dce3 b238 2516 c3bf 3df7 fe9c e702 c3bf
000006a0: f057 2816 7fc6 b2bf 5356 a3ba 6d99 9bbf
000006b0: 37d4 a6bc 8cf7 92bf cc10 294c e41f c5bf
000006c0: 19a5 7562 d666 c6bf 0cae ded4 cdca c1bf
000006d0: c9f9 5d0b 1cf8 c5bf 66e0 bba3 f465 b0bf
000006e0: 5b0e 8602 bdee b3bf a7de 1daa 52ee b4bf
000006f0: f06d 90a5 27bc 67bf cd8c e13b ebc5 9e3f
00000700: de0e cdfd 1c5d a43f 37f1 1495 06ec 943f
00000710: a979 04ed 6fd5 c0bf c67c 1d99 2cd9 98bf
00000720: 1f53 4388 ba9f a63f 2a65 a84d b3fb aabf
00000730: 96c3 ad81 988d ae3f 125d e87d 3ffc c4bf
00000740: d31b 8360 8531 b03f 6dc1 2a8e b501 943f
00000750: 26d2 7c9b 1c74 ba3f 29bd 107e 1396 bdbf
00000760: 75d5 77ec 913c 853f d6fd 6b34 afc9 81bf
00000770: b0a1 2517 10f8 c1bf 2900 55a5 0003 9bbf
00000780: 949c 27b2 ea7f c6bf f747 79db 8509 753f
00000790: 82ca 29a9 0714 b2bf 360a 4ba6 7f03 bdbf
000007a0: 176f 2c97 acdb c0bf 1763 5165 a4d7 9ebf
000007b0: 24a9 de3e 62b9 a83f d002 480e d482 d2bf
000007c0: c792 e8b8 ef26 aa3f d3d7 c2c3 8751 9c3f
000007d0: 8cc3 f93b e8f4 b33f 1ea1 b3cf 8b21 a0bf
000007e0: 0b41 313a 90a2 c0bf 5ca0 c21c 7f72 afbf
000007f0: 753d e3cd 325d b7bf cfc2 c77c d4bc 783f

transform_generator.6.bias f8 [64]
-0.003589754109417229 -0.09441817050501726 0.04790809431225022 -0.04725472321471111 -0.006070047410290378 0.017477534580274963 0.0018360592336362207 -0.25109263418941413
-0.10277970614236037 -0.18100281604311608 -0.19042312804350206 -0.11181018740633476 0.031421982466879196 -0.005759765500447767 0.03889653506527925 -0.02139961092641294
0.02263690507785628 -0.18741782412448268 -0.03716969523175652 0.0800954113248803 0.06681921289383308 -0.7262501002034975 -0.0486392216271751 -0.09925397474426843
0.004077570152615287 -0.3778052185986194 -0.2035376906133225 0.31757988458434505 -0.01989132004597976 -0.001775081423265958 -0.06785859335681625 0.04477079655965573
0.02910778400110681 -0.007115483696956457 0.023594610634398494 -0.6489473339087236 -0.01169632909763149 0.058391982174878634 -0.0215344050179811 -0.017109930004931502
-0.04562262466812325 -0.055809459239852546 0.0064710180152491754 -0.016410446584342778 -0.03929694003461299 0.046281251066742794 -0.07228850456677971 -0.014522427566335684
-0.010036302975888558 -0.035291930301829984 0.00586594931512804 -0.05909445323064888 -0.007245317236399635 -0.044857243179245485 -0.02689073409483457 -0.20333345164393982
-0.012452780246822377 -0.00876243347573448 -0.27990096458595143 -0.16961186400997297 -0.13600156043388031 -0.32124835508902383 -0.09989884376369741 -0.24665397505451958
00000000: 4726 0590 4268 6dbf 7b9a 770a ca2b b8bf
00000010: 15d1 91e4 6887 a83f 9cd2 9365 c531 a8bf
00000020: fe40 ccf1 e7dc 78bf 527a bf7d a1e5 913f
00000030: f8c8 2a97 fd14 5e3f a70a 07d7 e611 d0bf
00000040: f4ec 9254 c54f babf a0cd b1ab 192b c7bf
00000050: 81a7 acf9 c85f c8bf 2914 45aa 979f bcbf
00000060: ed36 24c6 8a16 a03f 0016 5047 8d97 77bf
00000070: 62f1 1024 3fea a33f bae4 4d94 c7e9 95bf
00000080: b5db f7fb 202e 973f 4bac a6a8 4efd c7bf
00000090: b269 d802 e807 a3bf 1835 3304 2281 b43f
000000a0: 089c 1f5e 101b b13f 61e7 a2d9 703d e7bf
000000b0: 181b 6274 3de7 a8bf ff4e 865f b568 b9bf
000000c0: 43f7 3d67 a4b3 703f ace8 88f0 f52d d8bf
000000d0: d402 58e6 850d cabf d60f 8a94 3a53 d43f
000000e0: 6e79 49e4 635e 94bf 6f53 482a 3b15 5dbf
000000f0: bb57 3847 2e5f b1bf 3b45 14a6 32ec a63f
00000100: 6109 6051 6ece 9d3f f0dd 601c 2025 7dbf
00000110: 4079 2584 2f29 983f 09dc fe32 2dc4 e4bf
00000120: ef1f a9b7 3ef4 87bf 0256 94cb 8de5 ad3f
00000130: 4108 2a75 1d0d 96bf 326c 3bf7 4385 91bf
00000140: fc85 d041 d95b a7bf 9a37 7cb4 0e93 acbf
00000150: f407 f5ab 5a81 7a3f 64ed 916d e6cd 90bf
00000160: 7925 9080 ba1e a4bf e7ce 7f17 2db2 a73f
00000170: 78b6 fdda 7f81 b2bf 34c4 a53b efbd 8dbf
00000180: 8efa 6ec8 e98d 84bf 610b ebac c811 a2bf
00000190: dbd8 7ec7 e406 783f b053 00d0 a041 aebf
000001a0: 6e8e 4509 44ad 7dbf b61c e350 87f7 a6bf
000001b0: 04d0 029e 3e89 9bbf a12b 7f9e d406 cabf
000001c0: f729 3cdf d780 89bf 4878 b1e9 09f2 81bf
000001d0: 35fe 40bc e5e9 d1bf 0cdd 7770 d7b5 c5bf
000001e0: ab5d 22c7 7f68 c1bf e212 c042 558f d4bf
000001f0: 3190 df7a f892 b9bf d0ce 2482 5b92 cfbf
