models/livneh-livneh/QM_SST/2000/1980_1990/R4noisyStatic00001d/model.pth (torch, 73320 bytes, 8 tensors)

transform_generator.0.weight f8 [64, 2]
0	0xbfe3fee29dc3072b	-0.6248639184270578
1	0xbfe3c7ca1e04396f	-0.6181383692035477
2	0xbfe108d8414ba700	-0.5323296809485498
3	0xbfe43f770e223710	-0.6327471996353058
4	0xbfcdd05beff42967	-0.23292111603252438
5	0x3fe05c9e2ccbbec2	0.5113058924598237
6	0x3fc9c2c7b6693018	0.2012567177465605
7	0x3fe9444d6cef3522	0.7895877006173218
8	0xbfe2d8bfbd543767	-0.5889586160499051
9	0xbfe09ff1ef95c3ea	-0.5195245437045035
10	0xbfdf0a3bbdc333c1	-0.48499959498877493
11	0xbfc68f9c31f9e390	-0.1762576335929933
12	0x3fcbb54ac6e15070	0.2164700957388308
13	0x3fe5763727800440	0.6706805964933054
14	0xbfdf9dbe51dba4cf	-0.49400289529746727
15	0x3fc5f8feab26a37e	0.1716612182329093
16	0xbfe39b2aceb97507	-0.6126913106524235
17	0x3fd1516bca0e963f	0.27059454662444077
18	0xbfc81da89aab4ee4	-0.18840510894971552
19	0xbff551bf1b32868c	-1.3324576437375155
20	0xbfdf85cf2a1f4aca	-0.4925420676565123
21	0x3f7ed334cd47eb70	0.007525640733088021
22	0xbfd0fe84da42a092	-0.2655346042106511
23	0xbfd14832e684fca1	-0.2700316668669505
24	0xbfe5358915fa99b4	-0.6627850941920799
25	0xbfe4ccf6b0e1701b	-0.6500199751567409
26	0x3fd1be224e717487	0.27722985897509783
27	0xbfe1665f0a1d215c	-0.5437464902434317
28	0xbfd54405603efe99	-0.3322766723540354
29	0xbfe0b98408e9a515	-0.522645966918534
30	0xbfd675a1e508a8a3	-0.35092971197685524
31	0xbfd8210f138f6d9f	-0.3770177546518542
32	0xbfd8d47850100201	-0.3879681379185343
33	0xbfd0830a70b6396a	-0.2579980946255974
34	0x3fa3cbcd96704ac2	0.038664269079296
35	0x3fe6baa075a4ecc4	0.7102815911997813
36	0x3fbb463b23baba52	0.10654039022731723
37	0xbff223cafee04491	-1.1337385135741764
38	0xbfd143e972888d42	-0.2697700136652267
39	0xbfb8823777219af1	-0.09573694857099803
40	0x3fd436501fa871c6	0.3158150014076252
41	0xbfe5f6ade3a28289	-0.6863622137062332
42	0xbfc63d3b5ca8de0b	-0.17374364876171486
43	0xbff0b3b01ef45984	-1.0438691338691521
44	0x3fd866896b0a5034	0.38125834897187194
45	0x3fd90c00a9304557	0.39135757944412347
46	0xbfd10a54a678cf27	-0.2662555337621932
47	0xbfdef69af5a0a323	-0.48380159365710734
48	0xbfa70b2315c6f973	-0.045006843956332164
49	0x3faa887373e8e3ea	0.05182228841699284
50	0x3fc3cd4300b11941	0.15470159086016547
51	0xbfaea7eedaa71102	-0.0598749772939602
52	0xbfe2619c73fe3300	-0.5744154229629146
53	0x3fc343511edd2832	0.1504918480589495
54	0x3fcd080169f00b4a	0.2268068091653624
55	0x3ff6e46f8768e0ee	1.4307704247894963
56	0xbfd832e0fd777eba	-0.3781053996335505
57	0xbfc701b3abf26990	-0.17973943610998022
58	0xbfc137fb6b3b6563	-0.13452093826235076
59	0xbfdca981a55ed977	-0.4478458514162393
60	0xbfe251061d589b94	-0.5723906109968646
61	0x3fbe9f2050a7f55e	0.11961557358877914
62	0xbfdc1407a85a1d7f	-0.4387225288450835
63	0x3fbb166404503c82	0.10581040482814966
64	0xbfca735a0301e100	-0.20664525172083614
65	0xbfb525d17b75612e	-0.08260831131099586
66	0xbfc452c2fbcb4ab5	-0.15877568525919164
67	0x3fea1e41729d7e5d	0.816193317277747
68	0x3fa512b31b36aef1	0.0411582918853507
69	0xbffa1e595aaa6645	-1.632409433519926
70	0x3fca8a7aeb3b84c4	0.20735107885324144
71	0x3ff397c291e3be9c	1.2245507906735957
72	0xbfdff5eef4da2ff6	-0.4993855849395453
73	0xbfd77dcf1cf0cc18	-0.3670537741301714
74	0xbfb5cbac842447eb	-0.08513906694523114
75	0xbffb4275024cc1d4	-1.7037248697125635
76	0xbfc2514a2227bcdb	-0.143105761220318
77	0x3fd2cec88bfe571e	0.2938710562824428
78	0xbfe3c946f89ad5d8	-0.6183199744761465
79	0xbfc746a1339d41c2	-0.1818429471991419
80	0x3f74081209565e8c	0.004890509085633387
81	0xbfd3a275d890191d	-0.30679079197615683
82	0x3fcbb636bf5ff1c0	0.21649822563621335
83	0xbfd415f9e69fefcc	-0.3138413192934848
84	0x3fc9eb8a621ae0bb	0.2025006274250297
85	0x3ff05d91a9a1e5fd	1.022843992830871
86	0xbfd9f3d8e229e9fa	-0.40550825201321994
87	0x3f81a41b3deae7de	0.008613789393496715
88	0xbfe6190fa25f587b	-0.690559212812118
89	0xbfe24691e51e779e	-0.5711144900303571
90	0x3fc6d19680ef0de2	0.1782711152610395
91	0x3fe9e7a4734917ab	0.8095266582174551
92	0xbfe2a7cb931602e7	-0.5829828140996057
93	0xbf78db1649642717	-0.006068312699662368
94	0x3fd071a50d653dae	0.2569363241973076
95	0x3fc2db06e56b84ab	0.14730917169712163
96	0xbf8f206b9063d577	-0.015198555320675251
97	0x3fc6c293fdf95728	0.1778130521876673
98	0xbfe2405b0760d700	-0.5703559059245151
99	0x3fef1c8cdb64f745	0.9722351346060597
100	0xbfc81494d14ef076	-0.18812809200415231
101	0xbfc7ccfefcea0f11	-0.18594348286944087
102	0x3fbd2443be06bb30	0.11383460416139424
103	0x3fd7252b14dda09c	0.3616435722128786
104	0x3fa505ee8a4fa4c1	0.041060881026916636
105	0xbfd00b273e8f0e91	-0.25068074330577256
106	0xbfa9e78da097aa40	-0.05059473595959618
107	0xbfc7c303a15746b8	-0.18563886049246547
108	0xbfb748464e959909	-0.09094657343448288
109	0xbfb28d7e2a6f6dd3	-0.07247150932328532
110	0xbfcf6b704cc1e3f2	-0.24546626804274713
111	0xc00091a264f3499f	-2.071110523867176
112	0xbfe5afd704f061da	-0.6777148338761052
113	0xbfe53ed216c23993	-0.6639185375695881
114	0xbfdae8d113e66523	-0.4204600042663335
115	0xbfa70412e956c839	-0.0449529561841619
116	0x3fbae2789b2a87b4	0.1050181750129287
117	0xbfd9aee98c5c3477	-0.40130079943703073
118	0x3fd283aa554042a9	0.28928621602339405
119	0x3fd7dc4e67eb4cd1	0.37282142780641175
120	0x3fc3a9a8e65025bd	0.1536151051116529
121	0xbfe98f8860af8f18	-0.7987710846323095
122	0xbfd4b793fe7c5eba	-0.3237047181332674
123	0xbfc4933b7e8c7234	-0.16074317626125068
124	0x3fb7780c15d5e7a5	0.09167552502722616
125	0x3feb711ca21e80fb	0.8575575987233884
126	0x3fa9749bdef80b74	0.049717780082594226
127	0x3ffc45a081f591a4	1.7669987751515714

transform_generator.0.bias f8 [64]
0	0xbfd7b7811796cb89	-0.37057521155946255
1	0xbfe6274eedf030eb	-0.6922983786803604
2	0x3ff79f8ef967a6bd	1.4764547102335392
3	0xbfd985f8021a1c9e	-0.39880180554650646
4	0xbf96c4fcb4377cc5	-0.022235821246678684
5	0xbfb73771535557ef	-0.09068973812586
6	0xbff666618514df1b	-1.3999953459260215
7	0x4002d7954afd6996	2.355265222414526
8	0xbfa3f320caa59cb1	-0.03896429513661682
9	0x3fc574c47db0cca0	0.16762596261250895
10	0x400817786aa228ad	3.0114601450669256
11	0xbfda462c75e54f61	-0.4105330611539469
12	0xbfe27604c48737e4	-0.5769065702859248
13	0xbff76a15ca9c1507	-1.4633996881905789
14	0xbfc8734579df44bb	-0.19101780367649276
15	0xbfdb4351aea0c3e7	-0.42598383000864576
16	0xbfca8d0ab91b33cb	-0.20742925680533938
17	0xbfd5f863dc6863fa	-0.343285527460068
18	0xbfec2f90934ecf1c	-0.8808062436205293
19	0xbf935b27a67be6f1	-0.018902415787102226
20	0xbffc0b5204d6f1e6	-1.7527637661979667
21	0x3fa89bb6464ca1b6	0.04806298835893889
22	0xc00012df038334cf	-2.0092144274154644
23	0x3fba534ea7196f78	0.10283366756033085
24	0x3fc9d46df8c48dec	0.20179533621659063
25	0xbff74ad241cc994e	-1.4557669229776198
26	0x3fc44c84922834ad	0.1585851396234025
27	0xbfe2bf268036e4b8	-0.5858337883174931
28	0x3fa8547805e9bd63	0.047519446107680684
29	0x3fd71bd6164a8209	0.3610739915548327
30	0x40084f0168cff832	3.0385769070117243
31	0xbfcf4ff5452facd4	-0.24462762716516429
32	0xbfd95afb1ecbb72b	-0.3961780358066444
33	0x3fefd17833449ad4	0.9943200112655526
34	0xbfe7a621be085695	-0.7390297614644675
35	0xbffb232926a03107	-1.6960841664140973
36	0x4007ea9c7864a04c	2.989556255884997
37	0xbfa4a6e191dd064d	-0.04033570199545675
38	0x3ff3d4410b1e9e47	1.2393198427543142
39	0x3fe2ce073ad58b1b	0.5876499318222587
40	0xbfd2febc109bc067	-0.2967977678481532
41	0xbffff6ff00ff3d2f	-1.9978017844148999
42	0xbfd7c83524d0d907	-0.3715947017220888
43	0x4003f442380ec56c	2.494266927672177
44	0x3fd8209bd8a64552	0.37699028165032644
45	0xbfa8a8e7a7be85a4	-0.04816364214571969
46	0xbfd0d84cfa15d618	-0.2632019464720954
47	0xbff7104633b7befd	-1.4414731998658106
48	0xbfe7b6f1b91667b3	-0.7410820593824979
49	0x3ff5ff513abed411	1.3748333258383847
50	0xbfbbdf5553fe134c	-0.10887654591176704
51	0xbfed36b84753e149	-0.9129296677702224
52	0xbfe4e70c3acd966e	-0.6532040737626639
53	0xbfc33a57ab807bc8	-0.1502179706012312
54	0x3fd639fcd81f7bba	0.3472892866683953
55	0x3fe4ecd5dcd24d33	0.6539105713767753
56	0xbfd551c771061924	-0.3331163982151273
57	0x4004bcaaa7b94ff9	2.5921223739078383
58	0xbfe1a3afb379e56c	-0.5512312417405787
59	0xbffe8058a44afb00	-1.9063345353785621
60	0xbffe11b0fef7886a	-1.8793191871305006
61	0xbfd0e1d08907c1b5	-0.26378262884011444
62	0xbfe5e2cd4f1750bb	-0.68393578956104
63	0xbff0378b2fd1ffaa	-1.0135604732495076

transform_generator.3.weight f8 [64, 64]
0	0xbfbc67b63c1716c1	-0.11095751730962446
1	0x3f977fd18278dfaf	0.02294852598990332
2	0xbfb6877d40de8fd0	-0.08800490220761437
3	0xbfc009cbc9e2865f	-0.12529895169886893
4	0x3fb0765fb17d919d	0.06430624087585675
5	0xbfabedf4931fb9b3	-0.05454983039804819
6	0x3f92000644d7154d	0.017578218413992364
7	0xbfe9370733f2a9ab	-0.787967301808114
8	0x3fb85f2fb3ace4e5	0.09520242821317344
9	0xbfb74d8811d687a6	-0.09102678714273668
10	0xbff6171625d8a65c	-1.380636356198372
11	0xbfb0b4b4a97a5f31	-0.06525735032698489
12	0x3fbddea7294fc1f9	0.11667866476614809
13	0x3fa3ae67902ebff9	0.038439976072709166
14	0x3fb413fbe1592baf	0.07842993022602117
15	0x3fb680c5f284112f	0.08790242358015087
16	0xbfa1228edd43d1bb	-0.033466782102468305
17	0xbfb610bd4956ad4a	-0.08619292297833173
18	0x3fa020a3c78beeab	0.03149902163383208
19	0xbfbfe9951a6826bb	-0.12465793509195582
20	0xbfbdc8efa6438d43	-0.11634729203392617
21	0xbfe061a079d2bb0f	-0.5119173411711432
22	0xbfa1cc334960882f	-0.03476104994503292
23	0xbfb3acfa008a6c46	-0.07685816300583878
24	0xbfb0e11245f0c895	-0.06593431670697421
25	0x3fa0eab2bff9e299	0.03304060548265859
26	0xbf8a880417e0a78f	-0.01295474241131325
27	0xbfbe29657e02139a	-0.11781915975923454
28	0x3fb2a3209dba24fd	0.07280162668952879
29	0x3fab7118eae6b440	0.05359723918386594
30	0xbfda7dd100d21430	-0.41392922477854466
31	0xbfbac11aba329c55	-0.10450903936235652
32	0xbfb765137fc377d5	-0.09138604993083217
33	0x3f603c12df778a76	0.0019817703830409773
34	0x3f87462f184c1337	0.011364334038725594
35	0xbfc3c27ba5549554	-0.1543726498868333
36	0xbfe123838d49c025	-0.5355851897747966
37	0xbf9b7aeaa1be16ee	-0.02683607685278038
38	0x3f9776c7759b2f9b	0.022914043954002854
39	0xbf99611aa9fc9ce7	-0.024784485459488883
40	0xbfa78d1a51822cf7	-0.04599840397812643
41	0xbf55bf66dffbc78a	-0.0013273720396082844
42	0x3fa660aa6128cd0b	0.04370624958064625
43	0xbfe8ec7183bc716c	-0.7788627217264952
44	0xbfbe9adadb2243f9	-0.1195503983492613
45	0x3f9e35638959f44c	0.029500537164939097
46	0x3fbb586016533bfd	0.10681725068137378
47	0x3f852a1d0c257dd2	0.01033423131292369
48	0xbfc3f2fc426c04ed	-0.15585282557734761
49	0xbfd709fdbe875df9	-0.35998481375051444
50	0x3fa235d388b2a813	0.03556691211390741
51	0xbfc313c21685fc66	-0.14904047107481516
52	0xbf7b0eec45a30c67	-0.006606028497290506
53	0xbfb36dd156a7e547	-0.07589443555470608
54	0x3fae82e884edf21d	0.05959250090288413
55	0xbfd2501ee381be7e	-0.2861401769396038
56	0xbf59ce82847ea27f	-0.0015751146874924125
57	0xbfdee16a10819337	-0.4825081978981873
58	0xbfc4c9b7905c8266	-0.16240591572661173
59	0xbf356089d258b2cb	-0.0003261887053181255
60	0xbfc1aab301c5ac4a	-0.13802182756930598
61	0xbfbc66010789657b	-0.11093145784379559
62	0xbfc1ec2870ffd1fe	-0.1400194694284806
63	0xbfd5e20fd7a851b8	-0.3419227224378818
64	0xbfb052424fc34b95	-0.06375517318092101
65	0xbf7fb8c23d4d57bf	-0.007744559047599907
66	0xbfd442ad3c05f01d	-0.31656962262764116
67	0xbfdf75eb5793c2c5	-0.4915722232099536
68	0x3f81d1fabd00fadf	0.008701285260142409
69	0x3fa0ad556f411a57	0.032572431403015294
70	0xbfa13058f8d8cb87	-0.033571987511456895
71	0xbfcb2de4a3c427c4	-0.21233804699323688
72	0x3fb70b02a5255fb1	0.09001175434002452
73	0xbfc499c07e7d4777	-0.16094213653792241
74	0xbfd16eed70eae48b	-0.27239547755341026
75	0x3fa7fcaad5ecc3d3	0.046849573720812686
76	0xbfb0c6a0e4f4c7b3	-0.065530830285552
77	0xbfb82138962649e5	-0.0942569128585898
78	0x3f9257b35bb610c7	0.017912676308257127
79	0xbfb8d13b7cd2719d	-0.09694263265050158
80	0x3fb0e7313918532d	0.06602771419450155
81	0xbfc05e6466a33602	-0.1278806210670354
82	0xbfa2518b4b7029f4	-0.035778382261998504
83	0xbfb9418ebe849fb9	-0.09865657950706365
84	0x3fb0710098dc37d4	0.06422427875460751
85	0xbfcb488a15faf07d	-0.21315122674230116
86	0xbfb0fa908f0e9ea4	-0.06632331364255123
87	0x3f896de9eb51f569	0.012416675084973421
88	0xbf8bfd9d77cc1649	-0.013667326181813115
89	0xbfc0d60a9cf3b257	-0.13153202689808793
90	0xbfb39748d79f053d	-0.07652716888607798
91	0xbfdb858a3f4549de	-0.43002563647055847
92	0xbfa754a54fd86107	-0.04556767081902718
93	0xbfb3fa4845f35034	-0.07803775508665539
94	0xbfccd1543d6f71ec	-0.22513821601650308
95	0xbfa4f70412984d0b	-0.04094708182324255
96	0x3fb588f9ad88b129	0.0841213272730711
97	0xbfd3e66e05e86f7b	-0.31093931748340936
98	0xbf9a0df47cad5dd7	-0.02544385920495337
99	0xbfa1938bc10bd06d	-0.03432881099243521
100	0x3fb1ad29aa76950c	0.06904850398730761
101	0x3faffdab94818ffe	0.062482225301920366
102	0xbfd0483578a78fc5	-0.2544072798029869
103	0x3f8bbe0d3ef3906f	0.013546088679909666
104	0x3fb0f93e8b467c86	0.06630316639210507
105	0xbfc7a3f3e9711bd2	-0.18469094179655926
106	0xbfc5e3748b29b74c	-0.1710038833147628
107	0xbfc7101f4f8d1501	-0.18017951378184452
108	0x3fb606d86385c7bd	0.08604195050955261
109	0xbfe0503ba1f32fda	-0.5097940600476207
110	0xbfb1dfa299d9893b	-0.06981865173432748
111	0xbfdcd95c7090542f	-0.45076666824872097
112	0xbfbd0037a34b485f	-0.11328456627532678
113	0xbfce298e653546d0	-0.23564319555094082
114	0xbf9dec2248825cb7	-0.0292210919147606
115	0xbfb83f7f8303036d	-0.09471890400437895
116	0xbfb252668151b955	-0.07156983048637262
117	0x3fa50cf9bbecdc47	0.041114620390026384
118	0xbfe33b2210ff4ba7	-0.6009683925607207
119	0x3fc00cc2425d3dfb	0.12538936844292423
120	0x3fbac5c85e60fbb1	0.10458042434855376
121	0xbfc593d41f6e0db5	-0.1685738709894459
122	0xbfe0829a62501b75	-0.5159427566694449
123	0xbfbc155eee55114b	-0.10970109289798306
124	0x3f8b32fe8c35bb3d	0.01328085770975706
125	0x3fba0873d496e4f1	0.1016914743439832
126	0xbfd414c469938317	-0.31376753149202
127	0xbfc07fb76d8b37b1	-0.12889759873217835
128	0x3fb43cfa301028e9	0.079055439695512
129	0xbf5ee86897d8d3ff	-0.0018864652078154351
130	0xbfc323d672a56530	-0.14953117940857785
131	0xbfb82c552f9ca504	-0.09442646419906359
132	0x3f90687c2231a5df	0.01602357824996214
133	0xbfb26032af8f1a81	-0.07178036485775331
134	0xbfb75f8038e9b6a2	-0.0913009776065459
135	0xbfb4b08e6a84afac	-0.08081903553528375
136	0xbfa45c27cf2380f7	-0.03976559070156498
137	0xbfb512b49c26611d	-0.0823166733956708
138	0xbfb2377c69368b1f	-0.0711591488712142
139	0xbfbb9837c279c755	-0.10779140947286454
140	0xbf76a8f50f525c7f	-0.0055322239542398
141	0x3f81a748c4a3aa49	0.008619850636440012
142	0xbfb25777cfcaa7a3	-0.0716471559814225
143	0xbf96607d8239bd17	-0.021852456162773395
144	0x3fbeeddbf5826779	0.12081694358712793
145	0xbfc2e9bbb1fbe7da	-0.1477579707205326
146	0xbfc260f38d015a95	-0.14358372101806496
147	0xbfa15c98f250989b	-0.03390958745903668
148	0x3fa2d07441a26fd6	0.03674662877276062
149	0xbfa3012621a8f6ac	-0.037118140801323335
150	0x3f81f839044e3c06	0.008774228519341076
151	0x3fa3920a3e401320	0.038223571871674134
152	0xbfc16da3b265a108	-0.13615843020239304
153	0xbfbaf729af182d08	-0.10533390545622379
154	0x3fa5fd138bf5f18b	0.04294644435410352
155	0x3f99ab8d1217a35f	0.0250684778492628
156	0xbfb2c643f82a00ed	-0.07333779152577664
157	0x3f942a8afb66c2d4	0.019693538278889047
158	0xbfd3325976242feb	-0.29994808709375204
159	0xbfba29feebd6b811	-0.10220330484182251
160	0xbfbfb576a1cf8027	-0.12386266184285032
161	0x3f5df8ce4e784bc1	0.001829339476789413
162	0xbfa4297bdb6f9b46	-0.039378996407143194
163	0xbf5f6675c84c6714	-0.0019165182322410977
164	0xbfd4824d9614aa8d	-0.32045306831666026
165	0xbf6c6d14f8200c10	-0.0034699830584954475
166	0xbf97425f546b7892	-0.022714128043724253
167	0x3f9234bd6ad73c57	0.017779311796229127
168	0x3fb28a2d5c407aea	0.07242091657870345
169	0xbfad301e3cfb3265	-0.057007737106322044
170	0xbfa7195bd39f01af	-0.045115346510559255
171	0xbfcdecbfbb8ff50f	-0.23378750475232166
172	0xbfb85336bf84d5e9	-0.09501974273447157
173	0x3f8c99c123d1f59c	0.013965138345379206
174	0x3f72b414d8f694df	0.004566270289989321
175	0xbfc0c661ee494d8e	-0.1310541547305601
176	0x3fb1af71e8510978	0.06908332750120916
177	0x3fb4a99bb46bc3b5	0.08071301607902977
178	0xbf9b4d0cfb5f9697	-0.02666111263524459
179	0xbfb74ca9b98ccbd5	-0.09101353435543953
180	0xbfb0d76bb571b364	-0.06578705959118519
181	0x3fb31044ac50d5ab	0.07446698386123411
182	0x3f9cae98f0d28dbf	0.028009786318433202
183	0xbfc052b76a0ee4e1	-0.12752430609342638
184	0xbfa90199460710db	-0.04884032230214227
185	0x3f94841c18d482dc	0.020035208716879235
186	0xbfc4d409127c6dd2	-0.16272080805434413
187	0xbfbc6642c524eec0	-0.110935376292157
188	0xbfc5c88f52dea3cd	-0.17018310114261084
189	0x3fbabbe8b2592ce1	0.10442976335723443
190	0xbfc370062b455a96	-0.15185620415532658
191	0xbf9e99ce3f604328	-0.029883597009816715
192	0xbf9312e4a80be93f	-0.018626759297128755
193	0x3f7da29ef66b7f7f	0.007235165546006671
194	0xbfc9b0c5b79c538a	-0.200707163480413
195	0xbfd39fa7c9927bbf	-0.3066195934752009
196	0xbfaed8ddb9d5d1a3	-0.060248307166065794
197	0xbf9a3a036481a8ef	-0.02561192799513717
198	0xbfc1a104fe20eca6	-0.13772642525313933
199	0xbfd0164e4ce994a7	-0.25136144171694713
200	0x3fb927a2800227df	0.09826102853017414
201	0xbfd1fb1b08a19489	-0.28095126955879174
202	0x3fc55658b8b36c70	0.16669758814427693
203	0xbfb3c684e0530241	-0.0772479102770456
204	0xbfbe1fb785d6a1e9	-0.11767146127261409
205	0xbfadf69c09cb1405	-0.05852210635706715
206	0x3fb22c197ad5522b	0.0709854054342222
207	0xbfa91c9f0c0bd277	-0.04904648801849459
208	0xbfb3592f3e9a51c5	-0.07557959822071954
209	0xbfc16a3940205793	-0.1360541880719067
210	0xbf99d8b52018a190	-0.0252407360877967
211	0x3f95bb7b1df016bf	0.02122299547411077
212	0xbfd14bf4332c31e8	-0.27026085851028236
213	0x3fb308156fb0a678	0.07434209801490421
214	0xbfbfdfbc7fa4eda7	-0.12450769535364846
215	0xbfc6ec9705ae183e	-0.179095151685205
216	0xbfc4137f1a923f84	-0.15684498593736518
217	0x3f913ac1900232c8	0.016825699247919684
218	0x3fbd138de9e1ce35	0.1135796257020097
219	0xbfc2305bea0e28ec	-0.14210080078584697
220	0x3fb5fafef70cfc65	0.08586114436637755
221	0xbfb1fc2f8ee71ef3	-0.07025429953420907
222	0xbfdd1b456c3bf3fd	-0.4547895009016541
223	0xbf95645f44309ddf	-0.020890701806051012
224	0xbf51ceb2e3373a7f	-0.0010868784855692368
225	0xbfda3c198e4f6f20	-0.40991820237626264
226	0xbfc4987533e70f79	-0.1609026435308996
227	0xbfc5972ddabcedc0	-0.16867612057272474
228	0xbfe0901a4a62f739	-0.5175906613219247
229	0xbfc68bbb35fcd047	-0.17613926063643445
230	0xbfbcf8ec690b14fb	-0.11317327084096356
231	0x3f92a14fcb42a5c7	0.018193480282809007
232	0xbf80e8afe79ef099	-0.008256315475471164
233	0xbfb38608316ea586	-0.07626391608086722
234	0xbfd097e5dbc1a9e5	-0.25927111111255235
235	0xbfd475cd05467fec	-0.3196899940030551
236	0x3fa643aad2c57d27	0.043485010365424785
237	0xbfb942c6b740a8e3	-0.09867517446460598
238	0x3fb634976045780f	0.08673997974753454
239	0xbfb3beb094a8256a	-0.07712844495121876
240	0xbfb8e40a3ad74bf2	-0.09722961365268626
241	0xbfc12741a086a41d	-0.13401050890141245
242	0xbfafe7e64baead4b	-0.062316128481450926
243	0xbfb94d49e92aee6f	-0.09883558218546694
244	0xbfce234306239e94	-0.23545110511553402
245	0xbfb5289c375949cb	-0.08265091277397756
246	0xbf4206f46c014a61	-0.0005501454798014332
247	0xbfe4e6ddd85ba873	-0.6531819558852149
248	0x3fafb290eed35693	0.0619092265639384
249	0x3fb2b8f2ab29b35b	0.07313458136350219
250	0xbfb5a0039614a850	-0.08447287000731873
251	0xbfd9ccb8b1978b9d	-0.4031202062889692
252	0xbfa037bbccc33c1b	-0.031675213571013404
253	0x3fbdc3fdd0bd3a8b	0.11627184244319204
254	0xbfc3da9e17230a5b	-0.15510917787294684
255	0x3fb081d750f10ab4	0.06448121763336695

transform_generator.3.bias f8 [64]
0	0xbfa1b5cb01ecfb5e	-0.03459009550578317
1	0xbfd0bb75c7f3e8a2	-0.261441655413032
2	0xbfa878b82992bb1d	-0.047796015810823024
3	0xbfd3ea5d8486a87f	-0.31117952291481993
4	0x3f77dad32da0f198	0.005823922076214315
5	0xbfb45c978e1c9733	-0.0795378419830655
6	0xbfa9ae0a862d42a0	-0.05015595329189648
7	0x3fa8d214222e94d6	0.04847777287731396
8	0x3fee72ed80df259c	0.9515292660736807
9	0xbfc0688203c17614	-0.12818932708152941
10	0xbfc8427c62fb69fb	-0.18952898820027983
11	0x3fae2cfa772e2772	0.05893690781438367
12	0xbfc54f28d1a921a8	-0.16647825467431443
13	0xbfd17b3904595973	-0.27314591812810035
14	0xbfafeef0e0cfdf99	-0.06236984962737253
15	0xbfb1126472165cb2	-0.06668689523063412
16	0xbf80517c425136af	-0.00796792104133756
17	0xbfc25bf064127ba4	-0.14343075643861625
18	0xbfaa164bf208d46d	-0.05095136003038978
19	0xbfb014e1c9746910	-0.06281863373115848
20	0xbfc5452881c9cee5	-0.16617304169960004
21	0xbfa13951ec4e7c0b	-0.03364044198610124
22	0x3fa5861bb9791669	0.042038790121790744
23	0x3fee09f5de5410a4	0.9387158720351363
24	0xbfa428004f2b0c87	-0.03936768499763681
25	0xbfba36d4e706dd33	-0.10239916458418889
26	0xbfb26b1278fdb9b0	-0.07194629148373255
27	0x3f86e6a8dc863209	0.011182135801186115
28	0xbf94dc6db3911e95	-0.020372118077175278
29	0xbfb428b094bdede0	-0.07874587661165533
30	0xbfbe3ac256e309ea	-0.1180840932966373
31	0xbfbe6df7fc2ed4ca	-0.11886548907098696
32	0xbfc650e00a0b1a29	-0.174343113807667
33	0xbf78f93bbd94d9b6	-0.006097062455685911
34	0xbfa656c630bd5c04	-0.04363078446356641
35	0xbfebbc38c92bfbf9	-0.866726296342562
36	0x3ff419ff102fbe99	1.2563467628751026
37	0xbf25912c70bf97b1	-0.00016454379544866623
38	0xbfc17a28c8eca204	-0.13654050646552218
39	0x3fa3f2d4fdc7d135	0.03896203611285146
40	0xbfb796d39813ebbd	-0.09214518034779835
41	0x3fc9d492f3e8c6ab	0.2017997446978844
42	0xbfc5cc45b4db83b9	-0.17029639559680534
43	0xbfc6093116791186	-0.17215550992308354
44	0xbfbb2b1996a7c381	-0.10612640312298362
45	0xbfb214f130eaf4fb	-0.07063205189020387
46	0xbfbf5d2fa2b3dece	-0.12251565668327233
47	0x3f9283e4aad7c8cd	0.018081257750915115
48	0x3f9368d0ea7449a1	0.018954529104186716
49	0x3feda43eb2b94a29	0.9262994280528051
50	0x3fff47a98f8c0e13	1.9549956900890535
51	0xbfc821f515ea86bc	-0.18853629655955284
52	0xbfafeccc3f74f9c1	-0.06235349917050171
53	0xbfd38cc9f5d09182	-0.3054680729421976
54	0xbfb932eb9d6f87ad	-0.0984332332004942
55	0xbfbb1a458d9c7c11	-0.1058696242075572
56	0xbfe5aa2516eb7876	-0.6770196387913205
57	0xbfccff44fee1bd8c	-0.22654020734215086
58	0xbfefb49a118ff9f4	-0.9907961218848969
59	0xbfac08c6c62ce3b7	-0.05475445908672987
60	0xbfb463fb23c4e3d0	-0.07965058921116897
61	0xbfbd3b25ce5b0cc0	-0.1141837719724661
62	0xbfada1a7f9fc1244	-0.05787396360941391
63	0x3fe2e47696556615	0.5903885780527981

transform_generator.6.weight f8 [64, 64]
0	0xbfb047c7c1561027	-0.06359528036233596
1	0x3fa2d3f16b12cb88	0.036773247070775616
2	0x3fba8bde72fad055	0.10369673068163483
3	0x3fc94ae9ddadebea	0.19759867977322126
4	0x3fa4652faf1502f9	0.039834489939044766
5	0xbf8c09ce43015628	-0.013690577907406867
6	0x3f6d6cc20dbcfca2	0.0035918989287036665
7	0x3fa5f03c9adbdbc7	0.042848485854782896
8	0xbfc8748f00ea97aa	-0.19105708641762692
9	0xbfa32d9dc5d0b93b	-0.037457399747256
10	0xbfde037012b55899	-0.46895982577314893
11	0x3fb9dcdd93a693a8	0.10102639059785068
12	0x3fa8d1c49ff4206d	0.04847540333327136
13	0xbfac8573dd1114a1	-0.05570566247528431
14	0xbfc40ecdba0ef23d	-0.1567017706382944
15	0x3fc031a226798fc4	0.12651469114928038
16	0x3fae295d762f89cc	0.05890934055038918
17	0x3f65d29ebea546d4	0.002663908050785627
18	0xbfbddc05524bb590	-0.1166385007779438
19	0x3fc88a6c16a0ac77	0.19172431092133355
20	0x3fbb2be08e584523	0.10613826251234974
21	0x3fbef98f7bf605a5	0.1209954908026903
22	0x3f5a31e0474e3e7a	0.0015988054485411005
23	0xbfd9c0cc764adcb4	-0.40239249755854734
24	0x3fc2e226e677d389	0.1475266099293118
25	0x3fafc2a91f8dece4	0.062032017804961176
26	0x3fb170f65f5b3b25	0.06812991931950003
27	0x3f8db842d0bb43bf	0.014511606211643156
28	0xbfbfb680114cafc3	-0.12387848303177322
29	0x3fb543236eb7b810	0.08305570080821689
30	0x3f70b2d0f993efc4	0.004076782520538506
31	0xbfb7021e88bb9f2e	-0.08987608755307683
32	0xbfa4a7781098603f	-0.04034018709734299
33	0xbfa9a51073681cb2	-0.05008746536992116
34	0x3fae2fdfbe65b00a	0.058958999626014544
35	0xbfb3e6b6999a5623	-0.0777391552931808
36	0xbfc3e086e93b21c4	-0.15528952015144004
37	0xbfa50ec9968aa716	-0.04112844431558764
38	0xbfb2d65aa2a7c096	-0.07358328314853887
39	0xbfe3e422eaadf216	-0.621598680837965
40	0xbfb221aa443a09c6	-0.0708261887139435
41	0xbff24a74a41d9290	-1.1431776438486487
42	0xbfd59cc5db724880	-0.3376936572104867
43	0xbf9e62d671d974dd	-0.0296739108074363
44	0xbfc0291f47805459	-0.12625494948648244
45	0xbfa65470d5866e38	-0.043612981858327904
46	0x3fc3135b8a027c62	0.14902824629550354
47	0x3fc45d204a219ada	0.15909198398295282
48	0x3fa0747f5ea96c55	0.03213880568065323
49	0xbfd08c8078018937	-0.2585755512174219
50	0xbfd9fe30ae1797b2	-0.4061395359152541
51	0x3f8c2481c1607e46	0.013741506303687544
52	0x3f6559b24314e3a3	0.0026062471084995083
53	0xbfb4e1e6b6ceb223	-0.08157197917052676
54	0x3fb314d3010c39c1	0.07453650260524737
55	0x3fbccabfb4de133d	0.11246870198926913
56	0x3fba48f3c195bf11	0.10267566181368816
57	0xbfada39b08851600	-0.057888836660406895
58	0xbfc2df66102fcd08	-0.1474425868069391
59	0x3f936dd95c42ec77	0.01897372842425368
60	0xbfc674bebd94a06f	-0.17543777710784833
61	0xbfb32827bfa6b605	-0.07483147076592196
62	0xbfb91c49da54f4b9	-0.0980878980671659
63	0xbfb913b96cc7ff10	-0.09795721917907607
64	0x3fc018baadb62a75	0.1257546756936169
65	0xbfc601f0e83945cd	-0.1719342359452142
66	0x3fc34b76004f8737	0.15074038520020291
67	0xbfad59f84bcce256	-0.05732704091355305
68	0x3fabe3ddd88e25e3	0.05447285908219237
69	0x3f80d13e9798ced0	0.008211602212305463
70	0x3fa4832659bd4328	0.04006309361887467
71	0xbf7ff1ea93f2d9c5	-0.007799068756119747
72	0xbfc9ef10005d6164	-0.20260810869036583
73	0xbfa9ecf8b1bdf72d	-0.050636073777225434
74	0xbfba77a2326d8676	-0.10338796359203592
75	0x3fb05708a447c5e1	0.0638280297350984
76	0x3f97089b7bd4a260	0.022493771965999776
77	0xbfa33959c867365e	-0.03754692622497367
78	0x3fb17cdbf4b6bc82	0.06831145023783061
79	0xbfaa1f610ca9d6ec	-0.0510206535299583
80	0x3fc4ef4d7c2fb285	0.163552938115931
81	0xbfb2050466467b2e	-0.0703890561767195
82	0x3fc25cd06e84d2de	0.14345746418407307
83	0x3fb686a4d6571d48	0.08799200280110597
84	0x3fb4981e87f2ff1c	0.0804461557299842
85	0x3f97aa629fd56e24	0.02311090565249975
86	0x3fa2d548b4e4888b	0.03678347786105104
87	0xbfbcf58f70e89c5f	-0.11312195307310578
88	0x3fafc28d43305df7	0.062031187488340515
89	0xbfa99a900ed4f5f1	-0.05000734501889415
90	0xbfb0ad5c6979ac1e	-0.06514527869300976
91	0x3fbe9c5ca8bcf88c	0.11957339400848549
92	0xbfb4d5aa0165028c	-0.08138525518462297
93	0x3f8f910a723fe923	0.015413362132666258
94	0xbfb18525807e005d	-0.0684379042340892
95	0x3fb4ebce407a68fb	0.08172310899900374
96	0x3f93681a976f65aa	0.018951812260501612
97	0x3fbae5a5d3f5897c	0.1050666468122809
98	0xbfc1ddf03321db44	-0.13958551880542747
99	0xbfe1563f413d8e25	-0.5417782091357749
100	0xbfbc3fc9db0326cd	-0.11034833523731465
101	0x3fc3144fe809d881	0.14905737714770242
102	0xbfb39a0f0b40750d	-0.07656950020505722
103	0xbfc96315db51ca11	-0.1983363457580514
104	0xbf744d22908af6f7	-0.004956374185608451
105	0xbfb7ffdf44b5deab	-0.0937480490446158
106	0x3fb1017f1a0ec034	0.06642908464596148
107	0xbfad2d0fe57d30ab	-0.056984421504780634
108	0x3f9ced1203213fac	0.02824810165503748
109	0xbf985d560efbf8f3	-0.023793549217764953
110	0x3fc2160a11a537ae	0.14129758702841627
111	0x3fc34dab8d875072	0.15080780420851486
112	0x3f58636d2423e1d7	0.0014885488349688414
113	0xbfbd0c4834d8f9ef	-0.1134686593077061
114	0xbfa13d5f836a01de	-0.033671364585646776
115	0xbfb10dbcd3c2aab3	-0.0666158692353445
116	0xbfb1aa19549f1249	-0.06900175395919307
117	0x3f92850f96a4bea3	0.018085712022353772
118	0x3fb847f986187317	0.09484824680152958
119	0x3fb3e2bb81ed5328	0.0776784126476967
120	0xbfed7310c05e9608	-0.9202960736481041
121	0x3fc3ded2cf2174f3	0.15523753274729976
122	0xbf848e95bd21ffa6	-0.01003758414685747
123	0x3fbf234d43049e4e	0.12163241277868872
124	0x3f9e170e710b3a05	0.029384828233384414
125	0x3fbe8a17ffb5737f	0.11929464333429783
126	0xbfb11bd3283c2b52	-0.06683082325268444
127	0x3fa8eaefb2fe45df	0.04866742191292039
128	0xbf716862bc07ad27	-0.004249940568551914
129	0xbfd03c7dc7860edb	-0.2536920975182803
130	0xbfa60b26eeef5057	-0.043053833643768406
131	0x3fe637173c5ad13b	0.6942249468616305
132	0xbfb8741cf39ad8b2	-0.09552174517998216
133	0xbfc058303d892861	-0.12769129757572542
134	0xbf93025640e34a9c	-0.01856360217136431
135	0x3f6ad3519830804a	0.0032745927469619894
136	0x3fa2aeb0a38cf00b	0.03648902889696622
137	0x3fa9fd82533c3b78	0.05076224580817884
138	0x3fa75d4dfd477bf1	0.04563373295581375
139	0xbfbac2e7b220a0ba	-0.10453651522459753
140	0xbfc547e754dd2439	-0.1662568249105634
141	0x3f85f2533392d4b5	0.010716104518318262
142	0xbfb669cc7d380f3b	-0.08755186135391295
143	0xbfa73ed52793214d	-0.045401249962710645
144	0x3f9b08cad2a089b9	0.02640072737279706
145	0x3f9328e64ee49275	0.018710707249868414
146	0xbfbe286e7ef49b4a	-0.1178044376325548
147	0xbfba7e00e91e7cca	-0.10348516169914315
148	0xbfb4521c66a5bcfb	-0.07937791353264238
149	0xbfa4d681d7962e1d	-0.04069906002686372
150	0xbfbdfd656612040c	-0.11714776746704575
151	0xbfbc86b969b6db38	-0.11143072920718289
152	0xbfb894fccdbf90be	-0.09602336905624306
153	0x3fb1dc828e06b3fe	0.06977096526561863
154	0xbfaa36e56c045f75	-0.051200074611357595
155	0xbfc482798e4cf92e	-0.16023177574420217
156	0x3f876263095fd680	0.011418126796324701
157	0xbfc163480379d4c0	-0.13584232492181592
158	0xbf8f2db2f8c16407	-0.015223882881558749
159	0x3fb05dc3158cd50b	0.06393069530607336
160	0xbfbcd302cc7e10fd	-0.11259477131358504
161	0xbfb249cf23256e3c	-0.07143873794614647
162	0xbfa86b09ec95b4d9	-0.047691640977839796
163	0xbfb9df07d703d9b0	-0.10105942725554118
164	0x3f847dc088a5d328	0.010005478067549214
165	0xbfbfdadb11a5f482	-0.12443322354188704
166	0xbfa6272e54f43b7e	-0.04326767718349965
167	0xbfbde0be78a2f7ed	-0.11671057172040351
168	0x3f60bae074bd52b3	0.0020422347933311768
169	0x3fb341335ca5a473	0.07521363269701613
170	0xbfc3a5a8e19d9737	-0.15349303261171496
171	0xbfdaede08dc5de7f	-0.42076886982929546
172	0xbfbe5c02facfc7fd	-0.11859148619967637
173	0x3fc989e87e344ebc	0.19952112352676987
174	0x3f7f69ba62959c24	0.007669189516810202
175	0x3facf68a62225d0b	0.05656845519950523
176	0x3f79f988b7098be5	0.0063414898328088875
177	0xbfba1b9e48affc9d	-0.10198392176242739
178	0xbfa63e67a18a6079	-0.04344486090593675
179	0x3fa21fd11c9c9cf8	0.03539899324669621
180	0xbf9e32a20ac2af7a	-0.02949002447773761
181	0xbfa2d0f697970715	-0.0367505130812004
182	0x3fadb2a2d2b19728	0.05800350973076568
183	0xbfbe712bb3b5774e	-0.11891434800551545
184	0xbf9e12a862e215b4	-0.029368048701618313
185	0xbfb8449527e3f5c7	-0.09479648803604511
186	0xbfc4c4490a0e9321	-0.16224015227376135
187	0xbfa12a18021a5f17	-0.03352427507087279
188	0x3fa22a27aca78a04	0.03547786696050895
189	0xbfc51bcd80af6ec1	-0.16491097243748779
190	0xbfbb0040197844f5	-0.10547257062741607
191	0xbfc13c663ab879be	-0.13465574137894792
192	0x3fd420da151e40e2	0.3145051199180796
193	0x3faaef7fd79ef0c9	0.05260848528948398
194	0xbf81853ee31fb510	-0.008554927164335285
195	0xbfc9017e4eb00f74	-0.19535807459044074
196	0x3fcd5cef47e8db5a	0.22939864169321816
197	0x3fb704e992dfc71e	0.08991870723528136
198	0x3fb71db53f36d5f9	0.0902970580417203
199	0x3ff14560aea5b7ed	1.079437906471408
200	0xc00d1edbc6933777	-3.640067626350113
201	0x3ff9e42e28e144bf	1.6182080838082553
202	0xc00838b81e7638f9	-3.0276949291065844
203	0xbfd5cd5dc53b2eac	-0.34065956364495764
204	0x3fac0564b1982338	0.05472864787959114
205	0xbf6879aae3d88ad7	-0.0029877031036148294
206	0xbfc185c0077b27fe	-0.13689422955786762
207	0x3feb7fb127cf20aa	0.8593374040147144
208	0x3fd8687170b3272b	0.38137470250932165
209	0xbfd0990de91ae403	-0.2593416954437659
210	0xbf5d9386a14031ac	-0.0018051924462297681
211	0x3f9163cc4f0f2092	0.016982261968025165
212	0x3ff802400f51d4a7	1.5005493734763975
213	0x3f9b6095cb8bcdd4	0.0267356305584608
214	0xbfff1f429959dd0e	-1.9451318731569844
215	0x3fe82ea401b57e4b	0.7556934388521283
216	0x3fd37c4e17e4b33a	0.30446197827659527
217	0xbf979b248a5ed72a	-0.02305276007219629
218	0x3fdc9dabe3dff5fa	0.4471235013332656
219	0xbfe16d4bf7004a4c	-0.5445918869248287
220	0xc0045f11d4bc4f09	-2.5464207286803497
221	0xbff15ecc08435cad	-1.0856437990931156
222	0xbfafd9a4d5131c47	-0.06220736599930681
223	0xbfc017b0398a2a8a	-0.1257229119258521
224	0xbfb90f31ad2417e8	-0.09788809277605959
225	0xbfefe31ae78a5bf8	-0.9964727899813388
226	0x3f9a0a8279dd1d61	0.025430716217014097
227	0xbfde45da71306cf8	-0.4730135064471166
228	0x3fbca57e491edcd9	0.11190022740526064
229	0x3fd8483130378b2f	0.3794062586659263
230	0xbfbb59766bee249f	-0.10683384070411471
231	0x3fa0accfc7266453	0.03256844812421691
232	0x3fe9527d8cec0e39	0.7913196327576265
233	0xbff1a1b658fffd48	-1.101980540901268
234	0x3ff57299469e1209	1.3404782064909588
235	0xbfb5c43a7a0bd34b	-0.0850254581417406
236	0xbff22c6c732fbffc	-1.1358456134294093
237	0xbfa6200e95639e60	-0.0432133252486977
238	0x3fd6b3a6501b45af	0.3547149450579025
239	0xbfa9d99bd7cc0de2	-0.050488348095338656
240	0x3fe7ec3efe35c2e6	0.7475886311568416
241	0x3fe364b6922cf144	0.6060440878859841
242	0x3ffbcd2adacfe789	1.7375896975849818
243	0xbfb546859a01f82b	-0.08310732850984041
244	0xc001e2f6616bae06	-2.235821496103884
245	0xc010ab240d4ded5c	-4.167129714852617
246	0xbff75759898fba6f	-1.4588256238454524
247	0xbfb8741e5498a889	-0.09552182736720928
248	0xbfed178f7ccdbfe3	-0.9091260373661466
249	0xbfee13e7d51a0ba0	-0.939929882253967
250	0xbfbe20511c719071	-0.11768061584877089
251	0xbf6f3249be5dac7e	-0.0038081589036003663
252	0x3fa12d92adac0deb	0.0335508191110668
253	0xbfce79d363f33e77	-0.23809282665614592
254	0xbff8333109beaebd	-1.5124979382189132
255	0xc00d9b106ea023ef	-3.7007149355526887

transform_generator.6.bias f8 [64]
0	0x3fadac9e5a5552b8	0.05795760014249168
1	0xbfbcfd34247f2e1c	-0.11323858157191363
2	0xbfb27775c89907a6	-0.07213531634718481
3	0x3ffecdbb9d8eeb36	1.925227752172487
4	0x3fc7e0d3ace77c0f	0.18654867117490467
5	0xbfb9153506f35ea0	-0.09797984523481285
6	0x3fa75cb94aeb4bce	0.04562930144825082
7	0xbfca42503bd4927d	-0.20514872476009663
8	0x3fdd0ac04f704e60	0.4537812019127383
9	0x3f7dc02b13a5fc2b	0.00726334406715438
10	0x3f87781c37b11728	0.011459560823037743
11	0xbf82e06c95f95f9d	-0.00921711762127569
12	0x3faa588583be0654	0.05145661576444796
13	0xbfb4df08ca8b184d	-0.08152823395639182
14	0x3fda1b398d192b37	0.4079116704858054
15	0xbfa82be54a989a46	-0.04720989738079999
16	0x3fb39ae51d4d6e37	0.07658225980178988
17	0xbfb20adcafe5fb9d	-0.07047824186700642
18	0x3ff7890aee6a679e	1.470957690535648
19	0x3f895b492ffab653	0.012381145264352222
20	0xbfad743736ee8901	-0.05752728028825694
21	0xbfc0eba965d99231	-0.13219182465685855
22	0x3fa7285aed527d72	0.045229760618208284
23	0x3faeaa9d4f9d2a83	0.05989543530320864
24	0xbfb64626372a8663	-0.08700789305523808
25	0xbfafadcff3e8a54e	-0.06187295772935873
26	0xbff762419c4ebfbb	-1.461488352371801
27	0x3fb805723c8d5100	0.09383310297318204
28	0x3fc8928f3cf7515c	0.19197264172420148
29	0xbfb1ed5c19140996	-0.07002807247412188
30	0x3fc05a5be87e3743	0.1277575383396031
31	0x3fd9bc1b50bb168f	0.4021061218630643
32	0xbfb968fb60cc3367	-0.09925814736579995
33	0x3f95a781c6e422c0	0.021146800770142304
34	0xbfcf547dcebc59da	-0.24476597399252747
35	0xbfe2aa5ef9fb8238	-0.5832972414464797
36	0x3fa54f4d57aa4820	0.04162065215236077
37	0xbfb9a516e29aca15	-0.10017531425800315
38	0xbfa82279fac73e94	-0.04713803468950775
39	0xbfd0841fa0d6d17b	-0.25806418139406845
40	0xbfb9bf80883a56a4	-0.10057833982349479
41	0xbfc4217a6029c4ed	-0.15727166839091158
42	0x3fcc103e927ea323	0.21924574044285192
43	0x3f987d33e4101c6e	0.02391511039243393
44	0xbf6e94fc83ff97e8	-0.003733151621406517
45	0x3f90054a6e03f36c	0.015645182575997493
46	0x3fb80876e62fe4f0	0.09387915725519114
47	0x3fccced3f8f7708a	0.2250618901879345
48	0x3fa1a881fabf081f	0.03448873697153964
49	0x3fcb70ed1375b2e6	0.2143837304132809
50	0xbf8048392801a9d7	-0.007950254948998854
51	0xbfb74223be29d48f	-0.09085296051655888
52	0xbfb314b3bf8b0b97	-0.07453463960977867
53	0xbfc02f7ef78c8c14	-0.1264494618163502
54	0x3fbb9df86c83b479	0.10787918710021129
55	0xbfb59536e4155303	-0.08430808132591143
56	0xbfc5c547525fa502	-0.1700829651083851
57	0x3fec7d0f374b93d2	0.8902660446152544
58	0x3fde2cdf6756ab44	0.47148881045966484
59	0xbf99815d7a97425a	-0.02490755139098364
60	0x4009bcd903655881	3.2172107949546107
61	0x3fb9920b416ccc97	0.09988470408716164
62	0x3ff93dc80e8e0489	1.5775833672089752
63	0xbfa98db877a895a2	-0.04990936718631224

transform_generator.8.weight f8 [4, 64]
0	0xbf94d9e9c7606959	-0.020362522882444754
1	0xbfbdcca791f01f69	-0.11640403092326114
2	0x3fb06588ab9bddda	0.06404928388280187
3	0xbfb9f57ef0eac623	-0.10140221959843436
4	0xbf9355d0059f891e	-0.01888203653641895
5	0x3fae0e76f3af84d0	0.05870410656621916
6	0xbf95bb0c1383ffa0	-0.02122134083856475
7	0xbf5eb7f6b599aebd	-0.0018749150534870661
8	0xbf99057c14dddce7	-0.024434984944915163
9	0xbfa180407a4c9b70	-0.034181609086138987
10	0xbf9a852a2670d993	-0.025898607822648478
11	0xbf85992b94d9a63e	-0.010546055297896758
12	0xbfb278ea77adc966	-0.07215753003928213
13	0xbfb5498bca351c27	-0.08315347372727953
14	0xbfb16487f605f1af	-0.06794023281503912
15	0x3f540d2bb041e6e1	0.0012238432546198207
16	0x3f8521291fa17be8	0.010317155149264637
17	0x3fa4ce48dd727e61	0.04063632682050123
18	0xbfa32d61bc03ce3c	-0.03745561046698895
19	0x3fa822e9c3acdc53	0.04714136613477451
20	0xbfb2b76a9790620f	-0.0731112117795265
21	0xbfa5ded42a24508a	-0.04271567358424118
22	0xbf832313ed6d7091	-0.009344249423229452
23	0xbfaf339d4a22e572	-0.06094066171631142
24	0xbfa9fd99454348cc	-0.05076292963498616
25	0x3f86bfaeed05fbee	0.011107794388179184
26	0x3fb9af19d7596d0d	0.10032807834197773
27	0xbfb1ed13eff98000	-0.070023771369506
28	0xbfa4d2348431f036	-0.04066623796185846
29	0x3f90cefe0db9435b	0.016414613330485533
30	0xbfa02ebb4b6d09ee	-0.031606533963458236
31	0xbfb02c645fd4e508	-0.06317736949576525
32	0xbfb9356ddaf5374e	-0.09847151370669602
33	0x3fb0a70eb70f275a	0.06504909486025437
34	0xbf95fe40eb992b3f	-0.021477712993412054
35	0x3f9e87d6de73a0e6	0.02981506092774646
36	0xbf9eb30a83491fc8	-0.0299798624639889
37	0x3fb2a7fa72006826	0.07287564547769473
38	0xbfc01f824dc3e946	-0.12596157834179617
39	0x3f820a42fa6b6156	0.008808635012812854
40	0xbfa2d5f8a19e1760	-0.036788720825866816
41	0x3fc280835ef37c6e	0.1445469106319907
42	0x3fa7162ff72a2ad7	0.0450911511625997
43	0xbf934082fc5faba3	-0.018800779966038694
44	0xbf940de5cd9a885e	-0.019584265398073668
45	0x3f530d709e11abf2	0.0011628722934584582
46	0xbfb17acb0c981b13	-0.06827992494082151
47	0xbfaa8b1a989620b7	-0.051842528463624964
48	0xbfb258f37969858b	-0.07166978563465969
49	0x3fa9fb12111f7e0a	0.05074364146252826
50	0x3f9cf0c801e0b5ab	0.028262257685289487
51	0xbfb217a2738ad838	-0.07067313500269357
52	0x3fa477f88d13d15e	0.03997780534874339
53	0xbfa3ce6385cc77e7	-0.038683996279573134
54	0xbf9c2830f06b8381	-0.027497067140646706
55	0xbfc36e738e15f058	-0.15180820882585766
56	0x3fa5100b1b1dfb60	0.04113802629489416
57	0x3fa1814e124e0937	0.034189643606639945
58	0xbfc24ec124fc093b	-0.14302839570889056
59	0xbfb80088e78b6cb4	-0.09375816014237409
60	0xbf87810bfdd50d43	-0.01147660606750967
61	0xbfa3f48fcccaada6	-0.03897523283861952
62	0x3fb31be8b2512954	0.07464460709994586
63	0xbf9f9cd75a461e7b	-0.03087173927772689
64	0xbfaa1563eac4e2b8	-0.050944445045791154
65	0xbfd267458a6494ee	-0.2875532008641376
66	0xbfd10fe7ad5e50d2	-0.2665957634974464
67	0x400adf92325ce66a	3.359165566883168
68	0x3ff8a162f9112e7d	1.5394010285553172
69	0x3f943916b1add1aa	0.019749025911964736
70	0x3ffc0b177ab69c0d	1.7527079385270128
71	0x400271bb149a2cf2	2.3055326089430475
72	0xc00367008a98a851	-2.42529400137304
73	0x4000e0dc7bbcf28e	2.1097955386197276
74	0x3f0647a0e5441e71	4.249534382166638e-05
75	0xbfb2bed5d47beb03	-0.07322441518401139
76	0x40090f72074de801	3.1325417109155755
77	0x3fe35241d73b32f4	0.60379116093972
78	0xbfb8546281d5e716	-0.09503760976613437
79	0x3fb3b451a5f55576	0.07697019864766283
80	0xbfc3695cccc17785	-0.15165290830458047
81	0x3feae0805139325b	0.8399049364466679
82	0x40098487101deaf4	3.1897107371454414
83	0x3ffc565566340a1e	1.7710775368037797
84	0x40164a08a33ddbc5	5.572298575068037
85	0xbfa1c028a05d927d	-0.03466917951189872
86	0xbfd056ae1a7f1d80	-0.25529053294709314
87	0xbfd0e7994e420a89	-0.2641356720197697
88	0x3fbe04419b5b8a65	0.11725244563016586
89	0xbfaeb4ecdf144d0a	-0.05997410033355706
90	0xbff76234b8a9c98a	-1.4614760602385979
91	0xbfad65ccec68a758	-0.05741730104303028
92	0x4000e06e0757a33e	2.1095848630542653
93	0x3f9d5a8a86ab65c2	0.02866569945294884
94	0x3fc37ed21da7f564	0.15230776260424783
95	0x40023ecce8872f18	2.2806642690901633
96	0x3f9b43c869036c55	0.02662575856161838
97	0x3f979e61a6422d28	0.023065114758123034
98	0xbfe2aa46e11bdc4f	-0.5832857510239452
99	0x3fb938cf4a564f2e	0.09852309765693398
100	0x3ffb11faf8c3e387	1.6918897359266525
101	0xbfb82515b69ec789	-0.09431586941243898
102	0xbfc32201b74a8854	-0.149475302217129
103	0x3faba5320775660b	0.05399471608206959
104	0x3f9394445d45da71	0.019120281403468945
105	0xbfe2c07167344a9a	-0.5859915748317974
106	0x3ff1da567b926fd9	1.115805132582855
107	0x3ff81a08edaf2309	1.5063561710869087
108	0x3fc70fd3322a0bf7	0.18017044019151715
109	0x4002d0af20a0e7f2	2.3518965291123033
110	0xbfe43412c3fd0798	-0.6313566043756849
111	0x400173bfcc5c6b80	2.1815181699470827
112	0xbfc74a31ff913dd1	-0.18195176104425895
113	0x3ffdcc6af57c3fe3	1.8624066914817312
114	0x3ff6469c2bc8110b	1.392238780042194
115	0xbf6dbc3aaea105d3	-0.0036297937522540096
116	0xbfd7b2795a867bd1	-0.3702681907688517
117	0xbfc903a16381d4a9	-0.1954232917666208
118	0x3ffee55b1e34e7a7	1.9309951000163694
119	0xbfa91450c6e61a03	-0.048983120231287834
120	0xbfba1fed1f41c07a	-0.10204965603930019
121	0x3fff708c6ee98bd9	1.9649776775847754
122	0xc00285ce21555443	-2.315334568420924
123	0x3fc55a2489c88a27	0.1668134377260497
124	0x4007df7f43967ecc	2.984129455595257
125	0xbfe8b6c5566e68c7	-0.7723108947859821
126	0x400044875a264218	2.033461288731143
127	0x3fb17d2043bef726	0.06831552175478048
128	0xbfbeba0b3e2295d1	-0.12002630488367251
129	0xbf98559ca7ab1907	-0.023764083608306865
130	0xbfb8a736e820aef9	-0.09630149047069016
131	0x3fb2a8191b63138f	0.07287747305515622
132	0xbfb8348f01d8001f	-0.09455198092473481
133	0x3fb6c0c29cac28ed	0.08887878727924532
134	0xbfa0fb6c4a8a6343	-0.033168205355826895
135	0x3fa31b1a5ab64fff	0.037316154073010914
136	0x3fa9a8eda18663e3	0.05011694523563628
137	0x3fadca2e9ace224f	0.058183151623840794
138	0xbfa1c9d4ed9a1f53	-0.03474297905364545
139	0xbfa5e2342836e51b	-0.04274142256640286
140	0xbf6465200762f53f	-0.0024896264613675496
141	0x3faef13472c9f383	0.06043399716597888
142	0x3fb07142e1ac0e2f	0.06422822961399598
143	0xbfa07c0e1588bdf3	-0.03219646466129324
144	0xbfb8248034bd3119	-0.09430695808004365
145	0x3fb5ceecca2353b1	0.08518867430696166
146	0x3fbead1fe81a1e11	0.11982917229226354
147	0xbfb95727079cca7d	-0.0989860910019988
148	0xbfadef741ad948b7	-0.05846751048797343
149	0x3fbdef0a04329223	0.11692869760970175
150	0x3fbbc175cc318767	0.10842071757499881
151	0x3fb6bfe7dcbbd1e3	0.0888657487774434
152	0x3fbc220fec0aef99	0.1098947478557747
153	0x3f590481ac7de0ff	0.001526953348699733
154	0x3fbffd4a57e92c37	0.12495865484486122
155	0xbf719e2b145c753f	-0.004301231650768954
156	0x3f8b216068560d0f	0.013247254547201352
157	0xbf9fbe977dba916f	-0.03100048737418731
158	0x3fb38c3671314031	0.0763582254742239
159	0xbf9c17b3e685fa8f	-0.027434168763188323
160	0xbfb413f8e87f7593	-0.07842975307672466
161	0x3fa1050423155907	0.0332413952661899
162	0xbfbe16f3a8c59f93	-0.11753771658334093
163	0x3fa0bf3dffb2d877	0.03270906206437101
164	0xbfad26d99fce07b7	-0.05693702769987346
165	0x3fbc59364bfb4e9f	0.11073626856824113
166	0xbfbb8ac933cb0edb	-0.10758645548326788
167	0x3f92af273c36d2af	0.018246281671695893
168	0x3fbb5027ff6fba17	0.10669183717957541
169	0xbfb93d66068bd3ab	-0.09859311733073521
170	0x3fb62715c36ad75d	0.08653388997012486
171	0x3f8038e6508718ff	0.007921027500640053
172	0xbfbef894a079559d	-0.12098053853818276
173	0xbfbb2fc92ab46c5b	-0.10619790356251839
174	0xbf852fc59fa21eaf	-0.010345024046059718
175	0xbfbca85561921113	-0.11194356567472523
176	0x3f9a0324d980912f	0.02540261819389505
177	0xbfb6c9bcf3d5ed3f	-0.08901577904719192
178	0x3f9569583222b547	0.02090966993335044
179	0xbfb56db06b28fd3f	-0.08370497337545134
180	0xbfacd1d3f3d10dfb	-0.05628836013104529
181	0x3fac0fe92c31126b	0.05480889000367458
182	0x3fb2289203087aa9	0.07093155454684087
183	0x3f986e830275e2c7	0.023859068894554605
184	0x3fbd5c842056938b	0.11469293393618167
185	0xbfb0e2282c484a71	-0.06595088082421242
186	0x3fbd87a6d4d3ea95	0.11535113044730345
187	0xbfa634762979f0bf	-0.04336900001814702
188	0xbfa46a9299c0dc5f	-0.03987558485862829
189	0x3f72e1341487ca9f	0.004609301985044083
190	0xbf844003731079af	-0.009887721013055321
191	0x3fb967714bd9e3bf	0.09923465825876486
192	0x3fb7e9ab7f1500d5	0.09340926983441318
193	0xbfbc86b630243867	-0.11143053698853721
194	0x3fb40cb5ba22c57d	0.0783189372475785
195	0x3f97ca756478c2a7	0.02323325563173975
196	0x3fb635ba6de506d3	0.08675732787107941
197	0x3fb92b4f4680fcc7	0.09831710311208318
198	0x3fa03b86063aa5ab	0.031704128513705264
199	0x3fb910776f375bc1	0.0979075094722779
200	0xbfb7b60c5589fba1	-0.09262158478121175
201	0x3fa481d2f88bfb87	0.04005297931688916
202	0x3fbaa6d3b1707723	0.1041080768777332
203	0xbfbe9871df4ce833	-0.11951362325353969
204	0xbfba93bfefcf7fa9	-0.10381698231458238
205	0xbfb2fc077ba5d049	-0.0741581608652392
206	0xbfb996b632dbe521	-0.09995592824624967
207	0xbfb1614e5a4955b9	-0.06789102272281057
208	0x3f83350aec73756f	0.009378514614975157
209	0x3f60e52cd93ae03f	0.0020624042461712395
210	0x3fa90c7ae81c4dab	0.048923340638931855
211	0x3fab1b83c539a473	0.05294429571660766
212	0xbfbf666855eb0aa9	-0.12265636537180548
213	0x3f9df05cfcb4198f	0.029237225459860346
214	0xbfbfaf0eab27589f	-0.12376491240078956
215	0x3fb2fde66d6f5d2d	0.07418670818093594
216	0xbfbe82d0af73e80d	-0.11918358119501722
217	0x3fb61976d96f8713	0.08632605370032946
218	0x3fa0c0309ca20967	0.03271629249595059
219	0xbfa3bce0c63e56db	-0.03855039997067219
220	0xbfb0b200fac0e471	-0.06521612283622048
221	0xbfb75c800b8ef1d9	-0.0912551906794258
222	0xbfb0a1716fc7b96f	-0.0649634263897718
223	0xbfaa4ee613cb36cb	-0.05138319961188883
224	0x3fbd3e36e55fa901	0.11423056697791269
225	0x3fb376f03dd6d053	0.07603360662216234
226	0x3fbda40eda2bc817	0.1157845766681763
227	0x3fb745a8933a34db	0.09090665430467786
228	0xbf4c24d6f53cddff	-0.0008588838195242031
229	0x3f9e50b241dac967	0.029604707021186807
230	0xbf958816224cef8f	-0.021026941150224906
231	0xbf8797e4413c1c3f	-0.01152017902451352
232	0x3fb8c8e40fc1c395	0.09681535134019577
233	0x3faa6cfe784827df	0.05161280840191273
234	0xbfac8b30f5153173	-0.05574944488270974
235	0x3fa4df09ec42c50f	0.04076415070574956
236	0xbfbb1b7a2309ea0f	-0.10588801722943962
237	0x3fb9f95d6a6f56a3	0.10146125648983655
238	0x3fa75806fddfb2ab	0.045593470087486786
239	0xbf9a80de6cae2207	-0.025882220633805655
240	0x3fbb73eb8df9af9f	0.10723755088991858
241	0xbf78d6455f7adc9f	-0.006063719738157363
242	0x3fa2c76971efd0d3	0.03667764201955639
243	0xbfaf28db258426f7	-0.06085858185731568
244	0xbfbc94b93adaa335	-0.11164434134356045
245	0x3fb6c4ef7aade57b	0.0889424967298477
246	0x3fb71330d5d4c7a9	0.09013657780158603
247	0xbfa1ab410dab2167	-0.034509690207019265
248	0xbfb59ba3c5dade45	-0.0844061239284822
249	0x3fbd8c299cad9139	0.11541996073862472
250	0xbf927525f96e5b0f	-0.018025010441841845
251	0xbf96643e02318467	-0.021866768726230747
252	0x3fa68e665c8cd3a7	0.04405517463457125
253	0x3fb4352a23e68327	0.07893622757411532
254	0x3fbbea000d76e547	0.1090393097755583
255	0xbf80db3bd2d39abf	-0.008230655070702196

transform_generator.8.bias f8 [4]
0	0x3f9db71878e65c15	0.029018766764775068
1	0x400379aa8cfc8a4d	2.43440733094875
2	0x3fa5735362bfe778	0.04189549045982138
3	0xbfb7cc3304e4338c	-0.09295958394450404
