models/livneh-livneh/QM_SST_layers3/2000/1980_1990/upscale_1by4_Wnoisy001d_bci/model.pth (torch, 38964 bytes, 6 tensors)

transform_generator.0.weight f8 [64, 2]
-0.6248639184270578 -0.6181383692035477 -0.5323296809485498 -0.6327471996353058 -0.3769654879927112 -0.47118922639951694 -0.2766651285446719 0.22691560219638618
-1.401079458336389 -1.2065327529101713 -0.48499959498877493 -0.1762576335929933 0.48500494310606723 0.11444826879017665 -0.3229534790348418 -0.17913440385552828
-1.003012690190604 0.15189556800864593 -0.08639410259509107 -0.38775113705088615 -1.4805493237232035 0.1598095055505846 -0.2655346042106511 -0.2700316668669505
-0.6627850941920799 -0.6500199751567409 0.2820025476716886 -0.0839695776144608 -0.42062420556602387 -0.4291600356891488 -0.35092971197685524 -0.3770177546518542
-0.3879681379185343 -0.2579980946255974 0.08835968998625773 0.3040168467112904 0.3387263411708024 -0.6084594647751306 -0.2697700136652267 -0.09573694857099803
0.39795358581230206 -0.4994385704182814 -0.379716129687866 -1.281975193929587 0.5422184806054181 0.10528244863433789 -0.29575277400141914 -0.8649286024732828
0.03655690189576893 0.009262508668785772 0.18650448928738328 -0.060770010498196345 -0.88852630916242 0.14277807483834706 -0.357257894286244 0.6170206051049921
-0.4492658519314811 -0.10638138616639332 -0.1748269105572873 -0.39396819426778573 -1.1269171143440033 0.23713549351834518 -0.47911598700284946 0.09629223696592003
-0.20664525172083614 -0.08260831131099586 -0.055512805089300045 0.3064629936156524 -0.06882547521123233 -0.8706637850090377 -0.06720992981929176 0.6748972425389254
-0.33259741647440894 -0.6124314460531 0.15621387482730897 -0.5550429818068335 -0.26573262841510986 -0.13218705590387303 -1.3847551851657827 -1.0133815423317476
0.141466043763633 0.3221808708701491 0.14417686157195622 -0.36065370323431317 -0.046715518496010834 0.6786628900370835 -1.7335356291861375 0.1639522751161124
-1.541154386792137 -0.8536410588361144 0.034273207421677415 0.191886342992612 -0.5829828140996057 -0.006068312699662368 0.4567107936370111 -0.10577826166445352
0.023172825222353553 0.09017259117886266 -0.9998227038316215 0.8286941898711141 -0.18812809200415231 -0.18594348286944087 0.1351263040867412 0.004958759616665045
0.12453695106161654 0.1544638859572086 -0.05059473595959618 -0.18563886049246547 0.049334300204323306 0.20446496807909562 -0.31481052244395125 -0.7412829463258815
-0.6962762406553324 -0.614618013247783 -0.7576765813037928 0.0279979718050282 0.28337155426745325 -0.6610516516544745 0.6480729162690592 0.09101845563909126
-0.33619387684842245 -1.0796172320055148 -0.3237047181332674 -0.16074317626125068 0.0047295830941255 0.15219434052651087 -0.8061873182692681 0.29062780174534725
00000000: 2b07 c39d e2fe e3bf 6f39 041e cac7 e3bf
00000010: 00a7 4b41 d808 e1bf 1037 220e 773f e4bf
00000020: 5d8f a9da 3320 d8bf 0343 67db f627 debf
00000030: 8bc0 c2a7 e1b4 d1bf 245c 3109 920b cd3f
00000040: 5a6f 4a4b d26a f6bf 22d5 b449 f54d f3bf
00000050: c133 c3bd 3b0a dfbf 90e3 f931 9c8f c6bf
00000060: 547d 422c 520a df3f dfa1 8953 7b4c bd3f
00000070: 5b61 a511 45ab d4bf 09f0 124b e0ed c6bf
00000080: 4b77 dd08 570c f0bf bd92 8060 5071 c33f
00000090: 4993 3685 ec1d b6bf 24b4 2725 ead0 d8bf
000000a0: e318 d87c 54b0 f7bf 2000 f74b a374 c43f
000000b0: 92a0 42da 84fe d0bf a1fc 84e6 3248 d1bf
000000c0: b499 fa15 8935 e5bf 1b70 e1b0 f6cc e4bf
000000d0: 8dde e869 540c d23f fa89 b6bd 077f b5bf
000000e0: b0f8 b3c9 81eb dabf dd3e 82a7 5b77 dbbf
000000f0: a3a8 08e5 a175 d6bf 9f6d 8f13 0f21 d8bf
00000100: 0102 1050 78d4 d8bf 6a39 b670 0a83 d0bf
00000110: ae92 c69a bd9e b63f e3b6 8313 0375 d33f
00000120: 55d4 673f b1ad d53f c3d3 c4fb 7f78 e3bf
00000130: 428d 8872 e943 d1bf f19a 2177 3782 b8bf
00000140: f1f1 1851 1278 d93f 45ae 9331 cdf6 dfbf
00000150: 217a b1e1 444d d8bf 935f c36b f882 f4bf
00000160: 2b96 2f92 da59 e13f 182f ba61 caf3 ba3f
00000170: 5764 020b 9ded d2bf 71ed 9fbf 7ead ebbf
00000180: 97ba 2b14 96b7 a23f cca5 7dde 38f8 823f
00000190: 80f3 050d 61df c73f 46ac 552f 3f1d afbf
000001a0: 2a9f efb9 ce6e ecbf 051e 024d 8d46 c23f
000001b0: a29f 0c37 50dd d6bf 514a fcfe a1be e33f
000001c0: ab56 508f c5c0 dcbf dde0 7c7e cf3b bbbf
000001d0: 31f2 a66b ba60 c6bf 0cd6 825f c636 d9bf
000001e0: 2090 763d da07 f2bf 10e9 b0b2 745a ce3f
000001f0: 81c0 ca19 d6a9 debf 4f97 a0a8 9ba6 b83f
00000200: 00e1 0103 5a73 cabf 2e61 757b d125 b5bf
00000210: d54b bca4 2c6c acbf ebdc c0f5 169d d33f
00000220: 74f5 29dd 8b9e b1bf d09c 4d4c 7adc ebbf
00000230: f951 8a82 ab34 b1bf 3fb0 1b1a c298 e53f
00000240: a777 9fac 4649 d5bf b6e1 fad4 0999 e3bf
00000250: 1049 c8f5 d0fe c33f 7182 d77f e9c2 e1bf
00000260: 1d79 216d c301 d1bf 6ce4 0765 81eb c0bf
00000270: 2d0e 940d f527 f6bf 55f5 6a90 cf36 f0bf
00000280: 9fca ba2f 8f1b c23f 862e f283 9c9e d43f
00000290: ed4e a52c 6374 c23f 89a6 2445 f314 d7bf
000002a0: bde5 4fb0 18eb a7bf d2fa b63c 9bb7 e53f
000002b0: 47e2 1cdb 8fbc fbbf 673f dd5d 63fc c43f
000002c0: 21bf 9580 91a8 f8bf 612a c70d 0751 ebbf
000002d0: 44a0 0202 428c a13f 35e5 d94f bb8f c83f
000002e0: e702 1693 cba7 e2bf 1727 6449 16db 78bf
000002f0: bbac 99e8 bf3a dd3f bbff 79be 4814 bbbf
00000300: 4698 f1f9 9dba 973f dfd9 1b0a 8d15 b73f
00000310: d929 d82e 8cfe efbf 7936 7cad a984 ea3f
00000320: 76f0 4ed1 9414 c8bf 110f eafc fecc c7bf
00000330: 40e2 7098 d14b c13f 8fe8 1de6 a24f 743f
00000340: 9f04 f453 a7e1 bf3f 5cb5 4cfd 78c5 c33f
00000350: 40aa 97a0 8de7 a9bf b846 57a1 03c3 c7bf
00000360: d4b0 e56b 5842 a93f 3be8 8977 e82b ca3f
00000370: 2857 9508 db25 d4bf 7fab 7103 97b8 e7bf
00000380: 5a16 531c e547 e6bf acd0 4d65 f3aa e3bf
00000390: d1a2 34f5 e23e e8bf aa17 0715 80ab 9c3f
000003a0: 7381 8c71 c222 d23f fd53 1acb 5527 e5bf
000003b0: 0b91 9969 03bd e43f 1765 4d4a fc4c b73f
000003c0: b77b 8b52 3384 d5bf 7396 fab7 1c46 f1bf
000003d0: ba5e 7cfe 93b7 d4bf 3472 8c7e 3b93 c4bf
000003e0: 6661 68cb 535f 733f a64c 99a9 1a7b c33f
000003f0: 8f53 cd58 49cc e9bf 317f f359 a599 d23f

transform_generator.0.bias f8 [64]
-0.37057521155946255 -0.6922983786803604 0.1436631764498938 -0.044671501388217086 0.393326475048079 -0.09068973812586 -0.9022605181103746 0.24290036260861383
-0.06601465866901897 0.39796882441751397 0.17697664105541944 -0.4105330611539469 -0.5769065702859248 -0.7507839029473575 -0.2842580460145253 -0.42598383000864576
-0.20742925680533938 -0.6932115098566373 -0.24128014993958502 -0.018902415787102226 -0.6373919414711444 -0.12787988323891025 -0.9281991015451764 -0.025438229299478123
-0.14161670912140248 -0.5064328779469218 0.19433072075027386 -0.4800963127314404 -0.026099687796661056 0.6950116792514295 0.26735711932229134 -0.1614939928160136
-0.3961780358066444 -0.3611502723205357 -0.43708274610459613 -0.8071687547941978 0.7028823040517503 0.05831311299565448 0.19363514236268609 0.3655558590777607
-0.9188921536656625 -0.6064725247122086 -0.31109970629155964 1.1307895384067945 0.43269759580776157 -0.29279322207918995 -0.2632019464720954 -0.8501571437811187
-0.7071635778182815 -1.18685221405707 -0.10887654591176704 -0.326900115857679 -0.4792483079379423 -0.1502179706012312 -0.5073006757598689 0.14966258582702174
-0.39377286397162004 0.07401627039984475 -0.3153376425917085 -1.1203472928423195 0.016200460596334898 -0.26378262884011444 -0.19294480397880154 -0.11193984179929241
00000000: 89cb 9617 81b7 d7bf eb30 f0ed 4e27 e6bf
00000010: 5cf2 3e12 8e63 c23f e21c 0ddb 2edf a6bf
00000020: 9de0 bece 422c d93f ef57 5553 7137 b7bf
00000030: c331 3873 51df ecbf bd96 cbec 5b17 cf3f
00000040: 0540 0a30 56e6 b0bf b9d9 6c3b 5278 d93f
00000050: 2896 beaa 2ba7 c63f 614f e575 2c46 dabf
00000060: e437 87c4 0476 e2bf 5cb5 b0f6 6b06 e8bf
00000070: c676 d0a8 4831 d2bf e7c3 a0ae 5143 dbbf
00000080: cb33 1bb9 0a8d cabf f570 81e7 c92e e6bf
00000090: 240e 9598 44e2 cebf f1e6 7ba6 275b 93bf
000000a0: c647 ebc8 8365 e4bf d6e8 2936 5e5e c0bf
000000b0: 0b05 2a9a ceb3 edbf ba3b a3ab 7a0c 9abf
000000c0: 412d 1f0f 7f20 c2bf 8ad6 0cb9 b234 e0bf
000000d0: 2a82 1d3d d4df c83f 8026 87e2 e5b9 debf
000000e0: 4102 1766 e0b9 9abf 4122 1722 893d e63f
000000f0: 82e3 f508 611c d13f 2397 d2cc d5ab c4bf
00000100: 2bb7 cb1e fb5a d9bf 77b9 2308 161d d7bf
00000110: 3191 0ae9 29f9 dbbf 4136 8691 53d4 e9bf
00000120: 55dc 9a07 037e e63f 6513 7d62 37db ad3f
00000130: d0ea e64d 09c9 c83f 2369 e666 4465 d73f
00000140: dc70 9184 9067 edbf b5f7 7111 3968 e3bf
00000150: 2b51 14be 0ee9 d3bf 9fdb 61c5 b617 f23f
00000160: a256 c341 51b1 db3f 7b84 54c8 1fbd d2bf
00000170: 18d6 15fa 4cd8 d0bf 8705 20c1 7c34 ebbf
00000180: 1fdc f482 15a1 e6bf 05f7 48bf 58fd f2bf
00000190: 4c13 fe53 55df bbbf bcb5 aa76 eeeb d4bf
000001a0: 676f 5018 01ac debf c87b 80ab 573a c3bf
000001b0: 2513 74a0 ce3b e0bf c0ea c7c3 2428 c33f
000001c0: 04dd 3319 9333 d9bf eb3d bdf4 baf2 b23f
000001d0: 9443 88ef 7d2e d4bf e6b7 6e48 f1ec f1bf
000001e0: 10fd c381 da96 903f b5c1 0789 d0e1 d0bf
000001f0: a0d3 8253 6ab2 c8bf 59ba a5e7 16a8 bcbf

transform_generator.3.weight f8 [64, 64]
-0.11095751730962446 0.02294852598990332 -0.06275384899123357 -0.20959418125489165 -0.2515465382577141 -0.05454983039804819 -0.03837910623583926 0.03740548220358485
0.0005728268089238893 -0.022590557098962107 -0.24151863341929072 -0.06525735032698489 0.11667866476614809 -0.006549603720330969 0.06665657501873108 0.08790242358015087
-0.033466782102468305 -0.07194573414867624 0.025078943407246 -0.12465793509195582 -0.1760236225109965 0.18059225782655242 -0.05242745646586816 0.2298708995952159
-0.09382937585818615 -0.018416636672769857 -0.18144655321398012 -0.19036106005497172 0.039395251410510396 0.013741068340279775 0.18540585574360088 -0.13632738336331796
-0.09138604993083217 -0.045029513348709194 -0.06025735932677399 -0.19294718086342882 0.07808852635532022 -0.01184515484849149 0.041017471789352174 0.8607351194157096
-0.03279630283609005 0.014380288143346317 -0.03909079749626097 0.2546391319297902 0.457771063451522 -0.007518475878771904 0.10681725068137378 0.008208748379016915
-0.11020332933133677 -0.11424068757651074 0.03556691211390741 -0.17465018304197164 -0.025004414790949153 -0.07589443555470608 0.04335706085007849 0.09819235259358276
-0.00949735669944839 0.06292096425926301 -0.1654367092864677 0.004889484321590781 -0.04582428184971065 -0.11093145784379559 -0.16796530344800753 -0.05052595249256512
-0.06375517318092101 -0.007744559047599907 -0.32650328894840314 -0.4031229786714924 0.07319888451442401 0.032572431403015294 0.010878429577405114 -0.32499055973959695
0.07510325731154209 -0.3940768596679647 -0.031089814265503158 0.046849573720812686 -0.065530830285552 -0.33885101584221367 0.0791948011607419 -0.09694263265050158
0.06602771419450155 -0.3800188840635632 -0.12747696315751839 -0.09865657950706365 0.035295992873377646 -0.1536752836954297 -0.20787317008507772 0.01377467548295238
-0.29955940397744374 -0.13048147766055132 -0.20840849522136629 -0.11410026725315467 0.01748283374860259 -0.296108130912577 -0.015737469476759837 0.23738564622079109
0.0841213272730711 -0.34242871308512823 -0.066313810711778 -0.09480672689808362 -0.011831023193356972 -0.016795677480965814 -0.4521289376343272 -0.0435496116416247
-0.21789656445263364 -0.17537414575991112 -0.28371752989688204 -0.17858414039999954 0.02523328532442548 -0.33617493778960383 -0.06981865173432748 -0.2903871005331732
-0.11623535957987087 0.33179939574647377 -0.0292210919147606 -0.3094214777320561 -0.17551807750673867 0.041114620390026384 -0.462550467984042 -0.012922459651830564
0.10458042434855376 -0.08164319851368411 -0.3918939336142279 -0.3148731543420433 -0.050873944539637186 0.1016914743439832 -0.36024611735828166 -0.022107276348769835
0.079055439695512 -0.0018864652078154351 -0.3517940093856693 -0.35037156463280333 -0.31374783656815886 -0.07178036485775331 -0.17170596555440099 -0.1460579381939546
-0.031153998963780332 -0.21271882121444882 -0.1531349834856252 -0.10779140947286454 -0.0055322239542398 -0.3027943427798526 -0.12791608918373862 -0.021852456162773395
0.12081694358712793 -0.2958705928644387 -0.2902941248025116 -0.03390958745903668 -0.22441989847561877 -0.3313060960908766 -0.16689188039082484 -0.3030178642930861
-0.33487508891017187 -0.37278245269168525 -0.09427739505748987 0.10151787493469486 -0.13001398991833937 -0.237606918295445 -0.10128478918000694 0.019685309820446438
-0.12386266184285032 -0.16636922375022956 -0.1394302989133565 0.025874223543616168 -0.4236004712981253 -0.17511489638916966 -0.28966275119208473 -0.16222318824750873
-0.165067140250059 -0.07063085777108669 -0.22819852657689882 -0.11063032301869144 -0.2797981514453232 -0.16321504626035535 0.004566270289989321 -0.29545091666269746
0.12006131100191274 0.03832288216546881 -0.02666111263524459 -0.37915349002231 -0.05475523902395988 0.07446698386123411 -0.16449769445946888 -0.35664713535496806
-0.04884032230214227 0.04802787920014013 -0.24162313408209007 -0.35895400788616905 -0.3835253377028723 0.10442976335723443 -0.3796774037877423 -0.05026546602696571
-0.018626759297128755 0.007235165546006671 -0.012041444888874748 -0.19104316208158764 -0.13006484570020768 -0.02561192799513717 -0.09057688918463778 -0.1580754319665591
-0.34701102065744455 -0.18430988764587933 -0.0573371102520916 -0.0772479102770456 -0.11767146127261409 -0.017687847009163045 0.0027102515674498695 -0.04904648801849459
-0.07557959822071954 -0.17035005102265985 0.02129811223741012 0.02122299547411077 -0.055658770561799485 -0.17788957703724653 -0.126346672694675 -0.13181697029255648
-0.11344825538213466 0.06409512892757309 -0.48007335979693494 -0.197993701787235 0.03530339941997203 -0.08594343822065863 -0.6217104994100061 -0.2547658809911479
-0.0010868784855692368 -0.26920511217611565 -0.11428888641105737 0.004522030392125294 -0.13079206123929496 -0.13795320237092573 0.028790670646460622 0.020127070071408328
-0.02159754135952145 -0.07092631262401411 -0.384033242215964 -0.5338840708503412 0.09526726149210187 -0.01208943443279398 0.08673997974753454 -0.0488784140964128
-0.0973534742750277 -0.3602965710864041 -0.062316128481450926 -0.017890742909479656 -0.21861544813543615 -0.08265091277397756 -0.11060059524091329 -0.04182776672667769
0.0619092265639384 0.08418188605439686 -0.04184203495880629 -0.20998826230445428 -0.02097871112520309 0.11627184244319204 -0.13004289939353295 -0.15404182361543328
00000000: c116 173c b667 bcbf afdf 7882 d17f 973f
00000010: 7e8f 1de1 a210 b0bf d2f8 f56c fbd3 cabf
00000020: 0e4a cfa6 5619 d0bf b3b9 1f93 f4ed abbf
00000030: 4ce9 431c 6da6 a3bf ced1 82b5 cf26 a33f
00000040: aa8b 8e34 38c5 423f 6afc c09f fa21 97bf
00000050: 298a f423 15ea cebf 315f 7aa9 b4b4 b0bf
00000060: f9c1 4f29 a7de bd3f f742 7ddc c1d3 7abf
00000070: 6dd1 c4c1 6710 b13f 2f11 84f2 c580 b63f
00000080: bbd1 43dd 8e22 a1bf b159 411f 096b b2bf
00000090: b669 0267 4bae 993f bb26 681a 95e9 bfbf
000000a0: 060c 012b f187 c6bf d04e a3a8 a51d c73f
000000b0: 58e2 dd85 c5d7 aabf 7822 08de 686c cd3f
000000c0: 560a b7b4 3305 b8bf 09f2 d890 cfdb 92bf
000000d0: ee52 0302 a439 c7bf 7a1a af4f c05d c8bf
000000e0: b407 da48 9d2b a43f 429e 11f9 4624 8c3f
000000f0: a7ec 730b 61bb c73f 4c1f 8cfa 2c73 c1bf
00000100: d577 c37f 1365 b7bf 3000 60be 1b0e a7bf
00000110: aeba 4d77 0dda aebf 2ef8 d443 7eb2 c8bf
00000120: 3591 e312 9cfd b33f 0dca 85c5 4542 88bf
00000130: c9bb ccf7 3d00 a53f 9217 8d60 248b eb3f
00000140: 23b0 3850 adca a0bf 6b07 439a 6973 8d3f
00000150: 0e5a a481 b503 a4bf d7e5 faed 014c d03f
00000160: 5915 a500 1f4c dd3f 36cf 3d80 b1cb 7ebf
00000170: fd3b 5316 6058 bb3f 5fbb a18e bfcf 803f
00000180: c56e 630f 4936 bcbf b07f 03b1 e03e bdbf
00000190: 13a8 b288 d335 a23f 63ed 33ec ef5a c6bf
000001a0: fb87 21df c19a 99bf 47e5 a756 d16d b3bf
000001b0: adb4 cd8c e532 a63f 3b53 1b4f 2223 b93f
000001c0: 3a70 61a3 5973 83bf 13f0 b99b 961b b03f
000001d0: 08bc f8b3 072d c5bf 20ae 16f4 fe06 743f
000001e0: af7b d0bf 4776 a7bf 7b65 8907 0166 bcbf
000001f0: 1801 9616 e37f c5bf f510 1ca3 89de a9bf
00000200: 954b c34f 4252 b0bf bf57 4d3d c2b8 7fbf
00000210: 1778 040d 6ee5 d4bf 2640 6a52 c4cc d9bf
00000220: 7fd7 177f 29bd b23f 571a 416f 55ad a03f
00000230: ed64 221a 6e47 863f 87c7 6534 a5cc d4bf
00000240: b7e4 f991 f739 b33f 3498 1826 8e38 d9bf
00000250: 7d44 091e 02d6 9fbf d3c3 ecd5 aafc a73f
00000260: b3c7 f4e4 a0c6 b0bf 4e8e d02b bcaf d5bf
00000270: dca4 ff48 1c46 b43f 9d71 d27c 3bd1 b8bf
00000280: 2d53 1839 31e7 b03f 3c96 bab9 3a52 d8bf
00000290: d2a1 e045 2a51 c0bf b99f 84be 8e41 b9bf
000002a0: e85a 24fe 5012 a23f 4473 d6b6 a1ab c3bf
000002b0: be99 9d89 969b cabf ecc6 b2a5 e535 8c3f
000002c0: 3eb6 d234 fb2b d3bf d595 a4f7 9db3 c0bf
000002d0: 7898 972b 21ad cabf 5631 51d4 ac35 bdbf
000002e0: bd40 c41c 05e7 913f 5f59 9684 6ff3 d2bf
000002f0: 8ade e5b2 7b1d 90bf 9970 8721 a762 ce3f
00000300: 29b1 88ad f988 b53f 185e fa1e 5aea d5bf
00000310: 90bc 4720 f1f9 b0bf 9cd3 77ef 4045 b8bf
00000320: 14ab 8c0d dd3a 88bf 2bca fad5 e232 91bf
00000330: f9bc 2d36 aeef dcbf da30 827b 224c a6bf
00000340: 810e 1edd 08e4 cbbf 1627 4df6 a872 c6bf
00000350: 6e60 0d92 6d28 d2bf 3217 4d59 d8db c6bf
00000360: 00c8 f41c c1d6 993f bea2 e2e2 e383 d5bf
00000370: 3b89 d999 a2df b1bf 7618 fec6 b395 d2bf
00000380: e1ca 08bc 99c1 bdbf 1c13 6488 333c d53f
00000390: b75c 8248 22ec 9dbf d081 e2bd 8fcd d3bf
000003a0: 31c6 5f59 6077 c6bf 47dc ecbb f90c a53f
000003b0: d06b 2f47 6d9a ddbf 333b b52c 1777 8abf
000003c0: b1fb 605e c8c5 ba3f b39e 8e93 91e6 b4bf
000003d0: 0bee 174b ca14 d9bf 5c65 12bb e126 d4bf
000003e0: 2a53 0850 260c aabf f1e4 96d4 7308 ba3f
000003f0: a525 24bb 450e d7bf 1ab8 af33 4aa3 96bf
00000400: e928 1030 fa3c b43f ffd3 d897 68e8 5ebf
00000410: e45e 4f05 cb83 d6bf 9bf5 e2da 7c6c d6bf
00000420: 4e10 50ce 7114 d4bf 811a 8faf 3260 b2bf
00000430: dcc8 4a09 76fa c5bf e79e eec9 06b2 c2bf
00000440: 7b97 c17a d5e6 9fbf 970b 2ece 5e3a cbbf
00000450: 86dd f858 ed99 c3bf 55c7 79c2 3798 bbbf
00000460: 7f5c 520f f5a8 76bf 5acf e985 fb60 d3bf
00000470: 8393 d6ed 8d5f c0bf 17bd 3982 7d60 96bf
00000480: 7967 82f5 dbed be3f 77db 0c36 8bef d2bf
00000490: ceda 0fcf 2d94 d2bf 9b98 50f2 985c a1bf
000004a0: 4a20 438e cab9 ccbf 763f eb7b 1e34 d5bf
000004b0: 818e 1f90 b65c c5bf 4886 4f0a a564 d3bf
000004c0: 5f50 c7ec 976e d5bf 5557 b5ee aadb d7bf
000004d0: 4724 8638 9022 b8bf 86ce cd50 13fd b93f
000004e0: 0562 5c65 4ca4 c0bf 90ee b04b e769 cebf
000004f0: 2842 1cc9 cced b9bf d6d0 8fc7 6228 943f
00000500: 2780 cfa1 76b5 bfbf e4b8 8833 964b c5bf
00000510: 6ac2 f31e dad8 c1bf ac86 b7bf c57e 9a3f
00000520: aeeb b226 451c dbbf 3c57 8438 2a6a c6bf
00000530: 2652 cfa2 d589 d2bf f183 16bc bac3 c4bf
00000540: f955 8288 eb20 c5bf 481a 3728 dd14 b2bf
00000550: 4e53 52fc 9b35 cdbf 86aa 4fd3 4452 bcbf
00000560: 3d17 7c81 36e8 d1bf 15a1 f30a 3be4 c4bf
00000570: df94 f6d8 14b4 723f afed 28f6 aae8 d2bf
00000580: 37a2 448c 56bc be3f 18a5 2d8b 0e9f a33f
00000590: 9796 5ffb 0c4d 9bbf 6ad8 f3ff 0c44 d8bf
000005a0: 05ff c8f1 e008 acbf abd5 50ac 4410 b33f
000005b0: ce43 fcac 420e c5bf 74f2 a381 4ed3 d6bf
000005c0: db10 0746 9901 a9bf 49f3 eb34 1c97 a83f
000005d0: 0278 6bc1 81ed cebf 04e9 283b 1af9 d6bf
000005e0: 9dc1 a7db ad8b d8bf e12c 59b2 e8bb ba3f
000005f0: 461b 1374 a24c d8bf e374 6829 65bc a9bf
00000600: 3fe9 0ba8 e412 93bf 7f7f 6bf6 9ea2 7d3f
00000610: 5755 f45f 2fa9 88bf 7be6 a132 1a74 c8bf
00000620: 8322 5201 f7a5 c0bf efa8 8164 033a 9abf
00000630: 9749 d208 0c30 b7bf 0e79 4cd5 d03b c4bf
00000640: cbd1 44b6 6d35 d6bf c15d e265 7797 c7bf
00000650: 997f c22a 4a5b adbf 4102 53e0 84c6 b3bf
00000660: e9a1 d685 b71f bebf 4297 c351 c31c 92bf
00000670: 127f 133b cf33 663f 77d2 0b0c 9f1c a9bf
00000680: c551 9a3e 2f59 b3bf 1fd3 01cd 07ce c5bf
00000690: ced7 1a1e 2ccf 953f bf16 f01d 7bbb 953f
000006a0: 83d4 986e 4e7f acbf b54d d6ed 15c5 c6bf
000006b0: 434d 97b5 202c c0bf 496f 3be4 60df c0bf
000006c0: e88e a7e2 f10a bdbf 21ab 93d2 8968 b03f
000006d0: 298e 009d 85b9 debf 45bd fe8c db57 c9bf
000006e0: 3a8f e483 4913 a23f 97a9 76a0 6300 b6bf
000006f0: 3977 d16a 0de5 e3bf 4797 bf8d 154e d0bf
00000700: 7f3a 37e3 b2ce 51bf 6c98 2d14 a83a d1bf
00000710: 2f87 6e55 0942 bdbf 88c5 544a b185 723f
00000720: 9fb2 cc54 cbbd c0bf 5ee2 4756 73a8 c1bf
00000730: af02 6d33 4d7b 9d3f 9a4d e2ce 309c 943f
00000740: ebaa 4077 aa1d 96bf 1461 2511 3a28 b2bf
00000750: 0c3e f929 0094 d8bf c00a 050c 9415 e1bf
00000760: 59f1 7c6c 6f63 b83f 82bd 206c 58c2 88bf
00000770: 0f78 4560 9734 b63f 3083 0c6c 9706 a9bf
00000780: dfc8 2944 28ec b8bf b454 6b59 190f d7bf
00000790: 4bad ae4b e6e7 afbf 7b18 ca6e f351 92bf
000007a0: c22f 124c 97fb cbbf cb49 5937 9c28 b5bf
000007b0: c254 7a13 5250 bcbf b6c4 4ff4 726a a5bf
000007c0: 9356 d3ee 90b2 af3f 74ec 84af f18c b53f
000007d0: e908 7eb7 516c a5bf b21c 9237 e5e0 cabf
000007e0: 7ba8 c778 717b 95bf 8b3a bdd0 fdc3 bd3f
000007f0: 6f72 fce7 3ea5 c0bf 887e 5279 a4b7 c3bf

transform_generator.3.bias f8 [64]
-0.2638036017903811 -0.35708767045777057 -0.2809859053014492 -0.2200261518147527 0.3016725531259563 -0.043430784038823854 0.23232034679488592 0.1471175259850754
-0.014423396859466968 -0.1321915879970576 -0.11463341103022127 0.013699893517982217 -0.3210994877912608 -0.10387064806996371 -0.06950892353595232 -0.06579638745277935
0.21464709604009563 -0.11255900335435153 -0.4557520817900986 -0.09193828334742046 0.10147447303275292 0.35203028206322134 -0.08633566044527466 -0.04461022349119409
0.0537493495242985 -0.11792525321486676 0.19365417891230632 0.013318865811575686 0.14812279570370848 0.029295570554077003 -0.14389447945684603 -0.20161757847891434
0.14796071141898748 -0.13361704888694645 -0.44128718911331494 -0.13954440761705225 -0.06894823251383621 -0.26020336758777146 -0.1315523913732823 0.12500513531358068
0.06580990615193945 -0.1020876685968229 -0.17329096145940007 -0.03677186024069659 -0.0997813720778588 0.03819535761391655 -0.1222827492802959 -0.0012336229754916581
-0.09814281488803268 -0.08197088758865863 -0.08716320728324232 -0.21836186141101088 -0.08415673980800034 -0.2089296531085226 -0.08679190440871783 -0.08211986296860772
-0.1348426402880501 -0.0527888268816516 0.11365362474105312 -0.1494339386027704 -0.09874873923724646 -0.12991827317013657 0.22834223887205868 0.1134682081944436
00000000: ac6d 9080 28e2 d0bf d8f0 9a3e 86da d6bf
00000010: 0007 7a4e acfb d1bf 6490 2723 d129 ccbf
00000020: 2cb7 7165 9a4e d33f f33a 2c4a 8f3c a6bf
00000030: 05f7 d651 acbc cd3f 371d 6341 bfd4 c23f
00000040: 1c18 788e 038a 8dbf 3678 a069 a7eb c0bf
00000050: 975a 677f 9d58 bdbf 1884 f294 b00e 8c3f
00000060: 2dda b4dd e48c d4bf c88d 794c 4497 babf
00000070: f3f8 5d39 56cb b1bf 5efc 4d34 08d8 b0bf
00000080: ee37 d658 8e79 cb3f bffc 46b6 aad0 bcbf
00000090: 3fd5 97c7 0a2b ddbf de40 3a70 4489 b7bf
000000a0: 38f4 0d27 3bfa b93f b971 2a05 aa87 d63f
000000b0: ca4c 1706 181a b6bf 0882 ecb5 26d7 a6bf
000000c0: a9b9 c6e4 0885 ab3f d52c ee71 5930 bebf
000000d0: 51bf 94fe a8c9 c83f f3ec a4e8 eb46 8b3f
000000e0: 4d75 ab11 b0f5 c23f d128 ca75 a8ff 9d3f
000000f0: dac9 ab61 226b c2bf a3cd eed4 9ace c9bf
00000100: cc97 5168 60f0 c23f eb27 940b 5d1a c1bf
00000110: 4bab 589f 0c3e dcbf 0908 8755 97dc c1bf
00000120: f190 c363 97a6 b1bf 8f4e 8606 2ca7 d0bf
00000130: df54 5471 b5d6 c0bf 437f 0014 2b00 c03f
00000140: 9de7 ac02 ebd8 b03f e5bf f2dd 6a22 babf
00000150: e98b 14f2 652e c6bf 2433 4be2 c2d3 a2bf
00000160: 9b0c d3a1 458b b9bf ad20 9f87 578e a33f
00000170: 461a 0619 ec4d bfbf a80f 7695 3036 54bf
00000180: 390f 4834 e31f b9bf 7dd9 6a49 0bfc b4bf
00000190: b72c b2f4 5350 b6bf e41b ba0e 48f3 cbbf
000001a0: a29d 36cd 4b8b b5bf 6b03 a2f5 34be cabf
000001b0: 5535 fe86 fe37 b6bf 1f5b cdad ce05 b5bf
000001c0: 225d 120d 8642 c1bf 790f 1a1a 2307 abbf
000001d0: 90ad 5569 6718 bd3f 330e 9bbb a620 c3bf
000001e0: 9792 8bed 9847 b9bf 6b92 3577 29a1 c0bf
000001f0: e21d 2088 513a cd3f e1b2 54a3 400c bd3f

transform_generator.6.weight f8 [3, 64]
0.10405747050778286 0.21990953575917643 0.11548324784681188 0.06727397467598431 0.033690688657758365 0.008085954511543455 -0.025549847876450985 0.04025449274242313
-0.006387302882831927 0.008654813623340137 -0.03800198193992237 0.049169750319845905 0.0668136342889006 -0.08466729211460455 0.006375405310198458 0.0294836653337325
-0.0536958708945064 0.02011253951269041 0.04781723817380403 0.05447754110713683 -0.015091055566822912 -0.04498117190707072 0.07226918755102511 0.01120767004925006
0.060690771180015785 -0.041076551778504035 -0.001595714209054403 0.010155580766087888 -0.0017262982805832186 -0.024439727845564984 0.03779236293250481 0.013977687306856496
-0.014723010058507843 -0.014249943244667392 -0.003101638606034653 0.09252503059460522 -0.21070460970781657 -0.02480105793082734 -0.038431797208504696 -0.03314908220398381
-0.058055743898026896 -0.027417392481610414 0.029542176194307136 0.010805875031032175 -0.05024576449198337 0.019527374957945022 0.041153993650027136 -0.019047698917183973
-0.04279285331613866 0.01536914006524261 -0.009057802461720343 -0.05507140972705692 -0.03485490044176854 -0.045840238776915454 -0.0319407520095705 0.0731626965527022
-0.03592156164661676 -0.7482270975949774 -0.05960092849731714 0.19309544065458198 -0.2798465262162415 0.04314325940305749 0.03741445870503455 -0.010792391765947738
0.05125859549384108 0.09958675399341388 0.17968841334114108 0.19153138934598946 -0.745314513804812 -0.22649188725654493 -0.8575402759755928 -0.26176420655352395
0.19127722505681322 -0.1451614957095065 0.04477241470248127 -0.06110419075151567 0.15330415564631034 -0.0006229567186948545 0.14062010471068664 -0.18378199843811843
-0.4767625404650594 -0.12486508839373074 0.4455705718091195 -0.028307339907543125 -0.7771009585940544 -0.24478087425639825 -0.00970226569461936 0.11857616514042937
-0.0817200568884637 -0.1252788011869964 -0.4522996942361654 0.09891186085282468 -0.5132313294289359 -0.6717292708211176 -0.05451808955734184 0.1052627583250798
-0.384964454574265 -0.0028129834670308387 -0.03143454476128014 -0.11914396160627895 0.10428416280279965 0.1309481849386572 -0.04163250876732775 -0.20176848106656664
-0.15313646967684466 0.10032080978060265 0.11270755494782628 -0.07751750296649501 0.024779690952502455 0.030089986415717706 0.029719320553564035 -0.043212810547675166
-0.07025117446507227 -0.5667927093113143 0.005863752371876639 -0.21252088443964165 -0.1244538933843679 -0.07841978195112492 -0.018854094018914264 -0.016227335955008144
-0.04262640021619285 0.5060800894423049 -0.25867480997746684 -0.33069948247479936 0.27934988646157666 -0.01959362175599553 -0.6386297497453224 -0.33579568664110715
0.04140861700812747 -0.09420106425117751 0.0025508779299865942 0.11191323096781265 -0.05011545787411122 -0.08204807907357874 0.026936442201202445 0.04890936291545616
0.09387791673127084 0.08817526094191912 0.09016482002270258 -0.05900469485083481 -0.1208366856094527 0.051730894536448184 -0.04210358701049335 0.00025738841349587366
0.07196956164111644 0.06424979177778718 -0.07249773598199057 -0.046067707427892256 -0.033765710113356516 -0.10657785144434402 -0.07452102672516343 -0.06524832063745721
-0.05052114629565601 0.11550810844639146 -0.005549777590179022 -0.11451192871456121 0.056840551456923925 -0.09019003765624937 -0.07745473696582326 0.10953927766107706
-0.06693756211627948 -0.02586153573821728 -0.0027789638463144024 -0.05384872849281421 0.07003548784408146 -0.07877377962034869 -0.1223178773478779 -0.07197040384756058
0.04742373486701359 0.10894520140810383 -0.1078691105749985 0.010952189799360633 -0.07252278227867075 0.11776192327099076 0.05328551480144985 0.10223224827572096
0.05195621578943246 -0.06300137464755638 -0.0006216548476394578 0.0810217607845189 0.01579932984502055 0.00970857572498107 0.10349996018999384 -0.07328729752856532
-0.007126680925265776 -0.02956010919323115 -0.10863695414941847 0.07257541693110962 0.10168192060839966 -0.11932018817668698 -0.05972438109187502 -0.08338224713695054
00000000: f443 bca8 82a3 ba3f ae04 15e4 fe25 cc3f
00000010: 4ae8 bc64 4f90 bd3f f2f3 1a01 de38 b13f
00000020: fff8 edeb e73f a13f f1e0 7871 5e8f 803f
00000030: 6143 3044 bd29 9abf a509 b1a3 3c9c a43f
00000040: 5cd0 dc8f 9229 7abf dec5 b86b 9db9 813f
00000050: d7f4 3aeb fe74 a3bf cb06 270b c72c a93f
00000060: 959e 32c6 b21a b13f a050 ac72 c1ac b5bf
00000070: a891 e5d4 181d 7a3f 8694 7f49 f730 9e3f
00000080: 2923 d872 067e abbf ba3a c9ad 6198 943f
00000090: c376 4844 807b a83f 4ae2 d7f2 7ae4 ab3f
000000a0: 8f15 f930 0fe8 8ebf 7da1 8dac c507 a7bf
000000b0: d346 0ac5 3b80 b23f 056b 9b02 0cf4 863f
000000c0: 643d c65a dc12 af3f f5d0 0a5d fc07 a5bf
000000d0: dc9c dd15 e924 5abf 320e 19fa 72cc 843f
000000e0: a5b3 20aa 9e48 5cbf b384 475f ba06 99bf
000000f0: e7d6 aa45 8559 a33f 1d72 da6e 55a0 8c3f
00000100: fe89 99f5 1827 8ebf 6447 a501 132f 8dbf
00000110: 37cf 0f8c 9b68 69bf 3d19 776c b8af b73f
00000120: c4df e75f 5ef8 cabf 065d e0d2 7265 99bf
00000130: 0729 4620 55ad a3bf eec3 ea9f eaf8 a0bf
00000140: dc21 c682 7bb9 adbf d350 3310 4e13 9cbf
00000150: caca 6de2 4d40 9e3f 5350 e7fe 6321 863f
00000160: 40dc 8216 d0b9 a9bf 4acf 48f3 fbfe 933f
00000170: bf3f a7e1 2212 a53f c947 a76f 3d81 93bf
00000180: 4c9d fde2 f1e8 a5bf ca37 950f db79 8f3f
00000190: a613 c6aa e58c 82bf afd4 71df 5132 acbf
000001a0: 1166 0163 80d8 a1bf 607e c62c 5f78 a7bf
000001b0: 64dd 94ca 895a a0bf a524 fb5c caba b23f
000001c0: b1a7 fc98 4f64 a2bf 80d8 44f4 79f1 e7bf
000001d0: a217 6a4d 0384 aebf 291f 4ff5 59b7 c83f
000001e0: a4de 7f67 01e9 d1bf cca2 5b90 df16 a63f
000001f0: cd42 12e9 fc27 a33f 5263 714d 521a 86bf
00000200: b6e3 910e 913e aa3f 003a 847b 847e b93f
00000210: 359a 62a9 0700 c73f fc00 b3be 1984 c83f
00000220: 6bd3 c0d2 9dd9 e7bf 41c0 49a8 affd ccbf
00000230: f02c 0a4e f870 ebbf 204a 9aa8 bec0 d0bf
00000240: b458 0ba9 c57b c83f abfa 5ae2 a694 c2bf
00000250: 7ff9 d1f1 68ec a63f b644 da69 0c49 afbf
00000260: febf 6b77 789f c33f c030 e75d bd69 44bf
00000270: 443d 72ef d6ff c13f 9a4f 7124 2b86 c7bf
00000280: f256 d007 4783 debf 5d2f 108f 28f7 bfbf
00000290: 66bb 7e6e 3a84 dc3f 4c01 8f6c 99fc 9cbf
000002a0: 3d41 5bd4 02de e8bf db0a cfcc fa54 cfbf
000002b0: a60c d80e c8de 83bf 42fd 5cef 015b be3f
000002c0: ce61 c30b 9beb b4bf 5c78 fdc0 2209 c0bf
000002d0: 5f0c af6a 7af2 dcbf 79a4 8ca7 4952 b93f
000002e0: 98c1 e51b 646c e0bf 002a 3e62 ce7e e5bf
000002f0: 81dc 6087 cbe9 abbf 3f33 7e08 80f2 ba3f
00000300: 6836 a1f3 41a3 d8bf e7be d7ff 400b 67bf
00000310: cdbe 6d4b 3018 a0bf a966 9dfa 3780 bebf
00000320: 4a90 baec 5db2 ba3f 9b1b e4fd e8c2 c03f
00000330: 8553 362f db50 a5bf 24b2 c5b1 8cd3 c9bf
00000340: f720 8bd0 f999 c3bf 48ad 1de5 9fae b93f
00000350: 6256 83fe 66da bc3f 64d2 1be4 2fd8 b3bf
00000360: 87e3 fbe8 d85f 993f 63d0 5ece e8cf 9e3f
00000370: d4fb 58d7 bd6e 9e3f b719 2450 fd1f a6bf
00000380: 7344 d520 fbfb b1bf 7a4e c376 2a23 e2bf
00000390: 7e70 b40a 9704 783f 1350 3164 e233 cbbf
000003a0: 6b1b f2d9 35dc bfbf 9ceb d69e 5113 b4bf
000003b0: a5e9 d3d4 7c4e 93bf a26f e914 e69d 90bf
000003c0: f8df bfa5 20d3 a5bf 6ff7 29df ce31 e03f
000003d0: 36be 49ca 208e d0bf 0923 8229 2e2a d5bf
000003e0: 2c9a 9f58 dee0 d13f fad8 9bb2 5910 94bf
000003f0: 1615 2da8 a76f e4bf 18bb 1031 ad7d d5bf
00000400: 4f1e a59f 8233 a53f 330b 359a 8f1d b8bf
00000410: 7fd6 2129 94e5 643f 5517 ff72 58a6 bc3f
00000420: a3ce 2fb9 bba8 a9bf a315 5258 1a01 b5bf
00000430: 8f8d 4c09 3a95 9b3f 1752 61e4 a50a a93f
00000440: 5d6b 2d16 6208 b83f b3d2 0f66 a792 b63f
00000450: b34a 3fa9 0a15 b73f 2fbc 6305 dd35 aebf
00000460: 8f81 d92c 27ef bebf 4f28 74c8 787c aa3f
00000470: 633b 82f2 998e a5bf ff57 7ed1 42de 303f
00000480: 5f59 8ee1 986c b23f 25dd 75a2 ac72 b03f
00000490: 15a2 132d 368f b2bf 93e6 9bc1 2f96 a7bf
000004a0: 937f 5339 bd49 a1bf 7d70 6ea2 af48 bbbf
000004b0: 8d1f a65c cf13 b3bf afbd 412b 1db4 b0bf
000004c0: d74a 315e e8dd a9bf f737 337c f091 bd3f
000004d0: 5f8f ff13 5dbb 76bf 6bb7 d45c a750 bdbf
000004e0: 032d 306b 341a ad3f fb99 28be b116 b7bf
000004f0: 1741 30da 12d4 b3bf bf89 2e1f c40a bc3f
00000500: dbd3 29f0 d122 b1bf 0742 e148 727b 9abf
00000510: 3f23 c6da e8c3 66bf a39a 9d7f 0f92 abbf
00000520: 4388 d981 d8ed b13f ff6f 40b7 842a b4bf
00000530: cfde ec72 3950 bfbf 9f20 ce02 a76c b2bf
00000540: f3b1 9d7c ec47 a83f c19b 1a2d d5e3 bb3f
00000550: e110 2b5e 4f9d bbbf bf0d 1008 1a6e 863f
00000560: d310 1a62 da90 b2bf 2fb8 2939 a525 be3f
00000570: d372 d82e 3d48 ab3f 8fd6 f082 e42b ba3f
00000580: a370 474f 019a aa3f 3fdc b6ab db20 b0bf
00000590: ffb0 b89e d15e 44bf cd76 d594 d7bd b43f
000005a0: 87ac ee13 b32d 903f 7f15 d6f9 16e2 833f
000005b0: 5740 2730 f97e ba3f d7ef 18d2 f4c2 b2bf
000005c0: 5f77 0cd8 dd30 7dbf bf24 0159 0145 9ebf
000005d0: 2b74 35a5 a1cf bbbf 3b72 3672 4d94 b23f
000005e0: 1188 9b8b d307 ba3f 0fb0 f891 c48b bebf
000005f0: bb7b 20af 3194 aebf 512b 85f8 8958 b5bf

transform_generator.6.bias f8 [3]
0.023679835311233435 -0.48612803815614947 -0.02758617550715306
00000000: 6716 f2d8 863f 983f c427 63c6 b81c dfbf
00000010: e8ef 7fe6 8c3f 9cbf
