QM_model_1000[1980, 1990]_upscale_1by4_Wnoisy001d_bci.pth (torch, 39380 bytes, 6 tensors)

transform_generator.0.weight f8 [64, 1]
-0.8801398991427827 -1.078556277853265 -0.7079945361289502 -0.802347935725919 0.17320955481648886 -0.04643049242504071 0.7599406425279053 0.85187479227507
-1.1065903043458616 -0.7347186556926028 -0.5694410741195951 -0.24926593589899879 0.6374043614341494 0.6872620119921795 -0.24493408945888115 0.19490249726146908
-0.7938379914113126 0.26238633455518773 0.21573163656534963 -0.12544200441869566 -0.8155631060054833 0.37715786786964495 -0.3755226385540748 -0.30563853055109075
-0.9373196691451687 -0.9192670646800855 0.824652722697726 -0.645105996417287 -0.4699101765032782 -0.7333236219402136 -0.519252745307219 -0.5331836218841043
-0.5226388246265793 -0.35064847339898586 0.1882828179160954 0.22905333590895435 0.6586464889780117 -0.8738929403507152 -0.24169230940018474 -0.08461081372887697
0.9058656742164244 -0.7226151953222889 -0.09877570642217572 -0.3390695350199354 0.7110536759836015 0.6487887818981216 -0.23144395336544285 -0.8013866348822939
0.3058563035796426 0.1638689339764516 0.33543135310230654 -0.03737958814658799 -0.7954936563148401 0.1754267208932915 0.03679385748305955 0.9230012682954025
-0.44149330212081184 -0.25418994824002644 0.22896969918400398 -0.3884644273879257 -1.0144337303760804 0.44620005656598927 -0.49116078686602743 0.2244121446843045
00000000: bc22 5726 1b2a ecbf 7967 443a c441 f1bf
00000010: ff74 4d28 e4a7 e6bf ff96 fe93 d5ac e9bf
00000020: 2651 a50e bb2b c63f 3f65 01cd bcc5 a7bf
00000030: e3df d109 6f51 e83f 8876 a3ec 8e42 eb3f
00000040: 52c7 f308 98b4 f1bf fbbe beb2 d082 e7bf
00000050: fff7 ca7c dc38 e2bf 47b5 5839 f2e7 cfbf
00000060: 78ff d5d4 9d65 e43f 2a44 29e7 0cfe e53f
00000070: 2762 f30f 005a cfbf 5ac8 d2a5 90f2 c83f
00000080: a5e2 6dee 1e67 e9bf f73c 750d f0ca d03f
00000090: bf5f e121 189d cb3f 2ff1 42cd 7b0e c0bf
000000a0: 76c4 83cc 1719 eabf 3f78 fbc0 5a23 d83f
000000b0: 13d5 df1a 9008 d8bf d952 47e9 948f d3bf
000000c0: 8508 9cd1 85fe edbf 85e8 62c3 a26a edbf
000000d0: 3069 511b 8e63 ea3f 8d1a a254 b5a4 e4bf
000000e0: 1fe8 0822 0213 debf 71c2 b319 6377 e7bf
000000f0: b57c eeee b79d e0bf 6f29 5819 d70f e1bf
00000100: 6183 6c0e 75b9 e0bf a805 694b 0671 d6bf
00000110: d296 acc0 a619 c83f 7f63 62a5 9e51 cd3f
00000120: 2625 39cd a113 e53f 085f e053 eef6 ebbf
00000130: d5c4 480a c6ef cebf 4c7d dae5 0da9 b5bf
00000140: 5883 aa02 dafc ec3f 6d0f f0e6 a91f e7bf
00000150: 81f8 b85c 5d49 b9bf 52c1 feb4 50b3 d5bf
00000160: d29a 81a3 f3c0 e63f 9573 08b1 e0c2 e43f
00000170: 17e0 4799 f49f cdbf 95ab 8895 f5a4 e9bf
00000180: cf99 4951 2693 d33f df2e 2140 a8f9 c43f
00000190: e427 e810 b577 d53f 894d 41d9 6a23 a3bf
000001a0: c786 c11c af74 e9bf fd64 8afe 6174 c63f
000001b0: c4b6 2afd a4d6 a23f 4cd9 aff4 3989 ed3f
000001c0: 88c3 801f 6d41 dcbf 136c aaea a544 d0bf
000001d0: b797 e20c e14e cd3f ad97 d2e6 99dc d8bf
000001e0: f2ca fedc 1e3b f0bf 4e27 9bae 8a8e dc3f
000001f0: a3b3 2aa7 2d6f dfbf 7d45 1f83 89b9 cc3f

transform_generator.0.bias f8 [64]
-0.35234366237991166 -0.2239101795863404 0.12309845476745922 0.6231782242361351 0.332361279756805 -0.7111144796357376 0.053614721322185144 0.904707083324635
-0.44416634739907285 -0.8699853908134432 0.1682873407502662 -0.9866611574406288 0.03434157457799014 0.27562521975311866 -0.7243894089917846 -0.44487759250864184
0.2223870662936269 -0.11039655210276583 0.3597034484723738 -0.664993886167283 0.7124361354826124 0.8991328468386189 -0.5331091010114808 0.3489957790308259
-0.9765982043805859 -0.8076778574687249 0.799316044641584 0.3121229942533878 -0.8244622023300954 -0.14654494430619075 0.8231619773465622 -0.41323276478424864
0.034688118732094084 0.09841284935844895 -0.9239685041131374 0.8619217666186386 -0.29029131079889464 -0.35037568818641346 0.49176118684424963 0.027515991616315825
0.4213820533191649 -0.013030500317219886 -0.11926014840939733 -0.3471334717253868 0.012441946193748894 0.2602613687476392 -0.17804461022859952 -0.6376134105035416
-1.189922769079405 -0.9389226001418229 -0.6873233349379372 0.4391823174694723 0.694946077911118 -0.8467702128337202 0.8716371751856058 0.015285679382750982
0.1814088319246757 -0.6100202977201068 -0.730059377113688 -0.28726346941547376 0.5597821490783195 0.29215777726823905 -0.4115110849677537 0.4263314975935947
00000000: 38f9 b76e cc8c d6bf fc4b 48b9 16a9 ccbf
00000010: 5314 6a5d 6183 bf3f c38d 9575 13f1 e33f
00000020: a1c7 c03e 6845 d53f f0eb 3727 73c1 e6bf
00000030: c06c 5385 6373 ab3f e5d7 ea44 5cf3 ec3f
00000040: cb04 04b0 386d dcbf 1c54 319a ebd6 ebbf
00000050: b435 6d88 708a c53f bc1c 6e6b ba92 efbf
00000060: 1046 6907 3895 a13f a1b7 32f6 d7a3 d13f
00000070: 0e08 a6b2 322e e7bf ab0f a3dd df78 dcbf
00000080: df6a 64ec 2d77 cc3f bc5e dfcc f242 bcbf
00000090: 04a0 dc9c 6105 d73f 141c 2442 a147 e5bf
000000a0: c35d ccdd 46cc e63f c3cc 7d3f b2c5 ec3f
000000b0: aa6a 41d1 3a0f e1bf be48 5864 f255 d63f
000000c0: bcb3 a4e0 4a40 efbf 3c02 f13b 7fd8 e9bf
000000d0: f1ea dc3d ff93 e93f 2377 29b9 d2f9 d33f
000000e0: f877 798e fe61 eabf b638 9817 fcc1 c2bf
000000f0: 2474 80c9 5757 ea3f 9893 98d6 6772 dabf
00000100: 4e39 071f a4c2 a13f b72e 80a1 9531 b93f
00000110: 2066 7665 2691 edbf 99cd eaf4 dc94 eb3f
00000120: 2b6e 8c01 2294 d2bf b3be 8426 8e6c d6bf
00000130: 6e0b bce9 0379 df3f 69b4 6ff0 262d 9c3f
00000140: 1623 886e ecf7 da3f 4e2d b425 bcaf 8abf
00000150: 7e6c 2245 d587 bebf 1a14 1a4f 6f37 d6bf
00000160: a485 01c0 297b 893f 4dbb cb4c 1fa8 d03f
00000170: 7098 1471 2aca c6bf ca51 333d 5467 e4bf
00000180: 8d63 1f75 ec09 f3bf 86b3 a268 a70b eebf
00000190: 49c1 aa81 8dfe e5bf e9d2 a026 901b dc3f
000001a0: 3593 a38e ff3c e63f 1421 6bd8 bd18 ebbf
000001b0: cccc 2ca5 73e4 eb3f 1953 5e28 194e 8f3f
000001c0: b338 2994 6738 c73f 5054 9349 4985 e3bf
000001d0: ebec 9a7b a55c e7bf ae65 9e51 8662 d2bf
000001e0: 9ea1 e540 bce9 e13f a7e7 a888 b6b2 d23f
000001f0: d030 f896 3256 dabf 0ad4 dae7 0349 db3f

transform_generator.2.weight f8 [64, 64]
-0.1602633805943152 -0.21610398934721828 -0.0038684247685846804 0.0007047221160215245 -0.10693389680948442 -0.016031832203206944 -0.17167968306749978 -0.0031536092906105295
-0.10123019349060651 0.07070641563369902 -0.040309322264218954 -0.07257267786080686 -0.16913062856723346 -0.031900031239721155 -0.03376749607675216 -0.1408308658700077
-0.12998892666050268 -0.05422119627401491 -0.13533871474644352 -0.0033415065959669084 -0.11113208963456592 -0.06323182440094983 -0.0928687293110677 -0.06302327792189515
0.06117266785318664 -0.025187081362824073 -0.07959478970208163 -0.03630755595553214 0.008400330645242425 -0.02015800297349084 -0.04821548596807684 -0.028228902442484518
-0.16329034865219835 0.021624399567339737 -0.07134841104043467 -0.1614254978952592 0.03712480080670416 -0.04416998034945045 0.020570577514820904 0.029319264886772254
-0.06828912707204586 -0.18122231584843354 -0.025073976910718575 0.055470202169239535 7.216750104566335e-05 0.020299357805723058 -0.04652797029297933 -0.09938956016024812
-0.16591308804898253 -0.11650091198070704 -0.08567397569077695 -0.06248199622316424 -0.09251138919441033 -0.090465325408271 -0.0317986027665972 0.0060318387594873344
-0.15220408230183208 0.03683414160667949 -0.023441138625023488 -0.20568447122211142 -0.03717086639841121 -0.15465056584077105 0.043615337064188874 -0.10621535236233583
-0.16364199539701837 -0.029737462402035123 -0.09443376817771909 -0.05692626649964255 0.03739430428924289 -0.05454983039804819 0.035729473024757444 -0.10560188380856342
0.04252408673691403 -0.045340188069939995 -0.13321858862601546 -0.06525735032698489 0.0891044094548809 0.056828613261336286 0.07842993022602117 0.05748261483062692
-0.04730242807670532 -0.06911514298838471 0.049210622637406054 -0.12465793509195582 -0.04777231821508835 -0.07570358074068795 0.01076126314107925 0.1403360674681457
-0.020352819106256106 0.07860033112392247 -0.03990759076482738 -0.07016018487508664 0.07280162668952879 0.04631744352972624 0.08031169861849449 -0.10450903936235652
-0.14407200257236125 0.04540449363122237 0.018060488561353928 -0.13533340352611156 0.07487979005158509 -0.03470707159380837 0.07603186395601039 -0.008316813441265017
-0.027545845282509467 -0.008626664126151502 0.08940937878909934 0.020484506987736375 -0.14705889696154276 0.04732743070188714 0.10681725068137378 0.05566608840829209
-0.14283887155890998 0.036433730073015445 0.008303213067330197 -0.12833931518870473 0.07252540937372985 -0.11431111322175429 0.07880193568038424 0.024815668681821033
-0.006848705483450012 0.11584092084720828 -0.14344332997022083 0.045038722862128254 -0.0922219882022829 -0.1377333401227258 -0.09471137849249041 -0.07003678862018797
-0.06375517318092101 -0.007744559047599907 -0.003680340002044063 -0.12063321960941349 -0.05135238397669252 0.032572431403015294 0.03796012247201106 -0.05027087295193224
0.09001175434002452 -0.10146893874766928 -0.0029411153052654178 0.046849573720812686 -0.1255856203145661 -0.11602831955890369 0.017912676308257127 -0.15699597415829758
0.06602771419450155 -0.1058905354060542 -0.12774329349088065 -0.09865657950706365 0.10213234356331265 -0.15352244715610827 0.032043385122278244 0.07084835180861083
0.05773304541315443 -0.07147717146673531 -0.13658205766171802 -0.00624830264161516 -0.04556767081902718 0.027445474642833253 0.01118757188816291 -0.04094708182324255
0.0841213272730711 -0.11837078804914665 -0.06889532310016862 -0.06277984550920615 -0.013568215678926507 0.042608921180060925 -0.07001551071986688 0.013546088679909666
0.051645701506656656 -0.12463617739059586 0.04492240634741334 0.07289932275093504 0.025987077974167237 -0.13148270301195683 -0.06981865173432748 -0.010888321596015852
-0.17628758483519155 0.011262532417400743 -0.08927539204732202 -0.08133491824127834 0.010332155087102028 -0.018912800113945808 -0.1816863491282924 -0.015385935936578596
0.10458042434855376 0.0009904004183968471 -0.16323074558807912 -0.03620807069541212 0.008909709238242412 0.04163676567835515 -0.029235787111254793 -0.06069147648219066
0.02581185571580172 -0.054802300492517594 -0.15502788361398734 -0.09964330178633897 -0.07028262069788474 -0.07178036485775331 -0.05278984825935085 0.03456331390829958
-0.09229099426044866 -0.036734155888889584 -0.16798667820561083 -0.10779140947286454 -0.0145000812970199 0.04117875940158143 -0.0716471559814225 -0.007475190788770002
0.06929601128789206 -0.10209042753827133 -0.15391253018476925 -0.03390958745903668 0.031581269957049185 -0.04368692200662879 0.05435567673132615 -0.04364715045081203
-0.09057354354155951 -0.059752231938155674 0.009424594507470959 0.019975065312517373 -0.07333779152577664 0.01385085393784921 -0.07085328800328153 -0.10220330484182251
-0.17493334251162104 -0.0032633160504759746 0.04172625672231188 -0.03764923565459892 -0.05735815858339577 -0.010049236432410992 -0.028331957859124263 -0.032169670295642876
0.10615842905700791 -0.06341762438188875 0.035066205180500166 0.019334316311971873 -0.10112500820198493 0.04664063009826613 0.004566270289989321 -0.08547100941129197
0.14615661277320993 -0.11201331441532116 -0.024968726070774445 -0.10817899329408584 -0.07098504204110342 0.10999139753506734 0.00425870533775413 -0.06875550220197174
-0.10021634816162044 0.040232818201133023 -0.10685170027595081 -0.09562662640478693 -0.17573561732635015 0.07472832268348333 -0.10626447955988076 -0.18320201944751816
00000000: ef11 33ad 8283 c4bf 0f06 64a7 4ba9 cbbf
00000010: 8789 c7bb acb0 6fbf 4852 7538 a317 473f
00000020: 526d a115 0560 bbbf 47eb 070c a66a 90bf
00000030: a7ce 1490 99f9 c5bf 6ea3 8f18 99d5 69bf
00000040: abef 68d2 38ea b9bf 659d c3ce d019 b23f
00000050: b78e b269 6ca3 a4bf 8dcc fe7d 1f94 b2bf
00000060: 535e 398b 12a6 c5bf 6cfb d46d 3355 a0bf
00000070: f789 a226 f949 a1bf f8ea 96ed be06 c2bf
00000080: 15ac 6c26 7aa3 c0bf 8268 7e71 e1c2 abbf
00000090: a7fc db6c c752 c1bf 3fc9 91b1 a55f 6bbf
000000a0: fa3f 8412 2773 bcbf a555 def9 f52f b0bf
000000b0: ff4c 36bb 3ec6 b7bf a3ae 8f25 4b22 b0bf
000000c0: cf50 ad1f 0652 af3f 37a9 f06a a4ca 99bf
000000d0: fdd2 b3fa 5260 b4bf 7f78 da6a e796 a2bf
000000e0: 5fdb 2c4b 3134 813f ad62 18ae 4ca4 94bf
000000f0: c88a c93e b3af a8bf d776 2b93 09e8 9cbf
00000100: 3758 9bb9 b2e6 c4bf 7ddb bfe3 b424 963f
00000110: a94c 0ab4 e343 b2bf 11af 1939 97a9 c4bf
00000120: 98ad ab9a 0502 a33f 66b7 219a 729d a6bf
00000130: d573 be16 7410 953f 1967 538f de05 9e3f
00000140: 2363 726f 657b b1bf 7dec eff7 4a32 c7bf
00000150: 26b0 3f1b feac 99bf 2854 7020 9766 ac3f
00000160: 9960 303a 14eb 123f af1c 9fd7 5ac9 943f
00000170: e7e4 839d 83d2 a7bf 2fbc 731e 9871 b9bf
00000180: 300a 93db a33c c5bf b34b e9f6 00d3 bdbf
00000190: c0ce b5cb baee b5bf e70c bce4 a3fd afbf
000001a0: 15f7 188f d3ae b7bf ffee 0c4e bc28 b7bf
000001b0: b2ce e10d e847 a0bf 13d2 4e63 d7b4 783f
000001c0: 7aeb e661 6c7b c3bf 3b62 27b3 ecdb a23f
000001d0: fb16 1a2f f400 98bf b4d5 9866 de53 cabf
000001e0: 671f 174f 0f08 a3bf 6708 4cf9 96cb c3bf
000001f0: f3e3 96dc bf54 a63f 99b6 bae8 ed30 bbbf
00000200: 83be 3d8d 38f2 c4bf 615b ee51 7f73 9ebf
00000210: f81a f6b9 cf2c b8bf f876 cc89 7025 adbf
00000220: a73b f5a3 5825 a33f b3b9 1f93 f4ed abbf
00000230: 3a0f 4a2c 224b a23f ca90 5a9d b908 bbbf
00000240: 9695 a793 b7c5 a53f 3fe6 e841 d436 a7bf
00000250: 151b af84 4e0d c1bf 315f 7aa9 b4b4 b0bf
00000260: 5cc1 89ec 8bcf b63f 0473 ded6 a318 ad3f
00000270: af2b 59e1 fb13 b43f a57c 927d 5c6e ad3f
00000280: 39c0 381b 0638 a8bf 3f21 cbae 87b1 b1bf
00000290: 80d9 af7d 2232 a93f bb26 681a 95e9 bfbf
000002a0: 159c c600 9d75 a8bf 68aa 7853 4f61 b3bf
000002b0: 2f64 094a 000a 863f aeca 1c42 88f6 c13f
000002c0: 8766 c591 5ed7 94bf edcb a1bb 261f b43f
000002d0: 5be8 648a c46e a4bf 5512 8593 04f6 b1bf
000002e0: fd24 ba9d 20a3 b23f a395 6382 ebb6 a73f
000002f0: f679 0db7 4e8f b43f 559c 32ba 1ac1 babf
00000300: 7aa4 a88d f370 c2bf e49e 79fe 413f a73f
00000310: aa18 e2de 727e 923f 08bb 19df 9a52 c1bf
00000320: b924 6769 522b b33f 90e4 de12 20c5 a1bf
00000330: ca1d 2501 d376 b33f 88b7 e5cd 6708 81bf
00000340: be26 8462 fa34 9cbf 2af9 5c42 dbaa 81bf
00000350: f5d7 da75 88e3 b63f 7719 59fe e3f9 943f
00000360: 8190 8470 d3d2 c2bf bdf9 220e 4d3b a83f
00000370: fd3b 5316 6058 bb3f ab72 6bfa 4380 ac3f
00000380: 49b6 f84c 8b48 c2bf b310 451e 71a7 a23f
00000390: 0e73 9b64 4601 813f 1a65 c334 6c6d c0bf
000003a0: 67a1 6375 0691 b23f 7356 db3c 7e43 bdbf
000003b0: c4d6 9b18 5d2c b43f b9cb aa55 4769 993f
000003c0: bf43 2461 630d 7cbf e5c8 9326 c0a7 bd3f
000003d0: 6d95 86dd 595c c2bf 7b2e 7ec3 500f a73f
000003e0: f907 4d37 dc9b b7bf 8eae b2ff 3ea1 c1bf
000003f0: dd2f 2f41 013f b8bf 8cfc a354 eeed b1bf
00000400: 954b c34f 4252 b0bf bf57 4d3d c2b8 7fbf
00000410: bf54 4d7e 3b26 6ebf 1d9b 0895 d1e1 bebf
00000420: 62c8 8013 dc4a aabf 571a 416f 55ad a03f
00000430: ed8d 2359 826f a33f f332 8a96 1abd a9bf
00000440: b15f 25a5 020b b73f 3127 7b4d def9 b9bf
00000450: ff9d 9841 f717 68bf d3c3 ecd5 aafc a73f
00000460: e4a9 0c8a 3013 c0bf f852 ea2d 08b4 bdbf
00000470: c710 b65b b357 923f c888 4eaf 7118 c4bf
00000480: 2d53 1839 31e7 b03f 0062 8662 a41b bbbf
00000490: 10d0 e969 e459 c0bf b99f 84be 8e41 b9bf
000004a0: 25e0 7763 5825 ba3f 3f62 dea0 9fa6 c3bf
000004b0: b37f 4e96 fd67 a03f 1955 fe19 1e23 b23f
000004c0: c75d e58b 2f8f ad3f e336 dcf1 534c b2bf
000004d0: c750 7057 857b c1bf 1f1c 05f8 d197 79bf
000004e0: 0761 d84f a554 a7bf 8f81 0ea0 aa1a 9c3f
000004f0: 8feb 0c7b 82e9 863f 0b4d 9812 04f7 a4bf
00000500: 29b1 88ad f988 b53f 8d0b 7947 8c4d bebf
00000510: 1505 90b7 1fa3 b1bf 625a 4f07 5712 b0bf
00000520: f837 d914 a7c9 8bbf a7ef f825 d6d0 a53f
00000530: 372b c158 89ec b1bf 6f90 f33e 0dbe 8b3f
00000540: 596f e62d 4e71 aa3f 2983 ca11 28e8 bfbf
00000550: 9751 3dd4 1100 a73f 09a6 1daf 87a9 b23f
00000560: e612 1248 5b9c 9a3f 5388 b6da 6cd4 c0bf
00000570: 3b89 d999 a2df b1bf 8f45 4ec9 9d4c 86bf
00000580: ab6b c771 9790 c6bf 0f17 3983 cf10 873f
00000590: a64a 2e89 c0da b6bf ee7e de7d 5dd2 b4bf
000005a0: 6f07 9261 0629 853f c158 dc87 e05d 93bf
000005b0: 1c5d d18f 7f41 c7bf d8e0 535d a982 8fbf
000005c0: b1fb 605e c8c5 ba3f 7f9e 0b5a 0a3a 503f
000005d0: cb51 00bd bee4 c4bf d3e1 f93e dd89 a2bf
000005e0: ff67 5cee 403f 823f 1dac cc05 6a51 a53f
000005f0: 8f08 1076 fcef 9dbf e21f 4605 f412 afbf
00000600: 6900 9850 6c6e 9a3f 86cb b810 0c0f acbf
00000610: b08a 0b25 f4d7 c3bf a112 7032 3982 b9bf
00000620: fae4 5fb5 0afe b1bf 811a 8faf 3260 b2bf
00000630: b05f ab5f 4507 abbf 6f4b c15d 48b2 a13f
00000640: 135f 10f2 61a0 b7bf 9bbd 60bc d1ce a2bf
00000650: 6344 8764 9680 c5bf 55c7 79c2 3798 bbbf
00000660: 5c2a aef7 37b2 8dbf aedb d6e1 6115 a53f
00000670: a3a7 cacf 7757 b2bf f28b 813f 4e9e 7ebf
00000680: c688 3926 62bd b13f d6f3 8227 9922 babf
00000690: 084a cbe1 67b3 c3bf 9b98 50f2 985c a1bf
000006a0: b86a 4393 6b2b a03f 2b10 90da 215e a6bf
000006b0: f373 d3db 81d4 ab3f a1e9 7f57 eb58 a6bf
000006c0: 0dd2 64e7 d32f b7bf 2b24 1334 d897 aebf
000006d0: 1e4e 80a9 334d 833f a4ca 02f1 5774 943f
000006e0: ed00 2af8 43c6 b2bf 6f56 7a25 d65d 8c3f
000006f0: 12c5 c9ea 7023 b2bf 11b8 d6eb fe29 babf
00000700: df9f 883c 3764 c6bf 8467 d376 abbb 6abf
00000710: 2e7f 03d8 245d a53f 7638 b6b7 c246 a3bf
00000720: e086 8c6e 0c5e adbf 14a6 9dae b194 84bf
00000730: 2811 bf81 0d03 9dbf 1f8f af03 8b78 a0bf
00000740: 219d fee4 322d bb3f 44d1 b52e 233c b0bf
00000750: bde0 e398 32f4 a13f f572 0001 60cc 933f
00000760: 9b06 091b 54e3 b9bf 8faf dfd9 47e1 a73f
00000770: df94 f6d8 14b4 723f ab77 2d96 6de1 b5bf
00000780: d13f fa87 42b5 c23f e95f 2192 e7ac bcbf
00000790: f247 96d7 6691 99bf 06f3 4f56 9eb1 bbbf
000007a0: 865c 1262 132c b2bf 9623 416f 6528 bc3f
000007b0: 3e1e 6282 9371 713f 74a5 60e9 f599 b1bf
000007c0: 1bf3 e051 c7a7 b9bf f3af cc5c 6599 a43f
000007d0: 400b 350e a25a bbbf 010e 0991 fc7a b8bf
000007e0: 955b 9434 817e c6bf dbaf 0236 6521 b33f
000007f0: 6ba7 6f20 2634 bbbf a94b 0bed 2973 c7bf

transform_generator.2.bias f8 [64]
-0.1622507433536205 -0.027640198877133326 -0.1459470799505914 -0.019604730494956805 0.09940598082696353 0.09310460031217709 -0.12773906881854646 0.014671560447875922
0.02640707647545346 -0.009978551591656832 0.09326717047553645 0.03541578945600538 -0.0017250805878671338 0.009146274374991907 0.050770698166948285 0.04426558173607863
0.04110610379576778 0.0914604465280423 0.016885603608407653 -0.14236374338705463 -0.037779525515493934 -0.08758545204883164 0.017515199604355942 -0.016576935221036215
-0.14898000741797698 -0.11331999581499735 0.02949577473142315 -0.11217624345682886 0.03924365935075623 -0.20658475966966364 0.029580719602663896 0.00772965309968668
-0.052860027178618575 -0.10166252948798864 -0.003978974694220844 -0.02104692300435481 0.019788274561548826 0.05102795322960646 0.025813561230625826 -0.15055760979587432
-0.145721696960762 -0.11394155542670183 0.028238648937851205 0.06777167870854427 -0.000405938731416953 -0.1470328288694742 0.05376402617430328 0.0720726140912747
-0.10742821493372755 0.038110135687351686 -0.02677853520113238 -0.025833593462854826 -0.08314050119609458 -0.055612645082676916 0.04933933175314792 -0.04884237847465312
-0.14318563504618587 0.07419122993181494 0.04643758513908805 0.11043849169212913 -0.06353759265374298 -0.1173747344439797 -0.03718592316399782 -0.01806992331659934
00000000: 7a4d 3ae2 a1c4 c4bf 03cc ed58 b64d 9cbf
00000010: 7bd0 aad7 64ae c2bf 9e7a 4a31 4313 94bf
00000020: 7ab9 ad9c ab72 b93f fbac 72fd b3d5 b73f
00000030: a0a2 7ff9 c059 c0bf db76 7082 1f0c 8e3f
00000040: 1953 61e7 740a 9b3f 7d1d fb85 a26f 84bf
00000050: 689e fb76 5be0 b73f 397d f3b2 0422 a23f
00000060: 007a 4d2d 8343 5cbf ef10 912a 48bb 823f
00000070: 07bb 71f0 9dfe a93f be2c ca73 faa9 a63f
00000080: 1707 f0f6 db0b a53f e82a b7aa f369 b73f
00000090: a7d7 15ad 754a 913f 81e4 fda2 f938 c2bf
000000a0: 944a 1885 d657 a3bf 2ab5 270c 006c b6bf
000000b0: 523a ef25 81ef 913f e3ac 914a 8bf9 90bf
000000c0: 371c cfe1 c611 c3bf 041e 020c 8a02 bdbf
000000d0: 59d8 5def 2334 9e3f c803 0911 95b7 bcbf
000000e0: 0e46 f9b2 be17 a43f 850d 5191 5e71 cabf
000000f0: 1071 247d 684a 9e3f 227c 5cf4 20a9 7f3f
00000100: 9de4 fe2f 7810 abbf fb29 6137 8e06 babf
00000110: a0c1 eee2 414c 70bf f6c6 f017 538d 95bf
00000120: 1730 58a0 6043 943f d81f 9bfc 5520 aa3f
00000130: fd85 1dc5 de6e 9a3f e15c 1ec5 7845 c3bf
00000140: e1cd 6131 02a7 c2bf d18a 3616 462b bdbf
00000150: 3c68 afa6 97ea 9c3f 8ff1 a517 7c59 b13f
00000160: 438a 5b93 859a 3abf 8f64 b7c3 f8d1 c2bf
00000170: 3b66 3d5c f586 ab3f a591 75d0 5973 b23f
00000180: 4fda ce5d 6a80 bbbf 83ba d8f4 2b83 a33f
00000190: e0d0 b113 d56b 9bbf 7896 3e1c 1f74 9abf
000001a0: fd3a 9c25 b248 b5bf ed90 bfb7 4279 acbf
000001b0: 4891 9240 0143 a93f 113c 6a44 de01 a9bf
000001c0: d4e2 e329 e853 c2bf 8908 354a 32fe b23f
000001d0: d487 f4ca aac6 a73f 068a 096e b245 bc3f
000001e0: 74af 83ea ff43 b0bf 9e46 d045 450c bebf
000001f0: 0fcd b887 080a a3bf 8e7c be06 ec80 92bf

transform_generator.4.weight f8 [3, 64]
0.021073064956250116 -0.02218843292261917 0.057848266349699695 0.042840730924592146 0.0672769531401995 -0.016861136216367877 0.026502580184333952 0.0032768306521752024
0.12750517392727867 -0.062335781191212886 -0.045998290592847595 0.029973053965029632 -0.09991258100707405 0.08896145298853257 0.05890705461679354 0.10364576689416775
-0.023853633053335793 -0.006399786788965191 -0.0435513673019516 0.03324372258984631 -0.1047099399812116 -0.018417026498951296 0.0401820200572172 0.05972251565938451
-0.019985454922533445 -0.043588498811164195 -0.025368590940823617 0.07760386397076159 0.012768255752569721 -0.0004748270007405842 -0.04851276045815161 0.0579593199924757
-0.006207391482266223 -0.03162104508279889 0.06735144794765559 -0.018051657889068526 -0.011328786468922129 -0.012250526134255268 -0.05133496001068472 -0.014055810753220422
0.00881519658400005 0.03097769517337222 -0.05577822742702479 -0.046077234536699194 0.08090415031396483 0.020715777245697318 -0.05253546465522064 -0.04368340977266607
0.04946925930509579 -0.0066349740227258005 0.020942997341429428 -0.11262072258724683 0.014049765101481974 -0.04417690357167637 -0.024537222187170936 0.03546890706711089
0.0059396063222824464 0.02445767635399639 0.11408568240511725 0.12475838877848668 0.0023398322317795257 -0.06809932397409808 0.04740445910196276 0.026711943714146414
-0.046806893709783026 0.06159444074483371 -0.01467252449328632 -0.0015035734573098072 -0.7016001598620926 -0.07485261234199217 0.04292024001479735 -0.08339305978342616
-0.788759117848265 0.2518267105333653 -0.11455806692074898 0.10834470707119156 -0.017416770100816045 0.008002628011064937 -0.0588550987457838 -0.10667636552445407
-0.05369935484981555 0.15493886018932196 -0.11054934682439428 0.16831629980519675 0.06390445054800538 0.03272389042300212 0.17122661562491528 0.026499275065233686
0.050404325887837255 0.06312684808088014 -0.01606083856157107 0.0417331465881055 -0.16984420839002784 0.0660425537267594 -0.055684266036819995 0.01161647672914927
0.0314196330897889 -0.04882904236437634 0.03800345820673067 -0.0007469743105866278 0.11498827993510566 -0.12333630316179595 0.2467992265812165 0.06535237438087957
-0.12975042299763903 -0.09545534156739956 0.08436625278641736 0.20882967859629892 -0.3605578475206177 -0.16504012716732347 0.23184128336254328 0.006467389640257193
-0.007289079508993525 -0.010548800927733531 -0.13186578788775555 -0.007462494479916259 0.018335250044245962 0.08730240320388216 0.11333705327334077 0.19853595156996878
0.12815063307628652 -0.017626961500810435 -0.07487277121665252 0.018973728403162523 -0.11261843974400877 -0.013406475645721975 -0.0017800123690992324 0.0032609339140942787
0.08181472456132517 -0.08441691641579853 0.08526230123263374 0.041112659995554905 0.018184786013136525 -0.0341411867376877 -0.0028219759626181003 -0.05298424206268428
0.09123791632099125 -0.08366805429357048 -0.06991432076643798 0.02142620694337846 0.03919859141458428 -0.047807907130310544 0.028450201475264583 -0.09741328807300552
0.1210157074912152 -0.08864608029931066 0.11529331648963957 0.04261608454530424 0.04318149655555963 -0.022986073046321772 0.04248456059966015 0.09830339995569727
0.020353074266410334 -0.09614685413320832 -0.10041290642375002 0.08327968486755387 -0.1224915099522003 -0.026017354455498545 -0.008343933024905574 0.04388298926037542
-0.01833131188533135 0.08061865242131357 -0.0793652854487751 -0.004799560055707807 -0.07777183987089055 0.10777211999574872 -0.016327359530262067 -0.10093105349576957
-0.04511715291284884 0.048534590277089444 0.02410536523396908 0.0022677988721479243 0.07761533482197426 -0.08382146733376329 0.09647238959992833 0.10626407060654304
-0.04150584114551042 -0.12250566553096097 -0.023981450667553774 -0.10177853939849717 -0.09716909268029757 -0.019032903426626304 0.03048409552218578 0.03978257287563668
0.03247837476458328 0.10994223389981843 0.015144316062882522 0.08189901122159009 0.09044153559447472 0.07435964806852478 -0.10931654574222756 0.07883718535923238
00000000: 921a 4173 2d94 953f bc30 0287 90b8 96bf
00000010: 185b 34b8 499e ad3f 1c06 8464 38ef a53f
00000020: 8dfd 82f9 0f39 b13f 63a5 7db2 0b44 91bf
00000030: c5f6 9a0c 7e23 9b3f ec38 8a0f 03d8 6a3f
00000040: 7452 0bec 1652 c03f 647a 2cbb 79ea afbf
00000050: 874f 8983 168d a7bf ce07 2a9a 41b1 9e3f
00000060: b363 e2f3 de93 b9bf 53bd 3083 2dc6 b63f
00000070: 9b66 2ac2 1029 ae3f f3e5 2d6b 8788 ba3f
00000080: e860 6b37 166d 98bf 4212 5caf a936 7abf
00000090: 1b14 8464 5d4c a6bf ff30 a43a 5205 a13f
000000a0: b911 c947 45ce babf 679f 02ba e9db 92bf
000000b0: a6e0 10dc bc92 a43f 160e 2f17 f393 ae3f
000000c0: dedf 262d 1177 94bf cc59 c051 3b51 a6bf
000000d0: f2e9 be51 39fa 99bf 0933 ccc9 d8dd b33f
000000e0: 18f2 1247 3e26 8a3f ec0b 7f70 461e 3fbf
000000f0: b77f 361f aad6 a8bf 1d6f bb0f d8ac ad3f
00000100: f48c 8ef6 eb6c 79bf d8ee fd34 a230 a0bf
00000110: 51ff 45ca f13d b13f 2ca9 1641 227c 92bf
00000120: cf5e 19fb 8b33 87bf 46e6 d7c8 cd16 89bf
00000130: e153 c66c 9348 aabf dae0 07fc 4ac9 8cbf
00000140: 26ea 49a8 b30d 823f fc4a b3ee 9db8 9f3f
00000150: f47e 41bd f68e acbf aeb9 d96e 6f97 a7bf
00000160: aa8a b567 22b6 b43f 293f 2047 8436 953f
00000170: 710f 26ad ede5 aabf 73e6 b300 ac5d a6bf
00000180: 7bd6 bee5 0854 a93f d6a8 ff46 462d 7bbf
00000190: b788 a5c2 1472 953f 8d36 5d30 b6d4 bcbf
000001a0: 9cce 048d 1fc6 8c3f 0165 28e8 5a9e a6bf
000001b0: 8678 501b 4920 99bf eb96 c107 fb28 a23f
000001c0: ab2e 7cee 2054 783f 9567 4ee0 6e0b 993f
000001d0: ad2f df22 b834 bd3f 818b b46f 2af0 bf3f
000001e0: 7f5f 3cdd fb2a 633f ad34 5911 f56e b1bf
000001f0: 6d14 0eb3 6545 a83f ddce a832 605a 9b3f
00000200: a8f6 6bbb 12f7 a7bf e69b 3a79 4e89 af3f
00000210: 6092 c9e6 a00c 8ebf 77c2 e1b4 71a2 58bf
00000220: e13b af2d 8273 e6bf 026e 0772 8a29 b3bf
00000230: b369 6646 a4f9 a53f 39b2 7b60 3f59 b5bf
00000240: 3f90 f2c2 833d e9bf 0701 80c7 ed1d d03f
00000250: 97e7 ea6e ad53 bdbf 7ec2 908d 7abc bb3f
00000260: 2f98 f0a7 b3d5 91bf 5f74 b78c ae63 803f
00000270: b5c9 a168 4122 aebf 2305 2f6d 244f bbbf
00000280: 2be2 ca59 7b7e abbf 7e42 b25c 09d5 c33f
00000290: 9d76 3445 f64c bcbf c605 8675 638b c53f
000002a0: 152b 2cc5 0a5c b03f 2951 548e 2fc1 a03f
000002b0: bd29 28f5 c0ea c53f ad6f 173f a022 9b3f
000002c0: 9dc6 8786 98ce a93f dbc6 01c4 1429 b03f
000002d0: 4a1f 79a1 4072 90bf c79a 8207 0c5e a53f
000002e0: 729f 397c 74bd c5bf da97 6630 2ae8 b03f
000002f0: c34f 0feb a582 acbf 58e9 2b1d 61ca 873f
00000300: 605b 25f1 3b16 a03f ee98 19c8 1e00 a9bf
00000310: cfff 4374 3075 a33f 29ea 111e 137a 48bf
00000320: 429c be35 df6f bd3f ec4c 7dcc f792 bfbf
00000330: ea15 6cf7 1d97 cf3f 268c aee6 eeba b03f
00000340: 1b61 b56f a99b c0bf 81af 42e2 c26f b8bf
00000350: 258e 9ad8 0699 b53f 82ad 0050 eeba ca3f
00000360: 88b3 da38 6113 d7bf 0a0d 5bee 0820 c5bf
00000370: 3cd0 f3a4 f9ac cd3f 1a22 edaf 8c7d 7a3f
00000380: 28c1 be61 27db 7dbf 2319 f917 9c9a 85bf
00000390: 2637 3867 fae0 c0bf 3f1d ce1b fe90 7ebf
000003a0: bf50 37cd 79c6 923f 0875 9f46 7359 b63f
000003b0: f9e7 3b39 a803 bd3f 7260 8945 a069 c93f
000003c0: c91d 036d 3d67 c03f fd00 b25c cd0c 92bf
000003d0: 8b85 bca7 dc2a b3bf ef29 e65b d96d 933f
000003e0: 4987 a0e3 8fd4 bcbf 8fbc 9fb3 da74 8bbf
000003f0: b538 5aba e929 5dbf 9d95 7e90 acb6 6a3f
00000400: bd77 524e cff1 b43f 492a 3cd7 589c b5bf
00000410: 8538 600b c0d3 b53f dfd3 43f4 b70c a53f
00000420: 773f d854 089f 923f 9b51 f820 f47a a1bf
00000430: bf7e 06cf 1c1e 67bf a3a3 b925 c020 abbf
00000440: cbfb c03a 5e5b b73f a72c e904 456b b5bf
00000450: 77c2 36a9 e7e5 b1bf 9784 6568 c0f0 953f
00000460: 438d 5978 d611 a43f bbd2 3a2b 477a a8bf
00000470: 477e 9ab3 0c22 9d3f a729 78c6 13f0 b8bf
00000480: 5b21 faa9 e2fa be3f 69db cd6f 82b1 b6bf
00000490: 9737 c5df dc83 bd3f b7b1 cf82 c6d1 a53f
000004a0: d736 ff96 e21b a63f 6f5b fd3f a989 97bf
000004b0: 978f b84c 89c0 a53f 3134 e55f 692a b93f
000004c0: 67a0 63b1 6fd7 943f a78b 1d8a 149d b8bf
000004d0: 51b2 2f05 a9b4 b9bf 7f65 ed42 d151 b53f
000004e0: ab48 4885 9a5b bfbf 5729 0f1a 4ba4 9abf
000004f0: 8f24 b2bb 9f16 81bf 47b4 72c7 d477 a63f
00000500: a73d 2984 71c5 92bf b5dd 988b 6ca3 b43f
00000510: 89b0 7089 4851 b4bf ff5b 9717 b4a8 73bf
00000520: c993 cbf4 dae8 b3bf 6565 cd22 f496 bb3f
00000530: 179c d98c 1eb8 90bf b747 ea15 9ed6 b9bf
00000540: 77a6 7f70 9819 a7bf f701 ee9b 86d9 a83f
00000550: 3725 5aad 13af 983f 3f49 ac3f eb93 623f
00000560: f97c ba3c 99de b33f 09b8 e6dc 5275 b5bf
00000570: 2975 4c1e 6ab2 b83f 35b4 fe43 1f34 bb3f
00000580: 7739 a0ec 4040 a5bf a7ba 0703 885c bfbf
00000590: c7a5 4fe9 978e 98bf 93b4 268a 280e babf
000005a0: 556e 3edb 12e0 b8bf 37a7 0f87 5c7d 93bf
000005b0: 9f82 4305 3937 9f3f 9f37 e7a2 615e a43f
000005c0: 13da e16a 01a1 a03f e384 0c9b 2c25 bc3f
000005d0: 5fd5 aeb1 fb03 8f3f d37e c566 55f7 b43f
000005e0: bd0a 942d 2d27 b73f 97ac 98e0 3b09 b33f
000005f0: dde2 df4c 2bfc bbbf 9b9b d37c ac2e b43f

transform_generator.4.bias f8 [3]
0.011083822930201695 -0.04531079830965855 0.0025508779299865947
00000000: 75bc ff87 1db3 863f be90 ca19 fa32 a7bf
00000010: 80d6 2129 94e5 643f
