QM_SST_1000[1980, 1990]_bci_Wnoisy001d.pth (torch, 73240 bytes, 8 tensors)

transform_generator.0.weight f8 [64, 1]
-1.588370445513386 -1.3696656243761158 -0.6827992010071664 -0.659149909402681 0.25674575700604096 -0.04643049242504071 0.8242096733930382 0.843348639576023
-1.3549113443466037 -0.7347186556926028 -0.6099029240796715 -0.24926593589899879 0.7896526110478176 0.7043500252010227 -0.24493408945888115 0.11612696988729014
-0.7508235835344205 0.6625140615691669 0.6137121519066487 -0.12544200441869566 -0.7331789501334091 1.0896075576958455 -0.3755226385540748 -0.13761552104441196
-0.9373196691451687 -0.9192670646800855 0.8294710268259232 -0.5945184989490129 -0.4699101765032782 -0.8708763709497023 -0.3095208065961707 -0.5331836218841043
-0.7341472157396031 -0.3566998130080931 0.18304242069813012 0.15280156843404308 0.6278225200527886 -1.2338171391617696 -0.17104852411553362 -0.2828847804316835
0.8910926679007984 -0.9575214425206953 -0.1003733428295813 -0.3844961095030051 0.9077888948942348 0.6326993791496703 -0.23144395336544285 -0.8013866348822939
0.4003432537646358 0.1638689339764516 0.4356172345742443 0.3059091584263677 -0.7144381153615688 0.2899410345970279 0.05044276938527658 0.935654459969053
-0.47767643818119365 -0.25418994824002644 0.14040771016360207 -0.40233905667804293 -0.827945106879011 0.4629205249194476 -0.49116078686602743 0.24420357476468188
00000000: 6a9b d620 f769 f9bf d569 7280 26ea f5bf
00000010: 56f1 c1b5 7dd9 e5bf d577 018d c117 e5bf
00000020: c892 6ec1 856e d03f 3f65 01cd bcc5 a7bf
00000030: 5aa3 08f7 ec5f ea3f 105d 4349 b6fc ea3f
00000040: 3e2b 8f84 b7ad f5bf fbbe beb2 d082 e7bf
00000050: d105 1523 5384 e3bf 47b5 5839 f2e7 cfbf
00000060: 25d8 748d d544 e93f fb9a 6510 098a e63f
00000070: 2762 f30f 005a cfbf 0b78 d941 7fba bd3f
00000080: 4911 0b2e bf06 e8bf ec8c 72b0 5033 e53f
00000090: 5119 b3aa 87a3 e33f 2ff1 42cd 7b0e c0bf
000000a0: 1109 9eb3 3376 e7bf 0e73 9c55 086f f13f
000000b0: 13d5 df1a 9008 d8bf 5364 27a9 629d c1bf
000000c0: 8508 9cd1 85fe edbf 85e8 62c3 a26a edbf
000000d0: d54c a6d2 068b ea3f f24b bba8 4b06 e3bf
000000e0: 1fe8 0822 0213 debf 02d2 821f 38de ebbf
000000f0: 27c6 705b 30cf d3bf 6f29 5819 d70f e1bf
00000100: 37a2 414d 227e e7bf 17fb d673 2bd4 d6bf
00000110: 23ee 561d ef6d c73f fed1 9975 008f c33f
00000120: 8135 ea40 1f17 e43f f51a 5f0a b7bd f3bf
00000130: f479 8d04 ebe4 c5bf ca5f 1fc4 c81a d2bf
00000140: b2db 4ac5 d483 ec3f 4e0b 1b02 04a4 eebf
00000150: 16df d740 11b2 b9bf 0d4c f091 959b d8bf
00000160: 5cc4 e74b 9b0c ed3f ffb6 b4c4 123f e43f
00000170: 17e0 4799 f49f cdbf 95ab 8895 f5a4 e9bf
00000180: 47f9 854f 399f d93f df2e 2140 a8f9 c43f
00000190: 7280 041c 27e1 db3f 8e3d bf01 0494 d33f
000001a0: 51cd 8f52 addc e6bf 7c35 57d7 648e d23f
000001b0: 6fab a879 a2d3 a93f 548e 3d9f e1f0 ed3f
000001c0: 26b6 0332 4092 debf 136c aaea a544 d0bf
000001d0: 3724 a13d e1f8 c13f dc7b 9550 ecbf d9bf
000001e0: e7b6 9dbc 867e eabf 8a46 cb68 7da0 dd3f
000001f0: a3b3 2aa7 2d6f dfbf e31d 970f 1042 cf3f

transform_generator.0.bias f8 [64]
-0.5072211322845055 -0.4290386122005168 -0.12049262400717825 0.5229449910447984 0.15460903294713868 -0.7111144796357376 0.2012991597746397 0.8265192610906038
-0.6515356467665645 -0.8699853908134432 0.02690665790129664 -0.9866611574406288 0.5811461531102785 0.26299496237017933 -0.7243894089917846 -0.5086706405734468
0.07853433316482235 0.2723531150244965 0.3690712063142034 -0.664993886167283 0.6278617486212046 0.6308115239533932 -0.5331091010114808 0.11655671373450596
-0.9765982043805859 -0.8076778574687249 0.6962664777042429 0.27747282621414804 -0.8244622023300954 -0.27878401880805803 0.6720539976441832 -0.41323276478424864
-0.16233388674867902 0.0240637568011732 -0.9290365036798308 0.8060502383157379 -0.3380595294132294 -0.5667967567190298 0.32192481222408315 -0.03792761242797418
0.34542197445422246 -0.3111781047240111 -0.11565050532362753 -0.30217543908362393 0.19952100424925068 0.25476895598815785 -0.17804461022859952 -0.6376134105035416
-0.8710860043161451 -0.9389226001418229 -0.5073920620071402 0.28796386638497246 0.7484749926098715 -1.0631527897323647 0.7618941955477649 0.22376677660878996
-0.01993355446968096 -0.6100202977201068 -0.5755837241405586 -0.27009383504229456 0.31259254147520793 0.27661399289942573 -0.4115110849677537 0.4127091358165043
00000000: b810 e0cf 273b e0bf 29d6 075e 5e75 dbbf
00000010: 5422 85c7 9ad8 bebf 1b9f 4422 f7bb e03f
00000020: 744a 1692 3aca c33f f0eb 3727 73c1 e6bf
00000030: aae0 f8bd 2bc4 c93f 4abe 7c85 d872 ea3f
00000040: 9e4c e148 61d9 e4bf 1c54 319a ebd6 ebbf
00000050: 3d44 ec3e 6b8d 9b3f bc1c 6e6b ba92 efbf
00000060: 5fc1 39d1 bf98 e23f 8521 99d2 e8d4 d03f
00000070: 0e08 a6b2 322e e7bf ad58 b6a6 0747 e0bf
00000080: 455b 8e78 d31a b43f b19c 7fc2 3b6e d13f
00000090: 08f2 40d6 dc9e d73f 141c 2442 a147 e5bf
000000a0: 2a99 9785 7117 e43f 593b 2aa6 9b2f e43f
000000b0: aa6a 41d1 3a0f e1bf aa72 9e29 a9d6 bd3f
000000c0: bcb3 a4e0 4a40 efbf 3c02 f13b 7fd8 e9bf
000000d0: 884e e1a2 d047 e63f ce94 8762 1dc2 d13f
000000e0: f877 798e fe61 eabf 4e65 dbec 98d7 d1bf
000000f0: f7e3 a062 7781 e53f 9893 98d6 6772 dabf
00000100: 591f 4f57 5bc7 c4bf 7774 eb61 2ba4 983f
00000110: b50a 03c3 aaba edbf a1f8 8fde 29cb e93f
00000120: 0595 bb6f c4a2 d5bf 89c9 b2f3 3223 e2bf
00000130: 077f 1187 6a9a d43f a4ad fc7d 3f6b a3bf
00000140: c570 e6c4 641b d63f 4656 c191 57ea d3bf
00000150: a87f 2182 459b bdbf d330 21a7 d756 d3bf
00000160: 44cc 0e7e e789 c93f 3855 8073 224e d03f
00000170: 7098 1471 2aca c6bf ca51 333d 5467 e4bf
00000180: 2b51 91c1 efdf ebbf 86b3 a268 a70b eebf
00000190: f042 1247 8e3c e0bf 2567 23ff ff6d d23f
000001a0: 8043 e4d3 81f3 e73f a5d3 e87f ac02 f1bf
000001b0: e479 9cef 6f61 e83f dca8 bbc5 63a4 cc3f
000001c0: 2a48 2932 7669 94bf 5054 9349 4985 e3bf
000001d0: 0c65 e98e 2e6b e2bf 68e7 16a7 3749 d1bf
000001e0: bb02 a725 8401 d43f db9d 472d 0bb4 d13f
000001f0: d030 f896 3256 dabf 61e8 4594 d369 da3f

transform_generator.3.weight f8 [64, 64]
-0.067595199718251 -0.15809670112835386 0.059148794522242296 0.04850283956344014 -0.0028242840523388137 -0.016031832203206944 -0.1643954078221707 0.052324895731710494
-0.8438331242182883 0.07070641563369902 0.034110115719645624 -0.07257267786080686 -0.11484759746713967 -0.041394151902213266 -0.03376749607675216 -0.12239190132451609
0.022776306165551524 -0.07982985280754255 -0.0357012092532927 -0.0033415065959669084 -0.00847390638904659 0.021763639748544353 -0.0928687293110677 0.04779226526111946
0.06117266785318664 -0.025187081362824073 0.007685663014968952 0.04878996568650455 0.008400330645242425 0.015135392842379972 0.033732551647072784 -0.028228902442484518
-0.082032224534917 0.09221025507993252 -0.054625971929667595 -0.03127386915257407 0.0499317366393452 -0.19704492583535538 0.07169507071950681 0.09593880968779593
-0.07416923573728798 -0.10248966395618257 -0.0010354615188568807 0.0839330971331653 -0.0001947664575115817 0.013498941285968902 -0.04652797029297933 -0.09938956016024812
-0.17630045954221674 -0.11650091198070704 -0.07267854357879701 0.04158393731250086 0.017933511872722612 -0.07799664477124421 0.060540650292848774 0.0008443845030641966
-0.03680858259693114 0.03683414160667949 -0.005351285846356009 -0.14051333940526461 0.04193618053370858 -0.06922724379913948 0.043615337064188874 -0.0007977081491198424
-0.6293357005630636 -0.6876213766459437 -0.43322682530384754 -0.0772536336171307 0.12665568895328208 -0.05454983039804819 -0.007122215140629755 0.0218966251817057
-0.27610425577734554 -0.045340188069939995 -0.40834099249379907 -0.06525735032698489 -0.0011400891154644793 0.01102026296801611 0.07842993022602117 0.0907306551201532
-0.5638640083910952 0.020033621004281757 0.026628044181829773 -0.12465793509195582 -0.1474193193903296 -0.029952483787638953 0.01076126314107925 -0.17272329592125873
-0.020352819106256106 0.07860033112392247 0.00677458014663407 -0.12054327272592276 0.07280162668952879 -0.28053928919825505 -0.1534073519702163 -0.10450903936235652
-0.5364906126177869 -0.5499820635937956 0.1119822872570506 0.0690663745404768 0.023039011079527005 -0.2780766470627506 -0.10000174546783805 -0.5655364183993529
0.043127073545962236 -0.38488841590934475 0.029459615386903334 0.020484506987736375 0.04047764157225558 0.01896179002727461 0.10681725068137378 0.05566608840829209
0.41094222828755617 0.036433730073015445 0.11101950616967587 0.053423933349260516 -0.10085347628221453 0.6945868915579348 0.056405452539323116 0.013918088841660774
-0.9396457591936662 0.11584092084720828 -0.0842146377554721 -0.014964920518577523 -0.2857610037141522 0.029070577459466774 -0.09471137849249041 0.024385858474322064
-0.10700467815117046 -0.05064722438721047 -0.04630395730508491 -0.16569373969526915 -0.0381892933024895 0.032572431403015294 0.05030516097772807 -0.03801025223469454
0.045888276513341 -0.10146893874766928 -0.04717473810021944 0.046849573720812686 -0.11408004678815166 -0.103318761215612 0.017912676308257127 -0.14446282296143004
0.022864334284179885 -0.09422515475994507 -0.11428555358025959 -0.09865657950706365 0.05876961747280105 -0.14057153018431662 0.032043385122278244 0.027310028057947588
0.05773304541315443 -0.07147717146673531 -0.12459233838270192 -0.04964775261781559 -0.04556767081902718 -0.015833108125794176 -0.03240694921041413 -0.04094708182324255
0.04075163224269771 -0.1619199658767554 -0.056033906620972566 -0.04992243674473222 -0.0014776818059682405 -0.0019043071603138798 -0.1136575876374508 -0.030386738262775527
0.06357421570441422 -0.16818029514279906 0.00031658608793430583 0.020263721176686098 0.038054130603816225 -0.11961878292031192 -0.06981865173432748 -0.010888321596015852
-0.16489504496058144 0.011262532417400743 -0.07769718245114522 -0.06717812236819802 -0.03377701162654531 -0.004799579305127623 -0.16882356399689238 -0.0036365285119532562
0.061321724407494206 0.0009904004183968471 -0.15163042883218864 -0.07975502616270234 -0.03455668502066582 0.053925753627156535 -0.029235787111254793 -0.047844319910503065
0.006617416486975835 -0.07241179615343223 -0.17033978563273633 -0.11839436529996236 -0.06791226132607858 -0.07178036485775331 -0.12449224299106475 -0.005857411848988518
-0.11724383949450258 -0.036734155888889584 -0.18340679958578174 -0.10779140947286454 -0.08406412605003763 -0.022696645468990636 -0.0716471559814225 -0.09771484624495261
0.050970725157657396 -0.17978711849248238 -0.18138889994680465 -0.03390958745903668 0.011521875094926552 -0.041774831814475055 0.05435567673132615 -0.0638421940792662
-0.09057354354155951 -0.059752231938155674 -0.03825511619217304 -0.000742923443758399 -0.07333779152577664 -0.003995769240694555 -0.0903952143618233 -0.10220330484182251
-0.19225035331255205 -0.02324560237059507 -0.06215527973209337 -0.04048542594531337 -0.12772814174913832 -0.03036097035962603 -0.04813763311725388 -0.05309304798970094
0.041009633714868786 -0.08247109353307946 -0.08376970383184082 -0.1013130220996669 -0.17293922780124782 -0.018147162632022963 0.004566270289989321 -0.08547100941129197
0.049662867724288254 -0.11201331441532116 -0.10136267654306097 -0.12422594299791494 -0.09290136431730665 0.006008530846202726 -0.008221961402844098 -0.13695742657282248
-0.11924149685278977 0.040232818201133023 -0.19048273883154537 -0.14872831480868381 -0.18989110550953486 0.023634119797326786 -0.10626447955988076 -0.193670654792593
00000000: d70e 2844 eb4d b1bf 79d3 7940 833c c4bf
00000010: 0e47 2434 c048 ae3f ff4f 603b 5dd5 a83f
00000020: 080b 76f4 f322 67bf 47eb 070c a66a 90bf
00000030: 26ba 1aa2 e80a c5bf 6e5d de27 54ca aa3f
00000040: d991 f952 ae00 ebbf 659d c3ce d019 b23f
00000050: 1112 f58e e176 a13f 8dcc fe7d 1f94 b2bf
00000060: ef41 25f3 a666 bdbf acd1 5441 9d31 a5bf
00000070: f789 a226 f949 a1bf 13eb 7b5d 1355 bfbf
00000080: 8b3d 6b08 ac52 973f 238a 0daf ba6f b4bf
00000090: a351 57cc 6d47 a2bf 3fc9 91b1 a55f 6bbf
000000a0: 5889 7b76 c45a 81bf 8402 d923 3549 963f
000000b0: ff4c 36bb 3ec6 b7bf 30b6 9850 3a78 a83f
000000c0: cf50 ad1f 0652 af3f 37a9 f06a a4ca 99bf
000000d0: 6005 c274 007b 7f3f 2635 fe95 fffa a83f
000000e0: 5fdb 2c4b 3134 813f 423c 290a 4eff 8e3f
000000f0: a005 459c 6445 a13f d776 2b93 09e8 9cbf
00000100: 1179 9859 1000 b5bf a893 ec5d 179b b73f
00000110: 4578 e675 eff7 abbf c799 75ea 2003 a0bf
00000120: 9904 cc0f a790 a93f cc1d 27a4 c438 c9bf
00000130: 0452 06b0 9b5a b23f 6bb8 0622 728f b83f
00000140: 4a68 dc49 c1fc b2bf 73ad de3a c33c babf
00000150: 5841 0657 0af7 50bf ee2a 3db3 a37c b53f
00000160: ca2d 7821 4787 29bf e0b4 d43a 55a5 8b3f
00000170: e7e4 839d 83d2 a7bf 2fbc 731e 9871 b9bf
00000180: b475 0072 0391 c6bf b34b e9f6 00d3 bdbf
00000190: 49b6 ca9f 0f9b b2bf 1e9b 9765 7d4a a53f
000001a0: 7bab fb9b 295d 923f 467f 7d8e 96f7 b3bf
000001b0: 2837 2c22 2fff ae3f b36a b7e9 35ab 4b3f
000001c0: e78e ee14 93d8 a2bf 3b62 27b3 ecdb a23f
000001d0: eef1 39db 3aeb 75bf aedc b252 57fc c1bf
000001e0: faa6 d2b7 a878 a53f b109 1c6c e0b8 b1bf
000001f0: f3e3 96dc bf54 a63f 3eb4 c334 a923 4abf
00000200: 97f4 839f 8423 e4bf c731 978b fe00 e6bf
00000210: fb83 9b01 fdb9 dbbf 6afb e1e5 e4c6 b3bf
00000220: 950e f4ec 4036 c03f b3b9 1f93 f4ed abbf
00000230: ab50 aa11 2f2c 7dbf 4d5a 31a4 116c 963f
00000240: 5668 362f b1ab d1bf 3fe6 e841 d436 a7bf
00000250: 9021 1842 4222 dabf 315f 7aa9 b4b4 b0bf
00000260: f3db c95d e1ad 52bf 1ddd 53a8 ca91 863f
00000270: af2b 59e1 fb13 b43f af57 7ccc 1f3a b73f
00000280: 95cc 6d88 2c0b e2bf 44a9 228c b183 943f
00000290: 6b6b abcb 6144 9b3f bb26 681a 95e9 bfbf
000002a0: e43e cae1 a2de c2bf e71f 3529 ddab 9ebf
000002b0: 2f64 094a 000a 863f 069c 9e05 cc1b c6bf
000002c0: 8766 c591 5ed7 94bf edcb a1bb 261f b43f
000002d0: c264 c882 a9bf 7b3f 5d53 1c86 ecdb bebf
000002e0: fd24 ba9d 20a3 b23f b55f 1610 5bf4 d1bf
000002f0: 05ca d623 daa2 c3bf 559c 32ba 1ac1 babf
00000300: a4bd 795c ee2a e1bf c5b3 10fc 7399 e1bf
00000310: 4f14 8005 dfaa bc3f 2796 e77b 55ae b13f
00000320: a399 79dc 8997 973f 429d 3afe 01cc d1bf
00000330: aac8 53e2 b699 b9bf 351c b7d4 df18 e2bf
00000340: f078 e774 c014 a63f 0627 bc05 03a2 d8bf
00000350: ffd5 8e52 a92a 9e3f 7719 59fe e3f9 943f
00000360: d749 8b45 7cb9 a43f e1bd 2930 b86a 933f
00000370: fd3b 5316 6058 bb3f ab72 6bfa 4380 ac3f
00000380: 3d96 c2a1 e04c da3f b310 451e 71a7 a23f
00000390: 0c82 373c c66b bc3f 7c15 1ebd 615a ab3f
000003a0: 08ed 518e 88d1 b9bf 9517 ef49 0e3a e63f
000003b0: f9e7 f1eb 2ce1 ac3f 769a 2e43 1681 8c3f
000003c0: fcfa b1fb 9311 eebf e5c8 9326 c0a7 bd3f
000003d0: d715 012b 178f b5bf 695b b7a1 eda5 8ebf
000003e0: ab29 5b85 e849 d2bf ed62 db6d adc4 9d3f
000003f0: dd2f 2f41 013f b8bf a044 8742 9bf8 983f
00000400: f2a3 2d99 a864 bbbf dfa2 c0d8 6eee a9bf
00000410: f8f7 99fc 26b5 a7bf b151 92d4 7335 c5bf
00000420: 4945 950b 8c8d a3bf 571a 416f 55ad a03f
00000430: 9e4f 701a 99c1 a93f 9d7d 856c 1476 a3bf
00000440: 9a09 ca0d ab7e a73f 3127 7b4d def9 b9bf
00000450: 20f5 ac8a 4927 a8bf d3c3 ecd5 aafc a73f
00000460: 89cd 1496 5934 bdbf 37fa 7b2c 1973 babf
00000470: c710 b65b b357 923f 12b8 0dfe c17d c2bf
00000480: bf40 fb7f bf69 973f 7f8d 27c6 231f b8bf
00000490: ff4f 086b d141 bdbf b99f 84be 8e41 b9bf
000004a0: ad95 1622 0d17 ae3f e6f5 7176 3ffe c1bf
000004b0: b37f 4e96 fd67 a03f a368 72f5 28f7 9b3f
000004c0: c75d e58b 2f8f ad3f e336 dcf1 534c b2bf
000004d0: 3295 af92 48e5 bfbf 1b78 a023 6e6b a9bf
000004e0: 0761 d84f a554 a7bf db94 60e6 8d36 90bf
000004f0: 7531 0bc6 a497 a0bf 0b4d 9812 04f7 a4bf
00000500: 1d65 7bdf 65dd a43f f84a 011f cbb9 c4bf
00000510: a7f2 cee8 79b0 acbf 667d 4f02 6f8f a9bf
00000520: eb2a f4c1 d835 58bf 3ad2 673e 3e33 5fbf
00000530: cf58 d8e5 a918 bdbf 2a6e 487c b31d 9fbf
00000540: 37be 5159 6646 b03f 4f27 bc91 ee86 c5bf
00000550: f739 e0e4 6ebf 343f c91b ff4e 03c0 943f
00000560: de9a d7bc d47b a33f d04b a128 569f bebf
00000570: 3b89 d999 a2df b1bf 8f45 4ec9 9d4c 86bf
00000580: 1e67 b0e4 471b c5bf 0f17 3983 cf10 873f
00000590: b177 9e69 f6e3 b3bf 23fe 93de 9532 b1bf
000005a0: ccd2 9570 384b a1bf e8bb 6642 b9a8 73bf
000005b0: 9d95 14b3 029c c5bf bd35 f460 5aca 6dbf
000005c0: 65a1 baa1 8f65 af3f 7f9e 0b5a 0a3a 503f
000005d0: 8ad3 743a a068 c3bf 6778 0f4d d36a b4bf
000005e0: c63a 0bf0 69b1 a1bf eb48 7b08 289c ab3f
000005f0: 8f08 1076 fcef 9dbf 0d44 a1fa 0c7f a8bf
00000600: bf43 5436 dd1a 7b3f 1bd8 5258 9489 b2bf
00000610: 4c08 40b0 b1cd c5bf ce77 fed6 174f bebf
00000620: f495 64ad b262 b1bf 811a 8faf 3260 b2bf
00000630: 4797 4040 b9de bfbf 382c 4a05 f1fd 77bf
00000640: 014f 4938 b103 bebf 9bbd 60bc d1ce a2bf
00000650: efdf 0abf df79 c7bf 55c7 79c2 3798 bbbf
00000660: fed7 2600 3a85 b5bf 9fa8 1218 ca3d 97bf
00000670: a3a7 cacf 7757 b2bf 5eab f414 d703 b9bf
00000680: ba09 36bb d518 aa3f b769 15a9 4303 c7bf
00000690: 2d81 9060 c037 c7bf 9b98 50f2 985c a1bf
000006a0: 4f3c c5e5 c798 873f e0cd e0c0 8263 a5bf
000006b0: f373 d3db 81d4 ab3f a2e2 ac47 f657 b0bf
000006c0: 0dd2 64e7 d32f b7bf 2b24 1334 d897 aebf
000006d0: b16e e6b1 2c96 a3bf 0dd9 7af2 1758 48bf
000006e0: ed00 2af8 43c6 b2bf 7dda 6023 de5d 70bf
000006f0: f820 6609 2424 b7bf 11b8 d6eb fe29 babf
00000700: fd98 0fda a89b c8bf ab81 d4f7 b1cd 97bf
00000710: 9536 721b d1d2 afbf 23ac cc78 81ba a4bf
00000720: 0ab3 cb4f 6559 c0bf 9ee2 133b f216 9fbf
00000730: 4712 e4ef 7ea5 a8bf a07d 8511 032f abbf
00000740: 73aa 40f7 36ff a43f e005 9759 d31c b5bf
00000750: f275 5a6a ee71 b5bf ebb5 9374 a6ef b9bf
00000760: 8809 cd63 df22 c6bf 9a34 1478 2b95 92bf
00000770: df94 f6d8 14b4 723f ab77 2d96 6de1 b5bf
00000780: da1c 6751 696d a93f e95f 2192 e7ac bcbf
00000790: d897 c984 e7f2 b9bf 63a5 7d7a 45cd bfbf
000007a0: 0f22 7f41 62c8 b7bf ba02 b4b7 669c 783f
000007b0: a46b acfa acd6 80bf 4b8c 092a d287 c1bf
000007c0: c30e 4f59 9c86 bebf f3af cc5c 6599 a43f
000007d0: 9af3 dd06 bd61 c8bf b2d6 0b88 8709 c3bf
000007e0: 867c fb0b 5a4e c8bf a5a5 65ee 8a33 983f
000007f0: 6ba7 6f20 2634 bbbf 4eb9 4334 33ca c8bf

transform_generator.3.bias f8 [64]
-0.04024589920475002 0.44766546334871005 -0.13245802808513318 -0.032815640421183796 -0.02115377105515138 0.0701843287270945 0.11120769257023069 0.00974030790855283
-0.05919309638204177 -0.00916914575152395 0.05756437265418399 -0.02331854915191814 -0.07863953866856879 0.04647014206650815 0.06090039994137162 -0.013388728811907178
-0.012799111572884653 0.018370633515999987 0.020228386836662896 -0.14159376237554194 -0.11850004637820298 -0.03790588618004952 -0.008482479212156136 -0.03723693175206375
-0.11410090051138987 -0.12956145129595856 0.04762638468272448 -0.1547921417323986 0.05098407308186387 -0.11822464065765151 -0.009595690111782636 0.0235748164764015
-0.07259396951170007 -0.14451746645824434 -0.08724406168800906 -0.00893646807794225 0.03534986158722056 0.07777006717783974 -0.06229572809797909 -0.1420786917120251
-0.1085174591082001 -0.0900856946706062 0.09705606355606652 0.018063749884191318 0.03507139896479511 -0.14224521616753907 -0.0004955905377594665 0.05430173032565127
0.1683757256916097 0.019530268716253255 0.007043770120767262 -0.08588852374563877 -0.15655429157113607 -0.09943755024327576 0.06369857484167976 -0.1361470533400313
-0.1697765190527065 0.04892471959440163 -0.0010744071969426207 0.2853340551925405 -0.10883794531168331 -0.15081918877880807 0.009736635933367016 -0.003870333225249265
00000000: d7d8 c349 1c9b a4bf cc68 280b 8da6 dc3f
00000010: 24f1 5b79 62f4 c0bf f103 d02c 36cd a0bf
00000020: 22cd 798b 55a9 95bf f317 93a4 99f7 b13f
00000030: 7a1b a77a 1b78 bc3f 3694 5cff b9f2 833f
00000040: a53d 38ba 8e4e aebf 8496 14e9 45c7 82bf
00000050: eccf edd3 1379 ad3f c899 fd57 d1e0 97bf
00000060: 2208 c186 b821 b4bf 840e d538 efca a73f
00000070: 6d7e 1f54 562e af3f e5a6 0ec3 8c6b 8bbf
00000080: 5db6 fcac 6b36 8abf 5fd0 a158 c0cf 923f
00000090: 513f a80f c0b6 943f ea3a 5c91 be1f c2bf
000000a0: 57d4 c4df 0456 bebf 6e3c f07a 6668 a3bf
000000b0: 2d12 7116 435f 81bf dd30 2818 b810 a3bf
000000c0: 57fc 2374 b735 bdbf 5db8 113a 7895 c0bf
000000d0: 3c2d 4749 7c62 a83f bb8f 3599 3ad0 c3bf
000000e0: 08c8 019d 951a aa3f 22ba 3455 f843 bebf
000000f0: 8485 b3b9 e7a6 83bf 68f4 1927 ff23 983f
00000100: d987 f0b4 8495 b2bf abc8 1160 8c7f c2bf
00000110: 635f b877 a055 b6bf 8692 1771 484d 82bf
00000120: a4d7 de86 6019 a23f 98f4 2237 bde8 b33f
00000130: 0c00 b9c5 39e5 afbf 5f49 2e73 a22f c2bf
00000140: 302c ead9 ccc7 bbbf 269c 7228 db0f b7bf
00000150: c60f da8a aad8 b83f 779f fbbb 4d7f 923f
00000160: a853 28df e0f4 a13f 25dc b95b 1735 c2bf
00000170: 04ef 7093 503d 40bf 07d2 bab7 6fcd ab3f
00000180: d292 a4f5 558d c53f f470 ac25 beff 933f
00000190: e0a2 f2a4 edd9 7c3f 4cd8 9650 cafc b5bf
000001a0: 6359 2c95 f809 c4bf bb0a 4a42 bd74 b9bf
000001b0: ca2f bfbf 8c4e b03f e066 c542 446d c1bf
000001c0: 67e4 7aaa 3cbb c5bf 2673 3f2d a90c a93f
000001d0: dd4b 80f1 639a 51bf 582b dfc4 e942 d23f
000001e0: b671 adb7 cddc bbbf 8405 b50d 0b4e c3bf
000001f0: f044 4127 cdf0 833f 7bf0 1054 adb4 6fbf

transform_generator.6.weight f8 [64, 64]
-0.034401493697650325 -0.22914841032555677 -0.047965530654518015 -0.06625270757189897 0.04823786917424911 -0.012422287654608424 -0.04162880265274915 0.020194789346442792
0.034895348749513916 -0.1400389512701924 -0.0909467851714994 0.08247507421978259 -0.14503374046538434 -0.11000723804064225 0.045331692670117 -0.06492925192561132
0.013576525642500089 -0.09516872985655392 -0.0241748331391348 0.02138102531111716 -0.13712262973640651 0.026325737319678723 0.008696653467187235 0.08843951573969983
-0.0013316701182556415 -0.09534827550775973 -0.04675968456060895 0.03767011548414451 0.030832716064033722 0.003160406537003718 -0.09015903791539004 -0.0825751909137226
-0.13089830968047295 0.035880060493802934 0.0375968937813068 -0.004006597112899626 -0.11693753795339053 0.005332131402532501 -0.11967078313115705 -0.08374297556698765
-0.07430757377562307 0.04794487221773561 -0.04991769575204433 0.010409648690983648 0.12714575049969082 0.04235808915990091 -0.09647865189582623 0.053871757747270654
0.06290112425668871 -0.13983897428605532 0.04295709192760482 -0.05258219459883073 -0.04639476802800479 -0.15672210720233432 -0.08126262190898012 -0.06452974755606415
-0.11243824786655 -0.12349082671141057 0.06905764724216151 0.22787665369378451 -0.04506728356966831 -0.12365364002327324 -0.05342600557417371 0.04306254544636074
-0.14220477747391197 0.01793220354390068 -0.11326608955681157 -0.12897852855981148 -0.045211346427330705 -0.09635500654244764 -0.02371468072640214 -0.047236783259804876
-0.17588929956382446 0.006001966175945477 -0.11667143424222297 0.048895568343183204 -0.07747180248551885 -0.16986783664235108 -0.17086989512565784 0.04184473044267596
-0.039290317928648726 0.009046301466497859 -0.10243298916402838 0.05907222904498094 0.0038496162550493563 -0.015680351922782172 0.06011252384230168 0.011718949437596991
0.07542810558835543 -0.03688003488023903 -0.020765339495781965 0.0011859109365291035 -0.16513720802419463 -0.0021004463281836735 -0.11573559047530253 -0.12648905902327648
-0.1317193623600274 -0.05315763642355564 -0.022051589243588347 0.005310944893269822 0.018589661367461756 -0.11133486816450566 -0.0722017722286764 -0.054757460709556144
-0.1499337863731437 -0.08475673139044296 -0.09690443520529614 0.006483426928288269 -0.06903603427379604 -0.15534644358376426 0.048895668429228586 0.06188651988690568
-0.0637598844268053 -0.1793506791190835 -0.05684849214156809 -0.06750899568145756 -0.057282736963139735 -0.06579592311118028 -0.05178991860886057 0.05521489835794908
-0.029458284461211917 -0.15785551537217216 -0.13492753514178077 -0.04108132341417555 -0.17267338460842635 -0.013406475645721975 -0.09568329132176545 0.02051333345420419
-0.04356748999689244 -0.5084566098759349 0.08399531097767318 -0.01663411430225126 -0.041254022698991026 -0.07608383273642112 -0.44581674749821776 -0.12256145936437154
0.05817501235468536 -0.08162073949980235 -0.0570542889341577 -0.03199623378774642 -0.020856180042031613 -0.07606669362265983 -0.036824744359654715 -0.145840242342352
0.06932370453655903 -0.14635277228888766 0.07056279479847163 -0.017188853814547867 -0.01687279424253069 -0.11101625174123095 -0.014606703113527826 0.04126927740802508
5.680327840651281e-07 -0.14725044086094574 -0.14388286088819147 0.07238864947408165 -0.1430538080094944 -0.0859292552094205 -0.1294492415362627 0.022238399837743523
-0.07464773435087406 0.0251122956683329 -0.13938359166862663 -0.040541471933875445 -0.07898542098591267 0.09216865018255585 -0.07363074615559966 -0.16085367478216417
-0.10422185884314017 0.03071834256797203 -0.027688085912666756 -0.0499815418189917 -0.029665572372256508 -0.12134351405066104 0.025102904971751737 0.04966269237196326
-0.5110177765307714 -0.15821743102158525 -0.08104840702282681 -0.1618220477479223 -0.15367431839645612 -0.0775406836920544 0.0031812362126060435 -0.01520917938415003
-0.026847505888926308 0.052922248226919016 -0.0450409206251383 -0.36756446530870795 0.08622448409603654 -0.00941723649127602 -0.1339797523061853 0.0721665312197195
0.04021001911607184 -0.15409371975843442 -0.04424272126276231 0.08085680106484713 -0.09318707569899005 -0.12500563639720383 -0.041018706808468905 0.03550728977283923
0.046899545168506605 0.18740966309417642 0.049098331609770306 -0.08935219355464076 -0.14806045899284553 0.0075790369887964925 0.0122157499948119 -0.025213647665557115
0.05583440379239594 0.04399438970442212 -0.100821993813433 -0.007450590702436644 -0.07416522905665326 -0.15033270613753996 -0.05191538935547768 -0.08789366221100177
-0.08998503806952592 0.06901599078181572 -0.05020304811291985 -0.15359223619988296 0.014500979062259353 -0.09684765712187207 -0.15693222789563366 0.0650091887776332
-0.11396179941153432 -0.06583270367777833 -0.04161919305879411 -0.09481656019720766 0.02459582261642381 -0.11905600315507332 -0.16509144359982783 -0.07814535576887144
0.04514701008149199 0.06724736018361942 0.01245902130115987 -0.028774754923944906 -0.12169838396294666 0.08552926883616253 0.06911842748941281 0.10369022253747402
-0.11431658974279034 -0.10991544731200854 -0.02307039805597702 0.14106185260807638 6.629756156232944e-05 -0.03436225731453108 0.11192294259297718 -0.09940904888430446
-0.05196167382981544 -0.06254731707755196 -0.1560592080441306 -0.053801791907337894 0.054300305179621006 -0.024027544145749532 -0.10138960911726612 -0.1300450578695301
00000000: cfdb ba94 129d a1bf f8aa 2330 bc54 cdbf
00000010: 6e2d fe22 f08e a8bf 2af2 4afc eff5 b0bf
00000020: e172 104d a2b2 a83f ce8f be39 db70 89bf
00000030: 202e eed3 5e50 a5bf 5b9a 2b5f f1ad 943f
00000040: 4cc7 529b cddd a13f 0c91 efdd cbec c1bf
00000050: d4e8 fcdb 4948 b7bf ee56 8222 161d b53f
00000060: b1c4 0e32 7790 c2bf 5e35 b531 6f29 bcbf
00000070: 991f fb32 b735 a73f c301 9315 349f b0bf
00000080: b1d2 056d 02ce 8b3f 3af4 5556 fa5c b8bf
00000090: da17 e096 49c1 98bf 9962 dd51 e8e4 953f
000000a0: 7733 21fd 3b8d c1bf aa0d 5353 22f5 9a3f
000000b0: 6249 cf11 8dcf 813f b4ad c6db f8a3 b63f
000000c0: 2092 d8e6 6dd1 55bf e22b 099d be68 b8bf
000000d0: 0d0e eba7 e2f0 a7bf 99f6 1454 7f49 a33f
000000e0: a548 918c 9c92 9f3f 73ea fd56 dae3 693f
000000f0: 9011 49a7 a914 b7bf 0b76 6fd0 a523 b5bf
00000100: aef3 969b 46c1 c0bf 387c cc0c df5e a23f
00000110: ae9c 716a e63f a33f 7626 17b9 3869 70bf
00000120: 0d40 2f55 9eef bdbf e49f de1f 25d7 753f
00000130: 65c4 d593 bea2 bebf e276 54fd 2d70 b5bf
00000140: db1e 3637 d205 b3bf 0445 5ff4 3a8c a83f
00000150: 9450 7eed cf8e a9bf dd65 8665 a751 853f
00000160: ad5b 1cdc 4f46 c03f ff5d 539f f5af a53f
00000170: 2d9d a72e d3b2 b8bf 38b6 673b 1495 ab3f
00000180: 8969 90bf 491a b03f b9e4 a156 3ee6 c1bf
00000190: 27b0 ebd1 78fe a53f 1fca 4eac 0dec aabf
000001a0: df85 c516 0ec1 a7bf fe42 7f52 780f c4bf
000001b0: 067d 7c8f a0cd b4bf ab57 5f83 0585 b0bf
000001c0: 2108 68c5 c0c8 bcbf f2dd 1446 189d bfbf
000001d0: 1c9c 7110 c3ad b13f 1c80 91eb 0f2b cd3f
000001e0: d641 1a1a 0f13 a7bf ad6a eed3 c3a7 bfbf
000001f0: d8db 6445 a75a abbf e9cf bf40 4b0c a63f
00000200: b2ee 4a22 c433 c2bf bfa8 10cf d15c 923f
00000210: 9d6e 64a6 01ff bcbf cf79 0651 5e82 c0bf
00000220: 9f84 a00c f125 a7bf 8eda e7c1 b8aa b8bf
00000230: beb2 9e48 a948 98bf c4c7 896e 6b2f a8bf
00000240: 8be6 ab62 8a83 c6bf 5f86 ff86 8495 783f
00000250: 8ba0 72da 2dde bdbf 9017 e805 d708 a93f
00000260: f697 092a 31d5 b3bf a5b5 82b1 3abe c5bf
00000270: 63c3 b791 10df c5bf cabf 8529 ac6c a53f
00000280: 5721 1b4d dc1d a4bf 7740 9607 de86 823f
00000290: c4b3 7d62 0c39 babf 1835 b317 b73e ae3f
000002a0: 5fdf 5cfd 3a89 6f3f 02e0 ca9a 820e 90bf
000002b0: 3d25 f797 11c7 ae3f bfa7 9fc4 1a00 883f
000002c0: 3f83 b39e 414f b33f ec36 5f9f f0e1 a2bf
000002d0: 6050 1958 8243 95bf 441c 0e2c 126e 533f
000002e0: 7888 e84d 3723 c5bf 706f 2b89 f434 61bf
000002f0: cd1d 1300 d9a0 bdbf c544 e721 cb30 c0bf
00000300: 960b cb18 2edc c0bf b093 f14b 7a37 abbf
00000310: ee0f 811a b194 96bf 360b 0aea edc0 753f
00000320: 1ec5 770e 2b09 933f 30c8 ab21 7180 bcbf
00000330: c776 6fba d07b b2bf f449 eb7d 2b09 acbf
00000340: 8ce0 84c2 0731 c3bf 4214 70fd 9db2 b5bf
00000350: 014a 0ba4 bace b8bf e3d2 f7a9 5d8e 7a3f
00000360: ca94 7375 58ac b1bf a4ff 5e6b 64e2 c3bf
00000370: 26a2 a361 da08 a93f a77c f405 97af af3f
00000380: 24ed 685a 9152 b0bf 2f7a aa8a f6f4 c6bf
00000390: 945f 26dd 3e1b adbf 0b3e a300 4548 b1bf
000003a0: c89c c3b3 2954 adbf 95ff f869 00d8 b0bf
000003b0: 9907 604d 3584 aabf e911 668d 2045 ac3f
000003c0: 04be 6d01 502a 9ebf 6123 020a 9c34 c4bf
000003d0: 7bc5 6133 4e45 c1bf fb9f 1479 9c08 a5bf
000003e0: 7a33 e455 291a c6bf 8fbc 9fb3 da74 8bbf
000003f0: d828 003f b37e b8bf 2e60 4581 7201 953f
00000400: 1332 6961 7a4e a6bf fc44 dbcb 4645 e0bf
00000410: de9c aa79 b780 b53f 4152 b483 8808 91bf
00000420: bf26 a44c 3f1f a5bf 9575 5be5 3a7a b3bf
00000430: 50e4 a0f7 4288 dcbf 7e52 b813 3060 bfbf
00000440: 60fa 037f 1dc9 ad3f 63b5 d3c6 18e5 b4bf
00000450: 2732 2342 3836 adbf 4255 6d73 cf61 a0bf
00000460: 63d0 cc8c 525b 95bf c896 6c59 1b79 b3bf
00000470: 58a3 6a61 b1da a2bf fa8a a69f e4aa c2bf
00000480: 5a74 d2c3 32bf b13f 4c71 5409 b0bb c2bf
00000490: 9a4a f93f 6710 b23f edf2 f473 f499 91bf
000004a0: 11f0 da0d 1a47 91bf 4e97 8da2 8f6b bcbf
000004b0: b15d 6681 1eea 8dbf ec12 9829 3f21 a53f
000004c0: 47cc 544d 5d0f a33e 44e0 e839 1ad9 c2bf
000004d0: 201f fcea c06a c2bf f9c0 1702 1088 b23f
000004e0: 8c09 7c51 964f c2bf a7e3 e4ac 75ff b5bf
000004f0: d0f3 71f1 ca91 c0bf 75ec 12c0 a9c5 963f
00000500: 83eb c129 1d1c b3bf 71ec 7da2 09b7 993f
00000510: 226b e84f 52d7 c1bf 9ce6 2c10 dac1 a4bf
00000520: 21cb fe77 6338 b4bf 8223 405a 5d98 b73f
00000530: a3e7 b7ee 76d9 b2bf 8cbe 506c da96 c4bf
00000540: 2876 42a3 48ae babf 85f7 dd12 a174 9f3f
00000550: 125a effd 435a 9cbf bc4e 083f 2e97 a9bf
00000560: b9b4 9fdc a660 9ebf fae6 6d58 5e10 bfbf
00000570: 8696 8d6f 93b4 993f aa45 236f 636d a93f
00000580: 43fa bbf3 415a e0bf 448a f201 7840 c4bf
00000590: f251 8ea1 96bf b4bf 8cae 6cb9 95b6 c4bf
000005a0: 36ba df9d 99ab c3bf 5b1d 91cc b4d9 b3bf
000005b0: 36cc ce2f 890f 6a3f 8d6e 6e80 fd25 8fbf
000005c0: eea2 169f e97d 9bbf 2c17 bbfa 9f18 ab3f
000005d0: 9e26 2282 9a0f a7bf 530c 6b1b 2d86 d7bf
000005e0: 3794 4ecb ce12 b63f 4365 fd15 5849 83bf
000005f0: 7c99 3d9f 3f26 c1bf 6057 747b 8179 b23f
00000600: b56e 265a 6896 a43f d7d3 70cf 57b9 c3bf
00000610: 22b8 d161 fba6 a6bf fe91 3b04 08b3 b43f
00000620: 5d7b 89b2 1bdb b7bf d721 1248 2f00 c0bf
00000630: 067e 8868 6700 a5bf df18 b0f0 022e a23f
00000640: 835b 6499 3703 a83f 99d0 f832 0afd c73f
00000650: 53b0 1aa1 6a23 a93f 899e 240d c9df b6bf
00000660: 1e3e 9a26 a5f3 c2bf 176b 0840 320b 7f3f
00000670: 0167 ca35 9204 893f 80b5 8b40 9bd1 99bf
00000680: 055c 8fb4 5396 ac3f 7bd7 f9c1 6e86 a63f
00000690: f56d 255e 78cf b9bf c10f 72b6 8284 7ebf
000006a0: f275 4c11 7efc b2bf faa0 3024 1a3e c3bf
000006b0: 70bb e166 a794 aabf fdcf b8f4 3280 b6bf
000006c0: 4d4f a36b 4209 b7bf 6e16 4f2f 08ab b13f
000006d0: 1de8 9bc3 36b4 a9bf d1f1 b20f e9a8 c3bf
000006e0: 4bb9 a876 b0b2 8d3f 8a5c 0810 02cb b8bf
000006f0: 6c05 40f1 5a16 c4bf f24a bd33 71a4 b03f
00000700: 1342 77b9 992c bdbf 2ca6 4d7d 69da b0bf
00000710: bc98 2562 1c4f a5bf 8a8d 2ae9 e545 b8bf
00000720: 46e5 05b7 a52f 993f 0d8a f147 747a bebf
00000730: 0f2b 8e67 b721 c5bf 0491 5c83 5501 b4bf
00000740: 6bd7 9f47 821d a73f 5f21 bb7c 1f37 b13f
00000750: 55ac 3a88 1d84 893f e820 651d 2177 9dbf
00000760: e2ce 1813 a027 bfbf 498a 8004 3fe5 b53f
00000770: a333 9ec9 beb1 b13f 3da2 b642 718b ba3f
00000780: 87e5 551e da43 bdbf f1c0 8733 6b23 bcbf
00000790: c8de 9f34 c49f 97bf 251a d595 500e c23f
000007a0: 7beb 526f 2761 113f 69ea c306 ee97 a1bf
000007b0: 57e2 1b62 fba6 bc3f 1072 e215 df72 b9bf
000007c0: 022c 7d73 b89a aabf f4f5 4cd9 1903 b0bf
000007d0: 8a04 6585 bff9 c3bf fd9a 6a91 e88b abbf
000007e0: ac8e d1e5 3fcd ab3f 6f9c 3c31 ad9a 98bf
000007f0: ff18 505f abf4 b9bf f32c 4703 51a5 c0bf

transform_generator.6.bias f8 [64]
-0.05825406468993186 -0.02710041788996748 0.1218420140677521 -0.026654164032299137 0.12312474027731768 -0.025165958881953717 -0.08889129930106365 -0.009581624526897327
-0.015893273312681627 -0.010957230630511714 -0.12048189888291515 -0.16238981897797647 0.10476121771977177 -0.00031576724205141916 0.17426273031398312 0.01736244719994718
-0.16310957703419376 -0.07615794513489553 0.09986822814765428 -0.032548058012378686 0.01851749738332715 -0.04656042538196715 0.1046717998248171 -0.003271583889527534
0.2869868723633788 -0.06650731058664205 -0.05933771971158316 -0.020704401760433915 -0.10594476850819164 -0.1569307783307053 0.05926774034448871 -0.021348425972423566
-0.13527170724319365 0.13645714412279478 0.029839457974759367 -0.011668282831423356 -0.14128946327192515 -0.053242258956954266 0.005764954736379723 -0.04237042006055423
0.03469787717401389 -0.07155186545745412 -0.07915873125576882 -0.14944834327852044 -0.009861420590515113 0.05376916295628901 0.12959512045010893 0.112904136959727
-0.1244640588489119 0.0028319520359515217 -0.1554524164152342 -0.2383264755211697 -0.055451342592575725 -0.10476851833841733 -0.12444297583358971 0.029818791419842373
-0.13750547457424755 0.09195378150003489 -0.0541509835668809 -0.024532843514237533 0.22733753912012306 -0.012385338802995872 -0.10079713378963347 0.07504582792044798
00000000: 3d97 670d 7ad3 adbf 916e 2e42 36c0 9bbf
00000010: f123 b3c9 0931 bf3f 9ea5 48ab 3a4b 9bbf
00000020: 90cf d15c 1a85 bf3f ff5c 7be9 1ac5 99bf
00000030: d8a2 6587 94c1 b6bf 6775 e2df 879f 83bf
00000040: 9bdc 6a84 5346 90bf 92c4 b399 be70 86bf
00000050: 274c 76d7 e6d7 bebf c95c db88 30c9 c4bf
00000060: b9dc fe93 a1d1 ba3f 4a69 4efa b1b1 34bf
00000070: dd1b cebb 3d4e c63f 82f4 9b1b 76c7 913f
00000080: 525c 834d c6e0 c4bf 2358 af4b 167f b3bf
00000090: 78bb cdd5 f690 b93f be46 6c99 23aa a0bf
000000a0: 921e a936 40f6 923f e156 9ba0 c4d6 a7bf
000000b0: d7a0 0f65 c5cb ba3f 0af7 f839 02cd 6abf
000000c0: 83a6 cb2f fe5d d23f 701f ea83 9f06 b1bf
000000d0: 9b32 297b 8361 aebf cef8 c6e1 8833 95bf
000000e0: 15cb ec43 321f bbbf 3246 55c8 4e16 c4bf
000000f0: 558c f95c 5758 ae3f 5994 7d9d 5cdc 95bf
00000100: 4e80 5753 9550 c1bf 250f a87d 6d77 c13f
00000110: f71f 8720 3c8e 9e3f e4a1 4a69 8ae5 87bf
00000120: 1cdb 02ec c515 c2bf d676 f8c1 9142 abbf
00000130: 7f07 e440 fe9c 773f 6daa f460 93b1 a5bf
00000140: 86f1 678f ebc3 a13f e488 1b1a 3951 b2bf
00000150: 9bb6 ef21 bf43 b4bf d54b 6991 1f21 c3bf
00000160: cd49 6d77 3932 84bf d571 dcb8 a187 ab3f
00000170: 89f6 06aa 9296 c03f df3b d317 49e7 bc3f
00000180: 3293 4866 e0dc bfbf c8a4 1aac 0833 673f
00000190: 9f36 4b62 dde5 c3bf fc32 1161 7b81 cebf
000001a0: b8a7 e84d 1e64 acbf f4f3 e90f 1cd2 babf
000001b0: 6414 6caf 7edb bfbf 2a60 d137 d188 9e3f
000001c0: 049f 2886 c799 c1bf 1243 4974 488a b73f
000001d0: d695 ee7e adb9 abbf b640 4942 231f 99bf
000001e0: 3e47 d67f 6519 cd3f c7b6 de08 7c5d 89bf
000001f0: f531 2849 d7cd b9bf fe9b 9e10 3436 b33f

transform_generator.8.weight f8 [3, 64]
-0.011768925802395542 -0.05420124276413707 0.016816350841338024 -0.02416145254764576 0.11973889494776277 -0.007226030154640858 -0.08149285683398154 -0.030568289924582125
-0.02354770023681172 0.01767711532816693 -0.028291863442823324 -0.008130463403646726 0.00742872789760441 -0.035303159421668964 0.04202421073577095 -0.019619213617085914
0.07884557467938633 -0.00758845562534769 -0.04171451163504364 0.017966276191030785 -0.06504414218142329 0.05000655807934884 0.08815704869789555 0.005119898340943761
0.05115793345016663 -0.04945089865312722 0.035482044019997765 0.045532325297690766 -0.020023674047750673 -0.01576170428188895 0.014372790979386332 0.015786132436722163
-0.08667089918872797 0.051648878723010716 0.0027510984724398906 -0.0056209264589219205 0.02072503959894349 -0.049440232662734375 0.00204450929925704 0.037780061594286395
-0.020083491181874077 -0.03725580966035026 -0.04110247141366533 -0.013164047021390091 0.016379208692498225 0.023867550490478437 0.008489372692169702 0.06480664691246828
-0.0014080161526140102 0.04565255530019717 0.03320642077503038 0.06954077262260133 0.04930707670361315 0.058667290756377034 0.015953623675129786 -0.03836426416515321
-0.07024335588758308 0.05828688196702762 0.040131468129330695 0.07130308447862757 0.08033121146028767 0.001087316040965491 0.06732353609793253 -0.042649738054770785
-0.24508184717424233 -0.045493819438793485 -0.07408398275184978 -0.019569409956745887 -0.2505383859825544 0.06734484616225676 1.0126135675160264 -0.2065178897734507
-0.24639000307099612 -0.6920622456878424 -0.19072341796186804 -0.07973328441366274 -0.15141828877713437 -0.8008407213657908 -0.2482879975790935 -0.15947510751105026
-0.011815661638659554 0.048052261651159195 0.1295360454637371 0.16164999039267094 -0.02324095383373707 -0.04024691535839382 -0.33922584726057986 -0.5499980858427752
-0.33784451784370023 0.5045737742135659 -0.05540966619268945 -0.03645813891815695 0.0498309924295375 0.01738413822696603 -0.31203318786708534 -0.36447533525859627
-0.1841064790825505 -0.018851916771313516 -0.1384655441694896 -0.04745840930550197 0.025969973782321146 0.6460860970567815 -0.8094514879488287 -0.062477505721667485
-0.09448893014048565 -0.020412107252047767 -0.10712273102303799 0.024974704409016547 -0.1731390030061264 0.08837096657405834 -0.28134960870742276 -0.22029460595730466
-0.11669376661055683 -0.06625791994763071 -0.04085832246348599 -0.21063831717278625 0.035855883689327836 -0.04461006063025221 -0.14622574318695028 -0.21781392167981217
0.015713353734375168 -0.04974405826070776 -0.12837226679422928 -0.20113449171915299 -0.1288929902891216 -0.3540537046336119 -0.08521310370780223 -0.4449649505864805
0.061925212002016054 0.10886593572236632 0.012016808266803956 -0.11496505548903281 0.10150446398701486 0.05658940228017078 0.0028467304606066553 0.04690540059168218
-0.03850736562708645 -0.06908438946068989 -0.10444369602479404 -0.07188692122191463 0.0705342934035688 0.04756716605209737 -0.02921078860369444 0.00894197664321719
-0.09530596716559116 -0.1164972000773604 -0.08472514049183265 0.059783330859781984 0.05299807385089216 -0.06671042838026463 -0.11848576036552848 -0.06880164130264226
0.07687681878677709 0.021411747075199352 0.07589993754251702 0.07364009373152154 0.06707519146428952 0.0312881029410589 0.10698104852673022 0.057141362194803334
-0.06652925553134077 -0.10050733451329273 -0.041620453678928464 0.06503920835740261 0.12483222146470753 -0.05587078298608666 -0.05176575249616774 -0.030570032461739807
0.038773984793192516 -0.0988737927101787 0.05423148203211294 0.10821391370584608 0.08354197079199983 0.03480274466961116 -0.07062614130169458 0.014875726274102634
0.07062385488886654 0.12335608002695415 -0.03796811753974549 -0.10952052359454285 0.0071075475804305 -0.006070796580154385 0.07545259476717738 0.029696213555083225
-0.05781167238380188 -0.08921814221806611 -0.058107637164858277 0.07160694071112413 -0.08853877222057831 0.12126272974906165 -0.09074224387329692 0.005872530716035467
00000000: ca55 717b 4e1a 88bf 3028 26ea 43c0 abbf
00000010: 5d3f 9b33 4e38 913f d760 10a2 c7bd 98bf
00000020: 361d dc4d 35a7 be3f 8900 1bb3 0a99 7dbf
00000030: c7a5 f542 b7dc b4bf 5639 1536 4b4d 9fbf
00000040: 5a08 a769 e31c 98bf 786d e320 f319 923f
00000050: 0557 ebd0 8af8 9cbf 6d22 5c53 b4a6 80bf
00000060: 0700 f0f5 956d 7e3f b2b5 5276 4113 a2bf
00000070: a82d 8085 3284 a53f 923a 6f23 0f17 94bf
00000080: 8eaa ae3c 392f b43f 67e9 ce8b 1215 7fbf
00000090: 9874 7bbe 9a5b a5bf 6a7e af62 c065 923f
000000a0: b830 779f bba6 b0bf 9099 12a7 759a a93f
000000b0: 51c0 11d9 7591 b63f 2561 ee3e 9af8 743f
000000c0: e2e5 3266 5f31 aa3f fd2b f2d0 a051 a9bf
000000d0: af7e 52d5 b32a a23f 0bfb 2050 0350 a73f
000000e0: 8d31 b904 1681 94bf c203 ae11 d623 90bf
000000f0: 286f ab59 7b6f 8d3f cf26 2f6a 3d2a 903f
00000100: d2ce 8765 1030 b6bf e015 fbc9 b871 aa3f
00000110: aa57 f3be 7889 663f b955 07f5 f705 77bf
00000120: 2ba0 24dd f138 953f 2541 c9ec 3a50 a9bf
00000130: 0a23 7492 a5bf 603f d305 fa81 e857 a33f
00000140: af3a 4347 c490 94bf 7287 2788 3113 a3bf
00000150: b54f 0315 620b a5bf 0dde 847b c0f5 8abf
00000160: a6af ac16 b6c5 903f 4c3f 2b33 bc70 983f
00000170: 5e84 9c50 e062 813f b76e 0d1d 2b97 b03f
00000180: 6250 f9d4 a511 57bf de81 fc8f c55f a73f
00000190: d7ef 7d96 6e00 a13f bc13 2790 6ccd b13f
000001a0: 1588 cef3 c63e a93f 0581 499e a309 ae3f
000001b0: e8de bf8f 2556 903f e94f d917 7ba4 a3bf
000001c0: c567 4cf4 77fb b1bf b61b ab37 c7d7 ad3f
000001d0: 95d7 4f9e 1c8c a43f a28b f03f eb40 b23f
000001e0: 41eb 1116 9690 b43f 98f8 86b5 88d0 513f
000001f0: 91ac ca81 1d3c b13f 5fa4 41bc 2fd6 a5bf
00000200: 3573 3a8b d75e cfbf 5fca 5145 f74a a7bf
00000210: 8f9d 13fb 2af7 b2bf 50a1 10df 000a 94bf
00000220: 3603 8c27 d208 d0bf ef2f d207 833d b13f
00000230: bd79 bf48 aa33 f03f eed5 4e9f 2d6f cabf
00000240: 8c29 a026 b589 cfbf b7d1 00b9 5f25 e6bf
00000250: c220 5dfd 9f69 c8bf d597 f588 6669 b4bf
00000260: a433 28ab ac61 c3bf 9d46 72b8 7ca0 e9bf
00000270: 61b7 cbae e6c7 cfbf 1e9d a429 ae69 c4bf
00000280: 8495 8c42 cf32 88bf c4c4 9458 4e9a a83f
00000290: f0bf 751b a394 c03f 694f 1167 f2b0 c43f
000002a0: 4b32 9302 7acc 97bf 4a57 7562 3e9b a4bf
000002b0: 114b fc53 e0b5 d5bf 91d5 f195 9599 e1bf
000002c0: 9561 d19c 3e9f d5bf 6854 55e6 7725 e03f
000002d0: f918 5ce0 a75e acbf 2d2c a724 a4aa a2bf
000002e0: e3c9 9fa5 7283 a93f 5aa8 9dc4 25cd 913f
000002f0: e6f7 490c 5af8 d3bf 7b98 485b 9053 d7bf
00000300: e414 5215 cd90 c7bf cab2 ffb7 ea4d 93bf
00000310: b357 ea2b 3db9 c1bf e54d c6f7 774c a8bf
00000320: c4cc 4a70 df97 9a3f 074b 28c0 bcac e43f
00000330: 4d0a 8ece 06e7 e9bf 77d4 9e37 0dfd afbf
00000340: 0094 c930 6d30 b8bf 3b26 5c54 e9e6 94bf
00000350: 7cf3 6632 656c bbbf cded a70a f892 993f
00000360: d063 c939 6b29 c6bf 3bfb 59cb 7a9f b63f
00000370: 8002 09ca a101 d2bf bc31 0918 9d32 ccbf
00000380: 3649 3d87 a4df bdbf ddab 466f 47f6 b0bf
00000390: 620c 80cd 61eb a4bf e452 c545 32f6 cabf
000003a0: 1633 a1cf b35b a23f 6382 f53e 21d7 a6bf
000003b0: 991e 6970 86b7 c2bf e438 1d9b 53e1 cbbf
000003c0: 3336 9951 2917 903f 77d4 cc9e 0d78 a9bf
000003d0: e71b cc9f 806e c0bf 1c03 0468 c6be c9bf
000003e0: a8da fcc4 907f c0bf d974 9bde d0a8 d6bf
000003f0: 599c 9da5 86d0 b5bf f3a6 a845 4e7a dcbf
00000400: cf6b b150 a9b4 af3f d574 9351 a3de bb3f
00000410: 7fd8 10b4 449c 883f c91a 8291 596e bdbf
00000420: a1e4 3851 32fc b93f 07e2 2f40 49f9 ac3f
00000430: bf98 52c7 0652 673f 7717 1813 fc03 a83f
00000440: bf01 0cc8 3cb7 a3bf 93d5 65b9 83af b1bf
00000450: bd29 b372 d2bc babf 2f83 a867 2e67 b2bf
00000460: 1b30 6a13 890e b23f 0744 1d3d b95a a83f
00000470: 2713 f9d6 6ee9 9dbf 4f26 f4c9 2b50 823f
00000480: 5101 17cc f865 b8bf a767 68b0 c2d2 bdbf
00000490: a7b9 8ffb 8bb0 b5bf 2705 c7b5 eb9b ae3f
000004a0: ff92 e143 9022 ab3f df04 3244 ef13 b1bf
000004b0: 7fc7 cf31 1555 bebf 2354 4eff fb9c b1bf
000004c0: 677d 82fe 32ae b33f c7b8 c005 f6ec 953f
000004d0: 3978 83a5 2d6e b33f 8d52 40c2 13da b23f
000004e0: af49 b6f9 d62b b13f 537e c585 fe04 a03f
000004f0: f3ce b628 1c63 bb3f db4a c0f3 a141 ad3f
00000500: 6dfd bbb0 0f08 b1bf 2f23 be42 d9ba b9bf
00000510: a796 caae 464f a5bf 674f dad8 68a6 b03f
00000520: 018e ad24 01f5 bf3f b74d 7463 189b acbf
00000530: cb38 0c6c 0a81 aabf d7b0 a426 c04d 9fbf
00000540: 63a6 3e09 2fda a33f c727 1ffa ca4f b9bf
00000550: b3aa 7b93 3ac4 ab3f f7b9 5634 e8b3 bb3f
00000560: 7520 65b0 0163 b53f 6b83 5554 aad1 a13f
00000570: fb29 2207 8e14 b2bf 0fe9 cf2e 2a77 8e3f
00000580: 75ac 10ab 6714 b23f bd80 7a99 4394 bf3f
00000590: 9f6e 3f9e 8e70 a3bf cd50 147b 8909 bcbf
000005a0: df78 9ac6 cd1c 7d3f 5fe1 5b0c b1dd 78bf
000005b0: d161 ec7a dc50 b33f dfee 2228 af68 9e3f
000005c0: 6b55 6ed4 7d99 adbf 2756 090b 00d7 b6bf
000005d0: 77b3 8ac2 48c0 adbf fd58 851c d554 b23f
000005e0: 5b89 1d1b 7aaa b6bf b3f3 7e02 130b bf3f
000005f0: eb2c cd39 e23a b7bf 1f0b ec75 cb0d 783f

transform_generator.8.bias f8 [3]
-0.02927798051935824 -0.29322054671166664 -0.09630149047069017
00000000: 9a55 4b03 0cfb 9dbf 0c14 a91c 20c4 d2bf
00000010: faae 20e8 36a7 b8bf
