models/GFDL-ESM4-livneh/QM_SST_layers3/2000/1980_1990/livneh_bci/model_200.pth (torch, 40412 bytes, 6 tensors)

transform_generator.0.weight f8 [64, 3]
0	0xbfeec931babf5735	-0.9620598456774362
1	0xbffbdcda5c96e2a5	-1.7414191834233546
2	0xbfb192218530d1af	-0.06863603116727889
3	0xc007090dea04de2a	-2.8794210703597587
4	0x3fd66184fab8ec6f	0.3497021149120831
5	0x3fd8500fe7aebd5e	0.37988660454990064
6	0x3fe3ddfb9f1e1032	0.6208475215685267
7	0x3fe29ebe42243a9c	0.5818778316332387
8	0xbfe1f3941681fa43	-0.5609836997608187
9	0xbfe8c8b2a45cc810	-0.7744992456630388
10	0xbff230aff1c84348	-1.1368865437145406
11	0x3fc699fc60d18e14	0.1765742752787537
12	0x3fded7b5c005ce47	0.481915891191623
13	0x3fe0569524509b88	0.5105691632532947
14	0xbfcb5cbfd1d3355e	-0.2137679838691992
15	0x3fb53a81f5c42512	0.08292400598670138
16	0xbfe0fb18d0c5914a	-0.5306514813969809
17	0x3fd3279009346a6e	0.29928971194173115
18	0x3fbdab43b5c6524e	0.11589453876360631
19	0xbfc16d8ad0249017	-0.1361554638216382
20	0xbfdc8666f9876b4d	-0.4457032620245414
21	0x3fd32ba468a53948	0.29953870982435093
22	0xbfc289edd300fec9	-0.14483425906109051
23	0xbfd6af957acc2115	-0.35446679107600804
24	0xbfe2976e71f96297	-0.5809852815683197
25	0xbfdf009b2c54eb50	-0.48441199616688824
26	0x3fe19f45f917adc3	0.5506925454223438
27	0xbfffb6c271a8f0dc	-1.9821190299835996
28	0xbff80611e56b555a	-1.5014819108667639
29	0x3fd8fc42eb9d2da1	0.39039681443383684
30	0xbfd683035370d689	-0.35174639843476335
31	0xbfb0f5d93de03767	-0.06625135193482166
32	0xbfb4b807b0101175	-0.08093307541282065
33	0xbfe5e92b8d3b21f7	-0.6847131498735156
34	0xbff0664a3cdd4436	-1.0249731423866826
35	0x3fcfad0a233e236b	0.24746824951969457
36	0x3fe02117aeef066f	0.5040396134065314
37	0xbfd8e3239a99a79f	-0.38886346910168784
38	0xbfd159ad5920136f	-0.2710984583248352
39	0x3f99d527ef06fc9d	0.02522718807608425
40	0x3fe2fa9c8e64f855	0.5930922299519447
41	0xbfe0c3a464eac4fa	-0.5238821002041327
42	0xbf926c8779891df7	-0.017992131035752448
43	0xbf561021ca819c62	-0.0013466196051241876
44	0x3fe8fe501cfaef58	0.7810440603275124
45	0x3fd8b4f9f95fad25	0.3860459265985859
46	0xbfc664d18f5c4ec5	-0.17495173931148691
47	0xbfdaf09f6cdaef03	-0.42093644743339115
48	0x3fcfe5e531fb0540	0.24920334759193885
49	0x3fc0ff2079ea6ef8	0.1327858538905884
50	0x3fcc92228fb0bb64	0.22320968643313244
51	0x3f8755d54c8bde46	0.011394182585248502
52	0xbfe39f573e441498	-0.6132007804996134
53	0x3facae8049292d65	0.0560188378627469
54	0x3fb7bc9889918ee2	0.0927214942799384
55	0x3fe534cc1c2d9697	0.6626949835160357
56	0xbfd856eedcd5e6e4	-0.3803059727284632
57	0xbfcbabf4774c8496	-0.21618514847890385
58	0x3fa8ef02c488e176	0.04869850777726274
59	0xbfc605e230868d8c	-0.1720545517865556
60	0x3ff5e474401d46ca	1.3682749275653117
61	0x3fe7fb08120afbac	0.7493934967422908
62	0x3fb35c6ae2a9594f	0.07562892945984355
63	0x3fc5d5f8b909b12e	0.1705923942094016
64	0xbfc145f54b149fae	-0.13494745412867587
65	0xbfb16c078f6fde47	-0.06805464984778907
66	0x3fcab2592efca534	0.2085677604129984
67	0x3fe13b55f755dddc	0.5384931402940611
68	0x3fc230e4b9c7fab9	0.1421171099791161
69	0xbfc45f6ad4640b76	-0.15916190500874067
70	0x3fc1db7cbd45de15	0.13951071969835085
71	0x3fe6650ad4df7332	0.6998342664406663
72	0xbfa3bb0cbcf4c9ea	-0.03853645140260993
73	0xbfe5e64e9c92ac4d	-0.68436365681317
74	0x3f82e7341e458be5	0.009230048345392159
75	0xbfcfbbc49e5b9376	-0.24791772587118616
76	0x3fe8b6e4ec32ac5d	0.7723259557000223
77	0x3facb66b9eea1860	0.05607925715325801
78	0xbfd5aac88b249f62	-0.3385487898653904
79	0xbfc9f4ec10eca5b7	-0.20278693033587356
80	0x3fd271f94b470d27	0.2882064089901228
81	0xbf869c59847f8060	-0.011040400844592735
82	0x3fc6beb45328ca28	0.17769483623995197
83	0xbfd63d3372f8a2a5	-0.34748541095408775
84	0x3fdc7c7ded608313	0.4450983827719465
85	0x3fe292ee23b86d26	0.580435819403111
86	0xbfcba73c893f2e08	-0.2160411520147678
87	0x3fd5c19d18092554	0.339942239258183
88	0xbfdd5ea9049ba3fd	-0.4589026017188756
89	0xbfe0e5f009ebca3c	-0.528068560959873
90	0x3fe2ce81a98aa5aa	0.587708312164229
91	0x3fd3c697962a83cd	0.30899610199599864
92	0xbfe1d53d455059b6	-0.557280192736292
93	0x3fad97f94815e68b	0.05780009274435568
94	0x3fe268a9ee4a3149	0.5752763418291035
95	0xbfd1f39314b879e6	-0.2804916097974498
96	0x3fab9f9ad7affff0	0.05395206339744607
97	0x3fb9d943e8902710	0.1009714548855778
98	0xbfdf999101f5e28a	-0.4937479514260664
99	0x3fe06e8b3cf15358	0.5134941282545737
100	0xbfca61353ebb7db0	-0.2060915523825151
101	0xbfb52e5986b25eec	-0.08273849047179355
102	0x3fd6caa787f2bb70	0.35611904407681205
103	0xbf940786a3aa2ad2	-0.019559959162999636
104	0x3fcfd7a8f58148e9	0.2487689207797026
105	0x3fadd9214debadfc	0.05829719616107451
106	0xbfa526a3fa6c98d7	-0.04131042892395136
107	0xbfc366c2a1b94859	-0.1515734948794172
108	0x3fc891263880bed1	0.1919296050923465
109	0x3fd02d24ee8ecab4	0.252755387274344
110	0xbfc6c8f434329a74	-0.17800762699808426
111	0xbfd65d15dea3251d	-0.34943148366854065
112	0xbfe6fc3df6dd8f7d	-0.7182912656394219
113	0xbfcde108364d4ebb	-0.23342993403877252
114	0xbfc4288205131d0e	-0.15748620269571528
115	0x3fb89ad994bbe7a1	0.09611282235337494
116	0x3fe72a2dd579a229	0.7238988084255357
117	0xbfe0558a9d0a463f	-0.5104420726003766
118	0x3fdeecd64a402d0a	0.48320538760226894
119	0x3fbf414f099cfdac	0.12209028229425795
120	0x3fbdbe89cd187bc3	0.11618863351075874
121	0xbfda40951a0a93c4	-0.41019179862115274
122	0xbfca5cd5ad2f7f66	-0.20595808941197474
123	0xbfc5861f21339d65	-0.16815556641743537
124	0x3fd2cc2b9487c1ad	0.29371156220352185
125	0x3fdb259eb88bc324	0.42417114278855395
126	0xbfd0092786b8925d	-0.250558740199528
127	0x3fd25599afd431a0	0.2864746300772598
128	0xbfd1a6cb7a60be1c	-0.2758053488823593
129	0xc00215e6ea5de189	-2.260694342603703
130	0xbfc75e3802b56cb7	-0.18256282932529697
131	0x3fd4ce2639ebf607	0.3250823560373139
132	0xbf9297591a4ff315	-0.018155472022033232
133	0xbfb2f4ccf5c8e282	-0.07404786110499553
134	0xbfdf1b43b2f48e47	-0.4860390899286568
135	0x3fe11f433229e6e6	0.5350662212142339
136	0xbfb39ffd6243ea5b	-0.0766600003152375
137	0x3fd12d9ca4e32592	0.2684089288928472
138	0x3fd5e19de8063846	0.3418955579626338
139	0xbfd0384cb2960bcf	-0.25343625488329463
140	0xbfe1a4e2e517fd90	-0.5513777231680468
141	0x3fc796edda9496fe	0.18429349110481746
142	0xbfc804d2341798b5	-0.1876471285206144
143	0xbfd5427268cca3c5	-0.3321805976325403
144	0xbfc5adc2ef1e49b3	-0.16936527896593886
145	0x3faa4ac4c8f6e5d5	0.051351689845840966
146	0xbfc097427770bb19	-0.12961607772873476
147	0x3f33f2cdab9a23b3	0.0003043892025763009
148	0xbfbf452e6645dd8a	-0.12214937207124002
149	0x3fd10aeb40e1cc22	0.2662914403546798
150	0xbfd63e6138acda06	-0.3475573590725677
151	0x3fd85937581624f8	0.38044532396504804
152	0x3fdf24875750257e	0.4866045334498138
153	0xbfba200a7f42240b	-0.1020514069260942
154	0x3f5e67d20b4bc67b	0.001855807419982729
155	0x3fdbe7bd4a826e43	0.4360192515975749
156	0x3fb5e718ecc0d2ca	0.08555751590831587
157	0x3fd89e2147705ab9	0.384651489033256
158	0x3fcae17330308b11	0.21000518658646475
159	0xbfe2b3e6e99ba54a	-0.5844606936126777
160	0xbfe5c9f4a6d5e576	-0.680902791834497
161	0x3fcc898f34b02a67	0.22294797966636112
162	0x3fb229ba2a5b9212	0.07094920667766072
163	0xbfd15b0f3320ca08	-0.2711828231141742
164	0x3fd8f50e8f54afb0	0.3899570846285725
165	0x3fc781b7365bc79d	0.18364610819076868
166	0x3fdf1a1e73444abe	0.48596917397041384
167	0x3fe39b8f978165fe	0.6127393683520379
168	0x3fbed8e8b6e0436a	0.12049726929423135
169	0xbfda40caf946703a	-0.41020464270855295
170	0x3fc57db5d87f2b6f	0.16789887496119202
171	0x3fe40de0aa20081e	0.6266940424686742
172	0x3fd81ffeb13f4c20	0.37695281323721197
173	0x3fd5ec05f3218337	0.3425307154011991
174	0x3fc27da49c5b9450	0.144459320398854
175	0xbfdb9657456ed8c9	-0.43105108051839786
176	0xbff056194bca2177	-1.0210202179460717
177	0xbfce4f64e78a1b0c	-0.23679791741980016
178	0x3ff00d03f53b80f1	1.0031776027099648
179	0x3fa80c16877c2b60	0.0469672241580017
180	0xbfe684be7852db7a	-0.7037041044303429
181	0xbfea288521864de1	-0.8174462942865227
182	0x3fc3e08f1bb95c5c	0.1552904973384298
183	0x3fdc0f185a1c95c6	0.43842133331267197
184	0xbfdddc48961f3250	-0.46657004032457383
185	0x3fbcda09aa73ef8f	0.11270199214408037
186	0x3fcd3f4c817b9269	0.22849422762296293
187	0xbfe29f7a7069b945	-0.5819675632062987
188	0x3fd198891032a210	0.2749350221807001
189	0x3ff35cec696ba5f7	1.2101863973606422
190	0x3fe3116cdd61c03c	0.5958771060813954
191	0x3fabc380a73c0933	0.0542259410995193

transform_generator.0.bias f8 [64]
0	0xbfe9c2f3d844088f	-0.805047914880804
1	0xbfd7ae8de73aa150	-0.3700289495559632
2	0xbfbab11c72a3df7e	-0.10426500128585123
3	0xbff2769e91a09022	-1.153959816795585
4	0x3fd81404eb035c3f	0.3762218756723463
5	0xbfd54c91de2a98fc	-0.33279844947755044
6	0x3fd0d53dc8834c19	0.26301521855674675
7	0xbfd10da83c49bccc	-0.26645856750014896
8	0x3fcff333dfb782c6	0.24960945533441342
9	0xbfe7265db4fd98bf	-0.7234333548519983
10	0xbfe99a3ea06cb20f	-0.8000786908428966
11	0xbff539440a0c9ff2	-1.3264809029151334
12	0x3fe3a884fb172f07	0.6143212226974989
13	0x3fdf27bef8d276ec	0.48680090235744333
14	0x3fd93cee89b28a18	0.39434398123754155
15	0x3fd8e5d621090ab3	0.38902810312371655
16	0xbfbbfa268e1890fe	-0.10928574532642085
17	0xbfe0789e74722901	-0.514723994668458
18	0x3fdc3ac680dd6c2b	0.44108736595598214
19	0xbfe5a5347600d12c	-0.6764166168927992
20	0xbfffb821dbf354dc	-1.9824541656319559
21	0xbfd13eec5a9e1dc0	-0.2694655308664231
22	0x3fbf2d2e3a4aed1c	0.12178315089379449
23	0x3fdfe7ed6d0787aa	0.49853072783855146
24	0xbfe289b1e829a3e3	-0.5793084654261488
25	0x3ff1cb7a9c4d518a	1.1121774774120206
26	0x3f76ef1863cb9536	0.00559911277080021
27	0xbfd79dc6f371315f	-0.36900495313309095
28	0x3fd306cc2d1cac20	0.297289890341462
29	0x3fe0f759df234402	0.5301942213210398
30	0x3fdf79114500fdb6	0.4917643712869578
31	0xbfdb5770de1a46ab	-0.42721196832381264
32	0xbfdbec409cc2371b	-0.4362947016569351
33	0x3fc95676383ca71a	0.19795110460227577
34	0x3fd1d40a0e8ed8d8	0.2785668508689816
35	0xbfe01af23fea9fa7	-0.5032893417710412
36	0x3fe268f42715c9ed	0.5753117335682966
37	0xbfd3028572d3d005	-0.2970288869248637
38	0x3fddbf1be80da08c	0.4647893682617983
39	0xbfc8afc3e92467b2	-0.19286393054863776
40	0xbfaa9b01539c50de	-0.051963845688222085
41	0x3fc53b1d14a2965f	0.16586650378774245
42	0x3fd9342e10021090	0.3938098102883112
43	0xbff10ee97b7f2d24	-1.0661406349270885
44	0xbfe1ab74a17dd90c	-0.5521796373493841
45	0x3fd9c3ba68beba8b	0.40257129887587756
46	0x3fe29fa737ad59d7	0.5819889151996972
47	0x3fd050189a7bd2f8	0.25488867842004437
48	0xbfe049c9d58b957b	-0.5090073748403222
49	0x3fc10da229bda40d	0.13322855985759965
50	0x3fca285584af35b6	0.20435589770060653
51	0xbfd317a4bae036f6	-0.29831808328240983
52	0x3fcad7c112f27e40	0.20970929551275397
53	0xbfe269fb10e72c62	-0.575437100423539
54	0x3fe2a9cf79c60aa6	0.5832288149252534
55	0x3fc7110f7cd281f1	0.18020814509237895
56	0x3f9dca60adbcc900	0.029092321971980972
57	0x3fe395ae6cf4bdcb	0.6120216491744314
58	0xbff17fb85cae52f4	-1.0936816807126748
59	0x3ff7188662992824	1.4434875346655724
60	0xbff7e2f7c21af173	-1.4929120619045448
61	0xbfda2fb584829ff8	-0.40916192951635777
62	0xbfdca3bc24352b86	-0.44749358688266516
63	0xbfff4dee1ca1c5b9	-1.9565259092745306

transform_generator.3.weight f8 [64, 64]
0	0xbfc2d6ccf5bda2c2	-0.1471801948457792
1	0xbf7fb8c23d4d57bf	-0.007744559047599907
2	0xbfb070bc0c8861ae	-0.0642201929662238
3	0xbfc6aa28f01abcbb	-0.17706786846017572
4	0xbfaa9342c3121512	-0.051904760658581975
5	0xbfa2f8b176f157a9	-0.037053628701570425
6	0x3fa36e26166acdf3	0.03794974349639437
7	0xbfaa3ea8684e59c6	-0.051259291393921866
8	0x3f7357f2031218c2	0.004722543105463996
9	0xbfc795733fcd5009	-0.18424835791904595
10	0x3f83c05abbaca76c	0.009644230701798505
11	0x3fa4a6c5bb5a7a4e	0.040334872360507576
12	0xbfc01338d192fd05	-0.12558660729516916
13	0xbfbdb404241fa707	-0.11602807886052001
14	0xbfa6927b0d3fbd10	-0.044086308829600296
15	0xbfc4188324366bd1	-0.156998055154729
16	0x3f787678724f9965	0.0059723572676147795
17	0xbfbb849b9ddae5f3	-0.10749218562968803
18	0xbfc059e61e1407a6	-0.12774349659599443
19	0xbfc2c6389cd1cb50	-0.14667422921373907
20	0x3f9cde8516b2cab2	0.028192595968628616
21	0xbfc3a6e658f4bab5	-0.1535308775287
22	0xbf9caf2a023de621	-0.028011948000744028
23	0x3fb1eb4225289235	0.06999600798787571
24	0xbf992ad39ec76545	-0.024577433172315883
25	0xbfc05da75c11282a	-0.12785808558902662
26	0xbfb39748d79f053d	-0.07652716888607798
27	0xbfb0f9d1cd09e871	-0.06631194358661376
28	0xbfbb88f3698c1259	-0.10755845381579245
29	0xbfa131118443069f	-0.033577487368814156
30	0xbfa90622eaa4b510	-0.048874941962234186
31	0x3f9374dbb83e528d	0.01900046646149405
32	0x3f98a4b5e7c6bd58	0.024065820952896416
33	0xbfc6d6a8963a661f	-0.17842585883481463
34	0xbfb1a58b2ee33a4f	-0.06893224615780834
35	0xbf66533d83bb55bf	-0.0027252389389597893
36	0xbf8d69459ac9d23a	-0.014360946451440804
37	0xbf9333e5f7cc8ba3	-0.018752663850260764
38	0xbfc0a9471d9d95f9	-0.1301659483535074
39	0xbfa8005e8999427b	-0.04687781743689797
40	0x3fa9f1ddc1b51274	0.05067341794577809
41	0xbfb1359dbc00c5b2	-0.0672243675224056
42	0xbf8efde2fd25be38	-0.01513268790287646
43	0x3fc0f73063ea028c	0.1325436103689025
44	0x3fb606d86385c7bd	0.08604195050955261
45	0xbfc15419ba4dfdbc	-0.13537904354960328
46	0xbfc0a00c538c8b0b	-0.12988428191700793
47	0xbfb22a032dcfb353	-0.07095355862084078
48	0xbfbdc199bc08cae1	-0.11623535957987087
49	0xbfa8fc95c9b32c47	-0.04880207144886888
50	0xbfb8395a62b15934	-0.09462513837329284
51	0xbf95cb17abe4cb6f	-0.021282548777161233
52	0xbfa9755c165a6f1d	-0.04972350857607764
53	0x3fa50cf9bbecdc47	0.041114620390026384
54	0xbfc741c01a2d396b	-0.18169404295117472
55	0xbf8f8301ef4b8ce9	-0.015386595835883603
56	0x3f98dac4e3ac2fd9	0.02427203788379004
57	0xbfaea07298de1a8e	-0.0598178683858822
58	0xbfc59852f5a367cc	-0.16871106142099135
59	0xbfa289dd3ef9e1d3	-0.03620807069541212
60	0x3f823f40ee5c67ff	0.008909709238242412
61	0x3fa4b26067184538	0.04042340525132676
62	0xbfb73166f63f2c54	-0.09059756767162358
63	0x3fae513fa146526d	0.05921362727818722
64	0x3ff76cae22f6a032	1.464033257079802
65	0xc00413110c9b2200	-2.509309862598684
66	0xbf73a58733fc624e	-0.00479653180789137
67	0x3fe082dda47fc554	0.5159748280404224
68	0x3fbcfc8d3d950f94	0.11322863343690265
69	0x3fa6ed8927a0c5c1	0.04478100403538177
70	0x3faaf30586529400	0.052635357519911
71	0x3fc7771987ed152b	0.18332213532463845
72	0xbfd64cc2406b45e1	-0.34843498507424725
73	0x3ffb0f30b83aadf1	1.691208572049501
74	0xbf8826431c311c97	-0.011791729257437473
75	0xbfcc088c9987ea00	-0.2190109014189403
76	0x3fb807f5557490c3	0.09387143455802786
77	0x3fc3239489258939	0.1495233220731025
78	0x3f88ae5e0bd46194	0.012051329360972564
79	0x3fb3ed7fcf4309da	0.07784270105461336
80	0x3fcd34d979a83337	0.2281753391293024
81	0x3f9d9ee90e9af77d	0.02892650748866953
82	0xbf7d1f2568f06f75	-0.0071097813916159896
83	0xbfbf1ae4b595bbb5	-0.12150411065316187
84	0x3fe2e9867d5e4e9d	0.5910065125085172
85	0x3fc40b86e422661e	0.15660177363751954
86	0x3fc3d04529da2806	0.15479340117991586
87	0xbfb2855220610fdf	-0.07234681406504205
88	0x3fb221bfac3d7de8	0.0708274646290118
89	0xbfe681f89dfbb305	-0.7033656201943762
90	0xbfd25e35e80a0887	-0.28700015697553066
91	0x3fc476cbfe34dacb	0.15987539207863785
92	0x3f9c94bbebfd5733	0.027911125448859053
93	0x3fc4fe4dfb00692b	0.1640107608407758
94	0x3fb46e1b37bfb709	0.0798050891023331
95	0x3f762e00c8bc2928	0.0054149656896334344
96	0xbfa1a7ac122298c3	-0.034482361997377996
97	0x3fc2ca664c27da4b	0.14680174559153367
98	0x3fbae8197ffb47cc	0.10510405897664937
99	0x3fa65bdbc6e9e403	0.04366957476754154
100	0x3fa585442a5b760f	0.04203236596161385
101	0x3fc1d32caed48b7a	0.13925703560479602
102	0xbfc54cb547c3d28c	-0.16640344623705905
103	0xbfc5691b1b4ea503	-0.16727007706985128
104	0x3fcc2e0ac95d5468	0.22015509445433
105	0x3f9a4cd6793724d5	0.02568373789634822
106	0x3fb58842635bbe35	0.08411040235272867
107	0xbfef33d1183d0630	-0.9750752900510573
108	0xbfb85336bf84d5e9	-0.09501974273447157
109	0x3fc4436b4b2ba930	0.15830746813237218
110	0x3fb94daee16401cf	0.09884160044385414
111	0x3f8bb25690896773	0.013523746763144584
112	0x3fbebc568c44a237	0.12006131100191274
113	0xbf901ea7dc64b864	-0.015741942240474663
114	0xbfd7ec7acc770193	-0.37380857436439746
115	0xbfd18442a67292c6	-0.27369753126758345
116	0x3fb328958b0a45bf	0.07483801502737374
117	0xbfba1724188aba64	-0.10191560362975732
118	0x3fc704b3a667ff17	0.1798309862642717
119	0x3fa3291f03b595a0	0.03742310447959629
120	0x3fb0751d7142ec8b	0.06428703322574074
121	0x3fc1da0348b5bd4b	0.13946572351731343
122	0x3fbacb31de3ebb29	0.10466300655273798
123	0xc000d16956dd4a50	-2.1022517000467715
124	0xbffc94e210ccfb18	-1.7863484054830163
125	0x3fcdaebcd706042f	0.23189507006830598
126	0x3fa249d69cdc7a0d	0.035719591758823645
127	0x3fe2378a8b367678	0.5692799300192766
128	0xbfc64bc66eff0b9c	-0.17418747348537245
129	0xbfa5ab6910470ed4	-0.04232338260365301
130	0xbfa114e70cd5548c	-0.03336259872109179
131	0xbfa4f028ab38d959	-0.04089476671326748
132	0xbfbeccf7ba5efb74	-0.12031505870889508
133	0xbfb6c3a07b6883c8	-0.08892252934357636
134	0xbfa7c8d8252ab142	-0.04645419553466691
135	0xbfc6824687911bfd	-0.17585069293474467
136	0x3fc2f9bf6659b076	0.1482466935880244
137	0xbfc49dc9dfc1c767	-0.16106532502777357
138	0x3fbdcd2fbbf6b52b	0.11641214693982664
139	0xbfc6dc3d34f195a9	-0.17859616360798938
140	0xbfc6bfbf4ff31a71	-0.1777266636256232
141	0xbfa48a0be54988ed	-0.04011571096340725
142	0x3f8331abfc636cf4	0.009372085227758543
143	0xbfbbee5667cae74d	-0.10910549196242166
144	0xbfc15c7cc0321297	-0.13563498863745302
145	0xbfb3fa97ee0cadc6	-0.07804250299221058
146	0x3f7109636778e176	0.004159344003305745
147	0x3fb47dd5b6d637e5	0.08004508699215725
148	0xbfb1d52575079bd8	-0.06965860469027463
149	0xbfc6c9506aadf4fe	-0.17801861962281146
150	0xbfc4f7342ebbd5d8	-0.16379406244202133
151	0xbfb275f969e01c19	-0.07211264452790579
152	0xbfc12c4a64991a53	-0.1341641417695479
153	0x3f91382c3ed8ceec	0.016815844856139003
154	0x3f73c7e4a58fddcb	0.004829304839396763
155	0xbf6b485d2db43aee	-0.0033304042714300463
156	0x3f9a6a73e7cd9bc8	0.02579671003641318
157	0xbfb5b9ceab657c48	-0.0848664444397268
158	0xbfc79a746dce5ea7	-0.18440108644130257
159	0xbfb4b927f6ded664	-0.08095025803671657
160	0xbfaf4e15fdaf552c	-0.061142623155016146
161	0xbfc453cad5755666	-0.1588071386601541
162	0xbfbb0a12ac3ae355	-0.10562245087466
163	0x3fb73bc7e4739c67	0.0907559330695321
164	0xbfc2c5fbb63321d6	-0.14666696926566541
165	0xbfc377f1bcb0b24e	-0.15209790910138782
166	0x3f897f3ea4514f5b	0.012449731244636266
167	0xbfa5719fc305a913	-0.04188250785485272
168	0x3fa1e1b3f04ad810	0.034925101358950994
169	0xbfb386677462f62d	-0.0762695941111466
170	0xbfbf16d661a3b04c	-0.12144222148680334
171	0xbfc71c24548ceeec	-0.18054632309382812
172	0x3fa643aad2c57d27	0.043485010365424785
173	0x3f6a7bfc95d5da29	0.00323294957223232
174	0x3f9b4989f05073f7	0.026647715847605693
175	0xbfa552073e6472e4	-0.04164145123124799
176	0xbfb8ec284429c8df	-0.0973534742750277
177	0xbfc4b7f6df31525a	-0.16186414621428719
178	0xbfbf78dc8ab8088c	-0.1229379500073568
179	0x3f95b461c7d65e45	0.02119591505251452
180	0xbfc7173f3f29656d	-0.18039694389407704
181	0xbfcabe60654840b3	-0.20893483109876385
182	0xbfb729d9d8ae115c	-0.09048234500921154
183	0xbfa1a799e57e5bfb	-0.03448182035861432
184	0x3f5a7660362f49bf	0.001615137058924007
185	0xbf9a37d97f912e05	-0.025603674326971432
186	0xbfade5230ff3042a	-0.05838880128568065
187	0xbfc468248c89fc9e	-0.15942818510300055
188	0x3f8d715fe1fd6d53	0.014376401027837693
189	0x3fabfa6bbc2450aa	0.05464493438390268
190	0xbfba40e7123172a0	-0.10255283540886717
191	0x3fa6d0cb40ccfe1f	0.04456172147774517
192	0xbfcbc28833512ffd	-0.21687414651603368
193	0xbfcfe90b511822c1	-0.24929944476777702
194	0xbfa52b55d3764467	-0.041346246779661304
195	0xbfd614ce95336e98	-0.3450199563064671
196	0x3f82a270807c0b53	0.009098891182934976
197	0xbfc36157827bb208	-0.15140813704728395
198	0xbf8986f9896b2016	-0.012464475160769022
199	0x3f98265302db2ebe	0.02358369545872451
200	0xbff02218d6aa6498	-1.0083244691252613
201	0xbfd51d723efb5c46	-0.32992225790571117
202	0xbf9e9061e7ab0d2a	-0.029847650303748065
203	0xbfea5301d9ea5cfd	-0.8226327186738726
204	0xbf97920faa98f0bf	-0.023018116748276137
205	0xbfa8af8f9c8b986c	-0.04821442399934103
206	0xbfbb2fb3c42c0e9e	-0.10619662799222815
207	0xbf831a04f8e9acbd	-0.00932697186109121
208	0xbfa762348cb8ae49	-0.04567112176695482
209	0xbf87efc6c6f91efd	-0.011687806079080593
210	0xbfc42bf085cca82a	-0.15759092839408712
211	0x3fc3f6eece16235d	0.1559732919961573
212	0x4003e2592d57cbf5	2.4855216543596677
213	0xbf9b37e95c3c5738	-0.026580473188992232
214	0x3fa0b57c22083073	0.03263461985997731
215	0xbff730e4b4607d0f	-1.449436859700487
216	0xbfbb0aa58775fd26	-0.10563120419646008
217	0x3fc1788db58f7a58	0.13649150243050445
218	0xc0126d0e933510ed	-4.606500911821269
219	0xbfa1a5d91c451bfd	-0.034468445492670675
220	0xbfc3c0c324292276	-0.15432013765009217
221	0xbfbf01d8cae7dffe	-0.12112193063501306
222	0xbfc4488c7268d00e	-0.15846400820157708
223	0xbfb4585e8ac07fad	-0.07947340857981429
224	0xbfc78c3fbfa0ea29	-0.1839675603567497
225	0x3f9f28c60c489849	0.030428976535539474
226	0x3fa19e9ca931498b	0.03441323819483263
227	0xbfb0b5169b2ca395	-0.06526318825184625
228	0xbf9b89362789632d	-0.026890607989432148
229	0xbfaa11d00c646534	-0.05091715003272626
230	0xbfe27b50f1752573	-0.5775532451599886
231	0xbfd5cc8af0106157	-0.34060929721592487
232	0xbfb540db0226d5c9	-0.08302086641818741
233	0xbfbc5f31fd9631ac	-0.11082756463128501
234	0xbfc308e1826e476e	-0.14870852345171265
235	0xbfcc1b9e6373b14b	-0.219592855988035
236	0xbfbb17f1a91fb70d	-0.10583410624505181
237	0xbfbfdbb18df9301a	-0.12444600788256857
238	0xbfa0b84fb02cff76	-0.03265618348677794
239	0xbf9d1076f7118e2f	-0.028383120374554757
240	0xbfa60d3aefadf793	-0.043069688565977725
241	0xbfc905961438e36d	-0.19548297870076273
242	0x3fe47e13d09a5ba6	0.6403903078342992
243	0xc01019c90a651690	-4.025180971546106
244	0x3f92b0456ca6bc3c	0.01825054622321097
245	0xc00a0e74accc6c5f	-3.2570584773907707
246	0x3f7542bd6dd1fcb4	0.005190601307844368
247	0xbf990173d7240646	-0.024419603353641038
248	0xbfc0daced653d166	-0.13167748894887693
249	0xbfc7567df3df139b	-0.1823270264414106
250	0xbfa9db1561cbaa64	-0.050499599636016496
251	0x3fcbc052c987ad35	0.2168067440064562
252	0xbff1f6ccce9b6e48	-1.122753912982164
253	0xbfc1830970b5404b	-0.13681142810173905
254	0xbfc131b85136b553	-0.13432983365548043
255	0x3ff6632b2322e54c	1.399211060763565

transform_generator.3.bias f8 [64]
0	0xbfc2a75621b12c1a	-0.14573170323487333
1	0x3fc8b511fded7b81	0.1930258264428311
2	0xbfc1412606224628	-0.13480067538743978
3	0xbfc1cd9441a87fb3	-0.13908627706495977
4	0xbfab471130f4f325	-0.053276574350525054
5	0x3fac3f0f4eb08778	0.05516860805097584
6	0x3fc45d864a8832e9	0.15910414351710436
7	0x3fbe2ecfea42a2cf	0.11790179700131918
8	0xbfc8615ed00b9878	-0.19047150762998277
9	0x3fc32f0e65e90930	0.14987354255760854
10	0xbf92c7f755360def	-0.018340935302615987
11	0x3fa7c2869b92830d	0.04640598916126324
12	0xbfa5edd29a9dade6	-0.04283006799127147
13	0xbf95959e65c2f994	-0.021078562699352668
14	0xc000c9cce1a4e161	-2.098535311550379
15	0x3fc7c0de8eae432c	0.1855734059031645
16	0xbfa97a8d85ff459b	-0.04976312885959119
17	0x3fc51d76afa09bc8	0.16496165824466247
18	0xbfbca27a0b910352	-0.1118541982878132
19	0x3fa9e03c4e5f43ab	0.050538906638059565
20	0xbf740bf6ce3792ea	-0.004894222339747437
21	0x3fc20a6919cd8574	0.14094270477202608
22	0x3faac5648287c6c7	0.05228723615063085
23	0x3f7d9a39e37adab1	0.007227159621541788
24	0x3fa7ac2f56e59316	0.04623554168464332
25	0x3fbf93ae70b4c266	0.1233471894418102
26	0x3fbf1283712012dd	0.12137624275062416
27	0xbf9deb1f43ca277d	-0.02921723223929672
28	0xbf8d19d2bf22c638	-0.014209410150530663
29	0x3fc330a7ed30c855	0.149922362151815
30	0x3fa8d501c344ecd9	0.04850011356980994
31	0xbfc291d34640000c	-0.14507523470092598
32	0x3fa2879aff1aec94	0.0361908375175172
33	0xbfac7ec805925690	-0.05565476482403853
34	0x3fc02eb608dd5c7c	0.12642550881239234
35	0x3fc4f7a88696ce2e	0.16380793163044544
36	0x3fc2acfc491a5f84	0.14590409821971317
37	0xbfc01dfe9e985d8b	-0.12591536277680535
38	0x3fb7da6facae203a	0.09317682233643235
39	0x3fb9fab56893c0ff	0.10148176005509767
40	0x3f500a7a19f79f39	0.0009790604016135086
41	0xbfb950480a2fe2db	-0.09888124703128247
42	0xbfb916be458ce55d	-0.09800328443534086
43	0x3f826838e90f33ca	0.008987850773246726
44	0xbfb439bb42236e0d	-0.07900591244418127
45	0xbf53f30097adb408	-0.0012176042352749512
46	0x3fa5b6fb3146a440	0.04241166092408166
47	0x3fab1ffe0f91fbdc	0.05297845783297081
48	0x3fb6e920968bd443	0.08949474025196573
49	0xbfa1df85dffd7b71	-0.03490846976523344
50	0x3fb8acb5172595d1	0.09638530554874271
51	0x3faf27571736dd21	0.06084701689126804
52	0x3fb9fba926151c68	0.10149628810641931
53	0x3fb6b1f2833ffaac	0.0886527605471012
54	0xbfb096c2cace3081	-0.06480042887977967
55	0x3fa7bcaa3fa82d5c	0.04636127497732431
56	0xbfa22de059fce261	-0.0355062589500832
57	0xbfc544b3ec511796	-0.16615914381889912
58	0xbfc143e992061638	-0.1348850214964601
59	0xbfa51b5896a5b6d2	-0.04122425879437021
60	0xbfc63c6a43aa21da	-0.17371872238096736
61	0xbfb8f1f556f5e4ba	-0.09744199154910663
62	0x3fa3048972da4f67	0.03714398886691477
63	0x3f8005e16a40ee95	0.007823716216186308

transform_generator.6.weight f8 [4, 64]
0	0x3f94fb8f8cf1b432	0.020490878083752224
1	0xbfc9355401e17a3b	-0.19693994609674967
2	0x3f99c771a610ed52	0.025174880753394753
3	0xbfa22a6611adab5a	-0.03547972646523219
4	0xbfadceeb5adb3383	-0.058219294396258746
5	0xbfc18416480389ad	-0.13684347645091802
6	0xbfbebe00cb29f8dc	-0.12008671722466907
7	0xbfc5ee5aad60ec93	-0.17133649316551622
8	0x3f97bd07badb475b	0.023182030467814623
9	0xbfc888db149300fc	-0.1916765070400358
10	0xbfc640da396e1543	-0.17385413936805535
11	0xbfa3d9ccb761ff73	-0.038771054635616496
12	0xbf9a3d2ceee46b9b	-0.025623991089655723
13	0xbfc3bc6c38b2271a	-0.15418770569186152
14	0xbfd734cc6a354cd2	-0.3625975644292342
15	0xbfc9a42aa28097b8	-0.20032246527369835
16	0x3fa7a53f5c8a53c8	0.04618261341708024
17	0xbfc8fa1e09941617	-0.1951329752702555
18	0x3fac15d3e129d6e5	0.054854031787653836
19	0xbf9c4dc72e72307d	-0.027640449724046768
20	0xbfa3a95744c406e1	-0.038401343483213564
21	0xbfbff2a704add646	-0.1247963320182289
22	0xbf994dfdbecd0346	-0.024711575289305253
23	0x3fa24eb108e0ee4f	0.035756618818109424
24	0xbfa8f2388fe25cbb	-0.048722999156944856
25	0xbfce460934b0fbdc	-0.2365123278886746
26	0xbfc8d8a8d9c58109	-0.19411192544340164
27	0x3f91e120cb6cac33	0.017460358062788294
28	0xbfd137ddf04e0380	-0.26903484790096144
29	0xbfbdcd58671ad54a	-0.11641457097251365
30	0xbfbd40da3f96d0b9	-0.11427082111805732
31	0xbf98e19e29107896	-0.02429816365849343
32	0xbfc0cf6a61489c25	-0.13132982015778896
33	0x3f94859bc48ea31d	0.020040925857446646
34	0xbfc73177a81324fc	-0.1811971254995014
35	0xbfbd4dbe58071df6	-0.11446752213588937
36	0xbfc692b6f6dc7a32	-0.17635237745067084
37	0x3fa7f08134894d2c	0.04675678030312222
38	0xbfbed789e6538056	-0.12047635911176377
39	0xbfcc005fa7c8e9c4	-0.2187614030134012
40	0xbfc1f48c43a68240	-0.14027550986522108
41	0xbf8b4032e68f4d8a	-0.013306043301702503
42	0xbfa2c684445abc49	-0.03667081198124628
43	0xbfb0533a595164b5	-0.06376995735753861
44	0x3f84d2d4fb1d9129	0.0101677550444
45	0xbfcb1a0fdd7210d7	-0.2117328482892222
46	0x3fa0385c1e9cb744	0.031679991471135455
47	0x3fa3cf50f4e1684b	0.03869107236160171
48	0xbfc12cbb22b0781e	-0.13417758172812538
49	0xbfcf9315303002d2	-0.2466761098185289
50	0xbfbf4f5edfe7c11c	-0.12230484930455926
51	0xbfcf9551f4ac4614	-0.24674438902779683
52	0xbfcae33c72c831e2	-0.21005969624128712
53	0xbfbf2d5f673744a5	-0.12178608198088854
54	0xbfa1c32d8dc08d30	-0.034692214540223865
55	0xbfa23bab2dc6aa56	-0.03561148580350408
56	0xbfa10dfa8c1e13ee	-0.03330977402132605
57	0x3fa4feea9c9b7141	0.041007358185853444
58	0xbfa70a9e6c44da72	-0.04500289031641537
59	0x3f95dc3d45511413	0.021347958904034025
60	0x3f9e73209fbb78e4	0.029736051320349413
61	0x3f7bf186273c5027	0.006822132145106997
62	0xbfca68f516422d22	-0.20632804476586225
63	0x3f8edd336791fdb0	0.015070344541753794
64	0xbf96a36f4278a7b8	-0.022107828552328818
65	0xbfc9d6e6256e1a4c	-0.20187069728509
66	0xbfad86051e83df94	-0.05766311643122815
67	0xbf9652a7ac0f2396	-0.02179967868486051
68	0xbfbfdd96e889efb1	-0.12447493722169047
69	0xbfc7fa0739708136	-0.18731775574361514
70	0xbfb072a43ae5112b	-0.06424929082738078
71	0xbfaca6e4ea5edd43	-0.05596080170601649
72	0x3f979e00a7e919de	0.023063669441649164
73	0xbfa8b853c1398c8f	-0.04828130468083557
74	0xbf64e69c3011850b	-0.002551369718773904
75	0xbfbea2c11ba0e06f	-0.11967093395731053
76	0xbfc83dc438118e0a	-0.1893849633953411
77	0xbf9f9ce7734eb0bc	-0.030871979153446402
78	0xbfd2296852cdea4e	-0.283777314056043
79	0xbfb2eee89b7d5fe7	-0.07395795627724021
80	0xbf8a6cbfd4e6982d	-0.012902735409465372
81	0xbfa3f594e5bb1aeb	-0.0389830141480639
82	0xbfc113f34d5e9970	-0.1334213378697302
83	0xbfbe699368289d9a	-0.11879845898567112
84	0xbfbcdd445f35b6e2	-0.11275126766642132
85	0xbfc7af95bdd97266	-0.18504592676153492
86	0xbfc23e822b853a11	-0.14253260731716513
87	0xbfc09d1dc815b4f3	-0.12979481000676393
88	0xbfbf2ed1c8bfcfbc	-0.1218081584082133
89	0xbfb50097ba53b867	-0.08204029368400399
90	0xbfba9cac9140abe9	-0.1039531569119131
91	0xbfc753cdd9764bce	-0.18224499815241163
92	0xbfaf9967bd9be5af	-0.06171726407587685
93	0xbfc815cbc184b846	-0.1881651587404482
94	0xbfc787e4ed5f949e	-0.18383466330047765
95	0x3fa3c53b36993c51	0.03861413041578799
96	0xbfc58c7d905b7503	-0.16834992932027867
97	0xbfb65d33e716ee0d	-0.08735966102442934
98	0xbfb4e7bde496ef50	-0.08166109877396122
99	0xbfc4a1c40f169ef7	-0.16118670212494354
100	0xbfa87bc5f3e01f16	-0.047819314975695956
101	0xbfc1fa8a38ebc51f	-0.14045837191910324
102	0xbfcc6a68df528d03	-0.22199736503998943
103	0xbfb97cf63bd2f88d	-0.09956301651524964
104	0xbfa990712ea3abbc	-0.04993013090446349
105	0x3fa7a357518eb008	0.046168068605169366
106	0xbfc5cae279029f16	-0.1702540484304726
107	0xbfd055b9f77c8045	-0.2552323262079919
108	0xbfc23745765fd2bb	-0.14231174736018723
109	0xbfa67e4ed3955798	-0.0439324029236296
110	0xbf8985957c5c69c0	-0.012461822374054132
111	0x3fa15f619c6e0bcb	0.03393082651657372
112	0xbfa80603e13ab86e	-0.04692089199430503
113	0xbfc259da5ad5f35b	-0.14336709437693682
114	0xbfb9b68f61106bf2	-0.10044189567308573
115	0x3fc55ace5672157a	0.16683367939928556
116	0xbfb6c5a9af40e9ff	-0.08895359543468116
117	0xbfbc536a7e827f47	-0.11064782703988128
118	0x3fa1e3eb762a5885	0.034942014860619465
119	0xbfc2a3a1c9712886	-0.14561865173374516
120	0xbfb329d9dae2d868	-0.07485734552287371
121	0xbfb92f34a95871e1	-0.09837655195628471
122	0xbfc5a0c666de3be8	-0.16896896384102367
123	0x3f86e0415c2da23e	0.01116992056422916
124	0x3fa4c93752ff14dc	0.04059765709056659
125	0xbfc7f01a136107df	-0.18701482721559068
126	0xbfc12a3592b6f416	-0.13410062469293454
127	0xbfc2f1927f6cb1e9	-0.14799720022109789
128	0x3f93702d6ea9b7e2	0.018982610587435896
129	0x3fcebc6cc221d7c8	0.2401252696906211
130	0xbfb68a51c0c8ede5	-0.0880480857530795
131	0x3fe25a5741ff6909	0.5735279358880528
132	0x3fc5d9cde5acc5eb	0.17070935930819017
133	0xbfa76820efde767e	-0.04571631362999272
134	0x3ff7fc28ec4debd5	1.4990624647750697
135	0xbf9c49ba97d0b43e	-0.02762500335318329
136	0x3fa4d0b21716e990	0.040654721563856744
137	0x3fcb659e382732fd	0.214038636606709
138	0xbfc2ad035d11b3b8	-0.14590494198219317
139	0xbfbd5e434f27e2f3	-0.11471958811297238
140	0x40045e304a0e7904	2.5459905419985507
141	0x3fc79457b225c9e1	0.1842145557271371
142	0xc005f4df2973fc3d	-2.7445662725945383
143	0x3fc41403bf9e48bd	0.1568607984195917
144	0x3ff2c519896817f3	1.1731200568624416
145	0xbfadf3ae3575b420	-0.05849975969872667
146	0xbf6b7389de845a17	-0.003350991512103062
147	0xbfc24f3174e25bfd	-0.14304178435551754
148	0xbfc1385ffbd20ab9	-0.1345329265205544
149	0x3fc28e3be4131bf4	0.14496563564736642
150	0xbf976feae19d5ad8	-0.022887868900705793
151	0x3fc7b4b1827f5a12	0.18520182487436948
152	0x3f97214294b3fe1c	0.022587814642063817
153	0x3fc7f77ad9385e6c	0.18723998648123386
154	0xbfa5fa5d2ea86d71	-0.04292575068049132
155	0xbfc2f386788fce6f	-0.14805680167011157
156	0x3fca0dc5a1388f9c	0.20354528782001757
157	0xbfaed5e649718440	-0.06022567411924529
158	0xbfc1e892df419d5d	-0.13991008664309393
159	0xbfc2f392dda1c5c0	-0.1480582792460563
160	0xbf9764bd56090b08	-0.022845228553943137
161	0xbfb38c9a781c112a	-0.07636418754924948
162	0x3fbc5c6f6f5c6154	0.1107854506375408
163	0xbfc19181699cea53	-0.13725297600633954
164	0x3fc09c496ebde125	0.12976949603376756
165	0xbfba815aafd929ff	-0.10353628914996447
166	0xbfa65abd36b1a111	-0.043661034513947546
167	0x3fc3be686fd5888d	0.15424828968668117
168	0xbf9ebc8ec57c483a	-0.030016165545994712
169	0xbf9ff78f4850beb1	-0.031217802799970943
170	0xbfc81131778ba997	-0.1880246957510507
171	0x4000ad71d2dcdd5e	2.0846897576954424
172	0xbfa033cbd0793522	-0.031645173262044204
173	0x3fc28038f66a89f5	0.14453804046668464
174	0xbf8267b74c7ff739	-0.008986885091868057
175	0xbfaa6973ee64574d	-0.05158579144533224
176	0xbfa0d0afc04c15d8	-0.03284215185525924
177	0x3fe0cc077dca3ae3	0.5249059159121682
178	0xbfa591c0d94762f4	-0.04212763454751736
179	0x3fdfb8ef18732912	0.49566247356109827
180	0xbfa2691e9f6e0def	-0.03595824905553601
181	0x3fc85111c9194290	0.1899740440299138
182	0xbfc596b6c87da594	-0.16866192617025588
183	0xbfc12c067441cbbb	-0.13415604282962854
184	0x3f75a2c92a00252f	0.005282197758796499
185	0xbfb980bd4a9e8712	-0.09962065765151021
186	0xbfc2fc71af7ea2e0	-0.14832898205829448
187	0xbfc06d2fd2cc809d	-0.1283321170130919
188	0xbfa027327282f059	-0.03154904983372892
189	0xbfc72e07035acf17	-0.18109214462094123
190	0x3fbeb45df4d4d2a7	0.11993968226745243
191	0xbfb6eae0ccb95db6	-0.08952145574709544
192	0xbf6d2696f08a673f	-0.0035584400214475893
193	0xbf910fcfcba20f17	-0.016661879352354605
194	0x3fb0f3a59370d25f	0.06621775483729085
195	0x3fb6ffb1ce76891d	0.08983908930398284
196	0x3fa781b911d54fd3	0.04591158240023643
197	0xbfaebc60c01ca537	-0.060030959559592416
198	0xbfbf6371d5cee25d	-0.12261115522313433
199	0xbfb9b248ccd10361	-0.10037665367509653
200	0xbf7841907594b5bf	-0.005921901983396648
201	0xbfbff3ace87cb5df	-0.12481194187122167
202	0xbf8914112e43753f	-0.012245306228971685
203	0x3f9d1e66f874202f	0.02843628779831436
204	0x3f9be4d647d9f047	0.027240131507355405
205	0xbfbfabbd73ddcbb9	-0.12371429518479617
206	0xbf918338b4986fd7	-0.017102132818862827
207	0x3fb1ff2e31ec8721	0.07029999464841953
208	0xbf9739492c61bbd7	-0.022679465612266938
209	0x3fb5f238a80498f9	0.085727253932962
210	0xbfb650cfe477f493	-0.08717059448095403
211	0xbfb4115ea94a0aa5	-0.07839004166639059
212	0xbf8c368c4cad6b5f	-0.013775917139062064
213	0x3fa2f864f96ab5f7	0.03705134911193036
214	0x3fa4f1c939646df3	0.040907181030174565
215	0xbfb9243ddf64b5c9	-0.09820925430241013
216	0xbfa8b1f74a9f2ed7	-0.04823277269278286
217	0xbfb436b5fd5e5687	-0.0789598220420321
218	0xbfb3cf651bf3489b	-0.07738334591275235
219	0xbf6869ba9b8f543f	-0.002980102985456173
220	0xbf923f5a89ed6e57	-0.01781980006067693
221	0xbf94da461d71c4cf	-0.020363898799080012
222	0x3fae7377c6384ce7	0.059474699923294065
223	0x3fb76a8fbe14b163	0.09146974936147027
224	0x3fb94e26943198dd	0.09884873502742005
225	0x3fb6fdbf91019da9	0.08980939188187755
226	0xbfb1d78a64bd1573	-0.06969513854445157
227	0x3fa8ee23f23d99af	0.04869186718024154
228	0x3fbb1f0132181537	0.1059418437290177
229	0x3f9205f0a7dda637	0.01760078453609123
230	0x3fbe8a6f4b2e3fe9	0.11929984651055715
231	0x3faecb0e7ffab087	0.06014294922110346
232	0x3fbf82f546d5e303	0.1230920122087689
233	0x3fb49dea9d4231d7	0.08053461398430471
234	0x3fb604cfb827ec0b	0.08601091619486582
235	0xbfa0db9429801fff	-0.03292525297734982
236	0x3fb18db46f78039d	0.06856849404722572
237	0x3fbcf9ca2d22478b	0.11318648912336308
238	0xbfb35ea99c65e753	-0.07566318577110324
239	0x3fa138a3483ed1e7	0.03363523728276956
240	0xbfbdd96aa58ed5ad	-0.11659876386587227
241	0xbfb55116ba5800bf	-0.08326856660278546
242	0xbf7ba9d32482b83f	-0.006753754402025135
243	0xbfa3a871b04ddd6f	-0.03839450146818534
244	0x3fb0afd09da1ad73	0.0651827225535067
245	0x3fa105f9e8a7233f	0.03324871983529087
246	0x3fbaddc5960c5b5d	0.10494646943366832
247	0xbfb374f6099ab3a1	-0.0760034345100409
248	0x3fbc71bfdd6f3003	0.11111067920791133
249	0x3fb502e7de23ad5b	0.0820755879719192
250	0x3fb72b7acdf044c3	0.09050719764515507
251	0x3fbe40e6f0053a19	0.1181778274524067
252	0xbfb0fc8296b6f521	-0.06635299853856626
253	0x3f567e760a629dff	0.0013729241123118239
254	0xbf9c730edd321d0f	-0.027782661677091144
255	0x3fb0ee209bc596f5	0.06613353541396434

transform_generator.6.bias f8 [4]
0	0xbfb26ec65aadd9ce	-0.07200278962941484
1	0xbfb2e67ee2815f6f	-0.07382958440700603
2	0x3fb89a2ac93e336e	0.09610240376623633
3	0xbfa8b4cab210c83c	-0.048254331814306245
