models/livneh-livneh/QM_SST/2000/1980_1990/upscale_1by4_Wnoisy1_bci/model.pth (torch, 72808 bytes, 8 tensors)

transform_generator.0.weight f8 [64, 2]
00000000: 955b ba97 e087 e8bf 242f a048 6d55 e1bf
00000010: f269 c1d7 fe5f fabf 7626 2c54 92e2 d0bf
00000020: fb5d ee3a a0fe 96bf a215 5e81 c339 db3f
00000030: f8f9 fcbb 2379 d33f 1a48 1ad4 932e e93f
00000040: fd29 54f0 9361 e4bf 0907 57dd 1d4e e9bf
00000050: 2732 c3f2 cd84 d3bf 6a13 b1c8 983c 7b3f
00000060: 9563 c603 700d d43f eb71 7768 6308 df3f
00000070: e69b 2a92 fa6a c6bf a86c e376 3730 e33f
00000080: 4037 a3a8 21b4 e3bf 0f1b e0f3 2ff7 ee3f
00000090: a382 e7d6 41d1 7dbf 0ea3 cd39 747b d13f
000000a0: 42da e276 2c4f c3bf 53a6 2b1e bff0 ee3f
000000b0: 92a0 42da 84fe d0bf a1fc 84e6 3248 d1bf
000000c0: 8316 5ac6 5bc3 f5bf b354 fa19 65d8 d1bf
000000d0: 3a37 903a a1bc e13f de35 a9f9 e97c d8bf
000000e0: 70ec ace5 5b23 dc3f f7e8 d54f aa82 f1bf
000000f0: 79cb 5c3b 4122 d4bf 1a89 03a7 f77f d6bf
00000100: ec79 03bb 8f7f d2bf 9ce5 f2ae 5d9c c4bf
00000110: d78a 6c2a 076d bc3f 8b00 7a5f 91b9 d43f
00000120: 8b1c e954 b9f8 dc3f 7c67 c5c9 8c87 eabf
00000130: 7660 acfc 732d f3bf 4887 d021 3444 e63f
00000140: d42e 7ced f8da e03f 7854 78cd 2f7d e2bf
00000150: 4e76 3da4 8957 aa3f 946e 10e3 a0d6 c8bf
00000160: a3db 7a67 7a9d dd3f f955 1d71 0ee1 dc3f
00000170: fbfc abbb 191a e23f 8558 41b5 eeba eebf
00000180: 8867 09dc c752 733f 47e6 6b49 cd8b d63f
00000190: 4a1f 2269 e596 d03f 265f 623d b3f0 a1bf
000001a0: 1571 ae73 711d e0bf db8d 7c42 4be2 dd3f
000001b0: 5ba5 c2f3 bd93 b0bf 27ac 1936 a9a2 ec3f
000001c0: c4e0 d909 7aa9 04c0 4985 4cc3 652b d43f
000001d0: e4a9 e90b ec15 bb3f 37db 16cf f950 d6bf
000001e0: 7588 39c6 e6ff d9bf 59b2 7104 4e68 f13f
000001f0: da2e 2e3b 206b ccbf 32fd 0017 1de9 a53f
00000200: 00e1 0103 5a73 cabf 2e61 757b d125 b5bf
00000210: 0f15 149a d1bf d4bf fb97 767c 233e f33f
00000220: e8cc 4642 7124 e03f 944e f1a4 314f e5bf
00000230: da28 889c dae1 ba3f 7b0e f603 7da6 e63f
00000240: 6d88 349f b906 be3f f81c b2c7 f733 cdbf
00000250: 32e2 6b6d 81af dc3f 2c7f cb1d af47 e0bf
00000260: 6fa0 7fde e7aa a1bf 9651 ee53 f3dc e73f
00000270: 984f 870a 80fc e3bf f013 a456 56b3 da3f
00000280: 1e1d e747 073e c13f 9e7d a693 09dd c1bf
00000290: dc9f d865 e4af e03f 32d2 3c44 9fa7 f5bf
000002a0: c785 48cc 6648 cd3f f4b6 470b faca ec3f
000002b0: 78be 103d 4b34 e9bf e257 0236 bdb1 e13f
000002c0: f949 d955 5522 e0bf cf2b f608 db4a c8bf
000002d0: c0d1 d588 b651 57bf 306c 7d6b 3b16 e33f
000002e0: 485c e27f c350 f3bf 4e28 6805 7cb4 d4bf
000002f0: 95de 828b 51a1 df3f 807a f9c5 b41a e6bf
00000300: e393 c7ff 2d1c d83f 2991 293a cd70 d13f
00000310: bea0 8e85 3219 e6bf 6054 ae40 3706 f33f
00000320: d642 9c42 ed08 b5bf 79e6 6ef2 6174 b6bf
00000330: 09f1 857c c4f2 c83f f02e eae4 18da d93f
00000340: c09c 619c a9c2 c93f eb5f 07fd 36a0 d03f
00000350: d7a7 dcea 557a abbf 28ec 49d0 d5fb c0bf
00000360: c293 e380 3d5f 10bf 2c06 5bd4 a7ad da3f
00000370: 2734 74af afa0 c13f 6c05 6c11 9b77 dbbf
00000380: 0b8c 1c7d 5c6d f2bf b2cd 93f7 3ecf cbbf
00000390: 6e1d 7a3f 4305 f2bf 9ea1 fb9e bf82 dd3f
000003a0: 53f0 d75e 006f dd3f 64e7 cd18 d2ac dbbf
000003b0: a885 1ea5 a6b5 e43f a026 c735 037e bc3f
000003c0: 195e fa28 6c16 d33f 33f3 f65e cb54 ebbf
000003d0: 7ea3 2a9d a63f d4bf 9b92 0042 4fb4 c0bf
000003e0: cc2b 0580 2721 d43f 8134 a4b2 39a6 e13f
000003f0: 243d 7917 3bd3 e5bf 8e60 1217 e42d e83f
-0.7665865863262861 -0.5416780870886879 -1.6484363964033233 -0.2638288328167627 -0.022455695721502505 0.42540061601206436 0.30426877363416294 0.7869357245092516
-0.6369113630219655 -0.7907857249303741 -0.30498074252389745 0.006649586498558383 0.31332016342781205 0.48488698198141716 -0.17513973366769092 0.5996358224905594
-0.6157387059881572 0.9676742327872904 -0.007279641328268002 0.27316003460741534 -0.15085368924128956 0.9668880070941647 -0.2655346042106511 -0.2700316668669505
-1.360194945156224 -0.278832698220252 0.5542760986151969 -0.38262414341883566 0.43965814046141016 -1.094400703294523 -0.3145907478057591 -0.3515605097765203
-0.2890357328705295 -0.16102191011831912 0.11103863511793165 0.32382616351970545 0.45268090526628474 -0.8290466252176283 -1.1985969419529545 0.6958256397667606
0.5267300260906844 -0.5777815831267068 0.051449109362448384 -0.19404994094007988 0.4627367029710802 0.4512363533625315 0.5656860986199769 -0.9603189029828775
0.004717617703670636 0.35228283090654994 0.2592099692051205 -0.03503952144927629 -0.5035941371347997 0.4669368886263478 -0.06475436402492589 0.8948560768743662
-2.5827523011795126 0.3151487738815218 0.10580325404013241 -0.34869237159312 -0.4062439857281171 1.0879650281523452 -0.222019223114663 0.04279414087113266
-0.20664525172083614 -0.08260831131099586 -0.32420768782351755 1.2026705610128363 0.5044485372985976 -0.6659172269377955 0.10500875779704036 0.707823283898008
0.1172901166615092 -0.22814843416947617 0.4482120102470929 -0.5087504941875287 -0.034507032309023404 0.7457214965129875 -0.624572773517218 0.417195877657206
0.1347054577911217 -0.139558026404285 0.5214712132628807 -1.353423372796112 0.22877202009935457 0.8997774334254403 -0.7876335327800481 0.5529466681352881
-0.5041910816892702 -0.1897844117887346 -0.0014232904971694799 0.5964638804829345 -1.2072176928975455 -0.323515897064344 0.4942211019910954 -0.6907600275697661
0.3767199514243755 0.27250986747664513 -0.6905758484399696 1.1890175367928109 -0.08216746212225287 -0.0877133576276722 0.19490867691263983 0.4039365993018995
0.20125312934690065 0.2597787352547118 -0.05366772167174332 -0.1326854006800613 -6.245434653669084e-05 0.41684909570548956 0.13771625582777 -0.42917515469897327
-1.1516995322388108 -0.2172621449350181 -1.1262848357744946 0.4611052563255046 0.45989999067365267 -0.43242313787742703 0.6471741890892888 0.11129779875696011
0.29824356080777786 -0.854100881078557 -0.31638493870064355 -0.13050261233106117 0.3145235777089368 0.5515411843386034 -0.682035013052801 0.7556019259091202

transform_generator.0.bias f8 [64]
00000000: 6831 053f 94da e2bf 74b8 7ad5 1552 e4bf
00000010: 2775 dcc3 9636 d23f 1b1d 4de3 311b d63f
00000020: 9bb8 cd5b f19c cfbf 40df 2af5 d67c d1bf
00000030: ff78 3aab 86a0 edbf ccc9 da9b 22a5 db3f
00000040: 3e3b b861 3223 de3f c596 e1cc 96f2 c63f
00000050: 453b 8c5e fe2a e53f 614f e575 2c46 dabf
00000060: 5e17 1623 2ca7 e6bf 5547 1819 1d56 b03f
00000070: 25dd c559 9e35 e2bf b32d 80ea 3aa0 dcbf
00000080: b3c1 2fe7 9e29 d3bf be69 c5f3 b38a a9bf
00000090: 9a18 3d26 ed0d e5bf b084 46e3 394e babf
000000a0: 9ef2 34a7 3eb6 d1bf 8f3f 9a3e da11 cb3f
000000b0: 7f5e 1ded 376d e8bf 9626 008a f902 ddbf
000000c0: 4f3a d8af 0cf7 cb3f 2978 1580 9124 e6bf
000000d0: 786b 9133 27d2 db3f 6ee7 1f46 2d62 e33f
000000e0: 126f e0a5 3017 9e3f e2e4 bfbd 2bf9 c53f
000000f0: a48c a802 54b4 e73f 62b9 6975 5b58 d4bf
00000100: 2bb7 cb1e fb5a d9bf 8f8b d364 966e ea3f
00000110: c8bf dead e5b5 af3f 88ed 2afe 9599 dabf
00000120: bade c2e3 44a1 e13f f753 88c1 e1ca cb3f
00000130: 779e 4ffd 86c7 de3f 5489 8bc7 c672 e13f
00000140: 62e4 36b2 ad8e c8bf 13b4 ce5d 3d75 e6bf
00000150: e2c7 8d96 4134 acbf a590 6e91 36eb e53f
00000160: 1d15 8264 559f d73f fd72 af58 cbc8 d83f
00000170: 3d93 5b2d 5861 bd3f 4bfb 0013 b572 e9bf
00000180: f992 9e0c 1b48 f1bf 9f40 ac5e 7831 ddbf
00000190: d0d3 2779 4769 cabf bfd6 4486 ef9f 93bf
000001a0: 684d 19d8 cf8a c5bf c2ec 7d5f 30e1 c9bf
000001b0: 2886 e77f bade d03f c3bb 1e97 1ec0 ce3f
000001c0: ed40 fd43 aad2 e1bf 4c7a 7b04 3b5b a7bf
000001d0: 94c7 3d72 eda2 89bf cf0f 6410 de19 e3bf
000001e0: 856b 8b18 7ee9 dfbf 2ed6 c72b 3551 d2bf
000001f0: d665 40e1 69df b53f d6ca fe27 df09 c5bf
-0.5891820174088425 -0.6350201768416484 0.28458184363428746 0.3454098434198884 -0.2469770143756634 -0.2732446092809262 -0.9258454651169642 0.4319540521638856
0.4708982424062248 0.17927823070492913 0.6614982458721462 -0.4105330611539469 -0.7079067883757764 0.06381399023692087 -0.5690452340485633 -0.44727967167338106
-0.2994153268510004 -0.049886344439716165 -0.6579499956940424 -0.10275613592831934 -0.27674833611289695 0.21148231560482286 -0.76333233176679 -0.4533065650617599
0.2184768541923909 -0.6919639112127288 0.4347017291635704 0.6057344789144119 0.029385337948141084 0.17166659131161227 0.7407627155229375 -0.3178928991900617
-0.3961780358066444 0.8259994477524389 0.06193464038312829 -0.4156241399866407 0.5509361694775727 0.21712896299200654 0.48092818009761323 0.5452608010639701
-0.1918542022883996 -0.7018114883591146 -0.055086183193352914 0.684962543532056 0.3690999490284684 0.38725551281622456 0.11476660830846881 -0.7952523585480348
-1.0801039212175836 -0.4561444210567149 -0.20633786598014447 -0.01916479355823841 -0.1682987027330498 -0.20218472159090167 0.26359426966345945 0.24023802164944472
-0.5569659545817821 -0.04561790876117708 -0.012517790840977296 -0.5969076461919886 -0.4986262550061656 -0.28620652461481455 0.08544027089410319 -0.16436376049894957

transform_generator.3.weight f8 [64, 64]
00000000: f86b 2b96 2c22 c6bf 6198 cd28 dafb a03f
00000010: 934a 0bf4 b232 babf b85f 2294 fee7 c1bf
00000020: 49c1 ffcd fe57 523f 0902 6311 83b9 bdbf
00000030: 263a 0e8d 024b 683f 092a 6747 2cda c1bf
00000040: 2f4d 31ab 9246 a13f d3c7 9d97 5915 bbbf
00000050: b11e 1da9 2c7a c7bf 315f 7aa9 b4b4 b0bf
00000060: adc8 cda9 f3f8 aa3f decc 2494 f4fc 973f
00000070: ddbd f856 5f51 7d3f 9b16 8ea1 da42 c13f
00000080: baf9 98a5 3693 b8bf 19df 1638 7603 babf
00000090: d085 5416 1bd3 903f 48c1 46fa 19d7 c7bf
000000a0: 2b57 c4a2 97c8 c0bf d587 951c 968b bcbf
000000b0: ea0e 1473 035c a9bf e73a 241e 8149 a13f
000000c0: d74e 9ef1 b5aa b4bf 6ab7 4ff4 74c3 923f
000000d0: ae42 3856 3447 b3bf c7a1 aa47 1d04 c1bf
000000e0: bcac 7430 f616 853f afb5 48da d5a3 a33f
000000f0: 6693 b0f1 fa94 983f 8991 c337 5a33 c5bf
00000100: d577 c37f 1365 b7bf 4227 4689 93f6 89bf
00000110: 254b 8c13 c9dc 74bf e91d 2bb6 ffaa c5bf
00000120: d222 f7b8 c537 a43f 0f33 465b 3a09 a6bf
00000130: bd6d 5785 b526 803f 735e a82c 8f4a b6bf
00000140: 58b1 3126 affb aebf 685e 6f6a 0a98 94bf
00000150: 7e54 a55b bdbb 9d3f eb6b a598 0dfb a4bf
00000160: 0f17 86ea 9634 c7bf c17c 26b5 dc7c 8d3f
00000170: 2185 3c79 1063 a2bf 7204 f2ee adaf 72bf
00000180: 365b 769e 98cd c5bf b877 cbe2 5480 98bf
00000190: 9da0 5a7e 4101 9abf c874 fcf7 28ff c4bf
000001a0: 931d d518 8919 96bf 7b3f e47d a7ca c7bf
000001b0: ba62 fe1b 5afc a63f 2d1e eb1b ca76 86bf
000001c0: 58e4 ec76 6950 b0bf d63f c637 5fd2 ab3f
000001d0: 2b33 f3b2 14b8 c6bf 3341 1390 bb39 8fbf
000001e0: 6c37 e5fb 0fa7 c3bf 03b9 d4d4 7826 a6bf
000001f0: 7c44 be18 00d7 c3bf 1da9 47e8 a0a7 babf
00000200: 8ff6 2c02 cfe6 b9bf 7a51 d930 b61a ad3f
00000210: e5df 5866 9b33 adbf 0550 9f26 7b50 c6bf
00000220: 1364 c9f5 aa9f a3bf 2181 b4d7 8d62 81bf
00000230: f4e7 e225 d67c a33f c92a a97b b2af a4bf
00000240: d0b5 3a33 3620 c13f 3b99 1749 0920 c4bf
00000250: 994b 7307 7b91 a8bf d3c3 ecd5 aafc a73f
00000260: 18fa 70bb 8a17 b2bf 4652 07ab 6a10 bdbf
00000270: fd09 f2ff 56ad 9bbf ab2e c8c3 ffaf 86bf
00000280: e7dc 3f70 f665 a73f de54 a389 8d19 bbbf
00000290: 150e d80a 3362 bfbf 54c0 7cb9 3794 c2bf
000002a0: 4d24 b73e cff1 a53f d192 342b 3a68 c2bf
000002b0: c64e b7d2 4194 9cbf 7ee5 67e5 a361 973f
000002c0: f467 db04 da3f 313f e9d9 6cce dfd0 c0bf
000002d0: ebc9 f18a aa38 bfbf 5dd6 94ee 9fe5 b0bf
000002e0: f4ed d584 6205 b8bf 2c06 8bc2 527c 9abf
000002f0: 3856 2617 6a61 a0bf 7203 31ae bacd 9c3f
00000300: 29b1 88ad f988 b53f ffe2 5939 91e5 c5bf
00000310: e699 44c3 f017 aebf 6a8c ead7 e711 b0bf
00000320: 3c0e 4db0 c473 6ebf 2ab8 d563 ebb5 76bf
00000330: 55e9 54c0 1d15 c0bf 70b5 4014 77e3 a2bf
00000340: 2b18 1c2f 9188 aa3f 5656 0105 182d b7bf
00000350: 943d d15a 5ead 8ebf 2d6a bedd 35f0 993f
00000360: e712 6f22 2805 a43f 79be 39f6 9eb8 c0bf
00000370: a994 67e4 649c 80bf b281 9d88 5d26 b2bf
00000380: d680 20a9 9f90 c6bf 2c24 ad31 bd0d b33f
00000390: ff6d 54b6 c448 b3bf 6d1c 21f1 dba4 b4bf
000003a0: 04cd e53a 346e a9bf 5bbc 9dcc d40f b83f
000003b0: be8d 8033 039d c6bf 3367 1f4a c928 78bf
000003c0: 17e2 c54d 2c95 b03f f5e5 2da1 38c5 a5bf
000003d0: b6b0 5e4a ec80 c4bf fe17 3e0c eb9d b8bf
000003e0: afb8 83ca 28c4 a5bf 8ac8 fab6 779b c73f
000003f0: f426 427a f2d7 b6bf dfe9 f6b3 8926 b13f
00000400: 0180 05b1 c174 933f c2e7 f4d3 a767 afbf
00000410: ce6b 0614 d3ff c4bf 82e9 a3a8 63d2 bbbf
00000420: 951b 30fb 54a7 a5bf df89 06e5 a7e0 c0bf
00000430: 0f7f de1a 2a0f bbbf 8274 0541 b5a1 903f
00000440: 5765 9a5b 1193 b8bf 0673 a2af b1be b8bf
00000450: 65ee 8e59 e997 c6bf 55c7 79c2 3798 bbbf
00000460: f86a b721 91c8 b0bf 7c8e 24f2 90da 77bf
00000470: 5a8e 8dc7 9fdb c0bf b9a5 b6df e4c3 b4bf
00000480: aee4 a242 9f1d af3f bf91 fc46 4ac2 c4bf
00000490: e61f 830b 263b c4bf d8dc 2c7c 710e b8bf
000004a0: d7e8 5fd0 25d0 963f 796e e6f6 997e 95bf
000004b0: a221 f333 4910 77bf 645e 89ba 053a aebf
000004c0: be85 c265 0244 c3bf cdcd eab3 6da8 bebf
000004d0: 3177 b589 cdd8 8bbf 3cdd 5b1b da16 863f
000004e0: c57a a819 bfca c0bf f313 9eb2 f7c1 753f
000004f0: 5bf1 2ea0 586e b3bf a00f 5992 0a7b c0bf
00000500: 2780 cfa1 76b5 bfbf 1aa3 f52d c995 89bf
00000510: 772a dc30 d821 b0bf 6522 03fe d5ad 90bf
00000520: 194e 0a0f 9e6c bcbf 1f39 c062 de79 95bf
00000530: 38a2 5ec8 48f2 a2bf d156 8a24 05e8 a5bf
00000540: 6a7f e2e4 c0b2 ad3f e7ca b2e7 6de5 a83f
00000550: 30f3 815d c167 aebf 9783 dfc9 c719 b4bf
00000560: a206 92e5 c4d8 c3bf 16ab 824f ead1 3abf
00000570: 6c4f f740 6548 adbf 0735 6b1d c49e c2bf
00000580: 038a d31d 6ab9 ae3f 10bd 1113 fb74 aabf
00000590: b065 6b2e 7e32 b6bf 8489 da20 9ff8 babf
000005a0: 4cb1 889c 2789 b4bf 2e9b 9e11 f978 b43f
000005b0: beb1 56b3 4af5 8b3f 9ceb 17e9 5e74 bebf
000005c0: 42b8 8bc3 a0e0 bbbf 5e00 9c84 62ab 93bf
000005d0: 7b69 353c b6a8 c6bf 6869 18c7 8e07 c0bf
000005e0: d18a 988d 0296 c7bf 4cbe a750 4461 a73f
000005f0: 5f9d 3014 684a c5bf 3ce7 0d9d fea7 c5bf
00000600: 804e ef7c f1a3 ddbf 7f7c a5bb 582c c63f
00000610: 50f5 bd76 81f4 d2bf d355 bbff 21f0 b63f
00000620: 5ec7 7c77 8fe5 d5bf 4774 5a17 ea13 abbf
00000630: 5dc6 abf4 240d c2bf b26f b2a4 1926 cebf
00000640: fef3 8d9c 2fa1 ec3f 234b 3876 583a dabf
00000650: d505 390c ceff d43f 4102 53e0 84c6 b3bf
00000660: acd4 7f41 6fc9 e83f 4244 c759 65ff debf
00000670: 1220 36d3 7b86 9fbf c818 a82f ff62 bcbf
00000680: 6f8f 84b3 307c c0bf 053b 1476 9b81 b7bf
00000690: 61e3 cc15 572e 9dbf ccbe 5ca9 f5b9 f13f
000006a0: d327 d999 4dba d4bf 2853 1653 ac6d e5bf
000006b0: 052c d628 db86 d1bf 5ae1 62bf 530a c6bf
000006c0: 821e 2605 6a9d d1bf 0f19 f6fa 307a bb3f
000006d0: 8939 b58a abbe dd3f eef4 e2f9 ce23 bf3f
000006e0: cc68 e0ed 40e4 de3f 9bf8 f60c 08e8 cfbf
000006f0: 49b9 60d7 e155 d03f 08f3 3e06 5eba b93f
00000700: 7f3a 37e3 b2ce 51bf ee25 afb1 b009 cc3f
00000710: c769 d535 0b25 e7bf a208 1ef7 0a73 8f3f
00000720: 3e3e 0667 db45 d6bf c479 2088 3e16 e1bf
00000730: e8ab e857 7608 b0bf f298 0427 9809 a23f
00000740: 83e1 8880 5e3b 8e3f e48e 8309 40a0 d3bf
00000750: 8125 df22 b401 c3bf 43ba 2c20 aceb c83f
00000760: 7492 837f 7bca bfbf a482 c221 3b7a ccbf
00000770: ad26 c18a 734a c0bf ffe5 26d0 e528 953f
00000780: 4966 f7a6 a7dc e2bf d9e3 bce6 b7de fc3f
00000790: 42d4 0372 bad5 8fbf 89f4 ef13 ba16 c6bf
000007a0: 9e03 2bcf e1c7 e2bf 30bd d781 0e83 c2bf
000007b0: eb9c 1bf0 79b4 98bf 6e30 cb14 5d17 d9bf
000007c0: cd80 db43 a190 d83f 26e7 ef64 833d 0240
000007d0: 578c 5577 d601 debf 38d9 6fed 343a e2bf
000007e0: 7381 a42b b4d5 abbf 6b96 fce1 e73b c13f
000007f0: 6c4f 7e10 08fb b8bf c538 51ce e144 fb3f
-0.17291791279316704 0.03317147968373103 -0.10233610590084145 -0.13989240868681718 0.0011196125342359412 -0.11611193823319622 0.002965455038469916 -0.13947061048959622
0.03374155368569586 -0.10579452468462529 -0.18341596848971656 -0.06525735032698489 0.05268060157585928 0.023425885717370025 0.007157680912811296 0.13485272301129644
-0.09599629919919198 -0.10161532277458853 0.016430304754185887 -0.1862518760731382 -0.131121592021992 -0.11150491903165911 -0.04953013210072561 0.033763918809304454
-0.08072983883749472 0.01832373372229005 -0.07530524353956977 -0.13293806075422607 0.010297702172996963 0.03835933961486703 0.024005814553805925 -0.1656296512875424
-0.09138604993083217 -0.012677338244219908 -0.005093369917420519 -0.1692809714788688 0.03948800928953279 -0.043039153711197035 0.007886331683883857 -0.08707518425250686
-0.06051394788014147 -0.020111239191321323 0.029036482542626356 -0.04097788322788872 -0.18129240466458227 0.014398311880368888 -0.03591205100952722 -0.0045620722077056464
-0.17033679711740896 -0.023927046148734837 -0.025395415627514784 -0.1640368662710101 -0.021581785336164904 -0.18587201735544653 0.04489404288978478 -0.010968760468485684
-0.06372698930216936 0.0543393855651854 -0.17749270189087815 -0.015246835073782527 -0.15353584098414375 -0.043262268047657336 -0.1549987908188405 -0.10412030859848583
-0.10117811015239851 0.056844418967247415 -0.05703435539584215 -0.17433108697753155 -0.03832754373861049 -0.008488758225724315 0.03806180202941781 -0.04040296325236665
0.13379552365715464 -0.15722766941980545 -0.04798492876002242 0.046849573720812686 -0.07067172123149879 -0.11353174853804501 -0.02702842652480263 -0.011077879106799434
0.04569978828652115 -0.10585865602782316 -0.12259215368981587 -0.1451482444476847 0.042860485463798705 -0.14380576238285994 -0.02790930603607824 0.02283340537721789
0.0002632052681811319 -0.1313743360457942 -0.12195840732764622 -0.06600379538289176 -0.0938321661287132 -0.025864880680052035 -0.0319932130106903 0.02812854469471255
0.0841213272730711 -0.1710683374438062 -0.05877640136377575 -0.06277321835891461 -0.0037173120094012007 -0.005544585697277818 -0.12564441577144217 -0.03689167139269045
0.0518231744772922 -0.09053182718465655 -0.01497911181118531 0.025330392512481637 0.03910184307418323 -0.1306341841004615 -0.00811079809222755 -0.07089790902455809
-0.17628856428291922 0.07442839110184768 -0.07532910777484146 -0.08064055096575524 -0.04966891497579165 0.09399156566154103 -0.1766666413760571 -0.0058982718346330286
0.06477620028261587 -0.04252030341644889 -0.16018441802350986 -0.09615963982477635 -0.042512201996815484 0.1844319957213581 -0.08923259243797671 0.06699429172196102
0.019000078610929453 -0.06133770429956044 -0.1640571449068759 -0.10867903582758312 -0.04229226652392196 -0.13185595209968334 -0.10570014148697403 0.01624186715468002
-0.09599407659915947 -0.09665976083710967 -0.1765109717651853 -0.10779140947286454 -0.06556040833622123 -0.005823675341421027 -0.13170239681049872 -0.08111410581354662
0.06077287376815242 -0.1621792646993878 -0.15805507242316635 -0.0939703872835368 0.022278395503214945 -0.020990758604610058 -0.005630765866222383 -0.05903642561014236
-0.15051298111670336 -0.11975751535901864 -0.013597112431564891 0.010785774192739177 -0.13118733170354893 0.005311935013996727 -0.07590249930121244 -0.12875492235081953
-0.12386266184285032 -0.012492725100587122 -0.06301642601844458 -0.016288131359745956 -0.11103237025445657 -0.020972704674982908 -0.03700473256987319 -0.042785797796722876
0.05800440591815355 0.048625406774041306 -0.0593853403706589 -0.078518378053117 -0.15505276879780633 -0.00040924044106798016 -0.05719295900385543 -0.14547015606368793
0.06000835050669553 -0.051673742368501974 -0.08670796044625351 -0.10535616447535828 -0.08021781512861031 0.07997090034642149 0.013651450727444888 -0.11896317663915429
-0.10889630102221395 -0.019208468765100732 -0.1770236772525314 -0.1252306434769921 -0.18426544107304335 0.0456639622169602 -0.1663332079490187 -0.1691892878405329
-0.4631313057009052 0.17322835123465904 -0.296173444708832 0.08960163587047214 -0.34213625591939045 -0.052886309958218684 -0.14102613398385958 -0.23553772489401364
0.8946760232644235 -0.4098111299983193 0.3281130904543635 -0.0772479102770456 0.7745891837390864 -0.4843381287328762 -0.03078645207054371 -0.11088557160846613
-0.12878998532789462 -0.09182140000141821 -0.028497086244189677 1.1079002967562017 -0.3238710405754521 -0.6696378348156928 -0.27385596263837925 -0.17219015927345077
-0.2752327966959244 0.10733324172005985 0.46476257844633345 0.12164014435525747 0.4826814959539092 -0.2492685378364897 0.2552418330477804 0.10049998905646984
-0.0010868784855692368 0.21904572177872644 -0.7232719470442185 0.015356145540639968 -0.3480137353990108 -0.5339653643348403 -0.062629124128463 0.035229449046072406
0.014761675164763904 -0.3066558926495715 -0.14848949148862903 0.19469214983969793 -0.12418338645108823 -0.22248019359996818 -0.12727207446214575 0.02066382487257634
-0.5894354115545833 1.8043746007153827 -0.015544373135052084 -0.1725685689306469 -0.5868996664286106 -0.14462453212716175 -0.024125962524434035 -0.39205100088725586
0.3838275110883956 2.280035770961052 -0.46886216787078666 -0.569605315917932 -0.05436480553385339 0.134640679688505 -0.0975804367320145 1.704316907812925

transform_generator.3.bias f8 [64]
00000000: 263b 1cdc 3d50 a9bf 2106 d22f 2f19 a2bf
00000010: 9ac3 e3fd e8cb afbf bc93 084f 1b99 dabf
00000020: 72ab bf13 8bcf a83f 1c16 f469 ab7a 87bf
00000030: bf3a a6e2 bc58 9bbf 2879 aa2a 51b0 a03f
00000040: 06c7 d4d7 8c25 b13f df15 66fa 1486 c2bf
00000050: 3ea0 e83a cf8a c2bf 98ac c440 fadc aa3f
00000060: 7a05 05c9 ae9c c4bf db3c e2c9 2da2 d2bf
00000070: c4ec 3df3 0776 bebf da1d 4ce7 5fea aabf
00000080: d2db ad47 27fe 95bf 7767 8d15 3048 bbbf
00000090: 446f e1c9 b8b6 a2bf ce0d 1f32 b144 cabf
000000a0: e55b d556 23bd c8bf 3279 789d 349a 95bf
000000b0: 9419 1dac 0edc b0bf 9acc 3f2e 44fb cf3f
000000c0: 14c9 eb10 085d bc3f 9387 37a9 0d61 bebf
000000d0: 9177 cab0 30db a13f c876 33fa 4e35 dc3f
000000e0: 5967 89a3 74ce b7bf 3e67 514e c2a3 6dbf
000000f0: 72f3 6628 6417 c53f 52bb 4496 32bb b7bf
00000100: 0848 d5da 1f7a cabf 27f2 c342 4fb3 8b3f
00000110: 4b22 430f c8fa b73f f5c1 5da7 f82f 8ebf
00000120: 720c 0862 7325 c1bf 5e1e e7e6 642a adbf
00000130: dd2e 622d 4587 d3bf 8cdf 98c4 28d1 93bf
00000140: e754 7c1a 4639 acbf 3e0e a51e 160d b43f
00000150: bf9d 2ac3 17e6 c9bf 0c18 19b8 12ec db3f
00000160: 70e1 174d c86c 933f 46bf 046a 7fe6 df3f
00000170: 16fe 4d5f 20b8 c1bf 78b9 00d4 08fa 623f
00000180: b1a8 9c6d c464 84bf 80a9 7834 db00 c13f
00000190: d9ee b481 16a3 d7bf 9684 64f2 20aa bfbf
000001a0: 75c2 8c23 788f b7bf e48f b8a1 df63 babf
000001b0: ec40 287c 6707 b9bf 2a44 3def 49ff b9bf
000001c0: 0498 3a76 189f c4bf b9b1 f095 4356 c2bf
000001d0: d99b ad04 cd4a 98bf b701 6245 6cfc b3bf
000001e0: 053d ba1f 1818 b5bf 22a5 e66b df93 c0bf
000001f0: bf0c eb0d 3321 c3bf ecbe 803d 8928 d93f
-0.049440320128374446 -0.03534839113946143 -0.062102585785289224 -0.4155948898135724 0.048458429489833046 -0.011464442416136804 -0.026705695470407017 0.032595192392579186
0.06697922009768939 -0.14471685625555517 -0.1448611295356858 0.05246717491748959 -0.16103157821093445 -0.2911486121674451 -0.11898851097605517 -0.0525693864674925
-0.02147733092303012 -0.10657024885349907 -0.036550306934002325 -0.2052213186963016 -0.19327203502572768 -0.021096059905283578 -0.06585780813211378 0.24985553987753378
0.11079454815970663 -0.11866841679832722 0.03487541349498636 0.4407536929482885 -0.0929940127620318 -0.0036181254422843747 0.16477634403954827 -0.09270015877403395
-0.20685194192134326 0.013525599694269875 0.09367037174809771 -0.014739935500728921 -0.13395540510836984 -0.05696406668317587 -0.30513123924241176 -0.019352566718424266
-0.055124464734186245 0.07832468269503409 -0.2023343756638791 0.43628375986406875 0.018969659524345983 0.4984434638345089 -0.1384315934519555 0.0023164913582355805
-0.009957823367205828 0.13283863126828166 -0.3693290964763328 -0.12368970792569409 -0.09203291767040318 -0.10308644960656427 -0.09776922970945962 -0.10155164805225128
-0.16110521099943764 -0.14325756856250196 -0.0237228426080057 -0.07807041829983673 -0.08239889883610736 -0.12951271790124347 -0.1494506662330419 0.3930991268743884

transform_generator.6.weight f8 [64, 64]
00000000: 6fbd 5538 1c2a 97bf 0cd5 14aa 70c3 c33f
00000010: b45a a220 1ade 8cbf f27b 6d18 2830 e8bf
00000020: c6a5 1255 bbb7 ae3f ebbb 8c7e bc1e a2bf
00000030: 4c0d a406 b974 bb3f dfeb 1e47 36d1 b23f
00000040: 218d d09e 0f60 9cbf 09ce 0a30 de31 be3f
00000050: 6011 2576 49da b2bf 300e 7b86 9a87 c53f
00000060: cab8 829d b4df a63f 9399 d69b 0a97 debf
00000070: 53f6 936b 9e09 c7bf 9d70 a7c4 1405 c43f
00000080: 443e 4418 aca6 b53f f0e5 e5c5 e632 c03f
00000090: eee9 7795 c062 853f 6a92 18a3 651d e4bf
000000a0: a9dc a2cd 5831 ba3f 7022 4380 dee4 c03f
000000b0: 717b 4e7f 98ab b33f 0635 f846 3f6e ca3f
000000c0: e9af f731 f7d9 c83f f250 31ef dc1e b43f
000000d0: 6dd3 e98f cf9e a23f 8e0d 5855 8323 873f
000000e0: e590 9f3d 7e65 bfbf dd5b 2d2d 0a71 be3f
000000f0: c7b2 6c2d 55a1 c13f 2430 5848 d5b6 a7bf
00000100: 6a27 3415 c994 80bf b7c2 d24c 1fa9 b23f
00000110: 2506 25cf 1ecd 99bf 6b33 672d 726d be3f
00000120: 509b 0b5c 25ce bd3f 03ed c79f 66f2 a1bf
00000130: 2bad 8938 f48f c2bf b3a2 42f3 0ac3 c23f
00000140: 3fea a2a5 842e b3bf 911a 782d 44ef e2bf
00000150: 7ffe b747 f644 903f f107 af32 ba87 e93f
00000160: d825 b15d 7038 ae3f 2dfd f469 0c87 c5bf
00000170: 53b9 481d 4ffa c53f 049d 4af9 143a c73f
00000180: 9754 cebf b266 b03f 727e f2a3 83f8 c2bf
00000190: c8cb f4a2 b044 d8bf 198b 804b 5703 a73f
000001a0: 2e09 2b24 c476 a03f fba1 7690 346e a43f
000001b0: e166 d151 6866 b33f 6955 21e4 cb26 c03f
000001c0: 10a1 aad4 4bef b63f 873f 070b 9548 a5bf
000001d0: c0e6 7d41 e2dc b1bf 753f f383 e682 d63f
000001e0: ad0e c536 a9d6 a9bf a5de d16d 1d19 a93f
000001f0: 16bd 9f3b 406b b9bf 0307 cd9a f2f0 d03f
00000200: 8851 529e 8598 c23f cdf9 83fd 8908 94bf
00000210: 16bd 0cd4 e63f c23f 0e1f 0f8b b7de b3bf
00000220: a86a 1cce b3dd a13f 1c0b a2e1 cd56 163f
00000230: b4d3 da9d 27a2 ae3f 0c78 787c 1f5d 80bf
00000240: 3d5d 48ec f655 bb3f 2a02 634f 5aef 94bf
00000250: 9ce5 1aeb 2348 c1bf 7150 18cd d718 b53f
00000260: f1fd 77b1 17db bb3f 2f9d c5f6 8065 c7bf
00000270: 6f8e de58 97c8 a23f dcfc bf53 8c28 b9bf
00000280: c93e 33c2 4c2e c83f ef8d a448 8a7b b6bf
00000290: 1b62 fff4 cce2 c43f 672c 491d 7233 c3bf
000002a0: d670 a6af 57e6 b43f 868e 620a d738 b1bf
000002b0: 02ce 15f3 39b4 ab3f 09f5 9181 932c c03f
000002c0: 3a69 e241 fcd2 85bf 7227 9ab9 0ddd bbbf
000002d0: 52a3 6a07 ffca c3bf efc2 e7fc 0093 aa3f
000002e0: 8bb6 c79a 3330 afbf f62d 6d2f 44e4 9e3f
000002f0: a2f2 e4ad b8f8 a0bf 5522 e7da e251 b03f
00000300: d84b cf89 b6b9 963f da78 9125 79ed c23f
00000310: d087 a63e d88f b7bf eeb7 b27a c0f2 ac3f
00000320: 4ded 5e10 4574 86bf 9d0d 359c e534 ba3f
00000330: 9958 8bee 3bd1 b5bf 352d 17b9 84f7 b0bf
00000340: 08cc e9a1 8b57 a0bf d5cf b5c7 0968 8cbf
00000350: f1b9 97ff 01fb b73f 14ab 87d8 b480 b1bf
00000360: 38ee 93a4 2c56 c23f 3824 f44c 4882 c3bf
00000370: d789 8456 240f c43f 0a6d e6db 29cd c43f
00000380: fc80 32cb f515 973f 3634 4208 d072 c7bf
00000390: d155 e96b 06b8 b4bf f6b4 65c4 14ac b3bf
000003a0: 856f 7d10 0f35 aebf 8237 7080 6458 6c3f
000003b0: a886 e754 25ad b73f c270 a4c1 49df 793f
000003c0: d4e5 df54 dc8a a13f 0204 5b51 2284 c73f
000003d0: 9d5a b077 fdc9 853f 32e8 9db5 5c21 b6bf
000003e0: cfc9 cdeb b371 c63f 1223 388f e1f7 c13f
000003f0: 6383 27ef 5fcf c7bf 6949 2c2b cb01 8c3f
00000400: 897c f0c6 2d1a 93bf 74c6 1309 3bc1 c3bf
00000410: 9838 232a 3071 adbf bdf2 4f42 ed5c f7bf
00000420: 808e 9d72 3dbf c1bf ba63 abd8 4fc8 d7bf
00000430: 0023 e9dd b8fb a0bf c4ac 2c41 b9f7 86bf
00000440: 5930 5747 e6e6 a43f 701b 9878 89cb 9c3f
00000450: b66a 6fa9 90ae 9e3f 2468 8406 8c9e bebf
00000460: e9ae d351 ec25 c7bf 167f acfc 883c 70bf
00000470: c3bf 509e 60fd c0bf 1d3c a9cb 62a1 aebf
00000480: a888 9be9 fd34 883f 414a 43ed 12fd 72bf
00000490: ff37 0fb6 e1f6 c0bf 4b48 ad91 9269 d2bf
000004a0: 786b e359 4533 bfbf a10d 0d33 eb5b c5bf
000004b0: a65c 8365 384f c2bf 4a4b 4785 ae26 d1bf
000004c0: f1fc a69c 891a babf 2eb9 b0fe 7562 ac3f
000004d0: 72d0 a5a0 68be c2bf 572a d92f 32be e1bf
000004e0: 8089 602f cc0b d3bf 1973 d87b 136b c3bf
000004f0: bae4 c89b 2c69 ebbf 9b26 3253 e8ec a03f
00000500: 295d 19f1 7845 c0bf b7ed f20b 2fff b5bf
00000510: e548 5f82 0075 c3bf 8fab 6cb2 ea28 bdbf
00000520: f14f bf47 5c68 843f c62e 55b2 df88 cabf
00000530: 2c99 53ec 7a3a e7bf b662 3a5d 0e65 cabf
00000540: 2c23 277f a115 9cbf 05fc 7de8 e731 bfbf
00000550: ade6 3f89 5291 c5bf 9474 a24a a71e b1bf
00000560: fed4 ebce d3fa c0bf 8d88 ccc7 45de ebbf
00000570: ea0d 0402 4eba 7bbf 08b5 8b5c d094 a53f
00000580: 6341 4663 3abb 80bf 44d7 eed4 3376 ecbf
00000590: a0e5 c649 cd5f e0bf 701d 2bf1 a8f1 80bf
000005a0: 5f4b 85e4 8d28 afbf 829f 72ee b492 b4bf
000005b0: bdb4 1702 cf2a a63f fea9 cca2 a3ed c3bf
000005c0: c8cc 9229 4043 b1bf 99f6 11c1 c5fb b6bf
000005d0: ffe4 bd84 d0a5 c5bf 12b9 6a4c d748 d23f
000005e0: 8e13 7b72 1450 a53f bd8f 3dcb 42fa c6bf
000005f0: fc88 3280 bf29 e0bf 940d c06d e850 e0bf
00000600: 8707 ae33 a25c 9f3f 0dd3 fe25 c84f bd3f
00000610: 8bf5 4c95 0208 b5bf 9471 9d1a e5a7 f43f
00000620: b11b 19c2 b2be e43f 208b 97e7 18e4 d3bf
00000630: 474f 7827 65bc b7bf 517e 908f a3bc bebf
00000640: 8846 dd29 2f31 7fbf f59b 8aa7 5bd7 a13f
00000650: bf92 0eb8 6acf c8bf 79ea 753d cf62 b93f
00000660: bbc9 fe75 7190 c43f 3670 dff6 b0b6 c5bf
00000670: 1525 3a24 450c d9bf e21a 1758 4832 b3bf
00000680: d8c8 b472 bb4f a73f 37e3 71d2 e668 c9bf
00000690: 515c e316 d867 6ebf e994 ddc5 b1ed a1bf
000006a0: 7341 f789 9029 c7bf 276f 9453 f0ff b0bf
000006b0: f2c3 9b94 1f84 d83f d89e b9bc 2679 c03f
000006c0: b877 9d17 548d e83f 7838 9d08 3de0 b8bf
000006d0: a33b d2ac 7127 edbf 8b85 d625 6cbe dabf
000006e0: 2d53 1066 c7c1 e03f 332a 3d4f 0720 a1bf
000006f0: 9037 0de7 28c9 c2bf ecc4 87ae cf1c d3bf
00000700: ffad c2ba 29ec cabf cd24 523a 5ff8 b1bf
00000710: fe1e 4e8d e846 e13f 1a7e 6bdc 49ba c0bf
00000720: 7eda e97b 6e11 c93f a64c a727 e254 c63f
00000730: 2094 1db6 a278 b53f 1d3d 7d03 04db e0bf
00000740: aa9f 9774 ed01 debf aff6 6a02 60ec e83f
00000750: efa4 5430 3c35 c6bf 8e42 c41c 725e d6bf
00000760: 0b16 8928 2dc6 a83f ee1b f3ba de2b 9e3f
00000770: f523 bf2f c149 66bf 3a1b 698e 28c0 a5bf
00000780: b069 b767 fdac bfbf a0ac eec5 3a29 e33f
00000790: aee2 7b3d c132 a0bf 9e88 ce92 f683 d13f
000007a0: 171b 1ee6 7ad7 e0bf 267a 6f6b 5ba8 e1bf
000007b0: 3269 cc4b c8bc b0bf fb16 35ab 7519 9f3f
000007c0: 90d8 8321 3f91 a83f 1b44 0986 1cf4 993f
000007d0: f6ef 0269 5c19 c1bf 87cd 47c8 bbeb 00c0
000007e0: 5934 24c8 19bf a2bf 434a 68c8 21a3 a9bf
000007f0: 36b1 de15 744c d13f c753 65b0 0753 d4bf
-0.022621575296793702 0.1544018583751171 -0.014095501061360018 -0.7558784939864138 0.05999551213728753 -0.035390749404875375 0.10724979793672168 0.0735048221239789
-0.027710193699147404 0.11794842408090046 -0.07364329466242259 0.16820079389991482 0.04467548773514947 -0.47796883791524997 -0.17998104336577345 0.15640506365059972
0.08457446663327867 0.12655338919630266 0.010442261277593592 -0.6285885034054222 0.10231547375120677 0.13198453200154203 0.07683709247656424 0.20648947682676794
0.19415178241558742 0.07859593238510224 0.036367880170394475 0.011298204462042685 -0.12264241222834789 0.11891234972914284 0.1377359840202159 -0.04631678112136253
-0.00809628578146589 0.07289310098236511 -0.025196534531693033 0.11885751350855649 0.11642678734970713 -0.035052496914397956 -0.14501812706598946 0.14657723310417267
-0.0749285606752119 -0.5917073143071595 0.015888069274295532 0.7978182783047015 0.05902434486103986 -0.1681838528984171 0.1717013257015859 0.18146001980242243
0.06406705076945439 -0.14820905213581487 -0.3791925040597417 0.044947364775245364 0.03215611402039752 0.039903299936955926 0.07578136441716367 0.12618397368593584
0.08958887044957842 -0.041569383236150385 -0.0697766694919677 0.35173952947388126 -0.0504658583982097 0.049019736915338265 -0.09929276900924253 0.26470627896570437
0.1452796004347301 -0.019563823793754587 0.142575124301836 -0.07761714119908111 0.03489457980159233 8.521682357990858e-05 0.05983089258135213 -0.007990118013420776
0.10678046482677402 -0.02044430837190895 -0.135014047429462 0.08241032368852232 0.10881183703167331 -0.18278514909182195 0.03668663940268579 -0.0982749657123238
0.18891295893126017 -0.08782257340913423 0.16317140543721184 -0.15000749998066285 0.08163974798521009 -0.06727355960406997 0.05410939304683994 0.12636035753886457
-0.010656328926689985 -0.10884176045706598 -0.1546324526036878 0.05190280043814776 -0.06091462387472032 0.030167642016108297 -0.03314759371503341 0.0637494835310773
0.022192814027061164 0.14787210783374044 -0.09203864602616751 0.056539549806401954 -0.01096395450792067 0.10236964286473556 -0.08522390912853196 -0.06627683180629591
-0.03191791869621602 -0.013870312125369747 0.0936738251691407 -0.06837015425086818 0.14325483356502544 -0.15241340405944626 0.15671209549425555 0.16251109349546083
0.022544708754709028 -0.18319130328419114 -0.08093299994046467 -0.07684449953895353 -0.05899855686467873 0.0034601176189487668 0.09248574564801493 0.0063164597616173785
0.03426254783694174 0.1837199113124655 0.010639171805491282 -0.08644656595234393 0.17534493459568387 0.1403772305787006 -0.18601607491930414 0.01367529607299352
-0.018654551760957126 -0.15433443015313097 -0.057504181998966064 -1.4601872053455474 -0.1386486825605182 -0.3716010681069367 -0.033170487488467515 -0.011214682866543042
0.04082412358147342 0.02812018202350991 0.029962787953858615 -0.1196067348395507 -0.18084482188657283 -0.00396398077535289 -0.13273246507878697 -0.05982502685639466
0.011819823924671916 -0.004635881359905059 -0.13253423108693593 -0.2876936361909698 -0.12187608189144139 -0.1668676375648888 -0.14304261166282578 -0.2679859448955325
-0.10196743082541439 0.05543869718563808 -0.1464358124172836 -0.5544672903573183 -0.2975950682322477 -0.15170520350593433 -0.8565886538191514 0.0330574609334466
-0.127120130275878 -0.08592504541132127 -0.1520081173499143 -0.11390559059206694 0.009964676799349067 -0.2073020573392254 -0.7258886924508139 -0.2062089877333812
-0.027426265130802083 -0.12185525346829713 -0.1684973879016999 -0.06687398502477243 -0.1326546440465463 -0.8708828832934771 -0.006769470899829136 0.04215098504742271
-0.00816960921727689 -0.8894290121886361 -0.5116945687251935 -0.008273429736972843 -0.060856279512015325 -0.08036356755712684 0.04329535389465764 -0.15568967293923203
-0.06743241324402327 -0.08977924312235998 -0.1691227577355576 0.28569586241327827 0.0416265859362631 -0.17951235698558135 -0.5050961974959871 -0.5098764556463942
0.030626806644711315 0.11449862411138785 -0.0821534742835494 1.2909899749421117 0.6482785979250051 -0.31079695335772506 -0.09271843160268843 -0.12006590132704643
-0.007615265114354515 0.034846176339946945 -0.1938298605647528 0.09916396379950666 0.16065805684554654 -0.16963779501281956 -0.39137390649610043 -0.07498600149765935
0.04553018355581323 -0.19851384425762728 -0.0037116261001802005 -0.035016589549550954 -0.1809559510861721 -0.06640531578562713 0.38306417000336446 0.12869724478809164
0.7672520123703555 -0.09717160663896773 -0.9110649466909887 -0.41787246413340345 0.523654651015567 -0.03344748346588169 -0.14676390916650606 -0.2986334995649276
-0.21033212298549128 -0.0701961057076403 0.5399058112970747 -0.1306850744503983 0.19584446955169094 0.17446543632704453 0.08387200304203235 -0.5267353122852999
-0.4688676489445195 0.7788543746207405 -0.17349960670370687 -0.3495145111965393 0.04838696594064736 0.02946422592210845 -0.002720715825465176 -0.04248167742166804
-0.12373336584224748 0.5987829080453544 -0.031637228732454545 0.27367939316366996 -0.5263037199482338 -0.5518014047955304 -0.065380590920914 0.030370558333081537
0.04798314365500389 0.025345273667259343 -0.13358645560754184 -2.115104260150193 -0.0366142327130567 -0.05007272311572255 0.27029134879809946 -0.31756775118020325

transform_generator.6.bias f8 [64]
00000000: 343d ce81 0c28 4ebf 5408 9262 4955 c0bf
00000010: 2a06 236b 1c41 df3f a772 15af 0622 e53f
00000020: b055 b1d8 fa75 aa3f 750d 6433 a4e6 bcbf
00000030: b752 cb10 d967 babf 628e 9f1a ca20 c2bf
00000040: 9459 e6d6 50e4 83bf f2f8 2bc0 8019 623f
00000050: b56a 2d64 3364 62bf cd42 bbed b93c c83f
00000060: d517 3027 2193 a7bf 01cf c1ed e661 bcbf
00000070: 5e02 21fc 7a75 6d3f 8f14 25ae ff10 78bf
00000080: f87e 8bfd 70cd b53f cdd6 c835 1a58 b4bf
00000090: a275 3b42 675a aebf 845f 472a 3a11 bebf
000000a0: 6422 19dd 010f c7bf ce61 2335 d5b7 a4bf
000000b0: 1617 0937 d076 313f 2d3c faca 8ca8 683f
000000c0: 25cd bbea 2eb5 7ebf f5d4 278f 40d2 b5bf
000000d0: 2267 386a a4e4 e0bf 9717 c1c2 9bf3 20bf
000000e0: 3616 0473 2a5a b1bf 6299 58be 5b58 b7bf
000000f0: f2a0 6158 42ba 6e3f 9d0e 6ee8 b9f6 b9bf
00000100: 68e0 1d56 565b 583f 5c5e 89ed e55c 713f
00000110: a500 ae24 26e9 a13f f47a fdef 4438 d5bf
00000120: 7847 410a 3213 51bf e64c 065f 8772 bdbf
00000130: 54c2 de96 1101 5bbf 33ea 338e 842b 85bf
00000140: b648 9812 0101 bdbf 70ae 063e 6023 aabf
00000150: 3a42 c028 89a0 b0bf 88e6 3dc2 e84c a8bf
00000160: 1640 5d3c b97b ce3f c555 035b 8f32 c1bf
00000170: c9e8 44b7 4d79 5c3f 5fa3 5bc6 a53f cc3f
00000180: 4911 d6ca fb8b 7d3f fbc4 fb92 066d 9e3f
00000190: d643 3273 020f b3bf 2950 0b82 0529 333f
000001a0: 8303 f98d 7b56 b8bf 4db7 c5ac 45a0 60bf
000001b0: 23a6 d6ac c6d6 b03f 5908 1fbd 957c e83e
000001c0: 65b8 818b 54e9 c4bf cef2 55d8 a6ed be3f
000001d0: e930 c3d3 71ab b13f 0770 6196 03af 973f
000001e0: 0821 b8cd 4bd7 913f 5761 ad50 c4f3 ac3f
000001f0: 4248 c99d 306a 52bf c504 fa49 15f2 7ebf
-0.0009203015393825288 -0.1276027423192 0.4883490606553972 0.6604035777669041 0.05168136496710518 -0.11289430861147827 -0.10314709339156534 -0.14162565517391373
-0.009712821539136475 0.0022094263707678136 -0.0022450450646095085 0.18935321910841765 -0.0460443840348003 -0.11086886696449129 0.00359605808719747 -0.005875586272229629
0.08516603651105104 -0.07946933568095034 -0.059283472857468725 -0.11745036632725997 -0.18014548583802814 -0.04046503327998928 0.0002664812409743795 0.0030100583897545636
-0.0074970085804466945 -0.08523944373139954 -0.527910430394716 -0.00012933040977907977 -0.06778207118994647 -0.09119199177857731 0.003750924664064675 -0.10142099308546411
0.0014866202477304084 0.004238985210200132 0.03498191068411075 -0.33155940472163015 -0.0010421742126891214 -0.11502882070481099 -0.0016482040186752882 -0.01033690985649569
-0.11329657272316038 -0.05105114705233127 -0.06494958157441824 -0.047461770735890474 0.2381507439372405 -0.1343554682158993 0.0017379054016389164 0.22069236932227462
0.0072135768545005885 0.029712774964484528 -0.07444777786646681 0.0002923620650510128 -0.09506962028627979 -0.002029548724911934 0.06577722282113334 1.1676149288212546e-05
-0.16337067424632604 0.12081377774843391 0.06902228755933816 0.02312856297827184 0.017422851973635495 0.056547293518351686 -0.0011239504593914128 -0.007555087242168306

transform_generator.8.weight f8 [3, 64]
00000000: f567 4f16 7cf5 b5bf 711b 7307 d9e0 a7bf
00000010: fbbe 6399 8f71 ca3f 1fd4 6656 af9f b9bf
00000020: 7013 2d50 2d68 5c3f 5cf5 09b0 deab a63f
00000030: b289 88bb 7107 a4bf 968d 41d0 b46d b8bf
00000040: a59c fe1f af86 bfbf ab97 8dbf 5dd6 c6bf
00000050: 6869 0f13 dd29 c8bf d04b c754 e650 b4bf
00000060: 1b9d e97e e653 9cbf ab27 8ad3 854f a23f
00000070: 368a eb3a 808b abbf e0dd 1eb9 83dd c1bf
00000080: 75c2 8217 13fa 993f 9f49 1055 914a 8c3f
00000090: a0de ebdc eced 753f a8e7 110d 9598 b53f
000000a0: a457 6a3e 06ac 983f bb97 4f76 cf11 b5bf
000000b0: 8cba 91ac 0dec 94bf 3a57 1b00 aeee c1bf
000000c0: 3ee1 1f7e aeae d4bf 2055 a9f5 ea03 70bf
000000d0: 63f6 0aa7 1362 d23f 6d8e 3359 a1f4 b9bf
000000e0: 21af 089c d2ea 923f 7ebc 5be5 5eed 3fbf
000000f0: 62fc b6f0 2dfc c5bf eb68 4448 5f78 aa3f
00000100: fed8 5a0a fc30 c4bf 88ed 1bb2 49fc acbf
00000110: 966c fb9a 482e b6bf 74ba 7036 a73c c93f
00000120: 712b 482c 2ecd a3bf 4217 797a 16b0 ad3f
00000130: 5771 1ef5 5ea3 c6bf 7337 a2c1 3d57 babf
00000140: 0bd2 2609 4267 acbf 5f82 187e 01b0 c9bf
00000150: 6826 c762 92f1 823f c9fc 2784 d95d 74bf
00000160: dc2d e663 c908 babf f5ab 80b3 4933 a53f
00000170: a401 e7d8 dd98 ccbf d344 e88d 98d8 b7bf
00000180: 198c 47fa fc86 c3bf ae58 b793 1e2c 9b3f
00000190: 2ab3 044e 8272 863f ab67 2f16 4463 ccbf
000001a0: 5350 8598 e2b8 9c3f aa5f 3bdd df66 c9bf
000001b0: aed3 1d2f b72a c3bf d243 6496 f171 c9bf
000001c0: 10be d97d 2859 973f 5003 d241 64e7 c13f
000001d0: eb7c 40ec 9f37 c0bf c955 9893 43a6 b9bf
000001e0: 0bab 6937 38fa 8f3f 24ad b501 b815 c3bf
000001f0: 1c8c f9a9 ed1d b4bf 6217 af77 ecf3 d0bf
00000200: 8e57 6314 2584 df3f f8a2 2343 f235 c83f
00000210: 794a 9841 3555 c0bf 467a 3cb2 12bb f6bf
00000220: 3c50 5eb8 3a32 6abf 27f8 4e2b 00b7 6cbf
00000230: bf79 a052 6b92 adbf ce37 f9b7 48d6 c53f
00000240: a49b 7d1e ae39 a2bf 8c91 860b 0af8 b1bf
00000250: 2b27 792d 1b1d cabf de35 b6f2 45c9 c13f
00000260: aca9 ebdf 77f4 843f 255a 2415 4668 fc3f
00000270: e986 f586 f12c c0bf d0f9 a27d 9150 bf3f
00000280: 56c3 3ed5 e9a1 d0bf 5aa0 6e15 9cd4 c1bf
00000290: f709 cf05 a826 c3bf d0f5 d89c ef74 ca3f
000002a0: 32b8 9afc 6146 643f 02fc a0f7 e532 b83f
000002b0: e7b2 7d4d 1b42 c7bf 2fae bd0e c234 aebf
000002c0: a92c cb19 0d14 a93f 4b0d bf89 f36b a7bf
000002d0: 308e b888 253f e53f a8c4 2d00 50e0 b33f
000002e0: 7fef eda1 037f 63bf b2b8 600f dfcf a1bf
000002f0: 6b37 9373 b212 b93f c9bc 0694 519c a6bf
00000300: 9e3c 7c68 73dd a43f 7e00 913b d51d e73f
00000310: fbf8 9312 6103 f63f 41ad c01b 11c1 d73f
00000320: 1bfd ba5a dbd2 ea3f 3d62 f2cf d1de bdbf
00000330: 489a ab23 8919 a13f 1845 9db3 e2b8 94bf
00000340: cb36 b8c1 9414 a1bf 7b10 35c5 f64a b3bf
00000350: 4159 c637 6daa c2bf fdfb 5741 19be a73f
00000360: ba36 6f9d 62b8 b13f 8fe5 5484 65a4 9cbf
00000370: 813e f883 be7f b8bf d4f7 0cdc dab3 b33f
00000380: 99ca 884e b93a b93f f90c 6d13 82f9 bc3f
00000390: 936c c68c b6bb b9bf b8c3 b651 d7c7 b6bf
000003a0: 90fc 144b 7956 acbf 0121 820d d120 88bf
000003b0: 1ed9 5dcd cd65 b43f b6e6 d0c3 90dd 87bf
000003c0: 8929 09ce 6aa3 bebf bd53 db9a 1b10 e2bf
000003d0: 63c8 112c 4007 c2bf 0c84 61bc f18a ac3f
000003e0: d3ba e33e e832 86bf f498 e749 42ce c13f
000003f0: 82e6 c36c c020 af3f 5943 d836 e520 9b3f
00000400: d195 223e 0bba bebf 0719 aba7 9c55 98bf
00000410: f9ae 20e8 36a7 b8bf 8f13 631b 19a8 b23f
00000420: 1f00 d801 8f34 b8bf ed28 ac9c c2c0 b63f
00000430: 4363 8a4a 6cfb a0bf ff4f b65a 1a1b a33f
00000440: e363 86a1 eda8 a93f 4f22 ce9a 2eca ad3f
00000450: 531f 9aed d4c9 a1bf 1be5 3628 34e2 a5bf
00000460: 3ff5 6207 2065 64bf 83f3 c972 34f1 ae3f
00000470: 2f0e ace1 4271 b03f f3bd 8815 0e7c a0bf
00000480: 1931 bd34 8024 b8bf b153 23ca ecce b53f
00000490: 111e 1ae8 1fad be3f 7dca 9c07 2757 b9bf
000004a0: b748 d91a 74ef adbf 2392 3204 0aef bd3f
000004b0: 6787 31cc 75c1 bb3f e3d1 bbdc e7bf b63f
000004c0: 99ef 0aec 0f22 bc3f ffe0 7dac 8104 593f
000004d0: 372c e957 4afd bf3f 3f75 5c14 2b9e 71bf
000004e0: 0f0d 5668 6021 8b3f 6f91 ba7d 97be 9fbf
000004f0: 3140 3171 368c b33f 8ffa 85e6 b317 9cbf
00000500: 9375 7fe8 f813 b4bf 0759 1523 0405 a13f
00000510: 939f c5a8 f316 bebf 77d8 b2ff 3dbf a03f
00000520: b707 ce9f d926 adbf 9f4e fb4b 3659 bc3f
00000530: db0e cb33 c98a bbbf afd2 363c 27af 923f
00000540: 17ba 6fff 2750 bb3f abd3 8b06 663d b9bf
00000550: 5dd7 6ac3 1527 b63f ff18 8750 e638 803f
00000560: 9d55 79a0 94f8 bebf 5b6c b42a c92f bbbf
00000570: af1e a29f c52f 85bf 1311 9261 55a8 bcbf
00000580: 2f91 80d9 2403 9a3f 3fed d5f3 bcc9 b6bf
00000590: 47b5 2232 5869 953f 3ffd 286b b06d b5bf
000005a0: fb0d d1f3 d3d1 acbf 6b12 312c e90f ac3f
000005b0: a97a 0803 9228 b23f c7e2 7502 836e 983f
000005c0: 8b93 5620 845c bd3f 714a 482c 28e2 b0bf
000005d0: 95ea d3d4 a687 bd3f bff0 7929 7634 a6bf
000005e0: 5fdc c099 926a a4bf 9fca 8714 34e1 723f
000005f0: af79 1073 0340 84bf bfe3 d94b 7167 b93f
-0.08577704949075822 -0.046637327346210074 0.20659060468414467 -0.10009284839073061 0.0017338221084212922 0.04428001307403903 -0.03911929525590398 -0.09542398533226612
-0.12314886599652881 -0.17841693738153927 -0.18877757483171398 -0.07935943193233119 -0.02766380452740434 0.03576296050330482 -0.05379868239630918 -0.1395725873860405
0.025368021306976424 0.013814101608691952 0.005353856321327705 0.08435947007265432 0.02409372096970909 -0.0823030151219361 -0.020431722314635567 -0.14009642605986433
-0.3231617194828863 -0.003909986315723729 0.28723613083625404 -0.10138901164787635 0.018473902486376596 -0.00048717085642997055 -0.1717584061970881 0.051699616977389194
-0.15774488931283054 -0.056612303726036706 -0.0866437319158869 0.19716348798961614 -0.03867477694082922 0.057984068346327536 -0.17686068504998317 -0.10289369561561816
-0.055475295655387745 -0.20068377167719384 0.009249824180091085 -0.0049723145225463805 -0.10169657410568028 0.04140692058748378 -0.223415118131027 -0.0931487413838739
-0.15255701275518233 0.026535489812737616 0.010960596090251313 -0.22177935679684188 0.02804903083718131 -0.19845197965946443 -0.14974107552157306 -0.19878978579848067
0.02280104892855489 0.13987401212582506 -0.1266975310872803 -0.10019323686022753 0.015613974753440304 -0.14910030444603095 -0.078581670758965 -0.26488792121778293
0.4924404811002824 0.18914631155282513 -0.12760034277797042 -1.4206721269944338 -0.003197779357785561 -0.003505230265061793 -0.057757715069090214 0.1706019304569381
-0.035596314641956256 -0.07019102841747421 -0.20401324959157682 0.13895487166557435 0.010231911202443232 1.7754574609622378 -0.12637156572150524 0.12232312505054854
-0.25988241028521963 -0.13930083319178516 -0.14961719783430258 0.20669360312051177 0.002474967365592406 0.09452664657236201 -0.18170491489163185 -0.05899626188223938
0.04898110332359213 -0.04574547821496341 0.6639583273249112 0.07764148716320796 -0.002379901022718955 -0.034789057376074864 0.09794154473931165 -0.04416136676751987
0.040752035622170654 0.7223917163282889 1.3758249974922012 0.37115886411875826 0.8382393619612317 -0.11668120695902302 0.033397946934020484 -0.020236532414235148
-0.033360146186266336 -0.07536260904913832 -0.14582600806597593 0.04637221262600375 0.06921974509824738 -0.027970873071557597 -0.09569922182003589 0.07696311828928454
0.0985523049101097 0.11318219160334654 -0.10052052437679242 -0.08898683304756971 -0.055347242751389136 -0.011781342720738499 0.07967840446312777 -0.011653071380453777
-0.1196810486809793 -0.5644662880464392 -0.14084627296284954 0.05574756073543349 -0.010839285296666478 0.13910702332140767 0.06079675033283839 0.02649267337079961
-0.12002630488367251 -0.023764083608306865 -0.09630149047069016 0.07287747305515622 -0.09455198092473481 0.08887878727924532 -0.033168205355826895 0.037316154073010914
0.05011694523563628 0.058183151623840794 -0.03474297905364545 -0.04274142256640286 -0.0024896264613675496 0.06043399716597888 0.06422822961399598 -0.03219646466129324
-0.09430695808004365 0.08518867430696166 0.11982917229226354 -0.0989860910019988 -0.05846751048797343 0.11692869760970175 0.10842071757499881 0.0888657487774434
0.1098947478557747 0.001526953348699733 0.12495865484486122 -0.004301231650768954 0.013247254547201352 -0.03100048737418731 0.0763582254742239 -0.027434168763188323
-0.07842975307672466 0.0332413952661899 -0.11753771658334093 0.03270906206437101 -0.05693702769987346 0.11073626856824113 -0.10758645548326788 0.018246281671695893
0.10669183717957541 -0.09859311733073521 0.08653388997012486 0.007921027500640053 -0.12098053853818276 -0.10619790356251839 -0.010345024046059718 -0.11194356567472523
0.02540261819389505 -0.08901577904719192 0.02090966993335044 -0.08370497337545134 -0.05628836013104529 0.05480889000367458 0.07093155454684087 0.023859068894554605
0.11469293393618167 -0.06595088082421242 0.11535113044730345 -0.04336900001814702 -0.03987558485862829 0.004609301985044083 -0.009887721013055321 0.09923465825876486

transform_generator.8.bias f8 [3]
00000000: 5541 0e79 b459 703f f511 86ce c41d c6bf
00000010: 7ec5 22ba b50c b43f
0.0039917993280059365 -0.1727834709564743 0.07831893724757852
