models/livneh-livneh/QM_SST_layers3/2000/1980_1990/R5noisy001d/model.pth (torch, 38964 bytes, 6 tensors)

transform_generator.0.weight f8 [64, 2]
00000000: 2b07 c39d e2fe e3bf 6f39 041e cac7 e3bf
00000010: 00a7 4b41 d808 e1bf 1037 220e 773f e4bf
00000020: 22a0 ee15 a0e0 c2bf d48b 9eeb 4139 cabf
00000030: 55cc 7756 068a c13f d315 658f ba59 bdbf
00000040: bf28 e6c7 86c3 e4bf a052 4df5 296a ddbf
00000050: c133 c3bd 3b0a dfbf 90e3 f931 9c8f c6bf
00000060: b699 966b 3774 d43f 1518 548c 22c9 c13f
00000070: ea90 a176 aa3f d4bf 5cc4 7098 6d7b 68bf
00000080: 7a79 1df5 f088 dbbf 8cb0 4d5c 5c3b c13f
00000090: e537 064b 5ccb 993f 2aad 44d3 132a cfbf
000000a0: 85fa c885 3536 e4bf c1f3 3656 2ad2 b2bf
000000b0: 92a0 42da 84fe d0bf a1fc 84e6 3248 d1bf
000000c0: b499 fa15 8935 e5bf 1b70 e1b0 f6cc e4bf
000000d0: 6f50 1e0d 41d8 c63f 8d57 5e02 4c9d dfbf
000000e0: beb8 3dcf e14b d1bf ab8f ea44 46e5 e3bf
000000f0: a3a8 08e5 a175 d6bf 9f6d 8f13 0f21 d8bf
00000100: 0102 1050 78d4 d8bf 6a39 b670 0a83 d0bf
00000110: de04 b28a 258f 69bf d322 6015 f906 9f3f
00000120: 2ed0 656a e572 d03f f1b6 f9c8 c976 e5bf
00000130: 428d 8872 e943 d1bf f19a 2177 3782 b8bf
00000140: 9d1c 61b4 8c32 d43f 734f 7afb c825 d9bf
00000150: da87 dc9e a09b c6bf c9d1 d758 545a dbbf
00000160: 14ae 7cea 8cc4 d63f 2cfc 3a6c 532b c73f
00000170: d15b 2cfb c643 c3bf 43b8 d1dc d131 e4bf
00000180: 3321 420f 2302 a8bf a398 aa9a 6f7b d1bf
00000190: 982b 4ed2 cf64 c03f 6acd 83aa 77c1 733f
000001a0: 5450 eec3 5a66 e5bf 6a6c 7950 7a78 b13f
000001b0: 399d e4b4 71e6 dabf 306f 2224 2ad4 d43f
000001c0: ba7e 77fd e032 d8bf 9069 f2ab b301 c7bf
000001d0: 4def 0f45 fde0 a43f 5435 7194 14e7 d0bf
000001e0: 72a3 2c44 47fd dbbf bd67 ba36 68e2 9e3f
000001f0: a3b7 2a31 cd31 debf 2bc6 56e9 f01f b43f
00000200: 00e1 0103 5a73 cabf 2e61 757b d125 b5bf
00000210: d404 d314 e907 c6bf e737 e8e4 5d19 c13f
00000220: bdac f33e 632e c43f a680 5b88 4379 dcbf
00000230: 83a4 38ef 9952 cbbf 981f 3b9c 78b6 e03f
00000240: 7353 a8c6 9f54 d8bf 04f8 f7d8 21c8 e3bf
00000250: fa04 5347 4e48 c23f 90cc 10ef 3f1c e4bf
00000260: 4b84 7e23 ab96 c8bf 48ba 83c7 1b74 a0bf
00000270: 6bd7 198c a1ea d8bf 7e39 0ebb e08f e1bf
00000280: 17a4 938a 2d4f 9f3f 0751 0c9a 944e 983f
00000290: 4cc6 151b 964f c33f 2c13 b64c fae2 d6bf
000002a0: cde8 ed7f 7c9d c33f e824 9c49 1967 74bf
000002b0: 8e94 3105 8296 d8bf d118 20ee 6571 bb3f
000002c0: 73e2 e4be f306 e5bf 1b48 a35a 5f03 dbbf
000002d0: 943c 1f12 ee42 be3f ffd2 42ae 4938 c6bf
000002e0: e702 1693 cba7 e2bf 1727 6449 16db 78bf
000002f0: 8ef8 126f 7020 e03f 8353 7749 a9b1 c5bf
00000300: 5c75 5d6f ab69 8c3f 9808 9013 71ee b33f
00000310: 3990 7119 6b03 e2bf 4aa3 a553 eda9 e13f
00000320: 76f0 4ed1 9414 c8bf 110f eafc fecc c7bf
00000330: 89ae 1621 ab34 ba3f b47f f307 3245 bfbf
00000340: e82e 9a3b fa05 9e3f f1cc 8331 b45f b33f
00000350: 40aa 97a0 8de7 a9bf b846 57a1 03c3 c7bf
00000360: 0b35 5d82 5c89 a5bf e2b7 de04 0b4b b4bf
00000370: 90fb efd4 6806 cdbf f004 01b5 77b7 dbbf
00000380: da61 f004 d7af e5bf 9339 c216 d23e e5bf
00000390: bc4b 83b7 ace2 e1bf 95d5 0107 57cc c73f
000003a0: 2c15 cd17 c281 dc3f dc74 85cc ad44 d9bf
000003b0: 170d 4c76 f64d db3f 8e9e bbcf 6fc0 a43f
000003c0: 91ad c82e a86a b63f fc03 b2f0 9ee3 d8bf
000003d0: ba5e 7cfe 93b7 d4bf 3472 8c7e 3b93 c4bf
000003e0: b705 7b59 e1d7 c13f 97bb 1529 a051 c7bf
000003f0: e7f0 8d06 71e8 dbbf af67 bccd 6374 d33f
-0.6248639184270578 -0.6181383692035477 -0.5323296809485498 -0.6327471996353058 -0.14748002119927245 -0.20487236027574218 0.13702468130176962 -0.11465040207720927
-0.6488679794577122 -0.4596047301795725 -0.48499959498877493 -0.1762576335929933 0.31959329134624725 0.13895065166451617 -0.316385856486035 -0.0029885426079308396
-0.4302332299902428 0.13462404734616873 0.025189821318740164 -0.24347160163720477 -0.6316173184385013 -0.07351936917161962 -0.2655346042106511 -0.2700316668669505
-0.6627850941920799 -0.6500199751567409 0.17847455158755873 -0.49397564154912105 -0.27025647390736285 -0.6217376085301017 -0.35092971197685524 -0.3770177546518542
-0.3879681379185343 -0.2579980946255974 -0.003120015453135324 0.0303000373169507 0.25701270475770144 -0.6707505154897416 -0.2697700136652267 -0.09573694857099803
0.3155853044049282 -0.392931218703999 -0.17662437207132947 -0.42738827396467777 0.35574648760913985 0.18100970062911992 -0.1505058981353771 -0.6310815155864095
-0.046891303646648196 -0.27315893272533226 0.12807653206649827 0.004823176808929611 -0.6687444521690034 0.06824459519104811 -0.42031519570669534 0.3254495003582063
-0.3781053996335505 -0.17973943610998022 0.04077903240246759 -0.2641040277129225 -0.43733388574269505 0.03016054948839274 -0.4717896442551767 0.07861238190414414
-0.20664525172083614 -0.08260831131099586 -0.17211640850840715 0.13358663251022948 0.15766563962765714 -0.44490135494380423 -0.21345829182363127 0.5222743083368071
-0.38016504669331325 -0.6181802022617835 0.14283159716254784 -0.6284484547853868 -0.1920980380355409 -0.032135837654881316 -0.38932074243290654 -0.5488132146290778
0.030575477202464976 0.02373726072535567 0.15086628267777014 -0.35760362140017565 0.15324360128926742 -0.004981135158012885 -0.3841862726897681 0.10719906867607
-0.6570986488723761 -0.4220808396468116 0.11820877020294268 -0.17359276779975372 -0.5829828140996057 -0.006068312699662368 0.5039598626533619 -0.16948429190838618
0.013873423896877561 0.07785708167651462 -0.5629172799058387 0.5519930490237155 -0.18812809200415231 -0.18594348286944087 0.10236615712954679 -0.12214958852882668
0.029319677245935788 0.07567907532557051 -0.05059473595959618 -0.18563886049246547 -0.04206360904081848 -0.07927006596466371 -0.22675810239158212 -0.43307297397775724
-0.6777148338761052 -0.6639185375695881 -0.5589202484355762 0.1859234604086565 0.44541981052710145 -0.39481682751450164 0.4266334681744452 0.04053067599107606
0.08756495611367245 -0.3888928747692828 -0.3237047181332674 -0.16074317626125068 0.1394006430546548 -0.1821785164460976 -0.43606210365375236 0.3039788731708723

transform_generator.0.bias f8 [64]
00000000: 89cb 9617 81b7 d7bf eb30 f0ed 4e27 e6bf
00000010: df5a 7358 4723 d43f 0347 b47a 3132 5fbf
00000020: c476 0699 4009 b5bf ef57 5553 7137 b7bf
00000030: ae18 e46a 203d ebbf 2614 c54d 9e05 da3f
00000040: 5d15 607e 5ab3 8f3f b97a 3d51 7023 d23f
00000050: 1717 5735 7494 e83f 614f e575 2c46 dabf
00000060: e437 87c4 0476 e2bf 78b1 9ec4 b21a cdbf
00000070: c2b4 271c 0524 b3bf e7c3 a0ae 5143 dbbf
00000080: cb33 1bb9 0a8d cabf 64b8 37fe 1b6c bebf
00000090: 2d7e e3c1 71c2 dabf f1e6 7ba6 275b 93bf
000000a0: c9b0 c86e 1606 dabf 5f26 64cb ce47 c63f
000000b0: 3413 ab61 5514 efbf 7eb0 9703 f112 c73f
000000c0: 5e48 fd24 d48d a73f b622 dcd6 ebb9 d5bf
000000d0: 3816 b791 478e b23f 7057 489a 4abe bfbf
000000e0: 63bd e905 7854 a83f 8277 24bc 7238 d63f
000000f0: d5da 443e 4c0c d13f 7c3a de20 8912 d0bf
00000100: 2bb7 cb1e fb5a d9bf e55d 66ef e96a d03f
00000110: 4232 d182 bd47 c3bf c962 c24b 545d e9bf
00000120: 4eec c1d1 d6db de3f c635 eca8 52f2 cb3f
00000130: bfdb ac5a 3961 d73f 2809 3574 777a e83f
00000140: a370 7861 2cb3 c6bf faf6 21b2 73c3 e3bf
00000150: 9e7a 336c 413a cbbf 819a 0b5b 1abf e23f
00000160: 2ca7 b6ea 0523 e33f 4ef8 2d04 04b2 7c3f
00000170: 18d6 15fa 4cd8 d0bf c3a4 6fb9 1c7c e5bf
00000180: 0a71 9675 12f3 e6bf 2b11 ce03 cf6b eebf
00000190: 4c13 fe53 55df bbbf 1202 9e32 1fe0 c0bf
000001a0: acd7 af53 36df d0bf c87b 80ab 573a c3bf
000001b0: b23d 62e8 932a cf3f 0f2e 0c13 7d3b d33f
000001c0: 2419 0671 c751 d5bf 6af6 83f5 ef11 b23f
000001d0: 1d4b a3aa 41f5 bb3f 040a f23a f557 edbf
000001e0: 0389 e415 5a2b c73f b5c1 0789 d0e1 d0bf
000001f0: 62c6 8a4c bd6a aabf 933b 4f7e fa52 d1bf
-0.37057521155946255 -0.6922983786803604 0.3146532405639117 -0.0019040568539065445 -0.08217242942779551 -0.09068973812586 -0.8512117469515681 0.40659291834555444
0.015478808385533222 0.2834130090103986 0.768121818714209 -0.4105330611539469 -0.5769065702859248 -0.22737726784306367 -0.07476837098484437 -0.42598383000864576
-0.20742925680533938 -0.11883711773381972 -0.41811794218480963 -0.018902415787102226 -0.40662155932183147 0.17406639987193537 -0.9712321193297613 0.18026554751793705
0.04600394202738366 -0.33947273237621844 0.07248351390361385 -0.12399736658730176 0.047519446107680684 0.34719532368932715 0.2663755996795037 -0.2511313267686217
-0.3961780358066444 0.25652550104993416 -0.15062683951909334 -0.7926427344965187 0.48216791614658383 0.21833260772875301 0.36530908446314564 0.7649495381995495
-0.17734293708133916 -0.617608879008656 -0.21271531852012954 0.5858279970387487 0.5980252823112315 0.007005706490302256 -0.2632019464720954 -0.6714004155920964
-0.7171718880304365 -0.9506602358165187 -0.10887654591176704 -0.13183965655845548 -0.26362379238650635 -0.1502179706012312 0.24348687025893195 0.3005058942805769
-0.3331163982151273 0.07058620208769076 0.10921106735194681 -0.9169870520857448 0.18101049489002471 -0.26378262884011444 -0.051595607369915766 -0.2706896050921667

transform_generator.3.weight f8 [64, 64]
00000000: c116 173c b667 bcbf afdf 7882 d17f 973f
00000010: 0984 5f6c 52fc b4bf 104b 9133 b185 c3bf
00000020: 43b1 e971 1a0b bf3f b3b9 1f93 f4ed abbf
00000030: df82 3a30 d6eb b5bf e5d2 cb6e cb43 d8bf
00000040: eff2 ed2b 613f bf3f ecc8 9c83 c024 b7bf
00000050: d7cd 32aa 647f e2bf 315f 7aa9 b4b4 b0bf
00000060: f9c1 4f29 a7de bd3f 80ca 6e88 7926 a33f
00000070: f683 3c07 c891 c0bf 2f11 84f2 c580 b63f
00000080: bbd1 43dd 8e22 a1bf 1188 5ec5 7209 b9bf
00000090: 8195 c032 ec96 a23f bb26 681a 95e9 bfbf
000000a0: 799d f85c 882f c0bf c56f 6497 70f4 b9bf
000000b0: b743 3c57 6b49 b3bf a332 e3bf 0dbf aa3f
000000c0: d84a f11c 3abe b3bf d5fa ea3e 7279 983f
000000d0: aa3e a57f f57b a6bf 4c1b ff30 f24e c4bf
000000e0: fd24 ba9d 20a3 b23f 94b4 2132 eca9 ac3f
000000f0: 9c77 8db5 4528 bd3f 5726 4b4b c80c c4bf
00000100: d577 c37f 1365 b7bf 9f33 f2d1 06d4 bbbf
00000110: 59d1 e990 908c 933f 28d9 6a16 3212 ce3f
00000120: bca2 3e4a 4436 af3f 417a bda7 b9e3 97bf
00000130: 635d 7453 9e1f 803f 5c1e 42c4 da2f bfbf
00000140: c1b9 d8b9 37ec aebf dbac 6546 3755 6a3f
00000150: 8f61 419e 72b9 813f c3eb 489a 7118 d8bf
00000160: 76dc c457 c4a3 cabf 4f93 b4ab 6a5d 5abf
00000170: fd3b 5316 6058 bb3f b78f 0f02 8e91 873f
00000180: c56e 630f 4936 bcbf 1fa9 5e5f e831 c0bf
00000190: 13a8 b288 d335 a23f 2e84 7d3e 7377 c5bf
000001a0: 01c1 b44b eedf a0bf 47e5 a756 d16d b3bf
000001b0: 9799 b188 cb6d a23f 7e4c f223 4ed8 843f
000001c0: 7fa2 7e84 82ce 59bf f9f1 66ea 5982 f4bf
000001d0: d6fb 6ebe 7d10 c4bf d48b 2437 6814 5fbf
000001e0: f02a 5ce2 6a95 c1bf 7b65 8907 0166 bcbf
000001f0: b2bf 7386 a1d2 c2bf e253 8953 3f35 98bf
00000200: 954b c34f 4252 b0bf bf57 4d3d c2b8 7fbf
00000210: 671d 4062 d340 b0bf fc93 1e76 b6ea c4bf
00000220: 2ec8 ad2b a664 8bbf 571a 416f 55ad a03f
00000230: 51a4 6dee 9bc1 8fbf 8e82 2202 beb9 d5bf
00000240: 67c2 3ed5 232e cdbf 8963 91f2 b5bf bfbf
00000250: 481f 0283 5ddc 4cbf d3c3 ecd5 aafc a73f
00000260: b3c7 f4e4 a0c6 b0bf ccb8 26fe 1386 a7bf
00000270: cea4 ca25 09cf 963f 9d71 d27c 3bd1 b8bf
00000280: 2d53 1839 31e7 b03f b887 68bb bb21 9abf
00000290: 6b43 d4e9 8345 c0bf b99f 84be 8e41 b9bf
000002a0: ddd4 a059 5b1b c13f 9872 e868 825c b3bf
000002b0: 1b27 53a1 b5a2 713f 29b4 07d2 68ba 93bf
000002c0: ca85 ba5a 8926 993f 84c9 1314 8cf9 b1bf
000002d0: 8fd8 e58e 2628 b4bf 89c8 698b e329 bbbf
000002e0: 0761 d84f a554 a7bf a767 726a 19fe 77bf
000002f0: bd24 574b 844a b9bf 522d a979 ee57 9c3f
00000300: 29b1 88ad f988 b53f 364a ebd5 0b4b c1bf
00000310: 95ab a2cf ddec aabf 1a6c 6866 b062 c3bf
00000320: b4fd cd92 68eb 593f 6a30 0490 9e17 883f
00000330: 670d 7098 0d4e b0bf 791e 0b2b e8bc a8bf
00000340: ca01 4da6 f59a bd3f eab6 a424 e577 c9bf
00000350: 2c68 4e1c fd8f 94bf fa2f 77c0 c541 d4bf
00000360: 55bd bf3b 59be c43f ab67 92f3 d88e babf
00000370: 3b89 d999 a2df b1bf 5dad 420a fb44 99bf
00000380: dab4 3399 25e1 c4bf 4671 49ec c2c8 ccbf
00000390: b75c 8248 22ec 9dbf ad05 c8ff c02e b1bf
000003a0: 876b ec87 1635 abbf 47dc ecbb f90c a53f
000003b0: 56ea f5a0 91d9 bebf 35a2 8576 c4cd 7c3f
000003c0: b1fb 605e c8c5 ba3f e037 3aeb 1ef2 c6bf
000003d0: 9aa2 0aa1 90c7 c4bf ccbc 9a9c 1a12 b8bf
000003e0: d036 6c96 8166 83bf f1e4 96d4 7308 ba3f
000003f0: 6175 b04f 39c9 b4bf beaa 2af4 0e4e c1bf
00000400: e928 1030 fa3c b43f ffd3 d897 68e8 5ebf
00000410: 3787 700a 61e2 c4bf 2502 52de cbc4 babf
00000420: dbab d01c 2ed9 a43f 811a 8faf 3260 b2bf
00000430: a765 9659 0e5e c6bf f22c 1811 34a8 903f
00000440: 2ffd 7b88 bafb c63f 886f b06d 45a6 b8bf
00000450: 251e 3f80 ccd3 b13f 55c7 79c2 3798 bbbf
00000460: 7f5c 520f f5a8 76bf 431a 7923 7f2f 77bf
00000470: b307 903b bba3 b1bf 17bd 3982 7d60 96bf
00000480: 7967 82f5 dbed be3f cc7a 8130 67bf c4bf
00000490: fc75 0eec fa3b c4bf 9b98 50f2 985c a1bf
000004a0: de0a ad77 9700 973f 1b5e 756e fad8 91bf
000004b0: ed42 f3d8 562c 77bf 51e8 b329 aae7 aabf
000004c0: c106 f318 6443 c3bf 2e93 15c5 3fa1 bebf
000004d0: d086 9ba3 f9b2 a83f 0ce2 dd1f c245 81bf
000004e0: ed00 2af8 43c6 b2bf dc7c 8568 1d46 763f
000004f0: b649 42ac 8b16 a5bf b2f7 4ce7 a7a8 b9bf
00000500: 2780 cfa1 76b5 bfbf c28b c645 7d86 89bf
00000510: d541 0a94 fe75 abbf adc0 6dae 2074 a3bf
00000520: 2aaf f69d fc6c bcbf 00e9 3e54 9e54 92bf
00000530: 1b4b 7940 6bec a2bf 98c0 d28b ebee a4bf
00000540: 4307 c96e 1ac5 ad3f 5ea1 d248 414b b2bf
00000550: cc5b 8949 8386 aebf 1575 1d98 6184 b9bf
00000560: 3359 2a2f 7ba6 a1bf 4271 7d18 0c65 36bf
00000570: df94 f6d8 14b4 723f 6647 ca4a 999a c2bf
00000580: 37a2 448c 56bc be3f bdbe 86ee c10b e6bf
00000590: 9796 5ffb 0c4d 9bbf 2b78 b263 2efe babf
000005a0: cc69 360d 27f2 b3bf abd5 50ac 4410 b33f
000005b0: d421 0eb6 53fe 8b3f 105f 6811 de8d bebf
000005c0: db10 0746 9901 a9bf 2ee8 331e e951 903f
000005d0: abc9 95c3 c0ac c6bf 119f 34bf 6709 c0bf
000005e0: 43ed 0736 9aa0 c7bf e12c 59b2 e8bb ba3f
000005f0: 2b30 4b84 8248 c5bf 8204 7c31 0090 d2bf
00000600: 3fe9 0ba8 e412 93bf 7f7f 6bf6 9ea2 7d3f
00000610: 41b7 bcdb ec0e a1bf 5250 6a06 5215 b6bf
00000620: a3d1 d5b9 ddd8 aebf efa8 8164 033a 9abf
00000630: bcbb a02a 8705 aebf 0d93 7c80 f256 c6bf
00000640: 4a57 830b de1b a33f 374a 8b05 d9ae c4bf
00000650: 19fa baf8 f1c3 a83f 4102 53e0 84c6 b3bf
00000660: e9a1 d685 b71f bebf 9cd4 82fb d084 a4bf
00000670: 2b52 d57a 192c b23f 77d2 0b0c 9f1c a9bf
00000680: c551 9a3e 2f59 b3bf 1e98 44f9 d3f4 b3bf
00000690: f5f5 3097 c832 713f bf16 f01d 7bbb 953f
000006a0: 374c 235e c3d2 b1bf afad 69eb fb63 c6bf
000006b0: eb18 1ea0 23f7 c4bf a099 4085 c26b c1bf
000006c0: 7f79 20b0 de92 c0bf 6815 a103 cc84 ab3f
000006d0: 35ce e1e9 8d13 bd3f 71b6 38e1 8f68 b2bf
000006e0: 65fc 0cf7 fefa b53f 6a90 2933 f4b8 b5bf
000006f0: 15e1 596d c249 d1bf df9d 3044 5f64 95bf
00000700: 7f3a 37e3 b2ce 51bf daf6 3e5f c053 c4bf
00000710: bddf e7ee 7208 bbbf 068d c1e5 f460 a1bf
00000720: 7ca1 38c8 42c3 c2bf 1320 747f 6a2c a0bf
00000730: 6e73 db4a 2e92 893f 83ee 537e c332 a5bf
00000740: ae8f fa20 7ff2 a13f e162 87b4 e385 b3bf
00000750: 8b54 d78b ae16 bfbf 718a 30fe ef7a c6bf
00000760: 9fbb 9dab fb22 8dbf cbad 8137 5cbc 6a3f
00000770: 0f78 4560 9734 b63f bb56 fb84 424b a5bf
00000780: dfc8 2944 28ec b8bf b8d2 4fde 74b3 a5bf
00000790: 4bad ae4b e6e7 afbf 29e0 e774 02e0 a3bf
000007a0: 4451 e244 561a c7bf cb49 5937 9c28 b5bf
000007b0: 23c8 48ef d8ca b6bf 7bc2 8fb2 249f a1bf
000007c0: 9356 d3ee 90b2 af3f b70a 41e9 dfb9 99bf
000007d0: f9a1 c31e bee7 adbf a0fd 98af 9d48 c5bf
000007e0: 90c6 e88d 2532 a0bf 8b3a bdd0 fdc3 bd3f
000007f0: 68ce 9606 e83d babf df4c 52e3 860b 833f
-0.11095751730962446 0.02294852598990332 -0.08197512765720218 -0.15251746194788796 0.12126317292285642 -0.05454983039804819 -0.08562983205275597 -0.3791378576272975
0.12206084558961171 -0.09040454114145619 -0.5780509304226439 -0.06525735032698489 0.11667866476614809 0.0374029139560621 -0.12944889405574117 0.08790242358015087
-0.033466782102468305 -0.0978004199846796 0.03630769843611415 -0.12465793509195582 -0.12645058192832062 -0.10138610550023859 -0.07533903960962972 0.052238874124303857
-0.07712138372998412 0.023900780763819924 -0.043914481956219234 -0.15865924255759933 0.07280162668952879 0.05598390685995827 0.1138957565539997 -0.15664008785670333
-0.09138604993083217 -0.10870401979100429 0.01909089931946659 0.23493028730963172 0.06096089750582709 -0.023329640257879317 0.007872807428198575 -0.1218239525934392
-0.060395947872496254 0.00321446224113729 0.008654494719096543 -0.3764919287383998 -0.20812277112574734 -0.0016091863352098617 0.10681725068137378 0.011508092344179361
-0.11020332933133677 -0.12652306229330976 0.03556691211390741 -0.16770782996448602 -0.032958456746543525 -0.07589443555470608 0.03599391978859783 0.01017819449615431
-0.0015751146874924125 -1.28182403148014 -0.15675327108871667 -0.0018969552734879784 -0.13737236073242043 -0.11093145784379559 -0.14705294671102603 -0.02364062259069389
-0.06375517318092101 -0.007744559047599907 -0.0634891619557628 -0.16341286437560132 -0.01337556668088177 0.032572431403015294 -0.01550599881530182 -0.339461805424471
-0.22797058021889713 -0.12401902362888796 -0.0008807617760035824 0.046849573720812686 -0.065530830285552 -0.045944809698413275 0.022274153644194432 -0.09694263265050158
0.06602771419450155 -0.02551930743550887 -0.12712143819274088 -0.09865657950706365 0.13364736439112948 -0.07563033162336763 0.004305562489386873 -0.019265783137530832
0.02456106773627712 -0.07021403780144025 -0.07873764980999652 -0.10610792306559537 -0.04556767081902718 -0.0058575623326308284 -0.09879328574529019 0.027679182220066885
0.0841213272730711 -0.13510272927540407 -0.05258839759456816 -0.15144925117860525 0.0015820046639588416 0.011763800401716835 -0.06369099589942594 -0.048316245321584135
0.11564574537351927 -0.19897140778760242 -0.020080523350408594 -0.3165144328638686 0.16205897729330823 -0.10374217936114742 -0.06981865173432748 -0.024677202702759405
-0.16312093716206882 -0.22487675225682774 -0.0292210919147606 -0.06711965794240511 -0.05313940438482861 0.041114620390026384 -0.12050733737661665 0.007032172616483969
0.10458042434855376 -0.17926393972123744 -0.16234023917538282 -0.0940262443862025 -0.009472858813320967 0.1016914743439832 -0.08119543262042363 -0.13519465372276857
0.079055439695512 -0.0018864652078154351 -0.16315854081863687 -0.10456537416212848 0.04071945287463282 -0.07178036485775331 -0.17474536299122898 0.016266644996034203
0.1795571485927012 -0.09628709724387197 0.06963804369944933 -0.10779140947286454 -0.0055322239542398 -0.005660530695939916 -0.06890459255376306 -0.021852456162773395
0.12081694358712793 -0.16209115856596268 -0.15808044935413068 -0.03390958745903668 0.022463194541397218 -0.017429268829202465 -0.005657519576929043 -0.052548711386365306
-0.1504941102812634 -0.11964796601894243 0.04824047205125981 -0.008433834645743786 -0.07333779152577664 0.005437960506554176 -0.041187634256079006 -0.10022973439205776
-0.12386266184285032 -0.01246354932010785 -0.05363460118417477 -0.037995358746117126 -0.11103800636800246 -0.017900918857528758 -0.036959983463608924 -0.0408853157217674
0.05814440348014085 -0.07146080043697142 -0.05962000153220223 -0.09967622722384235 -0.03447327566861915 -0.0003417162447385721 0.004566270289989321 -0.1453429808794297
0.12006131100191274 -0.6889352472989781 -0.02666111263524459 -0.10544099744808537 -0.07791370461055819 0.07446698386123411 0.013668683999427701 -0.11935222554199876
-0.04884032230214227 0.015937464207105893 -0.17714700269750713 -0.1252870257969723 -0.1845886958907191 0.10442976335723443 -0.16627532443669799 -0.2900391085859796
-0.018626759297128755 0.007235165546006671 -0.0333169954522945 -0.08626282364485974 -0.060248307166065794 -0.02561192799513717 -0.058635925248715165 -0.1745284201980656
0.03732198610820932 -0.1615859295912558 0.04836994324931627 -0.0772479102770456 -0.11767146127261409 -0.040075808240922245 0.0709854054342222 -0.04904648801849459
-0.07557959822071954 -0.07795452914851395 0.004198821599002302 0.02122299547411077 -0.06962224052703979 -0.17492627138868275 -0.16379208868256198 -0.13610106951200596
-0.12948211288398778 0.053747535174390404 0.1135796257020097 -0.07190798996517757 0.08586114436637755 -0.08485342263299037 -0.27012692145173506 -0.020890701806051012
-0.0010868784855692368 -0.15880589152032237 -0.10559767086658574 -0.03394284538878804 -0.14658388878275364 -0.031588867243101636 0.012485849055730216 -0.04140292088592636
0.0350532272107381 -0.07626174123232544 -0.1214398471268671 -0.1756267539177148 -0.014226881193932615 0.003263645277959281 0.08673997974753454 -0.04158981202423947
-0.0973534742750277 -0.04238476957099152 -0.062316128481450926 -0.038818432589266934 -0.18049124110678794 -0.08265091277397756 -0.08903270570661496 -0.03441729240137633
0.0619092265639384 -0.02512311803026065 -0.05840868115939552 -0.16627856325247325 -0.031632588932905326 0.11627184244319204 -0.10250711594454176 0.009299329578686897

transform_generator.3.bias f8 [64]
00000000: fc2e ad04 0c9e aabf 895f e437 ad20 6e3f
00000010: a24e 1b87 3ec7 afbf 9418 adc0 95f0 b7bf
00000020: 48a3 96ea 728e ce3f 58a7 f956 b2ae b33f
00000030: f4dd 50ba 4216 a3bf 639c 0da2 0170 90bf
00000040: 2c8f 4c83 75da b7bf 4116 b5e6 c433 c0bf
00000050: 1ef6 c13d 5538 b7bf a728 fac7 5e06 893f
00000060: 9e7c cb36 257b c4bf cbf9 481b 1480 bfbf
00000070: 9152 ea95 521a b0bf 584c 3d79 ed28 b0bf
00000080: b7e5 46f3 be01 9b3f 73f2 1936 6696 b6bf
00000090: d1b0 9088 a769 b1bf c104 b6fc 83f7 adbf
000000a0: b4e9 934d 249e bcbf e331 d02d 8468 d3bf
000000b0: 37d1 fcdf d7d0 b0bf 1023 4598 bbf6 c43f
000000c0: df44 fbac 5acd a1bf aee1 e835 82d0 903f
000000d0: 7630 7d55 e975 b3bf 7896 6df0 4fc2 953f
000000e0: eb77 a6b0 bccc b73f 8767 2e7a 0ca0 a1bf
000000f0: 9d56 f456 a2d5 bbbf 828a 2f38 041a a83f
00000100: 7d5c 0da8 81a9 b03f 9971 8638 35c8 a8bf
00000110: bc31 e70a 344a 83bf deae 1837 df3f 90bf
00000120: c720 906f 22fa d2bf 0480 b593 5789 89bf
00000130: 3612 56bf b598 c1bf 99a8 56bf c423 a0bf
00000140: dff4 2f94 f536 b5bf 70b2 38b6 6dac b33f
00000150: 52f8 29f2 e4ed bfbf 2caf 5bfa a5bb 96bf
00000160: 8953 9c47 466d a0bf c8d9 7d16 af07 653f
00000170: 8b95 9f20 5339 c0bf 8ac5 9236 1cbb 87bf
00000180: 07ff 0c6e a3ed a2bf c89b fe22 c300 c2bf
00000190: 7a12 c54a a7d1 8abf 645b c6d3 b749 cbbf
000001a0: 809d ab86 cee5 c1bf 19ac 803b 000c c9bf
000001b0: e6a3 b102 5de5 b5bf dceb 4322 5596 b2bf
000001c0: ee07 4352 5f38 bbbf 8227 8b6a f6b8 c2bf
000001d0: 4b4b ea06 a0e6 a3bf 1a26 538e 3870 c33f
000001e0: 410d aab1 5784 adbf ed74 9baf 976b c0bf
000001f0: 786d 9499 9530 b0bf f3de fef4 9a99 bf3f
-0.05198705250822219 0.003677690808341742 -0.06206698798419309 -0.09351478532798502 0.2387221951915086 0.07688440917413908 -0.037279210322989004 -0.01605227042764702
-0.09317717032950829 -0.12657986893661824 -0.09070332296138203 0.01221918151647501 -0.1600080983689382 -0.12304807344569395 -0.06290165100137758 -0.06312450609157005
0.026373847578474243 -0.08823241062959557 -0.06801840862380294 -0.0585290189728851 -0.11178805250157248 -0.3032541701693658 -0.06568669527479619 0.16377968726217107
-0.03476985322562042 0.016420397320162365 -0.07601793610700888 0.021249054956021557 0.09296778977156321 -0.034424199976640195 -0.10872854826842589 0.04707349000797924
0.06508646347843867 -0.048402465009732505 -0.009418875296341216 -0.015868652093714235 -0.29651699919533 -0.01246899051210449 -0.13747283785427705 -0.03152289233851597
-0.08286986224989644 0.0768498010517733 -0.12472372925000855 -0.022200196653030677 -0.03208369850305021 0.002567140549156497 -0.1267494115156008 -0.0115873531488855
-0.03696928709405083 -0.14064826210707637 -0.013095194787305465 -0.2131871971184537 -0.13982564521505125 -0.19567873864556942 -0.08553105655450075 -0.07260639273219688
-0.10632892378183076 -0.1462696094734462 -0.03886890491880609 0.1518622107453645 -0.057650318563015286 -0.1282834632355966 -0.06324133872515414 0.12343758088433869

transform_generator.6.weight f8 [3, 64]
00000000: 4413 7ec0 6908 5ebf 405f 55c0 0bb4 8f3f
00000010: 204f a149 e52f 8fbf b0ed 9df1 73c0 82bf
00000020: dd3c 8618 55d2 a5bf b6ee 93a3 c58b a7bf
00000030: 8133 c6fe 4ff1 86bf de9a df6f 3e5a 78bf
00000040: cc5e b766 2e32 b23f ea55 3b43 3ad6 90bf
00000050: 078e 3dcf 2fdf 943f 3ef9 1a3c 3d52 a93f
00000060: dbe4 2e87 bed7 a53f 2b50 5e9b 3aa0 acbf
00000070: efb1 a72d 1171 aebf 0453 f3ec 606a 7a3f
00000080: 7571 dd17 175a 783f 7f8e 986e c111 913f
00000090: 6739 7827 743a 943f 84ee a30a 3dbf b23f
000000a0: bc96 2c72 af7b 8b3f 1c34 2e4d ab2e d13f
000000b0: dd6d 30ef 2e76 ae3f 26ea 7ca0 5d38 a8bf
000000c0: cde2 f385 4087 733f 6484 02fd 0892 86bf
000000d0: ceeb 8f6e a5ed 753f b4d2 6121 da11 793f
000000e0: babc 1b86 5c9b a6bf 23fe 2c73 fc56 67bf
000000f0: 119e 66ce 1d7f 6c3f 4424 2e5c 4b3b a9bf
00000100: 9559 9011 1dec a8bf 5ac7 5d32 d9cf 86bf
00000110: e0e2 0878 7671 733f 6c92 79c2 b1d8 9abf
00000120: c37b acd0 c9bd afbf a594 e0ea d05e 533f
00000130: 6528 88a1 f772 a73f ab1b 0070 840b 6fbf
00000140: 665f cc06 bee0 7bbf 9653 5f19 0ae6 9bbf
00000150: 0192 6309 3c9b 8a3f c977 3241 69ae 843f
00000160: df2a b7cc 69e8 a33f a6fd 7511 90a1 673f
00000170: 2c8b 7c89 f5c8 a93f a2c0 485c e6cc 713f
00000180: 062a e28c bdf5 8a3f 9247 71bf 7a0d adbf
00000190: 512e b204 b487 ab3f d9a2 721c b086 a23f
000001a0: e2cc d9c1 bd6a a33f e32f 22c6 84a1 953f
000001b0: 68e7 e233 f890 87bf 6e48 bf86 8cd4 793f
000001c0: 204a 881e e96f 88bf e50d aa87 6eb2 a5bf
000001d0: ae20 f243 5d4f 693f f716 f95a 30b5 a5bf
000001e0: 8e38 bf54 5bf7 aabf 7dfc ba02 4b00 a83f
000001f0: 3602 9fc8 77b6 7fbf d229 4e00 0292 9abf
00000200: f8b1 428b ea5e af3f 779a 0d10 fde2 c0bf
00000210: 608e 8a89 90f0 c13f bd83 cd2c dcd6 b93f
00000220: ba1e ef94 5fa8 8abf 23fb 7df4 e38b ab3f
00000230: 049b a611 c845 b33f 84e2 06b8 a64e 86bf
00000240: a544 76a4 8240 c13f 9d81 6185 822c b5bf
00000250: 3447 aeaa b3d6 bd3f 4f9b 8aa9 1426 92bf
00000260: cfeb 3746 236c b93f 5340 4a17 7ae5 883f
00000270: 66ed 17a7 5261 b93f b4ff 742c 9587 94bf
00000280: 2738 9090 867f ac3f 86e1 fe18 2ec8 88bf
00000290: 0935 d136 e86c c33f 7356 1652 21f9 893f
000002a0: d96b 4ff2 a41f 92bf afd8 6dc9 4bec ca3f
000002b0: 037d 59b1 6846 8dbf 2170 3bdf 00e3 a73f
000002c0: 9e66 387b 439b af3f 3204 9c12 066e a6bf
000002d0: 9bdd 6980 57a9 963f c64f ca62 f4b3 b93f
000002e0: cf46 aece 480c 953f 9a54 0298 3d5c b5bf
000002f0: 4a63 0ed1 0cc8 a23f 0fdf 6b12 4e87 d63f
00000300: ebed 649b cf00 a83f a251 0c0a 22a7 a63f
00000310: 571b 4647 6d6f a6bf 1c39 ce6f 0475 bbbf
00000320: 600e 08fe e025 95bf eda2 3fc2 2d80 c93f
00000330: 6258 7bda 3933 a63f 8dc6 c3fd 4510 a73f
00000340: 8de2 3382 863d 513f 6e88 bcfc aa12 a9bf
00000350: 9ed9 e24a 49dc b43f cba8 5353 bfd3 97bf
00000360: d440 0bca 5df8 c03f 8d78 b7c6 ed38 aa3f
00000370: 5c34 3dc2 8102 7e3f 568e 0844 2334 c03f
00000380: 1eff 30c9 bb80 753f 498d eca5 84ed a7bf
00000390: 95a2 e301 4bb2 a03f c53b fcc4 c1ee afbf
000003a0: ce71 568a ee79 a9bf 7b5c 9301 5825 9f3f
000003b0: d8c2 a1a3 b6d5 b13f b0e0 21a8 1ba1 9f3f
000003c0: 0fc9 532e 7617 923f be47 244e 29a1 c53f
000003d0: 4616 45b7 10e0 aa3f 3877 0545 ff7f b5bf
000003e0: 3781 bb2f f736 c33f de13 e559 a63b c13f
000003f0: 4a0f 5b23 07e6 773f 2a4d 72df 49a5 b13f
00000400: 4f1e a59f 8233 a53f 330b 359a 8f1d b8bf
00000410: 7fd6 2129 94e5 643f 5517 ff72 58a6 bc3f
00000420: a3ce 2fb9 bba8 a9bf a315 5258 1a01 b5bf
00000430: 8f8d 4c09 3a95 9b3f 1752 61e4 a50a a93f
00000440: 5d6b 2d16 6208 b83f b3d2 0f66 a792 b63f
00000450: b34a 3fa9 0a15 b73f 2fbc 6305 dd35 aebf
00000460: 8f81 d92c 27ef bebf 4f28 74c8 787c aa3f
00000470: 633b 82f2 998e a5bf ff57 7ed1 42de 303f
00000480: 5f59 8ee1 986c b23f 25dd 75a2 ac72 b03f
00000490: 15a2 132d 368f b2bf 93e6 9bc1 2f96 a7bf
000004a0: 937f 5339 bd49 a1bf 7d70 6ea2 af48 bbbf
000004b0: 8d1f a65c cf13 b3bf afbd 412b 1db4 b0bf
000004c0: d74a 315e e8dd a9bf f737 337c f091 bd3f
000004d0: 5f8f ff13 5dbb 76bf 6bb7 d45c a750 bdbf
000004e0: 032d 306b 341a ad3f fb99 28be b116 b7bf
000004f0: 1741 30da 12d4 b3bf bf89 2e1f c40a bc3f
00000500: dbd3 29f0 d122 b1bf 0742 e148 727b 9abf
00000510: 3f23 c6da e8c3 66bf a39a 9d7f 0f92 abbf
00000520: 4388 d981 d8ed b13f ff6f 40b7 842a b4bf
00000530: cfde ec72 3950 bfbf 9f20 ce02 a76c b2bf
00000540: f3b1 9d7c ec47 a83f c19b 1a2d d5e3 bb3f
00000550: e110 2b5e 4f9d bbbf bf0d 1008 1a6e 863f
00000560: d310 1a62 da90 b2bf 2fb8 2939 a525 be3f
00000570: d372 d82e 3d48 ab3f 8fd6 f082 e42b ba3f
00000580: a370 474f 019a aa3f 3fdc b6ab db20 b0bf
00000590: ffb0 b89e d15e 44bf cd76 d594 d7bd b43f
000005a0: 87ac ee13 b32d 903f 7f15 d6f9 16e2 833f
000005b0: 5740 2730 f97e ba3f d7ef 18d2 f4c2 b2bf
000005c0: 5f77 0cd8 dd30 7dbf bf24 0159 0145 9ebf
000005d0: 2b74 35a5 a1cf bbbf 3b72 3672 4d94 b23f
000005e0: 1188 9b8b d307 ba3f 0fb0 f891 c48b bebf
000005f0: bb7b 20af 3194 aebf 512b 85f8 8958 b5bf
-0.0018330605252867152 0.015480129057933945 -0.015228072461617226 -0.009156137286246174 -0.04262033390397744 -0.04598825094032348 -0.011202454531280772 -0.005945438284448127
0.07107820518228464 -0.016442213395597628 0.020382639907792235 0.04945556029041363 0.042661623002865766 -0.05590994974696203 -0.059456383536460204 0.006449106803491093
0.0059452917174350655 0.0166692947151561 0.019754233273539337 0.07323056707167025 0.013419504806346232 0.26847345864445216 0.05949541730680228 -0.04730503639298815
0.004767658275561981 -0.011020727368590673 0.005353590219779171 0.006120540687437771 -0.04415406357826997 -0.0028490954076969706 0.0034785825875649564 -0.049280505182715234
-0.04867640342142746 -0.011138626908834649 0.004746878403744076 -0.02621724843483479 -0.061994845126029506 0.0011822738847595906 0.04579900595497647 -0.0037896715803102574
-0.006806127825960439 -0.02724471835957195 0.012991398846176063 0.010098287870558569 0.03888254760712128 0.0028846563179169725 0.050361321480769966 0.0043457983452272215
0.013164025175020033 -0.0567434652990776 0.053769708226437125 0.03618383738768722 0.03792374602644501 0.02112395724593331 -0.01150697620720438 0.006306218081549726
-0.011932202572130512 -0.042376951275425324 0.0030896016683677674 -0.04239798651228271 -0.05266843232640027 0.04687723549204124 -0.007742374329553095 -0.02594760062087593
0.061271028041435416 -0.13192714008183135 0.14015394893532385 0.10093475431268835 -0.013016459210020915 0.05380165442965381 0.07528353148391537 -0.010892202845625983
0.13478119879122122 -0.08271041637772787 0.11655733983050426 -0.01772339138792783 0.09930630173032216 0.01215644248557638 0.09914127902441336 -0.020048456991616795
0.05566044344605841 -0.012100563180738499 0.15176108051893092 0.01268220931778361 -0.017698838509982415 0.21033618293194453 -0.01429445067623059 0.04665377354623979
0.06173144225267645 -0.04380816437879566 0.022130362713566148 0.10040213977691712 0.020554673781197515 -0.08343872986945869 0.03668251087146375 0.35200835989915985
0.0468811871710065 0.04424387333543513 -0.04381886954347774 -0.10725429277065185 -0.020652308945513176 0.1992242048720735 0.04335957328810093 0.045046031214849604
0.0010522664604747684 -0.04897054991876436 0.08148630216860517 -0.02326868959509269 0.13257953992297777 0.05121558237782251 0.007326609487631943 0.1265911180681651
0.005249722994505905 -0.046733994726560875 0.03261026762067335 -0.06236844567876391 -0.049758390795634364 0.030415892692726914 0.06966725821417741 0.030888015877707786
0.017667624070733242 0.16898075404657037 0.05249073254757923 -0.08398433146564066 0.1501149161404187 0.13463286771198474 0.005834606059298706 0.06892835335957118
0.04140861700812747 -0.09420106425117751 0.0025508779299865942 0.11191323096781265 -0.05011545787411122 -0.08204807907357874 0.026936442201202445 0.04890936291545616
0.09387791673127084 0.08817526094191912 0.09016482002270258 -0.05900469485083481 -0.1208366856094527 0.051730894536448184 -0.04210358701049335 0.00025738841349587366
0.07196956164111644 0.06424979177778718 -0.07249773598199057 -0.046067707427892256 -0.033765710113356516 -0.10657785144434402 -0.07452102672516343 -0.06524832063745721
-0.05052114629565601 0.11550810844639146 -0.005549777590179022 -0.11451192871456121 0.056840551456923925 -0.09019003765624937 -0.07745473696582326 0.10953927766107706
-0.06693756211627948 -0.02586153573821728 -0.0027789638463144024 -0.05384872849281421 0.07003548784408146 -0.07877377962034869 -0.1223178773478779 -0.07197040384756058
0.04742373486701359 0.10894520140810383 -0.1078691105749985 0.010952189799360633 -0.07252278227867075 0.11776192327099076 0.05328551480144985 0.10223224827572096
0.05195621578943246 -0.06300137464755638 -0.0006216548476394578 0.0810217607845189 0.01579932984502055 0.00970857572498107 0.10349996018999384 -0.07328729752856532
-0.007126680925265776 -0.02956010919323115 -0.10863695414941847 0.07257541693110962 0.10168192060839966 -0.11932018817668698 -0.05972438109187502 -0.08338224713695054

transform_generator.6.bias f8 [3]
00000000: 08ba 2496 a658 df3f 3dd9 666c 2abe 5fbf
00000010: e8ef 7fe6 8c3f 9cbf
0.48978581106612795 -0.0019374288836907082 -0.02758617550715306
