models/livneh-livneh/QM_SST/2000/1980_1990/upscale_1by4_R5noisy01d_bci/model.pth (torch, 72808 bytes, 8 tensors)

transform_generator.0.weight f8 [64, 2]
-1.194981915182526 -2.5385447841810445 -0.5323296809485498 -0.6327471996353058 -0.3938325785889053 0.8108166225754593 -0.21640650489929544 0.3373199127142738
-0.5890337347178878 -1.0989122095440789 -0.5556106386179084 -0.8445684303699813 0.5489505713555346 0.6659902774969314 -0.5198951091104983 1.2042605370642245
-3.45684886171786 1.1174257225678732 -0.3205650311882592 0.6953339449771998 -1.6826465369979968 -1.870272372693294 -0.2655346042106511 -0.2700316668669505
0.0021244571474736238 -0.7322412426479552 0.21384139266805233 0.4016295260917656 -1.0679619728587209 -1.249012625799666 -0.35092971197685524 -0.3770177546518542
-0.31909441997225707 -0.18840690585428374 -0.025942317558023655 0.36587958084692257 0.08055570022266458 -0.3859814890852581 -0.31719234635474886 -0.01745290086113314
0.19456903890035818 0.0416785119649981 -0.23627648124683315 -0.3627602626726324 0.7766413130553828 0.8474688992157314 -0.3774327980051487 -1.1314175390613226
-0.15663192884302657 0.12178364058114172 0.08859070154885386 0.009754358170215157 -1.4283379614354583 -0.18833896918445983 -0.713376263922429 1.2802407218723248
-0.5835515107679793 -0.6821193624211657 -0.11493429452115644 -0.1258646782413632 -1.6548651086595885 0.40088468004622324 -0.41523788565387904 0.056202473967478336
-0.20664525172083614 -0.08260831131099586 -0.19419555535713043 1.0840889563106317 0.030741374899843767 -0.2290166313216863 -0.5178223228976137 1.4638043766033466
-0.5681313689786136 -1.0863828370562787 -0.19650491672769618 -0.6596228986114683 -0.37540161308348996 0.7833915250492116 -0.8433241839450861 -0.5733535933584195
-0.1727993399940295 0.7304128256747262 0.13317160623679994 -0.35089496652269264 0.16610823929185758 1.1388748340873212 -0.9667817642130321 0.27792918449747556
-0.7099650236514069 -1.7785235076046078 0.08079565853876246 0.5897394335328634 -0.5829828140996057 -0.006068312699662368 0.633097115715896 0.6388461229256086
0.020311929945860778 0.08703832169162196 -0.54111798944322 1.076451192593089 -0.17155889545881792 -0.15014596192138904 -0.003793701436808999 0.30531708131640656
-0.05222849503419649 0.7829518968498529 -0.23143672392408876 -0.16005139128969464 -0.16798508189140743 0.5741867566492034 -0.412323477558529 -0.7150616070549726
-0.6669530680150692 -0.49905026991245555 -0.7894128215010063 1.4395434868507302 0.06289303879335359 -0.12935819724649247 0.7346174343057844 0.8050062289463025
-0.15927580794593127 -0.10987695593491549 -0.3237047181332674 -0.16074317626125068 -0.20223740917815827 0.25528914557055943 -0.6148054480532619 1.5134457916332735
00000000: 8a53 505b a51e f3bf 66e9 5b91 f04e 04c0
00000010: 00a7 4b41 d808 e1bf 1037 220e 773f e4bf
00000020: 6ee0 488f 8d34 d9bf 0579 a0b3 35f2 e93f
00000030: d391 9756 35b3 cbbf af6e 5942 a696 d53f
00000040: 8654 5b46 5dd9 e2bf b2ab 12f8 2495 f1bf
00000050: 0f8e 45f6 8fc7 e1bf 398a 755f b406 ebbf
00000060: 0df6 e2c9 0091 e13f 83b4 a9d7 ca4f e53f
00000070: af5b 5f11 fba2 e0bf 2bde 68b2 a644 f33f
00000080: 2358 4260 a0a7 0bc0 0136 62cb f9e0 f13f
00000090: 7e77 4c31 2384 d4bf 3c39 2ff9 2c40 e63f
000000a0: 1225 72c6 1eec fabf c447 35b9 a2ec fdbf
000000b0: 92a0 42da 84fe d0bf a1fc 84e6 3248 d1bf
000000c0: 997d 0b3f 4f67 613f 6092 be2f 856e e7bf
000000d0: 232b 059e 275f cb3f e203 eb53 4cb4 d93f
000000e0: 2bcc 2c4b 5f16 f1bf 459c c1a9 f4fb f3bf
000000f0: a3a8 08e5 a175 d6bf 9f6d 8f13 0f21 d8bf
00000100: d67b 8700 0b6c d4bf a30a 7ead b71d c8bf
00000110: 9a04 fa75 9f90 9abf 07c0 8030 926a d73f
00000120: 1975 f661 4c9f b43f 56e2 1eb4 ebb3 d8bf
00000130: 51a6 8820 e14c d4bf 5bf3 ac59 2cdf 91bf
00000140: 8512 7265 a3e7 c83f 46d5 abcb e256 a53f
00000150: 0e72 e2c7 4e3e cebf aae8 1dd2 7637 d7bf
00000160: a573 09e2 3eda e83f 2947 d018 771e eb3f
00000170: 3dac f7e4 db27 d8bf 183a 0647 491a f2bf
00000180: 04f2 f1d9 830c c4bf c4db 7b71 362d bf3f
00000190: 51cc e155 e1ad b63f ab25 adca 17fa 833f
000001a0: 7802 00e8 78da f6bf 65d4 9ac8 7d1b c8bf
000001b0: 9043 6975 fad3 e6bf 612f f7b1 dd7b f43f
000001c0: a3f4 c837 74ac e2bf 2427 32fc ebd3 e5bf
000001d0: 303e 287c 556c bdbf f554 6272 551c c0bf
000001e0: 2ec0 0fd6 537a fabf 5e05 9137 18a8 d93f
000001f0: e963 bcec 4193 dabf 6e0a 4a17 92c6 ac3f
00000200: 00e1 0103 5a73 cabf 2e61 757b d125 b5bf
00000210: 99ca a463 66db c8bf 67f1 54a9 6d58 f13f
00000220: 47cc 50bf aa7a 9f3f 4524 e2be 6a50 cdbf
00000230: f37c bf1e 0092 e0bf 750c 5423 be6b f73f
00000240: 0c09 33d6 212e e2bf 877a 41f8 d261 f1bf
00000250: d7a0 6cb7 1227 c9bf ce53 277b a11b e5bf
00000260: 82ca c37c 9406 d8bf 0499 811a 8b11 e93f
00000270: 830a bfff 82fc eabf 8297 90a2 e958 e2bf
00000280: 17ba 05ed 491e c6bf c042 dbb7 8a5f e73f
00000290: f57b c566 c40b c13f 55f1 6229 1075 d6bf
000002a0: d865 ade7 0843 c53f 8f47 6ad1 d438 f23f
000002b0: c440 754f e0ef eebf a351 817d 97c9 d13f
000002c0: 835f bc91 08b8 e6bf 9343 c510 d574 fcbf
000002d0: 4730 1537 06af b43f 46ed 853b 25df e23f
000002e0: e702 1693 cba7 e2bf 1727 6449 16db 78bf
000002f0: 6a22 e6e1 5442 e43f 528a a46c 6d71 e43f
00000300: 8e2e 588b a6cc 943f e00b 2ab9 2448 b63f
00000310: ebf2 7dac d650 e1bf 1ad7 bee2 2439 f13f
00000320: 52b0 aa52 a4f5 c5bf 0317 0a9e fb37 c3bf
00000330: d99f 42f3 f713 6fbf 4081 caa7 508a d33f
00000340: 24ae 2e7c b1bd aabf 09f6 e922 f10d e93f
00000350: b475 2cf4 b79f cdbf 725f a261 907c c4bf
00000360: c640 7800 8980 c5bf 3459 b3e7 bc5f e23f
00000370: e928 df02 8263 dabf 55a4 1de1 c8e1 e6bf
00000380: 45ee e2f5 ad57 e5bf c15f 158b 70f0 dfbf
00000390: 207a 6cad de42 e9bf 5d19 53c0 5e08 f73f
000003a0: 9675 c318 c219 b03f 7554 5235 cf8e c0bf
000003b0: d145 ed6b fc81 e73f 30d2 4c6c 9cc2 e93f
000003c0: f6fb 1551 2663 c4bf 1d12 536c e520 bcbf
000003d0: ba5e 7cfe 93b7 d4bf 3472 8c7e 3b93 c4bf
000003e0: c156 3959 eae2 c9bf 1ff5 cf48 a856 d03f
000003f0: 0a53 9979 7cac e3bf 0057 35ef 1237 f83f

transform_generator.0.bias f8 [64]
-0.08213224410820741 -0.6922983786803604 0.9424118629406213 -0.47246709616869437 0.2945039000522999 0.29076622758986226 -1.2445316436527196 0.5734260463793494
-0.12497888538518623 0.2191096128337886 0.000696533369758733 -0.4105330611539469 -0.6013172068398925 -0.4513901480874486 0.002761128707082438 -0.42598383000864576
-0.27664803019580575 -0.42883101128679624 -0.5544518230434353 -0.09623751704455295 -0.6143605634315951 0.0957448747345999 -1.388839391885906 -0.22799594671793239
-0.05712501444698826 -0.34286474612822837 -0.12153938081800483 0.015210556272705216 0.06802309493699812 0.08060858044783158 1.05600219493768 -0.2864017913931335
-0.3961780358066444 0.32288515248123517 -0.2554020942501878 -0.7303432646355537 0.5428719233459497 -0.297780838183002 0.9238135268814524 1.3487767262873842
-0.47274480127849233 -0.6099140562132517 -0.41622633411037796 1.496150757232919 0.16526836144326446 -0.26431214568965444 -0.2632019464720954 -1.1721099145788925
-0.7099114902804554 -1.3314508862494594 -0.14610824080682394 -0.3595866293191187 -0.5445655721581996 -0.19733342408122992 0.45143085854392245 0.26379707523415663
-0.47670133504263235 0.039828557301603985 -0.27807733872150797 -1.3162295987292763 0.015403901285614278 -0.26378262884011444 -0.4472632756143877 0.17497632136159114
00000000: 984f 6466 9e06 b5bf eb30 f0ed 4e27 e6bf
00000010: 2a28 56ec 3c28 ee3f a1c2 9ea1 e63c debf
00000020: 9f38 d1e2 26d9 d23f 72e7 91f3 e99b d23f
00000030: 7b35 4503 9ae9 f3bf ddf6 7b94 8159 e23f
00000040: 0a7f 6bc1 9dfe bfbf c01f aea6 c80b cc3f
00000050: 5e84 9705 f2d2 463f 614f e575 2c46 dabf
00000060: efc7 3c95 fd3d e3bf 8a6b f180 93e3 dcbf
00000070: e524 e7af 819e 663f e7c3 a0ae 5143 dbbf
00000080: 5267 8cf0 99b4 d1bf 8231 3fa0 f771 dbbf
00000090: 77bb e5bf 11be e1bf e7c6 5a9c 05a3 b8bf
000000a0: b781 fc7b d7a8 e3bf 2fa6 be71 bc82 b83f
000000b0: 71be 78a7 af38 f6bf fe14 639f f82e cdbf
000000c0: d1ab aa69 7d3f adbf 049d e4f9 7ef1 d5bf
000000d0: 7617 ca71 341d bfbf 963e f64d b626 8f3f
000000e0: 4a8a 2028 f669 b13f 6fe8 cc90 c3a2 b43f
000000f0: 522f bc8e 62e5 f03f 1a28 e32d 6854 d2bf
00000100: 2bb7 cb1e fb5a d9bf 1256 917c 26aa d43f
00000110: 189b 8806 8258 d0bf 9ed5 8ed6 f85e e7bf
00000120: c7ff 95f0 345f e13f 07c6 575c d70e d3bf
00000130: 39dd b162 e18f ed3f 052a 90e7 9694 f53f
00000140: d516 3669 7341 debf d8cf 997b 6a84 e3bf
00000150: 173c 2fc7 73a3 dabf 6337 c3c6 3bf0 f73f
00000160: 922d bb7f 8327 c53f c00c 6b7d 7dea d0bf
00000170: 18d6 15fa 4cd8 d0bf 6cf0 6653 f6c0 f2bf
00000180: c9e4 394d 98b7 e6bf 0ebf ca71 9f4d f5bf
00000190: d87f f8c1 acb3 c2bf 8f49 40a3 7703 d7bf
000001a0: c94d 5ec7 146d e1bf 1915 6bbd 3842 c9bf
000001b0: 817c 7641 3ee4 dc3f 5a50 ba20 0de2 d03f
000001c0: e4ed fd50 4682 debf 0550 1d9e 6864 a43f
000001d0: 6a53 e4e4 04cc d1bf 721c 89c4 460f f5bf
000001e0: 2f2c 05a2 148c 8f3f b5c1 0789 d0e1 d0bf
000001f0: e0cc 5d25 f69f dcbf 1045 e9c4 9f65 c63f

transform_generator.3.weight f8 [64, 64]
-1.945447112474379 0.02294852598990332 -0.2169615208607814 -0.13226487499017975 0.013560355192755608 -1.9542205786482307 0.03699526057119482 -0.6992473741515203
0.08389452955545432 -0.0758681269898452 -0.22662766735613304 -0.06525735032698489 -0.1566401775984328 -0.009903386529424818 0.6026746711897376 0.08790242358015087
0.040311429527271514 -0.05853424363031503 0.013049559874203238 -0.09264805876210207 -0.04322031737571149 -0.04310404386145265 -0.14656263198541467 0.16687922829268909
-0.052627358922715424 0.031191571752542734 0.10094950553233491 -0.2748264122038355 0.42480326662476564 0.0363567717353178 0.06778325742074646 -0.049389605628770365
-0.09138604993083217 -0.1287158255742648 0.02270073828884219 -0.6627280488032321 0.46772850234065677 0.03362702856279394 -0.1279959048252829 -0.16695998770400133
-0.3436191150516598 0.06787712382057494 -0.0798038550565198 -0.7226807944373088 -0.4213016695023391 -0.04814561536342865 0.10681725068137378 0.2444301361031737
-0.05015078644374165 -0.2931670308406813 0.13000652183246234 -0.1412754260743988 -0.01602866408158593 -0.14536376924172975 -0.09739168890936574 0.186385985668768
0.057288028686959876 -0.23304478632393671 -0.14068414168372598 -0.10953732496888417 -0.08208699440088685 -0.11093145784379559 -0.11548185878824758 -1.1898991846375695
-0.126536636550448 -0.007744559047599907 -0.0637457079396381 -0.18104776613460896 -0.051691983857375556 -0.030109683304836383 -0.273509064580484 -0.050666532464344674
0.02697234355971626 -0.16178601391544672 -0.06434965795907466 0.046849573720812686 -0.065530830285552 -0.1162661104339748 -0.04296359900702377 -0.09694263265050158
-0.009989166361542155 -0.10795768950637216 -0.12776639411704727 -0.15947464302494188 0.04187844206092477 -0.1533709022950388 -0.029743923951256194 0.010384004629682335
-0.0025066379810559955 -0.01157125078344904 -0.13747140963242413 -0.06643375433801606 -0.10572810138615227 -0.03257526764477307 -0.05008356915245988 -0.10353251330000116
0.0841213272730711 -0.1783363133578645 -0.06927032600992594 -0.06510919755981716 -0.013770523869809344 -0.017635298359812823 -0.1305081261938072 -0.046624196752657845
0.05160112952749974 -0.0660762344937535 -0.10627286882249604 0.01250060221077144 0.02553528827480363 -0.13173037254854458 -0.06981865173432748 -0.2615648912894952
-0.11064855909473771 -0.05176849638084905 -0.09222740503981311 -0.08147282889608881 -0.050604132273794664 0.041114620390026384 -0.18173138298444222 -0.015646641939073072
0.04382537258100258 -0.06128754834639556 -0.163268220736798 -0.28716617946488504 -0.051315942326323735 0.1016914743439832 -0.08952918800566115 -0.06182093287550334
-0.28465488683155005 -0.0018864652078154351 -0.27332626030484625 -0.12585208461764283 -0.01039056553410116 -0.07613569246158154 -0.09911247999051677 -0.024611098300819152
0.3658043513452954 -0.10668903780283939 -0.1609816201823831 -0.10779140947286454 -0.3554577717687316 -0.04370672499565969 -0.26309400867866206 -0.021852456162773395
0.07817690719442955 -0.15626485667296144 -0.13891814886210224 0.010534351670880878 0.0008118214535862301 0.01470910273290555 0.001188690679799183 -0.05349743925883573
-0.13877334886912662 -0.12898414737044336 0.10635541602403571 -0.014322568091792104 -0.04602089767240204 -0.021150644572769953 0.13768750730199505 -0.027155987702839734
-0.12386266184285032 -0.004053582534439671 -0.06176148564493679 -0.08181117259068293 -0.005891911155483562 -0.04024412025553329 -0.06716342184232356 0.06795545073247948
0.005846937795388316 -0.08369704660020127 -0.06316166709009836 -0.0978777449016622 -0.1502798631657557 0.006543577237008279 0.004566270289989321 -0.15834795854912506
0.180113504710381 -0.0823602614189062 -0.015259262882383218 -0.12220025954131934 -0.09365127932903455 -0.08352618579661678 0.01091851783970422 -0.20614446797560196
-0.026745705972593972 -0.1325646504627128 -0.206167732189695 -0.14901489062710965 -0.22634888469001818 0.10442976335723443 -0.1612219738053642 -0.3592768165004701
-0.018626759297128755 0.007235165546006671 -0.03395432913082151 -0.08626152991304803 -0.11955710909752694 -0.3356349702938775 -0.04672749253017431 -0.17529379120350116
0.03250177938059228 -0.16173909222987104 0.03404490417941002 -0.0772479102770456 -0.11767146127261409 -0.04011361074041698 -0.15709392746636244 -0.04904648801849459
-0.07557959822071954 -0.07825705664458275 0.004161318677954353 -0.01694910594179459 0.050446695185713465 -0.17715872425453272 -0.16578689161322 -0.1361787030965644
-0.12970041083789807 0.05372362244436253 0.04650308242972194 -0.0074649990732702405 -0.25402331312488474 -0.08486424235599535 -0.1885660234948301 -0.08348877354757668
-0.0010868784855692368 -0.16557208093398396 -0.10557737882374024 0.02783950980786742 -0.027604412323178906 -0.04467188249343806 0.011681152716397152 -0.0569080787672616
0.034961707280177334 -0.0762636193855668 -0.12173126013607778 -0.1817162200200987 -0.31223623985073434 0.002987584140645338 0.08673997974753454 -0.04161355208527599
-0.09735012754825634 -0.16321648473772968 -0.062316128481450926 -0.03899401169261266 -0.18212099621701114 -0.08265091277397756 -0.09312603013301775 -0.03448052183021536
0.00909230444050136 -0.03051352520019084 -0.05840899718476933 -0.1662789113540206 -0.03183445945125618 0.11627184244319204 -0.10580633925926172 0.040247198713837966
00000000: 2dcd c226 8d20 ffbf afdf 7882 d17f 973f
00000010: 7a32 4b26 65c5 cbbf 5605 3f30 0eee c0bf
00000020: dda8 9910 88c5 8b3f f76d 27cc 7c44 ffbf
00000030: 6d43 85f4 0af1 a23f d16d 7907 3c60 e6bf
00000040: f204 c1a4 1c7a b53f c5eb 3af4 176c b3bf
00000050: ece8 d4a9 2202 cdbf 315f 7aa9 b4b4 b0bf
00000060: f22f 030c c90c c4bf cdb3 1b0a 3a48 84bf
00000070: 3566 5c64 1c49 e33f 2f11 84f2 c580 b63f
00000080: 0004 f31e b3a3 a43f 9335 2d4c 33f8 adbf
00000090: 575d 1847 bab9 8a3f 2bce 6b7e c8b7 b7bf
000000a0: 1b87 4d33 f920 a6bf f5aa 6bb5 bb11 a6bf
000000b0: 85b5 9877 90c2 c2bf 740c f36d 4c5c c53f
000000c0: 5155 e522 f9f1 aabf e31e 5af2 aef0 9f3f
000000d0: 350a cfa8 d3d7 b93f f084 1f85 c196 d1bf
000000e0: 20ca 580a fa2f db3f 6ec2 2ed3 5a9d a23f
000000f0: 03a5 d659 3e5a b13f 3f35 e029 9849 a9bf
00000100: d577 c37f 1365 b7bf 86d8 a89a c279 c0bf
00000110: 36ba 2ec2 dc3e 973f 880e f873 1135 e5bf
00000120: 9873 3d87 43ef dd3f fab1 e0d7 8f37 a13f
00000130: ec8d 9f78 2b62 c0bf 98f1 76e3 f15e c5bf
00000140: 8b59 5b07 dbfd d5bf a5b6 f42a 6560 b13f
00000150: 7afe 8f83 066e b4bf fcc6 3179 3320 e7bf
00000160: d9d0 1047 9bf6 dabf 900a ddc6 8aa6 a8bf
00000170: fd3b 5316 6058 bb3f a627 5c98 7c49 cf3f
00000180: 8702 4a27 5dad a9bf 3c79 6ea6 3fc3 d2bf
00000190: ddc0 c4bf 0da4 c03f b4e7 5b2b 5015 c2bf
000001a0: 50ad 1d70 d169 90bf 8750 75ad 479b c2bf
000001b0: 2d97 c466 a9ee b8bf 91a6 70f8 7edb c73f
000001c0: d95a 5343 db54 ad3f f2de e15b 69d4 cdbf
000001d0: b378 cc1d f001 c2bf 3bc4 6e5c a30a bcbf
000001e0: 60f5 603c a703 b5bf 7b65 8907 0166 bcbf
000001f0: 41dd c616 3890 bdbf 07e3 38ba d309 f3bf
00000200: 0c71 dd3d 5a32 c0bf bf57 4d3d c2b8 7fbf
00000210: ea71 dc82 a351 b0bf adef 47bd 922c c7bf
00000220: c8fc 4328 5f77 aabf 3248 59a4 12d5 9ebf
00000230: 4318 e229 2c81 d1bf 3a46 dfb7 f6f0 a9bf
00000240: c91b f155 a39e 9b3f 1ec8 5b73 67b5 c4bf
00000250: 3869 711c 3879 b0bf d3c3 ecd5 aafc a73f
00000260: b3c7 f4e4 a0c6 b0bf 9e71 f2a5 9dc3 bdbf
00000270: f5a7 4e29 53ff a5bf 9d71 d27c 3bd1 b8bf
00000280: 926f b236 3375 84bf 5616 c879 1da3 bbbf
00000290: 305a 2132 a65a c0bf d9ac 2a44 aa69 c4bf
000002a0: b642 1e56 1771 a53f 2cf2 c160 a8a1 c3bf
000002b0: 715d 80f2 3075 9ebf 6fb9 4982 3544 853f
000002c0: 0779 d904 cd88 64bf d483 82fd aab2 87bf
000002d0: d1cd 40c4 a998 c1bf 8376 3b72 cd01 b1bf
000002e0: 16c1 b831 ff10 bbbf c6af 629a b4ad a0bf
000002f0: 594e 27b7 8da4 a9bf 8239 b256 1b81 babf
00000300: 29b1 88ad f988 b53f 95d6 c76c b9d3 c6bf
00000310: 74bf cb38 b3bb b1bf 092f 3012 ffaa b0bf
00000320: f160 5b6d b833 8cbf 23a7 d7d6 fc0e 92bf
00000330: 9eac ee82 7db4 c0bf d286 8270 20df a7bf
00000340: 11b9 8397 766b aa3f 1c89 3142 5fea b0bf
00000350: ac72 0be0 b234 bbbf 8790 676d ea99 893f
00000360: f508 2330 ec25 9a3f d031 fe74 8adc c0bf
00000370: 3b89 d999 a2df b1bf fcb0 77ab 7abd d0bf
00000380: f152 a9c6 7653 bcbf 5572 d67d 6681 aabf
00000390: a2e1 7018 379c b7bf dc0d 9f3f 67db b4bf
000003a0: 9e1a 51ea c8e8 a9bf 47dc ecbb f90c a53f
000003b0: 979a 4955 f942 c7bf 44a2 ae5d ac05 90bf
000003c0: 0cdb f07b 4770 a63f ca7d 99df 1461 afbf
000003d0: 3b34 451a f9e5 c4bf a569 5441 ee60 d2bf
000003e0: ae26 1c4c 1546 aabf f1e4 96d4 7308 ba3f
000003f0: 6a91 8586 62eb b6bf a926 d149 fea6 afbf
00000400: 3ea3 6521 c937 d2bf ffd3 d897 68e8 5ebf
00000410: 536d 496d 2d7e d1bf 4379 c8cd eb1b c0bf
00000420: 5a4d 3f19 a647 85bf 5549 2ef5 a07d b3bf
00000430: 114a 2f7c 6f5f b9bf f25a 48d9 a633 99bf
00000440: 69cd 70a7 5669 d73f 8474 3408 f94f bbbf
00000450: fa5f f8b4 0b9b c4bf 55c7 79c2 3798 bbbf
00000460: 5ac4 36f4 d1bf d6bf b778 f154 ba60 a6bf
00000470: e218 c340 88d6 d0bf 17bd 3982 7d60 96bf
00000480: 2cd7 b3db 6603 b43f e955 76a0 7c00 c4bf
00000490: d67f 17e5 11c8 c1bf 71b8 49bf 0893 853f
000004a0: 90b2 f24b 0d9a 4a3f e4d9 8759 ce1f 8e3f
000004b0: 8729 11e6 ba79 533f 0ba9 1230 0464 abbf
000004c0: 9482 7939 53c3 c1bf af49 5473 8d82 c0bf
000004d0: 9561 93c9 1b3a bb3f bd4f 648c 2655 8dbf
000004e0: b2fd de14 0d90 a7bf 24df eaba 83a8 95bf
000004f0: ab04 7786 be9f c13f b30e 4c7c c7ce 9bbf
00000500: 2780 cfa1 76b5 bfbf 0e42 ac46 7d9a 70bf
00000510: 32a8 fe91 339f afbf f071 b9b6 93f1 b4bf
00000520: d76f 94db 1d22 78bf 2526 b598 e09a a4bf
00000530: fddb 4c3c 9f31 b1bf cb1e 7b46 8765 b13f
00000540: 4a99 ce69 f5f2 773f 586e eb6d 2b6d b5bf
00000550: a547 83ee 5c2b b0bf e6de 5b11 840e b9bf
00000560: d4aa c5dc 5e3c c3bf 8c74 b523 70cd 7a3f
00000570: df94 f6d8 14b4 723f 73ad adf3 be44 c4bf
00000580: 9046 2696 f50d c73f 2ac2 48e5 8f15 b5bf
00000590: c0c4 5398 3f40 8fbf fbec 4a26 8448 bfbf
000005a0: 245f f2bd 87f9 b7bf a228 5bdc f861 b5bf
000005b0: 05ad 56a8 725c 863f 916f 1a22 f162 cabf
000005c0: c4c7 d7f1 3963 9bbf 2be8 2be3 e0f7 c0bf
000005d0: 9563 9f49 b463 cabf 5223 ee80 eb12 c3bf
000005e0: ea66 9d10 00f9 ccbf e12c 59b2 e8bb ba3f
000005f0: 71ff 71f0 eba2 c4bf 1d27 4530 64fe d6bf
00000600: 3fe9 0ba8 e412 93bf 7f7f 6bf6 9ea2 7d3f
00000610: de57 593a 7662 a1bf c024 e151 3c15 b6bf
00000620: c103 9471 4b9b bebf b997 3319 0b7b d5bf
00000630: 557c 7b78 aaec a7bf 0b98 34e6 0670 c6bf
00000640: 2fbe 00bf 12a4 a03f cc56 ced7 ddb3 c4bf
00000650: e78f 176c 556e a13f 4102 53e0 84c6 b3bf
00000660: e9a1 d685 b71f bebf 6156 826c c589 a4bf
00000670: ed21 6f60 a71b c4bf 77d2 0b0c 9f1c a9bf
00000680: c551 9a3e 2f59 b3bf 6b3e f88a a708 b4bf
00000690: 1cad 147a 750b 713f 4ba4 dd3e 1b5b 91bf
000006a0: 8520 0734 26d4 a93f 10e9 6f17 23ad c6bf
000006b0: 93c9 ca3e 8138 c5bf 6710 1bc2 4d6e c1bf
000006c0: f0cb 69e7 059a c0bf 0aa6 d7a2 a981 ab3f
000006d0: 66cf 6584 40cf a73f f45c 266e 9e93 7ebf
000006e0: a7bf 92ff ea41 d0bf 42d1 84b9 a9b9 b5bf
000006f0: 2806 0674 ee22 c8bf 6151 f82f 855f b5bf
00000700: 7f3a 37e3 b2ce 51bf fefd 5e48 7731 c5bf
00000710: 64d0 3e7d 1e07 bbbf 3f56 a5e0 f581 9c3f
00000720: 8308 9dc0 5444 9cbf 475b b8a4 3bdf a6bf
00000730: 090c 2cc7 49ec 873f 46fe 5d42 0e23 adbf
00000740: 60e9 c23a 80e6 a13f c0b6 2237 0386 b3bf
00000750: 4d71 2fa5 c729 bfbf ddcc 1123 7a42 c7bf
00000760: 103c b2b5 adfb d3bf b228 b305 6b79 683f
00000770: 0f78 4560 9734 b63f 76a5 8d1a 5f4e a5bf
00000780: d8c8 141e f0eb b8bf cded 0e1c 47e4 c4bf
00000790: 4bad ae4b e6e7 afbf 6452 ebe9 05f7 a3bf
000007a0: 5760 55a5 bd4f c7bf cb49 5937 9c28 b5bf
000007b0: 05df d385 1bd7 b7bf 4536 3853 6ea7 a1bf
000007c0: 84e2 bc71 fc9e 823f ed2e 4803 f03e 9fbf
000007d0: 70c7 66b9 c8e7 adbf 17d7 239b a048 c5bf
000007e0: 503d 7534 9b4c a0bf 8b3a bdd0 fdc3 bd3f
000007f0: 76f8 d3ce 1f16 bbbf 5f8d 76e4 479b a43f

transform_generator.3.bias f8 [64]
0.13169139529590526 -0.16096834987166023 -0.06644676808583758 -0.09466176591377584 -0.024306002183476984 -0.06969817625018229 0.08568066370295714 0.09882219610175423
-0.1932876641027082 -0.128708198502242 -0.4610856690012406 -0.12382059447944894 -0.12055870620039208 -0.14021883256389206 0.09847158395241391 -0.1678327383972057
-0.021420086961497137 -0.15427134876073864 -0.06502922647267914 -0.07098886936602376 -0.18874786611555663 -0.0776328251161185 -0.08563844518868448 -0.05075967763779588
-0.06654063448793592 -0.13747147364948015 -0.07304536060062464 0.0364877667567896 -0.3065792898612976 -0.0684487513566878 -0.10789822305134687 -0.10541532710733618
-0.17114153192251944 0.09709276700756898 -0.16964794248775725 -0.0839709425243583 -0.1202022094525163 -0.023270249635629663 -0.13997139187101376 -0.1421282292723249
-0.1062199917015275 -0.01695271349943596 -0.08578736442280296 -0.013629128625552543 0.08735543543106283 -0.09020718076545542 -0.07493151484580375 0.11346154822795457
0.17449163300097617 -0.16082632744611391 -0.09718919825311112 -0.18020756702398824 -0.11839992511763198 -0.17337396249393916 0.1038194453695287 -0.11552617046709117
-0.13045752353657775 -0.2864547123580555 -0.05558800549115274 -0.2761218437849272 -0.058719618309289574 -0.13475468156211248 -0.09216803636284668 -0.05777467711935725
00000000: 5df2 fa7d 43db c03f 25e7 3163 9c9a c4bf
00000010: 7e83 dac7 a702 b1bf a001 c8e4 c03b b8bf
00000020: 5aed e531 ace3 98bf 42db 955b bdd7 b1bf
00000030: 69f7 8000 2bef b53f 273d 6054 694c b93f
00000040: 724b 0572 a6bd c8bf 87a8 a59f 8279 c0bf
00000050: 5cef 4077 6d82 ddbf 794a dcdb b4b2 bfbf
00000060: 2ef6 6074 efdc bebf 7296 12d2 b0f2 c1bf
00000070: 1d33 a908 6f35 b93f 8c9b 4e0d 8b7b c5bf
00000080: 888e e8b3 25ef 95bf 338f d1de 29bf c3bf
00000090: 56fd fb60 c1a5 b0bf 579d 4e98 532c b2bf
000000a0: 29fb 13dc e328 c8bf e345 f8ac bedf b3bf
000000b0: c19d 5db1 66ec b5bf 01d6 d126 2cfd a9bf
000000c0: 0914 fb98 ce08 b1bf 7e8d ba4d aa98 c1bf
000000d0: 4a7a e7ca 19b3 b2bf 6756 d949 86ae a23f
000000e0: 8d73 e5bd fe9e d3bf 2f6d 877c db85 b1bf
000000f0: 0753 4dcb 379f bbbf a353 6cb6 7ffc babf
00000100: 931a 4c39 f7e7 c5bf a1c4 f952 12db b83f
00000110: 17c8 6816 06b7 c5bf 96d7 f4a3 1e7f b5bf
00000120: 6c68 816e 92c5 bebf 0b80 9e04 28d4 97bf
00000130: da15 3b23 95ea c1bf 3711 4800 4231 c2bf
00000140: 8719 8abe 3b31 bbbf a4f0 3b58 0d5c 91bf
00000150: 0621 9b24 29f6 b5bf 7fff c1ad 96e9 8bbf
00000160: a0e3 4d02 ed5c b63f 8082 405b d117 b7bf
00000170: c9d4 b335 b62e b3bf 7c1a fee6 d00b bd3f
00000180: 0d19 95e8 bd55 c63f a0c1 5b04 f595 c4bf
00000190: c885 052c 64e1 b8bf 890c 6ea3 0a11 c7bf
000001a0: e0a4 3a1e 754f bebf d6d7 7135 1e31 c6bf
000001b0: 500d 8d42 e993 ba3f c3ff fc83 1f93 bdbf
000001c0: 0aaa 8d06 d5b2 c0bf 553a 5725 4655 d2bf
000001d0: 12cc 44f3 0776 acbf 721e 31f4 faab d1bf
000001e0: c943 8b70 7f10 aebf bd65 2533 a43f c1bf
000001f0: 2a3b ea0d 5398 b7bf 8179 8779 a494 adbf

transform_generator.6.weight f8 [64, 64]
-0.14640839208651454 0.15323347502149218 0.007992899523543656 -0.010145824509225793 -0.04523911439685846 -0.10226079238901774 -0.02582409412589826 -0.04874913853051113
-0.17802635612759848 -0.0031938287909525674 -0.19039835776220398 0.044932514182525016 -0.029335410990609687 -0.05558511316971746 -0.1708973157563939 -0.2566128879663344
-0.04096207073119106 0.007896095433265473 -0.12258101858250083 0.07928451821083321 0.006917215478850748 0.03745580987931732 0.06489260027757428 0.009484642388909613
0.04948645260082357 -0.04527529400322541 -0.02732618610347147 -0.01630423431263367 -0.1654240499602476 -0.0002251287653864857 0.004016797656195063 -0.13363574755814822
-0.1304934450889074 -0.04096690842597435 -0.02395196279951956 0.05395581936030259 0.08907132170173564 -0.12433719737928263 -0.07340911323242591 -0.05525387446002974
-0.15070364157592755 -0.0943535579728644 -0.10012298560008481 0.09227532547606543 -0.06549721264140536 -0.046655068382045674 -0.07045519922705964 0.04806790205765188
-0.06099880453874494 -0.18070727891439184 -0.06161641196469907 -0.06504970183668139 -0.054626172612715754 -0.06565258995241148 -0.06318573303323242 0.05367132476024516
0.08454710599564917 -0.0599890176527365 -0.04586091885728865 0.07919920897131424 -0.1726721348502401 0.03878199605569085 -0.1112088520216674 0.011790826766237257
0.1894006077004507 -0.025042747773937654 -0.2078319665696679 -0.01853189278769549 -0.030073946971278177 -0.08233331780885776 0.11114552566390193 0.009163338115928727
0.026997239750844667 -0.10191351081188939 -0.2906039867359385 0.2658443913458168 0.1205259541199528 -0.10783763587976872 0.18516263937176233 -0.04206165131201659
-0.28410022586443945 -0.13877022132623557 0.05585191016838727 0.1017960481200404 -0.015978622124968835 0.013566069691885672 -0.002791815648515891 0.046407833984591654
-0.0853566573344472 -0.15190152783511907 -0.1293603543396394 0.0026570832274336385 -0.11988535837182918 -0.0837502092915088 0.05211594643503194 -0.011834500755115027
-0.05845110436752667 0.1664345433911067 -0.20536733387895106 -0.00464035931162498 -0.07041852687414626 0.1117710015750954 -0.05905284422265729 -0.12270540175314773
-0.10650839225138793 0.007496745020351658 0.14180527484119343 -0.05798587992265279 0.16075278791474118 -0.20467030894276636 -0.2856181239244039 0.27685038668873707
0.009703685408106387 -0.1771973974727315 0.017596558809130854 -0.16124954452694137 -0.14948314540197577 -0.07504145084039865 0.14581358601909164 -0.017783778793557557
-0.0495276232627989 0.09648225050002124 0.07755372331994334 0.1306711792144509 0.15039726305678547 0.15703010572594764 -0.16617930573567105 0.07120994794805349
0.014129661218179136 -0.0333819748718302 -0.04157492006410582 0.1650169302743757 -0.08613307975349019 -0.11616903933972697 -0.025943142786127502 0.007871596653428186
0.05599976017485616 0.04629268174593562 -0.0007263679382376987 -0.09988645383038944 0.03134756588655944 0.1361587652370919 -0.0717545195979535 -0.03432700769320195
0.03573035450772357 0.04692518024503352 -0.06747654246365649 -0.09022484095072142 -0.07305371511336572 -0.025189796990329787 -0.0542948135443494 -0.09413538815887591
-0.07908349683984259 0.08314595134796976 -0.043026095168237105 -0.15651656230431363 -0.09457679315856653 -0.12903150235501976 -0.09432378866641082 0.080055988553744
-0.10737983802183708 -0.060140286052154816 -0.027828318296042362 -0.09654036591680756 0.02679195465833175 -0.11436597978734864 -0.06180385918866618 -0.10869947035360521
0.009748992144961211 0.14256780046004747 -0.1439455511364964 0.0033456180228709546 -0.1105897557579373 0.12512133697682382 -0.008582574984482432 0.07001212403275148
0.01931573264169162 -0.056605380852042524 0.07051227206121222 0.043432957741822584 -0.02331976421484295 -0.030732153468435414 0.06082896725066628 -0.11038230792353777
-0.04742354476261971 -0.06807358584007764 -0.12912569402478247 0.1309023849780935 0.1617412613241097 -0.1617963294277309 -0.09849188773730226 -0.056248530635710864
-0.00844788331831008 -0.009599108950495252 -0.0825332374721923 0.04705368234037005 0.02978311424709248 -0.023273996932016237 -0.11465371285776108 -0.12419554605365574
0.05429025797602758 0.04802143623755429 -0.17290144327175902 -0.11422200022251097 0.0352565793470948 -0.0024022080852089274 -0.1334784375331475 0.004390030003045053
-0.16254248664670648 -0.12743977135141318 -0.0018377109761053862 0.015720562632394058 -0.12078295957281504 0.02672798480553216 -0.014720047417182369 0.03878956140857184
0.035135420437280344 -0.06922359624009629 -0.1551301291092631 -0.13894451123136184 -0.030488902558072177 -0.06835662909291684 -0.061834130192620934 -0.13486861213616222
-0.16474885229843853 -0.07150458450607042 0.06414377159160196 -0.13318520381323348 0.06122835262561273 -0.1007098213309113 -0.10599499441732056 -0.06409833245959666
-0.05627816155363804 -0.02743691345292638 -0.17941739935688647 -0.0073152725686253025 -0.019033896249889628 -0.028247299316851958 -0.033612741407700264 -0.043723614003911296
-0.1529453408254387 -0.09346952658874502 -0.06781333529986186 -0.08249967941427166 -0.13484164696112752 -0.03519870011801058 -0.1578189891790652 -0.12419249355184085
0.015516213521401302 -0.09136452219354195 -0.14631859646010908 -0.12614687614808184 -0.030208855991773715 -0.1718810890530595 0.03065339773069256 -0.08370034481401581
00000000: 238e ef9b 82bd c2bf b353 ef8d 279d c33f
00000010: 8340 6ed0 945e 803f dd25 aa83 55c7 84bf
00000020: e044 abc9 9429 a7bf ff4f f966 c32d babf
00000030: 01d4 e09e a171 9abf 54b8 64a7 a5f5 a8bf
00000040: 5e71 b250 91c9 c6bf 4ae6 98c6 f129 6abf
00000050: c27f e62f f95e c8bf e6ca e1fd 6401 a73f
00000060: 890d 471b 1a0a 9ebf cdb2 6ae6 a675 acbf
00000070: 4dee 1297 f6df c5bf 8a0a 6376 586c d0bf
00000080: 7f74 5504 fbf8 a4bf 213c 37fd d32b 803f
00000090: e915 ec39 7861 bfbf dc6d cb7c fd4b b43f
000000a0: a841 2de4 3955 7c3f 3427 f46c 682d a33f
000000b0: 21d0 f12b cd9c b03f df39 ff26 af6c 833f
000000c0: 98fb 07cf 4956 a93f f30b 1fc6 522e a7bf
000000d0: bc26 8e4e 65fb 9bbf 90e6 a2a4 0eb2 90bf
000000e0: 8b8b 4682 9d2c c5bf 9e1e 945e 1182 2dbf
000000f0: c48e 16e9 ea73 703f 705c abe6 f91a c1bf
00000100: bde6 7f5b 02b4 c0bf 6ac9 d057 9df9 a4bf
00000110: 1185 9803 dd86 98bf 11ab 29df 18a0 ab3f
00000120: 636f b8cd 60cd b63f d199 6b04 90d4 bfbf
00000130: fec6 8f8c f0ca b2bf c3f4 905f 3c4a acbf
00000140: a175 fac5 414a c3bf 8a33 c105 8e27 b8bf
00000150: 38f1 baf4 a8a1 b9bf b8bf 2511 5b9f b73f
00000160: 7524 46e2 6cc4 b0bf bd7c c951 2ce3 a7bf
00000170: 3e6d 8318 5a09 b2bf 505f a626 5b9c a83f
00000180: 2e92 2d3d 3c3b afbf 3b11 8b86 6a21 c7bf
00000190: b60b 92b4 2f8c afbf 03cb 00e6 18a7 b0bf
000001a0: e228 c131 f6f7 abbf 4549 beae 9bce b0bf
000001b0: d396 f3b0 f02c b0bf 1f10 28d1 ce7a ab3f
000001c0: b706 390f e1a4 b53f 4716 e069 e1b6 aebf
000001d0: 3729 5015 157b a7bf 0e9f 663c 6646 b43f
000001e0: 4b5f 0eda 1e1a c6bf ab30 77d9 3bdb a33f
000001f0: 9f71 75ee 2e78 bcbf 1790 d4fa c925 883f
00000200: 3a3e f573 473e c83f bc9f c35a cea4 99bf
00000210: 8e73 bde5 3c9a cabf d913 d345 06fa 92bf
00000220: 1d28 d06a b4cb 9ebf 4737 5cdb cb13 b5bf
00000230: 6abc d27d 0874 bc3f 3da7 3d6c 3ac4 823f
00000240: ffa3 3f17 2aa5 9b3f c125 f5fb 0017 babf
00000250: 858e c776 4199 d2bf 93f0 a931 9803 d13f
00000260: 4faf 43f7 c9da be3f 1aae 614f 3f9b bbbf
00000270: 3379 45cc 68b3 c73f 350b 9ad1 1a89 a5bf
00000280: 4def b7b6 b22e d2bf 5e9f 20fd 38c3 c1bf
00000290: ea48 2f1f 9f98 ac3f 30a1 8949 4e0f ba3f
000002a0: e7f7 d82d b35c 90bf 3f95 4b0d 87c8 8b3f
000002b0: 93ce 049d dcde 66bf dae9 7b82 c4c2 a73f
000002c0: f850 bf13 efd9 b5bf 9ad3 215f 8271 c3bf
000002d0: 1bd4 a44d e18e c0bf 0f05 11b2 4ec4 653f
000002e0: 44eb 798d ceb0 bebf 01b0 f059 a770 b5bf
000002f0: d2bc 13fb f0ae aa3f f261 a9cd af3c 88bf
00000300: 63e3 589b 4ded adbf 360e 6524 ba4d c53f
00000310: a2a1 560f 7a49 cabf 790b c3f7 c401 73bf
00000320: 06fb f4d5 f206 b2bf acfc 673c 069d bc3f
00000330: ea1c 58a5 2c3c aebf f282 9207 9f69 bfbf
00000340: d520 784d 2244 bbbf 5993 052b e8b4 7e3f
00000350: 8cee ebdc ac26 c23f 2e8f cb43 53b0 adbf
00000360: 66d5 6a1f 8c93 c43f f789 affd a232 cabf
00000370: b69c 593d 9147 d2bf 18a3 2daf eab7 d13f
00000380: 39f2 d39b 86df 833f fa74 8a81 67ae c6bf
00000390: 2fef 6d12 d504 923f 5b7a 1e38 d3a3 c4bf
000003a0: 5e00 6782 4322 c3bf 0c33 34a1 ea35 b3bf
000003b0: 87da a103 05aa c23f 4940 4531 e935 92bf
000003c0: ee1c 5344 af5b a9bf 28c5 8a8e 0fb3 b83f
000003d0: b699 5791 8fda b33f c3be a04c d5b9 c03f
000003e0: 8c4f 1eaf 3740 c33f 7b49 4a00 9019 c43f
000003f0: 7f0e b40d 5d45 c5bf 6235 96ad d03a b23f
00000400: 7463 af06 03f0 8c3f 3868 b334 7117 a1bf
00000410: 24af 04d4 4e49 a5bf ec49 6857 461f c53f
00000420: ba1e a548 d10c b6bf ee98 c510 41bd bdbf
00000430: d999 49d7 d690 9abf 03db 8cd1 fb1e 803f
00000440: ebd7 1125 00ac ac3f 142e 49a4 acb3 a73f
00000450: 6769 1145 37cd 47bf e2d2 839c 2892 b9bf
00000460: 257e 95c4 c90c a03f 0fe7 e081 a66d c13f
00000470: 456e 0313 815e b2bf 0edd d23e 4f93 a1bf
00000480: f399 2bc0 3f4b a23f 4acc 05c5 9306 a83f
00000490: 4de9 2087 2446 b1bf f48e 2ba5 f918 b7bf
000004a0: 8461 43f5 a5b3 b2bf ebbc 10a9 5acb 99bf
000004b0: 51e2 07a1 87cc abbf 29e4 89bd 4119 b8bf
000004c0: ee97 94e8 d03e b4bf 2097 d595 0d49 b53f
000004d0: 048c 3e2f 8407 a6bf 4f8f 3016 bc08 c4bf
000004e0: 0b9c 9349 2f36 b8bf 1260 62b1 1a84 c0bf
000004f0: d39a 8e93 9a25 b8bf a3f1 af9c 8c7e b43f
00000500: 9bb6 8dbc 3e7d bbbf ef3c 8823 b5ca aebf
00000510: fccc efd3 067f 9cbf 9e47 5b92 deb6 b8bf
00000520: 86bb 36a4 596f 9b3f 502f f6be 1647 bdbf
00000530: f4bc f663 c1a4 afbf abe1 427e bad3 bbbf
00000540: 9ada 7393 47f7 833f a822 3864 a93f c23f
00000550: ef99 44cd ce6c c2bf 4bcb c7ff 4468 6b3f
00000560: 89c2 4038 9c4f bcbf d072 2cd9 f903 c03f
00000570: 3695 fdb6 bd93 81bf 484e 0b87 50ec b13f
00000580: a035 fadf 80c7 933f f704 1367 61fb acbf
00000590: 2635 789e 170d b23f d6ac 233a d83c a63f
000005a0: a2db 9ce2 22e1 97bf a890 54e8 3f78 9fbf
000005b0: 186d fb71 f924 af3f 41ae 96d2 0342 bcbf
000005c0: 45b6 a11b e647 a8bf b292 e740 456d b1bf
000005d0: 7872 74d4 3087 c0bf 1983 39cb 68c1 c03f
000005e0: f481 e609 f0b3 c43f 17a2 c0fb bdb5 c4bf
000005f0: b3c5 c0ac c336 b9bf ac8e 0e7f 9bcc acbf
00000600: 5a9d 94b4 1f4d 81bf 9bdd 1a98 b2a8 83bf
00000610: 5eac c6f3 e520 b5bf 88d4 9d95 6b17 a83f
00000620: a73c a8f6 767f 9e3f 994c ae7e 23d5 97bf
00000630: 8acc 161b f259 bdbf f4fb 9b80 47cb bfbf
00000640: bd33 ffc4 eecb ab3f b163 4b04 4496 a83f
00000650: 9746 246e a221 c6bf d27b 702b a73d bdbf
00000660: cf79 877e 260d a23f a3ca 40a5 cbad 63bf
00000670: b988 f649 d215 c1bf 0023 aab4 47fb 713f
00000680: e9d6 2d34 31ce c4bf 2dff 1449 f24f c0bf
00000690: 8d0b ae22 eb1b 5ebf 1bfe 8519 0d19 903f
000006a0: 3882 47cd a1eb bebf bbcf 82b2 945e 9b3f
000006b0: 46d9 0452 8b25 8ebf a41c 5ab3 39dc a33f
000006c0: 2f2d 6b13 45fd a13f f574 f639 a3b8 b1bf
000006d0: 7203 93d7 4ddb c3bf 8744 d909 efc8 c1bf
000006e0: 4eeb 829d 7b38 9fbf b83b 6bee d17f b1bf
000006f0: 4c67 e81d b9a8 afbf 61dc 30eb 5f43 c1bf
00000700: 2571 568a 7d16 c5bf 4eb7 f7db 1f4e b2bf
00000710: cd5f 3ae9 b96b b03f ef2e 5877 360c c1bf
00000720: 5adc 3a98 5259 af3f 9694 006d 1ec8 b9bf
00000730: 6be5 8fea 7c22 bbbf db60 a491 bf68 b0bf
00000740: 9b29 b4be 7dd0 acbf f31a ef17 6c18 9cbf
00000750: 0b1d 493b 26f7 c6bf 86de 1887 9ef6 7dbf
00000760: e78a a227 9f7d 93bf 5697 102b dcec 9cbf
00000770: 7863 2672 b035 a1bf 4a61 6b08 f162 a6bf
00000780: dadd 7582 b693 c3bf 0c0b df6f 9eed b7bf
00000790: 8678 58f9 365c b1bf b4c8 03f1 b21e b5bf
000007a0: ef1c ebb7 7d42 c1bf c9b4 bc63 9005 a2bf
000007b0: 531e 9ba2 6933 c4bf b3be 364a 14cb bfbf
000007c0: faaf 0eed f6c6 8f3f 6fff d552 aa63 b7bf
000007d0: 8ae0 4b59 91ba c2bf ac37 c6b1 9425 c0bf
000007e0: 4510 2302 12ef 9ebf 0e52 2414 3300 c6bf
000007f0: a8f4 0eb3 9a63 9f3f fade a3c3 626d b5bf

transform_generator.6.bias f8 [64]
-0.21121189367098767 -0.2564339945461157 -0.15151112240598935 -0.14504315294526218 -0.009624935118860931 -0.15608240334979231 -0.20266558822745182 -0.32640143676046596
-0.10734820718226912 -0.17235693422249643 -0.052422471462966504 -0.00187466475512627 -0.17269391779925125 -0.12426265760774098 -0.12120900066798201 -0.08686095903510421
-0.02137344840380885 -0.1983722997914195 -0.12539111138783138 -0.058287972093754976 -0.13459967932291406 -0.13090379371745128 0.13036785409114804 -0.08292201374311257
-0.06207166156650869 -0.22831429976138115 -0.1345820549843119 -0.11727154759758053 -0.07558969787734446 -0.0996925365744136 -0.06148577984736311 -0.10842784860122358
-0.12710656700916714 -0.010171184345946173 -0.2467672575327626 -0.18870462884344 -0.0350998512245443 -0.17752073924424053 -0.24733848356203103 -0.15313787070976362
-0.18333454433906626 -0.14859172898833004 -0.4456800139391626 -0.07794522107878078 -0.02534517717781045 -0.22829823337820165 -0.049876531332015236 -0.344753430062228
-0.13296149667704119 -0.015699430835876615 -0.07076981222584271 -0.10352528599167876 -0.11643526112012008 -0.07549954314654014 -0.05724360330154898 -0.12283612200804926
-0.14036068698388332 0.12544342370174308 -0.04114779506126295 0.15466803118022504 -0.19241177336511547 -0.08238530644917777 -0.15046154056354777 -0.0748512899239222
00000000: 67eb ebc7 fd08 cbbf 1a20 0a21 6a69 d0bf
00000010: 9a63 db69 b764 c3bf e54d 3427 c690 c2bf
00000020: a537 7eec 3cb6 83bf 0129 ef18 82fa c3bf
00000030: b312 bb2c f2f0 c9bf 343b 10da c2e3 d4bf
00000040: e0cf 210f 2c7b bbbf a0ba dcc1 ca0f c6bf
00000050: 0d93 0441 1ed7 aabf 165d 1cf4 e9b6 5ebf
00000060: 183c 9594 d51a c6bf 1d0f 8a72 adcf bfbf
00000070: 208e d995 8d07 bfbf 34df 5a12 853c b6bf
00000080: 04a2 96d7 ebe2 95bf 89aa 0476 4364 c9bf
00000090: 8e56 4fe1 d00c c0bf 1922 c9cb ebd7 adbf
000000a0: 803b 5ff2 8f3a c1bf 0f2a 789c 74c1 c0bf
000000b0: 0cb6 e2d2 e4af c03f 4f27 2589 603a b5bf
000000c0: 8281 df58 dbc7 afbf 3f96 5729 6739 cdbf
000000d0: b59e 641a fc39 c1bf 91d3 ae15 8205 bebf
000000e0: 0e37 4cb0 d859 b3bf 4a0d 3e38 7385 b9bf
000000f0: 1b1a 3a6b 107b afbf f1c7 b76f edc1 bbbf
00000100: 61a2 342a 0745 c0bf e7f7 0441 a1d4 84bf
00000110: 67d5 69ca 1196 cfbf 2142 be28 7927 c8bf
00000120: 3230 3592 9bf8 a1bf 8537 b5e4 ffb8 c6bf
00000130: d477 f894 c9a8 cfbf 151f 3d91 059a c3bf
00000140: b4e8 14a0 8177 c7bf 2701 3bc4 0d05 c3bf
00000150: a95e 1677 0586 dcbf c1b0 69cf 37f4 b3bf
00000160: 962e 5c0c 16f4 99bf 9c06 0c63 e038 cdbf
00000170: 965e d1ad 6a89 a9bf 1945 d3b0 7010 d6bf
00000180: 1174 eddf e104 c1bf b30b 06f8 8213 90bf
00000190: 93d6 0d6d f81d b2bf c8af a415 a280 babf
000001a0: f3b4 9c86 b3ce bdbf 8e65 ad24 f053 b3bf
000001b0: 0fb3 2b98 084f adbf f7c2 ca26 3072 bfbf
000001c0: 1eb4 1ec8 56f7 c1bf 8b0c 26b5 870e c03f
000001d0: ab67 2ee4 5211 a5bf 6ef0 d37b 29cc c33f
000001e0: f3f8 fbf0 f2a0 c8bf 92c2 de14 3417 b5bf
000001f0: 045b 03e2 5242 c3bf 9062 4942 7429 b3bf

transform_generator.8.weight f8 [3, 64]
0.03657216252838689 -0.07753194900443168 0.07399941441720398 0.025214452667329756 0.009375172715276065 -0.027083776360772426 0.002248098974458709 -0.10547875410237466
0.013029719222583181 -0.029588212644050097 -0.052114956640500164 -0.03325111142743264 -0.03284323579851638 -0.04269260968536562 -0.044021517147110945 -0.0026030207418826752
-0.01383658067101235 -0.024945468331813846 0.0686608345730443 0.06563495760976279 -0.08748020274064422 0.05207176323733519 -0.04601115262239177 0.019424843903040778
-0.05453841971688237 -0.17309735954262825 -0.035226934308660605 0.013988469044925785 -0.012425104897987697 0.0007281778856854183 -0.028738343210897827 0.0789756128254581
-0.01568861407942905 -0.0026902903712825166 0.01481592146573096 -0.02315394868103768 0.010143466482030173 -0.11440534714289848 0.2567422733249811 0.03774239375542873
0.008287698379215036 0.009813869921484203 0.15388254015361355 0.002501709642203095 -0.007664128052524327 -0.18755415712638507 -0.03492044029075682 0.10524589802923434
-0.011878296064293688 7.54982677888718e-05 -0.006618711459096092 -0.05397963117265866 0.04578429136318829 -0.045156280785261425 -0.009758792756697113 -0.025832563422847482
0.06676284165922201 0.11689347214149194 -0.01768544228148408 -0.27148093454893957 -0.06341005162346536 -0.05452454922361818 -0.06128220739892589 0.026003318373102737
0.11975211183087768 0.06198497430328568 0.08076346155810876 -0.05658257491697259 -0.003282524678498175 -0.02469116824593922 0.18806589102918034 -0.023106852535161877
-0.0011704682625848365 -0.052066038693644276 0.013349299053893727 0.030850794695715594 -0.020300604522242825 0.1076504638610097 0.01483506377369518 0.0485315184215908
-0.03053449127378806 -0.08202758076064612 -0.02819464368583378 -0.036038383682666084 -0.0843502595526054 0.0009853805516025255 -0.21046803164824138 -0.008740078372340806
0.14748155201227087 -0.07658103423388173 0.11873257518643585 -0.007535514240244455 0.054034384204984666 -0.0564394576647097 0.0040788426318842915 -0.007691038672647089
-0.030471005164071505 -0.03349488115505989 0.086697043854215 0.10684420293508255 -0.0006719566032171835 -0.447487501601167 0.2287190621421207 -0.0908453899219744
0.00858322450457073 -0.007898144903189923 0.052149996510363346 -0.004522218211038694 0.00861596920667896 -0.12928579481407063 -0.023544514494325833 -0.03340710587957877
-0.07252213003040903 0.07802140517750702 -0.0067187882561756404 -0.049360390861155665 0.011851812049930792 -0.10017016955738087 0.06409821866422379 0.03282487396527484
-0.11003508444716767 -0.10892732163415107 0.021153570766661557 0.17287934275159905 0.05215726058068822 0.019030518272819746 0.04834810451432416 0.11492100935489914
-0.12002630488367251 -0.023764083608306865 -0.09630149047069016 0.07287747305515622 -0.09455198092473481 0.08887878727924532 -0.033168205355826895 0.037316154073010914
0.05011694523563628 0.058183151623840794 -0.03474297905364545 -0.04274142256640286 -0.0024896264613675496 0.06043399716597888 0.06422822961399598 -0.03219646466129324
-0.09430695808004365 0.08518867430696166 0.11982917229226354 -0.0989860910019988 -0.05846751048797343 0.11692869760970175 0.10842071757499881 0.0888657487774434
0.1098947478557747 0.001526953348699733 0.12495865484486122 -0.004301231650768954 0.013247254547201352 -0.03100048737418731 0.0763582254742239 -0.027434168763188323
-0.07842975307672466 0.0332413952661899 -0.11753771658334093 0.03270906206437101 -0.05693702769987346 0.11073626856824113 -0.10758645548326788 0.018246281671695893
0.10669183717957541 -0.09859311733073521 0.08653388997012486 0.007921027500640053 -0.12098053853818276 -0.10619790356251839 -0.010345024046059718 -0.11194356567472523
0.02540261819389505 -0.08901577904719192 0.02090966993335044 -0.08370497337545134 -0.05628836013104529 0.05480889000367458 0.07093155454684087 0.023859068894554605
0.11469293393618167 -0.06595088082421242 0.11535113044730345 -0.04336900001814702 -0.03987558485862829 0.004609301985044083 -0.009887721013055321 0.09923465825876486
00000000: 0dc0 0124 96b9 a23f 2d82 5e41 22d9 b3bf
00000010: ac54 d828 a0f1 b23f 53f2 5e46 d1d1 993f
00000020: aad5 a661 4a33 833f 2304 e376 d9bb 9bbf
00000030: 79e0 59f2 9a6a 623f ebe2 4ad7 a700 bbbf
00000040: e717 7f4f 53af 8a3f c1f7 9c56 5f4c 9ebf
00000050: 438b cec4 cfae aabf 0fe0 4528 4a06 a1bf
00000060: f783 4c1f d4d0 a0bf d452 c244 cedb a5bf
00000070: 982d ef00 fd89 a6bf fa58 a11e ee52 65bf
00000080: 8382 c36b 5a56 8cbf d696 ac0a 4e8b 99bf
00000090: d9dd 01a7 c193 b13f e084 68dc 73cd b03f
000000a0: 4c8a d141 1a65 b6bf 6f7f 4c70 26a9 aa3f
000000b0: 5364 8717 c68e a7bf 2082 2c35 1be4 933f
000000c0: e57a 1eb2 75ec abbf ab38 21e5 0d28 c6bf
000000d0: 1b8c 96c5 4309 a2bf be71 8d88 fca5 8c3f
000000e0: 5c64 7d59 5572 89bf 4942 331a 66dc 473f
000000f0: 3899 ed90 956d 9dbf 9b53 44ea be37 b43f
00000100: 0c17 9011 ad10 90bf c034 2aa5 f209 66bf
00000110: 3e4c 3e51 cf57 8e3f 39eb 6e31 abb5 97bf
00000120: 1a96 7706 19c6 843f dd5d 7738 ab49 bdbf
00000130: 7c9d db24 776e d03f 6c63 b495 f852 a33f
00000140: f393 fb0b 24f9 803f 6339 e152 4b19 843f
00000150: 7b4d b14e 6cb2 c33f 127e 1d23 777e 643f
00000160: 533c 68b5 6b64 7fbf fa17 8b4d c601 c8bf
00000170: 427d 058a 17e1 a1bf d0de 122a 65f1 ba3f
00000180: beda 06e9 a553 88bf 2e45 3e5d 9aca 133f
00000190: feb9 22d4 381c 7bbf cbcb 12dd 37a3 abbf
000001a0: a09e 26e4 0971 a73f 9b06 5d5a b91e a7bf
000001b0: 825b e8fd 6afc 83bf 28ba 4afc d973 9abf
000001c0: bbae 839d 5e17 b13f 29ae f607 bbec bd3f
000001d0: 8869 dbf0 211c 92bf 7903 d891 f15f d1bf
000001e0: 68e0 f521 a43b b0bf e339 7d47 a4ea abbf
000001f0: 83cc 35a9 6160 afbf 77f3 ff27 9da0 9a3f
00000200: 2bc8 f00b 13a8 be3f e5b7 f39a 7ebc af3f
00000210: a094 1a0a eaac b43f 9e6f 9529 64f8 acbf
00000220: ad0d 8f04 f4e3 6abf 8622 7740 a448 99bf
00000230: a751 bb09 8b12 c83f 02dd ce9f 52a9 97bf
00000240: 3fe8 29ba 4c2d 53bf 46cb d75a 66a8 aabf
00000250: 8d52 e396 e056 8b3f 1b47 18c9 5997 9f3f
00000260: 265a 0c82 aec9 94bf 05a9 ae15 fb8e bb3f
00000270: 94cf ef8d d861 8e3f 1654 e488 1fd9 a83f
00000280: e404 af05 6f44 9fbf 52aa bc70 c2ff b4bf
00000290: 3b4d 3682 0edf 9cbf 3eb0 a27e 9f73 a2bf
000002a0: 6503 3086 fa97 b5bf 125d 914f fc24 503f
000002b0: 2d2f 64d0 9df0 cabf 7e7f 3076 51e6 81bf
000002c0: acf8 53ed ace0 c23f cf43 878d d09a b3bf
000002d0: 3e46 650f 4265 be3f feb9 8633 8fdd 7ebf
000002e0: 6531 0a12 65aa ab3f 7070 bff1 a1e5 acbf
000002f0: fd00 5afb f9b4 703f 8101 2479 a380 7fbf
00000300: 39ad 9f8a ca33 9fbf 59ed 49b6 3d26 a1bf
00000310: e483 0308 c731 b63f f794 5f45 245a bb3f
00000320: 6a90 4cd1 c704 46bf 88ba 2f9e a2a3 dcbf
00000330: 41a4 ef8d aa46 cd3f 350e b5ba a441 b7bf
00000340: 06b3 54e4 1494 813f 2956 7710 e72c 80bf
00000350: a13e ff82 67b3 aa3f ef09 26b5 e385 72bf
00000360: 846d bacf 3fa5 813f 972a 48da 6f8c c0bf
00000370: 4468 039f 0d1c 98bf b5e1 6976 bc1a a1bf
00000380: 8c84 b770 cf90 b2bf 7217 a0f7 35f9 b33f
00000390: e1ad 43fd 2885 7bbf 56d1 eee0 c345 a9bf
000003a0: bcea 3849 c345 883f 3ea2 4892 c0a4 b9bf
000003b0: ed0a e5a8 bd68 b03f e833 5a00 6cce a03f
000003c0: 96f9 1c61 422b bcbf cf3e 0f34 a9e2 bbbf
000003d0: 1ab5 8b1a 48a9 953f eed3 a209 e920 c63f
000003e0: aad1 e240 5bb4 aa3f 9b46 6e76 bc7c 933f
000003f0: 83db 6c2f 15c1 a83f 5177 cd98 766b bd3f
00000400: d195 223e 0bba bebf 0719 aba7 9c55 98bf
00000410: f9ae 20e8 36a7 b8bf 8f13 631b 19a8 b23f
00000420: 1f00 d801 8f34 b8bf ed28 ac9c c2c0 b63f
00000430: 4363 8a4a 6cfb a0bf ff4f b65a 1a1b a33f
00000440: e363 86a1 eda8 a93f 4f22 ce9a 2eca ad3f
00000450: 531f 9aed d4c9 a1bf 1be5 3628 34e2 a5bf
00000460: 3ff5 6207 2065 64bf 83f3 c972 34f1 ae3f
00000470: 2f0e ace1 4271 b03f f3bd 8815 0e7c a0bf
00000480: 1931 bd34 8024 b8bf b153 23ca ecce b53f
00000490: 111e 1ae8 1fad be3f 7dca 9c07 2757 b9bf
000004a0: b748 d91a 74ef adbf 2392 3204 0aef bd3f
000004b0: 6787 31cc 75c1 bb3f e3d1 bbdc e7bf b63f
000004c0: 99ef 0aec 0f22 bc3f ffe0 7dac 8104 593f
000004d0: 372c e957 4afd bf3f 3f75 5c14 2b9e 71bf
000004e0: 0f0d 5668 6021 8b3f 6f91 ba7d 97be 9fbf
000004f0: 3140 3171 368c b33f 8ffa 85e6 b317 9cbf
00000500: 9375 7fe8 f813 b4bf 0759 1523 0405 a13f
00000510: 939f c5a8 f316 bebf 77d8 b2ff 3dbf a03f
00000520: b707 ce9f d926 adbf 9f4e fb4b 3659 bc3f
00000530: db0e cb33 c98a bbbf afd2 363c 27af 923f
00000540: 17ba 6fff 2750 bb3f abd3 8b06 663d b9bf
00000550: 5dd7 6ac3 1527 b63f ff18 8750 e638 803f
00000560: 9d55 79a0 94f8 bebf 5b6c b42a c92f bbbf
00000570: af1e a29f c52f 85bf 1311 9261 55a8 bcbf
00000580: 2f91 80d9 2403 9a3f 3fed d5f3 bcc9 b6bf
00000590: 47b5 2232 5869 953f 3ffd 286b b06d b5bf
000005a0: fb0d d1f3 d3d1 acbf 6b12 312c e90f ac3f
000005b0: a97a 0803 9228 b23f c7e2 7502 836e 983f
000005c0: 8b93 5620 845c bd3f 714a 482c 28e2 b0bf
000005d0: 95ea d3d4 a687 bd3f bff0 7929 7634 a6bf
000005e0: 5fdc c099 926a a4bf 9fca 8714 34e1 723f
000005f0: af79 1073 0340 84bf bfe3 d94b 7167 b93f

transform_generator.8.bias f8 [3]
0.5051565401419728 -0.025694280448954686 0.07831893724757852
00000000: 2ba6 680c 3e2a e03f 56da e3f8 994f 9abf
00000010: 7ec5 22ba b50c b43f
