models/GFDL-ESM4-livneh/QM_FNO1d_layers2/2000/1980_1990/livneh_bci/model.pth (torch, 340404 bytes, 14 tensors)

transform_generator.fc0.weight f8 [64, 3]
00000000: 7c2f 94e5 2cbc ddbf 3a20 7958 3462 ddbf
00000010: a600 90a9 28bc debf ff12 0e2e f4dd dcbf
00000020: 74c0 1901 fb86 b83f 23bb 8cd4 3ca7 b7bf
00000030: 58f3 a4b3 d171 dd3f 69ef c65a 79c4 dc3f
00000040: 28e0 1151 dadb dbbf df43 c4ec 51f3 d6bf
00000050: 7443 8394 7625 d5bf 11ce 39f8 fbd0 cabf
00000060: 1a68 c4a7 631d d53f aac3 71c3 c12e d73f
00000070: d1b2 64ac 3069 b3bf f1d8 5a0d 2472 b03f
00000080: f564 1221 8051 e1bf 4688 6710 b110 d33f
00000090: 573e b389 bece b83f c318 7609 0eff 7bbf
000000a0: 8f10 7751 7f82 dcbf 681e babf 45b7 c23f
000000b0: ae33 ac63 82ea c5bf c910 07d5 77d3 c3bf
000000c0: 9383 ceff c86f debf 0492 e420 05c5 ddbf
000000d0: 7439 c99f 81b8 db3f d854 8719 b082 d5bf
000000e0: df4f 3527 f447 d4bf da55 518d 4b82 dfbf
000000f0: d223 6382 40d7 cebf 17cb 4e47 9ec8 d0bf
00000100: 71a6 bf16 f730 d7bf 2fa8 e6cd de20 c5bf
00000110: f05a 550c 5907 b13f 40d5 4ab3 133b b13f
00000120: 6d75 c686 b8df d63f 3f44 c5ff ec59 debf
00000130: ea31 7dd9 d35b c6bf 4735 b8a2 84c3 89bf
00000140: 0abc b6ef 662d dd3f c782 09aa 3ed4 debf
00000150: de07 358b 0615 c3bf 9ee3 d72c ad78 c9bf
00000160: 1250 8a5c 06e3 e33f e237 8ac5 3d58 d53f
00000170: 9e80 2708 7b89 b6bf c3e3 88f0 f369 d9bf
00000180: c0e1 5270 4a34 c23f dc40 9632 4219 a93f
00000190: b88d 75d9 f662 d23f f9b0 90e8 84f0 b3bf
000001a0: 6b1c 5724 9fd1 d9bf 138f 2f77 bd54 ad3f
000001b0: 893b a400 19d7 a63f bae4 0c1a 8d51 e03f
000001c0: 262f 19cf 06ad d6bf 851e cdf7 67c7 b4bf
000001d0: 518a 5f58 496c b93f a71a b55a c3b6 d4bf
000001e0: c783 b038 faee dfbf fe7d 443d ed18 cb3f
000001f0: 15fc bf55 a658 d6bf a844 2f30 50ff ba3f
00000200: 1509 db58 2267 babf 0d8c 03ee 9662 96bf
00000210: 81ef 17cd 5b82 c63f 4bd1 8814 8f99 da3f
00000220: 2719 8642 d02a c23f 35b9 0d76 0a14 d6bf
00000230: 7ddf b03c 7e0f 953f 7c86 1b85 c783 de3f
00000240: 934e 0338 7359 c6bf ba6b 5590 873a ddbf
00000250: 6518 d0f2 17d9 be3f 0559 2dc8 19c5 e0bf
00000260: b754 393c 4d82 c13f 077f 2b1b ed9b b93f
00000270: b696 6ccc 9c91 d6bf 0cff e264 a8fd d2bf
00000280: d985 d476 5d79 bc3f e687 1532 4a18 b53f
00000290: b419 30b6 d4a4 c43f d32c fdb6 73a7 d5bf
000002a0: 37a0 743a 9ec1 d83f d73b 367d e91b e03f
000002b0: bea2 bacc e9c7 d0bf ddf4 2b20 f8c7 c73f
000002c0: 8043 18a5 8195 e0bf 0695 47a7 76a5 d9bf
000002d0: c1fc 5d92 37c9 dc3f 1c45 0fa7 4fd9 d43f
000002e0: 1315 b567 e98b dbbf f65a 988c 710b af3f
000002f0: 34c0 3c68 4da8 dd3f 4e91 5932 8177 d3bf
00000300: 85fc 8741 cf82 943f c9ee 7036 3b13 b33f
00000310: d9b5 c32d 1cb8 ddbf cb5a 6a27 c232 df3f
00000320: 9af2 474f 4888 b6bf f045 8ca3 1a32 bbbf
00000330: 03b7 09cb d60c d23f 3290 999d 6a05 73bf
00000340: 3430 be91 80b1 d23f 2d8d 2d56 c906 8a3f
00000350: 2595 011c 77dc 983f b2d1 f3c1 cd21 bbbf
00000360: 3cd1 6880 82cf 993f b6cf 89c6 9afc bc3f
00000370: 3a17 b02c 8e0c a3bf 7bf9 12a2 73a4 d4bf
00000380: ad81 d0fd 973f e0bf aefb c139 3ece e2bf
00000390: 947e 5f91 6172 d2bf 54fe b657 0b4e cf3f
000003a0: 551c 8db3 36df da3f 99e4 49b5 5ab2 d9bf
000003b0: ab5f a157 5423 df3f 4973 844d 610c 933f
000003c0: 2b29 d088 dbd6 b73f ea3f dba1 709f d3bf
000003d0: 5a48 2c0a 7d6f c9bf 90f9 a844 a3ed b5bf
000003e0: 5f01 bb7e 24cd d23f ac47 d7d1 ec33 ca3f
000003f0: 21d0 3039 0004 c6bf 5604 a315 087f d13f
00000400: f086 92bb f88f d7bf 1576 6ca6 23a1 e0bf
00000410: 2a61 bcb4 62a2 de3f e73c a231 b0a5 d73f
00000420: fe9e 1ad9 8417 9c3f 3d43 ece3 5524 9dbf
00000430: c06c 26c9 1803 e1bf 5a48 0e2d 8a17 dc3f
00000440: b0cf 17dc 0ea3 b0bf 02a5 ca40 99d1 d73f
00000450: 489e b13e 7826 c73f 2864 bef7 f788 d2bf
00000460: 4741 ab69 f2f2 d9bf e14d 13c4 bb97 bb3f
00000470: 7512 7772 a141 bcbf 1613 b721 fb0f d2bf
00000480: 4960 9262 ceaf bfbf 13e7 9130 6b28 8dbf
00000490: beb9 3a36 1e6d c6bf 3643 a747 e7bd b4bf
000004a0: 7a67 cd20 36ef a2bf 8166 6277 189c d03f
000004b0: 3c21 a966 2e41 d7bf 7d35 11cd c289 ca3f
000004c0: ce58 8ea0 8d54 ce3f 2bb8 ba96 46fb a9bf
000004d0: 1f28 f203 715b b03f b8ba 8e3d 830a cc3f
000004e0: 3b8c c9ce 32b9 ba3f 5ff0 0f1e 5c07 d33f
000004f0: f3c8 f5c7 c375 c23f ba52 4a46 1cb5 b5bf
00000500: feea 5c3f efc8 d1bf c56e 6ea9 d13f df3f
00000510: e6d4 5aa3 6be1 b4bf 7a9c 4cb0 0b1c cabf
00000520: e2ef d3bc 5cbc e03f 365a b9c6 ffa6 c73f
00000530: b6ef 89e8 239e dd3f b86e eba4 6e33 e43f
00000540: c9f5 c628 2f27 adbf a18c 0ab5 320a d7bf
00000550: 9fce d3ce bfd5 ce3f 67c5 b4be 3af4 df3f
00000560: c4e5 3e31 40c8 d03f 4724 43eb 06c5 dd3f
00000570: 59c9 a06f e8ab d0bf 2adf 3c3e a42e d9bf
00000580: 3382 6054 0714 e3bf 5970 1bba 3685 dfbf
00000590: 7c5a beba 34c6 c3bf aff4 f868 ec90 be3f
000005a0: 5e34 31ae 4848 afbf 6715 1c4d 6fba b3bf
000005b0: 2734 b215 0339 d13f 5b74 4b8b b14e d13f
000005c0: a41c 99fb dd9a d5bf f381 f885 062c ce3f
000005d0: 552a 33d1 58e3 c03f ab77 9026 7f3e debf
000005e0: 3c5e 98b5 9154 cb3f 17ee d4a3 a2bb c5bf
000005f0: ed72 2553 ea63 c13f f6c9 245d ea99 a8bf
-0.4646103136044457 -0.45911892547565325 -0.48023430403555734 -0.45104698655659087 0.09580963875646537 -0.09239559354021458 0.46007196944610973 0.44949182381582503
-0.4352937499711538 -0.3586010753797932 -0.3304115724868588 -0.20950269337082308 0.32991877921597423 0.3622288139950408 -0.07582382401296718 0.06424165082976054
-0.5411987920698765 0.29789377786631055 0.09690466749020153 -0.006835036117428031 -0.44546492534232923 0.14621803151770796 -0.17121915690259243 -0.15489099408853793
-0.47557282429812026 -0.46515014850800207 0.43313637355904366 -0.3361015557578191 -0.3168917067425791 -0.49232758331831195 -0.24094396940770807 -0.26224476779604927
-0.36236359807535395 -0.16506562284240675 0.06651836920842036 0.06730769278768367 0.3574048343815182 -0.47423863389582616 -0.1746773540456979 -0.012579952445799803
0.45589612397719803 -0.48170439343634225 -0.14907914921974358 -0.19899525346388897 0.6214629943301608 0.3335108212567076 -0.08803528737144226 -0.3970918511363914
0.14222078785475212 0.049020832705652245 0.28729029880761514 -0.07788878133641565 -0.40341929005484783 0.05728714065460685 0.044609814956962764 0.5099549778743928
-0.35431070541811704 -0.08116769599757319 0.09930857093380864 -0.32365497453830944 -0.4989610246284965 0.21169820300654857 -0.34916075109498595 0.1054582708013806
-0.10313620251966811 -0.021860464360440136 0.17585322870570155 0.41562249188725237 0.14193156479104482 -0.3449731972567805 0.02056691403797072 0.4767931747320302
-0.1746047996044707 -0.45669735999188854 0.12050008466766966 -0.5240601453504331 0.13678899231550698 0.10003549493148621 -0.3526374813394385 -0.29673204281060417
0.11122688437583096 0.08240188334232776 0.16128024001973318 -0.3383454596521009 0.3868175097327397 0.5034072347206074 -0.26220173829146265 0.1857900769318012
-0.5182502960688993 -0.4007240899648682 0.44978131574312036 0.32576361956042077 -0.4304145348326795 0.06063418236970179 0.4633973615591487 -0.30416898648242785
0.020030248999316064 0.07451219634179575 -0.4643621870917208 0.4874730477253421 -0.0880170053059807 -0.1062332772528618 0.28203363254475294 -0.00464383742073342
0.2920838759680493 0.012708256666604878 0.024278508266793914 -0.10598455414930788 0.025205649459352872 0.11322944018485157 -0.037205164866505006 -0.3225373347048827
-0.5077629048646962 -0.5876761558609951 -0.28823126980385294 0.24456922324133024 0.41987388166712 -0.40151088432282617 0.48653133924153263 0.018601913791928913
0.0931222161308695 -0.3066064434651695 -0.19871485707023134 -0.08565731455107639 0.2937709081270636 0.20470962759151 -0.1719970969439837 0.27337839234320904
-0.3681623298417511 -0.5196703196012914 0.4786612286566362 0.3694878086761961 0.02743346762750231 -0.02845892146712291 -0.5316280297005491 0.43893675231914175
-0.06498806832661219 0.37216788604071394 0.1808615022775817 -0.2896099013683533 -0.40545330352053494 0.10778401886937373 -0.11037644428786016 -0.2822254018067708
-0.12377633959329261 -0.014237248821007442 -0.1752050175468422 -0.08102269648885571 -0.036981288437075 0.2595273176062634 -0.363353348021082 0.20732913029716463
0.23695535983706012 -0.05074520673711932 0.0638952860482793 0.2190708208631429 0.1043884043552205 0.29732420860069014 0.1442188955657638 -0.08479477611610778
-0.27788907230176096 0.48827020212204914 -0.08156464327005927 -0.20398088558542665 0.5229934394878877 0.18478390887567436 0.46277711590641546 0.6312783452117037
-0.05693957684296042 -0.35999744109921933 0.24089810942642928 0.4992815840115185 0.2622223359026885 0.46515057539778976 -0.2604924287908453 -0.39347177579792236
-0.5961949012744924 -0.49250572371034235 -0.154486266311057 0.11939885676197791 -0.061098357452103555 -0.07706351883469652 0.26910473936806273 0.27042807200434077
-0.33757733888746544 0.23571855107822123 0.13193807806813376 -0.47256449476287327 0.21351834647133383 -0.16978867530438954 0.13586167392613593 -0.04804928195007456

transform_generator.fc0.bias f8 [64]
00000000: 6491 ba6c b8e1 ddbf 0bd7 d5e1 73f6 c53f
00000010: 09cb 9001 3b84 cebf 8503 76f3 a75c d3bf
00000020: c546 9907 769f cd3f c9ff 1549 a352 d4bf
00000030: 7700 b407 088f cf3f 599c 794d c877 dbbf
00000040: 5be5 8e20 802b e03f 8c10 7d3b f868 c2bf
00000050: a3e1 ff04 a470 e0bf 4211 c39c 625f d0bf
00000060: 5189 5445 aa92 df3f 8a0e 019e 34b7 db3f
00000070: 4c77 7573 88fc d23f 8a12 3ad9 5bc9 d53f
00000080: 2001 03f4 049f c9bf 1895 625e b901 c0bf
00000090: 09dc ea6d 3097 d93f d50b 98f1 6753 e0bf
000000a0: 7348 2a9c f1bd d0bf 1a30 8c3b 8c6f d1bf
000000b0: e218 baf0 d883 bd3f 3362 47da c45d e03f
000000c0: ddab 7d0b 13ca a8bf d7a3 cc76 a56e db3f
000000d0: a8a0 4454 3e2d 8dbf 5530 60a2 1662 d8bf
000000e0: 8a48 024d 4b9a d23f 7937 66a9 6111 d93f
000000f0: c35a db9f 70a5 d63f cb15 c42c 0eb2 dabf
00000100: 90b5 3ac7 84ee ddbf ca29 6349 ff5c c63f
00000110: d8b1 5664 03f3 c83f a706 d42f 6990 e1bf
00000120: e277 866f 6733 da3f 6e85 9c4d cf76 c03f
00000130: 3a03 5e53 b369 d83f ce1e 40ed 5415 a9bf
00000140: 1174 05fc 190a b1bf cf56 8772 40e2 cf3f
00000150: c257 4d78 9da0 de3f 015d 94b0 8681 c43f
00000160: 14e5 edb1 fd35 e0bf 10dd 27c6 6a2f d33f
00000170: e5d0 4d5e ba60 db3f 29e5 828c c883 c83f
00000180: 16a2 eecb a5a8 ddbf 06e4 ef51 f949 ba3f
00000190: 521e d35b 3a6c cd3f 4483 dcc6 24c0 dbbf
000001a0: c884 9dd1 4c53 cf3f f1d4 6940 5784 d3bf
000001b0: 5c6b d17a 5d34 dc3f cde0 52cb 6d81 c63f
000001c0: 212c b471 38a7 b2bf 1d17 e2f0 4453 df3f
000001d0: 7525 a631 c66f debf a736 6bc0 353b d03f
000001e0: 6cba c672 8094 d8bf ab96 8ab3 a47e e2bf
000001f0: 2371 c47e 4d14 d9bf b9c9 6db0 a470 c3bf
-0.46690188043637293 0.1715836384498107 -0.2384103543896219 -0.3025302770184271 0.23142886515647923 -0.317543813107474 0.2465524709332418 -0.4291859394638258
0.5053101192380994 -0.1438284197303158 -0.5137500856063081 -0.2558218508604747 0.4933267285397465 0.43305697851267466 0.2966633918311927 0.34041496480521316
-0.20016538538585227 -0.12505261524817324 0.39985285505412144 -0.5101814001685577 -0.2615932488489598 -0.2724333364028567 0.11529308201906788 0.5114464057215343
-0.048416705277155116 0.42862831689359154 -0.01424645132699738 -0.3809868417454301 0.29066736717607766 0.3916858820238001 0.3538476525404059 -0.41711763736415425
-0.4676830239867167 0.1747130497299863 0.19491617583606913 -0.5488782819886254 0.40938745394839604 0.12862578668231656 0.38145144597369873 -0.04899087329982664
-0.06656038668502641 0.24909215538234838 0.4785531687569994 0.16020282384918264 -0.5065906977826296 0.2997691092600272 0.42777880868312784 0.19152171002296228
-0.46341843524217674 0.10269125223557304 0.2298653553354933 -0.43360251827293816 0.2447296165001147 -0.30495244303104047 0.4406961154360738 0.1758248560706818
-0.07286408210727348 0.4894573547720585 -0.47557215546165504 0.2536138896074171 -0.3840638275968675 -0.5779593950907914 -0.39186417941688684 -0.15187510122957606

transform_generator.w0.weight f8 [64, 64]
00000000: 2d53 2405 84dc aa3f f0ac d429 f281 923f
00000010: bf5b aff9 17cb 613f bf67 448e 9cd0 bfbf
00000020: 4148 10fd 10c5 b83f 898f e408 7fc4 c6bf
00000030: 6b46 8339 c63e bd3f a80c 032e d931 bfbf
00000040: ea30 ef6b b164 a23f 0f06 48fa 5fff a93f
00000050: 8881 c3e9 014a b5bf fe41 114e 6567 adbf
00000060: 157f 1f68 eea9 aabf 4f2a 7aea afbd 7dbf
00000070: 8b27 481c d97b acbf 92c8 bc45 8440 a93f
00000080: 146e 8a8d 9046 99bf 9af4 ba71 b489 c3bf
00000090: 15c7 9b51 03d5 9b3f a879 0eac bb8a 79bf
000000a0: 3414 de43 1ac9 bdbf 627a 690a 7cb4 bebf
000000b0: 5334 e583 3144 c23f 399d c6f7 25f3 aa3f
000000c0: 070d 7700 954b 963f 3362 2f47 899c b3bf
000000d0: 351f 8d01 fbc3 b8bf 8759 f926 98aa ad3f
000000e0: 65bd 4222 1a63 82bf 04ea 8393 adbf c23f
000000f0: bcb7 0f85 b72a c73f b012 eb32 2c07 afbf
00000100: 2bed b1ef 9b23 bbbf f0ea 11d2 0ca4 b83f
00000110: a8a9 b9b6 5656 703f f834 58d7 3c87 923f
00000120: 61a3 80da 9d9f c73f f364 7ffd 7af8 b33f
00000130: ec18 cfb8 96b5 c4bf 0e9c c610 badf c3bf
00000140: b419 33dd b0c5 b83f 5a4c 0bbc c553 bb3f
00000150: 9128 fe9c 2b84 c63f faf5 f99f 4de8 b2bf
00000160: af4c 8ffa 3b4e 9bbf 47ae d020 6ab6 423f
00000170: 0346 b1f1 0a32 aa3f e894 b17f d150 a0bf
00000180: 7174 631b a6dd aebf 9182 4864 db04 993f
00000190: 00b2 fd46 5999 afbf 2dca 628a 918e bfbf
000001a0: 0378 2a42 428d bb3f 9944 7c8e 8883 c6bf
000001b0: fad1 70e5 c557 bf3f 3f5f 0230 346b af3f
000001c0: 009a 35d6 bfa7 c1bf 13dd 4d52 c7b0 70bf
000001d0: 2bf3 be9b 62c8 c7bf 31c2 c336 efa1 b5bf
000001e0: 84c6 4d3d 556f ab3f b373 28fc d3a8 3abf
000001f0: 4b70 4687 3de3 a1bf 00bd ec5e 67cf bfbf
00000200: d7aa 2192 04a7 bcbf 058d f208 3b0f 93bf
00000210: 4119 ea86 da46 bf3f 952b b0c3 4ed2 a73f
00000220: 3982 1866 19f2 c73f 0117 a0cf 427f a6bf
00000230: 431d d280 52d3 a13f 661c 3531 1056 b2bf
00000240: 0550 fd39 e083 bebf 0631 7cd8 70ec b9bf
00000250: 8d96 1af8 d48f c2bf c6fa 00f0 a5f0 86bf
00000260: 8abc 2709 0887 a63f 46c3 ddc5 0a0e a2bf
00000270: ebf9 b8cd 5c9e a2bf 2825 9cbb 0729 c23f
00000280: d5db 3d14 453d b6bf 4109 9154 8df8 b7bf
00000290: a3ed 77e6 252a a6bf 0929 d6a3 d719 9cbf
000002a0: 1c79 bb1d fb95 b0bf 232c c89f 33ab a63f
000002b0: 0c7e 275f dda1 c53f 3ea9 5eb2 50ad c03f
000002c0: 4f18 ce21 b326 9bbf 0195 8246 cd3f c03f
000002d0: c973 311c e0ce c4bf 414a 0195 a974 bd3f
000002e0: 84f7 c037 14a4 c43f 1432 0154 635f 803f
000002f0: 378b 8440 dc7a b73f 1350 0414 bcd1 c73f
00000300: 6226 8b23 aac5 983f 3697 f739 60dc a7bf
00000310: 87b2 3ad7 55b2 adbf 8bdb b277 26a1 c6bf
00000320: 5613 efc8 7378 b23f 907b aa65 8cfb 91bf
00000330: 406a 93fd 216d c13f 448c 3bf9 655f c13f
00000340: e592 c5c1 fb92 aa3f 3785 c355 02de c53f
00000350: 64c5 359b 9b98 a23f 84fa ac8b 8728 b93f
00000360: a73f 1209 5ed5 b2bf 937a 3819 a15b ba3f
00000370: 4500 9273 8bef aabf febd ad09 89f4 a13f
00000380: 0b92 1c5b 49cf 6ebf 2f99 09c2 dc4f b5bf
00000390: 83e8 2d5a 36fe a1bf c525 26a7 2136 c4bf
000003a0: 7e49 8386 8c21 aebf a1b3 0003 5df5 a13f
000003b0: cc3e c1e8 2121 a13f 555b 8883 7e57 acbf
000003c0: b801 204c 307b b1bf e411 82e7 3ef4 b03f
000003d0: ee25 e8a3 4e49 7cbf 433c 5b63 cb3c c4bf
000003e0: 9967 6f4b 12a1 8cbf 96ca 4a93 0873 c0bf
000003f0: 71ff 5e1c 9c75 c6bf 34a2 b6bd 57c3 ae3f
00000400: 7ccf 4e79 38c4 c33f 39d9 0641 1aff bc3f
00000410: 6b3d b6b0 5629 c7bf 4246 c592 1168 a7bf
00000420: c2d3 fc38 d7fd a3bf 749f 20bc 8345 b73f
00000430: c8e8 234e a1ae 843f 5b19 7c31 3089 923f
00000440: 95fb ecef a79d 9b3f eedb 1cbb f502 90bf
00000450: 91e0 93e1 5eaf 9f3f beab b44b 1b92 c53f
00000460: df73 e221 362b afbf 31d9 c78d 0969 91bf
00000470: 0d68 2a67 b212 7ebf fb6c f773 27d3 873f
00000480: e511 917b 9931 9e3f 3707 c104 d4cc 9abf
00000490: bd94 1fbc 199f c6bf faaa 74e3 8007 ba3f
000004a0: dd7b b17c b55b b63f 88e5 3268 7324 c23f
000004b0: d8de 3d32 f9c8 c0bf 40c4 7c45 8963 97bf
000004c0: 78e9 4658 f43e c83f 7475 e630 bb13 a4bf
000004d0: a40d 4a06 2290 a7bf 8a8c b884 4f17 a23f
000004e0: 984b 2ec4 e902 85bf 217e 1548 4764 acbf
000004f0: 9514 dc2c 3982 bbbf 11a7 0bcb c0f1 b73f
00000500: 3131 4bde 525d b03f e601 4750 b76b afbf
00000510: 3ab5 380b 6318 aa3f b1db f275 92b1 a4bf
00000520: 649c e570 f1cf a7bf b452 3fc2 d369 a63f
00000530: 0a86 1018 47dc 99bf 64d6 f0a6 8049 893f
00000540: 9ce1 65a8 0abb bdbf 579d 0164 9b4a ba3f
00000550: 27ed 58c2 fa1c bebf 2636 bee0 d23b a43f
00000560: c1f6 f596 2508 82bf e1ca 4ea8 a0ac 453f
00000570: 649e 0300 4375 a13f b6f4 930a e24f a93f
00000580: 96f0 114b dee2 a2bf 9a7f 1568 9061 b2bf
00000590: 82d1 098d d7dc c13f 63ec db8a d5d7 9abf
000005a0: d9e9 705b d387 803f e491 1004 35a7 83bf
000005b0: a5ac c2e7 3c3c 883f 93db 51ec b9f4 c2bf
000005c0: c042 27a5 7e29 b23f 5be4 57d1 a34f c5bf
000005d0: 7479 5b04 bf44 c53f 7d48 ab5c 51bb a1bf
000005e0: 4df2 29ee d522 b43f 7d20 8e38 ef1e a43f
000005f0: a690 a521 9d0c 82bf 9beb 9c27 6f54 a03f
00000600: 14b2 6ec6 677e 85bf 1ada 0319 2b81 90bf
00000610: d3f2 970d b13e b8bf 8d55 3aac 485d b63f
00000620: 6117 474b 4bd5 b2bf b003 84e3 7f26 bd3f
00000630: 9db3 fbdc c0b3 bbbf b8b3 9f0b bbcc bb3f
00000640: 6190 1978 560c b2bf 438d f249 8f26 ba3f
00000650: f239 cecf 1fe2 c03f c33d b23c eebf b73f
00000660: 733c 0952 9d77 babf a880 831c eca7 a23f
00000670: 0fe9 138a ab07 a73f 483a e026 614e 9d3f
00000680: af25 c058 a90c 8bbf 1a5f a8b0 79d2 c43f
00000690: 0ed2 5c73 f946 c0bf b0ea 349b 671a b0bf
000006a0: 0d44 0042 3209 a1bf 5662 94c1 6418 913f
000006b0: d536 4ea4 b4ee b4bf 8c0c da89 a667 ab3f
000006c0: bce8 5d90 b0e2 acbf 64df 9c60 aec2 b8bf
000006d0: 015a a52d ac82 b93f 94a5 95fd c0e6 c53f
000006e0: 70ff 3c6a d51d a4bf b718 94dc 7594 c0bf
000006f0: 31f7 ef7a c840 b43f e611 7c90 b2ff b13f
00000700: 7e6d 478d 1f80 bc3f b479 363b ab5b c3bf
00000710: 436a 900c 0251 b6bf 579d 3051 aeb3 9e3f
00000720: 0c0e 3b1c 5a01 733f 7e25 56c3 a20d 843f
00000730: 269b 8d06 e4dc bf3f 800a e43c 2d7d a93f
00000740: 31c9 2439 9e35 7abf 571d a530 71f6 c4bf
00000750: fe82 7cce f86f c5bf d585 176a 7ce9 9b3f
00000760: cc86 c365 942e a8bf 852b aa4b bb08 b43f
00000770: 852b 834a 3061 a5bf 51da c2b6 9935 7ebf
00000780: 2b03 3cd6 3db3 913f a5ae 7a8b bbde a23f
00000790: 302a e9f2 0acd 8bbf 6325 04f9 67bc 893f
000007a0: 5b82 0a7b 689a 873f 51d3 fae6 7ff1 a8bf
000007b0: 05db 3d3c f6df c4bf 2f1a 51bd bb1c babf
000007c0: 5d7e 5826 29e4 a8bf af42 6dcc c035 bdbf
000007d0: 83d7 b3ec be10 b1bf dac4 7b2f 4fb8 bb3f
000007e0: 40c6 ccba 0aa3 bc3f 3994 c317 f1ff c43f
000007f0: 2777 4947 a19a b1bf f756 c39f 32d6 9b3f
0.05246365130202544 0.018073829463145452 0.0021720379131510976 -0.12427690957375058 0.09675699404059036 -0.1778715890333127 0.1142391100322812 -0.12185437558496182
0.03592447702939856 0.05077648096267861 -0.0831605144226214 -0.05742947175952294 -0.0520777227500259 -0.007260977908695467 -0.05563238592374294 0.04932034827506117
-0.02468324531456119 -0.15263991883503963 0.02717976747130198 -0.006235821813702115 -0.11634983212395938 -0.11994147543144032 0.14270609798623698 0.052636324401925845
0.021772697595008796 -0.07660730350415505 -0.09674042499420639 0.05794215656048878 -0.008978084726861632 0.1464745493211269 0.18099111554277936 -0.06060159799156872
-0.10601210214547467 0.09625320557271855 0.0039885890251788805 0.01809401573523403 0.18455861252848663 0.07801026047617991 -0.16179164909244237 -0.15526510066158078
0.09676652336484076 0.10674701538964496 0.17590851941742305 -0.07385716586755811 -0.02666562763972696 0.0005710619167351238 0.051163045886493584 -0.03186659511337969
-0.060284796565363126 0.024432590480616915 -0.061716833034413554 -0.12326917294084501 0.1076241885698153 -0.1758890815476988 0.12243306018428504 0.061364775524622044
-0.13793180427019536 -0.004074839210139974 -0.1858027706602113 -0.08450217330005995 0.053583778127074516 -0.00040679145254945563 -0.03493683124835963 -0.12425848071574208
-0.11192349021591085 -0.01861278764830578 0.12217489045915376 0.04652639521380945 0.1870757816805211 -0.043939674229518395 0.03481538603323966 -0.07162572099069706
-0.11919976630935032 -0.10126405034333538 -0.14501440157362247 -0.011201187502704168 0.04399895774610581 -0.03526338258132582 -0.0363644600988556 0.14187714253083894
-0.08687240356617505 -0.093636353632097 -0.04329031408630193 -0.027442330717840444 -0.06478852725874557 0.044274914984349566 0.16900221964077422 0.13028916081868575
-0.026514815271660826 0.12694707816005038 -0.1625633371030786 0.11506137740915624 0.1612572929606665 0.007994438172453967 0.09171845030918467 0.1860880944956312
0.024191530627638243 -0.04660320956808876 -0.05800121547995212 -0.17679291577016118 0.07215045600521583 -0.017561143593976036 0.13614296800263226 0.1357238261180972
0.05190264454248509 0.170837680699188 0.03632055539754722 0.09827468071032724 -0.07356822701899422 0.1029606520246296 -0.05260883126993624 0.035068781310538796
-0.0037609513027681055 -0.08324985253566262 -0.035142611034602055 -0.15790196096013012 -0.0588497080040211 0.035075098625703356 0.033455905592402496 -0.05535502772925464
-0.06828595980187557 0.06622689392140263 -0.006905848682899214 -0.15810530043970247 -0.013979094435786087 -0.12851054374694532 -0.175464166501111 0.06008409682118945
0.15442567752108605 0.1132675560719222 -0.1809490549899054 -0.04571585575707761 -0.03904602594995012 0.0909044584556094 0.01009870547976667 0.01810145666152017
0.026968597430137093 -0.015636291070418133 0.030942423360983688 0.1685213203103028 -0.060876552234937036 -0.017002248076061825 -0.007342049490626235 0.011633213259236266
0.029486082236205653 -0.026171982565080767 -0.1767303627558813 0.10167699387663368 0.08733686727781227 0.1417373904021526 -0.13113322213370426 -0.022840638033077676
0.18942121801758183 -0.039213037223116226 -0.04602152182362865 0.03533409590843302 -0.010259462642158643 -0.05545256380969144 -0.10745580048758747 0.09353260953107802
0.06392400672047384 -0.06136868338535688 0.0509673072050227 -0.040417267702131617 -0.04650835517059518 0.04377614732917348 -0.025254355281623155 0.012347226233127624
-0.11613527880934388 0.10270091239509803 -0.11762969250496678 0.03951891892857544 -0.00880460135408201 0.0006614479503837778 0.034097760917401826 0.04943758372426414
-0.03688711801893978 -0.07180120984184982 0.13955206286085448 -0.02621396694210566 0.008071566799220985 -0.009596265970750424 0.011833644697921317 -0.148093452826029
0.07094565898956784 -0.16649291726915547 0.16616046631584036 -0.03463224655355732 0.07865655006930546 0.039298511174878016 -0.008813121403996437 0.03189418180996669
-0.010495005362678923 -0.016117738153264317 -0.094706598108995 0.08736089901716167 -0.07356710994562611 0.11386870674688399 -0.10821156878564726 0.10859269174370823
-0.07050075943112823 0.10215087466581445 0.1319007649112361 0.09277237874834214 -0.10338767292818023 0.0364373955542317 0.04498039303321565 0.028619306562229135
-0.013207743664696318 0.16267319799293817 -0.12716596730173574 -0.06290290393091413 -0.03327328735043276 0.016694616618311585 -0.08176735888829552 0.05352516587029141
-0.056417005179314 -0.09672059878073253 0.09965015520479172 0.17110454923685536 -0.03929011270383753 -0.1295306517642467 0.07911351205254104 0.07030788447816114
0.11133000563807191 -0.15123501197099432 -0.08717358404866453 0.02998230333846882 0.004639961236253775 0.009791633211323921 0.1244642749785326 0.049783147509534054
-0.006398790416186893 -0.16377081752055275 -0.16747961122839422 0.02725786588223918 -0.047230374739013564 0.07825823399813998 -0.041757115455388884 -0.007375336117709867
0.01728531475146437 0.03685556485774314 -0.01357468179516727 0.012566387450095367 0.011524978880801109 -0.04871749586656072 -0.1630847734592963 -0.10200093624107674
-0.04861572831236736 -0.11410145750893251 -0.06666177061910443 0.10828108701004471 0.11186282215637622 0.16406072292662247 -0.06876571646122596 0.027184287072336635

transform_generator.w0.bias f8 [64]
00000000: 7cef 6f6b 8004 c33f 95ca a211 8670 743f
00000010: 8e06 5827 2306 b9bf eb59 68e7 3a7a aabf
00000020: 2b1d b346 7445 b0bf 8532 9e5e 84b4 b1bf
00000030: 90b9 8bd7 c179 abbf c341 8415 a460 a7bf
00000040: 516a c602 c472 ad3f 098f 5665 924f 913f
00000050: 504f 5bb4 e96a a63f 682f fab2 b760 b2bf
00000060: 726e 8abe 41b6 c73f 965f 6a4b 9bd5 9ebf
00000070: 8a8c bb85 f57f b83f 6f7c 9870 eaa6 c03f
00000080: 0c8d 3138 8313 a33f 0c92 a1ec 9b1d c33f
00000090: c631 94d1 bd39 a73f edd5 fe69 385b c4bf
000000a0: d722 35c6 4cbf b6bf 1afd b3e0 6f18 b33f
000000b0: 3fca 440a 1ee7 b73f c589 df6c e4be 9a3f
000000c0: 030a e010 c4be bfbf 87d0 cbfe 65eb 9abf
000000d0: af65 4764 dc21 943f cba3 2cd9 cd2e 8ebf
000000e0: aef1 5c83 9940 a43f f0ba 8a81 4b2f bfbf
000000f0: a67c 904e 4ef2 a23f e281 8acc ec71 a1bf
00000100: 3704 eb00 da2d 89bf 0f1d 75f1 7d29 c4bf
00000110: ad11 3062 9b6f 663f dbd6 55b2 9197 b7bf
00000120: 2448 e87d eac6 c2bf 1e53 e1c3 57d6 bb3f
00000130: 77bc f374 8baa 8fbf dd89 3acb feb2 b63f
00000140: bc2e 90c7 0fcd bebf 7a13 10d6 0f2e 9fbf
00000150: 55bc 4cf8 686e b03f d55a f721 037a 8a3f
00000160: 6d97 a1d6 9381 c2bf 6601 e30a 5ac5 a73f
00000170: 107c d410 3d17 bbbf 8265 ac4e 4af0 983f
00000180: 332e 2d89 4422 c13f 8496 77ea 7302 c33f
00000190: 42be 2a78 d20f bdbf 217d 4452 718c a0bf
000001a0: f266 52f9 c54e b0bf 036d 65b2 0b42 b2bf
000001b0: 7b5f 3be8 dd1b a9bf 2ac0 ad0d 1b55 c63f
000001c0: 4f6d 214c 7f16 c2bf 49f5 1a48 36b9 a3bf
000001d0: c66d cfb1 ad7b a33f 6b3c af80 f06b b9bf
000001e0: 0d28 f402 12cc b83f 0e66 5ec6 5a78 9dbf
000001f0: 4ade 4d91 2f30 c73f 3d97 7559 bd55 c3bf
0.1485748791309297 0.004990123468973669 -0.09774989805739606 -0.05171379160690378 -0.06355978704515468 -0.0691607218743205 -0.053663308679335775 -0.04565918696073681
0.05751621755480996 0.016905105052173606 0.04378443075770966 -0.07178829307139056 0.1852495365500207 -0.030111719587324247 0.09570250048595788 0.1300938653739396
0.03725824414211773 0.1493410973954642 0.04536240752540581 -0.15903382468756835 -0.08885650481273487 0.074591629370833 0.09337032080365136 0.02611882128247502
-0.12400460636130366 -0.02628859870579039 0.019660419102228207 -0.014737709226737913 0.03955535629799854 -0.12181541359562309 0.03700489720380888 -0.03407230374182625
-0.01229448619176497 -0.15751623430171732 0.0027387652239687283 -0.09215651134385487 -0.14669543407268393 0.10873936207037757 -0.015462007052035027 0.08866875135075909
-0.12031649229191549 -0.03044914955173137 0.06418472349172195 0.012928032373492307 -0.1445793912891377 0.046427549199054494 -0.10582334195031273 0.024354134609074325
0.1338582677657186 0.1485123534068188 -0.11352267678989228 -0.03232149247400629 -0.06370198571167032 -0.07132027726531835 -0.049040732000945796 0.17447221916109018
-0.14131156174958412 -0.0385224307078525 0.03805296702895648 -0.0993032755061322 0.09686386654007624 -0.028779428822963075 0.1811580142491372 -0.15105406635410104

transform_generator.w1.weight f8 [64, 64]
00000000: 2288 3785 b299 b83f f8de a5d2 d556 b03f
00000010: b57c 4424 2747 ab3f 603a fd1f 5b9a bc3f
00000020: 35ec b7e2 062c 773f 9eec 17ab f927 9bbf
00000030: 4b3e 5385 d8c9 b7bf f050 af73 c88d 88bf
00000040: bf5c 3ddb 7bb1 ba3f ebbe bb38 cf7c 8cbf
00000050: 17ac 3cc9 25ae c0bf 07a8 63d1 f482 c4bf
00000060: e77e db88 aa5e b93f 8eef a57a 046e b13f
00000070: 536a a3d4 b609 bcbf 8d5d eb7d 7254 af3f
00000080: 6cf6 a020 fc5f a8bf 058d e2f3 bb4b b43f
00000090: a242 4338 0389 c4bf 80f0 a60b 84e5 513f
000000a0: 2acf d084 49a0 b03f 6aec 52fe 8b17 b33f
000000b0: 9003 934c 3e24 c6bf a5f4 22ff 5135 8cbf
000000c0: 2696 0365 9f30 b33f 3dfa 999f 17ea bf3f
000000d0: 7cb8 4ea7 ca5b c03f 3057 59ab 6cf1 a5bf
000000e0: 5f66 830b efaf c7bf 2c2c 3b91 3892 a93f
000000f0: 9ff1 4b54 e883 b0bf e9d6 fecc 72f9 953f
00000100: 6831 60ca 3c59 7fbf 2ae2 6f1e 27d7 b6bf
00000110: 3fa0 042e 3549 a13f f87b d119 e8ef 99bf
00000120: ee72 1913 fe04 c7bf 76b3 9570 c078 ac3f
00000130: b5f7 b763 e901 973f a195 daf6 004d b53f
00000140: c1c1 7660 b50b b2bf 1b00 71e7 6490 acbf
00000150: 7cc1 8769 d4aa c03f 9d8f bb2c 3dbb b3bf
00000160: b6b5 1f68 9948 a1bf 45bf 026c 4cc6 c1bf
00000170: 1cee 296f 646c a0bf 9825 cd5a b453 b73f
00000180: a730 7c9d b775 c13f 2d36 4d68 e32a a13f
00000190: c43c b8d2 14da bf3f 80a6 c9e3 7d63 babf
000001a0: eb45 38e6 14ce b33f 4687 df25 a016 a13f
000001b0: bc79 09fd 2200 a03f bc21 9b51 1661 c23f
000001c0: 94fa d751 76a2 a6bf 568c 9860 28e0 b23f
000001d0: 235c 360c fa5b bb3f b625 d966 2575 733f
000001e0: 4635 5bf9 4f4b 9cbf 4720 6516 b1e7 a7bf
000001f0: 6d6e 8f0d 1738 b23f dceb 1b62 3571 b33f
00000200: 8f5c a7c5 2a38 c7bf f0d8 d0d3 36d7 b3bf
00000210: 443b 979c 2ba1 c43f 7b91 3250 4f5d b6bf
00000220: 66fb 3fb2 e8d5 ad3f c77b c5ea e0f3 c23f
00000230: 8411 8118 589d a4bf b42f 4497 d0ba c53f
00000240: 0f89 9f20 bdfa a83f 5165 cbf0 928f dd3f
00000250: 8b89 107b 8d09 d43f 6728 3446 658a b53f
00000260: 69d3 77c4 c437 b6bf 841e 23e0 db7e b73f
00000270: 05c3 0335 dc6f de3f eb50 90f2 903b bfbf
00000280: 4dc5 c7a9 8f3e c1bf 3731 7b1c 3526 c53f
00000290: 0104 1239 23a4 bf3f c765 e262 296e 943f
000002a0: c4fd c11e 123f a8bf 167f 9f90 4347 b1bf
000002b0: 3634 d12a 5b44 c93f 9e1d 2faf c571 c4bf
000002c0: d397 649f d640 cd3f f161 0be3 a244 b23f
000002d0: 4a82 24cb 6e60 b23f c5a8 2b69 ebcf b83f
000002e0: c159 808d ba2e 663f 5ff8 9fb7 78ab c0bf
000002f0: a492 db37 1f26 cd3f 13ce 2b95 5449 ae3f
00000300: 24b7 ae69 18bc b4bf eed9 31b5 9de7 c23f
00000310: a96b fd14 ae47 c03f 6327 e2e3 48d1 b23f
00000320: e6d0 abd8 b7fd bf3f a3f6 a4e4 98e2 c6bf
00000330: e77d 2dab 937c c73f 208f 942e c78c 8fbf
00000340: fa5b 1566 8350 c33f 0cce cef2 bd2b c7bf
00000350: 0bf8 8fe0 8210 a73f cb87 daf2 9577 ad3f
00000360: d149 b13b 71ab c6bf 858f d14e 482c b23f
00000370: 69f6 6726 b9fe a1bf f856 9778 24df be3f
00000380: 33ac 2649 80d0 ca3f 8de0 aedc 7c37 c1bf
00000390: 1756 024c e200 bbbf 27c1 12be 932e e03f
000003a0: 1dd7 1622 61d0 b3bf 17a7 2664 e13b b43f
000003b0: 2f86 f5f0 6c33 c8bf e361 1a07 4d81 b4bf
000003c0: a57c 8e53 a9d0 b33f b112 fcb5 1d30 973f
000003d0: 396d 78ba 6f49 c4bf 2fb1 93bc d826 c2bf
000003e0: 152e 7d0f 779c a0bf b554 1584 59aa a8bf
000003f0: 0097 6be2 2dfe 76bf f7a7 dd3b 310d b53f
00000400: 1d0b 1d75 b024 bcbf 8d38 ee36 8fdd abbf
00000410: e1b4 d91e 42a5 b3bf 35b1 8e27 ae1c b0bf
00000420: bcfb 94d1 c938 c2bf 6ed7 5d50 b48a af3f
00000430: 93d4 bd93 1122 c53f 9a01 69bb 4c4b bfbf
00000440: 7832 7ed0 2b4d bfbf 7fe0 5799 c34d c2bf
00000450: 9484 a8f7 966a a4bf fdc8 1c6e c127 b83f
00000460: 6388 eba8 aaee 873f a7d9 107f 3299 8f3f
00000470: 5696 72f9 a2a6 b3bf ee4d b0d2 aa91 96bf
00000480: c19a 56fa 79c8 ac3f 6755 43b9 2242 b23f
00000490: 1fa3 3ad4 1257 bc3f 2acf 97bf 35e4 c1bf
000004a0: 96be 1180 ae87 b9bf f7f6 aff3 70d4 89bf
000004b0: 1676 2d24 9db6 903f 6184 3de0 bb85 c6bf
000004c0: 2393 8912 a46c b03f f54d e879 2ef4 bcbf
000004d0: 4aaa a93a 38f8 c1bf 0cc5 588a 035d b23f
000004e0: 87c9 7215 7076 b93f fb7a ce41 0804 873f
000004f0: 4bb2 c400 0350 96bf 7b3b cea9 8390 9cbf
00000500: 9da5 7e9d e26a aabf 3652 f3dd 8b49 c53f
00000510: 5181 7e7e 12af babf 36c3 4139 b6e0 913f
00000520: d2d5 4835 f656 8d3f 4081 dd55 f1bb 913f
00000530: 5dc2 a8c7 6d34 b2bf f6fd a18b fb3b a53f
00000540: 61b8 4152 be54 79bf b535 8fd3 4ca4 a83f
00000550: de0d c9ac 7b48 7ebf 432a 966e 2708 b0bf
00000560: 1e13 756b 0755 733f 66e9 41b3 9612 acbf
00000570: bf34 4753 6e4d c0bf b446 6672 55e7 c1bf
00000580: 60ac b8a5 35f7 c2bf 94ce c855 8530 c4bf
00000590: 9401 d4f0 9b9a b13f 5987 4fad 6589 b6bf
000005a0: 7376 a9be 14a2 6f3f 849a bafc b82f 86bf
000005b0: 1334 c34b fea6 af3f fb03 1c7b 27c7 a7bf
000005c0: 0b00 ed39 bfeb c43f dc6e fbae 4cce 9b3f
000005d0: 6ec4 314f 021b c7bf d731 5043 d0ac c4bf
000005e0: 2235 9aef f36f a93f 775e 5e65 5644 b4bf
000005f0: fd53 b13d 2a2c c5bf 81e0 4d46 50c7 b13f
00000600: 8d61 b363 85d5 b2bf 73e0 63b1 b3b9 893f
00000610: 7844 17a2 fe73 9a3f c6fd 8999 1b67 8fbf
00000620: a44e d551 8276 aabf fa57 e063 1678 a13f
00000630: 0654 a4e8 b350 ac3f d74e 9f2f 35ee b4bf
00000640: 1ffd 1896 d68c b3bf 6aed 56a6 d594 bc3f
00000650: 5561 fa48 e619 b03f 7ed4 21ee f7d3 abbf
00000660: fcab b497 fe19 913f dfea e43d 3d2e acbf
00000670: 6be1 0957 b6cb 983f 25ff a71b 0319 a1bf
00000680: 85fc 2aa1 e4c7 94bf 2829 1aff 890b 91bf
00000690: c73f bd7c 4139 c3bf 3cff cad5 82a3 99bf
000006a0: 0319 9535 7397 bf3f ad95 9766 d7d1 373f
000006b0: 2e15 cf83 08be d7bf 95a5 eaf8 52d3 b63f
000006c0: b4a7 bd00 e919 81bf b9be 93bc f37f 95bf
000006d0: fab0 d90e 52de c0bf 93d7 30d2 282c 853f
000006e0: 20c2 0920 57ab acbf 1a6f d4a0 9520 b03f
000006f0: aa36 4e50 4294 c1bf 3f0d 94ab a6bc 7dbf
00000700: 9bda e1d5 f0bd a4bf 3bba c68d 1ab3 913f
00000710: 89b3 15c5 6323 c5bf ecf2 480c 46d1 b2bf
00000720: d2fb e8be 22fc c4bf f41f 4129 0783 c23f
00000730: 71bb b980 9a74 b63f 8934 397a 2bc2 b63f
00000740: d473 3f09 5ceb b6bf 966f fde7 a909 10bf
00000750: 0db3 b63c b056 c53f 950a 3ca5 3861 833f
00000760: d2a1 6702 af74 c73f 3e64 5649 afdf bfbf
00000770: 4e8d b134 cdc5 acbf b58f 1f9a d9bb a8bf
00000780: d39d fb13 f035 ae3f 204f 4386 0903 b93f
00000790: d221 d1de f843 c33f fa8a 37c2 eac8 aa3f
000007a0: 8d61 d53b 23a8 c13f f08b de9b 136c a03f
000007b0: 0ba3 c703 73cf ac3f 364d d186 fd46 be3f
000007c0: 0fce 0c75 674b babf 6746 aec2 ec77 c43f
000007d0: fe99 0526 ee39 b53f bbe7 8aa1 274a a23f
000007e0: 0cdf c03a 21a7 adbf c51b 4d4a 6a8c 873f
000007f0: 431e a4fb 3148 90bf 0440 606d 8dcc b4bf
0.09609523537031397 0.0638250006940061 0.0532772285243878 0.11173028498635906 0.0056572216958513015 -0.026519681041446412 -0.09292367224701896 -0.01198917964021759
0.10427068808108951 -0.013909930151811042 -0.13031456304574426 -0.1602464697273833 0.09910074082608454 0.06808498377171032 -0.10952322665563345 0.06119115626432423
-0.04760730646419806 0.07928061203215371 -0.1604312920303715 0.0010923184878342262 0.06494578831262446 0.07457804640846324 -0.17298105944612674 -0.013773575400018176
0.07496067253267621 0.12466571470756889 0.12780125779449125 -0.042857547680496544 -0.1850565725533668 0.049943702438746435 -0.06451274927161997 0.021459382783823342
-0.007653462851532879 -0.08922047131626046 0.033761655681076246 -0.025329233718704075 -0.17983985836590172 0.055608762496240624 0.022468229972211613 0.08320623423295227
-0.07049115758014236 -0.05578913998806475 0.1302133097920083 -0.07707578985315285 -0.03375701328318874 -0.13886409067117192 -0.0320769677827821 0.09112097946958497
0.13640494527533528 0.03353033683979976 0.12442140717051858 -0.1030806237337405 0.07736330624199865 0.03337574446028539 0.031251042736346574 0.14358786568324244
-0.04420823811596111 0.07373287542627457 0.10687220380928912 0.004750391102399323 -0.027631044001102077 -0.04668954275490527 0.07116836625157826 0.07594617505303297
-0.18140158320486363 -0.0775026576164668 0.161168528995825 -0.08736129482219283 0.05827262092497314 0.148067583689196 -0.04026294039843761 0.16976363550236118
0.04878798506958237 0.4618880607136662 0.31308304803874226 0.08414299930532963 -0.08678846165260058 0.09177946302508572 0.47557740380493413 -0.12200265809980564
-0.13472171583229411 0.16522849932369763 0.12359829085654896 0.019951483402655314 -0.0473561918779484 -0.0674936512073113 0.19739856329616295 -0.15972205213459473
0.22854121001108627 0.07135980647161212 0.07178394755875064 0.09692260091438516 0.002707828865833068 -0.13023289648112077 0.2277258894674975 0.059153216561664966
-0.08099510746134492 0.14769336078070644 0.12718750023745187 0.07350593150672817 0.12496518173049118 -0.17879019893910195 0.1834892831638932 -0.015405231579797951
0.15089457020323477 -0.1810223994813075 0.045047845756911974 0.05755299176713854 -0.1771070043055958 0.07098819660455831 -0.03514650911163814 0.12059238380546933
0.20948794910268162 -0.1345058515123622 -0.105482238346973 0.5056856834762912 -0.07739836771255822 0.07903870291798075 -0.18906938329296127 -0.08009797500051934
0.07740267076450154 0.022644485695326014 -0.15849110226631938 -0.1418105049882654 -0.03244373382639424 -0.04817466485352765 -0.0056134979592792345 0.08223254882400953
-0.1099348340913306 -0.05442473931826539 -0.07674039128478995 -0.06293762651211383 -0.14235804303640787 0.061605105219242215 0.16510219301168103 -0.12224273276752343
-0.12227128830108736 -0.14299817073311158 -0.03987571499988821 0.09435662210742986 0.011685689239531344 0.015428919317952273 -0.07676142301587538 -0.022040051564614353
0.05621701413047254 0.071321649770956 0.11070363694547013 -0.13977691512229146 -0.09972658755008931 -0.012612230717418777 0.016321616490463674 -0.17595623444779832
0.06415772869656826 -0.11310091472869728 -0.1403875624121887 0.07173177840811124 0.09946346782343173 0.011238159664399108 -0.021789595529457178 -0.027895028342352895
-0.05159671947997 0.16630695664811562 -0.10423389042126031 0.017458770031626623 0.01432602262603214 0.01731850706653515 -0.07111250042431423 0.041473255915658244
-0.006184333269727644 0.048128510308383644 -0.007393344025845986 -0.06262442064159139 0.004719761832636475 -0.05482932031823644 -0.12736300531688546 -0.13987224660791286
-0.14816923705925245 -0.15773073853198538 0.06876539830773815 -0.0880340145227171 0.003861465947280257 -0.010833211147951667 0.06182093310199135 -0.04644130113411645
0.16344442680747337 0.027154157810271737 -0.180511749905722 -0.1615238503149061 0.04968225765069635 -0.0791677472574238 -0.16541030895555756 0.06944753376399328
-0.07357057270144747 0.012561229563729825 0.025833109515421587 -0.01533338129342966 -0.05168540238323985 0.034119319621979075 0.05530321326128988 -0.0817597619309781
-0.07636777081005562 0.11164603529953401 0.06289519578638665 -0.05435156614195423 0.016700723657020675 -0.05504027729553739 0.02421460062257223 -0.03339395248985814
-0.020293781601818956 -0.016645580477907235 -0.1501848086431876 -0.025037807749640026 0.12340469415821435 0.00036345967109093874 -0.3709737097927527 0.08916205002846873
-0.008350200972660683 -0.020995911011538058 -0.13178468442072938 0.010338133730424725 -0.05599472299661934 0.0629971997881821 -0.13733700677078292 -0.007259989791467191
-0.04051163302294932 0.017284788993203497 -0.16514250872878858 -0.07350576209951115 -0.16394457170278415 0.144623656409976 0.08771672861779024 0.08890029653521671
-0.0895288012101923 -6.117915654385431e-05 0.16670802082571648 0.009462778608854175 0.18324840180799967 -0.12450690784898286 -0.05619660633308375 -0.048308181823613884
0.05900526279384235 0.09770259406951398 0.15051184539539847 0.05231412525951913 0.1379436533122881 0.03207455899907774 0.056270212375073646 0.11827072659916812
-0.10271307571093068 0.15990981584450312 0.08291519573467807 0.035722006291919205 -0.05791572420315391 0.011498289482586696 -0.01590040300746255 -0.08124622268974241

transform_generator.w1.bias f8 [64]
00000000: 8ae0 874b 669b 32bf 11a4 692b 3a40 a6bf
00000010: b272 f8d5 b70a a73f ee62 5f02 bb61 b23f
00000020: d9ee 69e0 230b 763f 7916 e69b 3dbd 92bf
00000030: 30aa 31bf 42f5 b43f 041a 4030 cea1 a73f
00000040: fede a36d faef acbf 4767 fc2d d221 a2bf
00000050: 3c64 065a fbf2 99bf f70b b086 df12 c3bf
00000060: 03cb ccc3 3c04 b3bf 2b5e b520 a3ca 88bf
00000070: 9ad7 25a1 a221 b1bf afdb e40a dbf6 893f
00000080: e9ec 2288 d99d 96bf 68c0 8870 7e5b 97bf
00000090: 967c 477f b7c5 a23f 2a11 d047 a4d1 a63f
000000a0: cc70 ad8a 2b20 aabf 86ba a8d6 fca5 873f
000000b0: 899e 4d73 8efc 86bf c997 abe1 bbbc b73f
000000c0: 4945 05a0 2d6f a93f 9329 ff2b a848 983f
000000d0: 4969 9d5e 0c1d 73bf 9fca 019b f574 c43f
000000e0: eae0 6faf 6b1d 7abf 1418 93b8 86aa c0bf
000000f0: bfa8 ee0f b090 b2bf efbf ffe2 d9ef 85bf
00000100: 759f f4c1 5495 c0bf ede3 ade1 1685 b93f
00000110: b903 32c5 2d33 b4bf 408b 7763 8373 983f
00000120: 0233 15be 5062 c23f 11db 5ca7 ec30 8fbf
00000130: 20bd 55d2 8590 b4bf e0d7 fb17 a626 a83f
00000140: a05d bed2 868b bc3f 8c72 1397 0436 bebf
00000150: f588 43f5 0ce4 babf c1c1 7734 85e6 b73f
00000160: 0c46 c45d 0cac a7bf 39d8 fc13 51aa bc3f
00000170: 24e2 4a7f 6e28 923f a6b9 f94c 4f3b 9c3f
00000180: d6e7 8fac 2f76 a2bf e6b9 02ac a739 abbf
00000190: b408 73a8 d19d bcbf 830a 1aea e4a3 4bbf
000001a0: 3bae b85d 60d1 c5bf 451a 8975 bb00 913f
000001b0: d569 8257 d1f9 a4bf 2253 cfa0 4858 c43f
000001c0: edf3 f47e 0333 95bf 087b b0e9 d117 a93f
000001d0: 498d 4d9c 4f2c ab3f c1a6 e428 5ba3 be3f
000001e0: 653a 3d54 e1b8 c2bf 1abf 88fa abb2 963f
000001f0: c14f 251c b2dc b13f ec4f 2d5c f434 b23f
-0.0002839207404856733 -0.04345876483859724 0.04500364767975408 0.07180374916005025 0.00538171781829152 -0.018300020828539296 0.08186738174269048 0.046156352415028606
-0.056518388637355685 -0.03541428386070194 -0.025340964669883656 -0.14901346279665947 -0.0742834070231702 -0.012105249820407135 -0.06691948351166702 0.012677871007879064
-0.022086523946865198 -0.022809959047834033 0.03666470936490744 0.04456818939800862 -0.05102668826904874 0.011547065068126427 -0.011223900693678306 0.09272360095528066
0.0496763475263245 0.023714664159152198 -0.004666374510487189 0.15981931751919817 -0.006375713964182442 -0.1302040482752892 -0.07252025975199937 -0.010711385955772782
-0.12955722303854214 0.09968703279254472 -0.07890592636432715 0.023878148027402846 0.14362534791361986 -0.015230034692292034 -0.08033024201516925 0.047169866969781316
0.11150400776965919 -0.11801174820306864 -0.10504227626691771 0.09336121111824182 -0.04623449940312349 0.11197382677059488 0.017732359427755764 0.027569998810969353
-0.03605793935271577 -0.053174247500795066 -0.1117831264737415 -0.0008435123201738368 -0.17045216156235363 0.016604355858613102 -0.04096845811109843 0.15894420482677513
-0.020702414153891558 0.049009856964621845 0.05307244093890035 0.11968011616104503 -0.14626709569207033 0.02216595379485318 0.06977379977371269 0.07112052202620561
