models/GFDL-ESM4-livneh/QM_SST_1000[1980, 1990]_livneh_bci.pth (torch, 73156 bytes, 8 tensors)

transform_generator.0.weight f8 [64, 1]
00000000: 1e50 528d 4001 f5bf b686 35b0 184e f3bf
00000010: 56d2 ef4b eb3e f0bf 3a8d 4d69 6df2 c7bf
00000020: 9346 5daa 15e5 c53f 3f65 01cd bcc5 a7bf
00000030: dd14 0c1b d19d ed3f e7d4 81e6 e169 f23f
00000040: 3532 fbf7 c279 f4bf fbbe beb2 d082 e7bf
00000050: 77ec b68d 023c e6bf 47b5 5839 f2e7 cfbf
00000060: a554 4da6 e532 f03f 02cc 7172 b35e f03f
00000070: 2762 f30f 005a cfbf 9fe1 b84c abbf e13f
00000080: 04d7 3750 8fd5 f2bf ed5c c749 b8de e83f
00000090: 8fd6 9d50 a319 e83f 2ff1 42cd 7b0e c0bf
000000a0: 59d4 7878 ec55 c6bf baca 1207 9173 e43f
000000b0: 13d5 df1a 9008 d8bf 61b7 e07f 02b9 bdbf
000000c0: 8508 9cd1 85fe edbf 85e8 62c3 a26a edbf
000000d0: da6e 0bd3 75c9 f13f 0ce1 f251 c3d3 d8bf
000000e0: 1fe8 0822 0213 debf 1c94 8840 01d3 efbf
000000f0: 329a f8e2 b803 b3bf 6f29 5819 d70f e1bf
00000100: cce0 0248 5e26 f0bf 8e73 9805 57dc e1bf
00000110: 0bc2 ada9 e384 c73f 9930 81fd 0b53 d83f
00000120: d015 652a 46df ea3f 7b4b 9f40 b3eb fdbf
00000130: fa39 f5c5 3c70 b8bf 0588 044f 5bb5 bdbf
00000140: c79c 6a1f af98 db3f 8e55 0280 500e f2bf
00000150: 6126 2426 957a bebf 23e2 c45c dcda ecbf
00000160: 7202 b614 1cd2 eb3f fb59 9cec 7cd8 ef3f
00000170: 17e0 4799 f49f cdbf 95ab 8895 f5a4 e9bf
00000180: e129 c3d0 eb29 ea3f df2e 2140 a8f9 c43f
00000190: 712f bfe9 8bbe ed3f 4a5c ed59 1f33 d03f
000001a0: 7099 9453 8e50 cebf 8500 704c 6ff7 e83f
000001b0: d4b7 3fa7 5e7e d43f f7e8 0e0b e14e ee3f
000001c0: dee8 454f 2f3f dfbf 136c aaea a544 d0bf
000001d0: d728 d201 0e32 e93f 6974 5687 27eb ebbf
000001e0: 41b2 df70 1673 e1bf 4f71 0c71 c740 e73f
000001f0: a3b3 2aa7 2d6f dfbf 09a1 f63e 9ac8 e03f
-1.3128057022449933 -1.2065665133635952 -1.0153611151009918 -0.18708579675431186 0.17105360811779188 -0.04643049242504071 0.9255147484078879 1.1508502010522592
-1.2797269522444712 -0.7347186556926028 -0.6948254363882275 -0.24926593589899879 1.0124260421919555 1.0231203527916937 -0.24493408945888115 0.5546471117477728
-1.1771386273880475 0.7771874848357619 0.7531296324293225 -0.12544200441869566 -0.174497183632101 0.6391072405006846 -0.3755226385540748 -0.1161042749597221
-0.9373196691451687 -0.9192670646800855 1.1116846317226448 -0.38792498591239233 -0.4699101765032782 -0.9945074329776875 -0.07427554646765414 -0.5331836218841043
-1.0093672573985257 -0.5581469640052192 0.1837429598340495 0.3800687766677214 0.8397551372551622 -1.870043995314261 -0.0954626067443555 -0.11604853324072913
0.4311940962601963 -1.1284947395664378 -0.11905796223813915 -0.9017164050956733 0.8693981556426265 0.9951767560294792 -0.23144395336544285 -0.8013866348822939
0.8176173283948708 0.1638689339764516 0.9295100751273663 0.2531202676959238 -0.23683337288930373 0.7802044384880139 0.3202129967966105 0.947128793333177
-0.48823149434578095 -0.25418994824002644 0.7873601947369718 -0.872455372172806 -0.545298786598842 0.7266576011639162 -0.49116078686602743 0.524487612700825

transform_generator.0.bias f8 [64]
00000000: 86ce a219 0f7a d1bf bcae fa81 739e dabf
00000010: 2fc4 6c71 a780 d6bf d790 b2a1 271e a43f
00000020: 2159 4e3f f96f ab3f f0eb 3727 73c1 e6bf
00000030: 33a7 16be 4eeb d6bf e497 5d20 e314 e23f
00000040: 7a8d a2fc 24e0 e4bf 1c54 319a ebd6 ebbf
00000050: 1500 b852 fa56 cebf bc1c 6e6b ba92 efbf
00000060: eaf9 f442 24c6 d7bf 0970 205f 1f9f d93f
00000070: 0e08 a6b2 322e e7bf 9d3e 1637 1117 e9bf
00000080: 7f31 5ae5 8f63 d0bf 54a7 9e1f b840 d4bf
00000090: 90c6 7092 5ee3 d73f 141c 2442 a147 e5bf
000000a0: 86dd 483e 87a5 b23f 6e9a e742 753f d63f
000000b0: aa6a 41d1 3a0f e1bf 8878 e716 dd5f acbf
000000c0: bcb3 a4e0 4a40 efbf 3c02 f13b 7fd8 e9bf
000000d0: 9db2 3e4b 0077 e13f 91a6 2a1f 8fef b2bf
000000e0: f877 798e fe61 eabf 8cb9 2419 e278 d4bf
000000f0: 0221 f09d 12a1 d13f 9893 98d6 6772 dabf
00000100: 63fb 1756 3d4c ccbf 0b1e a1eb e5a4 c7bf
00000110: 2ddd 09f0 3cb6 edbf fd19 9b41 a709 d13f
00000120: 86e3 479f 2d89 e4bf 1ebc 4756 917a ebbf
00000130: 3157 02ef cb95 b43f f458 45c3 eab4 a1bf
00000140: 371f 3299 52f2 b7bf 45bb 1009 6b87 cfbf
00000150: 5893 fd9e 5410 b9bf 2cfe 7f6c 8472 ddbf
00000160: e432 d489 54a6 ca3f ea7b 29bc 62cc da3f
00000170: 7098 1471 2aca c6bf ca51 333d 5467 e4bf
00000180: f24d e74c 20ad f5bf 86b3 a268 a70b eebf
00000190: be34 b588 1042 f6bf ab90 0b74 34ef ba3f
000001a0: 7a95 1aee dc41 d63f 2465 6b39 5147 f4bf
000001b0: a714 4f5b 3352 cc3f cac7 4c49 cfe7 d8bf
000001c0: 784a 5f41 b6e5 cbbf 5054 9349 4985 e3bf
000001d0: 1398 23fe 288c debf b944 ca05 e0e8 e0bf
000001e0: 99b6 ca83 84a2 cabf a6d3 e1d0 65ae d73f
000001f0: d030 f896 3256 dabf 5a75 d703 8b9b d23f
-0.27307488921653833 -0.41592109387668663 -0.35160242153785054 0.03929256295057975 0.05358866594103718 -0.7111144796357376 -0.3581120354016207 0.5650497085705379
-0.6523613867069991 -0.8699853908134432 -0.2370293525600579 -0.9866611574406288 -0.3714686063648559 0.4003370694133542 -0.7243894089917846 -0.7840658260265233
-0.2560767879265526 -0.31645014846673303 0.3732525281985568 -0.664993886167283 0.07283826132412771 0.3476231721273625 -0.5331091010114808 -0.055418881460114255
-0.9765982043805859 -0.8076778574687249 0.5457765073420721 -0.07396788130668087 -0.8244622023300954 -0.31987812476554534 0.275456098781902 -0.41323276478424864
-0.22107664779465627 -0.1847197914632804 -0.9284958542110978 0.26621419340918334 -0.6417453871682575 -0.8587118802223619 0.0804107149618545 -0.03458341249158706
-0.0935413002026707 -0.24632013266224298 -0.09790543443302846 -0.4601145801134148 0.20820099573065598 0.41872471213531404 -0.17804461022859952 -0.6376134105035416
-1.3547671321911108 -0.9389226001418229 -1.3911290493154378 0.10521247704633889 0.34776995899513674 -1.26741144589898 0.22125856359904114 -0.38914854200549753
-0.21794775192264004 -0.6100202977201068 -0.4773046953035884 -0.5284271348083599 -0.20808464465283263 0.3700193920006377 -0.4115110849677537 0.29074359297904595

transform_generator.3.weight f8 [64, 64]
00000000: aec9 45b4 527e 9e3f 5b9d b9f9 e41b b0bf
00000010: 46d3 2c75 d11d bd3f f83a 43d5 9b81 973f
00000020: 4d2a 57a2 a12e ab3f 47eb 070c a66a 90bf
00000030: 6c73 664f af09 91bf e3d9 af5b 5019 a13f
00000040: 2ba5 1190 68e4 ea3f 659d c3ce d019 b23f
00000050: 976f cee4 5a68 b43f 8dcc fe7d 1f94 b2bf
00000060: 006d 6a7d 396e acbf 03cd 46ff 8b3e 743f
00000070: f789 a226 f949 a1bf bc54 f40d 5372 e1bf
00000080: d2b2 4992 0de0 69bf 12d1 d35a 4cab 963f
00000090: 4182 e5ad ac53 ac3f 3fc9 91b1 a55f 6bbf
000000a0: 9ed1 953c 77cd 87bf 09ee f69b 482e b23f
000000b0: ff4c 36bb 3ec6 b7bf 7ba2 733f 9aab a43f
000000c0: cf50 ad1f 0652 af3f 37a9 f06a a4ca 99bf
000000d0: 6bed bdb7 ffbd a23f 2855 79f1 8b34 a93f
000000e0: 5fdb 2c4b 3134 813f c3a6 29d6 9a38 b23f
000000f0: 8e1a 0f8b 6971 8c3f d776 2b93 09e8 9cbf
00000100: 952b 85da 27a2 623f 44a4 47f6 2848 c23f
00000110: 94c8 8ecf 5754 aebf 19a0 bb6f 9a62 90bf
00000120: a73f a8b0 f570 c0bf 2401 087d c1be cdbf
00000130: bcb0 c1ef b3da b53f 269f 740b 1771 b73f
00000140: 62cf ace9 8b94 a5bf 8197 750b d57f 54bf
00000150: 5cd3 3b2a 1687 973f 624f 9949 75eb 0140
00000160: 6600 7fcc a072 b33f 5d89 12bc 2b4f bd3f
00000170: e7e4 839d 83d2 a7bf 2fbc 731e 9871 b9bf
00000180: e69f 5f70 e259 f4bf b34b e9f6 00d3 bdbf
00000190: 6c9b e1a1 c968 e0bf 96af b4c1 4771 a73f
000001a0: 2398 ab4d dc5c 9cbf 5bc1 97a7 1ea8 f5bf
000001b0: 3164 37f0 0145 a33f d674 96c6 d2cb a03f
000001c0: dc3d 51d9 e04b aabf 3b62 27b3 ecdb a23f
000001d0: 3274 1a49 0571 bfbf 2505 7092 69af ee3f
000001e0: d119 9391 d5a0 a53f fcb5 6f77 338b b63f
000001f0: f3e3 96dc bf54 a63f ba09 9595 1df9 9b3f
00000200: 061b 32fa b1e3 c5bf 2dc4 e5b6 8fff a2bf
00000210: 5331 e0ca b00f babf 88e2 68ff 51d1 c1bf
00000220: 543b fba8 bcd2 913f b3b9 1f93 f4ed abbf
00000230: b959 bc0c 8323 973f 0f15 9a8d f29b bebf
00000240: 2e89 5783 dbff a13f 3fe6 e841 d436 a7bf
00000250: d6d4 5abf 1830 c7bf 315f 7aa9 b4b4 b0bf
00000260: a5f0 b856 501d b33f 990d b540 2768 a53f
00000270: af2b 59e1 fb13 b43f 32bf 0860 06f5 aa3f
00000280: 5fde 5620 09f1 b7bf afb0 4c2b 4901 b8bf
00000290: cc19 804b 0ec7 a03f bb26 681a 95e9 bfbf
000002a0: 078d 0212 9ab1 c0bf f29e 91ac fddd b9bf
000002b0: 2f64 094a 000a 863f ca91 ecbf be28 a33f
000002c0: 8766 c591 5ed7 94bf edcb a1bb 261f b43f
000002d0: 96dd f187 d939 adbf be9c f8e3 27fb c0bf
000002e0: fd24 ba9d 20a3 b23f 2f3d f24a 08f1 a33f
000002f0: 572d 7d12 ff53 9d3f 559c 32ba 1ac1 babf
00000300: ba59 c2a1 6962 c3bf 1b45 bd73 2e4f 89bf
00000310: 0317 e689 44ab bc3f 0491 8b02 b017 c4bf
00000320: efb8 5fb6 5078 b03f 0796 13ce fb8a a5bf
00000330: 130f c19d a3e4 7a3f 21fa 91d2 b45c b5bf
00000340: 931f 6655 2b1b a4bf f38e 2440 ff60 90bf
00000350: 847c 797c 7325 9e3f 7719 59fe e3f9 943f
00000360: 8332 1b63 600c c5bf f3fb 161e 46eb a03f
00000370: fd3b 5316 6058 bb3f ab72 6bfa 4380 ac3f
00000380: 2f54 4a3d d60f c0bf b310 451e 71a7 a23f
00000390: a4c3 c1db 7660 60bf 1549 fa87 148e c4bf
000003a0: b0a8 f8cc 85ca 95bf 63ad 94af b0c9 ccbf
000003b0: 57c1 da62 c036 ac3f d699 0883 6e19 873f
000003c0: 1754 2c82 f68d afbf e5c8 9326 c0a7 bd3f
000003d0: 07f1 37a2 eb7c c0bf d914 58bd 05ab 8ebf
000003e0: 5c8a 3276 f997 c3bf 1515 92b4 9bdc c4bf
000003f0: dd2f 2f41 013f b8bf 7098 5384 47e6 b6bf
00000400: c460 44a1 40d3 b6bf 18f3 fbbc 9ab7 a1bf
00000410: 8620 361e fad4 9bbf 54ca 1fbc fc36 c3bf
00000420: bab3 5c43 d879 aabf 571a 416f 55ad a03f
00000430: e6b8 ad23 547d a93f 112c 14db c27d a6bf
00000440: 6631 c1eb 101b b13f 3127 7b4d def9 b9bf
00000450: 2a71 e877 ffa8 9dbf d3c3 ecd5 aafc a73f
00000460: d49a b812 0373 bdbf 08ac 4fc0 c578 babf
00000470: c710 b65b b357 923f f83e a770 03c1 c2bf
00000480: ca5f ca8c 3f37 a63f bccd cf87 8f68 b8bf
00000490: 9417 c8e5 350e bfbf b99f 84be 8e41 b9bf
000004a0: af6e 62f2 1feb b33f b447 4160 ff45 c3bf
000004b0: b37f 4e96 fd67 a03f 2d2a c968 17ae a73f
000004c0: c75d e58b 2f8f ad3f e336 dcf1 534c b2bf
000004d0: 6b81 8f82 bed4 c0bf ced0 0f8d 05ff a0bf
000004e0: 0761 d84f a554 a7bf dfe8 e6cb c213 2bbf
000004f0: 4ebd 04bf 1e52 8bbf 0b4d 9812 04f7 a4bf
00000500: 30aa a8a5 10b9 ae3f 4326 d161 13bb c2bf
00000510: 9cc7 a8db 65df adbf e833 99a9 49a6 b0bf
00000520: 3de8 4255 86e9 66bf aabb 735e 4928 903f
00000530: aaf8 da96 84b6 b8bf acf2 be82 a89e 8abf
00000540: b9b7 7d46 a708 b03f 53e2 958a bd3e c3bf
00000550: 7564 ec9e dddd 8d3f c79e 6f65 668d b23f
00000560: c160 3b36 9044 a33f f3f4 211d 5c45 bfbf
00000570: 3b89 d999 a2df b1bf 8f45 4ec9 9d4c 86bf
00000580: 187d ba50 48bc c5bf 0f17 3983 cf10 873f
00000590: 549b b648 ab99 b4bf 7b58 62a4 c83e b3bf
000005a0: 8ae1 9588 9097 8fbf 854d ae95 ed58 76bf
000005b0: af62 5276 80b7 c7bf 02e7 d832 eac2 72bf
000005c0: 7908 8da1 ab1e b43f 7f9e 0b5a 0a3a 503f
000005d0: c66a 0927 4fd0 c3bf ea99 fabe 073d afbf
000005e0: d671 b17b 10dc 90bf 8c4f d40a 6c4b a93f
000005f0: 8f08 1076 fcef 9dbf 4f30 f394 59df adbf
00000600: e69e 4b35 85d3 913f 2286 8d0f eb1a afbf
00000610: 2b36 b216 93cc c4bf fb8e 7e3b 6c42 bbbf
00000620: a748 dd49 bd14 a9bf 811a 8faf 3260 b2bf
00000630: e563 6e8c b4a3 c0bf cbf6 95c4 0fb0 443f
00000640: 6364 c48f 0016 babf 9bbd 60bc d1ce a2bf
00000650: 4575 5944 b557 c6bf 55c7 79c2 3798 bbbf
00000660: 1832 6539 ce57 b6bf 5655 2ea2 2b58 9ebf
00000670: a3a7 cacf 7757 b2bf 6664 9a09 f769 bcbf
00000680: a3f6 9cf4 72c7 af3f 1a17 1c97 f0b6 c7bf
00000690: 9ef6 1cbb b5e6 c5bf 9b98 50f2 985c a1bf
000006a0: e9ef 2e44 f2f0 993f 54a7 6140 296b 97bf
000006b0: f373 d3db 81d4 ab3f ab85 3e0d 3f8b a9bf
000006c0: 0dd2 64e7 d32f b7bf 2b24 1334 d897 aebf
000006d0: 79f8 80af 84c2 a1bf 17b9 ac25 7b84 8b3f
000006e0: ed00 2af8 43c6 b2bf 5694 4c10 f062 723f
000006f0: 5af3 0946 d454 b3bf 11b8 d6eb fe29 babf
00000700: 89b9 9796 c166 c7bf 6629 8aa7 6f11 83bf
00000710: aa0a 7e9e d1ce b0bf f782 bc72 bc94 96bf
00000720: e067 3c51 49d4 c1bf 2971 69b2 91e3 94bf
00000730: c34c d51f 3617 a1bf 48ef fd2f 9e35 a4bf
00000740: 7f54 5c5a 5bc3 a13f 5164 2f4a bde2 b1bf
00000750: 870b c470 7ee8 b2bf fa16 87a3 0886 b1bf
00000760: 59d6 abd3 98e5 c6bf 19b1 c861 206d 98bf
00000770: df94 f6d8 14b4 723f ab77 2d96 6de1 b5bf
00000780: 4433 df45 f3b7 a23f e95f 2192 e7ac bcbf
00000790: dcaa 9865 bfdb bdbf f65b 14a6 679f babf
000007a0: f65d 7e5a 75dc b3bf 3553 3e5c af1e 593f
000007b0: 5cc3 7b03 f441 873f 110e 1130 950b c2bf
000007c0: 5e62 26bf 7e7f bbbf f3af cc5c 6599 a43f
000007d0: 84ca de10 1d35 cabf 24df 54c2 fbec c0bf
000007e0: 8e58 4f3c dd3d c7bf 64a1 cb0e 4a6a 9a3f
000007f0: 6ba7 6f20 2634 bbbf 100f bac6 bce8 c6bf
0.02977875924393352 -0.06292563530734212 0.11373623953552423 0.022955355540768857 0.053090144221262216 -0.016031832203206944 -0.01663850710029939 0.03339625472283438
0.8403818906637402 0.07070641563369902 0.0797173317536689 -0.07257267786080686 -0.05552844673112567 0.004942461837731618 -0.03376749607675216 -0.5452056191012598
-0.0031585946147088895 0.022137826007523627 0.05532588598976363 -0.0033415065959669084 -0.011622363602079851 0.07101873214462996 -0.0928687293110677 0.0403717234092413
0.06117266785318664 -0.025187081362824073 0.036605826548987995 0.04922902414970515 0.008400330645242425 0.07117622116643489 0.013888191753620018 -0.028228902442484518
0.002274587477733412 0.14282714867957413 -0.05923723610557477 -0.016001141614566537 -0.128447257288369 -0.23238390545885423 0.08536839106972399 0.09156936673809621
-0.042148945116791806 -0.0012511806979431386 0.02297625191473017 2.2399698018943335 0.07596783630924761 0.11448930112468277 -0.04652797029297933 -0.09938956016024812
-1.2719444646445424 -0.11650091198070704 -0.5127914582961757 0.045786135097244315 -0.02769798492490606 -1.3535448595613022 0.037635860989844956 0.03280504869619853
-0.05136015560912785 0.03683414160667949 -0.12281830820798303 0.9589126453503566 0.042242692966783964 0.08806153932501809 0.043615337064188874 0.02731748795964404
-0.1710112067850888 -0.037106028629644384 -0.10180191948911003 -0.13920044871499138 0.017405460180096213 -0.05454983039804819 0.02259640469773114 -0.1195670695979809
0.035155162604285514 -0.045340188069939995 -0.18115529387947643 -0.06525735032698489 0.07466604344603185 0.04181025185473714 0.07842993022602117 0.05265064165393908
-0.09352166213545264 -0.09376962000959808 0.0327686755336348 -0.12465793509195582 -0.13041997794525903 -0.1010435625372528 0.01076126314107925 0.03742023556540948
-0.020352819106256106 0.07860033112392247 -0.057081983418295554 -0.1326646674290028 0.07280162668952879 0.03894830622550171 0.028640733245351182 -0.10450903936235652
-0.15144081495664158 -0.01235805788715765 0.11198833815259594 -0.15697288631702844 0.06433586552131819 -0.04207598581869481 0.006565703512084092 -0.0834458364570101
-0.03926978509394909 -0.015995014467207146 0.029439739677738178 0.020484506987736375 -0.16444020117923594 0.03304499738032254 0.10681725068137378 0.05566608840829209
-0.12548330300038077 0.036433730073015445 -0.001999122758256937 -0.16058594359908143 -0.021280375132996354 -0.22490509579925363 0.05510522085876584 0.011278975843265576
-0.06162996615436372 0.11584092084720828 -0.12881226940943 -0.014974636879751578 -0.15307539244993762 -0.16298242871213434 -0.09471137849249041 -0.08945128422382864
-0.08916095673737617 -0.034603915757520365 -0.027179630369147854 -0.1501155775618651 -0.05171085188189957 0.032572431403015294 0.04978430686502282 -0.04392823147107817
0.06681924586991314 -0.10146893874766928 -0.028964988416292282 0.046849573720812686 -0.1150361939149705 -0.10340534157846559 0.017912676308257127 -0.14651530266427648
0.04339026063570335 -0.09534546914783609 -0.1213105855932482 -0.09865657950706365 0.07780646960821501 -0.15057365608168782 0.032043385122278244 0.046250087300525024
0.05773304541315443 -0.07147717146673531 -0.13149243712451705 -0.03319566103883319 -0.04556767081902718 -0.0002065825737654408 -0.013340225414678965 -0.04094708182324255
0.06000568411066742 -0.14633409763546198 -0.05834501558673752 -0.06503734961115948 -0.0027969001476693387 0.01577868117322693 -0.09653500254623518 -0.012997929086730885
0.0626320407006621 -0.1503521849333703 0.0145833315014434 0.0724700925489926 0.03763247167597817 -0.12215209685560406 -0.06981865173432748 -0.010888321596015852
-0.16980842534847151 0.011262532417400743 -0.08046980405070531 -0.07517675412450046 -0.015425805252321085 -0.005455902161787822 -0.18528753068382772 -0.0045804165252378865
0.07859299368013407 0.0009904004183968471 -0.1547945919617943 -0.061012498915534355 -0.01646447901690514 0.04940354950136258 -0.029235787111254793 -0.058344649727218305
0.01740844857968584 -0.06075224461416108 -0.16249312027177729 -0.10648228123187302 -0.04898635412850299 -0.07178036485775331 -0.129995888299873 0.0006313397399677288
-0.10189822683277465 -0.036734155888889584 -0.17455163800597454 -0.10779140947286454 -0.08727730656864485 -0.029633218549482386 -0.0716471559814225 -0.11099189743471669
0.062068550453188175 -0.18527037981419242 -0.17110320698150344 -0.03390958745903668 0.025333199893552125 -0.022869724802524985 0.05435567673132615 -0.049890489927985136
-0.09057354354155951 -0.059752231938155674 -0.03468718187694803 0.013436281287422731 -0.07333779152577664 0.004488885639863124 -0.07551314077313745 -0.10220330484182251
-0.1828233704868121 -0.009310600567250926 -0.06565580481950897 -0.02205175829215286 -0.13929096666907892 -0.020399357332608368 -0.033380214105500204 -0.03947157226408976
0.034693579464296846 -0.06986601887855783 -0.0738600755030757 -0.06845144264579153 -0.17888174376973856 -0.023853784530886466 0.004566270289989321 -0.08547100941129197
0.03655967929771589 -0.11201331441532116 -0.11663433294658482 -0.10399482540775282 -0.0775826784068768 0.0015331947806533467 0.011356264454180191 -0.14097847792628262
-0.1074141709017424 0.040232818201133023 -0.20474589656585718 -0.1322321604618476 -0.18157544560262234 0.025796086457292047 -0.10626447955988076 -0.1789775820108095

transform_generator.3.bias f8 [64]
00000000: d878 d998 7758 9f3f c30c e254 3c3e aabf
00000010: 7be8 9ca7 63d3 c2bf 3923 8ce0 ba23 89bf
00000020: e22b eadf c953 7ebf 859e 79a1 d81e d13f
00000030: b7cc 8f22 2b2c d4bf e433 b5c1 e757 babf
00000040: 437f f838 17c9 b3bf a54b b343 851d a63f
00000050: 5957 8687 8d73 9e3f c5b9 e35c 45b5 9cbf
00000060: e2b6 58b9 48d8 c13f c142 41a4 4e34 91bf
00000070: 01c0 a30f 38e6 a23f 6224 f851 2c22 ad3f
00000080: 0441 595c 6253 673f 61d6 7d17 547d 543f
00000090: a0d0 687f d529 72bf 50e7 3cc8 4454 c2bf
000000a0: b727 b1bd 1330 bfbf cda7 020a ff51 bbbf
000000b0: c1c9 1d01 34ac 673f e161 f4a6 e146 92bf
000000c0: 137a 8292 5522 c0bf 21b3 308b e4cb d0bf
000000d0: 1e3f deda 9cdc c43f 5342 e7e7 1df2 c1bf
000000e0: 2389 e024 98da a73f 3b92 2c56 84f4 c2bf
000000f0: ebeb 00da 9160 83bf 5b25 eb84 860b 87bf
00000100: 2006 c709 d0da b5bf debc d7af 8db4 c2bf
00000110: 0e1f 8875 6bf1 b1bf d974 c18f 2063 acbf
00000120: 47a9 ead3 22c0 973f da78 91ce 9fc2 c03f
00000130: 482a 6cfe b363 abbf 5388 e3a3 c103 c3bf
00000140: d0ec 1f93 2278 443f ec10 5b5b bc9d b6bf
00000150: 8e33 76dc 5df7 a7bf 8494 7ba4 ae4e bd3f
00000160: 611f 5a28 e94e b3bf 5e01 60e3 d4d7 b13f
00000170: 1dcd dd28 af3e 97bf f940 e880 ea8d a43f
00000180: 8a80 f5d9 d237 e5bf 59f4 64fb 54ef b3bf
00000190: 144b df92 fdc9 b63f e155 38f2 cafc b5bf
000001a0: 3bf2 595a b6cc c2bf 38ce 2500 ae3a bbbf
000001b0: 5bc9 0558 b161 c53f 093c faba bf01 bfbf
000001c0: a902 7481 6fe9 c6bf 8f89 0e0d eb74 d23f
000001d0: d7c3 078b fdc7 c1bf 2205 efc7 e69d 913f
000001e0: 0157 4be1 0131 c7bf 2b3b 9b9f 9423 c6bf
000001f0: 5d5c 4f0b 7495 833f a656 d3e8 d8d3 92bf
0.030610912994568945 -0.051256070481963366 -0.14707608875488973 -0.012275180795329287 -0.0074041257599999095 0.2675077034859686 -0.31519583106200905 -0.10290382842249773
-0.07728715077291519 0.04319397403164452 0.029737674137855084 -0.028035243792084125 0.13941296625255634 -0.016801098609280588 0.036912681492935924 0.0569013452587306
0.002847377882780335 0.0012505837639457328 -0.004434427237857502 -0.14319667603722985 -0.12182734852936404 -0.1067199134292018 0.002889730044381284 -0.017848516287900188
-0.12604779866974578 -0.2624446257857916 0.16298256575509468 -0.14020131896406215 0.046589617253874026 -0.14808706481666598 -0.009461535897676362 -0.011252451831199542
-0.08537006605822528 -0.14613505445547664 -0.07009002322604038 -0.05544378046827498 0.023193878349652832 0.13093946062412593 -0.05349504929298071 -0.14855213644392737
0.0006246727773481456 -0.08834435682644298 -0.046809132730323375 0.11448184505168696 -0.07542283282429942 0.06969957877300234 -0.02270005881241587 0.040145233379122965
-0.663064408970983 -0.07787066590840776 0.0890196307730487 -0.0858885613782472 -0.1468723241013253 -0.10636413100819986 0.16704384611109444 -0.12112043681030128
-0.17899888821559287 0.28838611865116887 -0.13891572273817474 0.0172039088754491 -0.1811830854482466 -0.17296083253173697 0.009562403292802718 -0.018386258326094883

transform_generator.6.weight f8 [64, 64]
00000000: 084a 5e6c 36f3 95bf fb96 d465 2db0 95bf
00000010: 58c7 4ff2 0044 b1bf ac06 b14d fa16 7dbf
00000020: 3334 e78c 735e af3f 7ced 8ebf 77e0 88bf
00000030: 0262 b976 4cb6 91bf 6ed7 9dba 7b7f 9d3f
00000040: 45a8 9ba6 ee4c 9e3f 0aec 4111 f069 babf
00000050: 9f7b ab81 4891 b3bf f8c0 12c3 6a07 c13f
00000060: 885b 8295 2e6e c8bf dc99 d65b 2087 bebf
00000070: f544 a466 5318 b23f 6269 44d3 eccc a6bf
00000080: 7f23 f122 7016 af3f 6f63 445e a892 a5bf
00000090: 8e41 21e6 1bab 8abf ff44 55ba e851 a43f
000000a0: c4a5 66fc d14d bcbf 6ffb 93d3 e254 903f
000000b0: e751 f352 22f8 a53f 1eab 5ee8 7817 c53f
000000c0: cbcb b109 30ee 933f 20b0 511e 3863 bdbf
000000d0: 672b 68ee 26cf a7bf b303 227c 9f56 ac3f
000000e0: 95e2 67b9 7aaa a23f 4235 2362 e4b1 ac3f
000000f0: 3f3c 0e25 7953 b0bf e307 827a b712 b8bf
00000100: eab7 315f 644b c1bf ee5a 94ae 28f2 aa3f
00000110: 292a 9c18 d37d b13f 0687 6e8a abd9 5a3f
00000120: 978d d343 4a86 bebf 85ee f017 fead 953f
00000130: 047f e706 1a12 bdbf 4d91 2406 0321 a1bf
00000140: a270 98ce 14c4 a7bf 4749 1aa4 4162 a93f
00000150: b93d 63ef ffa6 a3bf e066 ada1 5915 913f
00000160: af33 5135 c4f8 a33f 75b9 726d d252 a93f
00000170: ae96 39db 0413 a0bf 0f5f a7a1 2647 bd3f
00000180: 7ff6 88a7 3035 adbf 80e3 d5c0 c5c0 c2bf
00000190: bb74 0c8a d1db a63f 807b 3cf7 b0eb aabf
000001a0: e8b9 4e3c 3e29 823f ac4f 6eee 3181 c3bf
000001b0: 820c b4fb 7a74 adbf c13a bd85 f4a3 853f
000001c0: 0a9a c090 dbe2 bbbf 82a5 1f52 ea23 bcbf
000001d0: 6dda d474 2029 b13f 6dfa 07d0 2ddb bd3f
000001e0: 900f 4a22 dbef a9bf 86ff e1a8 22c1 89bf
000001f0: b08d cf74 2666 acbf 610b 12b0 0e2d 9a3f
00000200: 91b6 4032 5f93 c2bf 888b e515 b602 a13f
00000210: 6f91 e24f 8e60 c1bf e07e 9918 938e c0bf
00000220: d142 e58c f445 a7bf 9d1e 58a6 3e7d babf
00000230: 78a5 b1ac d376 96bf b23f eb86 2da1 a8bf
00000240: 5526 7ac5 9392 c6bf 4eed f4ff a17d 73bf
00000250: 4f94 4074 308d c5bf 4845 a503 d47e a73f
00000260: 7d7a 9cf5 801f b3bf 081d 2fe4 929f c6bf
00000270: d089 0305 6ae4 c5bf 06ac c1cd b670 a03f
00000280: 9c3a 26f6 2358 a5bf 3009 6916 5a72 803f
00000290: e19f 8168 07e8 bcbf 8be2 ae22 9a39 ae3f
000002a0: 94c2 dc4d 1189 6f3f 8655 6d57 9e6b 8ebf
000002b0: 495a 19e1 a440 ae3f c7cf 9ee3 45e9 873f
000002c0: ef5c f883 1861 a83f ff1e 91dd e7f6 a5bf
000002d0: 02bc ff7d 8411 9ebf 1f82 02d9 19f6 96bf
000002e0: 124c bbf6 09d7 c5bf 3307 bd2b f462 6cbf
000002f0: f66d ed85 d6a0 bdbf ff52 a15c 9150 c1bf
00000300: c24f 9a3d f3e1 c0bf aae8 bbb8 c296 abbf
00000310: 0b83 85aa b194 96bf f475 102f ab3b 78bf
00000320: aa0d b321 0edf 80bf 8fb1 65d2 ae26 c0bf
00000330: d3ba 4a89 90da b2bf 4fa8 caa0 2b09 acbf
00000340: 50f5 8f7d 3978 c3bf 1499 8f60 5329 b9bf
00000350: e14a 51a8 5d2d b9bf f440 40f3 4925 683f
00000360: a216 73f7 55c8 b1bf eea4 3774 2a6f c5bf
00000370: ee2b 3689 fdd2 a73f 027a 49d0 e7f0 ae3f
00000380: f314 0367 9152 b0bf 6bbc 4f2a 0e44 c7bf
00000390: 28dc 961f 7abc afbf 9f0f cb2b 6248 b1bf
000003a0: 1361 471f 0512 aebf 37af 0dbf a8f1 b0bf
000003b0: ef5b 52dc 50ba adbf 73b7 75a8 1373 ab3f
000003c0: f212 6026 0760 9ebf 85ee d530 88f5 c4bf
000003d0: bf62 e711 4f45 c1bf b319 ccb3 9c08 a5bf
000003e0: 394b abb2 291a c6bf 8fbc 9fb3 da74 8bbf
000003f0: aa5a d9c8 2d6d bdbf 7a8d 60ec cc17 863f
00000400: d25d 6c90 1cf9 743f 3fde 0df4 0d7e c2bf
00000410: 0eec 5eb6 077d 723f f2f6 1e93 22a6 94bf
00000420: ef5f 9f4c da7a a5bf c99a c2d9 906e bbbf
00000430: e763 c9b6 564a b0bf c93c b9ea 79ff bdbf
00000440: d06e 6e0f 0943 9a3f 2d9b 7deb f244 c3bf
00000450: 8f61 5a3d 8245 c3bf 164b 3caf af39 a5bf
00000460: 22b7 971b 3a38 a1bf 90ba 5f5b 5559 bfbf
00000470: 7603 b1f5 fdc8 a0bf 5b6b 9f65 2808 c5bf
00000480: 1daa 52c5 2170 ad3f a4d9 343b 192d c3bf
00000490: 8c76 ae75 ca5f a33f 7582 4283 2ef6 91bf
000004a0: cf31 ab52 58d2 86bf 962c cdd0 577f b5bf
000004b0: 17c9 a4d3 7921 94bf 4d07 85d2 a452 a53f
000004c0: 8013 55fc aa09 b0bf f4c2 208a 852f c5bf
000004d0: 833f 9cab 147b c5bf 33fe 8c6b abc1 5bbf
000004e0: c537 4511 0558 c9bf c6cb c5d1 eb82 b6bf
000004f0: e562 f92c fcd4 bfbf eeb1 7c1b 66a7 a0bf
00000500: f4d2 fb16 8398 b3bf 7741 8c92 2c4d 933f
00000510: beb4 ccc3 bdf3 c1bf d08f d21a 53e4 b2bf
00000520: 18c3 64f4 0293 c4bf 37b4 d190 481d 7fbf
00000530: 8007 6d16 d3f9 b3bf 6cda dcd3 aba9 c4bf
00000540: 2250 afe7 5dc7 bcbf 6cf1 dcae ab1e 9ebf
00000550: ec17 2e76 a6b3 a3bf 2029 d268 b143 afbf
00000560: a604 c2dc 68f6 923f f611 8cba 7835 c4bf
00000570: b7bb f8f7 5abd a03f 7866 1103 41db a63f
00000580: 52b2 bebf d89d babf c3ed 7b64 a544 c9bf
00000590: 254f 751c 5a7a b7bf a236 2475 aab6 c4bf
000005a0: baa4 fc1c 3f5c c4bf 80b2 027f b855 b4bf
000005b0: 2fdc 4890 0197 a3bf 77ff 79be 58bf 97bf
000005c0: 99b4 064b 15df 9bbf 6a11 f3ef 9462 7e3f
000005d0: 328c b6b0 359e 883f 95c5 54d4 fd8d 9c3f
000005e0: 1c20 35fb 6f56 ad3f 97ac 98e0 3b09 b33f
000005f0: 3349 8f9a e254 c7bf 912d 66e7 3a90 6cbf
00000600: e809 06b4 6c5f c63f 9704 e257 4f20 c2bf
00000610: 2e12 0a1a 6ed7 afbf b0ae 2731 e5f2 c13f
00000620: 3151 9d07 5645 b4bf 446f 9e18 e405 aabf
00000630: 8e12 b7cf efdc d7bf 7e4a 223a 5bbf be3f
00000640: 7948 22fc 9d76 a53f 99eb a51b 7ea8 d03f
00000650: 410f 25a6 3563 b13f f1a3 cfca f008 a5bf
00000660: 7191 6b85 01a3 763f 3ac1 d6e9 df23 c53f
00000670: 25f2 6a5f 323a 9a3f e980 ee16 3df0 b83f
00000680: 9ec4 4be4 4668 b93f 2684 364e de1b b93f
00000690: 38d7 39c2 910a a93f edd2 705c 4246 863f
000006a0: 5e34 878e 8d68 a7bf 59f0 a01f b8b5 b6bf
000006b0: 84e3 2551 9b59 86bf 6352 ca4d f069 47bf
000006c0: e09a b3ca 0b7b 92bf fe42 69fa 2d93 b03f
000006d0: ef07 1bf1 b301 bf3f b12f 65e7 c2bb c1bf
000006e0: afdc 1468 1f54 953f 8de5 f2b8 f923 a3bf
000006f0: 29f5 5cbb 1b80 c1bf 5ba6 9bde ea5e b03f
00000700: e292 3468 d9f7 bebf 3164 6850 567f aabf
00000710: 3dd6 bdf3 74b8 98bf 4164 ee86 ead0 c33f
00000720: 27f3 de12 e146 a13f fa20 8ce3 0bf4 c03f
00000730: 8fc2 0cb1 f9e8 c3bf cff5 c3e5 be3d a1bf
00000740: acdc c005 df82 c93f 6207 b7dc 18f3 c43f
00000750: 7871 5b6d fc5e a6bf 45aa 7a70 77f4 b6bf
00000760: 1c0d 067d ea0f bfbf 5091 857a 1118 cf3f
00000770: 6d1e 90b6 8f28 bb3f 8419 088f e6e6 c33f
00000780: ee54 cb79 4ab4 c1bf 7ccb 1ba3 e6f7 c3bf
00000790: 47ff 3465 0bcc c53f 07ef 9058 640e c23f
000007a0: 8ca9 7284 2a43 ab3f 782d 0f9d 87c3 9cbf
000007b0: 4b6f 0b31 422f d03f cc09 7404 4e36 9cbf
000007c0: d897 7a2d 0bf9 a9bf 08bc d6ff e8eb c33f
000007d0: f2dd 7918 28c3 d8bf 8491 72dc 8287 ab3f
000007e0: 50ee ba1a 7938 a63f 6e13 e307 7657 b0bf
000007f0: 1b2f fb26 b364 b03f cd37 ac5c cb1b c2bf
-0.0214355949061176 -0.021179875698314792 -0.06744390407382406 -0.007101991413095792 0.0612674817562965 -0.012146888287921646 -0.01729697680124965 0.028806622758075155
0.02959034816641572 -0.10317898198438527 -0.07643559613960214 0.13303885006963134 -0.19086248684172014 -0.11924936525483737 0.07068368202114413 -0.04453220442720142
0.06071806360757303 -0.042134534365863334 -0.013021676979548837 0.03968741678785114 -0.11056244289525013 0.01594881454820601 0.042908737779416666 0.1647788176172406
0.019463301269251148 -0.11479521503650902 -0.0465023199104369 0.05534838094991503 0.036456904537719804 0.056044709186247946 -0.0637737002818861 -0.09403559437671975
-0.13511328361658964 0.05262877589318814 0.06832618094282651 0.001638810653937063 -0.11923660427014791 0.021171541415454093 -0.11355745953141755 -0.033454985141619355
-0.046417856425450724 0.04957776191908408 -0.03838348195278791 0.0166830067567848 0.03900731230587639 0.04946000658070463 -0.03139510322652704 0.11436692663789592
-0.05704643292527311 -0.1465079490260699 0.044645832158701514 -0.0525794317056727 0.008867727485122281 -0.1523802198613543 -0.05752929995107882 0.010566625911136442
-0.10893032344811374 -0.10992302422496006 0.06703379490213886 0.11662565544973243 -0.050658080993371546 -0.012575407771009638 -0.055466844328999954 0.025562505241860992
-0.14512243226765922 0.03322381036084382 -0.13575915241848288 -0.12935103131439174 -0.04545559139171974 -0.10347358285081971 -0.021937663474465435 -0.048104689330670594
-0.17634818212927664 -0.004758484660949703 -0.16837125469570188 0.04588949722768604 -0.07469945904129278 -0.1767448057346217 -0.171033146331935 0.03210994016338735
-0.04168808345558725 0.008030608948619816 -0.11291548062729319 0.05903321908357836 0.00384953860966448 -0.014853703539908347 0.059086945035848056 0.011675401696130806
0.04761578188861814 -0.04289936618493861 -0.0293636991408981 -0.022423175688006333 -0.17062496707384917 -0.0034651535951589984 -0.11573544282639844 -0.1352712347312703
-0.13189545162151545 -0.05388458733610098 -0.022051597626503255 -0.005916279494184707 -0.008237944034027962 -0.12618050835898173 -0.07364753105023718 -0.054757464769253354
-0.15210646277402384 -0.09828683001942223 -0.09834847792925984 0.0029474682178333104 -0.06946313182114719 -0.16745501207996177 0.04653160381266007 0.060431713271771784
-0.06375988736097664 -0.18176438394536673 -0.061984840732684454 -0.06751073426408859 -0.058731231754508915 -0.06618742622748362 -0.05806210221742691 0.053612341226524494
-0.02966319247936417 -0.16374304184488522 -0.13492763876162958 -0.0410813302496992 -0.1726734278114124 -0.013406475645721975 -0.11494718698063858 0.010787583316477212
0.005120383814549228 -0.14447187821109428 0.004513769270427138 -0.020165004949141037 -0.04195291695913272 -0.10715585056696421 -0.06363431894841619 -0.11717950802379841
0.02564634472547206 -0.15054165361945007 -0.15055873866800737 -0.04145573629479864 -0.033632102840654335 -0.12245686989602178 -0.032783447496064363 -0.16431145631835417
0.05749612363554866 -0.1498137988180136 0.03784020124952034 -0.01754067112108478 -0.01114338876995982 -0.08397435043041165 -0.01965895036955442 0.04164614744014603
-0.06264752064187284 -0.1655127453282358 -0.16781862620745977 -0.0016941236519442237 -0.19799865096359617 -0.08793519851114615 -0.12434364412309724 -0.03252715192352072
-0.07654589949727236 0.018849083370754607 -0.1402508932164092 -0.0737964573368679 -0.16073643620759337 -0.007596286258473354 -0.07803077027804584 -0.16142795414789946
-0.11241709619872656 -0.02941387419490253 -0.038479997564578955 -0.06106333164741984 0.018518103097907933 -0.15788182362315667 0.032694666643116425 0.04464152491045764
-0.10397104913017444 -0.1974074116368297 -0.09171069330960487 -0.16182451934621606 -0.15906514087081353 -0.07943299389689606 -0.038261460173480415 -0.02319086706711412
-0.02721818228171866 0.007418233667696542 0.012020511107783436 0.02788540466753416 0.05730009023187696 0.07435964806852478 -0.18227798983441232 -0.0034867430178501875
0.17478712835516252 -0.14161102095753073 -0.06219047611105953 0.14022507572314202 -0.07918298421765681 -0.0508261947681761 -0.372859909865192 0.12010736626897686
0.041920601871553616 0.26028397274029086 0.06792006784695294 -0.041083836323941976 0.005526548330383783 0.16515730779566146 0.025612628053510406 0.09741575059752318
0.09924738954193166 0.09808148774620004 0.048908762892934055 0.01087619633299527 -0.04571955075116628 -0.08871031543907416 -0.010913098730030553 -0.000714533172486553
-0.018047508475229956 0.06474578250459825 0.12111973415724696 -0.13854252146336202 0.020828715064649724 -0.037383846117744125 -0.1367220558985676 0.06394832548871802
-0.12096937936855626 -0.05175275546589154 -0.024141147019198995 0.1548131140559992 0.03374389033658636 0.1324477063246901 -0.1555473436833563 -0.03367420725588099
0.1993063715069402 0.16366873528573495 -0.04369343600203285 -0.08966776367257363 -0.12133660843214894 0.2429220054865575 0.10608766753295536 0.15548402770964398
-0.13831454226480083 -0.15600283588682007 0.17028944436787638 0.14106420826453123 0.05324681155009889 -0.028089636765611797 0.2528844336463762 -0.02755090620213156
-0.0507281773582659 0.15563690654877882 -0.3869114150070053 0.05376824322709964 0.043399605286563614 -0.06383454983285983 0.06403655721367978 -0.1414732172492549

transform_generator.6.bias f8 [64]
00000000: b5ab 7ad1 a084 b0bf 62f8 9177 f950 9fbf
00000010: a9ca de23 0625 89bf 48f0 4e4e acfa b73f
00000020: 27f4 d859 9a98 d33f 0176 909e 9ef3 8cbf
00000030: e372 a4b6 db26 c2bf bf4e e29c 41a0 90bf
00000040: 6164 28a8 6229 dd3f 9d28 5ac1 79c3 93bf
00000050: 205b 1eb0 2365 b8bf e889 6254 a8a4 c7bf
00000060: ae12 3c1a 9177 d93f 21f6 fd10 e584 d4bf
00000070: 1b73 b00d ea48 e03f dd72 e462 6463 da3f
00000080: 116e 6403 48e9 c0bf cdee c9a7 350f 94bf
00000090: 4c79 c24b 7226 df3f ec57 29b6 86d4 a1bf
000000a0: 9cca dd90 c111 8fbf 05f1 3d3b fe62 d2bf
000000b0: 0531 78de bb00 d53f 5560 7c09 d935 a6bf
000000c0: ac57 a566 e712 e63f 068a c115 4946 c2bf
000000d0: 2a0d 5e82 6e43 afbf 5c4b 49dc 8b01 e03f
000000e0: 9c2e a7c3 32e2 bdbf 70eb b3c6 facc dabf
000000f0: b494 474a ede6 d53f 74b2 4099 ea7e cabf
00000100: 227f 1cea 3add c6bf 8230 fd0f 5978 ce3f
00000110: d988 6709 7dd6 ae3f 7637 1338 f3e6 c73f
00000120: 657a d363 9ac5 c2bf 169a daa9 2548 b2bf
00000130: 533d 0a4f c535 c6bf 6ad3 15b5 692d a5bf
00000140: a81b 6581 f453 c53f 01e3 a20b cd7f b7bf
00000150: 205d fe6c 0a45 bfbf fa04 4da7 40c6 c2bf
00000160: 6881 c2c4 b58b c53f 6b73 5ae7 6e66 9b3f
00000170: cbb8 d6f6 2cb8 e13f f7a0 21f8 a135 d53f
00000180: 08f0 9295 e618 c2bf 0b64 eb61 2789 c43f
00000190: 78bf 1f1e 0585 c4bf 6af1 0d68 7790 b9bf
000001a0: dff9 ab3a d667 84bf 92ab 4afb 7a49 fa3f
000001b0: 1472 c9aa d104 bebf 1b78 32e3 fb69 8e3f
000001c0: 5e42 5b58 04ee c4bf 5526 543e 3d68 ca3f
000001d0: d21c 92d2 35aa e43f 499f 6480 0fc0 d33f
000001e0: d5aa 807c b2a7 dc3f cdad 581c 5c20 b2bf
000001f0: 620c 95e2 9863 b2bf 5058 d405 f02b ed3f
-0.06452374567258697 -0.030582330630288708 -0.012277648896860187 0.09366871749711081 0.3061891438881638 -0.014136542524336273 -0.1418108598526465 -0.016236329269829094
0.4556509630361401 -0.01930036776187959 -0.0952932648636815 -0.1847124492679335 0.39792277872065085 -0.3206112543046818 0.5089006678932465 0.41231641442736394
-0.13211918035163753 -0.019589269987121228 0.4867215862122023 -0.034824571358214346 -0.015170585854979372 -0.2872920588049655 0.3281697914651576 -0.04337957611841207
0.6898076062013749 -0.1427699428778199 -0.06106133786581787 0.5001887609927098 -0.11673276211439049 -0.41876096157618914 0.3422196603190273 -0.20699818118136515
-0.1786264079209952 0.23804772644723832 0.060230166814805926 0.1867355369380978 -0.1466553676063597 -0.07141337773155274 -0.17351595267653383 -0.04136209807885545
0.1666246063052459 -0.09179383787239816 -0.12214722786881227 -0.14667518776881378 0.16832611186419943 0.026757939215360887 0.5537323781079747 0.3313984797628246
-0.14138490966240647 0.1604356029627357 -0.1603094479646605 -0.09986063280479632 -0.00996367804100101 1.6429395500260608 -0.1172610322914312 0.014850585814482333
-0.1635137015751011 0.20630612891572989 0.645777617712975 0.30859744585403753 0.4477354255529183 -0.07080627147723036 -0.07183223277847753 0.9116134752137075

transform_generator.8.weight f8 [3, 64]
00000000: acec 654c 22a6 523f a9bc 32a7 755a abbf
00000010: b16c 2180 a4fa 983f 4fbc 6c89 c2e1 7abf
00000020: 8890 dff3 1056 b13f b8e6 3f95 a5bb 843f
00000030: d399 8d95 2dbb 803f d706 0669 5313 a2bf
00000040: b612 fa99 2262 c3bf 987c fd48 cf45 74bf
00000050: 64e0 9d1b 063c 753f 31f2 6bd7 5c50 9cbf
00000060: e151 a07c c43a 973f 7918 b274 c94a 983f
00000070: 2aba b0bb 9f18 b33f dfc6 dccd 1033 823f
00000080: ce1d b279 1bb3 983f 734e c937 78bc 9e3f
00000090: d389 2c21 55fa c8bf 0f3b d545 561f 913f
000000a0: 6fa4 88b9 05c8 9cbf 4717 8dfb c895 c73f
000000b0: 4f55 5d96 f778 c03f 2330 8be4 62d8 a03f
000000c0: 3278 9bad a34e 903f 71fe 4781 0750 67bf
000000d0: d350 b82a 7fe9 a43f d8de 0616 5191 a43f
000000e0: e25d 606e 80c9 923f 7810 ef81 bbc3 b2bf
000000f0: d2f2 ee2b 677f 873f 8517 ff1f 2b20 b73f
00000100: f887 4231 b1f8 9ebf c20b 4e8c 46df d03f
00000110: 6aae c0b2 4832 a5bf d870 1744 f6cc e4bf
00000120: 2743 5122 8396 493f 005a 9626 3afc 653f
00000130: 2ce9 50a6 e4e8 853f 36f6 c4aa d8a1 a53f
00000140: 97fa d70f 9a88 c23f ae29 aa05 21c1 9fbf
00000150: e4d4 538c 82d9 a7bf 4e1e 0b57 de59 86bf
00000160: 6f52 33de dcc1 913f e99d 93db 5484 a7bf
00000170: be13 79ee 12c0 8e3f 8fc3 8a3e d9a3 ab3f
00000180: 3421 075f b6c2 70bf 0202 54f0 22ca a73f
00000190: 2835 05e4 f139 8b3f 8f78 c54c 81f3 9f3f
000001a0: 7067 5962 5dfd a13f a294 8726 cf9c b43f
000001b0: 6b2c dcfc 2e7e a13f 7c4c 082a add6 90bf
000001c0: af4c 5ce9 ebe6 abbf 372e 9e11 d0d1 b53f
000001d0: 9705 bbbe cb87 b73f 9982 1d21 41cc b03f
000001e0: abf9 e58b 0322 b83f 1686 6603 c465 7dbf
000001f0: fa7b 0f5a d551 a03f 5345 ad1d 3b1a 973f
00000200: 0b25 6046 6e56 b4bf 0f37 4989 bf93 a6bf
00000210: 1a61 8b8c 045d c53f 0c17 465f 521a dcbf
00000220: 3b24 fd8d 8310 e2bf 8d7e 065e dbfe b73f
00000230: 6ff7 e3e9 1030 c9bf 8dd7 c034 25ff a33f
00000240: 308a d94f feaa 1340 d30c 62e5 f74e 9f3f
00000250: 4a16 5a88 de6b b5bf 13cf 72f3 1d49 c1bf
00000260: 2729 6a44 ddaf e9bf c310 7757 b205 f0bf
00000270: d8b0 7510 0acf e1bf e918 a9d1 4698 e2bf
00000280: fd57 f293 a2ef adbf 232d 5b88 6895 ab3f
00000290: 58f7 33e0 7d88 fc3f cbb1 08d3 7013 c53f
000002a0: d660 8c48 652d c13f 7e2b 6296 49ba 10c0
000002b0: 8b96 79e3 de3f d5bf ac2e d59f 768d 903f
000002c0: 687b 0dc5 a11e e5bf 00fb 0f0f e273 b43f
000002d0: c043 3026 409f a2bf 2f47 904d ce69 ffbf
000002e0: 6329 cf35 410d b83f d854 a9bb fc19 ba3f
000002f0: 984a c937 9cef e3bf 8e9e b84f efaf dfbf
00000300: 633f b5e0 6034 c6bf 6f9f d80f f263 dbbf
00000310: 1d52 31ee bf83 c53f 6482 2017 b676 0a40
00000320: 830b 419b 4c18 993f 4a67 1359 a22a c53f
00000330: a152 ef77 62b0 b0bf eea5 a61f e8fa a13f
00000340: 2816 d8cb df72 e4bf f396 6af2 57b6 8bbf
00000350: 85f4 8a28 3f99 b1bf 3500 8059 26c3 7f3f
00000360: 490a cc41 be6e ddbf a36b 7595 95a1 ce3f
00000370: 2c3f 5ae9 3187 e4bf 6971 dcb8 c4ef e2bf
00000380: 370e 8c4e b0be 96bf 9043 c8af 0280 d2bf
00000390: f86b 7371 b6e2 ba3f 6c29 f6a9 a884 b1bf
000003a0: eb3b 5730 77cc b03f fc83 eca9 d43e 06c0
000003b0: 958c db9d d9bb c2bf 456a ed83 a5ad 973f
000003c0: 25aa ce9f 719b c03f 6818 c305 cfa7 d6bf
000003d0: f659 fb35 4a68 fbbf 305c aaaa 2a94 e2bf
000003e0: b1bc 67da cec6 e1bf 532b 0b2c 8c0c c3bf
000003f0: 4f8c 1131 5354 b8bf b14c f2ac 44cf e5bf
00000400: cf6b b150 a9b4 af3f d574 9351 a3de bb3f
00000410: 7fd8 10b4 449c 883f c91a 8291 596e bdbf
00000420: a1e4 3851 32fc b93f 07e2 2f40 49f9 ac3f
00000430: bf98 52c7 0652 673f 7717 1813 fc03 a83f
00000440: bf01 0cc8 3cb7 a3bf 93d5 65b9 83af b1bf
00000450: bd29 b372 d2bc babf 2f83 a867 2e67 b2bf
00000460: 1b30 6a13 890e b23f 0744 1d3d b95a a83f
00000470: 2713 f9d6 6ee9 9dbf 4f26 f4c9 2b50 823f
00000480: 5101 17cc f865 b8bf a767 68b0 c2d2 bdbf
00000490: a7b9 8ffb 8bb0 b5bf 2705 c7b5 eb9b ae3f
000004a0: ff92 e143 9022 ab3f df04 3244 ef13 b1bf
000004b0: 7fc7 cf31 1555 bebf 2354 4eff fb9c b1bf
000004c0: 677d 82fe 32ae b33f c7b8 c005 f6ec 953f
000004d0: 3978 83a5 2d6e b33f 8d52 40c2 13da b23f
000004e0: af49 b6f9 d62b b13f 537e c585 fe04 a03f
000004f0: f3ce b628 1c63 bb3f db4a c0f3 a141 ad3f
00000500: 6dfd bbb0 0f08 b1bf 2f23 be42 d9ba b9bf
00000510: a796 caae 464f a5bf 674f dad8 68a6 b03f
00000520: 018e ad24 01f5 bf3f b74d 7463 189b acbf
00000530: cb38 0c6c 0a81 aabf d7b0 a426 c04d 9fbf
00000540: 63a6 3e09 2fda a33f c727 1ffa ca4f b9bf
00000550: b3aa 7b93 3ac4 ab3f f7b9 5634 e8b3 bb3f
00000560: 7520 65b0 0163 b53f 6b83 5554 aad1 a13f
00000570: fb29 2207 8e14 b2bf 0fe9 cf2e 2a77 8e3f
00000580: 75ac 10ab 6714 b23f bd80 7a99 4394 bf3f
00000590: 9f6e 3f9e 8e70 a3bf cd50 147b 8909 bcbf
000005a0: df78 9ac6 cd1c 7d3f 5fe1 5b0c b1dd 78bf
000005b0: d161 ec7a dc50 b33f dfee 2228 af68 9e3f
000005c0: 6b55 6ed4 7d99 adbf 2756 090b 00d7 b6bf
000005d0: 77b3 8ac2 48c0 adbf fd58 851c d554 b23f
000005e0: 5b89 1d1b 7aaa b6bf b3f3 7e02 130b bf3f
000005f0: eb2c cd39 e23a b7bf 1f0b ec75 cb0d 783f
0.00113824223953322 -0.0534245268439631 0.024393625565022507 -0.006562957677302596 0.06771951631486861 0.010123532883869898 0.008169513823031693 -0.035303694315201355
-0.15143234747315198 -0.00494938822507076 0.005184196337602118 -0.027650309227271023 0.02268511782320271 0.02372278952363913 0.0745944817760821 0.008886462480947653
0.024120740225525066 0.030015829472473898 -0.19513954276869913 0.016721103679908696 -0.028106774758417104 0.18425857813616117 0.1286916240884843 0.03290089645233276
0.01592498538126836 -0.002845778139317017 0.04084393879398509 0.04017117875940607 0.018346792923777396 -0.07329914018834127 0.011473470714798682 0.09033460169948
-0.030245560294709123 0.263627659813377 -0.04139926130332301 -0.6500197725213424 0.0007808819106092977 0.0026837478405454807 0.01069811470562295 0.04225041470133954
0.1447937562333734 -0.03101016614031387 -0.046581344251458906 -0.010913598090510093 0.017341090261498267 -0.04593148403528941 0.015014789488427268 0.05398444069340435
-0.004091942203054356 0.046464053952153264 0.013294114848259556 0.031202335654022802 0.0351361448817461 0.0805177182260928 0.034165829054551754 -0.016443925562338965
-0.05449616645469157 0.08523273878216107 0.09191583067424457 0.06561667498091096 0.09426901021468008 -0.007177129437339077 0.03187433933612023 0.02256100052483607
-0.07944382875588844 -0.04409597922186325 0.1669011770488929 -0.43910655311661695 -0.5645158551425377 0.09373255773106788 -0.19677936001238147 0.039055979432688216
4.916985747959686 0.03057467782538199 -0.08367720440772888 -0.13504385363705093 -0.8027178131317542 -1.001390782986207 -0.5565233537177177 -0.5810884566242552
-0.05846889549245302 0.05387427010063053 1.7833231695107852 0.16465578369515152 0.1341978649368289 -4.1819213387888095 -0.33202335562086976 0.01616463995496413
-0.65998924719666 0.07989323489890054 -0.03637123552483201 -1.9633315114810548 0.09395225108815945 0.10195903379038229 -0.6229992951942505 -0.49511320863027997
-0.1734734627921127 -0.4279751925228003 0.1680831826257795 3.307964497260672 0.024506756759602687 0.1653635916653065 -0.06519141605469737 0.03511739145626423
-0.6390227300004812 -0.013531386456928618 -0.06874460925878807 0.007754468730127019 -0.4598842279957905 0.23930616185938644 -0.6415032918612034 -0.5917686091011493
-0.02221179465688136 -0.28906314054716464 0.10502186078831233 -0.0684304633088339 0.06561989717668808 -2.780679061441786 -0.1463577290333872 0.023123346497735637
0.1297437696751597 -0.3539922291059896 -1.7129613979974443 -0.5805867512998528 -0.5555185571410189 -0.14882042074745047 -0.09503669689142778 -0.6815513017521849
0.061925212002016054 0.10886593572236632 0.012016808266803956 -0.11496505548903281 0.10150446398701486 0.05658940228017078 0.0028467304606066553 0.04690540059168218
-0.03850736562708645 -0.06908438946068989 -0.10444369602479404 -0.07188692122191463 0.0705342934035688 0.04756716605209737 -0.02921078860369444 0.00894197664321719
-0.09530596716559116 -0.1164972000773604 -0.08472514049183265 0.059783330859781984 0.05299807385089216 -0.06671042838026463 -0.11848576036552848 -0.06880164130264226
0.07687681878677709 0.021411747075199352 0.07589993754251702 0.07364009373152154 0.06707519146428952 0.0312881029410589 0.10698104852673022 0.057141362194803334
-0.06652925553134077 -0.10050733451329273 -0.041620453678928464 0.06503920835740261 0.12483222146470753 -0.05587078298608666 -0.05176575249616774 -0.030570032461739807
0.038773984793192516 -0.0988737927101787 0.05423148203211294 0.10821391370584608 0.08354197079199983 0.03480274466961116 -0.07062614130169458 0.014875726274102634
0.07062385488886654 0.12335608002695415 -0.03796811753974549 -0.10952052359454285 0.0071075475804305 -0.006070796580154385 0.07545259476717738 0.029696213555083225
-0.05781167238380188 -0.08921814221806611 -0.058107637164858277 0.07160694071112413 -0.08853877222057831 0.12126272974906165 -0.09074224387329692 0.005872530716035467

transform_generator.8.bias f8 [3]
00000000: 88ec a974 aecc bc3f 85e5 5b90 2129 e1bf
00000010: faae 20e8 36a7 b8bf
0.11249819133984051 -0.5362708873282577 -0.09630149047069017
