models/GFDL-ESM4-livneh/QM_SST_2000[1980, 1990]_livneh_bci.pth (torch, 73668 bytes, 8 tensors)

transform_generator.0.weight f8 [64, 1]
00000000: 1299 fe8e d0b1 f2bf 42c9 b87e 927d f0bf
00000010: 89fe 1d28 251f e3bf 023f 8133 be06 e4bf
00000020: ea3b 9123 f988 c53f 3f65 01cd bcc5 a7bf
00000030: 62f1 805f a354 eb3f 9be6 95d9 9bc9 ea3f
00000040: 94db 1b7d 2845 f1bf fbbe beb2 d082 e7bf
00000050: 8f00 c7a4 626b e2bf 47b5 5839 f2e7 cfbf
00000060: 94e7 7b70 189d eb3f fc9a 345d 211f e63f
00000070: 2762 f30f 005a cfbf 16e8 4377 6748 c83f
00000080: a798 452c 4898 e7bf c52a 15af a10e e43f
00000090: 23b1 d3f0 00a5 d73f 2ff1 42cd 7b0e c0bf
000000a0: 2270 be10 3b6c e4bf 6cf6 d642 02ce e23f
000000b0: 13d5 df1a 9008 d8bf 52cf f5f0 9209 d5bf
000000c0: 8508 9cd1 85fe edbf 85e8 62c3 a26a edbf
000000d0: d740 0ac0 d24a eb3f 5955 cf1b d1e4 e0bf
000000e0: 1fe8 0822 0213 debf 002e 140f 8f9d e8bf
000000f0: 952b 8891 daa8 d9bf 6f29 5819 d70f e1bf
00000100: 5a2c 1ce1 d2fa e3bf dff0 06ff 32ba cdbf
00000110: 28cc f0da 6e19 c53f 4389 828d 9aa1 c43f
00000120: b844 ae33 389a e53f 6b64 c187 0ae0 f1bf
00000130: 5987 ea7e b1f8 cfbf a849 82b3 5732 bcbf
00000140: fd6e 1511 82ed e93f da46 be2e 4574 e8bf
00000150: 3c5c b364 fc7e babf e645 8719 5d57 d8bf
00000160: 44bf fa4a a87b ed3f 0c4d 5460 7a95 e43f
00000170: bdad 0009 0e21 c8bf 95ab 8895 f5a4 e9bf
00000180: 58aa 052e b67a e63f df2e 2140 a8f9 c43f
00000190: e64d d991 74e4 e23f d113 e2de 1396 ab3f
000001a0: 0de3 7c39 47d2 e4bf f88a b434 3ff3 e93f
000001b0: 97f7 5638 3941 b6bf e68d 0dbe 53d3 ed3f
000001c0: ba21 be8d 9c54 d3bf 136c aaea a544 d0bf
000001d0: 6339 5f9e 78b7 d23f 36c3 4fa8 75c2 e6bf
000001e0: bc3a 929a 2587 e8bf 2d93 e9fb d9f8 dd3f
000001f0: a3b3 2aa7 2d6f dfbf 1c38 931f d0ac cd3f
-1.1684117875789224 -1.0306572866507655 -0.5975518973863966 -0.6258231168703505 0.16824259030042238 -0.04643049242504071 0.8540818085962594 0.8371104478566908
-1.0793843161643268 -0.7347186556926028 -0.5756085604007398 -0.24926593589899879 0.8629266926720782 0.6913000889224743 -0.24493408945888115 0.18970959971903828
-0.7373391022381569 0.6267860812743825 0.3694460250687987 -0.12544200441869566 -0.6382117583302753 0.5876475625479549 -0.3755226385540748 -0.32870934993046774
-0.9373196691451687 -0.9192670646800855 0.8528836966306937 -0.5279317420160324 -0.4699101765032782 -0.7692332548626268 -0.4009310170374019 -0.5331836218841043
-0.6243681332283686 -0.23224484875198123 0.1648386544271443 0.16118175420440126 0.6750756272687317 -1.117197542471582 -0.2497770185191779 -0.11014316685240166
0.8102426847139835 -0.7641931450800385 -0.10350015123855 -0.38033225529679127 0.9213448967402447 0.6432468301231054 -0.18850875320036478 -0.8013866348822939
0.7024794482106911 0.1638689339764516 0.590387616024995 0.053879376370822414 -0.6506687281426778 0.8109432248496367 -0.0869327318714269 0.9320467674228297
-0.3020392784315181 -0.25418994824002644 0.2924481913186325 -0.7112377440772437 -0.7664974230736656 0.4683136901933718 -0.49116078686602743 0.2318363336730166

transform_generator.0.bias f8 [64]
00000000: 10d0 044c 885b d2bf 40ac 332c b277 d0bf
00000010: a3cd cd2f f76a c43f 86e5 7655 831b ea3f
00000020: fc17 e35b 1de3 d43f f0eb 3727 73c1 e6bf
00000030: 5f0c 8fa5 3e0b bdbf c749 8095 7abf ec3f
00000040: 1835 1262 b098 d2bf 1c54 319a ebd6 ebbf
00000050: d516 6a70 f45d d13f bc1c 6e6b ba92 efbf
00000060: 2c9f 46d0 df35 d6bf 1bbf 75a0 27ca d73f
00000070: 0e08 a6b2 322e e7bf 7596 cf58 aeff dcbf
00000080: efcc 3fa4 03c3 953f 42eb 4eca e816 cdbf
00000090: 3e2e 92c7 e720 d43f 141c 2442 a147 e5bf
000000a0: 805a 8ad8 e66a e83f 3f4e 472e 1624 ec3f
000000b0: aa6a 41d1 3a0f e1bf ace1 a8ed d94c dd3f
000000c0: bcb3 a4e0 4a40 efbf 3c02 f13b 7fd8 e9bf
000000d0: bf49 ad31 9f36 e93f 0cb8 4eba 8937 e03f
000000e0: f877 798e fe61 eabf e361 e8de ec2e c4bf
000000f0: 0fa1 e664 2681 ea3f 9893 98d6 6772 dabf
00000100: 1133 be5c 3e49 c1bf 0fef 2509 4b0b d43f
00000110: fe0c 4ec7 064b eebf 6de7 54e3 1d0b ec3f
00000120: 2877 fc88 30c1 d4bf c9b1 fc93 47b7 d1bf
00000130: f619 64d1 2ef0 e13f 9a4b 2be4 8c4b cb3f
00000140: 61b0 f3f4 262f b3bf dd29 9d22 530f c4bf
00000150: df60 e293 b8d5 bcbf e030 fa13 d797 d3bf
00000160: 2c40 8914 cc13 a13f 12c2 610b e187 d53f
00000170: 96ff 21eb f687 ccbf ca51 333d 5467 e4bf
00000180: f2cf 4daf 7cd8 dbbf 86b3 a268 a70b eebf
00000190: 2748 c289 eb84 d6bf 8762 4f62 8537 de3f
000001a0: 9a04 eb73 5c4d eb3f 219b 364d 4c96 d4bf
000001b0: 6f16 b65f 075f ec3f a376 63d3 e43f c3bf
000001c0: b2da 2c66 189f d73f 5054 9349 4985 e3bf
000001d0: 564e c949 cac9 d9bf 44c1 431a 39cc c7bf
000001e0: 04de 5a55 2803 e93f d354 ddc8 a4bf cf3f
000001f0: d030 f896 3256 dabf 4dde b9d0 5f63 e23f
-0.28683669494353214 -0.2573056632670081 0.1595143302362035 0.8158585232951487 0.32636198018406026 -0.7111144796357376 -0.11345283071482147 0.8983738822883475
-0.2905693967557723 -0.8699853908134432 0.27135954835862935 -0.9866611574406288 -0.34703822459640565 0.3717135493270562 -0.7243894089917846 -0.4531055323881
0.021251732730843405 -0.2272616374810586 0.31450838555676686 -0.664993886167283 0.7630495290093933 0.8794051078679742 -0.5331091010114808 0.45781563004450265
-0.9765982043805859 -0.8076778574687249 0.7879177065136033 0.5067795409029272 -0.8244622023300954 -0.15768204578559084 0.8282653780670745 -0.41323276478424864
-0.13504771736588642 0.31318927663208823 -0.9466585056947279 0.8763570251532947 -0.324291356826381 -0.2768114991365818 0.5605691995304471 0.21324311390943934
-0.07493823509474985 -0.15671767416127028 -0.11263612375694575 -0.306142587193575 0.033354165560581656 0.336418400874238 -0.2228993080243497 -0.6376134105035416
-0.4350883209183386 -0.9389226001418229 -0.3518627972890748 0.4721387348231833 0.8531934989952277 -0.32167346516000533 0.8866001958237585 -0.15038738557534712
0.36908540704772996 -0.6100202977201068 -0.4029412956781234 -0.1859198930974434 0.7816354434098121 0.24803600128021816 -0.4115110849677537 0.5746306492500907

transform_generator.3.weight f8 [64, 64]
00000000: 55bd 74a1 bb55 a0bf 437f 6cca b575 bcbf
00000010: 7e29 bdd7 4b02 be3f 5d28 db2e 0809 c03f
00000020: 5b44 8104 6c00 a73f 47eb 070c a66a 90bf
00000030: 3855 61e0 54ff c2bf 286e 63de e22d b93f
00000040: 06f7 9fa9 1162 a73f 659d c3ce d019 b23f
00000050: 9234 78fb 84bb b53f 8dcc fe7d 1f94 b2bf
00000060: 4108 7d25 42b0 c2bf a7ec 2349 5af1 963f
00000070: f789 a226 f949 a1bf 57a2 ebe5 1116 c0bf
00000080: 6368 0271 6c1f 62bf c0fa cb85 403d a6bf
00000090: 5791 4633 1e13 85bf 3fc9 91b1 a55f 6bbf
000000a0: a263 8442 6b45 993f 8a95 49f2 4de6 ad3f
000000b0: ff4c 36bb 3ec6 b7bf 9789 cba9 b9e2 b93f
000000c0: cf50 ad1f 0652 af3f 37a9 f06a a4ca 99bf
000000d0: 41c0 dc13 fb76 9a3f 9436 1080 6bca b83f
000000e0: 5fdb 2c4b 3134 813f a81b 83f8 d861 b43f
000000f0: 15f1 2c8e f5ad b63f d776 2b93 09e8 9cbf
00000100: bf79 7e57 4949 a8bf 99aa 8cff 38fd c43f
00000110: 6b55 9a95 8e6d b0bf 5768 6a44 f3e2 a0bf
00000120: fbf1 7c27 7129 a63f 8cd1 0229 bc0d b13f
00000130: 5fb3 121f 59ef c63f adb5 87fe 98d9 c93f
00000140: 8c5b 1be4 b6e4 9dbf fe91 eff0 9684 b0bf
00000150: 242a eda9 d3f0 8b3f 36d0 bf18 343b bb3f
00000160: 894b 35e2 1a09 993f 5e5e aea9 c9a9 b33f
00000170: f142 8ffd 439f b2bf 2fbc 731e 9871 b9bf
00000180: 1b24 5521 fba0 cdbf b34b e9f6 00d3 bdbf
00000190: a914 ddf1 b3d3 b4bf c4d3 f747 5b72 b63f
000001a0: db79 609b 10b9 953f 867c 9616 bcce b8bf
000001b0: e53a ff78 a91e ba3f 9b1b 2451 6941 9b3f
000001c0: 7d2e 5909 a447 8bbf 3b62 27b3 ecdb a23f
000001d0: 1e9a 442b b7cf 86bf f37a 80a4 4479 7b3f
000001e0: 8bd9 56e2 9f8e b73f 678a dbfb b9a4 a7bf
000001f0: f3e3 96dc bf54 a63f 1268 c135 4a4b a03f
00000200: cd86 dede b4e3 c5bf 9c25 d999 92ff a2bf
00000210: 3660 8cf2 b00f babf 34d7 bc67 83de c1bf
00000220: 8340 6e05 664a 9b3f b3b9 1f93 f4ed abbf
00000230: 1f26 ff37 0f9b a23f a4e2 dc59 4acb bcbf
00000240: d693 4b86 2fff a13f 3fe6 e841 d436 a7bf
00000250: ff4b be0b 1930 c7bf 315f 7aa9 b4b4 b0bf
00000260: 6b77 df7a 16ef b53f 83c9 1d53 cefb ab3f
00000270: af2b 59e1 fb13 b43f 7241 c8e3 c2da ac3f
00000280: 3eac 2e7f 08f1 b7bf 9a73 7c00 92c3 b0bf
00000290: 8232 eabf 07ee a73f bb26 681a 95e9 bfbf
000002a0: ad60 20ef e7b0 c0bf 09a2 042d 35c3 b5bf
000002b0: 2f64 094a 000a 863f 8a53 f76b bd36 a23f
000002c0: 8766 c591 5ed7 94bf edcb a1bb 261f b43f
000002d0: 0cf5 60a5 565a a8bf 8b9f b744 dc20 c1bf
000002e0: fd24 ba9d 20a3 b23f d80e 3d8c 05f1 a33f
000002f0: f2d0 3d2a bb9e 9c3f 559c 32ba 1ac1 babf
00000300: 4513 400d 6962 c3bf 7e49 a8bd 381f 8bbf
00000310: 93e3 62ea 97e0 ac3f fdd6 944c c699 c2bf
00000320: 0759 5c24 67a3 b43f 7af1 8230 0b8b a5bf
00000330: b5f3 ef8a a573 803f bba0 7626 7e54 b6bf
00000340: 7d8a 1c6e 31b5 9ebf 73d1 daa5 0261 90bf
00000350: 89ba 0cde 4a16 9e3f a832 e2b2 303e a4bf
00000360: 5afd 744b 07e2 c4bf b054 0507 b20b a83f
00000370: f0a8 05ea 73dc c23f ab72 6bfa 4380 ac3f
00000380: 4d85 0e9e a07e c0bf b310 451e 71a7 a23f
00000390: 83b6 4cc9 8dbe 9b3f c46f 2bf6 b03b c2bf
000003a0: 0821 189e 6f8a 96bf 31d6 772a feab bbbf
000003b0: df04 e4b3 8194 b03f 4ff3 bb8a d3a5 923f
000003c0: 1e91 3bce f48d afbf e5c8 9326 c0a7 bd3f
000003d0: d25a c776 2ee8 bebf bb97 f068 36bd 8ebf
000003e0: 20e3 78eb 49d7 c3bf 238f 3b8e 59e2 c2bf
000003f0: dd2f 2f41 013f b8bf 346f c665 7864 b5bf
00000400: d019 dbf5 51cb babf e533 d75c e4cb a8bf
00000410: cabb 9751 a175 a6bf 1fac b547 6e41 c5bf
00000420: efd0 8188 7b5d a4bf 571a 416f 55ad a03f
00000430: 1bc6 80b2 5954 a83f 89f5 7b6e cba0 a4bf
00000440: ca5b a0d0 c81b a93f 3127 7b4d def9 b9bf
00000450: b94a 5a3a 79b8 a6bf d3c3 ecd5 aafc a73f
00000460: 47ab adc7 ddd3 bdbf a70e 0666 4ef3 babf
00000470: c710 b65b b357 923f 6983 259c 958c c2bf
00000480: 6df0 1902 7442 9a3f 1d14 b463 a595 b8bf
00000490: fa3b a27e 230a bebf b99f 84be 8e41 b9bf
000004a0: 236a e1f5 8d7f af3f 8329 0ddb aa31 c2bf
000004b0: b37f 4e96 fd67 a03f bbd4 fe67 948e 9e3f
000004c0: c75d e58b 2f8f ad3f e336 dcf1 534c b2bf
000004d0: 8f25 59df 8626 c0bf 89ad b143 9265 a8bf
000004e0: 0761 d84f a554 a7bf 2967 1853 8d03 8bbf
000004f0: 418d 42cf 9a54 9fbf 0b4d 9812 04f7 a4bf
00000500: 5e90 4566 9df9 a53f 2def 4428 3565 c4bf
00000510: 28d0 9bc5 bf68 b2bf 53ba c985 2d27 aabf
00000520: 8da7 0f5c 9fe1 6dbf ae57 a12b 4d66 3a3f
00000530: 9daf 19d5 4a8f bcbf 179c 82b3 b7ee 9bbf
00000540: 1dd6 62ea 3a28 af3f ccf7 7993 2518 c5bf
00000550: 3144 3a72 0a5b 663f 1442 22e9 2f15 a03f
00000560: 6fa7 2683 3a1e a23f 3032 651d 3deb bebf
00000570: a15b b4ec d120 a9bf 8f45 4ec9 9d4c 86bf
00000580: 9fa0 b7fb 5466 c5bf 0f17 3983 cf10 873f
00000590: 7a31 6721 304d b4bf fbe8 7445 d36e b1bf
000005a0: a702 a8c4 64b8 9fbf 970f 7ad7 efdc a4bf
000005b0: 89ab 7641 c0b7 c5bf 65f4 ed5a a4fd 78bf
000005c0: 50ea 4df0 785f b03f 7f9e 0b5a 0a3a 503f
000005d0: b1e8 4c24 dbc8 c3bf 8eca a789 1fe0 b3bf
000005e0: 841d fa09 ee45 a0bf 7eba 8a5b 9d52 aa3f
000005f0: 8f08 1076 fcef 9dbf 6d9e 61f6 3f4a a9bf
00000600: 0b1e 447c 5e9f 833f 4975 7238 49c2 b1bf
00000610: e5e2 f41c e182 c5bf 2c96 b43a 8eac bcbf
00000620: 1da0 8ec7 3aa4 b0bf 811a 8faf 3260 b2bf
00000630: 33e4 3667 d9d5 bfbf 479b d7dc 6fb2 7bbf
00000640: c09d 70bd e3e9 bbbf 9bbd 60bc d1ce a2bf
00000650: 43cf 9b6c ae0d c7bf 55c7 79c2 3798 bbbf
00000660: 06e9 bdb0 bbf7 b5bf 14dd 6781 ad42 9abf
00000670: a3a7 cacf 7757 b2bf 9032 5088 e079 b9bf
00000680: 1c08 02a6 3550 ac3f dd46 9fde 4851 c7bf
00000690: b11b 25d6 295a c7bf 9b98 50f2 985c a1bf
000006a0: e77b 4435 d93f 923f 3a1d de80 091f a5bf
000006b0: f373 d3db 81d4 ab3f 0773 80ea 9f85 adbf
000006c0: 0dd2 64e7 d32f b7bf 2b24 1334 d897 aebf
000006d0: 4b9b 6000 23df a4bf 34b2 1f34 73bd 763f
000006e0: ed00 2af8 43c6 b2bf 192d d2a2 6375 5fbf
000006f0: e202 5074 038f b5bf 11b8 d6eb fe29 babf
00000700: dff6 49d7 e61b c8bf 9046 4bd7 f0ba 91bf
00000710: 9988 020f 1f49 a9bf 18c9 4f4e aa34 a4bf
00000720: 8619 8f67 c66e c0bf 3ba2 e949 911f 9bbf
00000730: ef20 6082 3e6d a5bf 9c00 b2a7 19ff a7bf
00000740: ac51 3bf5 d384 a33f 0fae 5774 250a b4bf
00000750: 421c 2e7f 004e b3bf 4d63 56ee 4972 b8bf
00000760: bccd 1d4c f14c c6bf a18b 0b74 cf96 94bf
00000770: bd34 e8d5 1b87 a33f ab77 2d96 6de1 b5bf
00000780: 5298 e2bd d204 a93f e95f 2192 e7ac bcbf
00000790: 757b b94e e4f0 b9bf c04b 397d 6075 bfbf
000007a0: 83ea 484d b1c9 b5bf fe17 861b ca30 813f
000007b0: ebe5 19bf b670 74bf 7ed4 c4fd 3fe6 c1bf
000007c0: 8c1e 3ce0 390a bdbf f3af cc5c 6599 a43f
000007d0: 25bb de21 016b c8bf 0480 98e1 07f0 c1bf
000007e0: 0c73 8017 d2c7 c7bf a063 11ab 652c 963f
000007f0: 6ba7 6f20 2634 bbbf d991 72cc 6196 c8bf
-0.03190409036539658 -0.11117111389148442 0.11722253815711345 0.1252756336965061 0.04492509417526299 -0.016031832203206944 -0.1484171004873731 0.09835641793636596
0.04567008205047611 0.07070641563369902 0.08489256991761554 -0.07257267786080686 -0.1460039790200103 0.022405062402850586 -0.03376749607675216 -0.12567352034172316
-0.002212249564832057 -0.043436065991036 -0.010290370883759321 -0.0033415065959669084 0.024678874907383304 0.058397708726981426 -0.0928687293110677 0.10111580272090347
0.06117266785318664 -0.025187081362824073 0.025844500624941927 0.09683868290468417 0.008400330645242425 0.07961803500357567 0.08859190674860813 -0.028228902442484518
-0.04743413155596298 0.1639777419853388 -0.06417170669950216 -0.03298149309303316 0.043284927435227126 0.06661582947965011 0.17917932526816124 0.20195305278995815
-0.029192788765466868 -0.06452315695020869 0.013642934439890793 0.10637212375860447 0.024448795372630925 0.07680950539212847 -0.07274270000858586 -0.09938956016024812
-0.23147524955337037 -0.11650091198070704 -0.08135533003685914 0.0876824427321728 0.02121377895684327 -0.09690452147923354 0.10203036502864966 0.026616712167221484
-0.01332023767022083 0.03683414160667949 -0.011138373382505281 0.006707447180842807 0.09202002788410917 -0.046178638452848024 0.043615337064188874 0.0318244162196636
-0.1710115516880734 -0.037106114654828576 -0.1018019287261048 -0.13960306706729286 0.02665099533220473 -0.05454983039804819 0.03633925970605056 -0.11247696584622219
0.03515003694864276 -0.045340188069939995 -0.1811553294506609 -0.06525735032698489 0.08567944049670266 0.05465550198177296 0.07842993022602117 0.05635651617569949
-0.09352162461316113 -0.06548416625851275 0.04673790185652128 -0.12465793509195582 -0.13039874244782848 -0.0850098833949532 0.01076126314107925 0.0355738825125292
-0.020352819106256106 0.07860033112392247 -0.04756422776015698 -0.1338153205426774 0.07280162668952879 0.0389482244195542 0.027949261143889133 -0.10450903936235652
-0.1514407458018018 -0.013243144309886597 0.05640101181183534 -0.1453178285534519 0.08061833036149234 -0.042076444312871566 0.008033078482179915 -0.08722675742194756
-0.02998807177130879 -0.015995065091105553 0.029381913950766978 -0.03953697379720228 -0.16314784225867635 0.046964228970560185 0.1473526852308349 0.05566608840829209
-0.12886436193097453 0.036433730073015445 0.02709409276137943 -0.1424466325760233 -0.022012466453845497 -0.10809315239733831 0.06476603166449334 0.01821070226923221
-0.06162991540421302 0.11584092084720828 -0.12073030853148772 -0.015009331777104387 -0.15500759122530727 -0.14753264851526024 -0.09471137849249041 -0.08356430515999308
-0.10466491939869305 -0.048430572827420616 -0.04386619683270217 -0.16605928899238706 -0.039775715268577254 0.032572431403015294 0.04751854232780436 -0.040289265858500185
0.049040103404130855 -0.10146893874766928 -0.04437617146790757 0.046849573720812686 -0.11651407360993203 -0.10527505865871466 0.017912676308257127 -0.14491529583304022
0.02564412367654294 -0.09603341755071466 -0.11734220353740446 -0.09865657950706365 0.06152003885718595 -0.14214072891111237 0.032043385122278244 0.02984077343690637
0.05773304541315443 -0.07147717146673531 -0.1261757460181738 -0.04764992786734996 -0.04556767081902718 -0.013190368746154828 -0.030596178913254283 -0.04094708182324255
0.04292003510889296 -0.1593386122348134 -0.0719108445590001 -0.051080153066199195 -0.003647624253507459 0.00040282615703312707 -0.11156146719593925 -0.02727782281058574
0.060853806602079376 -0.16479940129278103 0.0027289585139631746 0.031411645134657246 0.03538687563862097 -0.12077695815714473 -0.04907852186641227 -0.010888321596015852
-0.16718542376407172 0.011262532417400743 -0.07930279555802669 -0.06809730954856612 -0.030976843359897057 -0.04074811463672672 -0.169670135464312 -0.006101266872858256
0.06395679346852856 0.0009904004183968471 -0.15456713936311453 -0.07763859854439145 -0.031783522336861686 0.051411549973058066 -0.029235787111254793 -0.04939460642418401
0.009581316153812322 -0.06937081935980872 -0.16805662073036057 -0.112007989246728 -0.06500594493866214 -0.07178036485775331 -0.1243568303097085 -0.0067619676242206056
-0.10903762221334201 -0.036734155888889584 -0.1801050215068419 -0.10779140947286454 -0.08581135811792615 -0.02564498045282189 -0.0716471559814225 -0.09951594665489893
0.05529945041145387 -0.18216811056350127 -0.18243906933113643 -0.03390958745903668 0.017821687580290926 -0.04125241945353726 0.05435567673132615 -0.05766010034151319
-0.09057354354155951 -0.059752231938155674 -0.04076489810568392 0.005551767362686411 -0.07333779152577664 -0.0019200776107791194 -0.08421346273099631 -0.10220330484182251
-0.1883514929976888 -0.017314685001855568 -0.04938599642015724 -0.039464304027108266 -0.1283805852564905 -0.026487608085888886 -0.04184909192560037 -0.0468681351858333
0.03812277191687782 -0.07827982035058077 -0.07540896515830389 -0.09549390858445612 -0.1742231008207521 -0.020106545884924668 0.038140172826481834 -0.08547100941129197
0.04886492317136572 -0.11201331441532116 -0.10133196756349412 -0.12288477952215171 -0.08510883461796408 0.008393839802703692 -0.004990304807159766 -0.13983917132432916
-0.11343728756411958 0.040232818201133023 -0.19076551584063242 -0.1401376582662125 -0.18578554294153837 0.021653736654431932 -0.10626447955988076 -0.19208929522314014

transform_generator.3.bias f8 [64]
00000000: 8ae5 a918 8257 8d3f 1b76 8221 07b7 a5bf
00000010: 937f d9ec 2b14 c1bf 6ab4 553b b808 9fbf
00000020: 0f22 e624 c344 92bf f686 ccfd dd1e b33f
00000030: a7d5 fe80 4022 b3bf 644e 777a 1ac2 c23f
00000040: 08fa 3a6c 9389 adbf 765b c561 04ac ba3f
00000050: 4595 996a aa0c b03f 32ca 133d 0dee 96bf
00000060: 6682 98cb 7020 b6bf 4a92 359e 01c3 ad3f
00000070: 6d12 5d69 7fb4 ac3f 9aa4 6bde 05e4 84bf
00000080: 34f7 848a 2660 3b3f 9bba 382f b4db 903f
00000090: f875 f942 8bff c33f 17ff c7b5 9731 c2bf
000000a0: c573 502d ef5d bfbf e7a1 c506 67ff b9bf
000000b0: d8d0 7892 5b5a 80bf db87 9805 d05a a5bf
000000c0: 88b9 586f cbd8 b3bf a966 ae9c 5168 bdbf
000000d0: bb25 ab39 c405 d13f f19a 1d29 b88d c3bf
000000e0: baf1 d545 1f72 ae3f 0760 9db9 2083 c1bf
000000f0: 2732 b762 9456 90bf a66b 54e9 d9bf 963f
00000100: ee00 37bc 2862 b9bf f649 0d51 a0a7 c1bf
00000110: 16f5 80b4 84b9 b6bf 7ece c555 0c6e c43f
00000120: a068 c350 803e a33f a468 e72a 2e35 c93f
00000130: ebf1 1fbd cc12 b1bf 6458 9914 3e3c c3bf
00000140: 335d af4a 50a0 26bf 0484 fa56 ece5 b1bf
00000150: ffaf 7fa6 74f4 c13f 6e16 dc4d ba11 973f
00000160: d5c2 11b0 863e 86bf 3c05 0b4a 0c73 bebf
00000170: 4c6a 1d24 f438 7a3f 4390 10b0 89ec aa3f
00000180: b874 87f5 b565 b9bf f05a 5da3 9f9b 923f
00000190: 3404 2eb6 39be ad3f 68d2 bbfd cbfc b5bf
000001a0: cef9 6fe5 383a c4bf 0888 e1df 9ea4 b9bf
000001b0: 2d4b 61c5 9298 c63f d995 a19a ebd8 c0bf
000001c0: 9e1e 716f 7fe3 c5bf 3721 cebe b91c d13f
000001d0: b9ca 84ee f512 68bf b557 6850 dcf7 a93f
000001e0: 7b3e ba29 8eff bbbf a884 dde9 79e6 bb3f
000001f0: 5894 e53f 5217 b23f 163e dd60 20ca 65bf
0.01432706487433923 -0.04241201671650804 -0.13342808785364166 -0.030306700345523664 -0.01784043228829729 0.0746897453905396 -0.07474139355948371 0.1465485666254721
-0.05769024559184649 0.10418727290139693 0.06269326307809304 -0.02239247021948127 -0.08643250437354197 0.05812840515389846 0.056064588176501264 -0.010200544214472185
0.00041771832413305403 0.016463103658845495 0.1562360837005341 -0.14213844657933158 -0.12252707344346365 -0.10155338206607888 -0.007984843642681858 -0.041708470042308675
-0.07752677410528552 -0.11487302851892402 0.2659769595307712 -0.15276243217086674 0.0594644329785043 -0.13681420386524243 -0.015955275082705136 0.022216229311293433
-0.09915403933610253 -0.13792804677593978 -0.08876828581647475 0.15960840404624216 0.037586221560290456 0.19693543524664847 -0.06669311158470463 -0.15027595525561133
-0.00017262439845809052 -0.06991459964275754 0.14027269487212377 0.0225285635015297 -0.010861446617327722 -0.11894299323741547 0.006401971508092585 0.052585890524170974
-0.099208233302721 0.018171781869876946 0.058091929901828016 -0.08588862366361527 -0.15802680209158243 -0.10016816106647763 0.17653116834352414 -0.1316198830638047
-0.1710051817083142 0.2673782695133186 -0.0029387286523613024 0.05071915132081931 -0.10936821478593999 0.10898553809740241 0.07066835460644094 -0.0026598579778818283

transform_generator.6.weight f8 [64, 64]
00000000: a0a6 02fd 08f5 9ebf e3b3 5231 b478 83bf
00000010: c604 8bf9 db6d a9bf 0722 06b3 82c3 acbf
00000020: 7180 3c7b 4aa3 a93f 5120 60fc 1988 84bf
00000030: 1d3c fa1b ac1b 9fbf 5fcf d9be 2a71 ba3f
00000040: f8a1 b701 0d63 a13f fd10 0058 14ad c0bf
00000050: a9ba e543 17ff b6bf 495e e026 e7bd b93f
00000060: d6c6 aa64 a25b c1bf d89e fc49 264a bcbf
00000070: 1bc8 ef2d 5cdc ac3f 54c7 4cc3 d00f adbf
00000080: a030 9fc8 fc75 a13f 4cbc 1a7a b686 b3bf
00000090: 1c96 ff33 299f 903f f789 4fac 26d4 a33f
000000a0: 7a8a 1079 2e83 bbbf 37f4 2018 0906 c1bf
000000b0: 907d 8ba0 0043 933f 3c7d 617b 45da b33f
000000c0: eda2 2bce dfc2 943f c10a 92b5 5067 bbbf
000000d0: 2dfd 2ba0 8326 a4bf f49f f49c d135 a43f
000000e0: 6534 e51e cb8a a13f 74c2 7b2d e296 8d3f
000000f0: 6939 0c71 bc15 b8bf b0e1 5073 06ce b4bf
00000100: dd0f 0a31 fed8 c0bf 2727 478f 0c44 a33f
00000110: 011b 12c5 4b86 a03f 3906 9fd9 9aa7 61bf
00000120: 1cb6 820f b53d bebf bdea ffbe bb2a 5f3f
00000130: b8f3 3287 8744 bebf 02b5 2b5b c56f 9bbf
00000140: 4065 a62e 47be afbf 41cd 9235 8033 aa3f
00000150: 79f0 6080 c3c4 bdbf 5256 6e50 3f43 903f
00000160: d47e 4d8c a9d9 a53f 8cf3 ffee 146a ab3f
00000170: 4d60 33c5 6a29 b4bf 0d53 57b1 4b1d b23f
00000180: 5318 433f 94a7 8dbf c138 0c37 6020 c2bf
00000190: 9fe6 3cd7 6583 a53f 1be8 0527 52ea aabf
000001a0: e6b2 6412 11ae 9fbf a267 463b 3510 c4bf
000001b0: 462c d4d0 3ad3 afbf 2078 2a3d 556c a9bf
000001c0: 1222 2e1f 8892 bcbf 27cb 5990 4571 c0bf
000001d0: cc33 8891 36fd b03f 45d1 8867 216c ba3f
000001e0: 44a1 44f7 8cf5 a6bf 3422 0ca6 aef7 c73f
000001f0: 3d8f 0e2f 596c a8bf e7a0 9d2c e4fa a53f
00000200: 8c34 e19f 6056 c2bf 088e dfb9 d6a7 a03f
00000210: a530 8d56 318f bdbf 3d76 cb41 998a c0bf
00000220: 3309 5a87 b845 a7bf 047a 02f0 1aa2 b9bf
00000230: 2767 5475 51ad 96bf dc3a 7fe8 2f3f a8bf
00000240: 997d baf9 b371 c6bf 3407 b1f2 5e9a 583f
00000250: 87f2 e7f3 8a78 bfbf 170d 6b85 c45f a83f
00000260: c23f 2b08 4b21 b4bf 99b1 aeb8 0f1f c6bf
00000270: ad71 c2d9 c3da c5bf 1d24 fbf6 9f84 a33f
00000280: 9126 9c3d fa91 a4bf d1ea c13a 9e97 823f
00000290: e6e6 e19b 0878 bbbf ee51 1878 bf53 ae3f
000002a0: 14c2 bbc7 f688 6f3f f658 3050 9aab 8ebf
000002b0: 034b 5d3b e88f ae3f 504b 1b20 0af2 873f
000002c0: a301 c53d a59a ae3f 5e0a 943d eaaa a4bf
000002d0: dc06 caa5 fced 99bf 434b 9c62 a06b 7cbf
000002e0: e240 1a91 fb7a c5bf b90f 5ce0 3e9e 65bf
000002f0: 2087 2a13 d5a0 bdbf c5c8 cff7 de9f c0bf
00000300: 7472 75ac d1d3 c0bf dff5 594b 996d abbf
00000310: ee33 7f51 ab78 96bf e217 1b97 99d5 103f
00000320: c7c0 4849 bae4 7c3f 42c7 a46a 19f4 bdbf
00000330: ed1e abb7 7ab7 b2bf d613 368d 2b09 acbf
00000340: 9411 5fb8 b13c c3bf d6dd 4576 3c9d b7bf
00000350: d7fb 9aa1 dbfc b8bf c3e9 2992 e43f 723f
00000360: e4c0 09e1 55c8 b1bf 17f7 9aa2 d1bc c4bf
00000370: b7f7 3030 47a2 a83f 91c6 32f5 6f81 af3f
00000380: 5c68 5c52 9152 b0bf 1430 1b13 c80b c7bf
00000390: 0585 2105 7360 aebf 0c5b 20e8 ce48 b1bf
000003a0: 0882 6215 d6b2 adbf 795b da9c 35e6 b0bf
000003b0: bdc0 1424 49c8 abbf f32c 8992 a808 ac3f
000003c0: 2165 7469 815e 9ebf 7ef2 17a0 3373 c4bf
000003d0: 45f9 327d 4b45 c1bf b628 c98d 9c08 a5bf
000003e0: 0fc8 0cb5 281a c6bf d7c7 b59b d7d3 bcbf
000003f0: 3e47 6802 faf6 babf 092b 5f69 4c3e 913f
00000400: b852 26e0 38be 953f c89a db26 de8d c2bf
00000410: 5553 a9e8 2cc7 b63f c734 54f9 e95f 92bf
00000420: 5824 3be8 5fd4 a0bf e2e4 cd57 906d b7bf
00000430: f095 d25f 5a4f b1bf 4409 22fc 1e30 bdbf
00000440: 874b 0445 06c2 b53f a738 8426 bac5 c2bf
00000450: 5a45 7e07 3936 c0bf 01ce 8feb 6163 a2bf
00000460: 9d7a 8f7b 595b 95bf 099a 047d cd9c b8bf
00000470: bedf 1d81 0446 a0bf 0a7c 90fb 400c c4bf
00000480: d2fa a128 ff1e b03f 3e1d b661 34ce c2bf
00000490: 4a2b 17d9 4daf b73f fa31 11d4 86b9 91bf
000004a0: adac 9191 2747 91bf 34bb 9abd 19cd b5bf
000004b0: 9a23 9266 96f2 90bf 08e7 a868 ba0a a83f
000004c0: 4db4 b1a8 366b a2bf f9b9 ff78 3ac9 c3bf
000004d0: 91b1 ee03 1a6b c4bf 1f0b 7f86 6611 a73f
000004e0: 8347 ccf7 11e6 c5bf 87f1 46ff 90e4 b5bf
000004f0: e2aa ef53 5c37 b6bf fe0a cd7d ff1a 75bf
00000500: b38a 3bbe e635 abbf 240a 9d08 0318 983f
00000510: 0a1e c8d9 1589 c0bf 6271 9655 4bd3 b1bf
00000520: 934f 553b eebd bbbf 49ef 1375 0e47 ac3f
00000530: 3317 740a 3adc b2bf 720a 3548 c3a1 c4bf
00000540: 4c06 8227 9f52 bbbf e28c 95bb 9887 6c3f
00000550: 09bc 82a2 4aed a3bf a0cb db88 8d5c acbf
00000560: df20 b06a 111f 94bf 1d15 3147 b555 c2bf
00000570: b149 f28d 99bc a23f 20a6 d90d 5b21 a83f
00000580: 3a01 9755 077a babf bdc3 9e12 9d5c c2bf
00000590: a9be 6844 7af7 b5bf dcf2 9606 eeb6 c4bf
000005a0: 69de ac19 87f7 c3bf d0a2 9f2f f532 b2bf
000005b0: b121 fdaf 8044 9fbf 030c 93c2 4526 93bf
000005c0: 808d 7b4b 31dc 94bf dee7 ab99 6b94 953f
000005d0: b537 806d 9ad0 a83f 2170 efeb bda0 983f
000005e0: 0a6c 5275 fe5d bf3f 6a5a 8604 3a30 bfbf
000005f0: b014 c7ce 8087 c3bf 42c0 3907 0648 b53f
00000600: 57a0 8de6 4a44 ba3f 45a1 f503 429a c1bf
00000610: 8025 219a 184b a7bf 00c8 5a41 7f64 b63f
00000620: c10c c1f5 478f b7bf b087 b581 820a bfbf
00000630: b4ba 279c d8a3 88bf e1af 7b21 5e0a c23f
00000640: 381f f142 9580 a73f 1775 ac1e 9067 cf3f
00000650: 7a69 384e aa07 aa3f 2c4d fca0 d844 b3bf
00000660: 6aa9 aaa3 e0bd c2bf 0848 7ecd 7045 803f
00000670: 058d 1686 763b 843f 48e6 bca2 0524 85bf
00000680: 1b4c ec72 9006 b43f ef5b aba3 1795 b03f
00000690: e799 ed7c f172 943f bb01 075f fed3 833f
000006a0: e91f c2c6 46c9 adbf e274 6f4d bf28 d2bf
000006b0: 8535 697c 5c44 a5bf a65a 1e7e bb31 b8bf
000006c0: 7fec 6b5e 6e1a a73f 32f9 8695 325b b23f
000006d0: cd69 6fd3 5f4a a53f 465f bf83 d675 c3bf
000006e0: 9383 9e8e 1c35 923f edb1 ac0b 378b b3bf
000006f0: 5d6a c24b 2e0a c1bf 09f4 d0bf f50e b13f
00000700: e636 d642 6a4f bdbf 8474 6d2d 6496 adbf
00000710: 0867 1a41 4b22 a5bf 0c19 9fd6 3d7d aabf
00000720: 7f6f 7aa5 9118 983f d44e a26a 1079 b1bf
00000730: 9577 c12f 08f2 c4bf 0b28 d54d 6a98 9cbf
00000740: 4317 d8f0 d14a c23f 0fdd ccf6 c5f5 b63f
00000750: c2fb d4ef 0227 963f c03e 5e11 8eb1 96bf
00000760: 401f c156 311e c6bf 0074 06b2 daa7 ba3f
00000770: 58aa 4d16 e854 b23f fd36 35ea 979a be3f
00000780: 623a 72fe 3cb6 9dbf 145c 3216 327d bcbf
00000790: 4e3d 0959 b10e ac3f f5d7 9f2b ae0e c23f
000007a0: 4716 4486 8994 8c3f 87c0 1067 bb3f a1bf
000007b0: fbe0 85fb 5393 cc3f 71da c734 c1b5 b5bf
000007c0: 4962 c2a6 bf31 aabf c217 c6b8 28f2 983f
000007d0: f42a 9954 49ff c3bf af11 c26a b581 a53f
000007e0: 93f7 1689 858f ab3f 2801 c75d e088 c23f
000007f0: f9ed b70b 9776 aebf 27b5 8152 06ae c0bf
-0.030231609766508627 -0.009507568125934845 -0.04966628476314265 -0.056179127076635686 0.05007393602704802 -0.010025218023670986 -0.03037899895440087 0.10328929099506244
0.03395882268870659 -0.13028196617973 -0.0898298779263579 0.10055393885738186 -0.13560895839105197 -0.11050643259352044 0.056368713958264226 -0.05676128753692802
0.03410329770085352 -0.07627430420937847 0.01623215083954764 0.0387279591884812 -0.10747042136839893 -0.13299668958816976 0.018810281561739084 0.07754930746294958
0.0202746362291774 -0.10704521592019046 -0.03935633974287565 0.03947310486756797 0.03426203491344707 0.014447943699878986 -0.0940816665645109 -0.08126869502382905
-0.13162209887025159 0.037628548135741284 0.0322745969834184 -0.0021551155486754484 -0.1181290781848578 0.0019022782762464906 -0.11823317576177217 -0.02679355973207454
-0.06199858135659975 0.05117417005512915 -0.11628362545246941 0.015881528171652733 0.042676256539150664 0.05354371469000005 -0.07875697435827185 0.07075951652161568
-0.014479787998777171 -0.1416130322253988 0.042018110775143606 -0.05256897665363188 -0.030937449214593203 -0.15674462694442776 -0.06215843009166426 -0.04965463992742536
-0.1116108966945222 -0.12845677898766292 0.066363726167949 0.10321244027801864 -0.044842152771084304 0.18724616153510143 -0.047701632494208536 0.04292977375627221
-0.14326103026033754 0.03253050822220521 -0.11546619761537842 -0.12922969544062993 -0.045453802606987635 -0.10012977943049611 -0.02214553145049716 -0.047357079630833104
-0.17534494107983958 0.001501648638410247 -0.12293308691728032 0.04760564926757576 -0.07863301228940059 -0.1728229190606612 -0.1707386792449034 0.03812122239975955
-0.0401762199599719 0.009078251045357007 -0.1073003178188646 0.05923269597056789 0.0038494892049743077 -0.014975743839425775 0.059691674467691434 0.011692122559372159
0.05977360133192924 -0.040366477982406876 -0.0253219104947736 -0.0069385781332752 -0.16781563363156865 -0.0026389339499263945 -0.11573535650179823 -0.1298788747804506
-0.13146420403326753 -0.05357054753128997 -0.02194469151418226 6.421804371389798e-05 0.007054069214561482 -0.11700590947728265 -0.07311217292874135 -0.05475746248979589
-0.15028974058635625 -0.09224298369905823 -0.09760830588764634 0.004455464225083752 -0.06946312660307147 -0.1620122951480247 0.04811308348915538 0.061534403497160224
-0.06375988255277448 -0.18004704411430394 -0.05932959973939415 -0.06751721541546035 -0.05800503741307145 -0.06601271705072333 -0.054262433676173207 0.05475355900542835
-0.02965738493103232 -0.15976567570750783 -0.13492721188772286 -0.04108132582457939 -0.1726733097107744 -0.11260745574489249 -0.10533106383107069 0.0168392123521626
0.02123345249272532 -0.14495446107249266 0.0889766757985176 -0.017944007723646373 -0.03287028989650115 -0.09151556152018572 -0.067617081064405 -0.1140155187186212
0.08499182877521437 -0.1466591537541195 -0.12665474763756884 -0.03591447830686079 -0.020856283346683758 -0.09614261915394463 -0.031784191857638686 -0.1566239574758302
0.06297297231683821 -0.14691786547721536 0.09251867818890705 -0.017309290593674455 -0.016872995624379317 -0.0851608360196508 -0.016550397882869917 0.04695684936127803
-0.03597422417883731 -0.15457850368643714 -0.15951848213206835 0.04505463020134059 -0.1710836849165923 -0.0855188964114345 -0.08678223656867659 -0.0051527004368974155
-0.05314560959029304 0.023529097939226543 -0.12918351301071623 -0.06963034476797739 -0.10836686085286677 0.05522961787389009 -0.07367289309703721 -0.16118660951368075
-0.10672945704029607 0.0034826262532746547 -0.03891976579449625 -0.055393622356766814 -0.01964976514503369 -0.1432406041732656 0.036595152451940456 0.047129483643242986
-0.1034245094260812 -0.14345134171665377 -0.08580745859284868 -0.16183257409820484 -0.15599144700694303 -0.0710900536793233 -0.030534754506591436 -0.01870068550193694
-0.020371217949003206 0.0210739910644192 0.0484665163677244 0.02405068161520785 0.12252798427873315 -0.12182962999791305 -0.15257272812428857 0.08313024212270739
0.10260456207981981 -0.1375200766881425 -0.04549481278861389 0.08747096391269338 -0.09203004598480204 -0.12125411669469943 -0.012031261697271624 0.14094139704627565
0.045902885839096574 0.24534799096810708 0.050839731262572976 -0.0752692597418913 -0.14641960135970616 0.007944947501332691 0.009879041640323391 -0.01032261278998016
0.07822516256082716 0.06477496858438746 0.019969723939903174 0.009681689524655526 -0.05817624260185978 -0.2837370163159233 -0.041537180125128116 -0.09450885609690349
0.045123528505393466 0.07170406485144978 0.04158305603023713 -0.15203362877832144 0.017780729489121305 -0.07634300265335243 -0.13312319468680558 0.0666345208455398
-0.11449302798993308 -0.057788019700390186 -0.04127726716724395 -0.05173676724330009 0.023531223034850775 -0.06825354197854533 -0.16363622981856155 -0.027925168037917596
0.14290832767454206 0.08968770289799387 0.021633191955739546 -0.022161693391864246 -0.1727964089970957 0.10412375303572219 0.07160807175174833 0.11954640834775528
-0.029015496282733706 -0.11128533403312729 0.05479959689966539 0.14107300882432097 0.013955187234851908 -0.03368936188815135 0.223246095479915 -0.08480460680571313
-0.0511608019889463 0.0243612635399797 -0.15622822409417092 0.042005223543159935 0.053829358086189626 0.1448021371743462 -0.05949852006957807 -0.13031081226964966

transform_generator.6.bias f8 [64]
00000000: 869e d1bd aaf9 b4bf edfd 2c5d f538 9dbf
00000010: d57d 4923 5edb 9c3f c8fe 318d 2f4f ac3f
00000020: faa6 a155 6098 af3f 9a30 bd5f 20c2 9ebf
00000030: f56e e41e e307 c4bf 7a2c 4ea8 3058 9cbf
00000040: 173e d9d0 6e8f 87bf f19d b636 6f43 8ebf
00000050: 0543 4151 b17b bebf 3b29 d5ce 3606 c5bf
00000060: e339 b6ef 1de3 c73f e5ff efc7 d516 d73f
00000070: bc04 5069 5489 d03f cf9e 7d9a 02eb c53f
00000080: ecaa ff48 c7ec c4bf 6968 d0fd 001b a6bf
00000090: 765d 8c73 c677 853f 1d0b 4b74 ceba a0bf
000000a0: 2013 f7fa 34a4 773f b96d b35b 21dd b0bf
000000b0: 7342 e7b9 3323 c33f 6472 4f05 18a1 b9bf
000000c0: 1acd c8f5 57b4 df3f 0105 7d3f f06c bbbf
000000d0: 3522 7dde 2586 c23f f4ba 4db5 4af8 d03f
000000e0: a3fe cdbe be33 bcbf 2fed 3dd4 428e cabf
000000f0: 8404 ce22 b2eb c93f 8560 e665 8c53 c3bf
00000100: 96e6 d92a 9f39 cbbf c3dc 13a4 54a0 be3f
00000110: 06e6 c337 63b2 943f d93d d1d0 7262 473f
00000120: a97c 584a 85d0 c1bf 2612 df85 9510 adbf
00000130: d3f7 c851 31fa c4bf 4170 c0ed 8305 c43f
00000140: 3a5a 88a0 0103 ac3f 9995 9eba b045 b7bf
00000150: c54a 4e49 06ee c2bf b4a3 1b0d 5d9b c2bf
00000160: 6f4e f1c4 79a8 9e3f 6ac6 cc80 b99c 823f
00000170: bc62 8cd3 e851 d63f 94cf 7b98 3137 c73f
00000180: 8ed6 a009 b612 c1bf 4f02 fafc 9a4d 9e3f
00000190: 1c70 bf5c 9dc8 c3bf 75b1 5e1f 2211 c13f
000001a0: 2bd7 4266 9a3e 86bf 73c7 9b58 aff9 bfbf
000001b0: 2353 3f61 e954 bfbf 2c78 17bb 4eda 773f
000001c0: 2458 8cd3 5be6 c7bf 0cc6 f6cb 6637 ba3f
000001d0: 8daa 7d63 9c9a 913f 8974 0776 5e63 bf3f
000001e0: 5574 1e3f 5ceb d33f 90d8 e621 4254 b7bf
000001f0: 999b 7e97 4d4e b9bf 1f96 9ad4 28a4 c03f
-0.08193461546181355 -0.02853759175490993 0.028180571464302268 0.05529163931441655 0.06170941396051251 -0.03003740867943403 -0.15649069794095963 -0.027680168411773988
-0.011504045246652201 -0.014777058465212685 -0.11907489999545014 -0.16425213908434863 0.18661855892828702 0.3607687428011544 0.25838194164687045 0.17123444121829443
-0.16347590507879006 -0.04317477320019309 0.010482359315161043 -0.03267522019952749 0.005771834330009523 -0.06587418068686803 0.14951178147613894 -0.1001143467869468
0.49538229944592305 -0.10713101911553126 0.1447188698168859 0.26515453057702065 -0.11016456754986818 -0.2074664627396969 0.2025053663201427 -0.1509871957357555
-0.21269597618429675 0.1196339512424514 0.02021174457420296 0.0007136402724742765 -0.13917604570540235 -0.05676715144321447 -0.16388527387056104 0.15641831501932482
0.054710436674373544 -0.09090714031352433 -0.14788893298517372 -0.14536631717717585 0.029939558644697713 0.009087990992699708 0.34874935778638494 0.1813718790577893
-0.13338351698046264 0.029592916193452997 -0.15455977467252147 0.13333536655171555 -0.010861593480835893 -0.1249036399201751 -0.12238939880564863 0.005823428671162072
-0.18671748952391554 0.10240786056126455 0.01719135625118411 0.12261000043459282 0.3112402550121421 -0.09112943008116958 -0.09885106037709902 0.13000975018546598

transform_generator.8.weight f8 [4, 64]
00000000: 144f 2dd0 2ba7 71bf 7ced a1fe 08b1 abbf
00000010: eeef 6222 43a1 9c3f 6243 92d6 a27a 99bf
00000020: 8620 bf0c f274 b53f 3c30 afdc ee2b 5f3f
00000030: fa4d bf58 d66e 7ebf 25ce 6518 e096 b0bf
00000040: 6178 2601 8e7d a2bf d603 494d c376 7f3f
00000050: f1c9 160e 033b 9dbf 666f f267 173c 9d3f
00000060: 16be a5e7 aca1 9f3f 08ef c838 2858 6a3f
00000070: 3290 3586 231b b23f a738 09aa 4513 803f
00000080: 7275 cb5c 6fe3 b33f 8f6a 93d8 7199 703f
00000090: 9d27 d78e c90d 8fbf ae41 1828 e6ac 913f
000000a0: 263c d5ed 4f87 b0bf 6238 f8de b1bc 9d3f
000000b0: 158e 9bec 353d b03f 0f1e 031b 4c2c a53f
000000c0: c094 9e0a 452c a83f 9fd7 c3ee 5d48 a6bf
000000d0: 0a62 8145 f2d0 a23f 25ef 4caa 1bf6 ba3f
000000e0: f137 c6b2 757a 76bf e248 ee50 6308 92bf
000000f0: 68b2 6137 4b52 933f c560 c146 14a2 9c3f
00000100: b39a 96f3 a8c9 7b3f 0aac 383e d27e ac3f
00000110: cbb8 d101 d94b 8abf ae26 01f2 6baa 9cbf
00000120: 7b5a 1c05 fd36 963f d306 383b b50c 98bf
00000130: 7605 08fd ae0a 7a3f 003a 054a 7c5d a33f
00000140: b1c1 c708 cce5 93bf 4461 2406 430c a0bf
00000150: 7f4e 3d84 06e4 b9bf 7ea1 6951 d6e5 8dbf
00000160: 2e09 f4f6 aa3e 9b3f a668 bb6a 98d0 8e3f
00000170: 8dcf af98 b7d7 413f 5e86 3ccb b528 b23f
00000180: 221e debd 68e9 923f 2a6d 7b29 719f a53f
00000190: 566b bea0 4dd2 9a3f 19fb 1f49 e182 8ebf
000001a0: f0d9 028d 89d3 9e3f 1e4a 9b5e 4031 9bbf
000001b0: 29f0 ac16 d9a8 903f 41b7 16b5 80ac a1bf
000001c0: 13f4 6af3 74ee bbbf 2bcf b5f8 08e3 b13f
000001d0: 26fc 23b0 4b4c aa3f dac7 7a63 3329 b43f
000001e0: 643e 0a65 03f8 c33f 5a4e 6634 5bda 3d3f
000001f0: 93f5 8e0c badd b03f ffac 41e3 6e41 853f
00000200: f066 22d6 e1ae bbbf 6503 443e 2e45 aabf
00000210: 163f 4a41 d9b4 b33f d6ae 067c 6356 d4bf
00000220: bbd8 f7bc c0bc c0bf c0c1 e551 e2fa 89bf
00000230: 5bf1 ec0c 4610 b3bf 5cfe 3826 82b3 c6bf
00000240: fad6 ddfb 300d b3bf f768 9272 baca acbf
00000250: 45ea 7afb da2c c4bf 7f20 891d a99b bbbf
00000260: 14ed 9e39 adfb cdbf 10bc 3109 2a86 e0bf
00000270: aab1 7833 a3aa debf fb34 9add 72fb d6bf
00000280: 13c9 f52d 4486 863f a624 045d acf1 7b3f
00000290: 23dc 7bd4 0900 903f 8f79 0b0b 27b6 c33f
000002a0: 0b99 2696 1f6b 9dbf 30a8 8f3c bf53 c0bf
000002b0: 85b5 a2e4 b598 d7bf fdab 45a0 7fe5 abbf
000002c0: d3e2 a260 b3d0 e2bf 8067 b29f f9ad 9d3f
000002d0: 996a 8d5d 7728 d4bf 655d 5da7 3650 ebbf
000002e0: e77f b72a c8f7 a83f 0a93 bd44 1ad4 dbbf
000002f0: 5f67 979e 5980 e0bf a95c ab36 c327 b63f
00000300: 5b14 6041 fe13 ccbf bb9e 0086 b7e8 c0bf
00000310: 46dd 9289 db23 b3bf 6783 1f6c 8d69 c6bf
00000320: 7dba bd5d d84a a63f 19d7 4757 cd5d b23f
00000330: 2766 78b2 1a34 b1bf d831 49f7 2da0 e7bf
00000340: dfe3 6b76 0d4f d2bf b184 c235 b84c cbbf
00000350: 600c b593 fb0d c4bf be0a 272e f787 893f
00000360: 1431 6da9 18a0 d8bf d541 41d1 b565 79bf
00000370: 09e4 7005 743d e0bf cde4 50f8 2995 ddbf
00000380: 85b3 ca83 903a d5bf 772a d399 7571 cdbf
00000390: 45f9 7d3c 994e bd3f eece 10c4 01a0 dfbf
000003a0: a442 6645 e05b 903f e068 eb1c a854 c9bf
000003b0: 4b20 d3cd c49c c0bf 0cd6 c5f4 d147 bebf
000003c0: 73ee 05a0 e4f7 bcbf d826 9b25 bb92 cabf
000003d0: a09f c74d 5a3a d6bf 5ed2 b05f 6824 debf
000003e0: 1c38 65cc 2d99 ddbf b5b9 aede 4fca c4bf
000003f0: a8d5 3d8a 0499 afbf e8ec a220 3e15 d5bf
00000400: cf6b b150 a9b4 af3f d574 9351 a3de bb3f
00000410: 7fd8 10b4 449c 883f c91a 8291 596e bdbf
00000420: a1e4 3851 32fc b93f 07e2 2f40 49f9 ac3f
00000430: bf98 52c7 0652 673f 7717 1813 fc03 a83f
00000440: bf01 0cc8 3cb7 a3bf 93d5 65b9 83af b1bf
00000450: bd29 b372 d2bc babf 2f83 a867 2e67 b2bf
00000460: 1b30 6a13 890e b23f 0744 1d3d b95a a83f
00000470: 2713 f9d6 6ee9 9dbf 4f26 f4c9 2b50 823f
00000480: 5101 17cc f865 b8bf a767 68b0 c2d2 bdbf
00000490: a7b9 8ffb 8bb0 b5bf 2705 c7b5 eb9b ae3f
000004a0: ff92 e143 9022 ab3f df04 3244 ef13 b1bf
000004b0: 7fc7 cf31 1555 bebf 2354 4eff fb9c b1bf
000004c0: 677d 82fe 32ae b33f c7b8 c005 f6ec 953f
000004d0: 3978 83a5 2d6e b33f 8d52 40c2 13da b23f
000004e0: af49 b6f9 d62b b13f 537e c585 fe04 a03f
000004f0: f3ce b628 1c63 bb3f db4a c0f3 a141 ad3f
00000500: 6dfd bbb0 0f08 b1bf 2f23 be42 d9ba b9bf
00000510: a796 caae 464f a5bf 674f dad8 68a6 b03f
00000520: 018e ad24 01f5 bf3f b74d 7463 189b acbf
00000530: cb38 0c6c 0a81 aabf d7b0 a426 c04d 9fbf
00000540: 63a6 3e09 2fda a33f c727 1ffa ca4f b9bf
00000550: b3aa 7b93 3ac4 ab3f f7b9 5634 e8b3 bb3f
00000560: 7520 65b0 0163 b53f 6b83 5554 aad1 a13f
00000570: fb29 2207 8e14 b2bf 0fe9 cf2e 2a77 8e3f
00000580: 75ac 10ab 6714 b23f bd80 7a99 4394 bf3f
00000590: 9f6e 3f9e 8e70 a3bf cd50 147b 8909 bcbf
000005a0: df78 9ac6 cd1c 7d3f 5fe1 5b0c b1dd 78bf
000005b0: d161 ec7a dc50 b33f dfee 2228 af68 9e3f
000005c0: 6b55 6ed4 7d99 adbf 2756 090b 00d7 b6bf
000005d0: 77b3 8ac2 48c0 adbf fd58 851c d554 b23f
000005e0: 5b89 1d1b 7aaa b6bf b3f3 7e02 130b bf3f
000005f0: eb2c cd39 e23a b7bf 1f0b ec75 cb0d 783f
00000600: d195 223e 0bba bebf 0719 aba7 9c55 98bf
00000610: f9ae 20e8 36a7 b8bf 8f13 631b 19a8 b23f
00000620: 1f00 d801 8f34 b8bf ed28 ac9c c2c0 b63f
00000630: 4363 8a4a 6cfb a0bf ff4f b65a 1a1b a33f
00000640: e363 86a1 eda8 a93f 4f22 ce9a 2eca ad3f
00000650: 531f 9aed d4c9 a1bf 1be5 3628 34e2 a5bf
00000660: 3ff5 6207 2065 64bf 83f3 c972 34f1 ae3f
00000670: 2f0e ace1 4271 b03f f3bd 8815 0e7c a0bf
00000680: 1931 bd34 8024 b8bf b153 23ca ecce b53f
00000690: 111e 1ae8 1fad be3f 7dca 9c07 2757 b9bf
000006a0: b748 d91a 74ef adbf 2392 3204 0aef bd3f
000006b0: 6787 31cc 75c1 bb3f e3d1 bbdc e7bf b63f
000006c0: 99ef 0aec 0f22 bc3f ffe0 7dac 8104 593f
000006d0: 372c e957 4afd bf3f 3f75 5c14 2b9e 71bf
000006e0: 0f0d 5668 6021 8b3f 6f91 ba7d 97be 9fbf
000006f0: 3140 3171 368c b33f 8ffa 85e6 b317 9cbf
00000700: 9375 7fe8 f813 b4bf 0759 1523 0405 a13f
00000710: 939f c5a8 f316 bebf 77d8 b2ff 3dbf a03f
00000720: b707 ce9f d926 adbf 9f4e fb4b 3659 bc3f
00000730: db0e cb33 c98a bbbf afd2 363c 27af 923f
00000740: 17ba 6fff 2750 bb3f abd3 8b06 663d b9bf
00000750: 5dd7 6ac3 1527 b63f ff18 8750 e638 803f
00000760: 9d55 79a0 94f8 bebf 5b6c b42a c92f bbbf
00000770: af1e a29f c52f 85bf 1311 9261 55a8 bcbf
00000780: 2f91 80d9 2403 9a3f 3fed d5f3 bcc9 b6bf
00000790: 47b5 2232 5869 953f 3ffd 286b b06d b5bf
000007a0: fb0d d1f3 d3d1 acbf 6b12 312c e90f ac3f
000007b0: a97a 0803 9228 b23f c7e2 7502 836e 983f
000007c0: 8b93 5620 845c bd3f 714a 482c 28e2 b0bf
000007d0: 95ea d3d4 a687 bd3f bff0 7929 7634 a6bf
000007e0: 5fdc c099 926a a4bf 9fca 8714 34e1 723f
000007f0: af79 1073 0340 84bf bfe3 d94b 7167 b93f
-0.004309817452696558 -0.054085045893738276 0.027958916639121804 -0.024881882044215493 0.0838156968230824 0.0019025643002690404 -0.007429921428371506 -0.06480217548033147
-0.03611415638009486 0.0076816205005920315 -0.02854542516224429 0.028549543113157404 0.030890180243146124 0.0032158647138923503 0.07072660471527639 0.007849258662784143
0.07768913283822146 0.004052586279807215 -0.015163016006130731 0.017261120030583825 -0.06456470066517336 0.029040126070008283 0.06343400026849395 0.04135358648050779
0.047212750955887284 -0.043520865818137404 0.03675038431601159 0.10531781108596457 -0.005487880477074812 -0.01761012250387573 0.018868613486505842 0.02796203309876046
0.006784114806044061 0.055655069442160324 -0.012839980476396914 -0.02799385704591966 0.021694138943610924 -0.023485976924354567 0.006357844875766508 0.037822612796492905
-0.01943129352179235 -0.03134355020501059 -0.10113564232352167 -0.014598535880580906 0.02660624630244362 0.015046301610187673 0.0005445143191295951 0.07093368732287206
0.018468510235406417 0.04223207122205459 0.026192868171715254 -0.014898071331115358 0.030103825790058936 -0.026555066847160906 0.016269104012494182 -0.03451921663814384
-0.10910731261078892 0.06987052986169988 0.05136333966401478 0.07875367335034814 0.15600626405329188 0.0004555199306192963 0.06588328177072915 0.010378710089034458
-0.10813724019899573 -0.05130905637816489 0.07697828144068483 -0.31777274238514275 -0.1307602808662461 -0.012685554622948625 -0.07446706595960022 -0.17735316149081626
-0.07442003392301536 -0.05623419426520287 -0.15761887816718648 -0.10784394236645943 -0.23424306214824553 -0.5163774661613179 -0.4791648867274271 -0.3590972103200582
0.010998280193892407 0.006822274488748869 0.01562514647863734 0.15399635352418925 -0.02872895578334415 -0.12755575615966697 -0.3686957104462965 -0.05448530990073406
-0.5879761588504046 0.02898397481167292 -0.3149698651883824 -0.8535416859476014 0.04876542588658577 -0.43482071602765926 -0.5156677339066212 0.08654422840787625
-0.2193601435866722 -0.13210195582472814 -0.07476589306576384 -0.17509620456169303 0.04353977340985169 0.07174380665659576 -0.06720129830537101 -0.7383031682780326
-0.2860749870738441 -0.21327879548065234 -0.1566767188288365 0.012466364952051886 -0.3847715048366507 -0.0062005140535607755 -0.5075016123074657 -0.46222924470528143
-0.33169949407857074 -0.2300250054452879 0.11448056914193667 -0.49414104601895203 0.015975479350859204 -0.19789601718986827 -0.12978420305285207 -0.11828338838480351
-0.11315754801574389 -0.20760287605508299 -0.3473115691726836 -0.4709721502761449 -0.462474298100348 -0.16242407200975398 -0.06171430766600433 -0.3294215506281959
0.061925212002016054 0.10886593572236632 0.012016808266803956 -0.11496505548903281 0.10150446398701486 0.05658940228017078 0.0028467304606066553 0.04690540059168218
-0.03850736562708645 -0.06908438946068989 -0.10444369602479404 -0.07188692122191463 0.0705342934035688 0.04756716605209737 -0.02921078860369444 0.00894197664321719
-0.09530596716559116 -0.1164972000773604 -0.08472514049183265 0.059783330859781984 0.05299807385089216 -0.06671042838026463 -0.11848576036552848 -0.06880164130264226
0.07687681878677709 0.021411747075199352 0.07589993754251702 0.07364009373152154 0.06707519146428952 0.0312881029410589 0.10698104852673022 0.057141362194803334
-0.06652925553134077 -0.10050733451329273 -0.041620453678928464 0.06503920835740261 0.12483222146470753 -0.05587078298608666 -0.05176575249616774 -0.030570032461739807
0.038773984793192516 -0.0988737927101787 0.05423148203211294 0.10821391370584608 0.08354197079199983 0.03480274466961116 -0.07062614130169458 0.014875726274102634
0.07062385488886654 0.12335608002695415 -0.03796811753974549 -0.10952052359454285 0.0071075475804305 -0.006070796580154385 0.07545259476717738 0.029696213555083225
-0.05781167238380188 -0.08921814221806611 -0.058107637164858277 0.07160694071112413 -0.08853877222057831 0.12126272974906165 -0.09074224387329692 0.005872530716035467
-0.12002630488367251 -0.023764083608306865 -0.09630149047069016 0.07287747305515622 -0.09455198092473481 0.08887878727924532 -0.033168205355826895 0.037316154073010914
0.05011694523563628 0.058183151623840794 -0.03474297905364545 -0.04274142256640286 -0.0024896264613675496 0.06043399716597888 0.06422822961399598 -0.03219646466129324
-0.09430695808004365 0.08518867430696166 0.11982917229226354 -0.0989860910019988 -0.05846751048797343 0.11692869760970175 0.10842071757499881 0.0888657487774434
0.1098947478557747 0.001526953348699733 0.12495865484486122 -0.004301231650768954 0.013247254547201352 -0.03100048737418731 0.0763582254742239 -0.027434168763188323
-0.07842975307672466 0.0332413952661899 -0.11753771658334093 0.03270906206437101 -0.05693702769987346 0.11073626856824113 -0.10758645548326788 0.018246281671695893
0.10669183717957541 -0.09859311733073521 0.08653388997012486 0.007921027500640053 -0.12098053853818276 -0.10619790356251839 -0.010345024046059718 -0.11194356567472523
0.02540261819389505 -0.08901577904719192 0.02090966993335044 -0.08370497337545134 -0.05628836013104529 0.05480889000367458 0.07093155454684087 0.023859068894554605
0.11469293393618167 -0.06595088082421242 0.11535113044730345 -0.04336900001814702 -0.03987558485862829 0.004609301985044083 -0.009887721013055321 0.09923465825876486

transform_generator.8.bias f8 [4]
00000000: bb95 fa70 422b ca3f 8772 85ba fde9 e0bf
00000010: 7ec5 22ba b50c b43f a8c2 7864 75ca 973f
0.20444517628236078 -0.5285633700364806 0.07831893724757852 0.023233255631739752
