models/livneh-livneh/QM_SST/2000/1980_1990/R4noisy0001d/model.pth (torch, 73320 bytes, 8 tensors)

transform_generator.0.weight f8 [64, 2]
000000 0d f6 b7 cc 29 7e bb 3f 45 29 4a 81 2e e6 e8 bf
       0.10739384887707377 -0.7780983472050954
000010 00 a7 4b 41 d8 08 e1 bf 10 37 22 0e 77 3f e4 bf
       -0.5323296809485498 -0.6327471996353058
000020 0a 63 68 5f 5e 58 78 3f 9d fa ba 46 97 86 a1 3f
       0.005943649905497459 0.034229972251968756
000030 5a ba c0 ba 4f 19 e2 3f 53 b1 ce 7e 4f 8c e1 3f
       0.5655897758022761 0.548377750082674
000040 59 a2 b4 88 b5 c4 ee bf 79 57 98 4c 92 79 e3 3f
       -0.9615123434096616 0.6085902687070607
000050 5b e0 e4 f0 30 a8 fb bf ef 5d 3a fa d5 6d e1 3f
       -1.728562298767449 0.5446576964631599
000060 b3 c4 dc 5c 82 38 dc 3f c8 70 2d 50 dc 41 dd 3f
       0.44094904965011067 0.4571448119147701
000070 70 be 12 9c c1 9a c0 bf 85 15 07 bc 0e 30 b5 3f
       -0.12972278710138907 0.08276455011863078
000080 2f 5f 3e 66 9d 9e e9 bf 9a c2 77 1f d1 4c a0 bf
       -0.8006121632524578 -0.03183606633308962
000090 63 a6 52 cf 06 3a b0 3f df f0 f8 5c e3 bb a3 bf
       0.06338541566460658 -0.03854284772794058
0000a0 79 9f 90 ce a8 20 e8 bf a9 b9 71 23 3b 1c c9 3f
       -0.7539867433997492 0.19617404204059355
0000b0 92 a0 42 da 84 fe d0 bf a1 fc 84 e6 32 48 d1 bf
       -0.2655346042106511 -0.2700316668669505
0000c0 11 b0 8b a4 6f 05 01 c0 b3 d2 50 ee df 53 e4 3f
       -2.127654347908909 0.6352386145213899
0000d0 ca 34 e3 ec cd d3 e0 3f f0 1b b2 35 1a 20 d9 bf
       0.5258550287923296 -0.39258437389111034
0000e0 bc df 4d 42 fc 12 d6 bf c6 bc 6f 0c 1c 42 e8 bf
       -0.34490877604502734 -0.758070015230168
0000f0 a3 a8 08 e5 a1 75 d6 bf 9f 6d 8f 13 0f 21 d8 bf
       -0.35092971197685524 -0.3770177546518542
000100 9c 08 c9 35 55 01 d6 bf 18 16 0f 65 5d 14 cb bf
       -0.3438313508269262 -0.21155898508566007
000110 28 84 58 c9 55 77 b8 3f 1d a4 00 56 1c fd b0 3f
       0.09557090917270783 0.06636216258688461
000120 51 51 f6 8c 3b d0 dc 3f 36 df 7e ec e9 ce e3 bf
       0.4502095104774258 -0.6190080279402312
000130 b7 08 b1 61 7c 03 d2 bf 06 5f b7 1f cc 69 cd bf
       -0.2814627603548944 -0.2297911791672435
000140 78 1d ca 6c 33 01 e5 3f ad 61 6d e9 23 5e db bf
       0.6563965916438255 -0.4276208667338562
000150 eb 4b 45 7d 46 6b b4 bf 73 22 76 67 46 46 d4 bf
       -0.07976189192167708 -0.31678924659403335
000160 29 2f c7 4d cf d0 e7 3f b6 83 bf 08 de 23 da 3f
       0.7442394751646805 0.4084391675406168
000170 54 06 8f f7 b6 99 ca bf cc b8 67 da 1d ae e0 bf
       -0.20781600082232166 -0.5212544694639063
000180 9f 98 8b 8a 28 ab c3 3f 16 36 54 ee 1a bc ab 3f
       0.15366083874613864 0.05416950377739853
000190 a6 52 3a 53 77 58 d0 3f 72 ee 1b 34 2d 84 8b 3f
       0.25539954307286405 0.013435700562232731
0001a0 c9 9d 40 2b c1 4f ea bf 09 38 0c 50 65 30 c8 3f
       -0.8222356648229204 0.18897692116337364
0001b0 9e ab b5 c7 3c 99 98 3f 94 1a 1c d2 8d 93 e6 3f
       0.02402205437594384 0.7055119613367702
0001c0 57 f8 4f 73 ff a0 e2 bf ff 85 54 4e 23 dc d0 3f
       -0.5821530582613929 0.2634361519759238
0001d0 56 fc 10 ae 7d 0d c2 3f 9e 56 8b ba bb 6f cf bf
       0.14103671073277962 -0.24559733017547541
0001e0 23 0f 44 80 d5 e8 ed bf 11 1b c1 8f 03 a6 e5 3f
       -0.9346721177284717 0.67651537014976
0001f0 a4 79 e5 34 de c6 dd bf fd 11 f1 d5 97 5b a6 3f
       -0.4652629391256602 0.043667549959113906
000200 00 e1 01 03 5a 73 ca bf 2e 61 75 7b d1 25 b5 bf
       -0.20664525172083614 -0.08260831131099586
000210 23 5c 2a 2f 44 6e b3 3f ea 81 15 8f f3 c9 db 3f
       0.07590128089428609 0.4342011353783436
000220 8b 16 48 e3 85 67 cb 3f 83 8c fe ae d9 66 dd bf
       0.2140967712186249 -0.45940248574533643
000230 8f 36 25 85 fb 81 9c 3f a2 de 64 95 a8 a9 e3 3f
       0.027839593888805466 0.6144602697231287
000240 5f 69 31 34 bf b4 d4 bf 39 57 2b 8b 02 e1 e1 bf
       -0.32353191468214065 -0.5587170332098373
000250 75 f4 99 9a d3 87 c0 3f 39 4c a4 1f 6c e0 e3 bf
       0.1291450981988508 -0.621145307350509
000260 e1 d2 52 cf 52 77 94 3f e4 df a1 d7 df 6e c5 3f
       0.01998643293764502 0.16744611767694473
000270 0a 52 81 a8 00 34 e0 bf 03 e1 00 ea e4 64 d2 bf
       -0.5063479701153153 -0.2874080929937152
000280 74 77 3c 8e 93 e5 c3 3f 6a 80 1a f0 b2 6b 93 bf
       0.1554436153900799 -0.01896552648997877
000290 d6 64 39 ff 53 0b c5 3f 4c ec 9b e4 d2 79 d8 bf
       0.16440820657843486 -0.38243553471665304
0002a0 dd 45 7e 38 e9 c8 de 3f bd 67 6a e9 95 e9 e2 3f
       0.481012635392373 0.591013866319592
0002b0 99 b9 e8 d9 98 8a db bf 26 2f b7 af 8c 17 d1 3f
       -0.4303342941301707 0.2670623508426949
0002c0 bc 99 50 74 d5 31 e8 bf a1 e4 59 20 d0 ee 9e bf
       -0.7560832282804806 -0.03020787427383154
0002d0 83 78 62 a9 a4 0b e1 3f 79 b0 73 b2 0a 78 d0 3f
       0.5326712902349445 0.2573267691320847
0002e0 e7 02 16 93 cb a7 e2 bf 17 27 64 49 16 db 78 bf
       -0.5829828140996057 -0.006068312699662368
0002f0 21 57 18 03 d6 81 e2 3f b1 2e 28 d5 06 77 ce bf
       0.5783491192293903 -0.23800740631155784
000300 93 12 4f 40 eb cc a3 3f 6b c4 03 3b 45 d4 ba 3f
       0.03867278251667474 0.10480148974217378
000310 b2 30 d3 bc 4b 43 e5 bf c1 46 0b 0c 36 34 e8 3f
       -0.6644648254382644 0.7563734278903312
000320 e3 54 51 c6 09 3b c5 bf f5 a5 7c 55 d6 80 bb bf
       -0.16586420234185714 -0.10743465029795359
000330 bd dd 56 91 52 8a d6 3f 73 b1 2b 53 ca 2c 8d bf
       0.3521925372437769 -0.014245587027709594
000340 c9 be 1a 97 60 4d cb 3f 7a c3 58 27 1d 4d c2 3f
       0.2132988679709256 0.1429783289072722
000350 94 95 81 ef c2 c8 a9 bf ea ce b9 82 71 9a c7 bf
       -0.05035981343898324 -0.18440073855491984
000360 57 bb d7 54 86 05 b1 3f a9 2b 24 32 f6 07 b8 3f
       0.0664905507216934 0.09387148594048135
000370 0c 3d cf 25 49 94 c5 bf 74 9f 93 1f cc f1 d9 bf
       -0.1685878214470694 -0.4053831394544354
000380 b6 03 09 d5 08 c9 e5 bf 4c 23 56 a1 bb 85 db bf
       -0.6807903443187715 -0.4300374103118443
000390 67 90 79 95 99 0c d6 bf 98 d8 91 af 82 d4 d8 3f
       -0.3445190391269137 0.38797061105231867
0003a0 69 73 7e c8 ac cd e0 3f 40 72 a3 6a 23 b6 d1 bf
       0.5251068035027916 -0.2767418424025756
0003b0 9a 6e 04 6d 99 6f e2 3f dc 69 8f 01 51 0e be 3f
       0.5761229638332737 0.11740595138636628
0003c0 62 bc 4a fe 81 ba c3 3f 0f 06 67 fd 72 f9 d4 bf
       0.15412926594351278 -0.32772516962367687
0003d0 ba 5e 7c fe 93 b7 d4 bf 34 72 8c 7e 3b 93 c4 bf
       -0.3237047181332674 -0.16074317626125068
0003e0 9c 79 5a 00 e1 bf d5 3f ec 97 4d 39 d3 3d d6 3f
       0.3398363593531941 0.3475235042191105
0003f0 e0 67 b5 76 10 ae d7 bf e9 0d a9 45 6c f3 d4 3f
       -0.36999904244077975 0.3273573570515667

transform_generator.0.bias f8 [64]
000000 6e 2d 16 8d 7d a8 e3 3f eb 30 f0 ed 4e 27 e6 bf
       0.6143176799391037 -0.6922983786803604
000010 b0 46 ec 90 d7 3f dc 3f 9d 65 c1 9f 36 0c dd 3f
       0.4413966098082751 0.45387044526213477
000020 1f 18 20 89 88 d2 d5 3f 1e c5 4e 6d 90 8b e5 3f
       0.34097493544720864 0.6732866415897296
000030 e1 8c 2d a0 e1 6f e4 bf 75 ae 01 b6 b3 56 e4 3f
       -0.6386573914027417 0.6355837397399698
000040 80 36 7b 8a e5 4d ee 3f 6b 7a 47 84 de d4 d0 3f
       0.9470088677132509 0.26299250524417656
000050 d6 ed 26 59 c9 48 d1 3f 61 4f e5 75 2c 46 da bf
       0.2700675364137316 -0.4105330611539469
000060 02 c2 cd cf 75 c2 fe 3f 85 f1 7e 93 55 3d be 3f
       1.922475635274282 0.11812338686917741
000070 6a f2 dc 76 67 0d c8 3f e7 c3 a0 ae 51 43 db bf
       0.18790906242238076 -0.42598383000864576
000080 13 03 92 a9 90 40 d0 bf ce 6e 88 7b eb 7b 74 bf
       -0.25394074020009433 -0.005000991681778989
000090 d1 ea 00 6f 2b b4 c9 bf 08 22 85 98 ad 71 df 3f
       -0.20081084175202205 0.4913133611158007
0000a0 e8 45 b5 be 41 28 b0 bf b4 20 c6 b9 10 54 d0 3f
       -0.06311427026709959 0.25513094083772647
0000b0 34 76 4e 84 ce 4a de bf 49 22 cc 5a 4c 60 c0 3f
       -0.4733158390098169 0.12793878968683917
0000c0 7b 10 0f ca c8 23 d1 3f 91 b4 ab af fc 63 c8 bf
       0.26780910236653427 -0.19055136277839727
0000d0 65 e5 10 c1 16 3a e2 3f 0f 80 13 e9 21 fc d5 3f
       0.5695909281559294 0.34351394425721166
0000e0 c0 d9 9b bc 4f 08 f2 3f ce d5 b1 85 54 8f d8 3f
       1.1270291678934967 0.38374817901725755
0000f0 ff f1 c4 da 88 94 c5 3f c1 0a 4b 16 0c 8c d2 bf
       0.16859541589828095 -0.2897978036600471
000100 2b b7 cb 1e fb 5a d9 bf 8c c5 77 f8 69 22 e2 3f
       -0.3961780358066444 0.5667009213340619
000110 2d fa b8 02 bb 2f b5 bf 80 37 10 f9 1e f3 d8 bf
       -0.08275955978840761 -0.3898389274844405
000120 e5 82 91 38 48 f5 e0 3f 96 78 61 35 04 a7 ca 3f
       0.5299416642047531 0.20822193724138022
000130 d1 7c 4f a4 c4 7b e2 3f cd 62 78 e1 fb 4d e7 3f
       0.5776084145726604 0.7282695201602906
000140 02 0b d1 03 64 56 9d bf cd 89 14 fa 7c c3 e2 bf
       -0.028649866803116993 -0.5863633045558402
000150 37 a5 15 38 2f 1b c2 3f 88 05 aa bf 4a 88 e3 3f
       0.14145460356238868 0.6103872054520005
000160 a8 93 6e 7a 1c d8 e1 3f ff 21 5c 93 de 1a dc 3f
       0.5576307669876899 0.4391399802266562
000170 18 d6 15 fa 4c d8 d0 bf ec 5e 3b 49 cf 6a e3 bf
       -0.2632019464720954 -0.6067882948218233
000180 74 0f f8 9a 4a 21 e6 bf 4e 48 8a a5 02 e3 e7 bf
       -0.6915638949144367 -0.7464612229544032
000190 86 1b a3 d0 4c f0 c7 bf 14 a1 a4 83 14 c1 bf 3f
       -0.18702087581024446 0.12403991903250172
0001a0 d9 a7 54 af e4 40 b0 bf 7f d4 37 b5 5e 6e c3 bf
       -0.0634901931813653 -0.15180572365321507
0001b0 c3 26 5c 29 10 d4 d5 3f 53 8b 5b 93 ed 84 d7 3f
       0.34106830634173607 0.3674882830657015
0001c0 dd c0 b3 97 ed 79 de bf ec 63 dc 5c 12 b7 d2 3f
       -0.4761919003931448 0.292423811611626
0001d0 c8 ad 37 f9 89 bc c5 3f 6f 4a 47 bf e8 be e6 bf
       0.1698162524111082 -0.7108043418796351
0001e0 a3 31 ff 04 0c b3 d1 3f b5 c1 07 89 d0 e1 d0 bf
       0.2765531586453795 -0.26378262884011444
0001f0 b8 1c 53 ca 08 31 c2 3f 5e 47 63 da 04 61 b3 bf
       0.14212140921720162 -0.07569914180501544

transform_generator.3.weight f8 [64, 64]
000000 66 9f 45 30 de 75 d6 bf af df 78 82 d1 7f 97 3f
       -0.35094408716257985 0.02294852598990332
000010 c9 ae 9d 40 85 9a b5 bf 55 0c 8f 79 ed 89 bf bf
       -0.08438904597795295 -0.1231983587049837
000020 1d 52 13 3b b4 a9 cf bf f8 3a 08 19 0f 8d c8 bf
       -0.24736645588440434 -0.19180477831147136
000030 6b d0 1c 19 f5 39 93 3f c9 b9 fa 98 6d 23 bf bf
       0.018775777490376216 -0.12163434014175957
000040 66 f0 8c 28 04 9d a9 3f 5e a1 70 88 b2 a4 b6 bf
       0.050026063871400336 -0.08845058280042425
000050 99 67 87 67 ab ef c4 bf 31 5f 7a a9 b4 b4 b0 bf
       -0.16356413416980045 -0.06525735032698489
000060 e5 2f 48 89 79 4a b2 bf 04 de 8c 23 75 ff a4 3f
       -0.07144889451609478 0.04101148661578338
000070 d8 80 a5 fd 2b 99 9a bf 2f 11 84 f2 c5 80 b6 3f
       -0.025974929195741264 0.08790242358015087
000080 db eb 86 ce 41 0a 71 bf 09 21 e9 66 0e a0 b5 bf
       -0.004160172517397388 -0.08447351467578214
000090 1d 24 d7 03 3c 18 a1 3f e2 d3 fb f9 bf 8c d8 bf
       0.03338801905517406 -0.3835906926390732
0000a0 ee d3 b0 27 b4 f0 bc bf 92 94 45 a0 6d 86 b7 bf
       -0.11304784745227867 -0.09189496195684146
0000b0 29 96 88 19 23 00 a1 bf b8 ea ff f0 e4 de aa 3f
       -0.03320417105377899 0.05248179857149665
0000c0 5f 15 a4 44 63 25 b0 bf 66 e8 6a 04 87 31 a2 3f
       -0.06307049203686209 0.03553411415983092
0000d0 2e f6 57 65 ba 9a c1 bf 6d c9 0f 0b c7 de bd bf
       -0.13753442715089775 -0.11668056507168041
0000e0 c5 57 57 6d 2d 33 cf bf 47 f1 2c 54 36 cb ac 3f
       -0.24374931181836082 0.0562378862145772
0000f0 ee dc 90 1a 5a 4b a6 3f fe b9 b1 2b 53 fa c2 bf
       0.04354363989153308 -0.14826430924900075
000100 d5 77 c3 7f 13 65 b7 bf 88 a5 f0 a3 aa c8 6e 3f
       -0.09138604993083217 0.0037577946491366733
000110 8a 2d c6 dc 08 65 8b 3f 5e ed c4 21 47 ad c3 bf
       0.013376301991931756 -0.1537255206002141
000120 cb d3 5a 47 dd cc ae 3f 97 12 d1 6d da a8 98 bf
       0.06015674110441401 -0.024081623985937908
000130 3c fa ed b7 e4 1e 9a 3f 0b 06 1a 14 58 35 b1 bf
       0.02550847408883271 -0.06722021570933394
000140 df 14 2b 2a be 76 a6 bf 96 e4 a0 e2 82 ac 57 3f
       -0.04387468590497589 0.001444938485759805
000150 b5 79 9e 50 d1 53 a7 3f aa 09 3d bd a9 04 99 bf
       0.0455613528167648 -0.02443185060043055
000160 48 13 93 b8 a8 b3 c4 bf 85 b2 bd 03 a8 3f a0 3f
       -0.16173275959422484 0.03173565908114021
000170 fd 3b 53 16 60 58 bb 3f c1 59 18 64 a9 4a 89 3f
       0.10681725068137378 0.012349437110100394
000180 bb 95 35 25 0a 46 c1 bf 17 9c 37 5e 63 68 85 bf
       -0.13494993988858348 -0.010453010857373752
000190 60 7b c8 34 93 a4 b2 3f c9 af 29 37 77 df c2 bf
       0.07282371557856271 -0.14744463151452994
0001a0 0b 25 e7 1e e2 95 70 bf 91 26 2a 20 94 6d b3 bf
       -0.0040491898384484954 -0.07589078698415565
0001b0 98 56 da 8a 93 7f af 3f 96 52 6f 9d 3a f5 83 3f
       0.0615202052114629 0.00974508088067098
0001c0 27 4e c6 42 ac 1a a9 3f d0 69 59 ee a9 96 b1 3f
       0.049031623030853226 0.06870519703935618
0001d0 a9 fe 97 d0 e1 8f c4 bf 40 3d 03 c5 9e 88 5c 3f
       -0.16064093289604855 0.0017415571674524594
0001e0 0e 74 59 16 cc 5d c1 bf 7b 65 89 07 01 66 bc bf
       -0.13567496386795636 -0.11093145784379559
0001f0 e2 0c 55 68 ef ac c1 bf 8b 78 86 18 bd 92 b6 bf
       -0.13809006304118215 -0.08817655419122354
000200 1f ec 4f 06 67 2f 81 bf bf 57 4d 3d c2 b8 7f bf
       -0.008391194229252772 -0.007744559047599907
000210 de f9 60 43 0b 39 a9 bf b9 91 c2 51 d9 ed c8 bf
       -0.049263336157753676 -0.19475857250394116
000220 3b e8 db 7c 43 ed 9e 3f f6 f4 71 b0 52 72 a3 3f
       0.030201963897504163 0.03798159030791652
000230 5a b1 40 be ea d7 aa 3f ef 54 28 ed 0b 54 a2 bf
       0.05242856571598749 -0.035797474574943304
000240 48 b9 db 52 24 7b a1 3f 0b 87 d8 31 0e d3 c2 bf
       0.03414262305692489 -0.14706590112569304
000250 2c 00 91 f0 4f b0 aa bf d3 c3 ec d5 aa fc a7 3f
       -0.05212640582658454 0.046849573720812686
000260 d5 9d 6b 30 8a d4 c3 bf 9b 11 97 27 cd 20 bf bf
       -0.15492369999195313 -0.1215942594199703
000270 af f8 97 36 b1 04 a8 3f 9d 71 d2 7c 3b d1 b8 bf
       0.0469107989447236 -0.09694263265050158
000280 3d 31 ad 28 49 9b b8 3f 07 c6 6a 8e a8 67 b7 bf
       0.09611947291449936 -0.09142545201282114
000290 4d 8c 3f 79 fa ff bc bf 58 96 c8 76 dc 58 88 bf
       -0.11328092060243584 -0.01188823926447495
0002a0 f6 09 e0 6c d0 f2 ac 3f 6b 34 6f e3 49 91 c4 bf
       0.056540025034355 -0.1606838570136547
0002b0 1c ef 3c d1 15 b9 8b bf 48 76 3f fa 23 fe 70 3f
       -0.01353661579889081 0.00414861730311384
0002c0 bd 34 97 3a 3b e1 88 3f 52 ae c0 8d 40 f9 bd bf
       0.01214834473185033 -0.11708453617819117
0002d0 bc 6a 6d ff a8 ab c0 bf cb 90 6d 2c 0d 89 aa bf
       -0.13023865196267603 -0.051826869653071116
0002e0 98 b4 86 28 76 6a 97 bf 37 64 b3 f3 95 96 92 bf
       -0.022867056106112033 -0.018152564048112132
0002f0 67 64 4f eb ef 4a a2 bf ac 16 a4 70 cf 3b b7 bf
       -0.03572797534406718 -0.09075638294242577
000300 29 b1 88 ad f9 88 b5 3f 17 61 9b fa 10 91 c7 bf
       0.0841213272730711 -0.18411457287471286
000310 4d 93 63 f3 e7 e2 ab bf b3 63 38 fe 0f b8 a8 bf
       -0.05446553083473891 -0.04827928522372051
000320 25 83 b0 ee d4 5d 3e 3f 39 f1 bb d8 6c 7f 68 bf
       0.0004633564810224026 -0.0029904485617163992
000330 93 95 ad b8 e6 58 c1 bf 69 b5 61 8f 8f 01 a9 bf
       -0.1355255510090215 -0.048840032818456454
000340 be 15 14 1a 28 ec b0 3f cb 3f 1c 3f c5 bc c5 bf
       0.06610346447640489 -0.16982331830558758
000350 1a 9d f2 7d d9 a8 45 bf 5c d6 6c 1d c6 f9 9b 3f
       -0.0006609975788664263 0.02731999926182592
000360 ca be c4 39 ef 9c bd 3f b9 8f d6 09 62 f3 bd bf
       0.11567588005413679 -0.11699497928799375
000370 3b 89 d9 99 a2 df b1 bf f5 a7 da 4a df e1 ac bf
       -0.06981865173432748 -0.056410768401590795
000380 d5 a7 4a 95 99 c1 bd bf 30 83 4b 80 ac 6b a3 bf
       -0.1162353505593779 -0.037930861149794715
000390 df 98 97 83 e0 2d 90 3f 2f f2 bb 8d f3 1c b1 bf
       0.01580000689673333 -0.0668480130224871
0003a0 72 46 2b 8e eb 0c a2 bf e4 ee 14 d2 c5 0c a5 3f
       -0.03525482283079108 0.04111307324862226
0003b0 fc 17 b7 32 0c 67 c5 bf e2 54 53 9e 1f d1 95 bf
       -0.16720726467445945 -0.021305555380270465
0003c0 ff e7 34 db 55 3b c7 3f 9e 82 2d bc c3 d3 a6 bf
       0.18149827197504462 -0.04458438560573551
0003d0 36 e1 ed 0f 30 0d c3 bf d8 2a f2 15 d3 ef b4 bf
       -0.14883995797914346 -0.08178443227567855
0003e0 15 77 94 86 84 c8 a2 bf f1 e4 96 d4 73 08 ba 3f
       -0.03668607847997244 0.1016914743439832
0003f0 c4 e0 3b b0 44 27 b3 bf d9 81 2f e4 68 ef b0 bf
       -0.07481793692193422 -0.06615310259758846
000400 a7 a6 0f 28 16 1b c3 bf ff d3 d8 97 68 e8 5e bf
       -0.1492641158686656 -0.0018864652078154351
000410 7b 4b db e9 78 2d c3 bf 2d 4c 67 17 57 2c b8 bf
       -0.14982520502834604 -0.09442657777189885
000420 a9 a6 9a e3 be a4 a5 bf 82 49 34 db 89 28 bb bf
       -0.04227253464098386 -0.10608731843630007
000430 30 6f 8d d9 e8 40 b7 bf 82 35 dd 18 e3 03 a0 3f
       -0.09083419143047133 0.031279656205337694
000440 ef be 9a cb 5c 64 b5 bf 34 89 55 74 70 0b b5 bf
       -0.08356265993893051 -0.0822057994860515
000450 22 87 04 23 a6 33 c5 bf 55 c7 79 c2 37 98 bb bf
       -0.16563870153282162 -0.10779140947286454
000460 7f 5c 52 0f f5 a8 76 bf a3 08 5b 6c 8f d8 81 3f
       -0.0055322239542398 0.008713837141275887
000470 57 9a 92 29 e2 d6 bf bf 17 bd 39 82 7d 60 96 bf
       -0.12437261118848518 -0.021852456162773395
000480 8a 02 23 4f 64 1b be 3f 3b b8 29 d5 59 d3 c2 bf
       0.11760546619462722 -0.14707491787288682
000490 04 d9 ac 28 10 6e c2 bf 68 a8 39 e1 29 49 c1 bf
       -0.14398385988324247 -0.13504527566266522
0004a0 6e ab 02 95 36 c6 a2 3f 6b bf 3b b2 cd fd 64 bf
       0.0366684967896934 -0.002562429190099571
0004b0 71 25 86 03 36 e4 82 3f 67 fa 0d 9a 39 a4 a3 bf
       0.009224340422195639 -0.03836231236981718
0004c0 4b db 42 8e 27 64 c1 bf 67 87 1a e1 81 cf ba bf
       -0.13586897322030675 -0.10472881074613626
0004d0 82 d3 9e b7 1b 05 35 bf a1 5d d6 57 8b 65 9a 3f
       -0.00032073904696555005 0.025777985798041695
0004e0 04 fc aa 5b b3 2f c3 bf 67 a6 50 0c 27 01 94 3f
       -0.1498932073209006 0.019535646559381805
0004f0 a1 dd 92 f0 ad 24 b0 bf 07 e0 3e f7 25 b5 c2 bf
       -0.06305968402272423 -0.1461532075170455
000500 27 80 cf a1 76 b5 bf bf c8 b0 3a ef 4c 08 61 3f
       -0.12386266184285032 0.002079153311418922
000510 75 77 95 d9 fd 1e a4 bf 94 7f 20 be 0f c4 51 bf
       -0.03929894715359598 -0.0010843423592703282
000520 64 53 a5 c6 66 b8 b8 bf da f9 39 69 04 fe 69 bf
       -0.09656374311209742 -0.0031728826668875167
000530 2b cd 56 79 b2 9f 96 bf 65 53 8a 92 80 2c 9b bf
       -0.022093571334790212 -0.026536950058090442
000540 8c cf 97 77 07 ba b2 3f 14 22 57 6d 89 65 ad bf
       0.07315107984305608 -0.057415289494717
000550 87 32 48 9f ad ce a6 bf c1 34 41 f8 04 8f b0 bf
       -0.044545579618078306 -0.0646823030558208
000560 fb 6b 3b 3e 6b f3 c1 bf 24 88 61 ea 1d 15 8d 3f
       -0.14024105585744437 0.014200433459510782
000570 df 94 f6 d8 14 b4 72 3f 36 4d af cf ec c9 c0 bf
       0.004566270289989321 -0.13116226330621722
000580 6b f5 16 e2 21 87 b1 3f 43 5e 65 50 16 29 c4 bf
       0.06846820611732134 -0.1575038807447858
000590 c6 90 87 dc 29 93 a4 bf 60 aa 6a 36 49 45 b7 bf
       -0.04018526856433051 -0.09090097025424759
0005a0 10 d7 32 bb a9 a4 b0 bf ab d5 50 ac 44 10 b3 3f
       -0.0650125581767862 0.07446698386123411
0005b0 c0 18 45 59 0e 85 9c 3f 0a 46 66 eb 55 df ba bf
       0.027851318548777426 -0.10497033116396196
0005c0 10 1d 48 0f 47 2e bc bf f4 b5 e5 d2 6c 2e 77 bf
       -0.11008113978470058 -0.005659508793866664
0005d0 8f 00 14 b7 fb df c4 bf d7 24 7f a3 8d 31 bc bf
       -0.16308542670595158 -0.11013112298600745
0005e0 18 ea df ad 11 98 c5 bf e1 2c 59 b2 e8 bb ba 3f
       -0.16870327939962304 0.10442976335723443
0005f0 d0 26 33 a3 e8 65 c3 bf f6 f4 70 c9 8a bd c3 bf
       -0.15154750794163485 -0.15422186695096912
000600 b1 28 06 fb 59 d7 cc bf 7f 7f 6b f6 9e a2 7d 3f
       -0.2253220058158312 0.007235165546006671
000610 84 f3 d8 15 dc 7f 8e bf 80 d3 8d a8 84 bd 67 3f
       -0.01489231053994345 0.0028979865059519105
000620 82 32 cf b6 cf 99 ad bf 25 d0 a7 7c c7 e3 6a 3f
       -0.0578141127258265 0.0032824417332850847
000630 19 00 ed b9 9e 22 9b 3f 4d 59 69 16 18 ba db bf
       0.026499252412804795 -0.4332332819807519
000640 18 01 43 43 e9 4e 66 bf 01 c9 6d 16 27 82 c2 bf
       -0.0027231746590531507 -0.14459694476278886
000650 f9 bd e9 bf db aa b1 3f 41 02 53 e0 84 c6 b3 bf
       0.06901334224107093 -0.0772479102770456
000660 e9 a1 d6 85 b7 1f be bf 9f dd ef c7 0c 7f b1 bf
       -0.11767146127261409 -0.06834487801812948
000670 ef 5c 5e 77 36 56 b3 3f 77 d2 0b 0c 9f 1c a9 bf
       0.07553425230286213 -0.04904648801849459
000680 c5 51 9a 3e 2f 59 b3 bf ad a8 fa e0 59 b7 b1 3f
       -0.07557959822071954 0.06920396559385962
000690 f8 88 08 f4 43 39 71 3f 41 7d f4 c5 99 ab ad bf
       0.0042050032066376294 -0.05794983426516832
0006a0 c0 72 86 83 a1 a3 b5 bf 7e 93 81 9e e3 07 c7 bf
       -0.08452805958809062 -0.17992825736578405
0006b0 f1 e6 bf 87 96 2a c5 bf e2 b6 3c 33 19 6c c1 bf
       -0.16536218288802432 -0.13611140252890325
0006c0 0a b0 fb 65 96 96 b3 bf 54 e8 f0 cf 42 ce c4 bf
       -0.0765165328008949 -0.16254458573695507
0006d0 94 f7 12 4e b8 7e 7c 3f 9a 62 83 4f 6a 7f d2 bf
       0.006956787053409647 -0.2890268112655946
0006e0 6a 69 28 93 f5 1e 8f bf d0 a5 b0 41 0e bc 7e 3f
       -0.015195768884087985 0.007503562631464303
0006f0 27 ce cb ed 71 3a de bf 1c a0 c3 f5 a7 f8 b2 bf
       -0.47231720182682796 -0.07410669088460548
000700 7f 3a 37 e3 b2 ce 51 bf 87 9a 1f 4d 29 8a da bf
       -0.0010868784855692368 -0.4146826985510547
000710 eb 47 8f 78 e7 af 8d 3f 58 9e cf bc 47 33 a7 bf
       0.014495666853608888 -0.045313112066477756
000720 64 3b f8 bc 10 c1 c2 bf 9f fe b3 a8 b0 42 c3 bf
       -0.1465168879226112 -0.1504727195497155
000730 9b d8 76 3d ab 28 bd 3f 9c 09 98 17 37 7c a6 bf
       0.11390180826751577 -0.04391643679629739
000740 e7 14 d2 07 72 7e 88 3f 9c 34 49 74 3b 4c b3 bf
       0.011959925521532756 -0.07538196171772643
000750 bd 3f 58 a5 ad 5f ba 3f 2f 4e d7 2b c2 a2 87 bf
       0.10302243506180182 -0.011540905917093528
000760 b1 eb f0 6a ef 82 a0 bf d4 31 69 8b e0 fe aa bf
       -0.03224895649369531 -0.05272580816071906
000770 0f 78 45 60 97 34 b6 3f bc ff f6 f8 33 10 b4 3f
       0.08673997974753454 0.07837223842852742
000780 df c8 29 44 28 ec b8 bf 26 fb 72 d7 9e 8e d2 bf
       -0.0973534742750277 -0.2899548629756502
000790 d7 2b 3e c9 91 d1 af bf c1 b0 53 6e 07 07 d0 bf
       -0.062145763221529364 -0.250429017773751
0007a0 f3 fc be 53 9c df d5 bf cb 49 59 37 9c 28 b5 bf
       -0.34177311113667413 -0.08265091277397756
0007b0 c5 49 93 cb a2 34 d7 bf 56 2e ed 54 06 5d a2 bf
       -0.3625876415291283 -0.03586597239208504
0007c0 23 2e 9f 68 9e 40 b0 3f 21 b8 2b 7b e7 f1 d3 bf
       0.06348600439303502 -0.31163966205974886
0007d0 1c 12 0a 48 ce fb ba bf ef 72 e4 ad 29 1f c6 3f
       -0.10540475138447686 0.17282601347769552
0007e0 6c 8d be 0f 0c a0 a0 bf 8b 3a bd d0 fd c3 bd 3f
       -0.03247106258575169 0.11627184244319204
0007f0 6b 0a a3 48 c5 7b c3 bf b0 b0 07 14 cc 21 a2 3f
       -0.1522146801635985 0.03541410202510187

transform_generator.3.bias f8 [64]
000000 07 67 ff bd a5 4d a0 bf a9 a3 9a 27 27 31 9d bf
       -0.03184240288073963 -0.028507816116561866
000010 53 e8 3b a0 a6 4d a8 bf a7 26 9e 52 f0 63 c3 bf
       -0.047467429218116884 -0.15148738893576771
000020 63 03 13 88 94 14 90 3f da 94 62 c7 d7 20 a7 bf
       0.01570350723773418 -0.04517244633579205
000030 57 e1 9c cd 7c 3e 97 bf 52 cb f6 c4 24 2f ab 3f
       -0.02269930844269771 0.0530940523562068
000040 17 d0 f4 7e fa 77 a2 3f 55 e3 50 9a 7d a8 c0 bf
       0.03607161330947422 -0.13014192614516654
000050 d9 e3 b2 1f 71 4b bd bf 6d 7c 44 bd 2f 38 b1 3f
       -0.1144324018849966 0.06726358767308378
000060 01 20 95 a3 f7 ae c2 bf ee 89 4a 3c 87 4f c0 bf
       -0.1459645794623157 -0.12742701000122686
000070 c1 a6 8b 2c 3a eb a2 bf 71 9e c0 d5 d2 a6 b1 bf
       -0.03695089143532249 -0.06895177572789081
000080 55 96 8a 3f 65 6b 8b bf bc 44 22 68 34 82 c2 bf
       -0.01338843441164809 -0.14459853253041455
000090 4a e3 05 fe 28 5c ab bf e1 91 ce 7b 35 85 b0 bf
       -0.053437500961939735 -0.06453260681752894
0000a0 72 7e 49 ee 94 4a c6 bf 72 ae df c1 a8 0c b2 bf
       -0.17415105471717457 -0.07050566418882356
0000b0 6f 72 87 04 11 fe b4 bf 66 31 37 be 75 01 b4 3f
       -0.08200174675534709 0.07814727682052122
0000c0 51 dc a6 d2 2d c7 6c bf 57 e4 42 d3 4d 0d c0 bf
       -0.0035129446962077 -0.12540600600712778
0000d0 78 37 f7 8b 14 dc b4 bf df 3b 69 89 f4 45 91 3f
       -0.08148315827494723 0.01686842049303638
0000e0 02 18 6c 13 ec ed 99 3f bd c4 8c 8e 64 7d aa bf
       0.02532166355651811 -0.051737921143634825
0000f0 72 20 fa aa 0b 72 bc bf 64 c9 4e 8c a7 79 be bf
       -0.1111151974129159 -0.11904380012018617
000100 d8 0c f9 80 f1 66 ca bf 9e 74 b8 f9 45 37 a0 3f
       -0.20626658246519614 0.0316717021307593
000110 cb 26 b8 e9 49 2c 92 bf e4 18 f6 1d 60 ad 87 bf
       -0.017747073068710855 -0.011561156191202966
000120 d7 cd c2 0f c4 e6 bd bf a7 eb 69 e9 1e 79 83 3f
       -0.1168024576643839 0.009508363245222485
000130 81 57 bb d1 7d 99 c1 bf e5 5d 74 b4 99 9b be bf
       -0.13749668827830067 -0.11956177383068896
000140 b2 a0 af 8f 6e 28 b8 bf 83 8e f2 5b b0 24 a5 3f
       -0.09436694152793981 0.04129553911596153
000150 c9 07 44 1d 69 0e c1 bf ec 81 a6 0b 2d 66 91 bf
       -0.13325227669707676 -0.016991332851491167
000160 8a 6f d8 f5 86 86 a4 3f 84 06 8a ac fe 92 74 3f
       0.04008886099856486 0.00502299768470638
000170 dc eb ee 93 7c 3e bf bf e4 ce 01 7b f0 97 96 3f
       -0.12204722034122945 0.02206397772574932
000180 03 2d 34 e9 67 dd 73 bf c7 81 f8 24 c4 b2 bd bf
       -0.004849820997388623 -0.1160090055714199
000190 dc 5d da f2 eb d1 82 3f a5 57 6b 28 1e 84 c9 bf
       0.009189456318650473 -0.19934441541289263
0001a0 5e d5 ff cb 10 bd b7 bf 55 63 00 20 61 b6 c8 bf
       -0.09272866230442875 -0.19306577742170342
0001b0 8e a3 9e b9 82 b7 b3 bf 2f 26 01 4c d9 8d bc bf
       -0.0770189002202086 -0.11153944116190283
0001c0 9f 42 aa c5 3a 53 bd bf 47 f1 2a 15 26 b3 c0 bf
       -0.11455123258407206 -0.1304671862943769
0001d0 23 2c 29 a7 52 63 b4 3f 10 75 e4 4b 08 50 c0 3f
       0.07964054661822266 0.12744239526447432
0001e0 ba 3a 30 5b f7 84 90 bf 28 cf 30 76 4b f4 bb bf
       -0.01613222593374062 -0.10919639239801582
0001f0 b2 77 56 a2 4a 8d b4 bf b7 4e 2d a2 8b 0e 95 bf
       -0.08028093779873194 -0.02056329896306749

transform_generator.6.weight f8 [64, 64]
000000 17 97 4e a6 f7 9a b9 bf 9e 5d 69 fd 30 b7 c1 3f
       -0.10002086458424873 0.1384030568467382
000010 e8 9f ed 50 98 c4 a0 bf ed 55 bb 3e f2 0a a0 bf
       -0.03274990070241285 -0.031333513410270665
000020 4f 8a 0c 1f 36 3b 9e bf 1c 1f 40 64 1f cb b1 bf
       -0.029522748608665158 -0.06950565526505809
000030 e4 7d 3e 47 51 ec a4 3f 83 e6 c0 df bc b2 a1 3f
       0.040865459391394215 0.03456678611150912
000040 5a 88 ad 17 60 77 b3 bf 21 5d c0 81 ae b9 b9 3f
       -0.07604027345726774 0.10048952739486029
000050 c5 17 a9 d4 1d 8a bf bf 6e b8 7f 74 92 f4 c0 3f
       -0.12320124093920899 0.13246374786780585
000060 a2 9b 19 6f ba d9 9a 3f 33 6c b7 95 68 77 c6 bf
       0.026221192389495614 -0.17551905928016395
000070 73 dc 71 54 6a db c0 bf e5 13 58 49 0c 11 bd 3f
       -0.1316960251167277 0.113541381746543
000080 e8 2b fa 80 13 0b a2 3f 96 a8 54 15 74 ae 81 3f
       0.03524075459889514 0.00863352480026362
000090 e1 5c 08 54 8d 23 bc bf 97 f4 2c 26 9c 96 b9 3f
       -0.10991748143748083 0.09995437557241114
0000a0 a1 a9 af a4 9e 62 ab 3f 0b ba 47 9d b7 ea 8e bf
       0.05348678360299464 -0.015096125113783129
0000b0 2a c6 81 8f 39 a5 7b bf c2 ff a3 7d d5 46 b3 bf
       -0.0067493675670547235 -0.07529959027669889
0000c0 b1 00 c4 7e 9b e9 ad 3f 99 65 2d 94 93 55 90 bf
       0.0584229080432136 -0.015951448363329488
0000d0 ef e4 a2 f3 b8 05 90 3f c4 06 58 cf af 36 98 3f
       0.015646829481487264 0.023646113424553375
0000e0 9e 4e 2e b2 62 95 c4 bf 10 07 5c a7 e9 43 b3 bf
       -0.16080888462294224 -0.07525501571583626
0000f0 b1 93 77 4c 5b a6 bd bf 46 df 5b e2 8f 53 c0 bf
       -0.11581965081093305 -0.12755011131934618
000100 33 04 34 9c 03 8d b3 bf f1 56 08 80 fb 32 95 3f
       -0.07637045444063588 0.02070229500721771
000110 09 4c 9b f1 a4 1b 9c 3f c6 fa d4 a9 19 03 b2 3f
       0.0274492046799644 0.07035980602538947
000120 d0 5f 81 52 ac 75 b8 3f 45 e1 5c 8e 40 eb b6 bf
       0.09554554952899186 -0.08952716327337835
000130 bc 8c 41 cb 20 ff b1 bf 08 fe 7b ec 7e c3 b0 bf
       -0.07029919588380812 -0.06548302911323145
000140 fd 02 fd 9f 91 b4 c0 bf 95 16 5d 82 b4 41 b5 bf
       -0.1305105239098551 -0.08303383047776898
000150 75 7a b9 54 34 23 af bf 4d fc f5 95 de 7e 6e 3f
       -0.06081546339259073 0.0037226054552657374
000160 89 42 9e e5 fc d4 72 3f c7 c9 d7 2e b0 9f c3 bf
       0.004597652319617959 -0.1533107975697716
000170 63 9c 07 0f b2 48 c2 3f 37 59 42 d6 8b 05 34 bf
       0.14284349187730347 -0.00030550636280092823
000180 7a 00 c5 4a f1 20 85 3f af 9f 19 3b c6 0a c6 bf
       0.010316739172253831 -0.17220380674120636
000190 ea 0a 0e 4b c8 ca b3 3f 2a 24 aa a6 0d 4d 8c bf
       0.07731296379465005 -0.013818842552853
0001a0 6c 19 b0 e7 8c 00 7e bf 69 82 5b b3 86 61 94 bf
       -0.007324743662144289 -0.019903282830343736
0001b0 d4 04 eb 36 ca d6 88 3f d0 c5 e6 74 c4 7e ad 3f
       0.01212842922302785 0.057607783575246096
0001c0 e7 a7 c3 c3 3c 6a b2 3f ec f2 64 7a 25 c1 a9 bf
       0.07193355349923501 -0.05030171507903511
0001d0 eb ea 60 f1 4d 03 c9 bf d9 74 2b 8e 50 3a c4 bf
       -0.19541334425033283 -0.15802962247736366
0001e0 90 a8 01 8d 6b e5 c5 bf 6a 42 9a 22 9a bd b2 bf
       -0.17106384644586514 -0.07320559830464793
0001f0 11 6d fe 7a fc 5f bc bf 40 d4 3b af 67 77 af 3f
       -0.11083963396815856 0.06145786298831313
000200 5e 6b 1d 36 ce 80 bf 3f 2d ff de bf 3b 57 c3 bf
       0.12305916615643528 -0.15109965199189315
000210 b1 8a 60 13 d0 0a c1 3f 81 1c e6 ca 9d c5 cf bf
       0.13314248033664947 -0.2482182732312346
000220 7c a7 c4 c5 0a 14 a1 3f b5 a4 e2 24 d1 8f 84 3f
       0.03335603393709527 0.010039934099341211
000230 55 d7 ed a4 f8 f2 a2 3f ce 43 55 cf e6 9c 82 bf
       0.03700997365278506 -0.00908832855444244
000240 f0 15 06 65 ab 81 c1 3f f2 48 18 06 23 96 a3 bf
       0.136769699409498 -0.038254827970506514
000250 99 b0 bc 86 11 a4 a1 bf 69 3c 69 40 2a 42 b0 3f
       -0.03445486802806492 0.06350959847007832
000260 cf cb ed a0 56 6c b5 3f 6f 70 14 18 c5 eb b9 bf
       0.08368436268737799 -0.10125381315123304
000270 01 3d 65 33 0b f0 b1 3f 89 2f d8 03 21 23 a9 bf
       0.07006902699253105 -0.04909613773278838
000280 ab a4 00 41 60 c5 c4 3f 4f 4b 14 3b 24 91 c2 bf
       0.1622734372515756 -0.14505436787347967
000290 f2 f1 4e ff 3f 4f c0 3f 92 dc d4 98 de fb b0 3f
       0.12741851774434526 0.06634322386968197
0002a0 14 8e fb 48 8b 05 b2 3f aa 1c 6e 92 92 db b7 bf
       0.07039709598353056 -0.09319416117624493
0002b0 a3 7a d0 5a 65 14 aa 3f 5d 0e e4 09 df 1a 81 3f
       0.05093685849737042 0.00835203408178769
0002c0 52 14 bb 3a 3e a2 a2 3f 17 98 b2 49 0f 62 bc bf
       0.036394066495213054 -0.110871272556864
0002d0 8f a2 1e 81 dc cb ae bf 78 cf e1 1f e4 c3 bd 3f
       -0.06014908863227674 0.11627031114931963
0002e0 3c 83 b5 c4 34 47 b4 bf 38 59 15 9a 6c 31 c1 bf
       -0.07921151926485676 -0.13432080768206744
0002f0 db a9 10 03 81 72 b1 bf 30 ea 28 ac 08 e3 b4 3f
       -0.06815344166594832 0.0815892620384282
000300 ca 29 ef db d4 de 96 3f ba 5e 98 56 9b 8c bf 3f
       0.02233440964099901 0.12323923935070527
000310 97 63 97 f4 20 f3 bf bf 5b 70 a6 94 af 6b a3 3f
       -0.12480360003918488 0.03793095292641687
000320 67 e7 70 2e 03 c8 b1 bf 9b 89 63 68 2d 2c c2 3f
       -0.06945819743932945 0.14197318646536136
000330 1c 9d 7d 31 f5 49 b2 bf 82 7b 03 a9 c9 67 c1 bf
       -0.07144100626247901 -0.1359798503171668
000340 b7 f7 a5 60 29 05 91 bf 57 0b ed 0f 71 82 b4 3f
       -0.016621252559609192 0.0801153816110348
000350 36 ab c2 c9 36 90 b1 3f f4 2a e4 07 e2 80 ad bf
       0.06860678125182748 -0.05762392374352557
000360 77 07 f7 b2 5b 1f be 3f c0 ee e8 28 fc 61 c2 bf
       0.11766598815213834 -0.14361526486924525
000370 9b 73 d5 7c f1 14 c2 3f 60 ef 9a 52 d8 5e 96 3f
       0.14126413913154753 0.02184618000204297
000380 8e 87 9a bc cb 41 54 bf 02 28 ca b2 59 06 c1 bf
       -0.0012363900772602607 -0.1330062983509493
000390 3e 67 35 5c 3d 2a 72 3f 75 cf 4c 19 42 a2 c4 bf
       0.004434814155809095 -0.1612017272506098
0003a0 ae a6 da 26 b0 01 b3 bf 53 57 79 aa 33 89 91 3f
       -0.07424450825296944 0.01712494590750364
0003b0 f1 3c 13 01 5b 49 b2 3f 56 83 a2 60 f8 ed b1 3f
       0.07143181587456461 0.07003738745926333
0003c0 5a 69 77 eb d7 c7 b3 3f fa 25 d4 91 7b e6 c5 3f
       0.07726811884586962 0.171096273618147
0003d0 a3 a5 55 81 7c eb a4 bf 38 65 f2 5d e4 57 c4 bf
       -0.040859118259344095 -0.15893225276230694
0003e0 62 fc 7a fa 8e 90 91 3f 61 83 19 aa af df bd 3f
       0.017153009451018504 0.11669443037818673
0003f0 95 04 fe d9 b2 8f bf bf e6 a6 22 2e b7 fc b1 3f
       -0.12328641721798513 0.07026238323546927
000400 79 92 e9 45 0d ca 71 bf 22 89 39 9a b4 de c1 bf
       -0.004343082283047133 -0.13960893183236417
000410 2f 2a 57 94 4e 0a a6 bf 48 bc 13 4b 15 ca a9 3f
       -0.04304738579556432 0.05036989728420643
000420 77 63 1e f7 54 47 b8 bf a3 71 43 5b 85 55 c0 bf
       -0.09483843835040583 -0.12760989147399213
000430 39 a0 23 5a 2c 20 93 bf 35 0d 75 72 dd 87 69 3f
       -0.018677418710382396 0.003116543306221376
000440 2f b6 8c c7 81 c6 a8 3f 89 d4 98 25 98 44 a5 3f
       0.04838948784741281 0.04153895815799397
000450 71 90 52 9b 06 19 a7 3f f9 9e f5 da 7a c7 ba bf
       0.04511280675913632 -0.1046063217705714
000460 7b fa 0a 98 6a 45 c5 bf a3 26 e9 f5 ef 53 ba 3f
       -0.16618091987580272 0.10284328225784604
000470 a2 be b5 f3 d4 86 b6 bf 52 a5 51 d2 1a 6a a7 bf
       -0.0879948706622096 -0.04573139016504037
000480 52 6d d6 b4 5f 02 9b 3f 8a 5b 20 a7 9f f1 98 3f
       0.026376243030978692 0.02435922105368208
000490 d9 4b 3b 10 0b aa bd bf 38 c1 2f 81 8b 7b b7 bf
       -0.11587590357093748 -0.09172889617889701
0004a0 62 e6 c8 33 67 60 b4 bf c5 4b a4 5d dd 11 bd bf
       -0.07959599508549212 -0.11355384384323404
0004b0 01 24 66 60 aa b0 be bf 92 26 f0 4e dc 16 bc bf
       -0.11988320210924998 -0.10972382476043155
0004c0 e0 5c d5 4a ad 8e b8 bf d4 c1 7d 58 95 b8 b1 3f
       -0.0959270770739411 0.06922276888304363
0004d0 be 68 20 b5 f2 38 aa bf c2 4a 91 ee cf 7f c4 bf
       -0.05121572934167905 -0.16015051983648304
0004e0 b0 e2 63 70 8f a8 86 3f 65 80 f1 67 0f 69 c1 bf
       0.011063690774322538 -0.1360186822448696
0004f0 db b3 1e f3 67 85 bb bf 0f bc b4 a0 15 82 b0 3f
       -0.10750436482949459 0.06448493169294543
000500 9d 84 fd d2 44 c9 bc bf de 84 af b7 eb 59 b2 bf
       -0.11244611884241569 -0.07168458208572612
000510 d1 de 30 18 cd 6f a8 bf 70 d2 f7 9e 3d 8a b9 bf
       -0.047727975085249626 -0.09976563578659081
000520 26 12 63 78 41 28 98 3f 44 8d e1 98 12 e4 bf bf
       0.023591063473548023 -0.12457386238525198
000530 f2 a4 eb e8 66 70 c5 bf 74 80 05 77 2a ea bf bf
       -0.16749273655958735 -0.12466683774755599
000540 79 51 51 5c 36 0c 60 3f b2 60 29 bc 13 89 b0 3f
       0.0019589483004358002 0.06459163039960705
000550 b4 09 26 89 5c ad c3 bf 84 72 f2 2c 0e 4a 2c 3f
       -0.15372807213505058 0.00021583006898575144
000560 4b cc 68 72 b2 3e be bf ed 25 56 27 12 47 b4 3f
       -0.11814418118665164 0.07920945606578984
000570 1d bc c2 c8 3a d5 7f 3f 03 f4 46 e1 ca 0f ab 3f
       0.0077717109926842805 0.05285486221280424
000580 9c 10 2d 67 cd 39 79 3f 13 4f d1 ba 2d e0 bb bf
       0.006158640246955251 -0.10888944445587993
000590 bf 3f 36 ed cd d9 9e 3f d0 12 3b 66 ca 01 a2 3f
       0.030127732852235797 0.0351699113648799
0005a0 60 90 38 b9 79 7a 9e bf 90 c3 cb 47 2d 44 a2 bf
       -0.02976408188818913 -0.0356763982907814
0005b0 45 e5 09 91 a7 ac ad 3f a7 e8 ea 60 d4 27 be bf
       0.0579578747319354 -0.11779525152351998
0005c0 ca ad 04 42 32 f5 aa bf f0 86 5b 63 4f 5c b8 bf
       -0.052651949461814576 -0.09515854049416439
0005d0 30 ef c2 74 95 f7 c3 bf 6b 54 be d5 01 57 28 bf
       -0.15599315835231087 -0.00018569848441233062
0005e0 d5 43 c5 53 bf f6 b5 3f 10 c8 19 da 26 a4 c5 bf
       0.08579631610088197 -0.16907201432655983
0005f0 0b f6 7c 8f e9 88 ba bf aa d2 1b 48 1d 75 c0 bf
       -0.10365161660316617 -0.12857404728824423
000600 a3 22 11 bd bb 14 c0 3f da 71 a3 fd 90 ea a3 3f
       0.12563273174079823 0.03889897438213881
000610 65 25 d9 5e 0a 13 b6 bf 80 18 5a 9d 75 68 c6 bf
       -0.08622803512220896 -0.17506284888458268
000620 c5 59 62 0f 45 5d a0 3f 22 41 94 24 d8 fc 95 bf
       0.03196159184260553 -0.021472336990940318
000630 55 57 86 32 49 18 c2 bf 57 88 bb ad 63 e3 94 bf
       -0.14136614768056668 -0.020398671606820375
000640 3a 10 39 b0 2c 2e bc 3f cc 1a 73 ad c7 9d b2 3f
       0.11007956793133725 0.07272003159151125
000650 75 93 b3 9f 66 9f c4 bf 08 78 26 27 b2 90 bb bf
       -0.1611145286362007 -0.10767663436715236
000660 2e 8f 88 06 f6 59 b0 3f 2e c1 6a 7a ff ed 67 bf
       0.06387269649036106 -0.002921103459208172
000670 1b 0c fc 16 dc ad a7 bf 0a 3c 1d 38 1f 4a ab 3f
       -0.04624831944058646 0.053299880599858865
000680 28 48 ef 4e 9b cd b7 3f 8e 6c 89 c5 0e 9e c0 bf
       0.09298105885616847 -0.1298235382590502
000690 8f 7e d8 28 cd 7c 57 bf c6 e7 54 92 bd f8 a9 bf
       -0.0014335635672821122 -0.05072586451792875
0006a0 ac 94 9b 0d 18 2d c3 bf c8 a9 75 cb 83 76 9b 3f
       -0.1498136583751707 0.026819285672368826
0006b0 cf cf 53 b6 f1 53 ab bf 30 6a c4 13 fb f5 87 3f
       -0.05337481833149093 0.011699639836071446
0006c0 58 0f 19 44 1d c8 ad 3f fc ff bd 44 43 53 b1 bf
       0.05816737610123707 -0.06767673900867516
0006d0 b5 ff 21 8a 19 fd c2 bf a4 c2 75 c4 a4 43 b5 bf
       -0.14834899182096498 -0.0830634097708392
0006e0 85 aa c0 1c 24 b8 a2 3f 7c e1 e7 63 24 9e a2 bf
       0.03656113482459936 -0.0363627788501075
0006f0 3c d5 68 42 76 24 ae 3f 6a 5f 33 7c 98 24 c1 bf
       0.05887193260825049 -0.13392931045995776
000700 fe 0c 0c 5c bb 15 bf bf 01 64 52 72 de 04 bd bf
       -0.12142535207026481 -0.11335554400501736
000710 fa f0 50 fe e4 65 b2 3f 32 f4 04 09 2a f9 a4 bf
       0.07186728676692047 -0.0409634719858122
000720 00 fe da 3e e9 48 c0 3f 3a e1 0a cc fc cd aa bf
       0.1272250706588096 -0.05235280981782116
000730 63 ca fd c1 ec 56 bb bf c3 84 f3 62 a5 af b7 bf
       -0.1067951177226774 -0.0925238958912074
000740 e7 6c ee bc 01 ce a6 bf f6 08 72 28 af 2a 9c bf
       -0.04454045707026371 -0.027506577342600168
000750 0b 4b bf 43 88 6c b7 bf 54 6a 13 04 1f 40 7d bf
       -0.09149982122407267 -0.007141228824560548
000760 66 45 be c2 8e 22 91 3f e5 db 68 d2 c2 4b 95 bf
       0.01673338950746963 -0.02079681786764444
000770 bb 1b 4f db c4 12 63 bf d8 2b a6 28 c7 f5 61 3f
       -0.0023282856804800168 0.0021923913784056386
000780 d8 e8 19 0a b1 21 b3 bf ca ff d7 e3 2b cf c2 bf
       -0.07473284241305878 -0.14694737076933811
000790 da cd 2b fe 69 f5 bf bf 80 38 39 c3 59 4d 70 3f
       -0.12483847098683701 0.003980017314075934
0007a0 b6 14 7c 00 ab e6 ab bf a4 2c 8d 3c d5 70 a0 bf
       -0.05449423199574126 -0.03211084713128656
0007b0 74 43 76 73 a9 80 af bf 98 0f 0b 0a f5 cf bf bf
       -0.06152848753402554 -0.12426692481227375
0007c0 c8 05 b9 c8 d1 6d a0 3f a3 e3 bb 15 ac 12 b7 bf
       0.03208785605648817 -0.09012866526235412
0007d0 96 1f 83 a0 09 1a 99 bf 72 6f 98 e4 26 25 ee bf
       -0.024513388082396746 -0.9420351471667188
0007e0 f6 b6 27 e2 c7 6b a7 bf 04 ea b7 cb 4c 6c c0 bf
       -0.045744177204921785 -0.12830505320728502
0007f0 88 c3 94 f8 ca bc 9f 3f 75 7f 1e d2 da c2 b4 bf
       0.030993625089823534 -0.08109824781285886

transform_generator.6.bias f8 [64]
000000 e3 c5 f6 8c b6 6b c4 bf 8d bd a5 6b 04 93 c2 bf
       -0.15953714259153093 -0.14511161094877104
000010 2e b9 32 c8 9a bb b4 bf 60 b0 4d ba 15 7e af bf
       -0.08098761928224427 -0.06150882624828635
000020 8e 72 5c 41 f8 23 91 bf d4 fb b0 ed 4d d0 b7 bf
       -0.016738776196791032 -0.09302222302447599
000030 3d 70 a9 4a 95 cd b4 bf 8a 3f f4 e0 47 14 c0 bf
       -0.08126195023345502 -0.12561892017447135
000040 8a a3 ef 0f 80 c2 b0 bf 27 3e 80 8a 45 74 b8 bf
       -0.06546783818306615 -0.09552416449900446
000050 1b f8 a1 f8 13 8d b0 bf 97 3f b4 e0 d1 5b 9e bf
       -0.06465267963537295 -0.029647139873361174
000060 5a 62 a8 2b 27 a6 a8 bf 6f 8e 7f f8 39 72 c0 bf
       -0.04814264686519172 -0.12848591455177735
000070 67 c2 a0 f6 ec 48 9a bf 0b 96 58 8b aa 44 9b bf
       -0.025668814232803785 -0.02662912822247247
000080 21 67 44 ef 74 f8 42 bf 6c be bd aa be f9 a9 bf
       -0.0005789347619924204 -0.05073352655642513
000090 d3 10 01 21 2c 79 a1 bf 73 ae 6f 85 ca 6a b3 bf
       -0.03412759688265656 -0.07584825284691891
0000a0 1b 56 15 01 3f b8 c3 bf 16 5a 53 15 cb 6e c1 bf
       -0.15406024506471358 -0.13619364301003206
0000b0 f1 ea cf 01 90 ea 3a bf 38 d6 4e 65 35 be b2 bf
       -0.00041070953176329446 -0.07321485255564475
0000c0 8f 2d 00 15 57 63 ad bf 5b 97 10 ad ea 04 ae bf
       -0.057398530305444166 -0.058631261468959216
0000d0 00 5a c0 be f4 7f b4 bf 36 8b 73 4d 81 b2 a9 bf
       -0.08007745415702772 -0.05019001074267353
0000e0 e4 bf b6 10 ed 21 a3 bf 90 49 82 f0 46 33 ad bf
       -0.03736821011568717 -0.057031838282585956
0000f0 ce c6 54 0e 40 d5 8b bf be 20 47 03 5b 0b b3 bf
       -0.013590336263038873 -0.07439202146554444
000100 69 6e c6 44 c6 3f ba bf f8 23 06 c8 a6 13 47 bf
       -0.102535621443559 -0.0007042469369916695
000110 57 d3 91 05 c9 d9 c1 bf 55 8f 06 90 62 f8 cb bf
       -0.13945877811388627 -0.21851760895253372
000120 66 5a 38 35 32 f5 85 3f 46 8f 1d ec 19 fc b8 bf
       0.01072158074297853 -0.09759675993478564
000130 f2 92 24 5d f6 19 af bf 7f 74 4b c5 c7 1a b1 bf
       -0.060744952077845485 -0.06681488577619808
000140 65 55 71 79 45 ec b9 bf f8 a3 2e f0 bb 59 c1 bf
       -0.10126146521482367 -0.13555096843381853
000150 29 34 ca b5 63 aa ba bf be 29 f2 ca 01 59 a1 bf
       -0.1041624373267075 -0.033882194541621655
000160 67 55 a4 89 5d 53 a3 bf e8 3b e2 d7 3e 7c bc bf
       -0.03774540238570517 -0.11127083559607309
000170 48 27 b1 5e 99 4d a5 bf 69 1e b4 0f 6b 63 a1 bf
       -0.04160765915783188 -0.0339616257352276
000180 62 d5 5a 72 ed 2d b4 bf 1e 70 22 d7 1d 63 86 3f
       -0.07882579843393026 0.010931237342724439
000190 f3 c7 a0 f9 f6 a9 a4 bf de b7 2f 17 84 f0 b5 bf
       -0.040359228107618515 -0.08570123258661463
0001a0 f0 58 f4 b4 1a 63 b0 bf 5e 58 a2 08 20 13 ac bf
       -0.0640122119697002 -0.05483341317555877
0001b0 e6 0e 57 fa 21 2b 9e bf 5d 35 37 03 ee 8f ba bf
       -0.029461413292451243 -0.10375869349009777
0001c0 79 3d f6 3b 79 1f c2 bf 83 af d2 60 d6 71 75 bf
       -0.14158549716783478 -0.005235516943837728
0001d0 a2 83 f0 97 b0 ee 92 bf 34 77 ff 10 a1 ba 84 bf
       -0.01848865439763226 -0.010121591883883597
0001e0 f4 ea d0 53 1e 68 70 bf 11 62 94 7c 31 0b af bf
       -0.004005545107299769 -0.06063227315661746
0001f0 bf 0b f3 be 83 ce 6a bf 0f 8b eb 7a aa 3f ae bf
       -0.003272301975444119 -0.059079482560056566
