models/livneh-livneh/QM_SST_layers3/2000/1980_1990/upscale_1by4_W2noisy001d_bci/model.pth (torch, 38964 bytes, 6 tensors)

transform_generator.0.weight f8 [64, 2]
000000 33 be d3 23 af 06 e4 bf e0 0b e1 62 70 a1 e3 bf
       -0.6258159351108986 -0.6134569102508713
000010 00 a7 4b 41 d8 08 e1 bf 10 37 22 0e 77 3f e4 bf
       -0.5323296809485498 -0.6327471996353058
000020 3a 02 82 ca fe 8c c4 bf f3 75 31 09 a8 27 c7 bf
       -0.16055283439711038 -0.18089771698843968
000030 10 b3 dd 72 e2 b5 c8 3f 84 43 f7 ab 98 ef b7 3f
       0.1930506764287192 0.09349970053086848
000040 f6 32 ed 51 84 e1 ee bf 54 fa 7b b0 32 81 fb bf
       -0.9650289154174903 -1.719042481796028
000050 c1 33 c3 bd 3b 0a df bf 90 e3 f9 31 9c 8f c6 bf
       -0.48499959498877493 -0.1762576335929933
000060 f1 dd d4 76 aa f5 bc 3f 77 5c b0 bb 08 ba d8 3f
       0.11312356377754164 0.38635462121005254
000070 dc 53 6b fe ba 99 e1 bf a6 f9 7d 64 54 a3 b5 bf
       -0.5500159234167046 -0.08452346280498677
000080 be f2 1c e0 81 60 f3 bf b7 5c 50 92 93 2b d2 3f
       -1.2110613588730952 0.2839096955153297
000090 10 5e 21 4b 7f 98 62 3f e6 95 f3 a4 70 50 c5 bf
       0.002269981975626008 -0.16651733450196032
0000a0 91 03 20 84 30 2a f6 bf b9 c1 f3 04 27 03 d5 3f
       -1.385300174821371 0.3283174084054071
0000b0 92 a0 42 da 84 fe d0 bf a1 fc 84 e6 32 48 d1 bf
       -0.2655346042106511 -0.2700316668669505
0000c0 b4 99 fa 15 89 35 e5 bf 1b 70 e1 b0 f6 cc e4 bf
       -0.6627850941920799 -0.6500199751567409
0000d0 b2 ec 4d 4e 97 a3 d8 3f 36 68 d1 e9 10 88 eb bf
       0.38498480460084317 -0.860359627414488
0000e0 09 ea be 40 c3 45 e0 bf ee 2f c1 cc ae b8 f8 bf
       -0.5085159554067228 -1.5450885771015197
0000f0 a3 a8 08 e5 a1 75 d6 bf 9f 6d 8f 13 0f 21 d8 bf
       -0.35092971197685524 -0.3770177546518542
000100 01 02 10 50 78 d4 d8 bf 6a 39 b6 70 0a 83 d0 bf
       -0.3879681379185343 -0.2579980946255974
000110 d9 9a f1 59 d0 45 73 bf cb f5 40 20 33 d5 be 3f
       -0.004705251572068214 0.12044066941685753
000120 77 3b d0 98 32 a5 d8 3f a4 eb 5f 3e 64 98 e8 bf
       0.38508286402878106 -0.7686024873977328
000130 b8 1b 00 b9 1c 9b d1 bf da 46 5c 72 dd 18 b4 bf
       -0.27509229723403505 -0.07850441019061397
000140 e1 bc 72 07 48 60 e0 3f fb 51 27 4e f8 df b5 bf
       0.5117530961487341 -0.08544876010939355
000150 d2 ca 2a a9 8e e8 dd bf 36 5d ea ac 8e 25 d5 bf
       -0.4673191692374249 -0.3304173172595769
000160 5e c8 71 a2 49 e5 df 3f 46 3a ed 6b a8 19 cc 3f
       0.4983696066257205 0.21953301687104182
000170 2b b9 8b 5c d6 02 d1 bf c6 55 02 7d 34 92 e7 bf
       -0.26579817807841505 -0.73659729400486
000180 8a 1c b0 9c b3 c8 90 bf c2 0f 02 00 d0 cc 97 3f
       -0.016390615881416916 0.023242235184184563
000190 9d af b5 7d 46 c6 d6 3f 7d 1e 35 05 c4 6f b2 bf
       0.3558517673143287 -0.07201790930877823
0001a0 85 38 76 c5 09 1c f8 bf b9 27 91 40 ba ec bf 3f
       -1.5068452561713752 0.12470592571585727
0001b0 a2 77 7a 91 8f 02 ea bf 93 fc f9 21 86 d3 ea 3f
       -0.8128125993132367 0.8383207954028812
0001c0 3e 50 34 75 43 d6 f4 bf a9 85 eb e2 16 72 f0 bf
       -1.302310426549425 -1.0278538574278662
0001d0 bc 06 9b 71 be bb 71 bf 91 8c 4b 03 e6 82 d8 bf
       -0.004329437180503323 -0.38298940965450706
0001e0 93 e5 5e 52 49 17 f2 bf ff 70 76 d5 c4 a1 9f 3f
       -1.130685159454832 0.030890536812521848
0001f0 3c ff ff d6 d4 39 f1 bf aa ce 9c 4a ca 01 da 3f
       -1.0766189955174488 0.4063592651975606
000200 00 e1 01 03 5a 73 ca bf 2e 61 75 7b d1 25 b5 bf
       -0.20664525172083614 -0.08260831131099586
000210 9d c6 ad 62 02 07 ae bf de dc 4a 66 f1 bd b0 bf
       -0.058647226854089164 -0.06539829966901631
000220 03 0d 7b e8 2b 18 ca 3f 7b d2 ff 0a a8 07 de bf
       0.2038626561316975 -0.4692173106589405
000230 b2 76 00 d5 80 ce c8 bf 9f 04 35 b8 47 bf e3 3f
       -0.19380197906951008 0.617099628238197
000240 d7 fd 4c 90 d2 03 d8 bf 8c 62 c9 cd a3 c0 e6 bf
       -0.37523330776090574 -0.711015607764311
000250 84 5c ed 58 3e 42 bf 3f 10 35 5b b6 8a 46 e5 bf
       0.12210454627107664 -0.6648610650678695
000260 dc 3e 18 b5 d6 bc c0 bf bc 2b 38 76 09 f7 97 bf
       -0.13076289980425926 -0.023403308716335877
000270 cc 55 77 27 18 2e f7 bf ec 5c 3d 23 6a 0d a5 bf
       -1.4487535039564703 -0.04111797027752026
000280 be 98 6c 9a 92 bf c1 3f b9 23 89 95 00 ef a0 3f
       0.1386588338875238 0.033073442701215545
000290 73 2d e2 42 b0 e2 b9 3f 06 ca df 76 e8 b1 f0 bf
       0.10111524231813522 -1.0434345859072223
0002a0 1b f6 ce cb 6b 77 c6 3f 1f 3f f6 7c f7 de c5 3f
       0.17551944209655876 0.17086690522818856
0002b0 66 c4 b0 18 c7 4e f7 bf 10 03 c3 45 86 7b c2 3f
       -1.456732841918233 0.14439466863952832
0002c0 a5 ce 6d b1 a0 d2 f7 bf 2c ca 2b c0 c0 64 f0 bf
       -1.488922780114913 -1.0245978838617118
0002d0 61 2b a4 75 1f a3 c5 3f c8 87 a4 26 c4 fa a7 bf
       0.16904061550334418 -0.04683506938660248
0002e0 e7 02 16 93 cb a7 e2 bf 17 27 64 49 16 db 78 bf
       -0.5829828140996057 -0.006068312699662368
0002f0 d7 ca 27 2c 66 32 e2 3f 33 09 e9 c5 f4 b5 94 bf
       0.5686522352610507 -0.02022535760830486
000300 04 5d 44 82 bd 3f 78 3f 1c f7 2d 3c 25 61 b2 3f
       0.005920162457434989 0.07179482192256298
000310 1e e3 fd 2d 23 73 f2 bf 4c de 92 3f ff 61 e8 3f
       -1.1531097218086823 0.7619625322030941
000320 c0 fa cd 6e c7 a9 d1 bf e8 c2 a8 a6 70 10 b3 bf
       -0.27598748989832345 -0.07446960514858925
000330 6f b4 be 08 bc 2f c8 3f 5c 50 3c a6 7b 54 ba 3f
       0.1889567415904909 0.1028516083572994
000340 a0 23 50 4c 5d 35 bd 3f 3c 20 b6 17 98 fb 95 3f
       0.11409552682029167 0.02146756787036018
000350 40 aa 97 a0 8d e7 a9 bf b8 46 57 a1 03 c3 c7 bf
       -0.05059473595959618 -0.18563886049246547
000360 40 7d c1 51 70 64 b0 bf d0 0e 5e d8 53 74 af 3f
       -0.06403257366172443 0.06143438354686526
000370 64 1b a3 42 ae 28 d3 bf a9 50 c6 df 58 c1 e6 bf
       -0.2993579531434334 -0.7111019487952223
000380 ff 32 22 dc 07 0c eb bf dd a2 ea cb 7f c0 e1 bf
       -0.8452185916408722 -0.55474843814326
000390 73 3a 63 8f 1e b1 eb bf 17 0f ed 5d 3a 70 b4 3f
       -0.8653710175074835 0.07983746331325069
0003a0 10 57 2b 49 bf 36 d8 3f 4a 5a c3 ae 40 2a d1 bf
       0.37834150453032667 -0.26820389811237944
0003b0 ec 14 09 99 f4 68 e2 3f 17 61 71 db 96 06 69 3f
       0.5753119458173876 0.003054899828878753
0003c0 4a 23 74 da 61 c1 c6 3f c9 04 a5 b4 62 75 e3 bf
       0.17777655760462557 -0.6080792930807998
0003d0 ba 5e 7c fe 93 b7 d4 bf 34 72 8c 7e 3b 93 c4 bf
       -0.3237047181332674 -0.16074317626125068
0003e0 8c c6 73 b0 f9 5c c8 3f 36 38 1b b7 ec 0e b2 3f
       0.19033738246757925 0.07054023237580584
0003f0 22 c2 05 18 c2 71 f1 bf 6d 85 79 5e 74 ad d6 3f
       -1.0902729929331447 0.3543368265728393

transform_generator.0.bias f8 [64]
000000 c1 1b 66 83 26 1c d8 bf eb 30 f0 ed 4e 27 e6 bf
       -0.3767181666557314 -0.6922983786803604
000010 2c 7b 04 4f ee 93 c2 3f d1 da b3 8c 4b 93 cb bf
       0.14513949259068093 -0.21543259020082542
000020 bb 66 20 6a 95 e2 b8 bf ef 57 55 53 71 37 b7 bf
       -0.09720739212971356 -0.09068973812586
000030 cc ba 80 5a b3 fb e5 bf 2f 95 bb 4a 67 e6 d6 3f
       -0.6869751708635135 0.35781271265144005
000040 e7 b7 22 53 b4 cb b9 bf b7 47 1c 72 e2 36 c3 3f
       -0.10076453237226667 0.1501124436550165
000050 ce 05 de 50 51 1f e6 3f 61 4f e5 75 2c 46 da bf
       0.691322954124354 -0.4105330611539469
000060 e4 37 87 c4 04 76 e2 bf 56 a6 c6 41 ba de c0 bf
       -0.5769065702859248 -0.1317971059009319
000070 fe 4d 8d 2e 27 3d c9 bf e7 c3 a0 ae 51 43 db bf
       -0.19717874310536837 -0.42598383000864576
000080 cb 33 1b b9 0a 8d ca bf c0 cc 77 98 de d2 cd bf
       -0.20742925680533938 -0.23299772686696052
000090 06 fd 59 21 67 06 c6 bf ac 96 ee 91 c2 fc a4 bf
       -0.1720703995560841 -0.040990906061137394
0000a0 90 37 c2 8f 45 41 e5 bf 99 25 45 e4 a6 a5 d3 3f
       -0.6642177398477873 0.3069855908584827
0000b0 c0 9c 9d 41 bb 8d f2 bf 79 8c d1 86 38 61 b9 3f
       -1.1596024096595983 0.09913972178905962
0000c0 8f 47 26 03 4f 77 c0 bf e9 81 18 f3 35 4b dd bf
       -0.12864101079736343 -0.45771549930398564
0000d0 c3 ff 3a ca c2 a2 e6 3f 3f bd 89 43 9b d3 e2 3f
       0.7073682737172863 0.5883308714964314
0000e0 5d 98 5c 3f f5 d0 c6 3f 72 e4 cc 28 29 7d d6 3f
       0.17825189203103067 0.35138920769129023
0000f0 18 cd e0 59 28 33 ca 3f e6 6a 8c 67 00 51 ce bf
       0.2046862067087225 -0.23684697204665567
000100 2b b7 cb 1e fb 5a d9 bf cc 2f 00 fc 2e 37 ab 3f
       -0.3961780358066444 0.05315539194279459
000110 ff 58 d5 90 02 b5 b6 bf 4e cb e2 64 62 28 e8 bf
       -0.08869949375125329 -0.7549297304561635
000120 88 b0 e9 20 b6 2c cb 3f ad fe 6c a5 c4 a5 c8 3f
       0.2123019848544383 0.1925588424437498
000130 3f 03 d0 be 5d ea b9 3f d4 85 f6 03 c4 00 e7 3f
       0.10123239429959784 0.7188434674646325
000140 e7 e5 5f 62 f8 46 d2 bf f4 0e 44 95 45 24 e1 bf
       -0.2855816803636046 -0.5356777110432334
000150 29 e5 69 1a f3 bf d5 bf d6 fd 39 a5 6e cf ea 3f
       -0.33984067515810296 0.837821314533296
000160 5f 6f f0 4a 01 27 cc 3f f5 56 b7 83 a7 ea c2 bf
       0.2199403396524486 -0.14778608256772655
000170 18 d6 15 fa 4c d8 d0 bf 2d 73 d7 cc 18 21 e7 bf
       -0.2632019464720954 -0.7227901459515117
000180 b3 86 14 d6 9d 2f e7 bf 25 78 24 1a 6c d7 eb bf
       -0.7245625668767474 -0.870046664294709
000190 71 67 c7 5d ed 1c ce bf 74 c3 35 09 6f 20 d3 bf
       -0.23525778845833714 -0.2988545980397739
0001a0 e0 89 e2 c8 a7 5b d5 bf c8 7b 80 ab 57 3a c3 bf
       -0.3337192022101174 -0.1502179706012312
0001b0 b2 10 6c 1f 0a aa 91 bf 4d 1d cd c2 61 38 c3 3f
       -0.017250211875776862 0.15015813838747719
0001c0 72 10 81 2b 9e d0 d9 bf 56 26 e7 3e d5 51 3e 3f
       -0.4033580231519017 0.0004626412982387853
0001d0 66 e6 4e b2 39 21 a1 bf 41 16 63 37 b8 a6 ea bf
       -0.0334566145097142 -0.8328515130785449
0001e0 28 c9 80 65 b2 83 b8 bf b5 c1 07 89 d0 e1 d0 bf
       -0.0957595346269825 -0.26378262884011444
0001f0 c6 65 52 92 89 eb c9 bf f1 bc c1 7b c7 02 c4 bf
       -0.20250053066847168 -0.1563348154336164

transform_generator.3.weight f8 [64, 64]
000000 c1 16 17 3c b6 67 bc bf af df 78 82 d1 7f 97 3f
       -0.11095751730962446 0.02294852598990332
000010 b3 cf 26 fb 16 3f bc bf 7f 32 78 e3 2c 5c c2 bf
       -0.11033767348891281 -0.14343796831998998
000020 8d 2b 47 93 c6 32 f8 bf b3 b9 1f 93 f4 ed ab bf
       -1.5123964074179839 -0.05454983039804819
000030 4e 2d 60 29 97 68 98 bf ae d7 d2 01 44 ff bb bf
       -0.02383648099934748 -0.109363794751373
000040 09 14 e6 e9 04 7f e3 bf 7a 83 f4 39 fc 3b be bf
       -0.6092552727064923 -0.11810280241890139
000050 e3 04 14 95 0f b9 a4 bf 31 5f 7a a9 b4 b4 b0 bf
       -0.040474402378103645 -0.06525735032698489
000060 f9 c1 4f 29 a7 de bd 3f 49 4d 05 59 c5 b7 98 3f
       0.11667866476614809 0.024138530310051896
000070 90 75 a2 73 95 20 e6 3f 2f 11 84 f2 c5 80 b6 3f
       0.6914775141228109 0.08790242358015087
000080 bb d1 43 dd 8e 22 a1 bf b8 4e b2 00 6c 8c ba bf
       -0.033466782102468305 -0.10370516793255546
000090 f6 b0 ff a8 19 3c 94 3f bb 26 68 1a 95 e9 bf bf
       0.01976051420199184 -0.12465793509195582
0000a0 8e fb f1 65 18 5f c1 bf 51 ff a4 cc 89 8e bd bf
       -0.1357145784167781 -0.11545621153072473
0000b0 dc 22 d1 2b 8c 23 ab bf 02 18 e7 8c c5 85 ac 3f
       -0.053005581234690985 0.055708096933400966
0000c0 21 8c 60 12 c6 58 b5 bf 57 a9 e4 e2 24 dc 70 3f
       -0.08338582943592644 0.004116195761790862
0000d0 c4 3c 60 76 b4 1f ac 3f 1e b2 3b 87 db e1 c4 bf
       0.0549293894292702 -0.16314262488539638
0000e0 a1 29 45 3a 69 88 06 c0 23 d4 62 b9 d2 b8 9f 3f
       -2.816606955753017 0.030978481831614012
0000f0 25 f8 16 a6 19 4d bb bf 89 0d 6c 12 18 6a f5 bf
       -0.1066452055447092 -1.3384018630611954
000100 d5 77 c3 7f 13 65 b7 bf bd b1 53 10 4c 39 a0 bf
       -0.09138604993083217 -0.03168714236548762
000110 d7 74 85 a4 e5 eb 54 bf 93 0f ad 37 ea 23 cb bf
       -0.001276945362483508 -0.2120335361342965
000120 2b bd b3 af 38 4f a7 3f 15 43 40 3c c3 c2 9f bf
       0.045526286552439586 -0.0310163980030352
000130 c7 3d de 63 e9 59 8c 3f 51 5d 52 f5 f3 87 c2 3f
       0.013843367920144524 0.14477395514107141
000140 9f 1b d1 7b 31 cf aa bf 7f a6 60 f1 34 4e 99 bf
       -0.05236200939594159 -0.02471239779712286
000150 a7 78 6d 38 0b 97 97 3f ed 44 ce 0a 04 54 b3 3f
       0.02303712398440241 0.07550072921573632
000160 f3 d6 14 a2 e1 ed 76 bf 85 5f 0b 81 60 70 92 3f
       -0.005597955111900299 0.018006809116598816
000170 fd 3b 53 16 60 58 bb 3f d7 c0 3b 84 5f e5 65 3f
       0.10681725068137378 0.002672850185142388
000180 c5 6e 63 0f 49 36 bc bf 30 03 90 73 2d 25 e1 bf
       -0.11020332933133677 -0.5357882744866398
000190 13 a8 b2 88 d3 35 a2 3f 2e 21 60 27 31 e1 c4 bf
       0.03556691211390741 -0.16312231466896193
0001a0 a5 23 ec 87 17 60 a0 bf 47 e5 a7 56 d1 6d b3 bf
       -0.031983123151867056 -0.07589443555470608
0001b0 a7 93 9f 81 f4 52 ab 3f 87 1d 7e 0d 52 f4 71 3f
       0.053367272208368725 0.004383392828351324
0001c0 ea a8 d3 6a c4 c0 d4 bf dd 6b 92 67 27 93 89 bf
       -0.32426557953171076 -0.012487705086007434
0001d0 bf a8 f0 8e a8 13 c6 bf 56 61 a0 06 3a b4 95 bf
       -0.1724749277066788 -0.02119532266087395
0001e0 d5 ee bc 39 f6 40 c3 bf 7b 65 89 07 01 66 bc bf
       -0.15041997737158988 -0.11093145784379559
0001f0 8d d2 2c be 05 81 c3 bf b0 e8 65 9c d3 51 c6 bf
       -0.15237495218174893 -0.1743721498167523
000200 95 4b c3 4f 42 52 b0 bf bf 57 4d 3d c2 b8 7f bf
       -0.06375517318092101 -0.007744559047599907
000210 75 d8 a8 ce 7d d3 d5 bf 1b a1 a9 74 47 3e c3 bf
       -0.34103341275784455 -0.15033810802857137
000220 94 49 26 36 f2 ea 87 3f 57 1a 41 6f 55 ad a0 3f
       0.0116785929465422 0.032572431403015294
000230 35 2e 0d f3 04 0c 82 3f 14 ea 21 f4 c7 5f d7 bf
       0.008811987559645388 -0.36522101250707917
000240 b9 d1 7b 01 67 36 c0 3f 31 67 40 d2 8c 9f d1 bf
       0.12666022846646088 -0.27536316425686197
000250 e8 3c 1a c5 70 de cb bf d3 c3 ec d5 aa fc a7 3f
       -0.21772584556717978 0.046849573720812686
000260 b3 c7 f4 e4 a0 c6 b0 bf 38 82 aa 97 64 d2 d9 bf
       -0.065530830285552 -0.40346636592042584
000270 ac df 3f 8e ae 8d 47 bf 9d 71 d2 7c 3b d1 b8 bf
       -0.0007187940905159971 -0.09694263265050158
000280 2d 53 18 39 31 e7 b0 3f e9 b2 e2 4a 83 75 b0 bf
       0.06602771419450155 -0.06429310396442713
000290 db d3 79 ec 60 13 d6 bf b9 9f 84 be 8e 41 b9 bf
       -0.34493277638767744 -0.09865657950706365
0002a0 13 4e fb b3 87 91 a5 3f 2a 13 1f 99 b4 a9 da bf
       0.04212593147317647 -0.4166079993558919
0002b0 a3 17 42 87 79 9d 8a 3f 8b 21 fd f7 f3 a3 d0 bf
       0.01299567169213473 -0.2600068971410329
0002c0 b6 fa 0a 4d e8 67 a2 3f 3e dd 4e bf 14 71 83 bf
       0.0359490007444853 -0.009493028724917193
0002d0 3b 08 c7 d0 00 a2 d4 bf 4b 3d 86 d0 65 70 b2 bf
       -0.32238788975167026 -0.07202755299498624
0002e0 22 b7 3b 17 24 9e b5 bf 8e b6 41 d2 f9 c4 d1 bf
       -0.08444428984850252 -0.27764745266799984
0002f0 ad 69 5b 44 60 0a ac 3f a8 dc d5 f4 17 db a8 bf
       0.05476666292607333 -0.04854655135835034
000300 29 b1 88 ad f9 88 b5 3f d1 db d4 82 e6 1f e1 bf
       0.0841213272730711 -0.5351440959265067
000310 56 9a 2a 6b 74 b8 d3 bf d7 99 94 53 eb 0d b0 bf
       -0.3081332251116796 -0.0627123908094299
000320 ec 1e a5 e2 64 f4 d0 bf ad 18 df b3 45 3d d2 bf
       -0.26491663106251795 -0.2849897629315688
000330 76 5f 4a dc 13 fc d7 bf be 86 ad f9 2a ad d3 bf
       -0.37476059448953636 -0.3074443281421785
000340 7e 41 41 43 cb 51 7f 3f 47 d8 be 25 a3 b8 d5 3f
       0.007646364207247179 0.3393943661316183
000350 d3 95 f3 60 16 bf 7b 3f aa 07 d6 0a 55 1d d0 bf
       0.00677403203665024 -0.25179029520233576
000360 46 2d 2e 0a da dd c5 bf 52 38 c5 ae 3f 46 d0 bf
       -0.17083287713135514 -0.25428764407559357
000370 3b 89 d9 99 a2 df b1 bf 13 30 99 f8 be 28 a1 bf
       -0.06981865173432748 -0.03351399216316522
000380 e1 ca 08 bc 99 c1 bd bf e8 ff 77 ea 78 50 58 3f
       -0.11623535957987087 0.001484029848029417
000390 b7 5c 82 48 22 ec 9d bf db 71 d8 33 9d cb b2 bf
       -0.0292210919147606 -0.07341940418013541
0003a0 05 60 71 ce d1 96 b4 bf 47 dc ec bb f9 0c a5 3f
       -0.08042632379635968 0.041114620390026384
0003b0 af 43 70 0e e6 d5 d8 bf 9e 02 63 15 5b f0 d2 bf
       -0.38805533800137487 -0.2959201535086694
0003c0 b1 fb 60 5e c8 c5 ba 3f 8a c8 56 fb 83 d4 93 3f
       0.10458042434855376 0.019365370002284034
0003d0 0c 0b 44 5f f6 cc dd bf 8c ac ee 0a 38 79 c2 bf
       -0.4656349115686431 -0.14432430776409821
0003e0 04 28 ad 86 95 0f d5 bf f1 e4 96 d4 73 08 ba 3f
       -0.3290761771392001 0.1016914743439832
0003f0 76 8a a0 ea b3 ca a6 bf 0d c9 e2 03 5a b0 a7 bf
       -0.04451524962521074 -0.0462673310988909
000400 e9 28 10 30 fa 3c b4 3f ff d3 d8 97 68 e8 5e bf
       0.079055439695512 -0.0018864652078154351
000410 20 00 fd 64 0c b5 d0 bf 28 38 a1 b5 00 b4 c6 bf
       -0.2610503183568671 -0.1773682486404493
000420 a7 1a 93 28 cb ea b5 3f 81 1a 8f af 32 60 b2 bf
       0.08561391583053056 -0.07178036485775331
000430 4b 21 af ce 0c bd c7 bf 77 f4 55 38 ee f4 a5 3f
       -0.1854568490218845 0.042884296776699075
000440 f8 7e a7 21 55 3d b2 3f 13 fe 3c d2 2a 24 ce bf
       0.07124836036336635 -0.23547873750247614
000450 d0 09 4f bc 7a 63 c2 bf 55 c7 79 c2 37 98 bb bf
       -0.1436608714557921 -0.10779140947286454
000460 7f 5c 52 0f f5 a8 76 bf 66 00 45 be 88 35 c1 bf
       -0.0055322239542398 -0.1344462327051616
000470 bc 25 0b c4 9d 3f a4 3f 17 bd 39 82 7d 60 96 bf
       0.03954785364255595 -0.021852456162773395
000480 79 67 82 f5 db ed be 3f 3f 14 71 60 9c a0 cf bf
       0.12081694358712793 -0.24708895405834316
000490 51 7e 5c ef 88 80 bd bf 9b 98 50 f2 98 5c a1 bf
       -0.11524253696233556 -0.03390958745903668
0004a0 56 3f b1 aa f2 b7 a3 bf d2 85 81 91 de d1 b2 bf
       -0.03851278623244407 -0.07351485302344621
0004b0 01 a7 0b a0 2c a7 c2 bf 47 41 fe 62 df 41 c4 bf
       -0.14572675528261672 -0.1582602723469881
0004c0 3f 1c 4f d5 84 f8 be bf be 85 45 ca eb 59 db bf
       -0.12097959716548788 -0.42736334565242007
0004d0 05 09 d9 44 ed 93 b2 3f 22 e0 07 e1 33 6a 86 bf
       0.07256968432287543 -0.010944752983945764
0004e0 4e c2 3f b8 d7 c1 d7 3f 5d 70 ac d1 ae 5b bf bf
       0.37120621674606447 -0.12249271983131522
0004f0 9d 94 fd 2f a8 9a 67 3f 61 e0 6c b3 a0 af e0 3f
       0.002881363383425552 0.5214389328384749
000500 27 80 cf a1 76 b5 bf bf 07 c0 75 8f 75 11 a9 bf
       -0.12386266184285032 -0.04896132827968818
000510 40 71 a9 51 3e 46 c7 bf ad 61 ff 82 3b 9d a8 bf
       -0.18183115947148032 -0.04807458852855304
000520 b2 02 14 57 c2 d3 c4 bf c8 49 a0 b7 36 e7 97 bf
       -0.1627123761354788 -0.02334294791951111
000530 df 1c f8 04 c3 c8 c1 bf 75 0e 49 bd ac ae af 3f
       -0.13893926375042207 0.061879537683606246
000540 9b d7 d1 54 2b 30 94 bf 00 2d 84 1f 98 f7 b5 bf
       -0.019715001155837446 -0.08580923814240649
000550 96 95 c3 b8 cd 49 c4 bf 59 f1 d8 a1 74 7c cd 3f
       -0.15850230714492558 0.23036058333117174
000560 d1 20 99 f8 21 f1 b4 3f b3 4c 60 b4 f0 2b bb bf
       0.08180439299860899 -0.10613922504153343
000570 df 94 f6 d8 14 b4 72 3f 2e df f3 f2 70 e1 85 bf
       0.004566270289989321 -0.010683901228261652
000580 37 a2 44 8c 56 bc be 3f 1c 27 99 b2 89 d6 ab bf
       0.12006131100191274 -0.054371169139427716
000590 97 96 5f fb 0c 4d 9b bf 0e c4 7a 09 be 13 c6 bf
       -0.02666111263524459 -0.172477488163651
0005a0 0b 1a 5a f1 d4 b7 c3 bf ab d5 50 ac 44 10 b3 3f
       -0.1540476015545241 0.07446698386123411
0005b0 f6 cf ea f1 af ce a4 bf 55 97 df 81 35 15 c6 bf
       -0.0406393988427282 -0.17252224770998717
0005c0 d7 97 12 36 4b 44 be bf ae 8d aa 99 a6 df b3 3f
       -0.11822958059437326 0.07763139011017614
0005d0 01 61 09 d7 14 b0 c2 bf 9b 1d d7 72 a4 3a d9 bf
       -0.14599857807002795 -0.3942042466628323
0005e0 ee 18 a7 5c cd f1 cf bf e1 2c 59 b2 e8 bb ba 3f
       -0.2495667173772697 0.10442976335723443
0005f0 b7 b6 b8 07 b4 cb cf bf 7e 55 60 17 9a 6d 96 3f
       -0.24840402962711547 0.021902473141456984
000600 3f e9 0b a8 e4 12 93 bf 7f 7f 6b f6 9e a2 7d 3f
       -0.018626759297128755 0.007235165546006671
000610 c4 c8 e0 0a 25 71 92 bf e8 b5 73 6d 61 95 8b 3f
       -0.018009737767166425 0.013468514588079253
000620 67 21 c4 95 74 d9 ec bf ef a8 81 64 03 3a 9a bf
       -0.9015448498840158 -0.02561192799513717
000630 1b e9 f0 41 e8 89 77 3f b6 17 1d bf 5a 45 cf bf
       0.00574675298326557 -0.24430403072090962
000640 3c 07 ed 34 e1 2e 78 3f b0 c1 34 fb 94 d2 b7 bf
       0.00590408297904493 -0.09305697567902516
000650 37 a2 55 72 7f 37 b2 bf 41 02 53 e0 84 c6 b3 bf
       -0.0711593298089007 -0.0772479102770456
000660 e9 a1 d6 85 b7 1f be bf e2 49 8f 3e 54 b6 80 bf
       -0.11767146127261409 -0.008160265120669533
000670 71 f5 c2 e5 f5 c9 d3 bf 77 d2 0b 0c 9f 1c a9 bf
       -0.3092016929402553 -0.04904648801849459
000680 c5 51 9a 3e 2f 59 b3 bf f7 2b b1 83 29 17 97 bf
       -0.07557959822071954 -0.02254929415020609
000690 14 b8 38 ce 55 f0 ac bf bf 16 f0 1d 7b bb 95 3f
       -0.05652111189225209 0.02122299547411077
0006a0 46 c6 28 39 da cf a1 bf 41 a2 fa c5 96 96 d7 bf
       -0.03478891322846471 -0.3685662206067129
0006b0 a6 71 97 13 c4 33 c6 bf 2d 7d c0 f0 2a 49 b6 bf
       -0.17345477062816633 -0.08705395105106524
0006c0 ca 54 b8 99 af 2d b5 bf ee d6 c4 c2 b5 b9 89 3f
       -0.08272836211138493 0.012561244970679532
0006d0 1e f4 40 57 07 29 c2 bf 4a b2 6b 76 42 ba c2 bf
       -0.14187709579883373 -0.14630919248829094
0006e0 43 29 71 53 be d3 eb bf da 75 2d 06 22 7e 80 3f
       -0.8695975904204619 0.008053079427265897
0006f0 2a 51 12 3e 85 9f c9 bf 0c 07 6e b2 dc 78 c4 bf
       -0.20018067866170358 -0.15993841850654922
000700 7f 3a 37 e3 b2 ce 51 bf 2e d2 92 04 ed 24 b7 bf
       -0.0010868784855692368 -0.09040719377191728
000710 4a 9b 39 b5 22 34 be bf 08 9a ee 4c 96 8b d3 3f
       -0.11798302578391176 0.3053947211541588
000720 f5 7e 8d 83 d6 fb 95 bf 10 8b f6 f4 83 e0 ae bf
       -0.021468498019543387 -0.06030666699668619
000730 25 e2 67 5b 1d 3a 88 3f 87 b2 b7 5b ee 49 e7 bf
       0.01182959494779918 -0.7277747908934352
000740 70 cc dd 92 59 ad b9 3f 8c 19 17 36 ec 4b e0 bf
       0.10030135951619612 -0.5092679077577471
000750 5a ac 00 98 f0 eb 94 3f ed e8 7d 25 9c ca d7 bf
       0.020431288983825936 -0.37174132977783253
000760 30 76 e9 81 57 99 e4 bf 49 94 d4 61 97 9a 89 bf
       -0.6437184846251451 -0.012501890824362276
000770 0f 78 45 60 97 34 b6 3f b7 f1 b1 54 13 e5 d4 bf
       0.08673997974753454 -0.3264816596127064
000780 30 e4 23 d0 28 bc 98 bf 02 ec ac 80 36 8b ce bf
       -0.024155271247739474 -0.23862344058019863
000790 4b ad ae 4b e6 e7 af bf ab 0a 71 25 57 0c b6 3f
       -0.062316128481450926 0.08612579979039008
0007a0 5d 38 0f bf e7 b2 cb bf cb 49 59 37 9c 28 b5 bf
       -0.21639725522112743 -0.08265091277397756
0007b0 ee 08 32 24 8c c3 ae bf 8f 54 fa 4e de 56 c8 bf
       -0.06008565847243284 -0.19015101295795886
0007c0 2b 71 6c 0d ce 9f dc bf c1 00 c3 11 3a 19 b1 bf
       -0.4472537165727483 -0.06679118093143456
0007d0 b6 d1 0c 3a df 39 b1 bf 39 ac c9 3e 29 a5 d5 bf
       -0.06728930632818372 -0.33820563441867396
0007e0 e5 05 6b 75 b3 88 5b bf 8b 3a bd d0 fd c3 bd 3f
       -0.0016805412794130778 0.11627184244319204
0007f0 c4 96 aa 03 26 92 ad bf 76 5c 79 ec 9c 37 89 3f
       -0.05775564951663406 0.012313104597678964

transform_generator.3.bias f8 [64]
000000 4e d7 d0 4d 59 5d b4 bf 51 72 b3 35 41 b7 d3 bf
       -0.07954939031409688 -0.3080599808143108
000010 c3 c9 fd f1 e1 bd d0 bf fc 9a 37 dd dd be 86 3f
       -0.2615895140835642 0.011106236756814429
000020 f0 5f 4a 76 75 b8 71 bf 8c c9 9c 57 9a 9c af bf
       -0.004326304279537382 -0.06174166030395431
000030 09 8f c1 2a 7b 64 d2 3f 1c eb 30 a8 03 3b d3 3f
       0.2873828809299402 0.30047694611464393
000040 04 99 59 b5 87 8c b8 bf 9e 37 6c 6b 83 7f c7 bf
       -0.09589431931962983 -0.18357889886140993
000050 3e 90 dc cb ed 5b c3 bf 18 42 71 32 aa fb b3 3f
       -0.15124294714144243 0.07805885058883921
000060 34 a9 2a 53 3f 3b d1 bf 1d 6d 01 38 a6 e7 c5 bf
       -0.2692411720442067 -0.1711318753685668
000070 c6 83 9f 5d 95 18 84 3f 17 d6 80 54 51 b2 b1 bf
       0.0098125142284874 -0.0691271621043018
000080 6a b8 61 05 1c ca 81 bf 47 99 68 7b 2e b2 bd bf
       -0.00868627444671351 -0.11600008500008584
000090 48 85 e2 a8 de 9c b1 bf b6 b1 e4 0d d9 39 b0 bf
       -0.06879989264645758 -0.06338268841927328
0000a0 59 c1 95 d5 ef 37 c3 bf 7a 8c 38 10 77 d0 a2 bf
       -0.15014455727533507 -0.03674671242722467
0000b0 7a 9d 71 c6 c0 e3 b2 bf 7f 43 44 fe 05 95 b1 3f
       -0.07378773541278419 0.0686801667946053
0000c0 b9 c0 4a e8 f8 e7 a3 bf bc 47 9d 3d 70 6b ba bf
       -0.03887918315501921 -0.10320188049561713
0000d0 47 21 48 b6 4e 5c d0 3f 98 d5 8e 5e 71 2d d0 3f
       0.2556340007872859 0.25277361139463883
0000e0 48 1b 6b aa 78 9f cc 3f 58 dd 89 ea 4e f0 bd bf
       0.22361667939386565 -0.11694806314505024
0000f0 8c 6c 96 c6 85 05 d3 bf 87 b2 74 a1 fe a8 b8 bf
       -0.29721207040137965 -0.09632865373414222
000100 fe 7c fd 8e 55 4a bc bf cf dc f7 1f 68 df 84 bf
       -0.11050925007792853 -0.01019173953589672
000110 5e dc 24 31 c1 e6 d0 3f 05 0e f3 8a 17 99 c1 bf
       0.2640841464921716 -0.13748449597015636
000120 47 65 0a ec 9e b7 c1 bf ca 51 c6 c8 c4 e7 56 bf
       -0.13841616177959734 -0.0013980313989111364
000130 ae 45 e8 76 68 39 c1 bf 20 23 c8 8c 88 e6 c2 bf
       -0.13456445508977083 -0.1476603209887566
000140 a8 49 56 0e 1f 49 d4 bf be 1c 06 d6 31 dc b6 3f
       -0.3169629707346311 0.08929740405266082
000150 94 d1 a6 6a 7a 0f c4 bf 0d 4b a1 bd 7f 0d a6 bf
       -0.15672235686873803 -0.04307173909969295
000160 ad a9 a8 a7 1a dc 89 bf 15 d6 bb 64 ba b6 b8 bf
       -0.012626846543828696 -0.09653820952720367
000170 b9 1c c2 56 c6 6e c3 bf c4 d1 d5 ea 47 69 95 3f
       -0.1518180774330398 0.020909427364544944
000180 22 e0 d5 ee a1 d5 b6 bf af 52 13 af 25 dc c3 bf
       -0.08919727402633318 -0.15515585945708696
000190 51 a4 a9 8c 97 ce b7 bf 7d af 7b 1e 44 84 d0 bf
       -0.09299609359881457 -0.2580728814780214
0001a0 35 45 af 24 50 c7 c9 3f 5f d5 08 09 fe c5 c8 bf
       0.2013950518726603 -0.1935422462571905
0001b0 77 10 96 34 70 33 b7 bf b7 00 34 6e b0 2c b5 bf
       -0.09062863620607851 -0.08271315279489753
0001c0 47 06 7d ac 11 46 c1 bf 80 cd d1 3a a9 7e ca 3f
       -0.13495083734783206 0.2069903886036677
0001d0 69 5e 6b 5a e7 14 c5 3f 03 58 de a8 24 4a c0 bf
       0.16470043101320478 -0.1272626709512111
0001e0 e1 ee 11 f8 ea 0c a5 bf fc 00 70 a6 90 0c bd bf
       -0.04111418035696857 -0.1134729772893514
0001f0 22 ab c8 fd 4c 82 bc bf ba 6f 05 68 fa 7c 9b 3f
       -0.1113632316197877 0.0268439413060688

transform_generator.6.weight f8 [3, 64]
000000 cf 07 d0 54 25 b9 9c bf 17 1f de 14 16 84 d0 3f
       -0.028050025273848974 0.25806190526826484
000010 d2 6d 81 89 16 87 c2 3f 65 fd da 05 d5 fe 92 bf
       0.14474755968227143 -0.018550232393633865
000020 51 f2 b1 5c 90 19 82 3f 79 53 73 1b 72 a8 91 bf
       0.008837821797208852 -0.017244131970830055
000030 4e 16 9e 68 2f f2 ab bf 6a ce 94 73 b9 7f 9d bf
       -0.054582101364797894 -0.02880754249527088
000040 15 df f6 0c c4 ee 93 bf 5c 1c 7c 13 7b 6f 86 3f
       -0.019465506831436736 0.01095482018673815
000050 4b c3 82 bb e6 77 97 bf b1 cc 2e 00 9c 5e a5 3f
       -0.022918324656248584 0.041737437269511964
000060 0d 25 f0 78 5e cf a9 3f c4 72 3b e3 7a 9a 7f 3f
       0.05041022516531699 0.0077156830118069765
000070 d8 69 a3 53 26 2c db bf 87 58 37 84 44 eb a7 3f
       -0.42456968467527423 0.046716824664756955
000080 bc 95 b3 53 4b 40 96 bf 14 56 ed 04 f8 1b 97 3f
       -0.021729638084158273 0.022567630100942607
000090 27 5b d0 6f e1 56 9a 3f 32 e5 8a f1 00 93 b2 3f
       0.02572204823453741 0.07255559823069715
0000a0 f3 88 41 92 a6 9d 71 3f 52 14 9c 79 58 f6 6a 3f
       0.00430073801917018 0.003291294863518015
0000b0 83 29 69 d6 df 02 b2 3f ee 8b 0f fa fe 42 77 3f
       0.07035635933531208 0.005679126742481151
0000c0 70 d2 6a 3b ec 28 9d 3f 79 27 4f c6 a4 46 9c bf
       0.028476420523207258 -0.02761323414214398
0000d0 ad a2 18 52 79 59 74 bf 5d a8 27 1b 3b fa 9e 3f
       -0.004968141468943682 0.03025143006554064
0000e0 fc 5b 13 73 b5 74 a5 bf 2d 57 08 0f 12 4c b3 3f
       -0.04190604238254278 0.07537949435240128
0000f0 61 fe 46 10 98 e3 b8 3f ee 9f 3d 2a c7 4c 71 3f
       0.09722280881305202 0.004223611820499669
000100 18 c6 7a 56 91 c5 86 bf ad d4 89 97 7e 13 88 3f
       -0.011119018031737801 0.011755932807526593
000110 82 91 21 8e dd 43 7d bf e3 63 e0 70 3e 0a b2 bf
       -0.007144799661635283 -0.07046880965971485
000120 58 84 2a 76 b8 fa 9f 3f 31 1d 50 21 e7 d7 9b bf
       0.031229860508237145 -0.027190791519413785
000130 03 9f 61 ba 0a 62 96 3f 68 a7 8a 08 01 97 97 bf
       0.021858375192464596 -0.02303697218545811
000140 e5 39 0f 43 32 d4 a1 bf a9 14 e0 67 01 37 a5 3f
       -0.034822054563495 0.04143528359421939
000150 9d ea 2e 77 cd e3 98 3f 04 ac 6d f2 21 c9 cc bf
       0.02430649795472083 -0.2248880799992038
000160 7b ce 96 ae 72 db a9 bf d3 dc 7d 3c f3 a2 ab 3f
       -0.05050238019194083 0.0539775859205577
000170 e6 de 5f 75 36 50 9e 3f 8a 9e 54 e1 da 7d 9a 3f
       0.029602862276049267 0.02587072372730729
000180 b5 eb 93 f7 bc 79 a7 bf 47 92 f0 39 b1 51 8a bf
       -0.04585066339674119 -0.012851128178291605
000190 d1 5c 37 2f 01 8d 90 bf ec 13 ac 60 1d 64 86 3f
       -0.01616288996396237 0.010933141243649268
0001a0 76 88 3c 66 a5 13 94 bf bb fa 92 fd 51 91 a8 bf
       -0.019606193890588895 -0.047983705715059576
0001b0 b4 72 39 32 10 39 a4 bf 9c db 14 4b 92 78 b1 3f
       -0.0394978581723299 0.06824602444690558
0001c0 63 e8 58 e1 20 05 8d bf b0 d7 3a b8 6d d8 dd bf
       -0.014169937970212659 -0.4663347529525437
0001d0 3e d1 f1 99 96 e7 ab bf d3 07 1c b3 f0 f1 b4 3f
       -0.054501253406586944 0.08181671498098746
0001e0 49 03 e2 82 02 91 b0 bf 21 e2 cd f7 3b da 7c 3f
       -0.0647126740968932 0.007044061899130345
0001f0 95 1a f7 b6 59 70 98 3f 34 65 eb b0 91 1c 63 3f
       0.023866082947075446 0.0023329587487352036
000200 fc e8 2b 45 6c e8 c1 3f 43 9a 54 4a a2 de c1 3f
       0.1399054849387723 0.1396067488614837
000210 33 87 2a 77 0f af a6 3f 70 06 ce 69 0f 4d d8 bf
       0.044304354950567414 -0.379703381848322
000220 fd f7 04 f3 61 d9 b9 3f ff 66 fa fc 39 4a b9 3f
       0.10097324545947113 0.09878885675643899
000230 e3 8e b3 af 8f 92 c4 bf 14 04 48 cd 48 ea c4 bf
       -0.16072269515199542 -0.16339979194165777
000240 df 9e 34 db 61 17 c5 3f be 0c 8c 8e d1 31 d9 bf
       0.16477606967349964 -0.39366568489658593
000250 9a 91 a2 22 b3 b4 db bf d8 e4 c3 a2 96 35 c6 3f
       -0.4329040373070484 0.17351038882751513
000260 57 38 12 1a 7d eb c6 3f 96 1b b0 b3 df 45 d2 3f
       0.17906154416090445 0.2855147604718068
000270 bd 52 e9 56 9a 67 e1 3f fb f0 ee bf 64 3c c4 bf
       0.5438968369949958 -0.1580930649923927
000280 fe 6c 10 3d 37 19 b0 3f a1 46 6a 59 2f 38 c0 bf
       0.06288476219963354 -0.12671462884877818
000290 b3 00 03 0e 3d fa c7 3f b5 55 57 83 b1 b1 98 bf
       0.18732417282263256 -0.02411534656660815
0002a0 d1 a1 60 9e 51 bf ba bf 94 21 64 ca cc 0b 6d 3f
       -0.10448179356229238 0.0035456657234400144
0002b0 32 31 55 ce c9 c7 9d bf 88 44 db 6e eb 85 bb 3f
       -0.029082444399407943 0.10751220184762833
0002c0 c8 96 e4 a9 a6 54 b2 bf f3 d8 67 e9 78 44 c8 bf
       -0.07160417220856197 -0.18958960911522346
0002d0 a7 eb fe 38 28 e1 e0 bf 46 d8 8b ea e7 73 ea bf
       -0.5274849999617474 -0.8266486721975148
0002e0 0b 74 2b 20 a0 1d d1 bf f5 fe 84 69 34 99 bd bf
       -0.2674331964643108 -0.1156189687362675
0002f0 d5 4f a7 74 f2 8b 83 3f d4 e4 81 01 93 d3 c4 3f
       0.00954427164553088 0.1627067334518758
000300 80 22 6e 11 a6 ab d0 bf a6 aa 31 45 84 80 c1 3f
       -0.26047660543603257 0.13673451784719254
000310 9c 0f a7 36 42 0d e1 bf 97 e4 c6 b4 43 54 ca bf
       -0.532868487113308 -0.20569654776571575
000320 e2 8f 59 83 6a cd c3 bf 9d 4d 34 8a cd bb cc 3f
       -0.15470630086485843 0.22448128937012948
000330 4e fe 30 10 0f 57 a0 bf b7 02 b7 06 5d 7d ba bf
       -0.03191420624397932 -0.10347539342820765
000340 6f cd a1 18 5c 09 dd 3f 74 0f d7 4a b5 85 e9 3f
       0.4536962738559031 0.7975717984886459
000350 0e da 3a b1 b1 ee be 3f 90 2f 0a a9 56 dd d8 bf
       0.12082968308354955 -0.38850943095962354
000360 b0 c2 a8 16 92 59 7c 3f 39 9a 13 5a 9e 39 bd bf
       0.00692135873627879 -0.11416043948302325
000370 1b a9 4f 06 cd c6 91 3f 76 6e 4e 1a d9 00 cd bf
       0.01735992766399717 -0.22658838066569204
000380 96 4c 0a e0 79 f0 b0 bf cd b5 c7 fa fa 02 c0 3f
       -0.06616937370044904 0.12509095425723019
000390 bf 69 eb 37 57 78 c7 bf a7 df 57 d7 a2 57 ca bf
       -0.1833600066227756 -0.20579944147880022
0003a0 0d e2 9a a7 22 f8 e4 bf ea 8a 8e 2a 7a 6b af bf
       -0.655289962152041 -0.06136686105243945
0003b0 54 60 a7 02 f4 19 98 bf 4e 88 46 ce 6b 19 73 bf
       -0.023536503469444206 -0.004662915340675934
0003c0 18 37 a1 87 08 dd a6 bf 18 ae f8 2b 65 54 d7 3f
       -0.04465510039936599 0.36452607435305273
0003d0 3c f8 b3 4c 4d dd c4 3f b8 8d 65 cc 75 b4 bb 3f
       0.16300359959854116 0.10822235336450248
0003e0 81 3f 30 2c ac 84 c3 3f 72 04 03 72 0a 35 b8 3f
       0.1524863448871621 0.09455933841219791
0003f0 a5 09 bf 6c ac 62 c7 bf a6 b8 de ac 51 a3 ba bf
       -0.18269877729296727 -0.10405455084284884
000400 4f 1e a5 9f 82 33 a5 3f 33 0b 35 9a 8f 1d b8 bf
       0.04140861700812747 -0.09420106425117751
000410 7f d6 21 29 94 e5 64 3f 55 17 ff 72 58 a6 bc 3f
       0.0025508779299865942 0.11191323096781265
000420 a3 ce 2f b9 bb a8 a9 bf a3 15 52 58 1a 01 b5 bf
       -0.05011545787411122 -0.08204807907357874
000430 8f 8d 4c 09 3a 95 9b 3f 17 52 61 e4 a5 0a a9 3f
       0.026936442201202445 0.04890936291545616
000440 5d 6b 2d 16 62 08 b8 3f b3 d2 0f 66 a7 92 b6 3f
       0.09387791673127084 0.08817526094191912
000450 b3 4a 3f a9 0a 15 b7 3f 2f bc 63 05 dd 35 ae bf
       0.09016482002270258 -0.05900469485083481
000460 8f 81 d9 2c 27 ef be bf 4f 28 74 c8 78 7c aa 3f
       -0.1208366856094527 0.051730894536448184
000470 63 3b 82 f2 99 8e a5 bf ff 57 7e d1 42 de 30 3f
       -0.04210358701049335 0.00025738841349587366
000480 5f 59 8e e1 98 6c b2 3f 25 dd 75 a2 ac 72 b0 3f
       0.07196956164111644 0.06424979177778718
000490 15 a2 13 2d 36 8f b2 bf 93 e6 9b c1 2f 96 a7 bf
       -0.07249773598199057 -0.046067707427892256
0004a0 93 7f 53 39 bd 49 a1 bf 7d 70 6e a2 af 48 bb bf
       -0.033765710113356516 -0.10657785144434402
0004b0 8d 1f a6 5c cf 13 b3 bf af bd 41 2b 1d b4 b0 bf
       -0.07452102672516343 -0.06524832063745721
0004c0 d7 4a 31 5e e8 dd a9 bf f7 37 33 7c f0 91 bd 3f
       -0.05052114629565601 0.11550810844639146
0004d0 5f 8f ff 13 5d bb 76 bf 6b b7 d4 5c a7 50 bd bf
       -0.005549777590179022 -0.11451192871456121
0004e0 03 2d 30 6b 34 1a ad 3f fb 99 28 be b1 16 b7 bf
       0.056840551456923925 -0.09019003765624937
0004f0 17 41 30 da 12 d4 b3 bf bf 89 2e 1f c4 0a bc 3f
       -0.07745473696582326 0.10953927766107706
000500 db d3 29 f0 d1 22 b1 bf 07 42 e1 48 72 7b 9a bf
       -0.06693756211627948 -0.02586153573821728
000510 3f 23 c6 da e8 c3 66 bf a3 9a 9d 7f 0f 92 ab bf
       -0.0027789638463144024 -0.05384872849281421
000520 43 88 d9 81 d8 ed b1 3f ff 6f 40 b7 84 2a b4 bf
       0.07003548784408146 -0.07877377962034869
000530 cf de ec 72 39 50 bf bf 9f 20 ce 02 a7 6c b2 bf
       -0.1223178773478779 -0.07197040384756058
000540 f3 b1 9d 7c ec 47 a8 3f c1 9b 1a 2d d5 e3 bb 3f
       0.04742373486701359 0.10894520140810383
000550 e1 10 2b 5e 4f 9d bb bf bf 0d 10 08 1a 6e 86 3f
       -0.1078691105749985 0.010952189799360633
000560 d3 10 1a 62 da 90 b2 bf 2f b8 29 39 a5 25 be 3f
       -0.07252278227867075 0.11776192327099076
000570 d3 72 d8 2e 3d 48 ab 3f 8f d6 f0 82 e4 2b ba 3f
       0.05328551480144985 0.10223224827572096
000580 a3 70 47 4f 01 9a aa 3f 3f dc b6 ab db 20 b0 bf
       0.05195621578943246 -0.06300137464755638
000590 ff b0 b8 9e d1 5e 44 bf cd 76 d5 94 d7 bd b4 3f
       -0.0006216548476394578 0.0810217607845189
0005a0 87 ac ee 13 b3 2d 90 3f 7f 15 d6 f9 16 e2 83 3f
       0.01579932984502055 0.00970857572498107
0005b0 57 40 27 30 f9 7e ba 3f d7 ef 18 d2 f4 c2 b2 bf
       0.10349996018999384 -0.07328729752856532
0005c0 5f 77 0c d8 dd 30 7d bf bf 24 01 59 01 45 9e bf
       -0.007126680925265776 -0.02956010919323115
0005d0 2b 74 35 a5 a1 cf bb bf 3b 72 36 72 4d 94 b2 3f
       -0.10863695414941847 0.07257541693110962
0005e0 11 88 9b 8b d3 07 ba 3f 0f b0 f8 91 c4 8b be bf
       0.10168192060839966 -0.11932018817668698
0005f0 bb 7b 20 af 31 94 ae bf 51 2b 85 f8 89 58 b5 bf
       -0.05972438109187502 -0.08338224713695054

transform_generator.6.bias f8 [3]
000000 75 26 ab 62 31 19 93 3f 83 cc 58 5a d5 42 c7 bf
       0.018650790831804948 -0.18172709380596438
000010 e8 ef 7f e6 8c 3f 9c bf
       -0.02758617550715306
