models/livneh-livneh/QM_SST_layers2/2000/1980_1990/R5noisy0001d/model.pth (torch, 5184 bytes, 4 tensors)

transform_generator.0.weight f8 [64, 2]
-0.6248639184270578 -0.6181383692035477 -0.5323296809485498 -0.6327471996353058 -0.2455129138472035 -0.0417914613288749 0.053857894202036426 0.09131660482893388
-0.645045806607264 -0.476688335062484 -0.48499959498877493 -0.1762576335929933 0.33615758400681217 0.0557085859162801 -0.3480470745395614 -0.02977314156308214
-0.7253157913805842 0.11205914897071076 -0.11597319838755739 0.037388567303452865 -0.9012632739404332 -0.022058701056784043 -0.2655346042106511 -0.2700316668669505
-0.6627850941920799 -0.6500199751567409 0.133794364693353 -0.047844638438688046 -0.37606192159162516 -0.4944454394575903 -0.35092971197685524 -0.3770177546518542
-0.3879681379185343 -0.2579980946255974 -0.014393883342840074 0.05769250662038958 0.1642685756556456 -0.1830856062754724 -0.2697700136652267 -0.09573694857099803
0.2596131042475552 0.020728509293889356 -0.18270115178976476 -0.15881849400433765 0.3769353853853064 0.03964150905774542 -0.23811687313735724 -0.43955000118048615
-0.0730262604292894 -0.03405747425538902 0.13006747658686532 0.021115156298217256 -0.4840352254091698 0.19767202864312805 -0.3752350427422478 0.21488559319708456
-0.43814859470417417 -0.11969189737254646 -0.10585546542481765 -0.054355175623579194 -0.8284866385552855 0.05382804523441977 -0.4512552000935137 0.06565376323208015
-0.20664525172083614 -0.08260831131099586 -0.22331818733199313 -0.007898204598735506 0.03897457307093099 -0.22387969605051267 -0.13992466085337057 0.23240797114170833
-0.4039967279543415 -0.38498355892564917 -0.12848519277190873 -0.4835670631864276 -0.23859844718901152 0.02857830204080899 -1.1530215528649752 -0.046120736979355294
0.14322529441569953 0.008345095462830639 0.28740629509915144 0.016642265592222462 0.11179226148967722 0.023741636502518527 -0.5180121005662223 0.0450442412935806
-0.9537276117156525 -0.3392025332292397 0.04335394704121728 0.11970462982068879 -0.5829828140996057 -0.006068312699662368 0.7058441666269009 0.03840057503554325
0.0540757078230886 0.10905937191886612 -0.7481712037512175 0.42270522602518856 -0.18812809200415231 -0.18594348286944087 0.13320048191512404 0.09147841083810693
0.023531684653032472 0.12194985431859626 -0.05059473595959618 -0.18563886049246547 -0.12093742127202083 0.03249049292015507 -0.25848256467435615 -0.26232440069122737
-0.6777148338761052 -0.6639185375695881 -0.4702291351928483 0.2073279902709867 0.0895367417293089 -0.04302314088396691 0.4378773840513106 -0.0070269425583648635
-0.06917846348929746 -0.1847759685140308 -0.3237047181332674 -0.16074317626125068 0.07051852513222118 0.20585725655972548 -0.35670898260977874 0.21487465155472257
00000000: 2b07 c39d e2fe e3bf 6f39 041e cac7 e3bf
00000010: 00a7 4b41 d808 e1bf 1037 220e 773f e4bf
00000020: 7315 dc97 f76c cfbf b0b2 51bf b065 a5bf
00000030: 5b56 750c 4393 ab3f 5770 5267 8660 b73f
00000040: be9a 791a 37a4 e4bf 8498 5eca 0f82 debf
00000050: c133 c3bd 3b0a dfbf 90e3 f931 9c8f c6bf
00000060: f624 6719 9b83 d53f 0ad1 3bf5 d585 ac3f
00000070: c06a a73c 6746 d6bf 701e 40b5 d97c 9ebf
00000080: 1f10 6876 c935 e7bf befa 0b8c e8af bc3f
00000090: 017e 4966 6bb0 bdbf 6110 a023 9824 a33f
000000a0: 201f d513 26d7 ecbf 7246 865e 8e96 96bf
000000b0: 92a0 42da 84fe d0bf a1fc 84e6 3248 d1bf
000000c0: b499 fa15 8935 e5bf 1b70 e1b0 f6cc e4bf
000000d0: 479f 5f7a 2c20 c13f f326 c4aa 177f a8bf
000000e0: cf71 a005 6611 d8bf d31b 087c fea4 dfbf
000000f0: a3a8 08e5 a175 d6bf 9f6d 8f13 0f21 d8bf
00000100: 0102 1050 78d4 d8bf 6a39 b670 0a83 d0bf
00000110: 796e c251 8a7a 8dbf 0c53 514a df89 ad3f
00000120: bdca 19b0 c006 c53f 7726 a961 596f c7bf
00000130: 428d 8872 e943 d1bf f19a 2177 3782 b8bf
00000140: 6dcd 1648 809d d03f 7e60 0cb6 da39 953f
00000150: 0875 f057 c062 c7bf 33d2 df16 2a54 c4bf
00000160: d1d7 3b98 b51f d83f 4d28 ef51 e44b a43f
00000170: ee17 601b 9d7a cebf 8ab9 0154 9621 dcbf
00000180: 8900 4b58 d9b1 b2bf c8f6 3834 fb6f a1bf
00000190: db5e 1b13 0da6 c03f 41ca 0027 369f 953f
000001a0: cda3 cfe1 6efa debf 4c98 2d29 514d c93f
000001b0: 0d08 39d7 d903 d8bf 70de 9401 5f81 cb3f
000001c0: 05bd 4267 a00a dcbf beaf cfd0 20a4 bebf
000001d0: 333a 1a02 5819 bbbf 24dd 570b 71d4 abbf
000001e0: d592 3869 f682 eabf e364 c77b 598f ab3f
000001f0: 0c4d a37d 5de1 dcbf afec f05d afce b03f
00000200: 00e1 0103 5a73 cabf 2e61 757b d125 b5bf
00000210: 57b1 98bb b095 ccbf 95e8 9613 ef2c 80bf
00000220: 1f30 6ea9 79f4 a33f 663f 6302 17a8 ccbf
00000230: 7672 2221 0de9 c1bf 9511 b15d 8bbf cd3f
00000240: 6050 9017 15db d9bf a455 c514 92a3 d8bf
00000250: 94e0 7cea 3372 c0bf 02be 7344 c3f2 debf
00000260: dace c6d7 648a cebf 37db 8f62 a143 9d3f
00000270: 1536 52ba c672 f2bf a5cc fc21 239d a7bf
00000280: f0d9 bcd9 3455 c23f a443 c2c0 3b17 813f
00000290: 6562 875f dd64 d23f 7abd cc89 ab0a 913f
000002a0: 7646 0beb 6a9e bc3f 0dcd 5341 ba4f 983f
000002b0: 6da7 db1c 8e93 e0bf 8a47 75ee 0910 a73f
000002c0: 9b8c b3c4 ef84 eebf f127 bc8a 7eb5 d5bf
000002d0: 4c9b 6311 7d32 a63f 1378 426e f6a4 be3f
000002e0: e702 1693 cba7 e2bf 1727 6449 16db 78bf
000002f0: 6a84 7781 4696 e63f abba d97b 3da9 a33f
00000300: 3468 37a9 cfaf ab3f 9dbd b6a3 50eb bb3f
00000310: 2d74 7dbc 04f1 e7bf 2218 6838 9a0d db3f
00000320: 76f0 4ed1 9414 c8bf 110f eafc fecc c7bf
00000330: d985 d1a0 b60c c13f f8f7 d60e 216b b73f
00000340: 44ab 04a0 b018 983f c6e2 0c0c 1b38 bf3f
00000350: 40aa 97a0 8de7 a9bf b846 57a1 03c3 c7bf
00000360: dbd4 393d c1f5 bebf c4c4 0b09 98a2 a03f
00000370: 4234 7774 fa8a d0bf 0158 7a48 ecc9 d0bf
00000380: da61 f004 d7af e5bf 9339 c216 d23e e5bf
00000390: b9e5 51f1 3b18 debf 8c30 e13c b989 ca3f
000003a0: 3e8d 8441 e1eb b63f b7bb 220e 2107 a6bf
000003b0: 6823 0add 2e06 dc3f e12d aa87 48c8 7cbf
000003c0: f828 4606 aeb5 b1bf dd5f ed2a bda6 c7bf
000003d0: ba5e 7cfe 93b7 d4bf 3472 8c7e 3b93 c4bf
000003e0: c47d 3487 800d b23f 22be 48d4 8759 ca3f
000003f0: 51e6 9fe9 51d4 d6bf ee5d 9538 0381 cb3f

transform_generator.0.bias f8 [64]
-0.37057521155946255 -0.6922983786803604 0.3062625766863695 -0.2718188640229542 -0.06783496654158379 -0.09068973812586 -0.982191815378624 0.4408696254965256
-0.18275360769920015 0.17035160302432753 0.6668014374508298 -0.4105330611539469 -0.5769065702859248 -0.4386202881022997 -0.2206973874589295 -0.42598383000864576
-0.20742925680533938 -0.21631688107274535 -0.5605417291812693 -0.018902415787102226 -0.766989378178257 0.13902400130186623 -1.082299315883899 0.014129541007729465
0.03797049712094414 -0.3913469794194948 0.23416598796749896 -0.1453564597686073 -0.012530190907609309 0.14325865127250023 0.2778245620348298 -0.2552690308675825
-0.3961780358066444 0.26921590716983973 -0.27021891739935655 -0.6817218409688368 0.3247565504059993 -0.11545119588307709 0.32942757370266734 0.6739568625698948
-0.5765105481719252 -0.8472477463357206 -0.361280606542556 0.5829209545884348 0.15350184813745954 -0.304254445103375 -0.2632019464720954 -1.6382258943896841
-0.6865912292272284 -0.9406234551514139 -0.10887654591176704 -0.39759637766197914 -0.5276819709330388 -0.1502179706012312 0.18452237142863276 0.1829299996917713
-0.3331163982151273 -0.04793070072678367 -0.29098510922571974 -1.2310680981400535 -0.004461167040977597 -0.26378262884011444 -0.3531461174405817 -0.2148111130273234
00000000: 89cb 9617 81b7 d7bf eb30 f0ed 4e27 e6bf
00000010: 57d3 b659 ce99 d33f 8086 daf2 7a65 d1bf
00000020: 6d44 d2e2 a15d b1bf ef57 5553 7137 b7bf
00000030: e466 ae87 1d6e efbf 8bab d33b 3537 dc3f
00000040: 5da4 2560 7864 c7bf c1c3 e7d1 14ce c53f
00000050: 08de d8f7 6f56 e53f 614f e575 2c46 dabf
00000060: e437 87c4 0476 e2bf 02bc 30d4 5a12 dcbf
00000070: 6770 b9de cf3f ccbf e7c3 a0ae 5143 dbbf
00000080: cb33 1bb9 0a8d cabf 5fdc e384 45b0 cbbf
00000090: 140f 5c35 f5ef e1bf f1e6 7ba6 275b 93bf
000000a0: adf5 f44e 2d8b e8bf 81ac 79d9 89cb c13f
000000b0: b645 6316 1951 f1bf 4817 49e4 f2ef 8c3f
000000c0: 91d3 b176 de70 a33f f8af 7f33 d40b d9bf
000000d0: c3f5 13ae 26f9 cd3f 13f8 7b5c 0a9b c2bf
000000e0: 3b5b 49c1 6da9 89bf 7fcf 0aab 4c56 c23f
000000f0: 7bc4 fdab e0c7 d13f 2181 d0ea 5356 d0bf
00000100: 2bb7 cb1e fb5a d9bf 31e0 365b d53a d13f
00000110: a468 3f49 444b d1bf 1cc3 7d52 aad0 e5bf
00000120: 69f4 c9b2 cfc8 d43f 8216 9aa6 358e bdbf
00000130: 8d07 dd63 5715 d53f fee0 74fb 0d91 e53f
00000140: 8551 c63f c672 e2bf 58e4 434e a71c ebbf
00000150: 68e0 71b1 381f d7bf a288 83d8 49a7 e23f
00000160: 0a1f d0d4 f2a5 c33f 836c d8a2 e778 d3bf
00000170: 18d6 15fa 4cd8 d0bf 1fd3 fd5a 2c36 fabf
00000180: 590b 682b 8ef8 e5bf 203a 375c 9619 eebf
00000190: 4c13 fe53 55df bbbf b13d c413 3872 d9bf
000001a0: 4514 fb4c c5e2 e0bf c87b 80ab 573a c3bf
000001b0: b64a 55d7 6d9e c73f d114 110f 406a c73f
000001c0: 2419 0671 c751 d5bf b619 3170 5f8a a8bf
000001d0: 4ad6 ef01 809f d2bf 3291 4a76 74b2 f3bf
000001e0: 3e18 b068 df45 72bf b5c1 0789 d0e1 d0bf
000001f0: 9577 472c f299 d6bf f985 a238 ee7e cbbf

transform_generator.3.weight f8 [3, 64]
-0.11095751730962446 0.02294852598990332 -0.024495701357342182 -0.00677422464597009 0.047835533119609586 -0.05454983039804819 -0.1168647217498809 -0.05304564497539445
-0.05248057468530635 -0.00044806809666134113 -0.9518681710862067 -0.06525735032698489 0.11667866476614809 -0.011298825877116305 0.0234506891938688 0.08790242358015087
-0.033466782102468305 -0.01121082510108975 -0.011386830362936976 -0.12465793509195582 -0.02613956761602934 -0.03813194656676767 -0.04818347800414123 -0.021993035114300005
-0.0036605197251043282 -0.041765881750513136 -0.056263332744723275 0.010623165240115782 0.1328077670090814 0.013541244735323454 -0.2121506806486397 -0.01990899146884685
-0.09138604993083217 -0.022510050367361065 0.002915809765997709 0.031944059456146166 -0.018240598579446588 0.010470862268692182 -0.013304911603238899 0.038791842117322055
0.016959182691620715 -0.05782949329106695 -0.015538207347076909 -0.15660916969249994 -0.09377112186855438 -0.007542439385698178 0.10681725068137378 -0.2740450969036691
-0.030124194813998827 -0.0003123700216369402 0.03556691211390741 -0.013859630415922449 -0.007552107497483469 -0.07589443555470608 -0.00782967050726619 -0.004788503505282371
-0.0015751146874924125 -0.02725771392669672 -0.009034629053921495 -0.135114275154817 0.005328915947226643 -0.11093145784379559 -0.022804667696034446 0.012082635779892693
-0.06375517318092101 -0.007744559047599907 -0.034507793062383385 0.17216762527900054 0.026225289287262206 0.032572431403015294 0.3031772591808898 0.006317516910385269
-0.057388417336346684 -0.1685771664163578 0.6135038317266768 0.046849573720812686 -0.065530830285552 0.17576538236089875 -0.0027850054572715354 -0.09694263265050158
0.06602771419450155 0.1813111957118077 0.0726432199126998 -0.09865657950706365 0.13749252992743832 0.05551032310234997 0.22587655979096538 0.04864490988282419
0.0730970648975298 0.16810820611185356 0.01957694027907764 -0.10294092601640321 0.014467092607326072 -0.11566732787653394 0.1360619825098059 -0.06390376009844034
0.0841213272730711 -0.191429082011981 0.02329511824090602 0.01706209191106572 -0.0009735666669465361 -0.04162506172624989 -0.09750033402385977 0.2746833771108312
0.48313674956110214 0.4370046347267778 0.18494585549419598 0.13360795344283966 0.13459241850782763 0.1975752868757904 -0.06981865173432748 0.677303195138578
0.06408961694823581 -0.01783811373436217 -0.0292210919147606 0.34655804167884324 0.3464927416272612 0.041114620390026384 -0.16592983505305867 -0.015022260519071361
0.10458042434855376 -0.013990180877607724 0.039867918374251375 0.4869424463329689 -0.014066061876253564 0.1016914743439832 0.19550964002442087 -0.10225304279252094
0.079055439695512 -0.0018864652078154351 -0.10394573991131804 -0.04884473821275392 0.01602357824996214 -0.07178036485775331 -0.04572314790810405 0.07602187753192423
-0.03976559070156498 -0.036734155888889584 -0.11698732869071408 -0.10779140947286454 -0.0055322239542398 0.05419315001953503 -0.0716471559814225 -0.021852456162773395
0.12081694358712793 -0.10217438038226755 -0.09799825940595809 -0.03390958745903668 0.08232686602031923 0.04254607514194494 0.05435567673132615 0.0070454656807995555
-0.09057354354155951 -0.059752231938155674 0.04294644435410352 0.07065215836687384 -0.07333779152577664 0.06527637641862731 -0.019234478349699404 -0.10220330484182251
-0.12386266184285032 0.047424747449298775 0.0061979226936821055 0.04366957476754154 -0.05121030006421381 0.04209895567936869 0.02288374912134347 0.017779311796229127
0.11800212542617765 -0.011429413735824843 0.0004769338612770068 -0.019204757137361635 -0.09501974273447157 0.059547760537485665 0.004566270289989321 -0.08547100941129197
0.12006131100191274 -0.11201331441532116 -0.02666111263524459 -0.04542529118500493 -0.02020423194719753 0.07446698386123411 0.07358749577076897 -0.05947787935774073
-0.04884032230214227 0.040232818201133023 -0.11713775864904756 -0.06535619544536413 -0.12461046065207011 0.10442976335723443 -0.10626447955988076 -0.10932588110133092
00000000: c116 173c b667 bcbf afdf 7882 d17f 973f
00000010: 4db4 e3b0 6615 99bf ed92 f614 4abf 7bbf
00000020: d8bf ab24 e67d a83f b3b9 1f93 f4ed abbf
00000030: 05cd f8ad d8ea bdbf c2a5 ba7c cc28 abbf
00000040: e5b8 e5df bbde aabf f989 50d2 555d 3dbf
00000050: 1865 1d3d b475 eebf 315f 7aa9 b4b4 b0bf
00000060: f9c1 4f29 a7de bd3f 8ed8 00bd d623 87bf
00000070: 3614 a01c 7503 983f 2f11 84f2 c580 b63f
00000080: bbd1 43dd 8e22 a1bf cde3 5c79 b3f5 86bf
00000090: 027f 1c80 fa51 87bf bb26 681a 95e9 bfbf
000000a0: e871 2bb0 54c4 9abf d1c9 dfce 0786 a3bf
000000b0: 1e7c 783c 81ab a8bf ef08 399a 5785 96bf
000000c0: 6894 2e90 aafc 6dbf 6503 6a70 5662 a5bf
000000d0: bf81 342c 8cce acbf 5258 4a1a 99c1 853f
000000e0: b5b9 fa4b d8ff c03f b363 481a 83bb 8b3f
000000f0: d7e2 9ae5 c027 cbbf 4429 05cd 0563 94bf
00000100: d577 c37f 1365 b7bf 99f2 a2e8 df0c 97bf
00000110: 121d c372 e5e2 673f 1bcd 54c5 f85a a03f
00000120: 9dc8 6ed9 a9ad 92bf f324 0a58 bf71 853f
00000130: 0c58 b201 9b3f 8bbf 57b1 7d3a 86dc a33f
00000140: ce0e 1c7c bf5d 913f 37d8 dbcc d39b adbf
00000150: 893e 27e3 7ed2 8fbf cc9f 0aef c40b c4bf
00000160: 6e13 bc5d 6201 b8bf deee e527 d2e4 7ebf
00000170: fd3b 5316 6058 bb3f 6f25 3572 f489 d1bf
00000180: 5686 2d7e e0d8 9ebf 675d f506 b378 34bf
00000190: 13a8 b288 d335 a23f 91e0 f71a 7062 8cbf
000001a0: 7b28 7b6b f5ee 7ebf 47e5 a756 d16d b3bf
000001b0: e326 2396 0009 80bf 0044 3b1f 1c9d 73bf
000001c0: 7fa2 7e84 82ce 59bf bbfa 8337 72e9 9bbf
000001d0: c06f 8b62 bf80 82bf a49f 81b0 6c4b c1bf
000001e0: 9aaa 76fb c5d3 753f 7b65 8907 0166 bcbf
000001f0: 2e6e cd57 1b5a 97bf 1465 31ec c7be 883f
00000200: 954b c34f 4252 b0bf bf57 4d3d c2b8 7fbf
00000210: 00f5 5165 01ab a1bf d06b 00b8 9609 c63f
00000220: 6289 445f cdda 9a3f 571a 416f 55ad a03f
00000230: 5ea9 4497 4167 d33f e83d 5a88 65e0 793f
00000240: 2ef3 41bf 0362 adbf 5928 4ec4 ef93 c5bf
00000250: 9293 a7c9 d2a1 e33f d3c3 ecd5 aafc a73f
00000260: b3c7 f4e4 a0c6 b0bf c326 81e4 7a7f c63f
00000270: c511 766b 94d0 66bf 9d71 d27c 3bd1 b8bf
00000280: 2d53 1839 31e7 b03f 228d fd8b 3435 c73f
00000290: 3d1a cdfd be98 b23f b99f 84be 8e41 b9bf
000002a0: 70c7 bdef 5a99 c13f e545 a15c d96b ac3f
000002b0: 8a1a 9eea 85e9 cc3f cc8f 2052 fce7 a83f
000002c0: 8321 2b3f 7db6 b23f 1246 b8d7 9184 c53f
000002d0: 217d 0439 fa0b 943f 7510 a926 565a babf
000002e0: 14f0 ee4c eca0 8d3f 3407 72be 5f9c bdbf
000002f0: a6e4 8da2 7a6a c13f d8d7 b62f ff5b b0bf
00000300: 29b1 88ad f988 b53f 4e54 5f87 bf80 c8bf
00000310: 002c 01ec acda 973f 2f99 099b b978 913f
00000320: 0c86 5c7f dee6 4fbf 9dcf 9d4d e14f a5bf
00000330: 1c47 fb29 c8f5 b8bf e388 5c96 6994 d13f
00000340: 5115 b766 b6eb de3f 2186 9649 e2f7 db3f
00000350: 956c 7048 4eac c73f dae0 42bf 101a c13f
00000360: d3ec e309 533a c13f 248e d0a1 254a c93f
00000370: 3b89 d999 a2df b1bf 8416 13c0 77ac e53f
00000380: 8a4b ce58 2d68 b03f 8016 728c 2744 92bf
00000390: b75c 8248 22ec 9dbf bd4a cbc7 012e d63f
000003a0: 2cca 65e4 ef2c d63f 47dc ecbb f90c a53f
000003b0: 57e5 7d57 303d c5bf 2698 21ad fdc3 8ebf
000003c0: b1fb 605e c8c5 ba3f fef3 ac4a e2a6 8cbf
000003d0: 7b6d 275b 9169 a43f 9232 82a6 102a df3f
000003e0: f2a8 efdd aace 8cbf f1e4 96d4 7308 ba3f
000003f0: 4d93 faba 7506 c93f 8bda b562 412d babf
00000400: e928 1030 fa3c b43f ffd3 d897 68e8 5ebf
00000410: 2746 7a21 309c babf ff31 6972 2d02 a9bf
00000420: dfa5 3122 7c68 903f 811a 8faf 3260 b2bf
00000430: eff6 de41 0669 a7bf b7b6 c775 2b76 b33f
00000440: f780 23cf 275c a4bf 9bbd 60bc d1ce a2bf
00000450: 9be4 c5ae e1f2 bdbf 55c7 79c2 3798 bbbf
00000460: 7f5c 520f f5a8 76bf 6b93 005e 34bf ab3f
00000470: a3a7 cacf 7757 b2bf 17bd 3982 7d60 96bf
00000480: 7967 82f5 dbed be3f 771c 3ba6 1928 babf
00000490: e1a8 36f7 6916 b9bf 9b98 50f2 985c a1bf
000004a0: a7b2 239d 5f13 b53f 8b99 9d62 99c8 a53f
000004b0: f373 d3db 81d4 ab3f 7f2c f2ca b4db 7c3f
000004c0: 0dd2 64e7 d32f b7bf 2b24 1334 d897 aebf
000004d0: 8bf1 f58b 13fd a53f 65d9 9385 4216 b23f
000004e0: ed00 2af8 43c6 b2bf 235d ebdd f3b5 b03f
000004f0: 07cd defd 33b2 93bf 11b8 d6eb fe29 babf
00000500: 2780 cfa1 76b5 bfbf 3bb0 a176 0e48 a83f
00000510: df29 5c34 fe62 793f 03e4 e9c6 db5b a63f
00000520: 9300 fd87 3c38 aabf 7b62 ad8b fe8d a53f
00000530: 971a 5868 d66e 973f 573c d76a bd34 923f
00000540: 435d 9025 6335 be3f ff9d a9f1 4d68 87bf
00000550: ff77 2756 9f41 3f3f af92 546f 69aa 93bf
00000560: e9d5 84bf 3653 b8bf fff8 1d48 0b7d ae3f
00000570: df94 f6d8 14b4 723f ab77 2d96 6de1 b5bf
00000580: 37a2 448c 56bc be3f e95f 2192 e7ac bcbf
00000590: 9796 5ffb 0c4d 9bbf 0f0c 1ad8 fb41 a7bf
000005a0: 77e8 d00d 6bb0 94bf abd5 50ac 4410 b33f
000005b0: b1e0 ba4f a1d6 b23f 8f96 5a75 e273 aebf
000005c0: db10 0746 9901 a9bf f3af cc5c 6599 a43f
000005d0: 1b3f 867a bdfc bdbf f360 0702 2fbb b0bf
000005e0: 8d79 3d9d 78e6 bfbf e12c 59b2 e8bb ba3f
000005f0: 6ba7 6f20 2634 bbbf 11c5 efeb c7fc bbbf

transform_generator.3.bias f8 [3]
0.09578131346220851 0.18974398599453546 0.026701992508397415
00000000: 2f5b e3c8 1f85 b83f 74c7 3aeb 8749 c83f
00000010: 1815 3f62 c457 9b3f
