models/livneh-livneh/QM_Poly2_1000[1980, 1990]_upscale_1by4_LOGnoisy1_bci.pth (torch, 39818 bytes, 6 tensors)

coeff_generator.0.weight f8 [64, 1]
-0.9520638217739859 -0.8846223376700805 -0.7669473696466759 -0.8845096780346965 0.14751859752189558 -0.04643049242504071 0.9104714004982831 1.0454379711799973
-0.9773220734354017 -0.7347186556926028 -0.6898223182875112 -0.24926593589899879 0.6850394616629735 0.8010112047621771 -0.24493408945888115 0.22487317798758252
-0.772126089687759 0.4023637838996014 0.44502677415028136 -0.12544200441869566 -0.8451201644201923 0.4539134228775054 -0.3755226385540748 -0.35086597550569426
-0.9373196691451687 -0.9192670646800855 1.0352390027839515 -0.6959926300802264 -0.4699101765032782 -0.7864808973485828 -0.4086615837249431 -0.5331836218841043
-0.5683601219670658 -0.3706041250905824 0.22881656960317118 0.3462303605527795 0.6980056914961407 -1.0388532937851918 -0.35123332124987466 -0.11479657207496868
1.2902226304423088 -0.6870329875064661 -0.17078597324580158 -0.5304786274963442 0.9628021070824496 0.9116511977302277 -0.23144395336544285 -0.8013866348822939
0.325295989704444 0.1638689339764516 0.41863903263547203 0.017541820839527947 -0.7955382395880238 0.21282761255155755 0.02969039161334919 0.9968713059814179
-0.47535214098017575 -0.25418994824002644 0.2509698497505461 -0.5356144858363164 -0.8967867270180221 0.5542541326623369 -0.49116078686602743 0.4791202228306815
00000000: 5a2b 478c 4e77 eebf 7f54 3381 d34e ecbf
00000010: 9f57 cc35 d58a e8bf c1f1 843d e74d ecbf
00000020: 1944 f4af e3e1 c23f 3f65 01cd bcc5 a7bf
00000030: 93ab 22eb 9422 ed3f 536f 832a 1dba f03f
00000040: f70b e2f0 3846 efbf fbbe beb2 d082 e7bf
00000050: 7e10 2341 0613 e6bf 47b5 5839 f2e7 cfbf
00000060: 39fb 89e0 d7eb e53f 0adc 0540 e2a1 e93f
00000070: 2762 f30f 005a cfbf ff24 9af0 a4c8 cc3f
00000080: fb1c f3c5 41b5 e8bf ef63 3c07 54c0 d93f
00000090: 3478 3494 517b dc3f 2ff1 42cd 7b0e c0bf
000000a0: edfe 6b71 390b ebbf ff5a 9ee2 ea0c dd3f
000000b0: 13d5 df1a 9008 d8bf b9de 8490 9674 d6bf
000000c0: 8508 9cd1 85fe edbf 85e8 62c3 a26a edbf
000000d0: f802 c8c5 5690 f03f 7e73 0e56 9245 e6bf
000000e0: 1fe8 0822 0213 debf 064f a1fc d92a e9bf
000000f0: 8abb 4eea 8227 dabf 6f29 5819 d70f e1bf
00000100: 2e5f 0691 0130 e2bf 2eb6 415d fab7 d7bf
00000110: 6740 9d81 dc49 cd3f e936 dd62 a328 d63f
00000120: b1ba 2c08 1056 e63f 7263 a2a1 249f f0bf
00000130: b527 0253 9b7a d6bf f440 c1e2 4e63 bdbf
00000140: e3f0 247c c0a4 f43f 5fa1 939a 2cfc e5bf
00000150: 5c66 da94 50dc c5bf 485c 8a50 aef9 e0bf
00000160: 610c 4e5d 46cf ee3f b089 f321 3f2c ed3f
00000170: 17e0 4799 f49f cdbf 95ab 8895 f5a4 e9bf
00000180: 0b3c 5345 a6d1 d43f df2e 2140 a8f9 c43f
00000190: 43e6 7f5e fbca da3f 84b2 45ab 7bf6 913f
000001a0: 69ef 379c 0c75 e9bf 171f cc69 ef3d cb3f
000001b0: e166 f073 2867 9e3f 1b5a 30a7 5ee6 ef3f
000001c0: dcfa e562 2b6c debf 136c aaea a544 d0bf
000001d0: f37a 3dd8 e30f d03f 65c9 7dfd c023 e1bf
000001e0: e6ef 0014 7ab2 ecbf 84a4 ae29 73bc e13f
000001f0: a3b3 2aa7 2d6f dfbf 993d fadd e7a9 de3f

coeff_generator.0.bias f8 [64]
0.021888336823764246 0.2520123217234697 0.6787020259035397 1.2623308973520952 0.7928475404611228 -0.7111144796357376 0.11458529937888784 1.3918796664931223
-0.01148412039106987 -0.8699853908134432 0.7384157167198597 -0.9866611574406288 0.12332211109159497 0.2268320987114858 -0.7243894089917846 -0.4003516054538008
0.6623064371353184 0.029120873881029352 0.7522380958452236 -0.664993886167283 1.2499028464729047 1.425232957347284 -0.5331091010114808 0.8938908447237907
-0.9765982043805859 -0.8076778574687249 1.3202767962224777 0.9131046136432297 -0.8244622023300954 0.44017697794499655 1.2953921767326289 -0.41323276478424864
0.5690146710487296 0.6673620281997485 -0.883261261619084 1.3376998878618682 -0.2660532991756457 0.16933185454769434 1.0631194988773263 0.5620187657457196
0.8782796571254491 0.4525549478714261 0.3781639852085719 0.14350372582799614 0.1572608402763107 0.8045413000130783 -0.17804461022859952 -0.6376134105035416
-0.9584335094890173 -0.9389226001418229 -0.5781935639436169 0.9388003224044923 1.3025494769726433 -0.8090406260395568 1.3994162365977874 0.1458228343439314
0.6765758496041928 -0.6100202977201068 -0.4577876025882268 0.19061429433643112 1.011552110352104 0.9137587766134896 -0.4115110849677537 0.9379493237947568
00000000: 24a0 496b e569 963f ff71 ff49 f820 d03f
00000010: 3c82 9f4f edb7 e53f a8b8 0de2 8132 f43f
00000020: 6ed3 1fce 015f e93f f0eb 3727 73c1 e6bf
00000030: 0048 6f51 7655 bd3f b4e2 f89c 2345 f63f
00000040: 1716 068c fc84 87bf 1c54 319a ebd6 ebbf
00000050: 1c41 45ff 19a1 e73f bc1c 6e6b ba92 efbf
00000060: a017 03b2 0992 bf3f 580e d38e d508 cd3f
00000070: 0e08 a6b2 322e e7bf 94cf 1457 5c9f d9bf
00000080: aaa5 ed44 9d31 e53f c0c2 ccc3 dcd1 9d3f
00000090: d1bc 8ea0 5512 e83f 141c 2442 a147 e5bf
000000a0: 7874 8c20 9aff f33f a2ce cf12 c1cd f63f
000000b0: aa6a 41d1 3a0f e1bf 330a 09f9 c09a ec3f
000000c0: bcb3 a4e0 4a40 efbf 3c02 f13b 7fd8 e9bf
000000d0: 5717 d78f da1f f53f 9494 ad2a 2738 ed3f
000000e0: f877 798e fe61 eabf b674 2e0f dc2b dc3f
000000f0: 6bf9 a825 edb9 f43f 9893 98d6 6772 dabf
00000100: d826 6341 5e35 e23f 8cb9 b69c 075b e53f
00000110: 0a49 0f1f ad43 ecbf 68ac 63ff 3767 f53f
00000120: 84f2 bc6a 0407 d1bf 3a08 ba8c aaac c53f
00000130: 3bb0 7697 8902 f13f 82b7 53c7 0efc e13f
00000140: 9711 83f0 dd1a ec3f 730c 3007 a9f6 dc3f
00000150: e9bb 3fb7 d633 d83f ca87 a480 545e c23f
00000160: 60d0 f68a 1f21 c43f c4cc 7a65 cdbe e93f
00000170: 7098 1471 2aca c6bf ca51 333d 5467 e4bf
00000180: aeaa 54c0 7cab eebf 86b3 a268 a70b eebf
00000190: 18a8 fcc9 8f80 e2bf 1a73 46f9 a60a ee3f
000001a0: 7f4f d01e 3ed7 f43f 5a35 bf2a a9e3 e9bf
000001b0: c1dc 9a47 0264 f63f f833 4298 52aa c23f
000001c0: 8f07 6a65 82a6 e53f 5054 9349 4985 e3bf
000001d0: 0c5d 685f 644c ddbf 8a9c 2998 0c66 c83f
000001e0: d697 0244 512f f03f f09c bf0b 833d ed3f
000001f0: d030 f896 3256 dabf 171f e04c ae03 ee3f

coeff_generator.2.weight f8 [64, 64]
-0.07138680954144534 0.032820651059105935 0.3732349063966127 0.43244997256769235 0.4326865293788891 -0.016031832203206944 -0.10523054977762152 0.7361158891289221
-0.05343423637958827 0.07070641563369902 0.35414748882727043 -0.07257267786080686 -0.10198363699006276 0.09080251186738093 -0.03376749607675216 -0.07530401371873273
0.2444335934405797 0.011117966983439418 0.499186379590321 -0.0033415065959669084 0.3224536446043845 0.5349157703973001 -0.0928687293110677 0.387843975403623
0.06117266785318664 -0.025187081362824073 0.6736557066974763 0.3799743922453312 0.008400330645242425 0.30260356492770835 0.42537963999888717 -0.028228902442484518
0.2127849441392138 0.44266255409912625 -0.007788968226379949 0.4174693418955321 0.10336110572160746 0.15409720969755594 0.4861077845759479 0.4740989224772818
1.041017414338647 0.15544052537254666 0.3188825555515758 0.19558517146235366 0.06664309614909307 0.8607999685111052 -0.04652797029297933 -0.09938956016024812
-0.11487956076001883 -0.11650091198070704 -0.019246835981594736 0.4527404735856356 0.3485373476858605 -0.026555036417053004 0.5011903365740944 0.07274981686882966
0.25589183336807375 0.03683414160667949 0.04276585366348536 0.011898099520347373 0.3724284710635905 0.50466288182744 0.043615337064188874 0.5185128426125128
-0.11095751730962446 0.02294852598990332 -0.041747059956627856 -0.07970014806296481 0.06430624087585675 -0.05454983039804819 0.0632504706988485 -0.07872105982660126
0.09520242821317344 -0.045340188069939995 -0.12110045130960402 -0.06525735032698489 0.11667866476614809 0.0838892903665029 0.07842993022602117 0.08790242358015087
-0.033466782102468305 -0.041275107221143324 0.07670038767024857 -0.12465793509195582 -0.07083702153474479 -0.049113252648681625 0.01076126314107925 0.09653097318335958
-0.020352819106256106 0.07860033112392247 -0.01295474241131325 -0.07261577594996453 0.07280162668952879 0.09900290281060138 0.0864805589692688 -0.10450903936235652
-0.09138604993083217 0.04769677995095813 0.05640101181183534 -0.10896533885691755 0.10283540559992606 0.01797800474099703 0.06838623882274729 -0.024807257043915062
-0.00021032465409526188 0.044059737225480504 0.08940937878909934 0.020484506987736375 -0.1195503983492613 0.07477221114087303 0.10681725068137378 0.05566608840829209
-0.11020332933133677 0.036433730073015445 0.03556691211390741 -0.10374799397959945 0.038785094388942835 -0.07589443555470608 0.10528380307733566 0.052267619644697776
-0.0015751146874924125 0.11584092084720828 -0.11716481379306042 0.045038722862128254 -0.09302255291046445 -0.11093145784379559 -0.09471137849249041 -0.042752218879287006
-0.06375517318092101 -0.007744559047599907 -0.003680340002044063 -0.12063321960941349 0.008701285260142409 0.032572431403015294 0.0980149810509267 0.009784018431971546
0.09001175434002452 -0.10146893874766928 -0.0029411153052654178 0.046849573720812686 -0.065530830285552 -0.05597349446891072 0.017912676308257127 -0.09694263265050158
0.06602771419450155 -0.04583596210549081 -0.06768882212819331 -0.09865657950706365 0.10213234356331265 -0.09346770394552785 0.032043385122278244 0.07084835180861083
0.05773304541315443 -0.07147717146673531 -0.07652716888607798 -0.00624830264161516 -0.04556767081902718 0.027445474642833253 0.01118757188816291 -0.04094708182324255
0.0841213272730711 -0.11837078804914665 -0.008870452612475875 -0.0027252389389597893 0.046486533077420615 0.042608921180060925 -0.07001551071986688 0.013546088679909666
0.11170056719099526 -0.12463617739059586 0.04492240634741334 0.07289932275093504 0.08604195050955261 -0.07142789228511955 -0.06981865173432748 -0.010888321596015852
-0.11623535957987087 0.011262532417400743 -0.0292210919147606 -0.021282548777161233 0.010332155087102028 0.041114620390026384 -0.12163212966410537 0.04466894279247915
0.10458042434855376 0.0009904004183968471 -0.10317725797719039 -0.03620807069541212 0.008909709238242412 0.1016914743439832 -0.029235787111254793 -0.0006369066491887231
0.01902412709503231 -0.06193005432077776 -0.16399460572968824 -0.10889679775524111 -0.04402009998580181 -0.07178036485775331 -0.04572314790810405 0.015974368946398834
-0.09976134535721912 -0.036734155888889584 -0.17703646535814258 -0.10779140947286454 -0.0055322239542398 -0.003357543823794278 -0.0716471559814225 -0.021852456162773395
0.060767340066987904 -0.10217438038226755 -0.15803700116750136 -0.03390958745903668 0.022274900404179305 -0.017504034509591062 0.05435567673132615 -0.05300359846527818
-0.09057354354155951 -0.059752231938155674 -0.0170995254033705 0.010601783734948784 -0.07333779152577664 0.005231567886666343 -0.07928621608182274 -0.10220330484182251
-0.18390811811821028 -0.012620718478447243 0.0061979226936821055 -0.016380896913317827 -0.05121030006421381 -0.017938489472648953 -0.0371665712959721 -0.04225407168245248
0.058151581059665995 -0.07147670661898492 -0.05907904061539197 -0.07802718342989226 -0.09501974273447157 -0.00023546880371162619 0.004566270289989321 -0.08547100941129197
0.12006131100191274 -0.11201331441532116 -0.02666111263524459 -0.10547322916273667 -0.08025629108149432 0.07446698386123411 0.013536528671328962 -0.05947787935774073
-0.10888848296252973 0.040232818201133023 -0.11713775864904756 -0.1252169176488879 -0.18466215975726524 0.04439311973847514 -0.10626447955988076 -0.1693719015635095
00000000: 5da6 58ec 6746 b2bf d254 dd4d decd a03f
00000010: 9cbd 2ca9 14e3 d73f c265 55a6 42ad db3f
00000020: 5888 46d7 22b1 db3f 47eb 070c a66a 90bf
00000030: 8bc1 d5a9 63f0 babf 66fd bbe8 428e e73f
00000040: 9760 7973 bb5b abbf 659d c3ce d019 b23f
00000050: 5050 9e3a 5aaa d63f 8dcc fe7d 1f94 b2bf
00000060: e975 9981 991b babf 1d74 dd5a d53e b73f
00000070: f789 a226 f949 a1bf 37f3 2db4 1f47 b3bf
00000080: 907e ef98 9949 cf3f 9f2b bc44 04c5 863f
00000090: 93bd bc6d abf2 df3f 3fc9 91b1 a55f 6bbf
000000a0: 5251 839c 14a3 d43f d512 7fad 071e e13f
000000b0: ff4c 36bb 3ec6 b7bf c1c9 9389 6fd2 d83f
000000c0: cf50 ad1f 0652 af3f 37a9 f06a a4ca 99bf
000000d0: 15f1 a069 968e e53f 11b7 001d 8051 d83f
000000e0: 5fdb 2c4b 3134 813f 0c1f c157 db5d d33f
000000f0: 807c 8b86 6b39 db3f d776 2b93 09e8 9cbf
00000100: b95d 147c 893c cb3f c440 4152 9554 dc3f
00000110: 5f85 d43c 53e7 7fbf 7288 a154 d1b7 da3f
00000120: 1db1 c098 df75 ba3f 5126 0716 75b9 c33f
00000130: e16b 45d3 631c df3f 00f6 c601 a357 de3f
00000140: 606a 52e0 01a8 f03f da5c 79a2 79e5 c33f
00000150: 91f8 d660 9268 d43f d4b5 8155 ef08 c93f
00000160: fbeb 769e 850f b13f 98e5 2460 ac8b eb3f
00000170: e7e4 839d 83d2 a7bf 2fbc 731e 9871 b9bf
00000180: b170 7134 bf68 bdbf b34b e9f6 00d3 bdbf
00000190: c7a4 5e4c 71b5 93bf 0a0e e82d b3f9 dc3f
000001a0: d9b3 6f97 6f4e d63f 7742 d253 3e31 9bbf
000001b0: e205 1551 c009 e03f 51da 3d64 bb9f b23f
000001c0: 6847 e823 8860 d03f 3b62 27b3 ecdb a23f
000001d0: bb89 bded 67e5 a53f c176 98e2 075e 883f
000001e0: 5750 d439 ded5 d73f e786 9ec5 3226 e03f
000001f0: f3e3 96dc bf54 a63f a374 b23e a897 e03f
00000200: c116 173c b667 bcbf afdf 7882 d17f 973f
00000210: 5f8c 6fe2 de5f a5bf dbb2 6a99 3a67 b4bf
00000220: 9d91 7db1 5f76 b03f b3b9 1f93 f4ed abbf
00000230: 69b0 1bcf 2e31 b03f bf32 7639 1027 b4bf
00000240: e5e4 acb3 2f5f b83f 3fe6 e841 d436 a7bf
00000250: b9d4 e76d 7000 bfbf 315f 7aa9 b4b4 b0bf
00000260: f9c1 4f29 a7de bd3f ddd8 9bbe c479 b53f
00000270: af2b 59e1 fb13 b43f 2f11 84f2 c580 b63f
00000280: bbd1 43dd 8e22 a1bf 4bb2 4ec7 0222 a5bf
00000290: 815d a2f8 a2a2 b33f bb26 681a 95e9 bfbf
000002a0: 8778 d602 6022 b2bf 7340 da4b 5f25 a9bf
000002b0: 2f64 094a 000a 863f 19a3 dffc 40b6 b83f
000002c0: 8766 c591 5ed7 94bf edcb a1bb 261f b43f
000002d0: 8fa7 e017 0488 8abf 7bf6 e08e f296 b2bf
000002e0: fd24 ba9d 20a3 b23f 5dd5 c715 4158 b93f
000002f0: 7347 8304 9723 b63f 559c 32ba 1ac1 babf
00000300: d577 c37f 1365 b7bf 731a 075c b66b a83f
00000310: 93e3 62ea 97e0 ac3f 9bbb c906 27e5 bbbf
00000320: 0d2e eccf 6b53 ba3f cfc0 a379 d368 923f
00000330: 277a 3db3 c281 b13f ff0c d4d6 1267 99bf
00000340: ff47 9205 5391 2bbf 7f57 e874 ff8e a63f
00000350: f5d7 da75 88e3 b63f 7719 59fe e3f9 943f
00000360: f943 22db da9a bebf 7de9 7f89 4524 b33f
00000370: fd3b 5316 6058 bb3f ab72 6bfa 4380 ac3f
00000380: c56e 630f 4936 bcbf b310 451e 71a7 a23f
00000390: 13a8 b288 d335 a23f 0901 2b81 3a8f babf
000003a0: 8f10 f2cf a3db a33f 47e5 a756 d16d b3bf
000003b0: 5902 041b e1f3 ba3f 7709 074a d2c2 aa3f
000003c0: 7fa2 7e84 82ce 59bf e5c8 9326 c0a7 bd3f
000003d0: 07ae 7b63 83fe bdbf 7b2e 7ec3 500f a73f
000003e0: bf76 8a76 53d0 b7bf 7b65 8907 0166 bcbf
000003f0: dd2f 2f41 013f b8bf 5b00 d66b 9ee3 a5bf
00000400: 954b c34f 4252 b0bf bf57 4d3d c2b8 7fbf
00000410: bf54 4d7e 3b26 6ebf 1d9b 0895 d1e1 bebf
00000420: dffa 00bd fad1 813f 571a 416f 55ad a03f
00000430: fbbc 2182 8217 b93f 8f9e 82b9 a409 843f
00000440: b15f 25a5 020b b73f 3127 7b4d def9 b9bf
00000450: ff9d 9841 f717 68bf d3c3 ecd5 aafc a73f
00000460: b3c7 f4e4 a0c6 b0bf 5ba5 5fd0 8ea8 acbf
00000470: c710 b65b b357 923f 9d71 d27c 3bd1 b8bf
00000480: 2d53 1839 31e7 b03f 1393 72ac cf77 a7bf
00000490: f368 58fd 0d54 b1bf b99f 84be 8e41 b9bf
000004a0: 25e0 7763 5825 ba3f f1a1 addb 7fed b7bf
000004b0: b37f 4e96 fd67 a03f 1955 fe19 1e23 b23f
000004c0: c75d e58b 2f8f ad3f e336 dcf1 534c b2bf
000004d0: 3d05 9fd7 4897 b3bf 1f1c 05f8 d197 79bf
000004e0: 0761 d84f a554 a7bf 8f81 0ea0 aa1a 9c3f
000004f0: 8feb 0c7b 82e9 863f 0b4d 9812 04f7 a4bf
00000500: 29b1 88ad f988 b53f 8d0b 7947 8c4d bebf
00000510: ff6c f8fe ab2a 82bf bf55 bb83 3d53 66bf
00000520: 373c 8b36 15cd a73f a7ef f825 d6d0 a53f
00000530: 372b c158 89ec b1bf 6f90 f33e 0dbe 8b3f
00000540: 75ac 078b 6898 bc3f 2983 ca11 28e8 bfbf
00000550: 9751 3dd4 1100 a73f 09a6 1daf 87a9 b23f
00000560: bdc7 8563 d806 b63f 4505 632d 1949 b2bf
00000570: 3b89 d999 a2df b1bf 8f45 4ec9 9d4c 86bf
00000580: e1ca 08bc 99c1 bdbf 0f17 3983 cf10 873f
00000590: b75c 8248 22ec 9dbf 6fcb e4ab 17cb 95bf
000005a0: 6f07 9261 0629 853f 47dc ecbb f90c a53f
000005b0: 8dd7 0c83 4823 bfbf 6395 e100 d9de a63f
000005c0: b1fb 605e c8c5 ba3f 7f9e 0b5a 0a3a 503f
000005d0: 03f7 b324 d369 babf d3e1 f93e dd89 a2bf
000005e0: ff67 5cee 403f 823f f1e4 96d4 7308 ba3f
000005f0: 8f08 1076 fcef 9dbf ffa0 4b9d c2de 44bf
00000600: 1e1b d58e 0f7b 933f 29fd e4cb 4bb5 afbf
00000610: 9b2a 2a76 c6fd c4bf 8275 ff18 a9e0 bbbf
00000620: a080 9c73 cd89 a6bf 811a 8faf 3260 b2bf
00000630: eff6 de41 0669 a7bf 27cc cbc0 955b 903f
00000640: f6d6 b6a3 f589 b9bf 9bbd 60bc d1ce a2bf
00000650: 05d2 7482 21a9 c6bf 55c7 79c2 3798 bbbf
00000660: 7f5c 520f f5a8 76bf 0bf0 609d 4781 6bbf
00000670: a3a7 cacf 7757 b2bf 17bd 3982 7d60 96bf
00000680: de57 8194 e51c af3f 771c 3ba6 1928 babf
00000690: 2e42 c973 8e3a c4bf 9b98 50f2 985c a1bf
000006a0: 35ca 0743 3bcf 963f a726 11df 93ec 91bf
000006b0: f373 d3db 81d4 ab3f 4716 f5a3 4923 abbf
000006c0: 0dd2 64e7 d32f b7bf 2b24 1334 d897 aebf
000006d0: eed3 89b9 8982 91bf f7f0 5d53 63b6 853f
000006e0: ed00 2af8 43c6 b2bf ff39 ae4f b26d 753f
000006f0: 1853 18f9 194c b4bf 11b8 d6eb fe29 babf
00000700: e8af 641c 4d8a c7bf 7885 ef28 e4d8 89bf
00000710: df29 5c34 fe62 793f 2b5f 1662 27c6 90bf
00000720: 9300 fd87 3c38 aabf d9a8 7fa6 775e 92bf
00000730: 5ef9 7030 7f07 a3bf 6779 ff5f 53a2 a5bf
00000740: 9f52 b945 0bc6 ad3f 2cb5 5a25 4c4c b2bf
00000750: b6f2 a4a6 9b3f aebf 02c7 07e9 96f9 b3bf
00000760: e9d5 84bf 3653 b8bf cca1 519f 05dd 2ebf
00000770: df94 f6d8 14b4 723f ab77 2d96 6de1 b5bf
00000780: 37a2 448c 56bc be3f e95f 2192 e7ac bcbf
00000790: 9796 5ffb 0c4d 9bbf fd82 db25 4b00 bbbf
000007a0: 3e47 7e21 ad8b b4bf abd5 50ac 4410 b33f
000007b0: 93cb 8e1f 0ab9 8b3f 8f96 5a75 e273 aebf
000007c0: b830 3c99 1de0 bbbf f3af cc5c 6599 a43f
000007d0: 1b3f 867a bdfc bdbf 6d9c 1aa3 1b07 c0bf
000007e0: d6ab 7b78 02a3 c7bf 4e69 e3ea b1ba a63f
000007f0: 6ba7 6f20 2634 bbbf 2ece 097d faad c5bf

coeff_generator.2.bias f8 [64]
0.39362660083931766 -0.0014813073116238251 -0.08589278761882452 -0.010703061507671472 0.05997431237288184 0.5767497011090197 -0.08500364179048323 0.47406521889956277
-0.010752327254194005 -0.10362954925227881 0.09326717047553645 0.4861944456448188 -0.0017250805878671338 0.03165452981647128 0.5576593889230712 -0.05373501794011923
0.5172189458671164 0.034804317623728875 0.5290826304358611 -0.1429966907375232 -0.037779525515493934 0.41032681149162253 0.01505194201020532 0.044039525745219105
0.3612655915651839 -0.08223171882331415 0.018657674259563883 -0.11217624345682886 0.5405093935686707 0.3633755790607391 0.029580719602663896 0.013285525608194527
-0.027311312396848864 0.3590302915881777 -0.003978974694220844 0.4879703710944 0.07984333659250656 0.5615387945798062 -0.06744474321896843 -0.09050254655129225
-0.20426235937673204 0.38556245098192066 -0.06381053846907596 0.535016725774994 0.0013530749035399747 0.3548571399112127 -0.04136000906826542 0.5588670374783898
-0.09165475600740589 0.06208911686785057 0.4424041698438674 -0.025833593462854826 -0.15815658211557207 -0.025781238393601136 -0.038510475553785034 -0.13614347315344905
-0.09266268752976706 0.060172373212883754 0.04643758513908805 0.11043849169212913 -0.06353759265374298 -0.1173747344439797 -0.015553595456968904 0.03958536582921132
00000000: 6831 5ca0 2d31 d93f 0029 5c9d 0d45 58bf
00000010: f4fd c8d9 11fd b5bf 5fe4 2399 7ceb 85bf
00000020: 0cb5 7bfc f3b4 ae3f 64b6 07ca bb74 e23f
00000030: 36f1 8775 ccc2 b5bf 9e0f d6a4 1557 de3f
00000040: e01c 4def 5005 86bf f510 f054 7787 babf
00000050: 689e fb76 5be0 b73f 6ba5 e24e cf1d df3f
00000060: 007a 4d2d 8343 5cbf 0afc a9c4 0535 a03f
00000070: 046c b780 58d8 e13f 7cd3 6701 2883 abbf
00000080: 14de 2bbf 0e8d e03f b832 e81b dfd1 a13f
00000090: 5451 53b2 3eee e03f 9cb2 132f b74d c2bf
000000a0: 944a 1885 d657 a3bf 8cd2 0163 cb42 da3f
000000b0: 7fa5 6675 8dd3 8e3f c437 9d45 598c a63f
000000c0: e052 3cb7 f91e d73f 903d 0a4f 230d b5bf
000000d0: 0097 0e53 ff1a 933f c803 0911 95b7 bcbf
000000e0: 0cdd 115b da4b e13f abc7 0ea5 8b41 d73f
000000f0: 1071 247d 684a 9e3f 079b fa0f 7135 8b3f
00000100: f0a1 3826 7ff7 9bbf 9640 2930 5afa d63f
00000110: a0c1 eee2 414c 70bf 9a1d 5114 e83a df3f
00000120: dae4 77e7 9c70 b43f 19fa c434 20f8 e13f
00000130: 509f 6906 0f44 b1bf 0c7c a4c5 2c2b b7bf
00000140: a6d6 a9dc 4425 cabf e41b 6221 0ead d83f
00000150: 9365 dd2f e355 b0bf fc87 8065 db1e e13f
00000160: 006c 6c1d 352b 563f a6ed aab8 fab5 d63f
00000170: 0ff5 9e9c 232d a5bf e306 1920 3de2 e13f
00000180: 6e1d 93a3 af76 b7bf e016 c50c 25ca af3f
00000190: ebfa 4594 5950 dc3f 7896 3e1c 1f74 9abf
000001a0: cdb0 ea91 793e c4bf 00eb 009f 6566 9abf
000001b0: dc23 1d22 a5b7 a3bf 7203 613a 266d c1bf
000001c0: faf3 7fec bdb8 b7bf b6e2 24ce e9ce ae3f
000001d0: d487 f4ca aac6 a73f 068a 096e b245 bc3f
000001e0: 74af 83ea ff43 b0bf 9e46 d045 450c bebf
000001f0: 4c4a 953e 90da 8fbf 1cf8 4577 8844 a43f

coeff_generator.4.weight f8 [4, 64]
0.4073171048738268 0.017084395345201644 -0.002206619981486218 0.026558050647603127 0.09048778924595609 0.42775492822428696 0.03706564570498901 0.4868717403254597
0.08136171798137597 -0.022622229360845087 -0.045998290592847595 0.508927209717554 -0.09991258100707405 -0.011323611963818038 0.3908216273921188 0.048596338019217644
0.42981133312832637 -0.009323951106971299 0.38981645035583434 0.04269074003309479 -0.1047099399812116 0.3960245334602214 0.0445111751212716 0.10564502221240689
0.4135825649560689 -0.05658793595438746 0.05646227942620782 0.07760386397076159 0.4523602022517277 0.39449265434988257 -0.04851276045815161 0.022099048831321466
-0.08464443735625345 0.4666377399508591 0.06735144794765559 0.43113607383924946 -0.07138385940488913 0.434923083918478 -0.005711170543354872 -0.07411088062823297
0.06294106930367599 0.47273116250296304 -0.02006311429743647 0.44857711740014705 0.08108694677084573 0.46335878490099097 0.0015679671576845514 0.4514992011634093
0.04910304418607241 -0.0945231366954515 0.47900807374930987 -0.11262072258724683 0.04834296008941539 -0.11328957117940512 0.056018179915439684 0.036356180775351035
-0.06876167482473673 -0.026267261362162942 0.11408568240511725 0.12475838877848668 0.0023398322317795257 -0.06809932397409808 0.0506495885196361 0.08925533468331769
-0.08477113804947908 0.09327886894851194 -0.07472072069306072 -0.06916482264714173 0.01467454604278867 -0.04179474576111818 0.03811741125835313 0.012258374193191817
-0.11640550793960523 0.05697140579725882 -0.11455806692074898 0.10650274165192064 -0.017416770100816045 -0.11574859931371204 -0.11086841479288904 0.09386015135876105
0.018781667920644677 0.0680335455200605 -0.050495506565676605 0.11901266551623345 0.06390445054800538 0.04524047396119087 0.11921083375244494 0.07167278332289766
0.11045945448782413 0.01806523730312273 0.03226703106974543 0.0417331465881055 -0.10979202074873953 0.0567071834294145 -0.055684266036819995 -0.07356870233793554
-0.07184038140275083 0.006324426078007047 0.03800345820673067 0.056762066678020764 0.05493340227737969 -0.0632811100543114 -0.013255011321987064 0.005297604191301541
-0.09204429869525364 -0.03540013688687349 -0.037905383861387566 0.06367293907691374 -0.009408062509824065 -0.10498491078632112 0.10717916372257262 0.12053902291011685
-0.0037048152973545296 -0.12141612999937974 -0.0011088682430815417 -0.007462494479916259 0.0017293327956145726 -0.006105574514124855 0.0031025476952384334 0.11395477441441279
0.030412207977847768 -0.10231622615780282 -0.07487277121665252 0.018973728403162523 -0.11261843974400877 -0.013406475645721975 -0.05112901137892382 0.07276706858619185
0.08181472456132517 -0.08441691641579853 0.08526230123263374 0.041112659995554905 0.018184786013136525 -0.0341411867376877 -0.0028219759626181003 -0.05298424206268428
0.09123791632099125 -0.08366805429357048 -0.06991432076643798 0.02142620694337846 0.03919859141458428 -0.047807907130310544 0.028450201475264583 -0.09741328807300552
0.1210157074912152 -0.08864608029931066 0.11529331648963957 0.04261608454530424 0.04318149655555963 -0.022986073046321772 0.04248456059966015 0.09830339995569727
0.020353074266410334 -0.09614685413320832 -0.10041290642375002 0.08327968486755387 -0.1224915099522003 -0.026017354455498545 -0.008343933024905574 0.04388298926037542
-0.01833131188533135 0.08061865242131357 -0.0793652854487751 -0.004799560055707807 -0.07777183987089055 0.10777211999574872 -0.016327359530262067 -0.10093105349576957
-0.04511715291284884 0.048534590277089444 0.02410536523396908 0.0022677988721479243 0.07761533482197426 -0.08382146733376329 0.09647238959992833 0.10626407060654304
-0.04150584114551042 -0.12250566553096097 -0.023981450667553774 -0.10177853939849717 -0.09716909268029757 -0.019032903426626304 0.03048409552218578 0.03978257287563668
0.03247837476458328 0.10994223389981843 0.015144316062882522 0.08189901122159009 0.09044153559447472 0.07435964806852478 -0.10931654574222756 0.07883718535923238
0.04140861700812747 -0.09420106425117751 0.0025508779299865942 0.11191323096781265 -0.05011545787411122 -0.08204807907357874 0.026936442201202445 0.04890936291545616
0.09387791673127084 0.08817526094191912 0.09016482002270258 -0.05900469485083481 -0.1208366856094527 0.051730894536448184 -0.04210358701049335 0.00025738841349587366
0.07196956164111644 0.06424979177778718 -0.07249773598199057 -0.046067707427892256 -0.033765710113356516 -0.10657785144434402 -0.07452102672516343 -0.06524832063745721
-0.05052114629565601 0.11550810844639146 -0.005549777590179022 -0.11451192871456121 0.056840551456923925 -0.09019003765624937 -0.07745473696582326 0.10953927766107706
-0.06693756211627948 -0.02586153573821728 -0.0027789638463144024 -0.05384872849281421 0.07003548784408146 -0.07877377962034869 -0.1223178773478779 -0.07197040384756058
0.04742373486701359 0.10894520140810383 -0.1078691105749985 0.010952189799360633 -0.07252278227867075 0.11776192327099076 0.05328551480144985 0.10223224827572096
0.05195621578943246 -0.06300137464755638 -0.0006216548476394578 0.0810217607845189 0.01579932984502055 0.00970857572498107 0.10349996018999384 -0.07328729752856532
-0.007126680925265776 -0.02956010919323115 -0.10863695414941847 0.07257541693110962 0.10168192060839966 -0.11932018817668698 -0.05972438109187502 -0.08338224713695054
00000000: 0e35 22c3 7b11 da3f 1749 1e5d 927e 913f
00000010: 3f43 f714 9e13 62bf 0d6a e89b 0832 9b3f
00000020: 3dac 7f2f 352a b73f e045 db34 5660 db3f
00000030: 6b52 37b0 44fa a23f 55d8 8216 e828 df3f
00000040: c35a e01d 1fd4 b43f f5db 111d 482a 97bf
00000050: 874f 8983 168d a7bf 7501 39b7 2149 e03f
00000060: b363 e2f3 de93 b9bf 8121 7578 d530 87bf
00000070: 54fe 0db7 3803 d93f e8ec fe84 9ee1 a83f
00000080: eb1f cf64 0782 db3f 5570 9788 6f18 83bf
00000090: c426 6eb2 c0f2 d83f 0d80 9188 8fdb a53f
000000a0: b911 c947 45ce babf 0e05 e848 7758 d93f
000000b0: b59f e732 2bca a63f f731 635b 8d0b bb3f
000000c0: b7a7 ab01 2378 da3f 9b62 8b0c 18f9 acbf
000000d0: ccb4 2fb7 9fe8 ac3f 0933 ccc9 d8dd b33f
000000e0: 2cb8 ab34 78f3 dc3f 847a 3c1e 5e3f d93f
000000f0: b77f 361f aad6 a8bf 704f 0310 22a1 963f
00000100: 05c2 3b02 42ab b5bf 4ec5 0a8a 64dd dd3f
00000110: 51ff 45ca f13d b13f 9afc 50c2 bb97 db3f
00000120: e933 9b6d 3646 b2bf 1224 6da1 c7d5 db3f
00000130: 5b16 4aab 9864 77bf 1576 9340 eef8 b2bf
00000140: fc0b 3cea e71c b03f b704 b034 3a41 de3f
00000150: a4b8 0dcf 6c8b 94bf e6ec 3dcc 7cb5 dc3f
00000160: 0166 8338 1dc2 b43f 13b3 dd9a aba7 dd3f
00000170: 4915 76ea 87b0 593f 9baf cae7 5ce5 dc3f
00000180: 1792 d3c1 0824 a93f 5d82 d214 ab32 b8bf
00000190: cc7c d17a 11a8 de3f 8d36 5d30 b6d4 bcbf
000001a0: bdd8 2691 68c0 a83f 4383 319b 8b00 bdbf
000001b0: 72bf 6f35 6aae ac3f aa0c e0fe 469d a23f
000001c0: 7926 9778 5d9a b1bf 1d1e 0612 cee5 9abf
000001d0: ad2f df22 b834 bd3f 818b b46f 2af0 bf3f
000001e0: 7f5f 3cdd fb2a 633f ad34 5911 f56e b1bf
000001f0: c3d1 7e2c beee a93f a758 7507 70d9 b63f
00000200: ee34 91b1 8fb3 b5bf bbae 8abb 1fe1 b73f
00000210: b3d2 b5ab e520 b3bf df98 4d2b c9b4 b1bf
00000220: 1f0b b33a b00d 8e3f 0e95 60f4 1e66 a5bf
00000230: e38e 8615 2084 a33f 6359 1822 eb1a 893f
00000240: 77c4 ac59 c0cc bdbf 84a9 6929 5b2b ad3f
00000250: 97e7 ea6e ad53 bdbf 604f 5480 c343 bb3f
00000260: 2f98 f0a7 b3d5 91bf 2636 9c40 b3a1 bdbf
00000270: cbdf b157 df61 bcbf eac5 7b08 3807 b83f
00000280: f11a ef65 803b 933f 6222 0a7d a56a b13f
00000290: 33cd 960a 8cda a9bf e7b6 3332 9d77 be3f
000002a0: 152b 2cc5 0a5c b03f 7bda 3c68 c229 a73f
000002b0: 53af 4be8 9984 be3f 8398 62c4 2559 b23f
000002c0: 1028 8f20 1247 bc3f c743 a58d b17f 923f
000002d0: 38fd 5de6 4d85 a03f c79a 8207 0c5e a53f
000002e0: 5243 7a72 541b bcbf b022 8e54 b908 ad3f
000002f0: c34f 0feb a582 acbf 97f3 8c02 66d5 b2bf
00000300: ef2f a898 2164 b2bf c974 bc32 a4e7 793f
00000310: cfff 4374 3075 a33f 3229 12e8 ea0f ad3f
00000320: 178d 7a1c 3b20 ac3f c349 23da 3033 b0bf
00000330: 539e 1681 7125 8bbf ff0d fbcb f0b2 753f
00000340: 2feb ad14 3790 b7bf 80f5 677c f71f a2bf
00000350: 15d1 0da0 5568 a3bf 50bd f9a6 de4c b03f
00000360: ff28 63c6 8844 83bf 0996 6686 4ae0 babf
00000370: b746 00fb 1770 bb3f 5f6e 4a39 a5db be3f
00000380: bf84 4691 8f59 6ebf 65e1 8da3 2015 bfbf
00000390: 0824 bc35 ee2a 52bf 3f1d ce1b fe90 7ebf
000003a0: 78a5 44f3 5855 5c3f 7f87 c8ad 2802 79bf
000003b0: 009e 549c 836a 693f e63c 55dd 232c bd3f
000003c0: 4ff1 a7ba 6024 9f3f c3a9 326d 6531 babf
000003d0: 8b85 bca7 dc2a b3bf ef29 e65b d96d 933f
000003e0: 4987 a0e3 8fd4 bcbf 8fbc 9fb3 da74 8bbf
000003f0: e5a2 7fef 942d aabf 0fb1 cdd3 dca0 b23f
00000400: bd77 524e cff1 b43f 492a 3cd7 589c b5bf
00000410: 8538 600b c0d3 b53f dfd3 43f4 b70c a53f
00000420: 773f d854 089f 923f 9b51 f820 f47a a1bf
00000430: bf7e 06cf 1c1e 67bf a3a3 b925 c020 abbf
00000440: cbfb c03a 5e5b b73f a72c e904 456b b5bf
00000450: 77c2 36a9 e7e5 b1bf 9784 6568 c0f0 953f
00000460: 438d 5978 d611 a43f bbd2 3a2b 477a a8bf
00000470: 477e 9ab3 0c22 9d3f a729 78c6 13f0 b8bf
00000480: 5b21 faa9 e2fa be3f 69db cd6f 82b1 b6bf
00000490: 9737 c5df dc83 bd3f b7b1 cf82 c6d1 a53f
000004a0: d736 ff96 e21b a63f 6f5b fd3f a989 97bf
000004b0: 978f b84c 89c0 a53f 3134 e55f 692a b93f
000004c0: 67a0 63b1 6fd7 943f a78b 1d8a 149d b8bf
000004d0: 51b2 2f05 a9b4 b9bf 7f65 ed42 d151 b53f
000004e0: ab48 4885 9a5b bfbf 5729 0f1a 4ba4 9abf
000004f0: 8f24 b2bb 9f16 81bf 47b4 72c7 d477 a63f
00000500: a73d 2984 71c5 92bf b5dd 988b 6ca3 b43f
00000510: 89b0 7089 4851 b4bf ff5b 9717 b4a8 73bf
00000520: c993 cbf4 dae8 b3bf 6565 cd22 f496 bb3f
00000530: 179c d98c 1eb8 90bf b747 ea15 9ed6 b9bf
00000540: 77a6 7f70 9819 a7bf f701 ee9b 86d9 a83f
00000550: 3725 5aad 13af 983f 3f49 ac3f eb93 623f
00000560: f97c ba3c 99de b33f 09b8 e6dc 5275 b5bf
00000570: 2975 4c1e 6ab2 b83f 35b4 fe43 1f34 bb3f
00000580: 7739 a0ec 4040 a5bf a7ba 0703 885c bfbf
00000590: c7a5 4fe9 978e 98bf 93b4 268a 280e babf
000005a0: 556e 3edb 12e0 b8bf 37a7 0f87 5c7d 93bf
000005b0: 9f82 4305 3937 9f3f 9f37 e7a2 615e a43f
000005c0: 13da e16a 01a1 a03f e384 0c9b 2c25 bc3f
000005d0: 5fd5 aeb1 fb03 8f3f d37e c566 55f7 b43f
000005e0: bd0a 942d 2d27 b73f 97ac 98e0 3b09 b33f
000005f0: dde2 df4c 2bfc bbbf 9b9b d37c ac2e b43f
00000600: 4f1e a59f 8233 a53f 330b 359a 8f1d b8bf
00000610: 7fd6 2129 94e5 643f 5517 ff72 58a6 bc3f
00000620: a3ce 2fb9 bba8 a9bf a315 5258 1a01 b5bf
00000630: 8f8d 4c09 3a95 9b3f 1752 61e4 a50a a93f
00000640: 5d6b 2d16 6208 b83f b3d2 0f66 a792 b63f
00000650: b34a 3fa9 0a15 b73f 2fbc 6305 dd35 aebf
00000660: 8f81 d92c 27ef bebf 4f28 74c8 787c aa3f
00000670: 633b 82f2 998e a5bf ff57 7ed1 42de 303f
00000680: 5f59 8ee1 986c b23f 25dd 75a2 ac72 b03f
00000690: 15a2 132d 368f b2bf 93e6 9bc1 2f96 a7bf
000006a0: 937f 5339 bd49 a1bf 7d70 6ea2 af48 bbbf
000006b0: 8d1f a65c cf13 b3bf afbd 412b 1db4 b0bf
000006c0: d74a 315e e8dd a9bf f737 337c f091 bd3f
000006d0: 5f8f ff13 5dbb 76bf 6bb7 d45c a750 bdbf
000006e0: 032d 306b 341a ad3f fb99 28be b116 b7bf
000006f0: 1741 30da 12d4 b3bf bf89 2e1f c40a bc3f
00000700: dbd3 29f0 d122 b1bf 0742 e148 727b 9abf
00000710: 3f23 c6da e8c3 66bf a39a 9d7f 0f92 abbf
00000720: 4388 d981 d8ed b13f ff6f 40b7 842a b4bf
00000730: cfde ec72 3950 bfbf 9f20 ce02 a76c b2bf
00000740: f3b1 9d7c ec47 a83f c19b 1a2d d5e3 bb3f
00000750: e110 2b5e 4f9d bbbf bf0d 1008 1a6e 863f
00000760: d310 1a62 da90 b2bf 2fb8 2939 a525 be3f
00000770: d372 d82e 3d48 ab3f 8fd6 f082 e42b ba3f
00000780: a370 474f 019a aa3f 3fdc b6ab db20 b0bf
00000790: ffb0 b89e d15e 44bf cd76 d594 d7bd b43f
000007a0: 87ac ee13 b32d 903f 7f15 d6f9 16e2 833f
000007b0: 5740 2730 f97e ba3f d7ef 18d2 f4c2 b2bf
000007c0: 5f77 0cd8 dd30 7dbf bf24 0159 0145 9ebf
000007d0: 2b74 35a5 a1cf bbbf 3b72 3672 4d94 b23f
000007e0: 1188 9b8b d307 ba3f 0fb0 f891 c48b bebf
000007f0: bb7b 20af 3194 aebf 512b 85f8 8958 b5bf

coeff_generator.4.bias f8 [4]
0.45805158527191087 0.0504542407918415 -0.02758617550715306 0.10695634644983906
00000000: 8bec a798 b750 dd3f d57a 4a64 23d5 a93f
00000010: e8ef 7fe6 8c3f 9cbf 4e09 1aba 7d61 bb3f
