models/livneh-livneh/QM_SST_2000[1980, 1990]_upscale_1by4_R2noisy1_bci.pth (torch, 74424 bytes, 8 tensors)

transform_generator.0.weight f8 [64, 1]
000000 ff ef 31 bf 59 fb f1 bf 8c b9 b9 ec 80 a6 ec bf
       -1.1238648861462932 -0.8953251479668309
000010 45 cc 4c 42 57 f1 e5 bf df e0 3e d7 38 7e e9 bf
       -0.685710553638622 -0.796657963182067
000020 ff 15 4d 05 79 b1 ce 3f 3f 65 01 cd bc c5 a7 bf
       0.23979103812068556 -0.04643049242504071
000030 6e e1 85 3d 84 dd ea 3f 3c 5f c4 6e 16 d8 f1 3f
       0.8395405961628464 1.1152557684744826
000040 29 0a 4a 53 fb 21 f0 bf fb be be b2 d0 82 e7 bf
       -1.008296323154932 -0.7347186556926028
000050 fa 32 fc 08 01 57 e3 bf 47 b5 58 39 f2 e7 cf bf
       -0.6043706107608096 -0.24926593589899879
000060 45 00 c5 8a 30 a4 e6 3f 80 9d 06 2b 5a 10 e3 3f
       0.7075426779119957 0.5957461204861119
000070 27 62 f3 0f 00 5a cf bf 2e 70 33 55 0b 00 bf 3f
       -0.24493408945888115 0.12109442548848001
000080 11 9e 32 0e a7 d4 e7 bf ed 03 1e 73 e6 29 db 3f
       -0.7447085645007424 0.4244323848907346
000090 bb 96 fe 0a 79 0b d3 3f 2f f1 42 cd 7b 0e c0 bf
       0.29757524560623566 -0.12544200441869566
0000a0 f8 63 78 1a 61 69 e5 bf d7 c0 5d ca bf 65 e4 3f
       -0.6691136853215758 0.6374205543961818
0000b0 13 d5 df 1a 90 08 d8 bf 9a 2c 06 3b a9 de d4 bf
       -0.3755226385540748 -0.32609015239786177
0000c0 85 08 9c d1 85 fe ed bf 85 e8 62 c3 a2 6a ed bf
       -0.9373196691451687 -0.9192670646800855
0000d0 50 7b bf 27 0e d4 f0 3f 78 9d c8 e6 91 7a e2 bf
       1.0517713120131766 -0.5774621493809908
0000e0 1f e8 08 22 02 13 de bf 3b b2 c2 bd 88 1d e9 bf
       -0.4699101765032782 -0.7848552423725502
0000f0 25 bc d5 74 e6 f4 da bf 6f 29 58 19 d7 0f e1 bf
       -0.4211975232091752 -0.5331836218841043
000100 ef 72 0d 88 ac ea dd bf cb 63 5d f1 87 d3 d1 bf
       -0.46744836126690265 -0.27853582926541937
000110 6e 41 c1 9b 1e 9a c5 3f 4b 97 f5 ad ca c4 db 3f
       0.16876585583896592 0.43388621319023873
000120 26 16 91 ef 83 57 e7 3f 30 c7 9c ed 0e 66 f2 bf
       0.7294330290830586 -1.1499165803656517
000130 0f 07 b7 9c 3f b6 d5 bf 9f 95 0d 1c c5 c0 c1 bf
       -0.33924856476015547 -0.13869537229326753
000140 ce 9d 15 d7 1a 11 ec 3f 0a 6c f3 c8 37 56 ea bf
       0.8770879937046006 -0.8230246472188594
000150 28 0b 23 d4 9b db b6 bf a1 16 ed b4 76 c3 d8 bf
       -0.08928846291659609 -0.38693015736166997
000160 bb bb 77 65 c7 2d ed 3f 96 28 8f 83 4b df e4 3f
       0.9118382436553171 0.6522576875224952
000170 30 ba c3 b5 34 f0 c5 bf 95 ab 88 95 f5 a4 e9 bf
       -0.17139300227377552 -0.8013866348822939
000180 08 3c f3 c2 16 b5 cd 3f df 2e 21 40 a8 f9 c4 3f
       0.23208889502572583 0.1638689339764516
000190 ae 38 43 e5 af 76 e1 3f 2b f3 28 fa 9c 35 7a bf
       0.5457381704125248 -0.006398785774362629
0001a0 f7 ed 3c c1 80 1f e7 bf 0c c6 4d 12 a7 82 c3 3f
       -0.7225955747775846 0.15242470163097754
0001b0 32 61 cd 57 6e ef 99 3f a2 74 3f 7a 6a 82 ee 3f
       0.025327419384980128 0.953419913068178
0001c0 01 39 94 c6 11 40 d8 bf 13 6c aa ea a5 44 d0 bf
       -0.37891048805694544 -0.25418994824002644
0001d0 5f 23 d8 86 0d c1 de 3f 3c 8e 36 aa b6 2d d7 bf
       0.4805330101813094 -0.3621651327359563
0001e0 8c e2 73 38 a7 f4 e8 bf f7 aa 15 6f f7 6b e1 3f
       -0.7798648932067223 0.544429509126842
0001f0 a3 b3 2a a7 2d 6f df bf eb a6 68 48 a2 ae ce 3f
       -0.49116078686602743 0.23970440421663083

transform_generator.0.bias f8 [64]
000000 01 30 ac 70 c0 ea dd bf 19 60 67 dc 30 33 d0 bf
       -0.4674531078642304 -0.25312444232759074
000010 a6 61 d7 16 cc da c2 3f f1 11 85 e5 7a 24 e9 3f
       0.14730216136264324 0.7857031328972522
000020 b3 04 cc f6 37 21 d2 3f f0 eb 37 27 73 c1 e6 bf
       0.2832775030256684 -0.7111144796357376
000030 b2 dd 2e 83 81 fe be bf b7 58 22 e0 b1 b7 eb 3f
       -0.12107095196448972 0.8661736848469194
000040 a8 f8 cd ac f0 23 db bf 1c 54 31 9a eb d6 eb bf
       -0.4240686118645365 -0.8699853908134432
000050 52 e0 81 20 03 50 cf 3f bc 1c 6e 6b ba 92 ef bf
       0.24462927901527337 -0.9866611574406288
000060 68 a1 0d 03 6e 07 b0 bf 38 d5 31 d7 c3 ed dc 3f
       -0.06261336874525159 0.45201202406981933
000070 0e 08 a6 b2 32 2e e7 bf 21 1f 1a 9c 98 09 e0 bf
       -0.7243894089917846 -0.5011714028232498
000080 f9 42 a1 5c c5 e5 c1 3f 36 ee 3b b5 56 02 c9 bf
       0.1398245527548381 -0.19538387154885734
000090 21 ce 7c d6 83 07 d5 3f 14 1c 24 42 a1 47 e5 bf
       0.3285836786846819 -0.664993886167283
0000a0 f1 92 40 da 87 99 e6 3f 79 e6 d3 e6 71 af eb 3f
       0.7062415373553376 0.8651666172365388
0000b0 aa 6a 41 d1 3a 0f e1 bf 38 a3 ee d3 25 8d d5 3f
       -0.5331091010114808 0.33673997589589844
0000c0 bc b3 a4 e0 4a 40 ef bf 3c 02 f1 3b 7f d8 e9 bf
       -0.9765982043805859 -0.8076778574687249
0000d0 79 0f ba 1c 0d 45 e9 3f e6 da c4 50 42 9f d5 3f
       0.7896791039533887 0.33784540069193125
0000e0 f8 77 79 8e fe 61 ea bf f0 ef 32 57 1f a4 cf bf
       -0.8244622023300954 -0.2471961189056624
0000f0 23 5a dc 98 d4 d8 ea 3f 98 93 98 d6 67 72 da bf
       0.8389685617028743 -0.41323276478424864
000100 f3 0c f8 1e eb 17 96 bf 56 9f 66 dd 00 84 a3 3f
       -0.02157561661261993 0.03811648085257839
000110 ce 1a 88 b1 80 2f ee bf 34 ab eb 1f 7a 94 ea 3f
       -0.9432986705222335 0.8306246398400163
000120 7d 16 e0 31 85 86 d5 bf d8 f6 2f 2d 65 76 de bf
       -0.3363354670585535 -0.475976270797998
000130 43 99 e8 fa 1a e7 e1 3f af 94 89 5b 9f cf b9 3f
       0.5594611073072787 0.10082431778717436
000140 16 92 fd f1 8b f3 cc 3f 57 92 1a b9 0d fa cb bf
       0.22618245426123512 -0.21856853044768584
000150 5c 8c 58 68 a7 33 c0 bf d4 f5 43 ef dd 28 d3 bf
       -0.12657635302557224 -0.2993693195893148
000160 ce 7a c2 20 1e 69 b3 3f 1d d2 63 3a a1 41 c5 3f
       0.07582271861836462 0.16606536246367024
000170 73 f6 b4 28 f2 79 ce bf ca 51 33 3d 54 67 e4 bf
       -0.238096494556817 -0.6376134105035416
000180 48 5b 62 62 cb cc f0 bf 86 b3 a2 68 a7 0b ee bf
       -1.0499986498959561 -0.9389226001418229
000190 7d 00 b5 44 2d 56 de bf c9 91 0d a2 5e ba dd 3f
       -0.47400981626197575 0.4645001013325581
0001a0 4d d7 44 0a 6c 3d e9 3f a1 c7 86 c1 f1 d9 eb bf
       0.7887478066029218 -0.8703545360387929
0001b0 cf 6f 32 c5 b5 08 e9 3f 54 0e b3 b1 65 27 ac 3f
       0.7823132373337048 0.0549880771082171
0001c0 92 fb 7c b1 33 61 d0 3f 50 54 93 49 49 85 e3 bf
       0.2559327348025643 -0.6100202977201068
0001d0 41 d8 ee 30 50 5d d3 bf 1a e3 da be 81 01 d4 bf
       -0.3025703885899738 -0.31259196890054997
0001e0 44 0d 16 a3 f3 83 e2 3f f6 e7 af dd f4 ea da 3f
       0.5786073861385508 0.4205906071580324
0001f0 d0 30 f8 96 32 56 da bf b4 e6 f3 9b 59 ca e0 3f
       -0.4115110849677537 0.5247009321166929

transform_generator.3.weight f8 [64, 64]
000000 b3 87 41 d1 82 8f d1 bf ba ec fc b8 f1 e6 cd bf
       -0.2743842166438483 -0.23361035854927598
000010 3a 5d 0f cc 0d e9 ad 3f c0 03 64 83 7a e1 a4 3f
       0.05841868511168476 0.040782764948751105
000020 2b d0 a9 87 36 83 8b 3f 47 eb 07 0c a6 6a 90 bf
       0.013433862700573304 -0.016031832203206944
000030 49 fc 89 0c 3c 21 c2 bf e7 12 49 24 57 bb b2 3f
       -0.14163923847442764 0.0731710876071464
000040 ca 64 16 3f 10 57 d4 bf 65 9d c3 ce d0 19 b2 3f
       -0.31781393204580566 0.07070641563369902
000050 de 61 72 86 84 56 a1 3f 8d cc fe 7d 1f 94 b2 bf
       0.033863202487910846 -0.07257267786080686
000060 67 81 5e fb 49 b6 c4 bf a7 ab e0 8a 93 d7 90 3f
       -0.16181301854977478 0.016447358466546238
000070 f7 89 a2 26 f9 49 a1 bf 35 95 ef 0f 88 4b a7 bf
       -0.03376749607675216 -0.045498134560867966
000080 d9 0b 3e 41 97 80 a8 bf 5e 35 ee c6 ba be a4 bf
       -0.04785607024589184 -0.04051765135146
000090 c1 48 38 09 c4 53 88 3f 3f c9 91 b1 a5 5f 6b bf
       0.01187852051865368 -0.0033415065959669084
0000a0 58 4c 1c 97 50 42 93 bf 58 72 53 82 72 1d 9e 3f
       -0.018807658408217826 0.029409207539048715
0000b0 ff 4c 36 bb 3e c6 b7 bf cb a6 60 ad 9f 01 a9 3f
       -0.0928687293110677 0.0488405131475936
0000c0 cf 50 ad 1f 06 52 af 3f 37 a9 f0 6a a4 ca 99 bf
       0.06117266785318664 -0.025187081362824073
0000d0 b7 a6 03 c9 0f 94 9c 3f 66 7b 74 db c6 b0 a6 3f
       0.027908560413300445 0.044317449845258136
0000e0 5f db 2c 4b 31 34 81 3f 91 1b 69 7e a5 2f a0 bf
       0.008400330645242425 -0.03161351364229071
0000f0 ec 8e f6 20 d5 ab 76 bf d7 76 2b 93 09 e8 9c bf
       -0.0055349660246155445 -0.028228902442484518
000100 bf 57 a0 c9 39 41 bf bf bc c9 8d 42 1d 7f b7 3f
       -0.12208901569860496 0.09178336024141392
000110 5f 85 d4 3c 53 e7 7f bf 88 2b 10 5b 53 11 b3 bf
       -0.007788968226379949 -0.074483117801874
000120 86 c0 58 a2 78 5d 98 3f a3 24 68 cc 3b 06 c3 bf
       0.023794064434867333 -0.14862773400117132
000130 96 6c d3 c4 db fa b5 3f 9d 4f 97 f0 ea 77 be 3f
       0.08585904650992612 0.11901729940228596
000140 e5 bb cc df 42 67 9a bf c8 d8 5e 68 25 18 c4 bf
       -0.025784535321857666 -0.1569868812200126
000150 3f fe 37 95 fb 21 87 bf 6a ac 71 c5 5c 85 ac 3f
       -0.011295285693449062 0.05570497427182704
000160 b9 8d 80 42 45 8e a3 bf 5c 11 ef 8c 1b bf 9b 3f
       -0.0381948131255529 0.027096205212516863
000170 1e 4b 22 45 c2 25 8a 3f 2f bc 73 1e 98 71 b9 bf
       0.012767331824112878 -0.09938956016024812
000180 6d 04 19 58 0b f2 b0 bf b3 4b e9 f6 00 d3 bd bf
       -0.06619330311606726 -0.11650091198070704
000190 58 76 81 fd 99 19 c2 3f 95 95 7e 71 1e 38 92 3f
       0.14140629652222247 0.017792201687958437
0001a0 c0 29 ff 4c 8d 22 82 bf ef 06 0a 3a 72 54 b0 bf
       -0.00885496512627959 -0.0637885467240513
0001b0 23 56 11 b7 59 e5 af 3f eb b6 de 74 37 64 97 bf
       0.062296680066236364 -0.022843233593156247
0001c0 4b 72 04 59 4a 99 b2 bf 3b 62 27 b3 ec db a2 3f
       -0.0726515261962472 0.03683414160667949
0001d0 92 9f 32 88 ec 5c c1 3f 02 62 c9 63 f8 3a c2 bf
       0.13564831400185234 -0.1424246299018393
0001e0 35 c2 35 16 68 f7 a9 3f 30 a7 05 d7 df c2 ab bf
       0.05071568747633074 -0.05422114848881987
0001f0 f3 e3 96 dc bf 54 a6 3f 1d 1a 81 87 6b 75 95 3f
       0.043615337064188874 0.020955734391714487
000200 67 af 9d ab bb e3 c5 bf a6 b3 68 09 9e ff a2 bf
       -0.17101236228642877 -0.037106455467756747
000210 47 55 83 cc b3 0f ba bf 5e 17 94 3e 37 ca c1 bf
       -0.10180209868425037 -0.13898363643255157
000220 5a cf d1 02 84 be 80 3f b3 b9 1f 93 f4 ed ab bf
       0.008175879798933462 -0.05454983039804819
000230 14 39 55 8e f2 c2 80 3f b6 81 fc 97 97 85 c1 bf
       0.008184332817702734 -0.13688940926750853
000240 6d 68 1b 5e f6 fe a1 3f 3f e6 e8 41 d4 36 a7 bf
       0.0351483335377488 -0.045340188069939995
000250 d8 66 ea 7d 1a 30 c7 bf 31 5f 7a a9 b4 b4 b0 bf
       -0.1811555018255635 -0.06525735032698489
000260 e5 27 e4 4c e3 06 b0 3f cc 61 b5 ae cc 9b 9d 3f
       0.06260510089137446 0.028914640582429915
000270 af 2b 59 e1 fb 13 b4 3f ec 0f aa cb 06 5d 9e 3f
       0.07842993022602117 0.02965174310749312
000280 c5 f4 96 db 0b f1 b7 bf 40 28 e0 52 0d 72 b8 bf
       -0.09352182494235979 -0.09549029610948967
000290 67 6d d1 b7 19 99 95 3f bb 26 68 1a 95 e9 bf bf
       0.021091844410290685 -0.12465793509195582
0002a0 28 65 4d f4 7a 9d c0 bf c0 09 96 21 86 13 bb bf
       -0.12980591706108524 -0.10576666183445749
0002b0 2f 64 09 4a 00 0a 86 3f 67 34 de 26 62 7f a3 3f
       0.01076126314107925 0.03808123325789197
0002c0 87 66 c5 91 5e d7 94 bf ed cb a1 bb 26 1f b4 3f
       -0.020352819106256106 0.07860033112392247
0002d0 ed cf dc 78 b5 e1 b1 bf 1b d6 ca b3 37 d8 c0 bf
       -0.06985029412027162 -0.1315984371082529
0002e0 fd 24 ba 9d 20 a3 b2 3f dc 6e 19 60 fa f0 a3 3f
       0.07280162668952879 0.03894789145553343
0002f0 9e 3e 64 06 7d 28 9d 3f 55 9c 32 ba 1a c1 ba bf
       0.02847476340781318 -0.10450903936235652
000300 13 be 13 48 6b 62 c3 bf a7 95 2b 5d ae 68 88 bf
       -0.15144101161375598 -0.01191841337044759
000310 93 e3 62 ea 97 e0 ac 3f 77 97 cc b6 11 04 c5 bf
       0.05640101181183534 -0.16418668199292671
000320 24 14 d1 14 ca d2 a8 3f f8 9e 1b 7f 1b 8b a5 bf
       0.048483195344069224 -0.042076930299854653
000330 fd cc 80 5b 08 95 84 3f b7 6a f7 17 72 76 b5 bf
       0.010049882214025358 -0.08383858761900852
000340 33 9f b7 ea db 3b ad bf 44 5c 9a 5f 12 61 90 bf
       -0.05709731331063352 -0.015995299420492395
000350 bf c0 64 a0 b3 10 9e 3f 7a 12 9f 9a 82 8a b4 3f
       0.029360586800238005 0.08023849749504022
000360 c5 40 94 4e bf a8 c6 bf 99 02 f9 d2 db 8c 94 3f
       -0.17702475869055526 0.020068583251716097
000370 29 03 b3 79 7d 60 a8 3f ab 72 6b fa 43 80 ac 3f
       0.04761116133295779 0.05566608840829209
000380 89 55 bc 3a 8c 8a c4 bf b3 10 45 1e 71 a7 a2 3f
       -0.16047814243271954 0.036433730073015445
000390 3e 60 76 7a 51 9a 90 bf 0c cf d3 14 6a 8e c4 bf
       -0.016213677501213157 -0.16059614197694605
0003a0 ae df 6a dd 38 81 94 bf 56 c4 83 8c 8a 5c ac bf
       -0.02002419330048582 -0.05539353337543022
0003b0 ba 55 e2 db e4 29 a9 3f 9f 58 27 be 89 af 5f bf
       0.04914775070316631 -0.001933941378060612
0003c0 62 d9 44 6d 92 89 af bf e5 c8 93 26 c0 a7 bd 3f
       -0.0615964659104289 0.11584092084720828
0003d0 bd e1 e2 ce e3 3b c6 bf 42 46 18 98 28 c0 8e bf
       -0.17370269395702378 -0.015014950887265791
0003e0 15 43 38 c3 fa 77 c3 bf 5f d5 52 05 fb 8c c5 bf
       -0.15209898502555377 -0.1683648849481569
0003f0 dd 2f 2f 41 01 3f b8 bf f3 53 44 fa 85 56 b9 bf
       -0.09471137849249041 -0.09897649154693493
000400 8c 33 3c e3 34 03 bf bf f7 a6 83 23 29 c4 b0 bf
       -0.12114267871602474 -0.0654931747154953
000410 81 20 af f4 f0 64 af bf a3 57 36 ea ca 20 c7 bf
       -0.0613169954954751 -0.1806882518400786
000420 72 57 6c 49 5d 66 a8 bf 57 1a 41 6f 55 ad a0 3f
       -0.0476559784057561 0.032572431403015294
000430 24 6d c1 b3 bb 87 a5 3f e9 a8 d1 e2 11 04 a8 bf
       0.04205118722230797 -0.046906050622810565
000440 d6 be 30 5c 7f 57 a1 3f 31 27 7b 4d de f9 b9 bf
       0.03387067795153846 -0.10146893874766928
000450 78 3c 9f 17 cc 1b af bf d3 c3 ec d5 aa fc a7 3f
       -0.060758951076075485 0.046849573720812686
000460 79 43 b5 9c 09 af bf bf a8 b8 6b 78 c8 d6 bc bf
       -0.12376461101417914 -0.11265232982597928
000470 c7 10 b6 5b b3 57 92 3f 0f e0 fc 06 c1 da c3 bf
       0.017912676308257127 -0.1551133426780784
000480 da 3d 30 f9 b0 ba 80 3f 46 36 5d 51 dd 28 ba bf
       0.008168585400226403 -0.10218604313305332
000490 af 0b 13 49 4c e0 bf bf b9 9f 84 be 8e 41 b9 bf
       -0.12451626571696182 -0.09865657950706365
0004a0 9c 23 8c 70 3a a0 a6 3f 62 a3 3c bc 18 4e c3 bf
       0.044191194761942415 -0.1508208197713215
0004b0 b3 7f 4e 96 fd 67 a0 3f 8b 03 bc 34 77 89 8b 3f
       0.032043385122278244 0.013445788666560229
0004c0 c7 5d e5 8b 2f 8f ad 3f e3 36 dc f1 53 4c b2 bf
       0.05773304541315443 -0.07147717146673531
0004d0 44 a2 75 39 ab 26 c1 bf d8 74 84 b2 8a 41 b0 bf
       -0.1339925795139313 -0.06350008829436449
0004e0 07 61 d8 4f a5 54 a7 bf c9 70 d1 a6 0e 88 9e bf
       -0.04556767081902718 -0.029815892154474697
0004f0 0e 40 c4 4c 22 34 a7 bf 0b 4d 98 12 04 f7 a4 bf
       -0.045319625731394905 -0.04094708182324255
000500 01 7c 6e 43 aa 8d 9b 3f a0 08 9c 93 6e 96 c6 bf
       0.026907596936890602 -0.17646581847663345
000510 ff 6c f8 fe ab 2a 82 bf e5 2d c1 3e be c5 ae bf
       -0.008870452612475875 -0.06010241046950763
000520 0f 0e 4f b4 83 f5 82 bf 22 30 29 a0 af 5a 8c bf
       -0.009257344188774245 -0.013844844889852995
000530 88 f6 c2 80 52 83 c0 bf fa b1 6b 35 8b d6 a6 bf
       -0.1290076378553986 -0.04460558917148556
000540 35 90 e0 a7 e4 a7 ac 3f 3e 77 1a 26 b5 6a c7 bf
       0.05596842335970146 -0.1829439579059286
000550 b1 62 a2 f0 27 84 84 bf 0f 10 72 60 db 96 97 3f
       -0.010017692595554935 0.023036411058015512
000560 7a 13 b8 e9 2c 32 9f 3f df 64 a4 2b 3b 7a c0 bf
       0.030464841618612827 -0.12873019820179984
000570 3b 89 d9 99 a2 df b1 bf 8f 45 4e c9 9d 4c 86 bf
       -0.06981865173432748 -0.010888321596015852
000580 33 ef 1e aa c4 5e c6 bf 0f 17 39 83 cf 10 87 3f
       -0.1747670965831901 0.011262532417400743
000590 64 db d4 9e 66 c5 b5 bf 23 eb fa a2 c4 e0 b3 bf
       -0.0850433480999136 -0.0776484392071493
0005a0 de a2 4e ad 10 68 a8 bf 6d fc e3 d7 fb 74 ba 3f
       -0.04766895404401848 0.1033475305630291
0005b0 a4 c0 92 8d 6e f6 c6 bf de 0a 7f e1 d1 c0 85 bf
       -0.17939550316578334 -0.010621680921649664
0005c0 c2 6c a4 55 3c d8 a7 3f 7f 9e 0b 5a 0a 3a 50 3f
       0.046571622328167375 0.0009904004183968471
0005d0 54 a1 53 48 c5 37 c4 bf 0d b9 07 10 a4 5e b8 bf
       -0.15795198470665162 -0.09519410506593236
0005e0 19 2f f4 9f e9 2a a9 bf e7 07 73 1b dc 37 a7 3f
       -0.04915552213250702 0.045348051405667715
0005f0 8f 08 10 76 fc ef 9d bf 05 dd b8 53 89 be ad bf
       -0.029235787111254793 -0.05809430262564245
000600 c8 ff 80 f6 5a 89 61 bf 52 d8 62 7f f0 26 b4 bf
       -0.0021406914347892082 -0.07871916875851184
000610 67 4b 93 0b 67 2c c7 bf 94 63 11 f6 eb bd c0 bf
       -0.1810425573845251 -0.13079595103297648
000620 9e 07 4d eb 59 65 b4 bf 81 1a 8f af 32 60 b2 bf
       -0.07967149729395692 -0.07178036485775331
000630 b1 7a b7 73 70 7e bb bf 2d 7b cd 6c 46 9b 94 bf
       -0.10739806008448728 -0.02012357749060383
000640 75 5b 99 bc 6f f7 be bf 9b bd 60 bc d1 ce a2 bf
       -0.12096308092564619 -0.036734155888889584
000650 8f 01 a0 42 ef b1 c8 bf 55 c7 79 c2 37 98 bb bf
       -0.19293013337302198 -0.10779140947286454
000660 06 3b 4c 42 09 7b b1 bf 33 9c ea d4 c9 9c 9f bf
       -0.06828363293264425 -0.03087153780020575
000670 a3 a7 ca cf 77 57 b2 bf 3f f4 df cd 98 ae a9 bf
       -0.0716471559814225 -0.05016019356842393
000680 a9 7e d7 ec ac 20 a5 3f d2 fc 63 61 44 44 c5 bf
       0.04126491919646231 -0.16614584689521067
000690 2f b5 54 54 09 d1 c8 bf 9b 98 50 f2 98 5c a1 bf
       -0.1938792859813616 -0.03390958745903668
0006a0 c8 a8 16 05 c4 3d 58 3f 3d 91 8b 7e 7d b1 ab bf
       0.001479569841061722 -0.05408851785412814
0006b0 f3 73 d3 db 81 d4 ab 3f a0 88 93 04 98 cd b2 bf
       0.05435567673132615 -0.07344961272932204
0006c0 0d d2 64 e7 d3 2f b7 bf 2b 24 13 34 d8 97 ae bf
       -0.09057354354155951 -0.059752231938155674
0006d0 c2 fc e5 8f 64 27 ab bf de ac d0 8c 02 ac 81 bf
       -0.05303491837093467 -0.008628864214264838
0006e0 ed 00 2a f8 43 c6 b2 bf a4 6d 15 e7 52 9d 85 bf
       -0.07333779152577664 -0.01055397765838146
0006f0 30 a4 e9 14 a0 33 ba bf 11 b8 d6 eb fe 29 ba bf
       -0.10235023985446001 -0.10220330484182251
000700 ac 39 86 6d 14 ac c9 bf 41 0e 59 58 d4 73 a0 bf
       -0.2005639586245257 -0.032133708748486096
000710 df 29 5c 34 fe 62 79 3f c3 26 a4 d1 47 20 ab bf
       0.0061979226936821055 -0.05298065599533921
000720 88 4b b1 aa 3c 0c bc bf c0 83 c8 a0 a8 38 a3 bf
       -0.10956172148989485 -0.03754164660154613
000730 1f be 6e f8 61 4d af bf 6e c6 d5 62 77 05 b0 bf
       -0.0611372581255376 -0.06258340990987118
000740 f7 89 7e 89 c4 ab 9d 3f 58 f1 5f 1c a1 6d b6 bf
       0.028975554363237035 -0.08761031096213878
000750 92 66 f3 3f bd 4c b6 bf c8 64 9b c9 9a d4 bb bf
       -0.08710844813631471 -0.10871283933683451
000760 86 22 b3 ad d1 00 c4 bf 33 73 10 f6 f2 17 9e bf
       -0.15627499562676322 -0.029388233440943167
000770 80 68 7f 81 57 e8 aa bf ab 77 2d 96 6d e1 b5 bf
       -0.05255387740881279 -0.08547100941129197
000780 43 b0 55 4c 1e 32 c0 3f e9 5f 21 92 e7 ac bc bf
       0.12652949073106087 -0.11201331441532116
000790 5e dd 82 80 c5 80 b3 bf 0e 27 41 d9 e9 93 c1 bf
       -0.0761836470363639 -0.1373264609158515
0007a0 21 ad 70 28 97 dc b9 bf 76 0a 2b 5f 52 2d 75 bf
       -0.10102219331081531 -0.005170175327921292
0007b0 76 7e 3a bf 1f 95 95 bf 55 fa d3 00 2b f5 be bf
       -0.021076675459538362 -0.12092846651283058
0007c0 7c 57 99 05 6e 50 c0 bf f3 af cc 5c 65 99 a4 3f
       -0.12745452187908402 0.040232818201133023
0007d0 23 e4 ee 9e 6f 9a c4 bf d7 05 df dd 0e 2e c2 bf
       -0.16096301327141402 -0.14203058084062434
0007e0 40 c3 18 21 f4 07 c9 bf 9d ed 61 17 25 a8 82 3f
       -0.19555522552539095 0.009109773422315831
0007f0 6b a7 6f 20 26 34 bb bf 70 28 3b fd 42 96 ca bf
       -0.10626447955988076 -0.20771062245177374

transform_generator.3.bias f8 [64]
000000 c1 c4 38 34 3d 0e a5 bf 82 ff ec 9b c9 af ad bf
       -0.04112426054451524 -0.05798177746191781
000010 0e d9 ff d1 2c 4a c2 bf 0c 2f 36 ea dd f6 a6 bf
       -0.14288864377858385 -0.04485219463376042
000020 ca be 96 91 76 2f 9f 3f 89 86 ef f8 0a f6 b4 3f
       0.030454495082891588 0.08187931611566958
000030 53 c1 02 d2 24 a3 c0 bf c4 e9 8a 4c 6d 60 ad bf
       -0.1299787545626808 -0.0573763042388751
000040 69 77 3c d0 5a 75 b3 bf 2c 54 b1 8c 92 bf ac bf
       -0.07600944122211008 -0.05614908187332221
000050 9d 76 cf 7d 2d bb a1 3f 9f 30 f0 da 76 9a ad 3f
       0.034631177528109826 0.05781909391962014
000060 fc 8e ad ea 55 b6 b5 bf 9c af 38 72 99 93 9b 3f
       -0.08481347064440209 0.026930234524271776
000070 91 7d 22 e8 8a 83 99 3f 33 b4 79 87 9c a7 a2 3f
       0.024915857714061188 0.036435023820424205
000080 83 ce 28 d5 c3 06 8f 3f ee d1 b9 bc ce c3 76 3f
       0.015149621908768346 0.005557830397823411
000090 3e 4e 6b ee 72 26 64 bf 12 f8 31 61 6c d7 c0 bf
       -0.002459740138286453 -0.13157419916018448
0000a0 61 6a df 84 e0 36 bb bf f8 47 d9 e3 2f e5 b7 bf
       -0.1063061069866449 -0.09334086716378909
0000b0 63 4f 61 c8 39 04 ad 3f 6d 85 b4 7c 07 4d 58 bf
       0.056672864637816976 -0.0014832089535235752
0000c0 1e 39 30 62 d3 09 c6 bf 25 ce b5 4f f0 e1 ce bf
       -0.1721748570857437 -0.2412701024255607
0000d0 95 b6 9f 6e 22 49 8a bf 3e c5 3c a5 be b6 c4 bf
       -0.012834805489514248 -0.1618269259284179
0000e0 36 11 3f ee e4 4b 99 3f ec 7a f0 99 f3 a2 b9 bf
       0.024703576127437198 -0.10014269359860933
0000f0 af 3f cf b9 a4 c0 a1 bf 5f 90 ae 73 53 9b 8a 3f
       -0.034672877961951946 0.012991573303061608
000100 0d 0d 52 80 e3 65 b6 bf 8b fe b2 fe 53 07 c1 bf
       -0.08749219782662383 -0.13303613602146344
000110 e9 e7 a1 81 d6 ab b6 bf 92 23 ee 19 29 0d 91 3f
       -0.08855953850607502 0.016651766021400123
000120 ba b2 12 2e 08 9c 5a bf f0 9f 8d 5b b9 e3 ad 3f
       -0.0016241149790331825 0.05837802164643324
000130 27 14 d3 09 3d c0 b4 3f 43 4e 46 ad 52 eb c4 bf
       0.08105832567078207 -0.1634314867084062
000140 07 28 7c 8b c1 e1 92 3f b5 90 a2 62 2d 72 bd bf
       0.018439315927970792 -0.11502345712739521
000150 19 b2 c8 5b d9 3e b2 bf 02 92 8b 52 ed 9a bf 3f
       -0.0712715004999115 0.12345774903548803
000160 3b 98 95 fb 16 3d ac bf 9c 57 bc a9 56 b9 bc bf
       -0.05515357800577233 -0.11220304149568822
000170 ab f5 31 3a ea b4 ad 3f 0e de 9c 3d 57 dd b5 3f
       0.0580208965338714 0.08540864233224729
000180 93 60 c4 49 47 67 c1 bf 61 c2 08 27 6e 30 98 3f
       -0.1359643087569152 0.02362224686857173
000190 13 cd e1 13 9c 55 a9 bf 1d 7b 7a 87 cc fc b5 bf
       -0.049481275012022284 -0.08588865573481681
0001a0 73 32 6c 47 9d 16 c5 bf 09 0c a5 b7 8e b5 b8 bf
       -0.1647526358359702 -0.09652034743798778
0001b0 f9 fd 22 d5 81 97 a0 bf e6 03 f3 ec 39 92 98 bf
       -0.03240590788618287 -0.02399530895923254
0001c0 54 ff 31 09 34 f3 c7 bf 3e bf 01 6e 8c b8 b4 3f
       -0.18710947464932792 0.08094098745072828
0001d0 05 48 06 91 29 9c 92 bf 8a 06 30 bf c0 d5 b1 3f
       -0.01817383716258549 0.06966786067644129
0001e0 d5 85 d9 8a a4 b9 ba bf cc 83 b6 b5 c3 3e c4 bf
       -0.1043951834667703 -0.15816542027189795
0001f0 b3 bd 04 36 9c 1d 9d bf 53 f8 97 b7 ba 2e 91 bf
       -0.028433266446141036 -0.016779820876756734

transform_generator.6.weight f8 [64, 64]
000000 5e 53 fe ec 4d fc a3 bf c5 48 2c 02 30 4c b0 3f
       -0.03903430479036872 0.0636625294976368
000010 5b d3 0c a6 e9 59 7e 3f 94 76 53 f0 45 bd a5 bf
       0.007409966173146677 -0.04245966490428291
000020 74 c2 28 75 a0 da a2 3f ef 30 94 9d 42 60 95 bf
       0.0368242400185225 -0.020875016086436323
000030 33 ff 50 3d ed 60 92 bf 49 08 22 e7 18 27 b6 3f
       -0.017947871081786814 0.08653407709974305
000040 02 55 c2 3d b5 be b7 3f aa 16 b5 d9 4a bf b5 bf
       0.09275372274199259 -0.08495014014359961
000050 8e d1 73 8e 28 99 b1 bf 38 af d2 ee 38 aa b0 3f
       -0.06874326207964129 0.065097387606042
000060 8e 29 6a 1f 96 c3 bc bf fa c6 8b 23 c1 4d bf bf
       -0.11235941187820783 -0.12228018873045335
000070 a4 40 e3 c4 3a f5 5d bf 31 2d f7 02 97 b0 b3 bf
       -0.001828486816112509 -0.07691329786682811
000080 ca 59 0f 20 99 6c 2a 3f a7 90 cf 0c 88 5b b6 bf
       0.00020160073475379423 -0.08733415901912399
000090 6f 0d ad 85 db ed a9 3f 13 29 60 60 d9 90 b1 bf
       0.05064283377444211 -0.06861647227211547
0000a0 c1 49 58 7f 44 28 b6 bf 8e 47 bc 12 d5 3f a6 bf
       -0.08655193432813403 -0.04345575193123273
0000b0 8d 6c f6 b5 82 92 b1 bf af 31 32 a6 d1 90 ab 3f
       -0.06864182417341365 0.053839255845648075
0000c0 1c 12 e6 b9 b5 57 b5 3f e4 94 6d 24 6e 3b bd bf
       0.08336959637205904 -0.11418808354717985
0000d0 95 cc 27 ea 41 2b a5 bf f6 23 83 f8 82 9d a0 3f
       -0.041345653375082815 0.032451718173952246
0000e0 d5 07 33 f6 44 9c a0 3f 20 81 29 5e d2 75 a9 bf
       0.03244224076617256 -0.04972703360977193
0000f0 ae a8 80 cf b9 7a ba bf c6 1d 6e e5 b4 ce 8e bf
       -0.10343514743786628 -0.01504269910016277
000100 9f 24 17 f4 8f 44 b5 bf d3 34 12 55 10 96 98 3f
       -0.08307742795217841 0.024009947960213673
000110 3a a2 e3 ba 9a 7c b3 3f db 5f f8 e7 b8 76 8e bf
       0.07612006247257677 -0.014874882296723449
000120 2e bb 33 bc 22 8c b0 bf 09 47 a8 ce 05 76 59 bf
       -0.0646383008458826 -0.0015540177070118585
000130 87 db cf ab d0 50 c0 bf ee f2 b5 13 8b 6e c1 bf
       -0.12746628178839733 -0.13618601286352522
000140 6d 74 98 d7 5a ca b0 bf 02 1f 8c f1 2b d7 c0 3f
       -0.06558769000589999 0.13156651777557477
000150 ae ed e6 75 21 f4 bb bf 20 e5 14 e5 50 e7 54 3f
       -0.10919388893574108 0.001275853155972513
000160 a2 67 d4 ac 17 8f a2 3f ad df b7 f6 4b 63 bc 3f
       0.03624795899140955 0.11089014790911618
000170 69 5a be 98 c1 71 c0 bf e1 a6 94 78 87 4c 89 3f
       -0.12847156484777436 0.01235299908383375
000180 da 12 e9 83 b2 2a 85 bf 69 66 17 3a cf ac bd bf
       -0.010335344935023572 -0.11591811340567805
000190 a6 c0 dd 86 40 77 ac 3f f9 c4 ad d9 f3 e9 aa bf
       0.055597320998346064 -0.05256616623126748
0001a0 71 25 3b 8b da de 90 bf c5 f0 23 ff 13 04 c3 bf
       -0.016475119350422177 -0.14856195409800513
0001b0 0b ec 75 54 6f 9c aa bf fc d5 89 6e 92 46 b7 bf
       -0.051974753437171804 -0.09092059324924401
0001c0 2e b4 19 6b 8c dd be bf 4c 29 1a 57 36 a7 c1 bf
       -0.12056806196933742 -0.1379154134086299
0001d0 f8 9c e6 16 65 90 ad 3f f3 df fa a6 c7 ce b2 3f
       0.05774227051306896 0.07346771074924145
0001e0 9b 5b 88 6a 8d f9 a6 3f 8b bb a6 33 eb 3e ba bf
       0.04487268376777039 -0.10252256403940245
0001f0 9d e3 af 6d 32 b6 94 3f 15 07 40 0e b9 13 c0 3f
       0.020226276345031036 0.12560189433866556
000200 e4 f6 45 9b 58 37 b9 bf c4 c5 54 3d 0f 77 c2 3f
       -0.09850076475955977 0.1442584084957571
000210 6d ff a8 d0 43 63 a0 bf 27 c9 14 c3 a6 2e ae bf
       -0.03200733110543195 -0.05894967204439388
000220 1d 33 c5 5c 19 be 9e bf 0e 4d 77 2d 04 30 ac bf
       -0.030022045409441412 -0.055053835439730844
000230 1d ac 33 1e 72 8f 83 bf c9 27 e0 95 7e 04 91 3f
       -0.009550944849669613 0.01661870755928144
000240 c3 4e 7b 21 21 d8 b9 bf e1 32 79 e7 85 76 b6 3f
       -0.1009541231863365 0.08774601842123843
000250 ce b4 0a 2c 47 25 ac bf 8d eb 10 47 62 f2 b7 3f
       -0.054971908689688584 0.09354223475467745
000260 23 33 4d bc b9 bc 94 3f 85 97 d5 9d 75 ac c4 bf
       0.020251180761351805 -0.1615130444217209
000270 20 de 77 49 3b 99 ba bf 72 ef fe df e8 8d b2 3f
       -0.10390062850626025 0.07247786968849626
000280 d4 b7 e3 c5 70 a1 66 bf 2a 93 69 2e f6 8b b3 3f
       -0.002762527713563204 0.07635439522853163
000290 e9 49 97 0c 3b f2 82 bf 01 a9 5d 24 b1 46 b1 3f
       -0.009251080819841344 0.06748492372358685
0002a0 72 99 b3 26 8f c6 bc 3f f5 54 3b 1c 15 56 76 3f
       0.11240477270948704 0.0054531883831334576
0002b0 5e a1 c8 f2 74 29 b3 3f b9 6a 0b 78 94 df 96 3f
       0.07485133101784444 0.022337264849606273
0002c0 0b 2f 63 02 2a aa c3 3f 19 62 a7 5e ff b2 ae bf
       0.15363049618314792 -0.05995939283792868
0002d0 9c 38 f5 a4 ab 25 90 3f 95 99 3a 0c ad b4 7b bf
       0.015768701499205492 -0.006764102905128762
0002e0 0b da ab 91 2c 3a c3 bf be bd cd 2b fd 06 93 3f
       -0.15021283257347337 0.01858134822708534
0002f0 7f d3 97 0c ae 43 9d bf 47 f9 f7 d5 0b 78 a5 bf
       -0.028578490751857807 -0.041931505078525215
000300 2a 85 13 b9 71 c0 b2 bf b5 83 77 0a 71 5c a0 bf
       -0.07324896591628219 -0.03195527317780692
000310 71 01 8d 3c c6 ea b2 3f 47 4b e6 4a fa 99 95 3f
       0.07389487245837302 0.0210951908316688
000320 22 db 1f dd 83 be b7 3f c7 86 8b b2 05 fc bb bf
       0.09275077961488568 -0.10931430443772704
000330 59 51 32 30 be 7b 97 bf f4 cd 43 b5 01 43 92 3f
       -0.022932979289707365 0.017833735168961654
000340 89 13 52 e1 fe 70 b7 bf f7 00 20 5d 32 9f 85 3f
       -0.09156792641631574 0.010557549921941673
000350 64 fe 01 7c ac 81 99 bf d1 8a 9a 90 1f c1 b1 3f
       -0.024908728665194238 0.06935307770121858
000360 34 24 bb 97 48 37 ae bf bb 85 f9 20 c3 e4 b1 bf
       -0.059015530130246324 -0.06989688448950108
000370 e7 f7 31 6f 5f eb b3 3f ff 5b b3 42 a9 b5 b4 3f
       0.07781025376058857 0.08089692953522841
000380 49 8a 11 28 19 4a ae bf 43 31 02 21 7a ff bd bf
       -0.059159074917961414 -0.11717952066300534
000390 85 fb 7f ab 64 e8 93 3f bb 72 68 41 61 ed aa 3f
       0.019441197364354252 0.0525923149436713
0003a0 ce 7f 69 b8 76 16 9d 3f 68 0b a4 ae 91 03 69 3f
       0.02840600491106198 0.0030534596782002994
0003b0 15 ac 3a e0 ad ec 7b 3f 19 f2 ee 65 c1 89 bb 3f
       0.006817511751857648 0.107570731531219
0003c0 6a 02 54 88 4f 5a 91 bf 45 86 ee 03 04 6b c2 bf
       -0.01694607038098398 -0.14389085952739059
0003d0 0e 8f 31 5a a6 72 c9 bf 85 12 4a e9 71 c2 99 bf
       -0.19881133464797823 -0.025155811179973248
0003e0 05 55 39 33 4f 2b ba bf 82 49 53 50 71 3d 98 3f
       -0.10222334862313083 0.023671885039968206
0003f0 61 ed 40 ea 2a 02 71 bf 6a 54 85 5d e1 8c bd 3f
       -0.004152457844664199 0.11543091328833702
000400 ff 13 a0 1b 8c 07 b9 3f aa a7 91 44 b2 e1 9f bf
       0.09777141260572363 -0.03113440078269717
000410 f9 3e 5e 04 60 0a c1 3f 0f 29 7b b2 fe 6d b2 3f
       0.13312912190712448 0.07199088914345374
000420 cc ce 5c 0e fc c4 92 bf 0e 8a ea f0 30 1f 94 bf
       -0.018329561592692653 -0.019650234894138356
000430 88 29 f3 f5 05 b6 a5 bf 14 48 2f 1d 32 7d 9a bf
       -0.04240435244863067 -0.025868208915035565
000440 16 92 a0 f2 c8 d1 c0 3f 35 bc f6 8f df e5 a4 bf
       0.131402128668143 -0.0408162940251419
000450 86 cb bc fe 05 a7 84 bf 0a 89 52 35 7a 90 a2 3f
       -0.010084196888419116 0.03625852490337607
000460 a7 f6 ce b9 c9 3e b4 3f 27 17 b4 0f b1 de c1 bf
       0.07908306871737612 -0.1396085097005024
000470 05 ad dd 97 7a e4 ac 3f d5 81 21 45 6e 41 b7 bf
       0.056430655515976404 -0.09084214389577679
000480 ab b7 58 67 67 ab bf 3f e0 88 10 77 76 e3 ae bf
       0.12370916627034372 -0.06032915309357789
000490 31 09 ec 4f 4e 45 c5 3f ff 40 61 7c dc 13 70 bf
       0.16617754843179847 -0.003925191185843112
0004a0 3d 6e ce 32 63 f7 b7 3f 3b 10 87 f3 0b 35 aa bf
       0.09361858358755 -0.05118596408604544
0004b0 f7 cb 50 41 3f 68 8e 3f 82 33 68 a3 2c 9c aa 3f
       0.014847273045324611 0.05197276587214274
0004c0 14 06 80 58 f9 7e b2 3f f8 0c 65 b8 7a fb c8 bf
       0.07224996958395763 -0.19517454150818714
0004d0 32 54 12 bd 6d 2d b8 bf 70 8b 13 a6 f1 14 a4 3f
       -0.0944431864357547 0.03922228958415175
0004e0 d0 cf 20 e7 45 d8 c2 bf 89 5d e8 90 d1 d5 a5 bf
       -0.14722512994342063 -0.04264693159000916
0004f0 7d 8c 57 18 71 a5 ae 3f 39 a8 5f 99 18 c8 b6 3f
       0.05985597059386636 0.08899072403406273
000500 dd 2f 57 31 4a 33 92 3f 94 95 57 7f 83 71 af 3f
       0.017773780118474625 0.061412915510838634
000510 06 b7 e5 50 9b ea a3 bf 0b 19 0e ed ac 44 98 bf
       -0.0388992820979706 -0.023699476212208952
000520 90 c8 60 4f a6 31 a0 bf f5 98 aa cc 85 1a b2 3f
       -0.03162879675837005 0.07071720358598894
000530 af 67 5a 02 a7 25 70 3f 4c 77 a6 0b 06 f0 b4 bf
       0.003942158107429635 -0.08178746971540568
000540 49 dd 61 1d 6b f8 93 bf 02 95 07 9e 60 df b9 3f
       -0.019502328556396695 0.10106471880097348
000550 ee de e0 1c fb c7 ac 3f 54 18 f2 8e a6 a7 a0 3f
       0.05621323325652648 0.03252907271330288
000560 0a 47 0b 7c 5d 3e aa 3f d2 54 b2 a1 ed 15 a2 bf
       0.051257058517547874 -0.03532354925952465
000570 a3 5e 1b da 36 54 b9 3f b0 56 5d 38 b8 65 b5 3f
       0.09894125771404076 0.0835833680733582
000580 ba 71 f3 e2 a3 62 b6 bf b4 31 a8 e2 39 38 ba bf
       -0.0874426297263601 -0.10242044242494935
000590 f5 e0 c0 6c ab 20 96 3f 29 14 b5 f8 cc 5c a5 bf
       0.021608999741347074 -0.041723637923986985
0005a0 c4 f8 2e 16 b5 42 ad bf 03 a9 10 bc 1d 7b 3c 3f
       -0.05714956184191203 0.00043458438819023187
0005b0 c6 98 ea 50 7a 87 ac 3f 4d ee 37 6b 1e 6d b0 3f
       0.055721113564958055 0.06416502111090346
0005c0 b6 b8 a5 65 72 b0 7a 3f 28 0c 0b 84 e7 b9 b4 3f
       0.006515929091945141 0.08096167539319821
0005d0 e6 b0 91 a0 dd 09 b8 bf 81 1c 93 d6 cf d8 a8 3f
       -0.09390053911346605 0.04852914327926162
0005e0 26 86 b1 dd 04 80 c1 3f 7b d3 34 30 2d 3c c2 3f
       0.136719330071217 0.14246144155336168
0005f0 79 9a c5 e9 ad 52 ad bf f6 a0 ce bf 53 36 c0 3f
       -0.057271418367965184 0.1266579329069441
000600 47 e9 0e 63 31 c7 92 bf 38 8d 65 90 a9 be c3 bf
       -0.018337985678706727 -0.1542560534536308
000610 4a 36 42 ef ac a6 ac bf 0b db 85 13 33 cd aa 3f
       -0.05595913334500986 0.05234679807010963
000620 fa 6f 19 f6 c2 5d b0 bf a4 f1 5a 75 e6 fb c1 bf
       -0.06393068798337245 -0.1404998848937683
000630 c3 8d dc 4f 95 2d 76 3f cb 26 cf 0b ba 97 85 bf
       0.005414565324631085 -0.010543302045238253
000640 ac 9d 7c 23 03 6d a2 3f de 77 3b 93 aa 14 9d 3f
       0.03598794754207843 0.02839914821276312
000650 b2 6a fc 88 2b d5 9e 3f 58 2c b7 2c 71 c7 bc bf
       0.030110054241144275 -0.11241824475944051
000660 c0 57 2c 0b 84 26 c7 bf 5c 73 38 c3 f1 97 71 bf
       -0.1808629087979039 -0.004295296082571589
000670 31 ff ac 9b 6d 1c ba bf 54 cd 63 a7 bf 24 b1 bf
       -0.10199627924612 -0.06696698986688904
000680 68 08 70 32 aa 0b 8a 3f 3c 59 56 db 3d ca 73 3f
       0.012717561401590596 0.004831544521400052
000690 e0 a7 83 94 d1 f0 c0 bf f9 bd 5e b9 f9 6e ba bf
       -0.13234920264886707 -0.10325585151326057
0006a0 1c 8d 39 25 47 e7 b7 bf 77 45 ab 02 ac c7 c4 bf
       -0.09337277087029289 -0.16234350328754107
0006b0 ef 48 75 8e 47 16 c1 bf 70 00 88 ef cb 02 be bf
       -0.1334924169155509 -0.11723017309123107
0006c0 09 92 4d 43 d4 4d bc bf 77 31 b6 27 5f 4c c2 3f
       -0.11056257861270792 0.14295567931220507
0006d0 3c 30 c1 f4 eb 7c b0 bf 83 77 ba 8a 52 2b c6 bf
       -0.06440615392165311 -0.17319709562155702
0006e0 94 5d 74 76 7a 64 58 bf b1 7a 00 a6 e7 d0 c2 bf
       -0.0014887996601994124 -0.1470002708965317
0006f0 17 41 30 da 12 d4 b3 bf 45 28 df 78 01 1b aa 3f
       -0.07745473696582326 0.05098728752598495
000700 b5 5e 55 8c a5 f7 bf bf c5 1e 6e da 16 b6 b3 bf
       -0.12487253833875907 -0.07699721176879411
000710 62 d0 5f ca cb c3 af bf 7c a4 1f 9e 58 cd bb bf
       -0.06204068036450462 -0.10860208378257313
000720 7d 0e 1e a0 03 c2 86 3f 2c b0 d7 42 8e a5 c1 bf
       0.011112240146537328 -0.13786485923572067
000730 40 29 88 07 04 05 c7 bf 9c 61 8e 20 a0 0b c0 bf
       -0.17984056823508787 -0.12535478200585437
000740 97 9f 98 58 25 b7 86 bf 73 be 77 a9 17 2b a9 3f
       -0.011091510549775125 0.049156894146901296
000750 fe 44 6b fa df 7b c5 bf 5e 8e fd 4b f1 d6 a8 bf
       -0.16784286239138874 -0.048514881635836046
000760 1b 14 ec 71 74 58 c0 bf b2 e1 c8 85 c0 8b ad 3f
       -0.1276994282017377 0.057706848460330376
000770 2d 32 cd 6f 5e 71 7b bf f9 92 13 f7 55 98 a6 3f
       -0.006699913876968594 0.04413097992963872
000780 75 8b 4d e7 79 0b 66 3f 64 0f f7 87 60 3d bc bf
       0.0026910191467534547 -0.1103115398355477
000790 a1 29 0c 43 59 bc ae bf 33 f6 a0 63 5b 78 95 3f
       -0.06003073638392498 0.020966937976700527
0007a0 08 b3 b6 32 05 87 a6 bf 87 54 64 f1 93 57 a9 bf
       -0.04399887317717882 -0.04949629136732719
0007b0 21 05 ef 0c 1e 65 a6 3f 75 f5 fb 6e df 08 c1 bf
       0.04374021442300547 -0.13308327597762185
0007c0 16 e2 fe e2 54 fb af bf 08 25 e7 20 d2 71 b6 bf
       -0.062464382848194486 -0.08767426780027077
0007d0 2c ef 73 25 e4 d8 bf bf 8e d6 c1 94 97 c9 a1 3f
       -0.1244032470166842 0.03474115076907679
0007e0 64 5d 58 2d c1 9e a9 3f d3 6e 89 d5 bc ab b9 bf
       0.05003932646303147 -0.10027675832082687
0007f0 13 e4 85 8d 96 a0 be bf 8d 07 b7 b5 ca 51 c2 bf
       -0.11963787989761014 -0.14312108872223597

transform_generator.6.bias f8 [64]
000000 85 a8 70 e3 5b 23 ba bf bc 31 c7 6e 0c ff a6 3f
       -0.10210203459488028 0.04491461612960587
000010 53 4b a9 92 69 c7 c5 3f a4 8a 51 ad 15 00 b2 bf
       0.1701480833167702 -0.07031379205140326
000020 2f bd 31 66 09 f0 c9 3f 72 a6 0a d5 d7 45 d0 3f
       0.20263783922153197 0.25426288418621035
000030 ca 64 83 67 ce 1b c2 bf 2a 1e 5c 5f e1 8a b5 3f
       -0.14147357992513881 0.08415039613839129
000040 fa fa be 30 40 d5 ac bf 84 42 a1 95 ee 94 a3 bf
       -0.05631447405857233 -0.0382456357625687
000050 ed f4 49 18 73 12 c1 bf c3 ab d4 c7 46 a1 c7 bf
       -0.13337553678494576 -0.18460926778183592
000060 4c e2 94 3e 81 76 63 bf 45 37 e1 77 50 ad b2 bf
       -0.0023758434587331286 -0.07295706679107379
000070 d0 8a 21 12 6d 39 b2 3f 21 8c 5d 05 fc 00 af bf
       0.07118875210430109 -0.06055438580985873
000080 c0 d8 2c bb 5a e9 c5 bf b5 0e 94 06 1e bd b5 3f
       -0.17118391169942093 0.08491695080379709
000090 7a 73 d4 1b ec b4 83 bf 4e aa 43 42 43 4d b1 3f
       -0.009622425650883438 0.06758518569737612
0000a0 69 7c 3c 9e e8 2f b9 3f cc f8 ae 93 0e 0e 88 bf
       0.09838727820577876 -0.011745561487142807
0000b0 02 d2 e1 6e 60 1f 85 bf e7 0b 21 93 45 2b ae 3f
       -0.010313752540448643 0.058923887453168615
0000c0 00 ad f8 4b f9 28 a5 3f 78 4e 3c 95 80 32 c6 3f
       0.041328230403758326 0.17341620718854123
0000d0 93 ee b0 c2 ae 99 ac bf c6 f1 e5 7d c5 57 ca bf
       -0.05586000563240847 -0.2058035721528439
0000e0 74 68 5a 08 29 c6 bf bf dd 74 7e de c1 92 c3 bf
       -0.12411743596968156 -0.1529161774059621
0000f0 62 0f a8 4d 63 5d b2 bf 7b 48 2b 41 52 2d b6 bf
       -0.07173748632345459 -0.0866290482620417
000100 0e 15 8f 05 ec ce c5 bf 9a 8f b0 78 38 2a a0 3f
       -0.1703772570746555 0.03157211755049545
000110 42 fd 37 eb 35 54 c5 3f a7 bf b7 ed d0 00 ca 3f
       0.16663240418709263 0.2031499062281885
000120 ca 4e 11 ff a4 2b d4 bf fb 75 6f 58 1b 7c b0 bf
       -0.3151638499159445 -0.06439371975962864
000130 a6 7a 0c bd 57 0c c4 bf 56 47 ec 0d db bc a4 bf
       -0.15662667017837356 -0.04050335450132418
000140 60 0c 67 63 4f 64 c7 3f 67 53 9b c3 ed 9c 9a 3f
       0.1827487216342858 0.025989260734451316
000150 14 7d da 2f 94 54 b6 bf af c3 dd ed 86 b7 d4 bf
       -0.08722807091043122 -0.32370160321357394
000160 31 5b 76 2f 4e b5 c0 bf 33 87 fc 82 a0 fb c4 3f
       -0.13053300206657917 0.16392904659101645
000170 ad eb 0b 90 b5 e7 b1 bf 49 28 ed cc 58 ad ae bf
       -0.06994185225259626 -0.0599162817148487
000180 ec 05 e2 85 57 42 a8 3f 91 15 c5 c0 9d ea c0 bf
       0.04738114842713145 -0.1321599189051708
000190 2f c5 4c e6 c8 6c c1 bf 3b 31 d5 23 2c 44 a3 bf
       -0.1361323475371505 -0.03762948930179496
0001a0 7e eb d1 81 46 29 c0 3f 23 36 9b 7b 6c 64 b9 bf
       0.12625962580554168 -0.09918859498721892
0001b0 52 4c 6d 5a 9f ee c1 bf ed 1a 86 58 fb a0 a9 3f
       -0.14009467997911657 0.05005631881345161
0001c0 ef 18 48 c3 66 80 c6 bf 1e 56 6f 50 f7 e5 d1 3f
       -0.1757935002826296 0.2796610150811335
0001d0 9d 13 aa 80 eb 3d b7 bf ff 87 b3 92 5e 7d b4 bf
       -0.09078857318134088 -0.08003798562597807
0001e0 ff 2e 0d 8b 1d c3 b7 3f 0a 28 9a 2b 48 97 bc bf
       0.09282097477733585 -0.11168337883478344
0001f0 41 a0 72 7d d4 9f bd bf be cd 39 4c af b9 a6 bf
       -0.11572006285371207 -0.044385412268549626
