models/livneh-livneh/QM_SST_2000[1980, 1990]_upscale_1by4_Rnoisy1_bci.pth (torch, 73900 bytes, 8 tensors)

transform_generator.0.weight f8 [64, 1]
00000000: a237 fc81 fcf0 f1bf cc61 1ff9 4493 f0bf
00000010: 24e3 0b02 141a e5bf 029e 7f18 0be3 c8bf
00000020: b1a2 165b 082c d03f 3f65 01cd bcc5 a7bf
00000030: cf27 6190 61a6 ee3f e1ad b4a6 ef8b e93f
00000040: 9711 3900 feb0 f2bf fbbe beb2 d082 e7bf
00000050: a3f8 db17 a0c5 e13f 47b5 5839 f2e7 cfbf
00000060: fc5c d2b0 5904 e73f 363e e1fc 7f01 e83f
00000070: 2762 f30f 005a cfbf dc1b 6fed 2a35 d13f
00000080: 84d7 afd1 ee9e e6bf 4dcd b86b de20 dd3f
00000090: 7af5 1d8c a435 cd3f 2ff1 42cd 7b0e c0bf
000000a0: 9082 bbec 2c97 a0bf 8cf9 2de8 cf1b dd3f
000000b0: 13d5 df1a 9008 d8bf 656c a880 f131 df3f
000000c0: 8508 9cd1 85fe edbf 85e8 62c3 a26a edbf
000000d0: fab9 757a 9e97 ed3f 091f 6258 34e4 d33f
000000e0: 1fe8 0822 0213 debf 631d 4160 c596 ecbf
000000f0: b1e0 0963 51ab 9fbf 6f29 5819 d70f e1bf
00000100: 72ad 7e4d 7999 e13f c365 412a 840f f03f
00000110: bece 9106 fa99 c53f 8aa9 80fd 9eef ce3f
00000120: 2576 4e21 7910 e63f a861 f61b d93a f2bf
00000130: 42c2 f62c c98a ac3f ca8d 274f 7e6b d43f
00000140: 6cf8 6126 1eeb ea3f 692b 5fcb a42f ebbf
00000150: 46f6 fa4d 2471 afbf b0d0 3f3d b49e ebbf
00000160: 059d 5a75 d8e2 eb3f 8282 ac50 4066 e63f
00000170: fa6e 11cc 2236 c6bf 95ab 8895 f5a4 e9bf
00000180: 90fe ff66 4dd4 d43f df2e 2140 a8f9 c43f
00000190: 7499 5c4f 7d44 d33f e231 b4e7 dcb9 aa3f
000001a0: 2625 cf25 fdac b93f ca4f 247b 83ef e23f
000001b0: 79ce f93e b5be 663f 9365 43ee 52fa ee3f
000001c0: afb8 0465 41f8 d23f 136c aaea a544 d0bf
000001d0: 2fd0 6cc7 9e38 c13f 5ef8 5aa0 2d30 eebf
000001e0: b8e2 e993 978b bf3f a1ee fcf1 81d4 e03f
000001f0: a3b3 2aa7 2d6f dfbf c49d 042e ac58 d53f
-1.1213345601604279 -1.0359544497824684 -0.6594333686799456 -0.19442881294456532 0.2526875390563346 -0.04643049242504071 0.9578101940071465 0.7983320480320196
-1.1682109841068262 -0.7347186556926028 0.5553741899491523 -0.24926593589899879 0.7192810491132202 0.750183099657028 -0.24493408945888115 0.268870097989234
-0.7069009871909064 0.45513115424838163 0.22819954721118646 -0.12544200441869566 -0.03240337743568944 0.45482251809871665 -0.3755226385540748 0.48742330135582385
-0.9373196691451687 -0.9192670646800855 0.9247581855577771 0.3108034957044628 -0.4699101765032782 -0.8934046630828728 -0.030926963491282936 -0.5331836218841043
0.5499845994540193 1.0037881517986171 0.16876149483470287 0.241687654285965 0.6895108843343151 -1.1393672077448205 0.05574635194659951 0.3190608761780963
0.8412009000455902 -0.8495658847908604 -0.061410078543741295 -0.8631230541491473 0.8714411060399533 0.6999818397199109 -0.1735270973612087 -0.8013866348822939
0.3254579072817956 0.1638689339764516 0.30105526685874584 0.05219927147308902 0.10029585049700937 0.5917374997247802 0.0027764835320399054 0.9680571225718942
0.29640231003839806 -0.25418994824002644 0.1345404123072753 -0.9433811313572382 0.12322375641987093 0.5259408689812127 -0.49116078686602743 0.3335371446032378

transform_generator.0.bias f8 [64]
00000000: 28ee 73c0 920d d1bf 7e57 ccd6 efb4 c6bf
00000010: b466 1224 5f7c c73f 57ef f814 0858 f03f
00000020: 1b44 ed53 f88e d53f f0eb 3727 73c1 e6bf
00000030: db94 9ca8 3779 c33f 7321 67ba 166d e93f
00000040: 2c21 2e02 f257 debf 1c54 319a ebd6 ebbf
00000050: 87f0 1b3b 4dcf ea3f bc1c 6e6b ba92 efbf
00000060: 3e54 b60e d991 c83f 34b9 6007 e838 d53f
00000070: 0e08 a6b2 322e e7bf 5c34 669e 947f d6bf
00000080: 50c2 d63a 7e8d ca3f f43e 4e24 70d3 c03f
00000090: d8de 2950 62d9 c63f 141c 2442 a147 e5bf
000000a0: 8bd6 8323 9783 f13f d4b4 4723 088b ec3f
000000b0: aa6a 41d1 3a0f e1bf b792 aac6 3fd2 e13f
000000c0: bcb3 a4e0 4a40 efbf 3c02 f13b 7fd8 e9bf
000000d0: b340 45eb af0d e93f 0fb9 d0c6 2ec3 e73f
000000e0: f877 798e fe61 eabf 9395 ece2 a49b 93bf
000000f0: cbec d904 38c3 ef3f 9893 98d6 6772 dabf
00000100: 7f13 2b37 d89c e03f b923 18c9 0159 e83f
00000110: 4653 07b7 a52f eebf f561 ae2f b151 e93f
00000120: 6d0d f83c 3f4e cabf e51d b1b2 be98 cebf
00000130: a453 d46f 5b81 e73f 02f5 45e4 4bef d13f
00000140: 0b57 8e59 21c0 dc3f 096f 7ea8 2794 833f
00000150: 20e2 26de e1cf c3bf 9671 9c13 8fc7 d5bf
00000160: 111f 579b fbb8 b63f e0d5 8924 d617 da3f
00000170: 29ff 4381 2828 cebf ca51 333d 5467 e4bf
00000180: 295b b73b e4b6 eebf 86b3 a268 a70b eebf
00000190: 5910 d80d 0e23 e6bf 91ef b2c7 bdac e03f
000001a0: 5b57 335e c524 f23f 83d5 63c7 f41c f1bf
000001b0: be85 5439 f3e6 e73f a3c0 c150 618f c33f
000001c0: 6c79 3d7a 4384 df3f 5054 9349 4985 e3bf
000001d0: 71b5 55c5 60b4 e1bf 213d 3aac 30dd d7bf
000001e0: f8e2 d7b8 abb5 f03f af97 63db 5fe5 d73f
000001f0: d030 f896 3256 dabf 7cc9 a2eb 8968 d93f
-0.2664534453794851 -0.17739675510591363 0.18348302136728523 1.021492082522817 0.3368511981580597 -0.7111144796357376 0.1521367619799666 0.7945665016823525
-0.47411775792035615 -0.8699853908134432 0.8378053812480325 -0.9866611574406288 0.1919509240948702 0.33159828873148744 -0.7243894089917846 -0.35153689831424173
0.20744302628510747 0.1314525773309395 0.17850903429256593 -0.664993886167283 1.094626559000434 0.8919716538490783 -0.5331091010114808 0.556915176410789
-0.9765982043805859 -0.8076778574687249 0.7829207987906756 0.7425760157691758 -0.8244622023300954 -0.01914842257533207 0.9925804228545528 -0.41323276478424864
0.5191460683350754 0.7608651092169715 -0.9433163237359643 0.7912221843026247 -0.2055129096698737 -0.23903640484989733 0.7345406707923883 0.28023049633323194
0.44922670121864944 0.009559926824116898 -0.15478156420955802 -0.3403051082148293 0.0887601141213248 0.40770486419873286 -0.2356005316905734 -0.6376134105035416
-0.9598256269772253 -0.9389226001418229 -0.6917791624441733 0.5210865879412144 1.1339772872647333 -1.0695693768187489 0.7469421500901985 0.15281311457829813
0.4924477285147961 -0.6100202977201068 -0.5532688001818952 -0.3728753740224012 1.0443532200280838 0.37337490486822394 -0.4115110849677537 0.3970055390483578

transform_generator.3.weight f8 [64, 64]
00000000: 05e3 b2ca 3ca6 c7bf c122 7ae8 e81b cebf
00000010: ca3b 1efb 68e8 94bf cbe3 a8e4 80bb 71bf
00000020: 47e4 51d7 4a8e adbf 47eb 070c a66a 90bf
00000030: 92eb c7d9 63d1 c3bf cb03 378c 4ceb aa3f
00000040: 9a3e c276 93ae bebf 659d c3ce d019 b23f
00000050: 632e 3005 465d aabf 8dcc fe7d 1f94 b2bf
00000060: f482 d986 8792 c3bf 736d 6b51 fd0f 89bf
00000070: f789 a226 f949 a1bf b800 8771 c40e c0bf
00000080: a625 cb3f 8613 c2bf 2b73 5980 e3d8 a3bf
00000090: 68ea 5868 5871 b4bf 3fc9 91b1 a55f 6bbf
000000a0: 1a41 4040 5497 bbbf 6eaa ed26 69c6 87bf
000000b0: ff4c 36bb 3ec6 b7bf fba9 a72b 1004 aebf
000000c0: cf50 ad1f 0652 af3f 37a9 f06a a4ca 99bf
000000d0: aa9d 333f f787 97bf 53e8 3da6 4f08 a5bf
000000e0: 5fdb 2c4b 3134 813f 8282 d17e d028 a4bf
000000f0: c15a 4a4e 1b2e a2bf d776 2b93 09e8 9cbf
00000100: 79c2 60c4 f0b8 c6bf f6eb 5382 d49a 903f
00000110: 5f85 d43c 53e7 7fbf df5d 77c2 ced4 bcbf
00000120: e18b 108f 2a2c ab3f 4637 836d 63d4 b1bf
00000130: 9b02 a160 7f6b 9e3f 625c 6063 5040 9a3f
00000140: 799e ba11 156d a8bf ee9b ff6b 0bc5 c8bf
00000150: 4db2 312b b55a a0bf 7557 6294 79f1 5c3f
00000160: 1a15 8423 3f0c 913f a5d5 a679 d050 a53f
00000170: 0f76 cc7d 78b0 bebf 2fbc 731e 9871 b9bf
00000180: 3eca f259 f515 c4bf b34b e9f6 00d3 bdbf
00000190: 9044 18db a3bd b1bf af9c a6dc 6368 96bf
000001a0: 67c2 d667 8793 b6bf a0a3 16a4 8fe3 98bf
000001b0: c74b ed3a ceb5 863f 98fd 8cea e9b4 993f
000001c0: 271b afb8 b46f c4bf 3b62 27b3 ecdb a23f
000001d0: 5e1a cf65 51ad 87bf 2ed2 0053 3c40 ccbf
000001e0: be35 360d 80d1 a7bf 7dba 0328 f912 b9bf
000001f0: f3e3 96dc bf54 a63f fc24 7a15 ca8c abbf
00000200: 01f9 d9ee 5651 cdbf 776d e215 336b b8bf
00000210: 541c 176b d2a1 c5bf 56e7 82a5 421a d2bf
00000220: cb9a e188 4372 bb3f b3b9 1f93 f4ed abbf
00000230: 1691 d246 b02e c03f 4b44 74d9 64a1 94bf
00000240: 2a9e 22ef 5aa1 8bbf 3fe6 e841 d436 a7bf
00000250: 02c9 7259 0ef9 d9bf 315f 7aa9 b4b4 b0bf
00000260: 384a 7ccd 36ea c63f 5a6d 4e05 0694 c23f
00000270: af2b 59e1 fb13 b43f ec81 f60a d505 c33f
00000280: 0a5f c6ff 2102 c5bf 9cc2 0f51 15e9 943f
00000290: 1f6f 93e1 5a8c c13f bb26 681a 95e9 bfbf
000002a0: ce9a 95d6 11f4 d2bf f1c4 1238 246a 52bf
000002b0: 2f64 094a 000a 863f 4e93 322c 8fbd c2bf
000002c0: 8766 c591 5ed7 94bf edcb a1bb 261f b43f
000002d0: d9b1 25cf d193 a53f 7caa 1166 3dad d2bf
000002e0: fd24 ba9d 20a3 b23f e7af 3d4a 364c 96bf
000002f0: 6843 908b 91b2 b5bf 559c 32ba 1ac1 babf
00000300: b196 5914 8d26 d3bf abdb f046 3548 dabf
00000310: 93e3 62ea 97e0 ac3f 58b1 6c64 9854 b0bf
00000320: d69f 4026 71c1 c53f 7f56 7687 921d babf
00000330: 64bf b2d4 8adb c1bf 17f0 753a d850 d1bf
00000340: 7318 1763 7b89 ae3f dd7a e925 c947 b4bf
00000350: ecf5 e4f6 a691 a13f 117e 66a7 6291 bfbf
00000360: 6406 4739 c351 abbf 18ee 6835 5f0c c13f
00000370: dc3b 9753 0b59 ab3f ab72 6bfa 4380 ac3f
00000380: 314a b7e0 635c aabf b310 451e 71a7 a23f
00000390: e4a3 711d b428 bb3f 128d bcf9 ae38 b6bf
000003a0: f14a c4e2 63d9 c4bf 5c92 2cf2 65d0 e4bf
000003b0: 0a2a 5396 1364 c23f 948d 3422 f3a9 bd3f
000003c0: 3d71 414d 636d c9bf e5c8 9326 c0a7 bd3f
000003d0: 0652 8f52 9405 aabf 722d 8823 4ab9 a8bf
000003e0: 6c85 f9ec e9e8 d3bf 587c e055 19b4 abbf
000003f0: dd2f 2f41 013f b8bf 0a63 67c8 2e48 853f
00000400: 40b4 6a0d 51f0 bfbf 3275 8da9 9eaa b1bf
00000410: 7a4a 70c4 a990 b0bf 76ea 3b20 cb20 c7bf
00000420: a63f 21aa f960 aabf 571a 416f 55ad a03f
00000430: be0a 4f5f b960 a33f e02b dc27 4fe0 a9bf
00000440: b44d 8b34 ccca 9d3f 3127 7b4d def9 b9bf
00000450: 06ed 9477 e846 b0bf d3c3 ecd5 aafc a73f
00000460: c660 e15f 6114 c0bf 5611 db6d 10bb bdbf
00000470: c710 b65b b357 923f 6a1a 1d4e 231b c4bf
00000480: c879 3fde ac3f 763f 7d91 7e8f 0c20 bbbf
00000490: af95 149c f15a c0bf b99f 84be 8e41 b9bf
000004a0: 5b7d 200a 64db a53f fbb2 27ec 7cac c3bf
000004b0: b37f 4e96 fd67 a03f 86f4 9ef4 60e5 873f
000004c0: c75d e58b 2f8f ad3f e336 dcf1 534c b2bf
000004d0: fec0 7112 0a77 c1bf 360d 1748 de13 b1bf
000004e0: 0761 d84f a554 a7bf de9d 5669 5332 a1bf
000004f0: 181a 9c28 4cd8 a8bf 0b4d 9812 04f7 a4bf
00000500: 924c 508e 2a1d 973f f299 17c5 5011 c7bf
00000510: ff6c f8fe ab2a 82bf 1a7f 006f 8b16 b0bf
00000520: 083e 6d90 2411 8cbf 2410 d2d0 9357 93bf
00000530: 2e3d 7642 7875 c0bf dc23 da80 8ae6 a7bf
00000540: 297a 8d0f 755e aa3f b7d6 ce08 d8ba c7bf
00000550: 33c2 32b2 4210 90bf 4a62 8e22 06d7 883f
00000560: f34b 74d6 4a77 9a3f d29d a7d6 c4d7 c0bf
00000570: 3b89 d999 a2df b1bf 8f45 4ec9 9d4c 86bf
00000580: ed0a 9b52 b982 c6bf 0f17 3983 cf10 873f
00000590: f4c8 803d 7de3 b6bf 5895 623a 99db b4bf
000005a0: 0f3d a972 e106 a9bf 646e f920 9227 a03f
000005b0: d6ee 0768 0241 c7bf fcbf 24c0 ebcd 8fbf
000005c0: d800 41b5 c860 a63f 7f9e 0b5a 0a3a 503f
000005d0: f606 d615 e7e6 c4bf cd0c d2a3 469b b8bf
000005e0: 7b9d d788 006b aabf abdd 9981 4449 a53f
000005f0: 8f08 1076 fcef 9dbf fa96 8698 3629 afbf
00000600: 5899 0934 0795 b0bf be7a 9176 f94f c0bf
00000610: caa3 4535 81e5 cbbf d9ae 55c1 1f92 c6bf
00000620: 0105 31b1 2529 a33f 811a 8faf 3260 b2bf
00000630: aeb3 6c4a 7401 843f 6022 7938 bb34 c03f
00000640: cd9c 14ee 4c04 c7bf 9bbd 60bc d1ce a2bf
00000650: 0afe 5c9d 58cb d3bf 55c7 79c2 3798 bbbf
00000660: 89fe c4d3 eeb0 a93f 1fd2 c2da e10e bc3f
00000670: a3a7 cacf 7757 b2bf 0243 da2a 2436 9a3f
00000680: 16e6 1e50 5793 813f 3e81 3bfe 3d3c a8bf
00000690: 8916 9416 8aaa a7bf 9b98 50f2 985c a1bf
000006a0: c88d 965f 9e6b a9bf d965 f72f ec2e b33f
000006b0: f373 d3db 81d4 ab3f 319c 7f9c 3238 c3bf
000006c0: 0dd2 64e7 d32f b7bf 2b24 1334 d897 aebf
000006d0: 154e e339 d6d4 b53f 692c 4751 b03b b2bf
000006e0: ed00 2af8 43c6 b2bf 9682 4c8f 7a3f a9bf
000006f0: 9f5e ebd9 fc0d c1bf 11b8 d6eb fe29 babf
00000700: fb07 757e e552 d3bf 45fb 45a3 48f7 d0bf
00000710: df29 5c34 fe62 793f b220 0ebd 5e24 b23f
00000720: 2803 43a8 b472 863f dd5b 5371 323d b9bf
00000730: ec81 816d b8f1 babf 4598 1d7a 0de5 c3bf
00000740: a197 7165 9f0d c63f 36c9 de0e 4ffe bdbf
00000750: d08d 8ee3 325a 91bf 4d69 ff66 81e4 c4bf
00000760: 7341 c016 bda6 a1bf c9ad 582e 98a6 bc3f
00000770: 8d82 a9ab a425 a9bf ab77 2d96 6de1 b5bf
00000780: 34c3 0367 cf11 c73f e95f 2192 e7ac bcbf
00000790: b078 853a a813 a63f a125 2083 f2e3 acbf
000007a0: 50a4 fb4d b8aa c2bf 92ee 6b4b 0548 e0bf
000007b0: a190 5c3d 7b19 b83f 2380 3b74 e153 71bf
000007c0: 4afd 9160 9e61 c9bf f3af cc5c 6599 a43f
000007d0: b434 791c fb47 aabf 23c8 742d 0e22 c7bf
000007e0: 5d40 f68d fd17 d1bf e95c ffa9 829b c33f
000007f0: 6ba7 6f20 2634 bbbf e888 92aa 2ea9 b1bf
-0.18476066491509627 -0.23522673942013309 -0.020417824103386363 -0.0043292078867631185 -0.05772622946182842 -0.016031832203206944 -0.1548275769599426 0.05257643901450811
-0.11985131883033731 0.07070641563369902 -0.05149287045796027 -0.07257267786080686 -0.15290922245460303 -0.012237528846006573 -0.03376749607675216 -0.1254506639797961
-0.14122083773535826 -0.038764104287770294 -0.07985451266805799 -0.0033415065959669084 -0.10777784889819877 -0.011608907223224576 -0.0928687293110677 -0.058624749497386795
0.06117266785318664 -0.025187081362824073 -0.022979605896492984 -0.04107903389281433 0.008400330645242425 -0.039373889427911216 -0.035508015925349586 -0.028228902442484518
-0.1775189360501093 0.016215630011156855 -0.007788968226379949 -0.11262218711578197 0.05307133671183074 -0.0696470396389631 0.029706945679438417 0.025635963502363864
-0.047707231916601374 -0.19351332448351805 -0.03194204475662286 0.001766556482413387 0.01664827970764291 0.04163218960767815 -0.11988022872215985 -0.09938956016024812
-0.15692011730205196 -0.11650091198070704 -0.0692999277018933 -0.021882591574151785 -0.088188612796111 -0.024305576696551534 0.011088954137141628 0.02510419363102087
-0.15965899484418708 0.03683414160667949 -0.011561046523536674 -0.2207103162087533 -0.04652023469234788 -0.09794575907629084 0.043615337064188874 -0.05380851280376395
-0.22904478705090273 -0.09538573536194926 -0.16900091389672645 -0.28285280383317024 0.10721227733447873 -0.05454983039804819 0.12642482240801972 -0.02014691903338343
-0.013491354391887606 -0.045340188069939995 -0.40582617507165264 -0.06525735032698489 0.17902264626953168 0.1451423192892019 0.07842993022602117 0.14861548457430673
-0.16412758816726863 0.020420392105679683 0.13709579481553022 -0.12465793509195582 -0.29614683108813444 -0.0011239389134909928 0.01076126314107925 -0.14640988977512354
-0.020352819106256106 0.07860033112392247 0.04214339879658597 -0.2918237206237462 0.07280162668952879 -0.021775100976284902 -0.08475598962128361 -0.10450903936235652
-0.2992279719095264 -0.4106572335035092 0.05640101181183534 -0.0637908215691757 0.16996588104052418 -0.10201373870071427 -0.13951239953666594 -0.27055936535885067
0.05964265427205442 -0.07922036338411993 0.03431436313483602 -0.12331215464518432 -0.05335817407786861 0.1331900606909222 0.05341372867007241 0.05566608840829209
-0.05148613088717403 0.036433730073015445 0.1060898372540034 -0.08680242154200737 -0.16288422176929587 -0.6504392366374065 0.1436790927894694 0.11587447724428152
-0.19865075371024857 0.11584092084720828 -0.05082381732760059 -0.04828864749660057 -0.31109092847881104 -0.05410842107107133 -0.09471137849249041 0.010391583910789776
-0.12476069047507199 -0.0690097011515334 -0.0647073845469012 -0.18068827699592632 -0.05152111245899897 0.032572431403015294 0.03784732140004142 -0.050539468398788534
0.029093924243012118 -0.10146893874766928 -0.06358197135425678 0.046849573720812686 -0.12562195951136895 -0.116135622806785 0.017912676308257127 -0.15707818330902806
0.005431819215998286 -0.10595777991563256 -0.1277753841506359 -0.09865657950706365 0.04268944381351033 -0.15370141535768042 0.032043385122278244 0.01166797396205711
0.05773304541315443 -0.07147717146673531 -0.13644529247859077 -0.06670941600809929 -0.04556767081902718 -0.03358708058231817 -0.048525218922851276 -0.04094708182324255
0.02257219785321902 -0.18021592734949327 -0.008870452612475875 -0.06284400424965178 -0.0137045723510303 -0.018888768787761148 -0.1285848927040915 -0.04668076346303682
0.051501901768223064 -0.18538952283932073 -0.015687029005393604 0.012128875665255685 0.025845689143419958 -0.13158474427403505 -0.06981865173432748 -0.010888321596015852
-0.17586437734106344 0.011262532417400743 -0.08940871001758294 -0.08147580790917652 -0.048880620238032184 0.031551901364505835 -0.18167142943990794 -0.015529481698280272
0.043707153440210866 0.0009904004183968471 -0.16329659048283646 -0.09611932277225606 -0.05159761114537794 0.041574612446250235 -0.029235787111254793 -0.060861307257523437
-0.06477398891874964 -0.12744062699763065 -0.21794142819569934 -0.176334351922711 0.03742330348951307 -0.07178036485775331 0.009768398782023482 0.12660923249702005
-0.17981874108338616 -0.036734155888889584 -0.3092862641096593 -0.10779140947286454 0.0501780160434438 0.10960208502621825 -0.0716471559814225 0.025597157588495463
0.00858181203135459 -0.04733461121009207 -0.04622298741928172 -0.03390958745903668 -0.049649190109700536 0.07493473216108927 0.05435567673132615 -0.15015251771475982
-0.09057354354155951 -0.059752231938155674 0.08527888215331132 -0.071223277896182 -0.07333779152577664 -0.049312429420983836 -0.13323937073322598 -0.10220330484182251
-0.3019345984395156 -0.26509300179161627 0.0061979226936821055 0.07086746326069962 0.010960971245710008 -0.09859004275072843 -0.10525086091502772 -0.15542763197589884
0.17229073003107678 -0.11716169465106394 -0.016945643557517986 -0.16322343377289386 -0.03447523977968361 0.11191702968124341 -0.04911532016263207 -0.08547100941129197
0.18023102312101857 -0.11201331441532116 0.04311872209903933 -0.05642659998563749 -0.14583495910418032 -0.5087915871694852 0.09413881538472647 -0.004230385474983253
-0.1982915851149108 0.040232818201133023 -0.05133042070938512 -0.18072678775348647 -0.26708926070660316 0.15318330097827662 -0.10626447955988076 -0.0689877668797042

transform_generator.3.bias f8 [64]
00000000: 26a4 935f 045c bebf 7743 0815 5962 a13f
00000010: cc00 9b43 1eb2 c2bf 0844 2056 9282 b03f
00000020: b8d0 3e8c 985e ba3f 82bc e8e8 4949 b63f
00000030: 90e2 9da0 6246 aabf 1513 3b4b 8886 c13f
00000040: aa7b 8575 e63f b0bf abfb 5dea 9b53 b4bf
00000050: d313 fc5c 0d09 a13f 0010 9282 25a1 c43f
00000060: e37e 1857 ae36 94bf 8a31 9110 1e87 b73f
00000070: 9f39 fee1 48dc 9d3f daec 260d f614 90bf
00000080: 185a dfb9 badf c13f 0262 c553 e484 a33f
00000090: 672b 775f 2e9b 903f b214 0560 6e11 b7bf
000000a0: 6cdf 9880 0b45 a4bf c69c 55e0 1b54 7cbf
000000b0: 138f fbc5 ccc4 b2bf 94ab 297b 2861 8f3f
000000c0: 9afc 46df c94c c3bf ebb7 9a06 e90b c2bf
000000d0: b56d bf5e 8885 9e3f 0892 570b 3fa8 c9bf
000000e0: 2f65 94b2 8b9d a53f 0b4f d123 d4bf 903f
000000f0: e1f2 35d6 be7d a0bf 7c22 caee 83bf 923f
00000100: 3dfc 5b83 d8f0 adbf cacc 8ea6 e3ec 833f
00000110: 0e55 c2bc b20e 92bf 87ea 1ef4 078d 94bf
00000120: 2e1d 2b5a cebe a93f d1c7 7271 0b82 aa3f
00000130: 4fb6 f0d9 cbfc b93f 37c8 55a0 e2e0 b1bf
00000140: 5c06 02d4 73bb c6bf e9c8 5800 a50f bdbf
00000150: f727 5922 f123 c03f bb9d eda4 8b2e 983f
00000160: a8ae 2b49 d24a a83f b1fe 9b84 70b4 c2bf
00000170: 130f 80b6 aa46 c43f 0bd7 2bb0 3f78 c13f
00000180: 3db1 4224 6d2b b4bf 9609 33d8 6124 62bf
00000190: 7d20 08b5 0909 afbf b910 1e09 9232 aabf
000001a0: d5b8 1350 178f b3bf c18e b719 0216 adbf
000001b0: c8eb 2f5f 4fc5 613f c01b 378e 9212 adbf
000001c0: 0a07 4090 8a5e bcbf 9507 a707 89df c13f
000001d0: d29d 4412 3500 8cbf 7c9d 0625 1e57 b73f
000001e0: c494 e9ea 4781 c0bf 1ccf 9d8b fd7d c5bf
000001f0: 68db 6f08 19c8 8dbf 37d9 9a70 7fb4 91bf
-0.11859156926551914 0.033953460519234584 -0.1460607366661918 0.06449236490904309 0.10300591873130116 0.08705579696901292 -0.051318246943030776 0.13691810296418142
-0.06347504014182329 -0.07940077277997541 0.033272187805813445 0.16116780162349187 -0.019739841524027645 0.09190547852012379 0.029160631936571254 -0.015704960396516345
0.1396401794033444 0.03812325975986043 0.016216969086410595 -0.09010972828135058 -0.03958927101888218 -0.006916149989911696 -0.07331542810021245 0.015322033175115192
-0.15078090097629088 -0.14098847219923924 0.029806261809296426 -0.20044696859180555 0.04221760325362777 0.016356768308766905 -0.03220936169507183 0.018308698129234177
-0.058478132281372976 0.009729174156609583 -0.017634194155637543 -0.020069240832280257 0.0502838597363343 0.051773412321736274 0.1015136153298155 -0.06983772673064058
-0.17759559490154941 -0.11351996668307475 0.12609686066781453 0.02361505693570874 0.0474458422011968 -0.14613157725397266 0.15840658103126568 0.13648220159637278
-0.07878763327852752 -0.002214614012332204 -0.06061582884655168 -0.051167071927041126 -0.07640214638715588 -0.05680853427818767 0.0021692800742107755 -0.0567823217966672
-0.11081758519869936 0.13963425515799757 -0.013672270412441376 0.09117306140853104 -0.1289453408273059 -0.16790742222985322 -0.014541812486624742 -0.017290107009750613

transform_generator.6.weight f8 [64, 64]
00000000: 5890 a601 6a31 a9bf 1aea 4559 c57e a6bf
00000010: 50c4 fcce c3e0 afbf f32f 52dc 461f b8bf
00000020: db9c 17ee 321f 9e3f 8da8 80ab 5677 9ebf
00000030: 120a 0096 b850 98bf d01a ae56 1f3c b03f
00000040: 5479 4b10 87b8 953f 792e c8b9 428c c2bf
00000050: 496c 0954 4a26 bbbf a4af 7805 8533 af3f
00000060: 1a97 72b4 dac6 c4bf 0316 6a93 1a36 c0bf
00000070: 653a 647d 66eb 85bf fb82 999e 84da b5bf
00000080: 6dec f330 3966 8d3f 8db0 bfa0 70c1 c0bf
00000090: fa93 2bc4 bc49 a6bf d97b 030a efd5 b3bf
000000a0: 4def 03f1 8f28 c5bf 8843 f82f b237 a9bf
000000b0: 8ba8 ced3 1462 73bf 6f59 d890 ffa9 a63f
000000c0: dd01 7a5d dc53 94bf 61c9 a1cc 16ea bdbf
000000d0: 2e1a beec 8d5a b0bf 8073 4755 50c7 923f
000000e0: 43a7 4c32 311b 8a3f 90fc 560d 3d20 aebf
000000f0: 5662 3b44 f057 873f cbea 685e 652d b9bf
00000100: 9cc3 3881 8b86 c2bf 69e9 eac2 c2ed 963f
00000110: b1df 993d 5fcd 683f f6cc 6956 6d66 95bf
00000120: 1f18 e5e4 c0d3 c0bf a7db d984 470b 89bf
00000130: f4c3 edac 5b93 c1bf 94d3 a9f5 4374 c1bf
00000140: 825c 7678 08e7 b5bf ce61 7550 8ebf 9f3f
00000150: ef60 3371 8cb9 c3bf 634a 4d42 de02 83bf
00000160: 672d b211 1f95 943f ce55 83ad aa56 953f
00000170: eb9c 390f 87bc c1bf 67c1 93c2 260e 523f
00000180: a775 c8d7 06b9 88bf f95c 5e7d 33d5 c3bf
00000190: ed3c ac39 d521 953f 3c60 2f13 5bce c8bf
000001a0: 7a58 e602 3214 b6bf dcb2 4ba5 c433 c6bf
000001b0: 5551 ea40 b46e b8bf c6c3 659e 9671 b9bf
000001c0: 32da 7cec f59a c0bf 406b 220b 5cea c2bf
000001d0: 9faa 94e5 e6a9 ab3f 6bcc df5a f544 b03f
000001e0: efc2 8fc0 2d9f adbf 1ead d094 ec7b b9bf
000001f0: 8d52 df47 dcc7 b1bf d696 89b9 60a2 9d3f
00000200: 63e0 d40b 6757 8dbf ebbd dffd 4079 c43f
00000210: 3d2a 34ef 80cc 86bf 18b4 211e 9390 91bf
00000220: b8d3 1e76 837d b33f a1bf fc71 78dd 9d3f
00000230: 8403 7965 ef1c bc3f 48ce 8d4b 5c6a a03f
00000240: ca1a 87e9 52ad a9bf d460 b2af 238d bd3f
00000250: 7db1 146b a5e9 abbf 3e04 68a3 f656 c13f
00000260: cfa2 e984 521a aa3f 7602 7799 0c3c a3bf
00000270: d35f b9af fc8e c0bf 72a6 ae41 6d60 c53f
00000280: e872 9fe1 ed43 973f ff9c 57ae 277e c03f
00000290: 9554 c642 05c1 7f3f 9a82 bb73 6c77 bc3f
000002a0: 4c44 2cbf 4a5c bf3f d45e f3a4 1f78 b93f
000002b0: bfc3 4da3 499e a33f 448b 6ea3 fc36 c23f
000002c0: 01d6 8d05 1928 c53f c08a 10a2 279e b73f
000002d0: 0c8a 1fec 7148 ba3f a142 2fce d9af b83f
000002e0: f702 ad69 fa44 a7bf 0ba5 371a da45 b33f
000002f0: cbe5 d805 1855 783f e7be 0049 63b5 7cbf
00000300: 9122 c54c e4c2 70bf ff8d 746f 6ff8 a83f
00000310: 34da 0aa6 5310 b83f 7ff6 b3e9 8cb6 be3f
00000320: 52b9 1e93 02be be3f 49f4 294b 7464 20bf
00000330: db3a d5da f9a8 a53f b6f9 16ae 2626 b03f
00000340: 8a49 52a3 e8b3 9fbf 42e9 9654 2489 993f
00000350: 4a8f 65c4 2261 63bf 4a95 a188 5a9b c03f
00000360: 0f57 44c8 f54e b03f 4e39 f43f 75d0 abbf
00000370: bd94 953f 67f4 c43f e913 70e7 23b9 bc3f
00000380: 4f7a 1d96 11b8 b13f 17d6 1c37 f59e abbf
00000390: a3c6 4e00 e530 b23f 5c91 a17f 590e ad3f
000003a0: eb22 c7bd 52fa a73f cb43 85a3 fde7 b03f
000003b0: ef1d 2d67 71b1 b03f 04c1 cb28 cd1e c43f
000003c0: 4cde 7ebe 53fd b93f 5be1 c1c1 ac1d 9abf
000003d0: 6e27 b2bd 30ac 88bf e90f 2b74 d793 b93f
000003e0: c7a1 a863 0379 a6bf 3379 7922 2e8e b1bf
000003f0: 11d4 3e8b 21bd 833f dcbd 78bd 7174 c13f
00000400: 368e f908 cb83 c33f c8c8 d2a2 0202 6fbf
00000410: 11c7 047c 3b63 c33f 697a 1769 59d0 ba3f
00000420: 9324 7254 ff38 b73f 16a2 0ba2 04ad a33f
00000430: b410 e43f e777 b43f e50a f8c9 cc8b aebf
00000440: 06fb 435c 2533 c43f 0306 9a61 0e92 9abf
00000450: 1dc5 059c d0db 84bf 436d c171 05f5 aa3f
00000460: 9d42 46bf 9e11 bb3f 715a 326e 900a a23f
00000470: b0d8 8f1a ead3 973f 3921 5c91 4797 97bf
00000480: 14ec 8958 f800 be3f 64c9 08f6 c31f a0bf
00000490: 4e80 c846 8e3a c63f 4ce8 7f59 79b7 b03f
000004a0: 3589 235c 3717 ba3f d28e 96e3 e31d a63f
000004b0: ead1 fa55 c132 9e3f 63ff c77a eb5c c53f
000004c0: 3580 f53c ff1e b13f b5f5 c6b9 7b2b 8cbf
000004d0: 5a0e b2ce 85be 96bf 76cb c55e 104e c13f
000004e0: 8483 667c 2165 acbf 5bbd 2d85 0a98 afbf
000004f0: 5572 aa61 03ae ab3f 8868 4eb3 f629 bd3f
00000500: 7306 174b 68e7 a93f a552 0067 786a be3f
00000510: 9c86 83e1 9217 90bf 7dbf 0598 002f ae3f
00000520: 0d84 6795 1f05 83bf 587d e467 fa18 c63f
00000530: 7f9d 5224 8bf5 a33f e750 3ef2 9806 a1bf
00000540: 7fcb cb29 f04b 8f3f dae8 b5a0 21e5 bb3f
00000550: b5af d48d 8d28 ab3f eb10 8be9 24e0 b13f
00000560: 7527 46ad e956 c43f 149f 8215 bcdc a2bf
00000570: e243 54c3 0cbf a53f 7eb7 827f 4199 be3f
00000580: 00ed f1dd 4259 a33f 2ce8 3541 ab0a a9bf
00000590: 6879 15e1 52ce aa3f dd52 e27d bae4 c0bf
000005a0: e3dd 0297 bfe8 aabf 0afd 532d b7eb ac3f
000005b0: d3f9 8c9e 38b2 b73f ea68 220a 9dd4 b63f
000005c0: 194e cdad 3225 bc3f 2e38 6274 3172 c83f
000005d0: fefe 9b82 0122 b53f 7e7b 325c d465 c43f
000005e0: b85f 56b7 faee c33f b936 84fa 6dd7 923f
000005f0: dca8 f523 c28d a8bf f9f0 f57b 8e6b c23f
00000600: 81a8 95ae 451d 93bf 32cd 6a8a 86c3 c3bf
00000610: 7b8f 42b5 b471 adbf befa df1c d384 aa3f
00000620: 6998 c133 0435 bcbf 8008 4239 a830 c2bf
00000630: b7fd 0547 dcf8 a0bf a516 97ec 7aec 86bf
00000640: e791 5975 ef50 a13f f7ce db17 cacc 9c3f
00000650: e86f fdbe 3cd5 9e3f ffa9 26ec c17c bebf
00000660: d36f c586 3128 c7bf eb8c 010b 941d 81bf
00000670: e6e1 724f a52c babf 05b8 a0db 43a7 aebf
00000680: a3be 10b7 6944 883f eacb e38e c5f9 703f
00000690: f0c0 1ae1 51f7 c0bf 73d8 50ed e245 bbbf
000006a0: 38b6 0fd1 1b18 b8bf d327 3965 2555 c5bf
000006b0: 8b3d 7053 2b3a c1bf 4d9c 87af 680b c0bf
000006c0: 9576 1e85 a14e bcbf 1087 e7f5 df61 ac3f
000006d0: 06bc 2022 94cc b0bf a1fc 7d41 3258 c6bf
000006e0: ca91 3f1e ce50 6abf 6f31 1736 233b c3bf
000006f0: 1741 30da 12d4 b3bf 6468 0697 bc55 a93f
00000700: edd3 2132 8d41 c0bf f55b de1a d701 b6bf
00000710: 351e 3839 b323 b0bf dd22 e585 e428 bdbf
00000720: 7a25 4bf3 4969 843f a152 ec3b 29c6 c1bf
00000730: 5679 eed3 0158 c7bf dff9 c7a2 71e8 c0bf
00000740: 7424 09ce 66e7 89bf 4cce 0db4 0008 a93f
00000750: 31f9 9f05 c880 c5bf ecaf 2c5a 4726 a9bf
00000760: 5b08 bd22 c5f8 c0bf 300a 6402 d48b ad3f
00000770: 3199 0ea5 303a 7cbf afe0 5093 358a a53f
00000780: 4302 7b8c e8af 80bf c2ce 75c9 2181 bfbf
00000790: eff4 97f2 3212 afbf 610a d000 4f53 963f
000007a0: a26a 0378 f5af a6bf fe52 931b d2ca a9bf
000007b0: 3ff7 3686 bf3d a63f f9fe c5ab 0313 c1bf
000007c0: 2df8 27a6 da34 b1bf 7dec 219f caf1 b6bf
000007d0: 864c ef2f b397 c5bf 4d82 e3ea a96f 893f
000007e0: 0082 449e 8f4a a53f 6938 5ea1 16f3 c6bf
000007f0: 5fe5 1c72 c7a9 bebf 781f 6c51 2d5c c2bf
-0.049205124570364134 -0.043935935161204934 -0.06226169492436695 -0.0942272460835623 0.029415889532086275 -0.029752115457235596 -0.02374542632606775 0.06341739526952073
0.02121172940211953 -0.1449054152620766 -0.1060530142944326 0.060939938466929605 -0.16231855212134222 -0.12665111730545683 -0.010702896787305247 -0.08536557075559507
0.014355131918355657 -0.1309033188730421 -0.04353132147461021 -0.07748311991188873 -0.1653003622849333 -0.04925305209702119 -0.004732209546015063 0.04426573413018075
-0.01985115356956323 -0.11685316558740545 -0.06388175039146723 0.018338446812652176 0.012747177455441188 -0.058839710119621746 0.011398198206209614 -0.09834893755843692
-0.14473098573355692 0.0223913604229237 0.0030276165169275883 -0.020898540877578996 -0.13146220375546222 -0.012228544942656528 -0.13730951255595836 -0.13636064048082785
-0.08555653515792197 0.031004165325926362 -0.1540999939668448 -0.009282814405797873 0.02010010285861821 0.020838419762034203 -0.13856590503130603 0.0011020067707328775
-0.012071660480667058 -0.15494388219369862 0.020636874814098972 -0.19379747807283987 -0.08624565668864817 -0.17345483847693444 -0.09543921074720647 -0.099389470740575
-0.1297290234303588 -0.14777708572077053 0.05403062393664481 0.06355222195252146 -0.05785506225209313 -0.09954718239957969 -0.06945587877937438 0.02893973476820729
-0.014326863335199563 0.15995037456694602 -0.011132247257156109 -0.01715307113083861 0.07613393434333104 0.029165155369980437 0.10981651522980768 0.03206146642960711
-0.050150481230550506 0.11543486632797634 -0.054516953774824885 0.13546641329597436 0.05098207352131611 -0.0375675141654072 -0.129363618662636 0.16700521189823153
0.022720066924977994 0.12884994519047407 0.0077524381162180815 0.11119726014613676 0.12250201384837672 0.0994891908370577 0.03831701391653252 0.142303066063585
0.1652861859435433 0.09225700098663037 0.1026679231140763 0.09643327029994932 -0.045448136711007274 0.07528460636207883 0.005940526808950473 -0.0070089224173412795
-0.004092113300722248 0.048770410876638685 0.09399912647027336 0.11997299867285881 0.1200868233852124 -0.00012506408309667847 0.04230480953503043 0.0630821394943045
-0.030959734886502534 0.024937217390950346 -0.0023656539007549703 0.1297410170692877 0.06370483531312864 -0.05432478337944478 0.1637085972280711 0.11220001602494246
0.0692149154178676 -0.05394712732087841 0.07105857141029985 0.05675010378834841 0.046831689516300866 0.06603989832116423 0.06520756501151202 0.1571899842451857
0.10152171517153724 -0.0255038254985903 -0.012047177113590126 0.09991213403833367 -0.0438920077470502 -0.068575747887256 0.009638082563336455 0.1363660979418303
0.15245950639938294 -0.0037851382718026884 0.15146583133314853 0.10474165740695586 0.09071346103350413 0.03842939832776808 0.0799545794471353 -0.05966033902588722
0.15781085019258273 -0.025947785098201958 -0.010184888612203619 0.05265061391465988 0.10573761148249124 0.03523684830831975 0.023269327040872312 -0.023038023230612856
0.11720230256644043 -0.03149235132549924 0.17366198021136586 0.06529959139871372 0.10191675185663913 0.043196794063332114 0.0294904907920727 0.166898188545015
0.06687922704941303 -0.013754812819452103 -0.02221116136617094 0.1351948225743304 -0.0554590668064128 -0.061706856496011674 0.054061990425201024 0.11392156484217442
0.05059362331986685 0.11881210817984796 -0.01571492673327289 0.058952349240711556 -0.009287115809401692 0.1726372725761205 0.03898272341148878 -0.03325345952103636
0.015281559253230046 0.10896501706693887 0.0530437694199856 0.06982641889323175 0.15890236817022765 -0.03684032213760538 0.04247321972264452 0.11952599871685085
0.03779038390436007 -0.048909522733950744 0.05235537526708606 -0.13198023935969774 -0.05255697935484329 0.0564858668167237 0.09256318922869093 0.08918172357008172
0.1099425958939765 0.19098489935680746 0.08255013884263104 0.15935759069267513 0.15573057128926648 0.01839992372065666 -0.04795653046569878 0.14390736630219417
-0.01866635206298684 -0.15440446623470333 -0.057508132101502484 0.05179462172963188 -0.11018396628932837 -0.1421098975734516 -0.03314865462288757 -0.011193237633857331
0.033820612978875 0.028124959665503515 0.030110310704330262 -0.1190911485233883 -0.18091410713793596 -0.00835719736659831 -0.10224373998324374 -0.059869881210360666
0.01184923734589855 0.00414445086629465 -0.13254760257178289 -0.10653513234942284 -0.09411786893880325 -0.16666095202009376 -0.13458768438475163 -0.1253481728628877
-0.11057481288886557 0.05543422581446411 -0.06562162240219047 -0.17456653783662993 -0.0032123590226424735 -0.1502422346224068 -0.07745473696582326 0.04948224395339265
-0.1270004744325485 -0.08596558004352046 -0.063044740170988 -0.11390522259638254 0.009966447579602845 -0.13885989595350615 -0.1823732647726028 -0.13209362457560211
-0.012648394739829018 0.0488891811172861 -0.16799259447720652 -0.049120168454777374 -0.13259185978137364 0.05770742921051342 -0.0068914318261817245 0.04207007811823026
-0.008148018633961423 -0.1230641476484449 -0.060685722459291706 0.021802172112084132 -0.044311209583346015 -0.05037552439322289 0.04343985093463098 -0.13339277160047638
-0.06721273953004987 -0.08962694535323297 -0.1686920150810673 0.012420012932524172 0.041584480352188535 -0.1792934692315982 -0.11977812324484692 -0.1434380195207685

transform_generator.6.bias f8 [64]
00000000: b203 464a ecf2 bdbf 090f c6a9 6c8d b93f
00000010: 5d9e 957b 50ea b33f 5980 bf96 e2b7 b0bf
00000020: 4772 8e12 7678 99bf 6876 b942 aef2 b83f
00000030: 2f40 ab73 9642 ab3f 9c55 8587 d3f5 b73f
00000040: 2912 47c0 da52 803f a82b a518 d2c9 b53f
00000050: 7ab7 fc61 12b5 bbbf 5fdd 3558 5cbe c7bf
00000060: 58e6 57bd 469b 84bf cc90 4947 8371 a1bf
00000070: 83cb 9b53 5f83 b43f 9920 45ce 8efa a4bf
00000080: 4e4c 884e 5ae2 c6bf 50b8 6f44 5835 b23f
00000090: e7f7 78fb 0814 ab3f 6614 0367 8967 97bf
000000a0: 2a58 0430 f124 c13f a976 1fe0 09c5 a13f
000000b0: 3664 7dd9 905f a2bf c985 c5a5 7565 b53f
000000c0: c609 13f2 3862 ed3f bda6 cc73 d4e3 5f3f
000000d0: 1793 d19c f166 b03f 9fc9 cc99 c3ba c73f
000000e0: 8e6e 36e2 2a6c 633f 6593 89c0 5c8e b2bf
000000f0: fc18 1c0c b0f1 b2bf 012e 78bf 98f9 843f
00000100: 8af0 0bae 0112 70bf 6da5 859e 05fc 6b3f
00000110: 464f 553b ae24 c73f b4f8 1f33 32e4 c73f
00000120: 1278 3c48 018f c4bf a8a2 36a4 0a28 8c3f
00000130: 23f9 321c 14c3 97bf 9162 8edb cdf6 b03f
00000140: 7f99 7a71 9be4 c53f f8fe 613d 35d8 a03f
00000150: 86a4 7718 b79e c43f 4ae7 eecb 05cd bc3f
00000160: 8cfb ca86 4ecb c5bf 6251 a120 47df c53f
00000170: 6dbc ef09 7e17 913f 39bc 330a e821 a0bf
00000180: 6e0b cc24 42f6 903f 7b61 04c8 4baa bebf
00000190: fba2 96d0 473f 6f3f df11 91d0 ce9e b1bf
000001a0: 44d1 85ed 073f af3f d939 bceb e7eb c0bf
000001b0: 6d6f f4f9 943b c2bf d0fa e016 53fc c03f
000001c0: d9a0 46b1 89f6 80bf a7dc 195a 5ae8 a1bf
000001d0: 09b2 fd55 fabe b3bf 8781 ac44 8344 b5bf
000001e0: 6a2c 988c 17b5 e13f a024 9964 f227 bdbf
000001f0: 661c 900f 6938 bebf 0ba9 666a cb06 a9bf
-0.11698796094243738 0.09981421608796039 0.07779410378645353 -0.06530586414692276 -0.02487358558902233 0.09745301369681558 0.053242398853058474 0.09359476145376394
0.007970532410476032 0.0851107893151225 -0.1082316865183354 -0.18549684817456133 -0.010061791089344727 -0.034069158985205655 0.08012958327507928 -0.04097410457558332
-0.17878273806181472 0.07112647696314522 0.052887230584459925 -0.022855898773532245 0.13393988461092593 0.03470641003489778 -0.035885359334038844 0.08357940003545318
0.9182400444045065 0.0019464087228677062 0.06407079771595324 0.1853870869613958 0.0023709142275956724 -0.07248477650280234 -0.0740003614010653 0.010241692870315513
-0.003923422395697549 0.00341607186799269 0.18080690285807516 0.186651492083859 -0.16061416651876975 0.013748248230357987 -0.02320510313142522 0.06626593218096334
0.1710390380951132 0.03289953588773459 0.16109360403723744 0.11250339726293848 -0.17026692945179567 0.17087639897602985 0.016691178661798412 -0.03150868534600488
0.016564401145852718 -0.11978601105909618 0.003814354193952927 -0.06882946578941283 0.061027763123009865 -0.1321992779780448 -0.1424432964785142 0.1327003347123168
-0.008282733652621154 -0.0349758372294045 -0.07713284110440823 -0.0830766718540926 0.5533559556946674 -0.11389079051982032 -0.1180482542987292 -0.048879963625340826

transform_generator.8.weight f8 [4, 64]
00000000: 0595 c42a ac18 a5bf 9e3d d193 fc6c b5bf
00000010: 3ad2 5ec3 4c41 3e3f adce b387 bf7a a9bf
00000020: 806b 7e83 c7c2 ae3f d779 bc96 c9c4 b8bf
00000030: 9d6f 2736 b4e9 c4bf 6036 f8f9 4a07 c4bf
00000040: 63bf 2951 26e4 b8bf b35c e376 e9b8 b1bf
00000050: 8ee6 8176 3a5a adbf b2aa 213a ad65 883f
00000060: 3f2f e5ee 786a adbf 6be1 d7a2 8243 adbf
00000070: dfad ac68 8fe7 993f 5f1e ec4a 56e1 9abf
00000080: df41 bdc8 8d6d b03f dacd 2d02 e054 b3bf
00000090: e337 a89f 9f8e b2bf 3a04 9a9e 9107 573f
000000a0: ec4e 5b30 7b95 c6bf bfc3 b699 9534 b2bf
000000b0: 693a 026b 9f21 9a3f 91ff 8319 e206 b0bf
000000c0: 75d4 2c30 f73a b03f 3c30 7efc e0c6 b6bf
000000d0: 7aa0 3ad7 9ff9 9abf 55cf 41ce a69a d3bf
000000e0: db23 46c6 b477 b2bf 254f 126e 5727 c1bf
000000f0: 7d8e 8e62 7f6b 95bf e814 1d7a 5f91 babf
00000100: f3e3 eaba 22ec d7bf 3ab1 8958 1268 763f
00000110: f28a 9062 4ec7 c0bf 9d48 9429 a594 bfbf
00000120: b0d3 3e4f 3a19 6b3f 9fe4 701d 10dd bbbf
00000130: e51e 3c49 c183 b6bf 1b5e 0539 718f abbf
00000140: 7e39 c020 b197 bcbf 61ec 9b82 c800 b8bf
00000150: 23b0 818e f0cb b7bf a83d 5ce9 3fbb cabf
00000160: fb95 0ada 9571 883f 5325 f788 8235 b6bf
00000170: b562 eade f1c2 a8bf 459a 6829 9043 a83f
00000180: 7040 ed56 7ae8 b5bf b381 0785 1aad a43f
00000190: be3f 4c49 2f49 b3bf 3b95 11d9 0f5b a73f
000001a0: 4e3d 1264 7d53 b4bf 1da5 3a94 4d2e b03f
000001b0: 3bce cae3 f07b 27bf c379 6b03 0bf9 bebf
000001c0: e3e3 30cb 7d2e c1bf e2f8 91f5 e323 9d3f
000001d0: 8948 739e 2b85 963f 0cce b4f4 9c7d ae3f
000001e0: 633e 96d1 af05 dd3f 038f 607d ef23 93bf
000001f0: 47ba 8d79 c9c5 ab3f 4857 6087 10c9 9fbf
00000200: a532 bec4 67f4 b7bf 21cc d34d 0db3 cebf
00000210: 8b59 a9c7 4ee5 a4bf cda8 3bba bfa1 adbf
00000220: c1d6 4772 2378 85bf e9f1 8778 621a 8dbf
00000230: 00d4 8619 13f9 903f 015f 014d dc94 d6bf
00000240: c195 1ede 27e2 e1bf 5a97 f6d6 4552 bebf
00000250: 9078 3fce cab6 cfbf 564c 66dc ec8d bdbf
00000260: 3b11 9825 d834 a9bf 6fc8 1d7b e014 733f
00000270: d088 d935 49ec d8bf 2de4 45d9 2911 c2bf
00000280: 5854 b119 205a 5cbf 1b52 fe53 312e b7bf
00000290: 12ac 5ead fadc b3bf 49dc 03ea 8c8a c43f
000002a0: a8e7 0bb8 181d b8bf 7824 fd32 f745 723f
000002b0: 8b81 d910 8cf8 bcbf 0daa ebef 5fee c2bf
000002c0: 705f 4376 6897 fabf 0b14 6df3 25ab bc3f
000002d0: 6403 61eb f91b cbbf ea9f 669a 4c85 e8bf
000002e0: 6afc 7db1 af9f aebf 76c2 8bee 929e b53f
000002f0: a576 4b2b 8716 c7bf 2d87 b97d 87f7 c33f
00000300: 76f3 6207 120e c6bf 7ba1 d9d7 7606 9f3f
00000310: eb44 72fb 250e d9bf 547e cf83 a06f e1bf
00000320: d9f1 abc3 3113 9c3f 7154 a9e7 5ff7 b13f
00000330: 3dc1 7599 227e a63f 2393 3cda 103b aabf
00000340: d2b0 fa57 37fd cbbf 8b4f e891 df25 c4bf
00000350: 632c 0463 f174 bfbf 838d 3057 929c edbf
00000360: e8bd 0eee c9b6 b6bf 4a76 9caf 33b9 d9bf
00000370: 7426 60ae 077f cfbf 865e 30a3 a1ff c1bf
00000380: fd7f 77a3 2933 86bf 0f3c 56a3 5ac7 a53f
00000390: bc60 ab74 381d c53f c867 2a1e 2e05 b6bf
000003a0: eb2d f0e0 340d 9f3f bee3 6d39 5727 b0bf
000003b0: ca8e 824d 01c2 c1bf f7d1 0a44 9414 d1bf
000003c0: 3f41 8c5a f175 a33f 444d a72a 3012 b03f
000003d0: 2262 91ae 636f c2bf 8e71 61be 2062 c3bf
000003e0: d5fa 0f8c 1daa fabf 9587 51bc 38a6 c7bf
000003f0: 5f18 8600 3f22 b2bf 51f6 16f8 26e4 c6bf
00000400: cf6b b150 a9b4 af3f d574 9351 a3de bb3f
00000410: 7fd8 10b4 449c 883f c91a 8291 596e bdbf
00000420: a1e4 3851 32fc b93f 07e2 2f40 49f9 ac3f
00000430: bf98 52c7 0652 673f 7717 1813 fc03 a83f
00000440: bf01 0cc8 3cb7 a3bf 93d5 65b9 83af b1bf
00000450: bd29 b372 d2bc babf 2f83 a867 2e67 b2bf
00000460: 1b30 6a13 890e b23f 0744 1d3d b95a a83f
00000470: 2713 f9d6 6ee9 9dbf 4f26 f4c9 2b50 823f
00000480: 5101 17cc f865 b8bf a767 68b0 c2d2 bdbf
00000490: a7b9 8ffb 8bb0 b5bf 2705 c7b5 eb9b ae3f
000004a0: ff92 e143 9022 ab3f df04 3244 ef13 b1bf
000004b0: 7fc7 cf31 1555 bebf 2354 4eff fb9c b1bf
000004c0: 677d 82fe 32ae b33f c7b8 c005 f6ec 953f
000004d0: 3978 83a5 2d6e b33f 8d52 40c2 13da b23f
000004e0: af49 b6f9 d62b b13f 537e c585 fe04 a03f
000004f0: f3ce b628 1c63 bb3f db4a c0f3 a141 ad3f
00000500: 6dfd bbb0 0f08 b1bf 2f23 be42 d9ba b9bf
00000510: a796 caae 464f a5bf 674f dad8 68a6 b03f
00000520: 018e ad24 01f5 bf3f b74d 7463 189b acbf
00000530: cb38 0c6c 0a81 aabf d7b0 a426 c04d 9fbf
00000540: 63a6 3e09 2fda a33f c727 1ffa ca4f b9bf
00000550: b3aa 7b93 3ac4 ab3f f7b9 5634 e8b3 bb3f
00000560: 7520 65b0 0163 b53f 6b83 5554 aad1 a13f
00000570: fb29 2207 8e14 b2bf 0fe9 cf2e 2a77 8e3f
00000580: 75ac 10ab 6714 b23f bd80 7a99 4394 bf3f
00000590: 9f6e 3f9e 8e70 a3bf cd50 147b 8909 bcbf
000005a0: df78 9ac6 cd1c 7d3f 5fe1 5b0c b1dd 78bf
000005b0: d161 ec7a dc50 b33f dfee 2228 af68 9e3f
000005c0: 6b55 6ed4 7d99 adbf 2756 090b 00d7 b6bf
000005d0: 77b3 8ac2 48c0 adbf fd58 851c d554 b23f
000005e0: 5b89 1d1b 7aaa b6bf b3f3 7e02 130b bf3f
000005f0: eb2c cd39 e23a b7bf 1f0b ec75 cb0d 783f
00000600: d195 223e 0bba bebf 0719 aba7 9c55 98bf
00000610: f9ae 20e8 36a7 b8bf 8f13 631b 19a8 b23f
00000620: 1f00 d801 8f34 b8bf ed28 ac9c c2c0 b63f
00000630: 4363 8a4a 6cfb a0bf ff4f b65a 1a1b a33f
00000640: e363 86a1 eda8 a93f 4f22 ce9a 2eca ad3f
00000650: 531f 9aed d4c9 a1bf 1be5 3628 34e2 a5bf
00000660: 3ff5 6207 2065 64bf 83f3 c972 34f1 ae3f
00000670: 2f0e ace1 4271 b03f f3bd 8815 0e7c a0bf
00000680: 1931 bd34 8024 b8bf b153 23ca ecce b53f
00000690: 111e 1ae8 1fad be3f 7dca 9c07 2757 b9bf
000006a0: b748 d91a 74ef adbf 2392 3204 0aef bd3f
000006b0: 6787 31cc 75c1 bb3f e3d1 bbdc e7bf b63f
000006c0: 99ef 0aec 0f22 bc3f ffe0 7dac 8104 593f
000006d0: 372c e957 4afd bf3f 3f75 5c14 2b9e 71bf
000006e0: 0f0d 5668 6021 8b3f 6f91 ba7d 97be 9fbf
000006f0: 3140 3171 368c b33f 8ffa 85e6 b317 9cbf
00000700: 9375 7fe8 f813 b4bf 0759 1523 0405 a13f
00000710: 939f c5a8 f316 bebf 77d8 b2ff 3dbf a03f
00000720: b707 ce9f d926 adbf 9f4e fb4b 3659 bc3f
00000730: db0e cb33 c98a bbbf afd2 363c 27af 923f
00000740: 17ba 6fff 2750 bb3f abd3 8b06 663d b9bf
00000750: 5dd7 6ac3 1527 b63f ff18 8750 e638 803f
00000760: 9d55 79a0 94f8 bebf 5b6c b42a c92f bbbf
00000770: af1e a29f c52f 85bf 1311 9261 55a8 bcbf
00000780: 2f91 80d9 2403 9a3f 3fed d5f3 bcc9 b6bf
00000790: 47b5 2232 5869 953f 3ffd 286b b06d b5bf
000007a0: fb0d d1f3 d3d1 acbf 6b12 312c e90f ac3f
000007b0: a97a 0803 9228 b23f c7e2 7502 836e 983f
000007c0: 8b93 5620 845c bd3f 714a 482c 28e2 b0bf
000007d0: 95ea d3d4 a687 bd3f bff0 7929 7634 a6bf
000007e0: 5fdc c099 926a a4bf 9fca 8714 34e1 723f
000007f0: af79 1073 0340 84bf bfe3 d94b 7167 b93f
-0.04120386144703939 -0.08369425400564132 0.0004616558466026575 -0.0497646191742239 0.060079798509113935 -0.09675273828586427 -0.1633820785926873 -0.15647256093545803
-0.09723128778000283 -0.06922778275053325 -0.05732901283859092 0.011912682854206966 -0.05745294491006669 -0.05715568769295739 0.02529739452726953 -0.026250217745682366
0.06417165900098308 -0.07551384022899957 -0.07248876235846029 0.001405613142566388 -0.17643680440107035 -0.07111487391263348 0.02551888552312179 -0.06260502932491209
0.06339974332952798 -0.08897215046289458 -0.026342866431747748 -0.3063141836384962 -0.07213907089875653 -0.1340131080111117 -0.02091788329165788 -0.10378071528710431
-0.3737875771872147 0.005470344222527063 -0.13108234226918786 -0.12336189522855752 0.003307927976460033 -0.1088419029118932 -0.08794792211494558 -0.053828752718512805
-0.11168963479597058 -0.09376195133875022 -0.09295562247433557 -0.20883940596148176 0.011935396877855267 -0.08675399631387863 -0.0483623108495456 0.047390465788613535
-0.08557858106837712 0.04038317560093976 -0.07533546008585199 0.04561662220730019 -0.07939895337243749 0.06320652836679526 -0.00017916980313757873 -0.12098759492389548
-0.1342313043731159 0.028457223761955037 0.02199237970928228 0.05955210196625779 0.45347209422559426 -0.01869177057973471 0.05424337014016039 -0.031040437948909344
-0.09357307961745194 -0.23983923244631547 -0.040811979172462896 -0.057874671443487104 -0.0104830521822622 -0.014210480979266431 0.016575144227051197 -0.35283572692922865
-0.558856901003928 -0.11844288347364565 -0.24776587553691742 -0.11544685726976076 -0.049231295193779855 0.004658581617933518 -0.3894217515827565 -0.14114878758462748
-0.0017304719429110018 -0.09054859448071577 -0.07759062512074902 0.16047822405355053 -0.09419397824595299 0.004461255666520995 -0.11316752826087943 -0.14789962019797578
-1.6619648570685648 0.11198651497859673 -0.21179126732934173 -0.7662718787805691 -0.059812059799690356 0.08445089649081602 -0.18037500013354194 0.1559914935960988
-0.17230439530058178 0.03029809658474523 -0.39148854785260195 -0.5448763441490407 0.027416970794534954 0.07018088727757445 0.04393108485499162 -0.05123188652058832
-0.21866504474508602 -0.1574058020056522 -0.12287815730467026 -0.9253627493784936 -0.08872663557007565 -0.4019288268044404 -0.24606414808686206 -0.14061375110826563
-0.010839772511587848 0.04253657573564606 0.1649542398142837 -0.08601654278245896 0.030323816517961715 -0.06310029174882367 -0.13873306545894187 -0.2668810524440057
0.03800920706101118 0.06277752915712137 -0.14402433418105526 -0.15143212600640904 -1.6665320845783544 -0.18476018138158837 -0.07083505404270472 -0.17883765329127013
0.061925212002016054 0.10886593572236632 0.012016808266803956 -0.11496505548903281 0.10150446398701486 0.05658940228017078 0.0028467304606066553 0.04690540059168218
-0.03850736562708645 -0.06908438946068989 -0.10444369602479404 -0.07188692122191463 0.0705342934035688 0.04756716605209737 -0.02921078860369444 0.00894197664321719
-0.09530596716559116 -0.1164972000773604 -0.08472514049183265 0.059783330859781984 0.05299807385089216 -0.06671042838026463 -0.11848576036552848 -0.06880164130264226
0.07687681878677709 0.021411747075199352 0.07589993754251702 0.07364009373152154 0.06707519146428952 0.0312881029410589 0.10698104852673022 0.057141362194803334
-0.06652925553134077 -0.10050733451329273 -0.041620453678928464 0.06503920835740261 0.12483222146470753 -0.05587078298608666 -0.05176575249616774 -0.030570032461739807
0.038773984793192516 -0.0988737927101787 0.05423148203211294 0.10821391370584608 0.08354197079199983 0.03480274466961116 -0.07062614130169458 0.014875726274102634
0.07062385488886654 0.12335608002695415 -0.03796811753974549 -0.10952052359454285 0.0071075475804305 -0.006070796580154385 0.07545259476717738 0.029696213555083225
-0.05781167238380188 -0.08921814221806611 -0.058107637164858277 0.07160694071112413 -0.08853877222057831 0.12126272974906165 -0.09074224387329692 0.005872530716035467
-0.12002630488367251 -0.023764083608306865 -0.09630149047069016 0.07287747305515622 -0.09455198092473481 0.08887878727924532 -0.033168205355826895 0.037316154073010914
0.05011694523563628 0.058183151623840794 -0.03474297905364545 -0.04274142256640286 -0.0024896264613675496 0.06043399716597888 0.06422822961399598 -0.03219646466129324
-0.09430695808004365 0.08518867430696166 0.11982917229226354 -0.0989860910019988 -0.05846751048797343 0.11692869760970175 0.10842071757499881 0.0888657487774434
0.1098947478557747 0.001526953348699733 0.12495865484486122 -0.004301231650768954 0.013247254547201352 -0.03100048737418731 0.0763582254742239 -0.027434168763188323
-0.07842975307672466 0.0332413952661899 -0.11753771658334093 0.03270906206437101 -0.05693702769987346 0.11073626856824113 -0.10758645548326788 0.018246281671695893
0.10669183717957541 -0.09859311733073521 0.08653388997012486 0.007921027500640053 -0.12098053853818276 -0.10619790356251839 -0.010345024046059718 -0.11194356567472523
0.02540261819389505 -0.08901577904719192 0.02090966993335044 -0.08370497337545134 -0.05628836013104529 0.05480889000367458 0.07093155454684087 0.023859068894554605
0.11469293393618167 -0.06595088082421242 0.11535113044730345 -0.04336900001814702 -0.03987558485862829 0.004609301985044083 -0.009887721013055321 0.09923465825876486

transform_generator.8.bias f8 [4]
00000000: b8c3 db91 870b 9a3f a175 76c3 49cc eebf
00000010: 7ec5 22ba b50c b43f a8c2 7864 75ca 973f
0.025434606816762545 -0.9624375169402591 0.07831893724757852 0.023233255631739752
