models/livneh-livneh/QM_SST_1000[1980, 1990]_upscale_1by4_LOGnoisy1_bci.pth (torch, 73924 bytes, 8 tensors)

transform_generator.0.weight f8 [64, 1]
0	0xbfec4732682b8499	-0.8836910280771405
1	0xbfebf947a214d5e3	-0.8741796651508448
2	0xbfe8172a70cc5771	-0.7528278544511818
3	0xbfeca286ce69a7d7	-0.8948396712778458
4	0x3faaccce44430f1f	0.05234379370952368
5	0xbfa7c5bccd01653f	-0.04643049242504071
6	0x3fed2294eb22ab93	0.9104714004982831
7	0x3feb70aeaadbdae7	0.857505162914859
8	0xbfeaa739b6da2931	-0.8329132624942642
9	0xbfe782d0b2bebefb	-0.7347186556926028
10	0xbfe5f2d5e31e0597	-0.6858930049785837
11	0xbfcfe7f23958b547	-0.24926593589899879
12	0x3fe5ebd7e089fb39	0.6850394616629735
13	0x3fe7b64a00661301	0.7410020835673948
14	0xbfcf5a000ff36227	-0.24493408945888115
15	0x3fccc8a4f09a24ff	0.22487317798758252
16	0xbfea5c68c6d5658d	-0.8237804301708579
17	0x3fd9c054073c63ef	0.4023637838996014
18	0x3fcf97582f3b5abf	0.24680616670840114
19	0xbfc00e7bcd42f12f	-0.12544200441869566
20	0xbfeb378b33456c03	-0.8505302430525038
21	0x3fd77aa42fc91ffb	0.3668604342133219
22	0xbfd808901adfd513	-0.3755226385540748
23	0xbfd870c311a463c7	-0.381882445553455
24	0xbfedfe85d19c0885	-0.9373196691451687
25	0xbfed6aa2c362e885	-0.9192670646800855
26	0x3feba464c3d20ed5	0.8638175797099971
27	0xbfe643920895f619	-0.695748345154871
28	0xbfde13022208e81f	-0.4699101765032782
29	0xbfe7a6fa47b5e437	-0.739133014735791
30	0xbfdfc335475d75e7	-0.4962895581173527
31	0xbfe10fd71958296f	-0.5331836218841043
32	0xbfe18eb3f93555dd	-0.5486698024130267
33	0xbfd759f03b2f769f	-0.364864404485937
34	0x3fcd49dc819d4067	0.22881656960317118
35	0x3fc9078b15553fc7	0.19554270307207686
36	0x3fe65610082cbab1	0.6980056914961407
37	0xbfedeb9789c848fd	-0.9350087824880401
38	0xbfd86ab309309e93	-0.3815124120469388
39	0xbfc1548a88ad2227	-0.13539249108932092
40	0x3febcb8d38517b55	0.8685976123777929
41	0xbfe82c06556779f1	-0.7553741138506763
42	0xbfc2828e9cf2feef	-0.14460928596053388
43	0xbfdb1cca6f8dcebf	-0.42363224882067735
44	0x3feecf465d4e0c61	0.9628021070824496
45	0x3fe61ecf82bebb05	0.6912610581983648
46	0xbfcd9ff49947e017	-0.23144395336544285
47	0xbfe9a4f59588ab95	-0.8013866348822939
48	0x3fd4d1a645533c0b	0.325295989704444
49	0x3fc4f9a840212edf	0.1638689339764516
50	0x3fdacafb5e7fe643	0.41863903263547203
51	0xbfaca4d19b9d3a9f	-0.05594496750437838
52	0xbfe9febd35aede6d	-0.8123460815904316
53	0x3fcb3def69cc1f17	0.21282761255155755
54	0xbf5bc917460287ff	-0.0016958930282631177
55	0x3fefe65ea7305a1b	0.9968713059814179
56	0xbfe11c70dbeec465	-0.5347217841682662
57	0xbfd044a5eaaa6c13	-0.25418994824002644
58	0x3fd00fe3d83d7af3	0.2509698497505461
59	0xbfdc9b609f3284af	-0.4469834856664176
60	0xbfef4a60815f4227	-0.9778292204665079
61	0x3fdc854628a50db7	0.4456344029351515
62	0xbfdf6f2da72ab3a3	-0.49116078686602743
63	0x3fd0be67dc6be35f	0.26162144208460875

transform_generator.0.bias f8 [64]
0	0xbfd2b41192659d14	-0.2922405175836087
1	0xbfbde84b9581e140	-0.11682579422074912
2	0x3fcce1425ec4a4e0	0.2256243670210898
3	0x3fe9901c549dde58	0.798841634051267
4	0x3fd701001002fd60	0.3594360500682878
5	0xbfe6c1732737ebf0	-0.7111144796357376
6	0x3fbd5576516f4800	0.11458529937888784
7	0x3fee0fd69644150e	0.9394333777314914
8	0xbfd868a3f1950f08	-0.3813867434694065
9	0xbfebd6eb9a31541c	-0.8699853908134432
10	0x3fd26942d86a061c	0.2876746285838594
11	0xbfef92ba6b6e1cbc	-0.9866611574406288
12	0x3fbf9209b20317a0	0.12332211109159497
13	0x3fd25c13b48837a4	0.2868699324616222
14	0xbfe72e32b2a6080e	-0.7243894089917846
15	0xbfd99f5c5714cf94	-0.4003516054538008
16	0x3fd1621b66708320	0.2716129780183554
17	0x3f9dd1dcc3ccc2c0	0.029120873881029352
18	0x3fd6ee8461b33080	0.3583079294301186
19	0xbfe547a142241c14	-0.664993886167283
20	0x3fe9132d56725c7a	0.7835909546291895
21	0x3fee6daf54f3c648	0.9508892688010713
22	0xbfe10f3ad1416aaa	-0.5331091010114808
23	0x3fdbdd9d1950ab54	0.43540122482470633
24	0xbfef404ae0a4b3bc	-0.9765982043805859
25	0xbfe9d87f3bf1023c	-0.8076778574687249
26	0x3feb74c9f1843f5c	0.858006450378507
27	0x3fdcd7376549aa08	0.45063576594716936
28	0xbfea61fe8e7977f8	-0.8244622023300954
29	0xbf819361cb3f0500	-0.008581890120583413
30	0x3fec35fc831b631a	0.8815901337321492
31	0xbfda7267d6989398	-0.41323276478424864
32	0x3fbd188b5ee00ce0	0.11365576807297684
33	0x3fcaa070e31abac8	0.2080212696941628
34	0xbfec43ad1f0f490a	-0.883261261619084
35	0x3fed8b986747bd64	0.923290445059973
36	0xbfd107046abcf284	-0.2660532991756457
37	0xbfd0d46619388c40	-0.2629637953088526
38	0x3fe344672065a7f8	0.6020999558215854
39	0x3fbb05fb20d57830	0.10556001235588108
40	0x3fd91b748eace790	0.39230073865075443
41	0x3fb9d969abb18e60	0.10097370568979036
42	0xbfb251375ccf9720	-0.07155176177874667
43	0xbfd0cd573010b790	-0.26253299421193166
44	0x3fc4211f8af6d060	0.1572608402763107
45	0x3fd3d27e653cfd18	0.30972251783892224
46	0xbfc6ca2a71149870	-0.17804461022859952
47	0xbfe467543d3351ca	-0.6376134105035416
48	0xbfeeab7cc054aaae	-0.9584335094890173
49	0xbfee0ba768a2b386	-0.9389226001418229
50	0xbfe2808fc9fca818	-0.5781935639436169
51	0x3fe0150ae9bee636	0.5025686803193767
52	0x3feae8366fd76cd6	0.8408462700275787
53	0xbfe9e3a92abf355a	-0.8090406260395568
54	0x3fed7e3bc43d4f7a	0.9216593582918755
55	0x3fc2aa52984233f8	0.1458228343439314
56	0x3fd197e47d049fd8	0.2748957844619304
57	0xbfe3854949935450	-0.6100202977201068
58	0xbfdd4c645f685d0c	-0.4577876025882268
59	0xbfcd18fdd2ac5400	-0.22732517992758972
60	0x3fe3eaf14b9e0a34	0.6224295117284044
61	0x3fdbbef4008869e0	0.4335298543170705
62	0xbfda563296f830d0	-0.4115110849677537
63	0x3fe1add09c0c4a04	0.5524676368534647

transform_generator.3.weight f8 [64, 64]
0	0xbfb0c533abb23a75	-0.06550906125833385
1	0xbfbf5470ee8bd4cb	-0.12238221954233379
2	0x3fb6e510f83ba279	0.08943277416586594
3	0x3fb81d496286f9bf	0.09419687896204375
4	0xbf7019b760f962df	-0.003930774997194602
5	0xbf906aa60c07eb47	-0.016031832203206944
6	0xbfbaf063a9d5c18b	-0.10523054977762152
7	0x3fbadaea7001dd3d	0.10490288958123002
8	0xbf71340e2407451f	-0.004200034367799504
9	0x3fb219d0cec39d65	0.07070641563369902
10	0x3fab51c042731cf3	0.0533580857386883
11	0xbfb2941f7dfecc8d	-0.07257267786080686
12	0xbfba1b99819975e9	-0.10198363699006276
13	0x3fa337f6c903fc97	0.03753634647181874
14	0xbfa149f926a289f7	-0.03376749607675216
15	0xbfb3471fb42df337	-0.07530401371873273
16	0xbfa2c63c02505123	-0.03666865852588532
17	0x3f86c50444bc2b9f	0.011117966983439418
18	0xbf9cbc782fe47ff7	-0.02806270401299568
19	0xbf6b5fa5b191c93f	-0.0033415065959669084
20	0xbf924e57bc4fe54f	-0.017876978748949054
21	0x3fa57f91615a5b7b	0.04198889077559095
22	0xbfb7c63ebb364cff	-0.0928687293110677
23	0x3f9f6c957215b3e7	0.03068765171831336
24	0x3faf52061fad50cf	0.06117266785318664
25	0xbf99caa46af0a937	-0.025187081362824073
26	0x3f9cb4fc6c533627	0.02803415690578084
27	0x3fad567e5eebe3d7	0.057300519072618954
28	0x3f8134314b2cdb5f	0.008400330645242425
29	0x3fb30194bd43596d	0.07424287434273476
30	0x3fa741e8f7f8c63f	0.045424728651039185
31	0xbf9ce809932b76d7	-0.028228902442484518
32	0xbfb1edd10f34c177	-0.07003504391901126
33	0x3fbd96e7f7833cc1	0.11558389466084674
34	0xbf7fe7533cd4855f	-0.007788968226379949
35	0xbfade1d4bbf94807	-0.05836357874490266
36	0x3fba75df98c0b11d	0.10336110572160746
37	0x3fa989809a55b31f	0.049877184714978144
38	0x3fbd48f70432a173	0.11439460613713041
39	0x3fbf5a8b6441939d	0.12247534940395473
40	0x3f5eae6ddeb380ff	0.0018726418446065039
41	0xbfb67ad9591bea09	-0.08781202722085636
42	0x3fa36ee8e186de8b	0.03795554879201032
43	0x3fbe33256c1bcab1	0.11796792878503017
44	0x3fb10f859e76ebfb	0.06664309614909307
45	0x3fb74124b2845925	0.09083775862049899
46	0xbfa7d2839d83e4e7	-0.04652797029297933
47	0xbfb971981e73bc2f	-0.09938956016024812
48	0xbfbd68bf347170b1	-0.11487956076001883
49	0xbfbdd300f6e94bb3	-0.11650091198070704
50	0xbf93b5714c5ea4c7	-0.019246835981594736
51	0x3fa24a02b3e81c27	0.035720905743851276
52	0x3f4fdbbc371fb7ff	0.0009722394008784273
53	0xbf9b313e53d24277	-0.026555036417053004
54	0x3fb1712d1538ab3b	0.06813318031406095
55	0x3fb29fbb643dda51	0.07274981686882966
56	0xbfae267715f6fbe7	-0.05888721602558871
57	0x3fa2dbecb327623b	0.03683414160667949
58	0x3fa5e567edbd89bb	0.04276585366348536
59	0xbfbcb80ef77b8019	-0.11218350927401878
60	0x3facb8ed0b16cdbf	0.056098373035094344
61	0xbfa7dff803d611ff	-0.046630621403014764
62	0x3fa654bfdc96e3f3	0.043615337064188874
63	0xbf41747113ae3bff	-0.0005326797612371647
64	0xbfbc67b63c1716c1	-0.11095751730962446
65	0x3f977fd18278dfaf	0.02294852598990332
66	0xbfa55fdee26f8c5f	-0.041747059956627856
67	0xbfb4673a996ab2db	-0.07970014806296481
68	0x3fb0765fb17d919d	0.06430624087585675
69	0xbfabedf4931fb9b3	-0.05454983039804819
70	0x3fb0312ecf1bb069	0.0632504706988485
71	0xbfb42710397632bf	-0.07872105982660126
72	0x3fb85f2fb3ace4e5	0.09520242821317344
73	0xbfa736d441e8e63f	-0.045340188069939995
74	0xbfbf00706de7d4b9	-0.12110045130960402
75	0xbfb0b4b4a97a5f31	-0.06525735032698489
76	0x3fbddea7294fc1f9	0.11667866476614809
77	0x3fb579c4be9bd8dd	0.0838892903665029
78	0x3fb413fbe1592baf	0.07842993022602117
79	0x3fb680c5f284112f	0.08790242358015087
80	0xbfa1228edd43d1bb	-0.033466782102468305
81	0xbfa52202c74eb24b	-0.041275107221143324
82	0x3fb3a2a2f8a25d81	0.07670038767024857
83	0xbfbfe9951a6826bb	-0.12465793509195582
84	0xbfb2226002d67887	-0.07083702153474479
85	0xbfa9255f4bda4073	-0.049113252648681625
86	0x3f860a004a09642f	0.01076126314107925
87	0x3fb8b640fcdfa319	0.09653097318335958
88	0xbf94d75e91c56687	-0.020352819106256106
89	0x3fb41f26bba1cbed	0.07860033112392247
90	0xbf8a880417e0a78f	-0.01295474241131325
91	0xbfb296f28ee0f67b	-0.07261577594996453
92	0x3fb2a3209dba24fd	0.07280162668952879
93	0x3fb9584115c7d55d	0.09900290281060138
94	0x3fb6239704834773	0.0864805589692688
95	0xbfbac11aba329c55	-0.10450903936235652
96	0xbfb765137fc377d5	-0.09138604993083217
97	0x3fa86bb65c071a73	0.04769677995095813
98	0x3face097ea62e393	0.05640101181183534
99	0xbfbbe52706c9bb9b	-0.10896533885691755
100	0x3fba536bcfec2e0d	0.10283540559992606
101	0x3f9268d379a3c0cf	0.01797800474099703
102	0x3fb181c2b33d7a27	0.06838623882274729
103	0xbf996712d6d40cff	-0.024807257043915062
104	0xbf2b9153059247ff	-0.00021032465409526188
105	0x3fa68eff74e8577f	0.044059737225480504
106	0x3fb6e38875dad7f5	0.08940937878909934
107	0x3f94f9e3fe591977	0.020484506987736375
108	0xbfbe9adadb2243f9	-0.1195503983492613
109	0x3fb32445897fe97d	0.07477221114087303
110	0x3fbb586016533bfd	0.10681725068137378
111	0x3fac8043fa6b72ab	0.05566608840829209
112	0xbfbc36490f636ec5	-0.11020332933133677
113	0x3fa2a7711e4510b3	0.036433730073015445
114	0x3fa235d388b2a813	0.03556691211390741
115	0xbfba8f3a812b0109	-0.10374799397959945
116	0x3fa3dba3cff2108f	0.038785094388942835
117	0xbfb36dd156a7e547	-0.07589443555470608
118	0x3fbaf3e11b040259	0.10528380307733566
119	0x3faac2d24a070977	0.052267619644697776
120	0xbf59ce82847ea27f	-0.0015751146874924125
121	0x3fbda7c02693c8e5	0.11584092084720828
122	0xbfbdfe83637bae07	-0.11716481379306042
123	0x3fa70f50c37e2e7b	0.045038722862128254
124	0xbfb7d053768a76bf	-0.09302255291046445
125	0xbfbc66010789657b	-0.11093145784379559
126	0xbfb83f01412f2fdd	-0.09471137849249041
127	0xbfa5e39e6bd6005b	-0.042752218879287006
128	0xbfb052424fc34b95	-0.06375517318092101
129	0xbf7fb8c23d4d57bf	-0.007744559047599907
130	0xbf6e263b7e4d54bf	-0.003680340002044063
131	0xbfbee1d195089b1d	-0.12063321960941349
132	0x3f81d1fabd00fadf	0.008701285260142409
133	0x3fa0ad556f411a57	0.032572431403015294
134	0x3fb917828221bcfb	0.0980149810509267
135	0x3f8409a4b9829e8f	0.009784018431971546
136	0x3fb70b02a5255fb1	0.09001175434002452
137	0xbfb9f9de4d7b2731	-0.10146893874766928
138	0xbf6817f741989dff	-0.0029411153052654178
139	0x3fa7fcaad5ecc3d3	0.046849573720812686
140	0xbfb0c6a0e4f4c7b3	-0.065530830285552
141	0xbfaca88ed05fa55b	-0.05597349446891072
142	0x3f9257b35bb610c7	0.017912676308257127
143	0xbfb8d13b7cd2719d	-0.09694263265050158
144	0x3fb0e7313918532d	0.06602771419450155
145	0xbfa777cfac729313	-0.04583596210549081
146	0xbfb1540dfd5868f3	-0.06768882212819331
147	0xbfb9418ebe849fb9	-0.09865657950706365
148	0x3fba25586377e025	0.10213234356331265
149	0xbfb7ed7fdbada1f1	-0.09346770394552785
150	0x3fa067fd964e7fb3	0.032043385122278244
151	0x3fb2231e19fe5519	0.07084835180861083
152	0x3fad8f2f8be55dc7	0.05773304541315443
153	0xbfb24c53f1dc36e3	-0.07147717146673531
154	0xbfb39748d79f053d	-0.07652716888607798
155	0xbf7997d1f8051c1f	-0.00624830264161516
156	0xbfa754a54fd86107	-0.04556767081902718
157	0x3f9c1aaaa00e818f	0.027445474642833253
158	0x3f86e9827b0ceb8f	0.01118757188816291
159	0xbfa4f70412984d0b	-0.04094708182324255
160	0x3fb588f9ad88b129	0.0841213272730711
161	0xbfbe4d8c47790b8d	-0.11837078804914665
162	0xbf822aabfef86cff	-0.008870452612475875
163	0xbf66533d83bb55bf	-0.0027252389389597893
164	0x3fa7cd15368b3c37	0.046486533077420615
165	0x3fa5d0d625f8efa7	0.042608921180060925
166	0xbfb1ec8958c12b37	-0.07001551071986688
167	0x3f8bbe0d3ef3906f	0.013546088679909666
168	0x3fbc98688b07ac75	0.11170056719099526
169	0xbfbfe82811ca8329	-0.12463617739059586
170	0x3fa70011d43d5197	0.04492240634741334
171	0x3fb2a987af1da609	0.07289932275093504
172	0x3fb606d86385c7bd	0.08604195050955261
173	0xbfb249192d630545	-0.07142789228511955
174	0xbfb1dfa299d9893b	-0.06981865173432748
175	0xbf864c9dc94e458f	-0.010888321596015852
176	0xbfbdc199bc08cae1	-0.11623535957987087
177	0x3f8710cf8339170f	0.011262532417400743
178	0xbf9dec2248825cb7	-0.0292210919147606
179	0xbf95cb17abe4cb6f	-0.021282548777161233
180	0x3f8529066192076f	0.010332155087102028
181	0x3fa50cf9bbecdc47	0.041114620390026384
182	0xbfbf2348830cd78d	-0.12163212966410537
183	0x3fa6ded900e19563	0.04466894279247915
184	0x3fbac5c85e60fbb1	0.10458042434855376
185	0x3f503a0a5a0b9e7f	0.0009904004183968471
186	0xbfba69d324b3f703	-0.10317725797719039
187	0xbfa289dd3ef9e1d3	-0.03620807069541212
188	0x3f823f40ee5c67ff	0.008909709238242412
189	0x3fba0873d496e4f1	0.1016914743439832
190	0xbf9deffc7610088f	-0.029235787111254793
191	0xbf44dec29d4ba0ff	-0.0006369066491887231
192	0x3fb43cfa301028e9	0.079055439695512
193	0xbf5ee86897d8d3ff	-0.0018864652078154351
194	0xbfba9c30217a4627	-0.10394573991131804
195	0xbfa9022d726931ff	-0.04884473821275392
196	0x3f90687c2231a5df	0.01602357824996214
197	0xbfb26032af8f1a81	-0.07178036485775331
198	0xbfa7690641def6ef	-0.04572314790810405
199	0x3fb3762b75c7b6b7	0.07602187753192423
200	0xbfa45c27cf2380f7	-0.03976559070156498
201	0xbfa2ced1bc60bd9b	-0.036734155888889584
202	0xbfbdf2e1aec5e49b	-0.11698732869071408
203	0xbfbb9837c279c755	-0.10779140947286454
204	0xbf76a8f50f525c7f	-0.0055322239542398
205	0x3fabbf345e00936b	0.05419315001953503
206	0xbfb25777cfcaa7a3	-0.0716471559814225
207	0xbf96607d8239bd17	-0.021852456162773395
208	0x3fbeeddbf5826779	0.12081694358712793
209	0xbfba2819a63b1c77	-0.10217438038226755
210	0xbfb91669f736a8e1	-0.09799825940595809
211	0xbfa15c98f250989b	-0.03390958745903668
212	0x3fb5135f9d23b2a7	0.08232686602031923
213	0x3fa5c899629d998b	0.04254607514194494
214	0x3fabd481dbd373f3	0.05435567673132615
215	0x3f7cdbb4caf22c7f	0.0070454656807995555
216	0xbfb72fd3e764d20d	-0.09057354354155951
217	0xbfae97d83413242b	-0.059752231938155674
218	0x3fa5fd138bf5f18b	0.04294644435410352
219	0x3fb216428593d965	0.07065215836687384
220	0xbfb2c643f82a00ed	-0.07333779152577664
221	0x3fb0b5f3ddeb5d23	0.06527637641862731
222	0xbf93b233fddecd07	-0.019234478349699404
223	0xbfba29feebd6b811	-0.10220330484182251
224	0xbfbfb576a1cf8027	-0.12386266184285032
225	0x3fa8480e76a1b03b	0.047424747449298775
226	0x3f7962fe345c29df	0.0061979226936821055
227	0x3fa65bdbc6e9e403	0.04366957476754154
228	0xbfaa383c87fd0093	-0.05121030006421381
229	0x3fa58dfe8bad627b	0.04209895567936869
230	0x3f976ed668581a97	0.02288374912134347
231	0x3f9234bd6ad73c57	0.017779311796229127
232	0x3fbe356325905d43	0.11800212542617765
233	0xbf87684df1a99dff	-0.011429413735824843
234	0x3f3f419f562777ff	0.0004769338612770068
235	0xbf93aa696f5492af	-0.019204757137361635
236	0xbfb85336bf84d5e9	-0.09501974273447157
237	0x3fae7d0b481df8ff	0.059547760537485665
238	0x3f72b414d8f694df	0.004566270289989321
239	0xbfb5e16d962d77ab	-0.08547100941129197
240	0x3fbebc568c44a237	0.12006131100191274
241	0xbfbcace792215fe9	-0.11201331441532116
242	0xbf9b4d0cfb5f9697	-0.02666111263524459
243	0xbfa741fbd81a0c0f	-0.04542529118500493
244	0xbf94b06b0dd0e877	-0.02020423194719753
245	0x3fb31044ac50d5ab	0.07446698386123411
246	0x3fb2d6a14fbae0b1	0.07358749577076897
247	0xbfae73e2755a968f	-0.05947787935774073
248	0xbfa90199460710db	-0.04884032230214227
249	0x3fa499655cccaff3	0.040232818201133023
250	0xbfbdfcbd7a863f1b	-0.11713775864904756
251	0xbfb0bb2f020760f3	-0.06535619544536413
252	0xbfbfe6789d3d798d	-0.12461046065207011
253	0x3fbabbe8b2592ce1	0.10442976335723443
254	0xbfbb3426206fa76b	-0.10626447955988076
255	0xbfbbfcc7ebefc511	-0.10932588110133092

transform_generator.3.bias f8 [64]
0	0xbfafe917750e1f34	-0.06232522300621071
1	0xbf58450d9d5c2900	-0.0014813073116238251
2	0xbfb5fd11d9c8fdf4	-0.08589278761882452
3	0x3fa9442ba1856598	0.04934822413151635
4	0x3faeb4f3fc7bb50c	0.05997431237288184
5	0x3fbf4f31669eff16	0.12230213885686356
6	0xbfb5c2cc7587f136	-0.08500364179048323
7	0x3fa1ddb55965ea2c	0.03489462581906752
8	0xbf860550ef4d1ce0	-0.010752327254194005
9	0xbf93cc5bc32552e0	-0.019334253106836452
10	0x3fb7e05b76fb9e68	0.09326717047553645
11	0x3faa095fb2494b3c	0.050852766526665566
12	0xbf5c43832d4d7a00	-0.0017250805878671338
13	0x3fb644b1aa99c2f8	0.08698568739943002
14	0x3fbaa0ea9b251c6a	0.10401788985937946
15	0x3f9bfdc7bb7d4398	0.027335282152595036
16	0x3fb07ceb4198e206	0.06440611220831025
17	0x3fb84895dc7d2bbe	0.09485756524115538
18	0x3fb3b2615a2a700c	0.07694061709702299
19	0xbfb53d2562b1930e	-0.08296426448357527
20	0xbfa357d685184a94	-0.037779525515493934
21	0xbfa62929cc512060	-0.04328280085661684
22	0x3fb339ad947cd358	0.07509884715257209
23	0x3fa68c59459d37c4	0.044039525745219105
24	0xbfb6c3c8d72d7a2c	-0.08892493489609227
25	0xbfb50d234f0a3d90	-0.08223171882331415
26	0x3fb42433a1ac8730	0.07867739388578054
27	0xbfbcb795110903c8	-0.11217624345682886
28	0x3fb96ba4274836c0	0.0992987247375039
29	0xbfb686b9aafb29e6	-0.08799324440329989
30	0x3f9e4a687d247110	0.029580719602663896
31	0x3fb2c63affa4a2b6	0.0733372568253213
32	0xbf9bf77f2638a1f0	-0.027311312396848864
33	0xbfb59a61c58f7226	-0.08438693116426829
34	0xbf704c41e2eec1a0	-0.003978974694220844
35	0x3fa231737d994ab0	0.03553353222073008
36	0x3fb4709ce777e4da	0.07984333659250656
37	0x3fbc6feff8bb79b0	0.11108302900854627
38	0x3f901d900061cb28	0.015737772010150725
39	0xbfb72b2cc5a47c0c	-0.09050254655129225
40	0xbfbd13a2c4638698	-0.11358086866996542
41	0xbfab97022b940c2c	-0.053886478252046593
42	0x3f95079b2cf30fc8	0.02053682767724732
43	0x3fb5e34ae927fa7e	0.08549946014680107
44	0x3f562b351d6c6c00	0.0013530749035399747
45	0xbfb6442c89fce3f4	-0.08697775238842081
46	0x3fa5f4548a9a9d40	0.0428797167963304
47	0x3fbcdda26530f7e0	0.1127568718956975
48	0xbfb776afa3931d6e	-0.09165475600740589
49	0x3fafca250cc516e0	0.06208911686785057
50	0x3f086867755ef000	4.6554238607637854e-05
51	0xbf9a741f1c3e9678	-0.025833593462854826
52	0xbfb39a34437f504c	-0.07657171867259754
53	0xbf9a66659f00eb00	-0.025781238393601136
54	0x3fae2800a6705bac	0.05889894515728797
55	0xbfab112d4c29ed14	-0.05286542467816893
56	0xbfb7b8bdec7ff3fa	-0.09266268752976706
57	0x3fbec7213d6c8506	0.12022598027808237
58	0x3fa7c6aacaf487d4	0.04643758513908805
59	0x3fbc45b26e098a06	0.11043849169212913
60	0xbfb043ffea83af74	-0.06353759265374298
61	0xbfbe0c4545d0469e	-0.1173747344439797
62	0x3fa6c72064f5e2f0	0.04448796493938356
63	0x3fa444887745f81c	0.03958536582921132

transform_generator.6.weight f8 [64, 64]
0	0x3f86efc41174396f	0.011199504645017481
1	0x3f917e925d1e4917	0.017084395345201644
2	0xbf62139e14f7433f	-0.002206619981486218
3	0xbfa126154953a357	-0.033493676377310315
4	0x3fb72a352f7fac3d	0.09048778924595609
5	0x3f9f3a692fd78bbf	0.030496257348101127
6	0x3fa2fa44b037526b	0.03706564570498901
7	0x3fb803f7c1ee0b37	0.09381054386726083
8	0x3fb4d41f1de05ac3	0.08136171798137597
9	0xbfb5bba24297820b	-0.0848943150117593
10	0xbfa78d1683894f87	-0.045998290592847595
11	0x3fbcf2073a92a347	0.11306805782318206
12	0xbfb993def3e263b3	-0.09991258100707405
13	0xbfb0dda15c9bd8a5	-0.06588181029278191
14	0x3f6bf65e1317ebbf	0.0034133756059850635
15	0xbf981ecbfae610bf	-0.02355498045791715
16	0x3fa23a0ccd96e873	0.03559913644444714
17	0xbfb1c2c55eb6f5d5	-0.06937821924562766
18	0x3f90e65654cea207	0.016503666807382824
19	0xbf91bca0ac7737a7	-0.01732111981055309
20	0xbfbace4547c911b9	-0.1047099399812116
21	0x3f876114e95bc58f	0.011415637370620483
22	0xbf8fd4bce078f01f	-0.01554248390231555
23	0x3fbb0b8d5b6331f7	0.10564502221240689
24	0x3fa484014adaa5f7	0.04006961859461094
25	0xbfacf9180c8b629b	-0.05658793595438746
26	0xbf6d6a6b27fae9bf	-0.0035907833951942243
27	0x3fb3ddd8c9cc3309	0.07760386397076159
28	0x3fb2a48b34e83855	0.07282323877027015
29	0x3f5363e69d974b7f	0.001183486185585919
30	0xbfa8d6aa1f367fb7	-0.04851276045815161
31	0xbfa36e6e4f3341bb	-0.037951895874019446
32	0xbfb5ab42023bc205	-0.08464443735625345
33	0x3fb32ac8055f6c39	0.07487154132051978
34	0x3fb13df1ca45ff51	0.06735144794765559
35	0x3fa4208098b85f23	0.03931047310123705
36	0xbfb246366d9b33e9	-0.07138385940488913
37	0x3fa879d678c30d73	0.04780454849381046
38	0xbfb3becb50f964b3	-0.07713003851803783
39	0xbfb2f8ee40937615	-0.07411088062823297
40	0xbf99f35fe590e5a7	-0.02534246290836042
41	0x3fb74dec7410cc37	0.09103277047761159
42	0xbfb7f6beddc03a2b	-0.09360878862228421
43	0x3faa1af567fab1cf	0.05098692793157832
44	0x3fb4c21d38836601	0.08108694677084573
45	0x3fb4ad660c582bcb	0.08077085305573843
46	0xbfb3e117c45f7ea9	-0.07765339416755047
47	0x3faffed482258443	0.062491074454336125
48	0x3fa92408c1d39217	0.04910304418607241
49	0xbfb832ab14d2825d	-0.0945231366954515
50	0x3fb4cdd781170349	0.08126589681252229
51	0xbfbcd4b6305d368d	-0.11262072258724683
52	0xbf9a02f9512834a7	-0.025401969507630764
53	0xbfbd008b9b318343	-0.11328957117940512
54	0xbfa21a1a3c4307d7	-0.03535539613359589
55	0xbfa3b6f333cd7217	-0.038505172799634994
56	0xbfb19a5d78972679	-0.06876167482473673
57	0xbfb6191efe2f173d	-0.08632081704771806
58	0x3fbd34b822df2fad	0.11408568240511725
59	0x3fbff02a6fb48b81	0.12475838877848668
60	0x3f632afbdd3c5f7f	0.0023398322317795257
61	0xbfb16ef5115934ad	-0.06809932397409808
62	0xbf833e78dfb2609f	-0.009396499945339363
63	0x3fb6d970077558a7	0.08925533468331769
64	0xbfb5b3938154d20b	-0.08477136523726629
65	0x3fb7e11fbb8aaebb	0.09327886894851194
66	0xbfb320e5abb5d2b3	-0.07472072069306072
67	0xbfb1b4c92b74be41	-0.06916482268274483
68	0x3f8e0db03ab30b1f	0.01467454604278867
69	0xbfa56626162f393f	-0.04179495831305013
70	0x3fa3842015868ee3	0.03811741125835313
71	0x3f891acd1d1ee94f	0.012258150531000793
72	0xbfbdccc059acc477	-0.11640550793960523
73	0x3fad2b5b26a5e30f	0.05697140547539991
74	0xbfbd53ad6eeae797	-0.11455806692074898
75	0x3fbb43bfacaa5b73	0.1065025135561493
76	0xbf91d5b3a7f0982f	-0.017416770100816045
77	0xbfbda1b3409c390d	-0.11574859931372235
78	0xbfbc61e2bfd4c073	-0.11086861785293127
79	0x3fb80738065190f3	0.09386015085471282
80	0x3f933b7124c8ac0f	0.018781440610990126
81	0x3fb16aa57c0de611	0.06803354529065354
82	0xbfa9da9305fa7f8f	-0.05049571464519353
83	0x3fbe779d322e4043	0.11901266551126448
84	0x3fb05c0ac52c2b15	0.06390445054800538
85	0x3fa729bb6b523493	0.04524026570388986
86	0x3fbe8499e7a2fab7	0.11921083359900818
87	0x3fb25925c4629883	0.07167278332289766
88	0x3fbc470e8a8eb40d	0.1104592407488811
89	0x3f927fb18da543c7	0.01806523730312273
90	0x3fa0854de5d242b7	0.032267031006204254
91	0x3fa55e0c07829ac7	0.0417331465881055
92	0xbfbc1b57f2c91c7b	-0.10979222943670834
93	0x3fad08b23691d21b	0.05670697132237398
94	0xbfac82a5eb0f4fc3	-0.055684266036819995
95	0xbfb2d56602c6267b	-0.07356870238995754
96	0xbfb2642198a82fef	-0.07184038140275083
97	0x3f79e7684263299f	0.006324202788344029
98	0x3fa375307443ffcf	0.03800345820673067
99	0x3fad0fe3ab906517	0.05676185101783398
100	0x3fac203b1c7a8d17	0.05493340227737969
101	0xbfb033345af65e3d	-0.06328131886254425
102	0xbf8b25718e478eaf	-0.01325501170590057
103	0x3f75b2f0cbfb0dff	0.005297604191301541
104	0xbfb7903718fd34a9	-0.09204429969868734
105	0xbfa21ffeadaddbdb	-0.035400351239267734
106	0xbfa36855a4a4ecc3	-0.03790538439576487
107	0x3fb04cdae8972d8d	0.06367271593551589
108	0xbf834488c66328ff	-0.009408062509824065
109	0xbfbae04e204afd9d	-0.1049851254310767
110	0x3fbb7017f7d2faaf	0.10717916298288331
111	0x3fbedba197cccd75	0.12053880649619038
112	0xbf6e598f914684bf	-0.0037048152973545296
113	0xbfbf1520a38de165	-0.12141612999937974
114	0xbf522beabe0f2e7f	-0.0011091034323155444
115	0xbf7e90fe1bce1d3f	-0.007462494479916259
116	0x3f5c555869b8427f	0.0017293322952164623
117	0xbf790228adc8877f	-0.006105574514124855
118	0x3f696a83019b05ff	0.0031025465694660688
119	0x3fbd2c23db299979	0.11395477390906263
120	0x3f9f2460baa7f14f	0.030412207977847768
121	0xbfba31656d9e71c9	-0.10231622625582938
122	0xbfb32adca7bc858b	-0.07487277121665252
123	0x3f936dd95be629ef	0.018973728403162523
124	0xbfbcd48fe3a08749	-0.11261843974400877
125	0xbf8b74dab39fbc8f	-0.013406475645721975
126	0xbfaa2d94efa52583	-0.05112901139598149
127	0x3fb2a0dcd3cdb10f	0.07276706858619185
128	0x3fb4f1cf4e5277bd	0.08181472456132517
129	0xbfb59c58d73c2a49	-0.08441691641579853
130	0x3fb5d3c00b603885	0.08526230123263374
131	0x3fa50cb7f443d3df	0.041112659995554905
132	0x3f929f0854d83f77	0.018184786013136525
133	0xbfa17af420f8519b	-0.0341411867376877
134	0xbf671e1ccf067ebf	-0.0028219759626181003
135	0xbfab20c025b9a3a3	-0.05298424206268428
136	0x3fb75b5e3ac0fbcb	0.09123791632099125
137	0xbfb56b4504e92ca7	-0.08366805429357048
138	0xbfb1e5e7a936c277	-0.06991432076643798
139	0x3f95f0c068658497	0.02142620694337846
140	0x3fa411d678598d43	0.03919859141458428
141	0xbfa87a472b3ad2bb	-0.047807907130310544
142	0x3f9d220cb39a7e47	0.028450201475264583
143	0xbfb8f013c67829a7	-0.09741328807300552
144	0x3fbefae2a9fa215b	0.1210157074912152
145	0xbfb6b1826fcddb69	-0.08864608029931066
146	0x3fbd83dcdfc53797	0.11529331648963957
147	0x3fa5d1c682cfb1b7	0.04261608454530424
148	0x3fa61be296ff36d7	0.04318149655555963
149	0xbf9789a93ffd5b6f	-0.022986073046321772
150	0x3fa5c0894cb88f97	0.04248456059966015
151	0x3fb92a695fe53431	0.09830339995569727
152	0x3f94d76fb163a067	0.020353074266410334
153	0xbfb89d148a1d8ba7	-0.09614685413320832
154	0xbfb9b4a9052fb251	-0.10041290642375002
155	0x3fb551d142ed657f	0.08327968486755387
156	0xbfbf5b9a854848ab	-0.1224915099522003
157	0xbf9aa44b1a0f2957	-0.026017354455498545
158	0xbf81169fbbb2248f	-0.008343933024905574
159	0x3fa677d4c772b447	0.04388298926037542
160	0xbf92c57184293da7	-0.01833131188533135
161	0x3fb4a36c8b98ddb5	0.08061865242131357
162	0xbfb451488970b089	-0.0793652854487751
163	0xbf73a8b417975bff	-0.004799560055707807
164	0xbfb3e8daf4cb93c9	-0.07777183987089055
165	0x3fbb96f422cd6565	0.10777211999574872
166	0xbf90b81e8cd99c17	-0.016327359530262067
167	0xbfb9d69e15ea47b7	-0.10093105349576957
168	0xbfa71998707fa677	-0.04511715291284884
169	0x3fa8d9869bee01f7	0.048534590277089444
170	0x3f98af13ad5a2537	0.02410536523396908
171	0x3f6293eb3fac493f	0.0022677988721479243
172	0x3fb3de993cba7cf9	0.07761533482197426
173	0xbfb57552dce6b809	-0.08382146733376329
174	0x3fb8b26a1e4c7529	0.09647238959992833
175	0x3fbb341f43feb435	0.10626407060654304
176	0xbfa54040eca03977	-0.04150584114551042
177	0xbfbf5c880307baa7	-0.12250566553096097
178	0xbf988e97e94fa5c7	-0.023981450667553774
179	0xbfba0e288a26b493	-0.10177853939849717
180	0xbfb8e012db3e6e55	-0.09716909268029757
181	0xbf937d5c870fa737	-0.019032903426626304
182	0x3f9f37390543829f	0.03048409552218578
183	0x3fa45e61a2e7379f	0.03978257287563668
184	0x3fa0a1016ae1da13	0.03247837476458328
185	0x3fbc252c9b0c84e3	0.10994223389981843
186	0x3f8f03fbb1aed55f	0.015144316062882522
187	0x3fb4f75566c57ed3	0.08189901122159009
188	0x3fb7272d2d940abd	0.09044153559447472
189	0x3fb3093be098ac97	0.07435964806852478
190	0xbfbbfc2b4cdfe2dd	-0.10931654574222756
191	0x3fb42eac7cd39b9b	0.07883718535923238
192	0x3fa533829fa51e4f	0.04140861700812747
193	0xbfb81d8f9a350b33	-0.09420106425117751
194	0x3f64e5942921d67f	0.0025508779299865942
195	0x3fbca65872ff1755	0.11191323096781265
196	0xbfa9a8bbb92fcea3	-0.05011545787411122
197	0xbfb5011a585215a3	-0.08204807907357874
198	0x3f9b953a094c8d8f	0.026936442201202445
199	0x3fa90aa5e4615217	0.04890936291545616
200	0x3fb80862162d6b5d	0.09387791673127084
201	0x3fb692a7660fd2b3	0.08817526094191912
202	0x3fb7150aa93f4ab3	0.09016482002270258
203	0xbfae35dd0563bc2f	-0.05900469485083481
204	0xbfbeef272cd9818f	-0.1208366856094527
205	0x3faa7c78c874284f	0.051730894536448184
206	0xbfa58e99f2823b63	-0.04210358701049335
207	0x3f30de42d17e57ff	0.00025738841349587366
208	0x3fb26c98e18e595f	0.07196956164111644
209	0x3fb072aca275dd25	0.06424979177778718
210	0xbfb28f362d13a215	-0.07249773598199057
211	0xbfa7962fc19be693	-0.046067707427892256
212	0xbfa149bd39537f93	-0.033765710113356516
213	0xbfbb48afa26e707d	-0.10657785144434402
214	0xbfb313cf5ca61f8d	-0.07452102672516343
215	0xbfb0b41d2b41bdaf	-0.06524832063745721
216	0xbfa9dde85e314ad7	-0.05052114629565601
217	0x3fbd91f07c3337f7	0.11550810844639146
218	0xbf76bb5d13ff8f5f	-0.005549777590179022
219	0xbfbd50a75cd4b76b	-0.11451192871456121
220	0x3fad1a346b302d03	0.056840551456923925
221	0xbfb716b1be2899fb	-0.09019003765624937
222	0xbfb3d412da304117	-0.07745473696582326
223	0x3fbc0ac41f2e89bf	0.10953927766107706
224	0xbfb122d1f029d3db	-0.06693756211627948
225	0xbf9a7b7248e14207	-0.02586153573821728
226	0xbf66c3e8dac6233f	-0.0027789638463144024
227	0xbfab920f7f9d9aa3	-0.05384872849281421
228	0x3fb1edd881d98843	0.07003548784408146
229	0xbfb42a84b7406fff	-0.07877377962034869
230	0xbfbf503972ecdecf	-0.1223178773478779
231	0xbfb26ca702ce209f	-0.07197040384756058
232	0x3fa847ec7c9db1f3	0.04742373486701359
233	0x3fbbe3d52d1a9bc1	0.10894520140810383
234	0xbfbb9d4f5e2b10e1	-0.1078691105749985
235	0x3f866e1a08100dbf	0.010952189799360633
236	0xbfb290da621a10d3	-0.07252278227867075
237	0x3fbe25a53929b82f	0.11776192327099076
238	0x3fab483d2ed872d3	0.05328551480144985
239	0x3fba2be482f0d68f	0.10223224827572096
240	0x3faa9a014f4770a3	0.05195621578943246
241	0xbfb020dbabb6dc3f	-0.06300137464755638
242	0xbf445ed19eb8b0ff	-0.0006216548476394578
243	0x3fb4bdd794d576cd	0.0810217607845189
244	0x3f902db313eeac87	0.01579932984502055
245	0x3f83e216f9d6157f	0.00970857572498107
246	0x3fba7ef930274057	0.10349996018999384
247	0xbfb2c2f4d218efd7	-0.07328729752856532
248	0xbf7d30ddd80c775f	-0.007126680925265776
249	0xbf9e4501590124bf	-0.02956010919323115
250	0xbfbbcfa1a535742b	-0.10863695414941847
251	0x3fb2944d7236723b	0.07257541693110962
252	0x3fba07d38b9b8811	0.10168192060839966
253	0xbfbe8bc491f8b00f	-0.11932018817668698
254	0xbfae9431af207bbb	-0.05972438109187502
255	0xbfb55889f8852b51	-0.08338224713695054

transform_generator.6.bias f8 [64]
0	0xbfaeb489c01fe188	-0.0599711463000317
1	0x3f9f02dd5dda60a8	0.030284365514120865
2	0x3fb8515767fbecb6	0.09499117172883839
3	0xbf756816ac297680	-0.005226219715579128
4	0x3fa3d461e1a915ac	0.03872972373623482
5	0x3fac42cbd33223b4	0.0551971144969409
6	0xbfb866f277726928	-0.09532084861931323
7	0x3f90dc2fc1a708b8	0.016464945025071315
8	0x3f6d04afc2a19480	0.003542273790162087
9	0x3fa6ab8cb3d085c8	0.04427756972314573
10	0xbfb651efdef52722	-0.08718775933553194
11	0xbfbfa20ad83cc2ba	-0.12356632022125327
12	0x3fb0f6cab7334d4e	0.06626574490228629
13	0xbf94202dcbdcb920	-0.01965400273109552
14	0x3fbcb72f9d4ac25e	0.11217019643914614
15	0x3f9975f2ef9a2a20	0.024864002107770955
16	0xbfbe54975db20c96	-0.11847826039779571
17	0x3fb22953b33192ec	0.07094309925885128
18	0x3fa538b3629925f0	0.04144821718780267
19	0x3f9c5ecad9d6c068	0.027705354257421183
20	0x3fb1f5cdaa3d4538	0.07015691190942597
21	0x3f9f0f9ece64f428	0.030333024356185373
22	0x3f9e2c336435b120	0.0294654874718826
23	0x3f9ad1a088231088	0.026190288838521286
24	0x3fba6fac00cfb3d6	0.10326647777374318
25	0xbfb5e3b4f413028c	-0.08550578078121357
26	0xbf427fa7eaab3d00	-0.0005645341783181712
27	0xbfa0f43402efdb54	-0.033113122328294026
28	0xbfa23344e90d1778	-0.0355474028097395
29	0xbfbb7a527a3a1a4c	-0.10733523830467923
30	0xbf8ecc40b7535a70	-0.015038018793729097
31	0xbfb21598397c3004	-0.07064200786061298
32	0xbfbd86095d1687f2	-0.1153264858499197
33	0x3fb095fe54fc46d4	0.06478871893730381
34	0x3fbb199f7de59750	0.1058597261777241
35	0x3fbad104c1ad1dbe	0.10475187042640408
36	0xbfb942770dbc505a	-0.09867042622892211
37	0xbf849725e9e41050	-0.010053917122157113
38	0xbfbb7b402f2b4fce	-0.10734940673438517
39	0x3f9af3735a4aae28	0.026319315324753983
40	0x3fbc04f5910ee972	0.10945067206822559
41	0xbf9e70e5da70aac8	-0.029727546174551006
42	0xbfa0ef353546e218	-0.03307501101830129
43	0xbfbd8ff7ff30fb68	-0.11547803859956007
44	0xbfbae6c041c9ce62	-0.10508348089370537
45	0x3fb9d2000f8de998	0.1008605993246533
46	0x3fac3bfad9dc1ed4	0.05514511022016469
47	0x3f9dc0505ebc9da0	0.029053931982301884
48	0xbfb5aff177aea4d0	-0.08471593067101257
49	0xbfae116202dd5f84	-0.05872637066812472
50	0xbfb6505128fdcbca	-0.08716304064527872
51	0xbfa4a4cb3b8f5050	-0.040319777508245225
52	0x3fb2e304aae9c9c6	0.07377652332960513
53	0xbfa5960116d42408	-0.04216006663961741
54	0xbfb4d44aa957225a	-0.08136431345259024
55	0x3fac3bb84989c338	0.055143126465628745
56	0xbfbae584815fd1cc	-0.10506466063072323
57	0x3f9a37a06ca35160	0.025602823858961954
58	0xbf8f1977502c6a50	-0.015185291418267216
59	0xbf96673deb6438b8	-0.02187821149078026
60	0x3fbc4d792ce5b856	0.11055714937330782
61	0xbfaa304af4665480	-0.05114969476122955
62	0xbfadb1480f672dcc	-0.05799317539239332
63	0x3f8ee874f4a58af0	0.015091813770316403

transform_generator.8.weight f8 [4, 64]
0	0x3f973469ef890dff	0.022660880322531437
1	0xbfbd1b61716cff5d	-0.1136990453642261
2	0xbfa19de46a0304c7	-0.034407747212307487
3	0x3f85b57a2df3caff	0.010600046660760308
4	0x3fbf8afd761c39e3	0.12321457036544063
5	0xbfab072453f50dcf	-0.05278886341923405
6	0xbfa5e8dc5a3e1923	-0.042792211547793245
7	0xbfbeb79085a8e3e3	-0.11998847258736549
8	0x3f7757065493e71f	0.0056982276230373155
9	0xbfaa3974a062bea3	-0.051219601229033594
10	0x3f8ce60342aaa8ef	0.01411058947754326
11	0x3fb2780f7c5d3bb7	0.0721444777129666
12	0x3f8d0d6af83aeabf	0.014185748768217874
13	0xbfb072427b72ebb1	-0.06424346460236909
14	0x3faf57c221785ad3	0.0612164178711986
15	0x3fa3a7da8e0e3c33	0.038389997330448365
16	0x3fbfd575e81991e7	0.12435089985371627
17	0xbf87a22e61f0ecbf	-0.011539804805684615
18	0x3f741cc9e213afbf	0.004910267454061256
19	0xbfa5bd958df86d47	-0.04246203763997385
20	0xbfbec96012677f1b	-0.12026024293254205
21	0xbfae69eb9e21bb27	-0.05940185838050232
22	0x3fb4c7c00b8b9255	0.0811729458033111
23	0xbf97df778dd32787	-0.023313396483707585
24	0xbf5ffa794ac5367f	-0.0019518074505699143
25	0xbf950698bccb0a07	-0.02053297664930123
26	0xbf9338c23add222f	-0.018771204798470883
27	0x3fa43972b55b5f73	0.03950079406575826
28	0xbf63499e8e2ababf	-0.0023544403823828326
29	0xbf9c54f9be8fa037	-0.027667906051562077
30	0x3fa81fd09f622f97	0.04711772866821134
31	0xbfa45b466ea6f78f	-0.0397588739465241
32	0xbfb40c55051e29a7	-0.07831317305514195
33	0x3fb10098388797f5	0.06641532306784355
34	0xbfb883ef29357fd1	-0.09576315647200252
35	0xbfbf57e35df37ab9	-0.12243481677749458
36	0x3fb0b4181237d2b3	0.06524801678444696
37	0xbfabbd5373fba26f	-0.054178817661356564
38	0xbfa24ae4f1a054e3	-0.03572764825381982
39	0xbf9510dfdb0ef0bf	-0.020572183366071025
40	0xbfabe8c843531a1b	-0.054510362833344504
41	0xbfb76369d3c026b9	-0.09136067790691528
42	0x3f32e79935bc77ff	0.0002884625480293889
43	0x3f8dbe7e60bbbcff	0.014523494078700681
44	0x3fb31b4fe1dc85e7	0.07463549865908413
45	0xbfb2ac4643da0d05	-0.0729411998418535
46	0x3f9584d24ce707ff	0.02101448625922586
47	0x3fbb8de6aa8a6541	0.10763398803319026
48	0xbfa95ef24b379aa3	-0.049552509004390254
49	0x3fb9da284751e53f	0.10098506680687523
50	0xbf88679fa4c5a3ff	-0.01191639634699193
51	0xbf9e00b90c09f7ef	-0.029299632415579365
52	0xbfa1c051c8927b37	-0.034670406087789755
53	0xbf5058b2155dd0ff	-0.000997709188109985
54	0x3faeeed7b53c773b	0.06041597449642074
55	0xbfb7e86cab755e15	-0.09339026628492093
56	0xbfba2a469e48730b	-0.10220757831889331
57	0x3fb6c17592ed8e09	0.08888945424183005
58	0x3fb5c7383b92061f	0.08507110075336087
59	0x3fbedae8b8672c75	0.12052778722788722
60	0x3fb67b2befb8f32d	0.08781694986914763
61	0x3fa831f3b114953f	0.047256102911243485
62	0x3fbd42a9c4a58463	0.11429844904843516
63	0x3fa1f2c5cef04a27	0.03505533362490026
64	0xbf97a241247805cf	-0.023079889155274643
65	0xbfba76ade738a7b3	-0.10337340254832732
66	0x3fbd80884c0a79d5	0.11524249893634615
67	0x3f658bda7e725eff	0.0026301639041540477
68	0x3fac60e1eefe544f	0.055426655220039416
69	0x3fbab6a286ea68c3	0.10434928697432881
70	0x3f959c9ada10706f	0.02110521274526927
71	0xbfbfad77aca89c67	-0.12374065366076224
72	0xbfa21d360b2072d3	-0.03537911306213961
73	0xbfb67b84698d5f13	-0.08782222344359196
74	0xbfbcc456ad622bb7	-0.11237088902468782
75	0xbfac35eb919ee8e7	-0.05509887840840282
76	0x3fa0a065f34897a3	0.03247374148149553
77	0xbfba50209ace17f1	-0.1027851465169929
78	0x3f863c887a737d9f	0.01085764526072702
79	0xbfb213f937764bd7	-0.07061727146201179
80	0x3fadfe7a7cd7224f	0.05858214162760033
81	0x3fb34bcfeff1682f	0.0753755532072382
82	0x3fb13fcc3097c51b	0.06737972437237653
83	0x3fbb7de8c7b02f43	0.10738997340393745
84	0x3fb55760d02ea453	0.08336453516553037
85	0xbf6395db12f7b6ff	-0.002390792731367663
86	0x3fa3d2e09bd3a8a3	0.03871824171240348
87	0xbfa4b9474b1e1693	-0.040476062698002434
88	0xbfbd5d876de51ce5	-0.11470838959677428
89	0x3fad550fd2cf98cf	0.05728959511161379
90	0xbfb83b588822ebbd	-0.0946555454601556
91	0xbf9ebda2b4da24ff	-0.030020277298295813
92	0x3fb4cf2fa2484725	0.08128640853854259
93	0x3faf6b1082a36793	0.061363712260301594
94	0xbfb7e1c448058751	-0.09328867681827303
95	0x3fbcd5d5308de9cd	0.11263782916458993
96	0xbfb227f3544fc1b9	-0.07092209633243031
97	0x3fbaf44ba1b7c79d	0.10529015253248848
98	0x3fa190cf35d37a37	0.0343079331594151
99	0xbfb0e8a44eff48d3	-0.06604983261721324
100	0x3fb7db163b2529b7	0.09318674987768004
101	0x3fbe4b57f0501ddd	0.11833715073600311
102	0xbfbb96e214abe147	-0.10777104382203105
103	0xbf8d813a47cde95f	-0.014406638447088836
104	0x3f8097d10de6e2ff	0.00810206721949802
105	0xbfb1c5d7aa77ade3	-0.06942508613399627
106	0x3faab037f8a8a4a3	0.052125691512921145
107	0x3fac6fae4086773b	0.05553955590879275
108	0xbf978f8d25a378b7	-0.023008542463565287
109	0x3fba347c938f4d85	0.10236338236363991
110	0xbfb83fcb7c6b9453	-0.0947234324226696
111	0xbfb47f46abf42b2f	-0.08006707857218197
112	0xbfb03d972945ff99	-0.06343979604389317
113	0x3fba827dee4a4f8f	0.10355364864000037
114	0x3fb261695e20ac6f	0.07179888294256086
115	0xbfbd87106a792199	-0.11534216498797036
116	0x3fb6b6d495e23853	0.0887272706915792
117	0xbfba9af3d774e117	-0.10392688760919487
118	0xbfb3d0ad063c15f9	-0.07740289118017775
119	0xbfbf0e775eef2af7	-0.12131448810320565
120	0x3fb55794677771fb	0.08336761022605536
121	0x3fbfcfd1e7c0b5b5	0.12426483066584278
122	0xbfb25d611cad93af	-0.071737355710481
123	0xbfb6f415a68c9845	-0.08966193500654736
124	0x3f4b8332dac4fdff	0.0008396147073099213
125	0xbfbcbbfd7046d025	-0.11224349967125187
126	0xbf8613d002ccf0ef	-0.01077997692629437
127	0xbfbb0ed776c73275	-0.10569521570068637
128	0x3fafb4a950b16bcf	0.061925212002016054
129	0x3fbbdea3519374d5	0.10886593572236632
130	0x3f889c44b410d87f	0.012016808266803956
131	0xbfbd6e5991821ac9	-0.11496505548903281
132	0x3fb9fc325138e4a1	0.10150446398701486
133	0x3facf949402fe207	0.05658940228017078
134	0x3f675206c75298bf	0.0028467304606066553
135	0x3fa803fc13181777	0.04690540059168218
136	0xbfa3b73cc80c01bf	-0.03850736562708645
137	0xbfb1af83b965d593	-0.06908438946068989
138	0xbfbabcd272b329bd	-0.10444369602479404
139	0xbfb2672e67a8832f	-0.07188692122191463
140	0x3fb20e89136a301b	0.0705342934035688
141	0x3fa85ab93d1d4407	0.04756716605209737
142	0xbf9de96ed6f91327	-0.02921078860369444
143	0x3f82502bc9f4264f	0.00894197664321719
144	0xbfb865f8cc170151	-0.09530596716559116
145	0xbfbdd2c2b06867a7	-0.1164972000773604
146	0xbfb5b08bfb8fb9a7	-0.08472514049183265
147	0x3fae9bebb5c70527	0.059783330859781984
148	0x3fab229043e192ff	0.05299807385089216
149	0xbfb113ef443204df	-0.06671042838026463
150	0xbfbe551531cfc77f	-0.11848576036552848
151	0xbfb19cfbff4e5423	-0.06880164130264226
152	0x3fb3ae32fe827d67	0.07687681878677709
153	0x3f95ecf605c0b8c7	0.021411747075199352
154	0x3fb36e2da5837839	0.07589993754251702
155	0x3fb2da13c240528d	0.07364009373152154
156	0x3fb12bd6f9b649af	0.06707519146428952
157	0x3fa004fe85c57e53	0.0312881029410589
158	0x3fbb631c28b6cef3	0.10698104852673022
159	0x3fad41a1f3c04adb	0.057141362194803334
160	0xbfb1080fb0bbfd6d	-0.06652925553134077
161	0xbfb9bad942be232f	-0.10050733451329273
162	0xbfa54f46aeca96a7	-0.041620453678928464
163	0x3fb0a668d8da4f67	0.06503920835740261
164	0x3fbff50124ad8e01	0.12483222146470753
165	0xbfac9b1863744db7	-0.05587078298608666
166	0xbfaa810a6c0c38cb	-0.05176575249616774
167	0xbf9f4dc026a4b0d7	-0.030570032461739807
168	0x3fa3da2f093ea663	0.038773984793192516
169	0xbfb94fcafa1f27c7	-0.0988737927101787
170	0x3fabc43a937baab3	0.05423148203211294
171	0x3fbbb3e83456b9f7	0.10821391370584608
172	0x3fb56301b0652075	0.08354197079199983
173	0x3fa1d1aa5455836b	0.03480274466961116
174	0xbfb2148e072229fb	-0.07062614130169458
175	0x3f8e772a2ecfe90f	0.014875726274102634
176	0x3fb21467ab10ac75	0.07062385488886654
177	0x3fbf9443997a80bd	0.12335608002695415
178	0xbfa3708e9e3f6e9f	-0.03796811753974549
179	0xbfbc09897b1450cd	-0.10952052359454285
180	0x3f7d1ccdc69a78df	0.0071075475804305
181	0xbf78ddb10c5be15f	-0.006070796580154385
182	0x3fb350dc7aec61d1	0.07545259476717738
183	0x3f9e68af2822eedf	0.029696213555083225
184	0xbfad997dd46e556b	-0.05781167238380188
185	0xbfb6d7000b095627	-0.08921814221806611
186	0xbfadc048c28ab377	-0.058107637164858277
187	0x3fb254d51c8558fd	0.07160694071112413
188	0xbfb6aa7a1b1d895b	-0.08853877222057831
189	0x3fbf0b13027ef3b3	0.12126272974906165
190	0xbfb73ae239cd2ceb	-0.09074224387329692
191	0x3f780dcb75ec0b1f	0.005872530716035467
192	0xbfbeba0b3e2295d1	-0.12002630488367251
193	0xbf98559ca7ab1907	-0.023764083608306865
194	0xbfb8a736e820aef9	-0.09630149047069016
195	0x3fb2a8191b63138f	0.07287747305515622
196	0xbfb8348f01d8001f	-0.09455198092473481
197	0x3fb6c0c29cac28ed	0.08887878727924532
198	0xbfa0fb6c4a8a6343	-0.033168205355826895
199	0x3fa31b1a5ab64fff	0.037316154073010914
200	0x3fa9a8eda18663e3	0.05011694523563628
201	0x3fadca2e9ace224f	0.058183151623840794
202	0xbfa1c9d4ed9a1f53	-0.03474297905364545
203	0xbfa5e2342836e51b	-0.04274142256640286
204	0xbf6465200762f53f	-0.0024896264613675496
205	0x3faef13472c9f383	0.06043399716597888
206	0x3fb07142e1ac0e2f	0.06422822961399598
207	0xbfa07c0e1588bdf3	-0.03219646466129324
208	0xbfb8248034bd3119	-0.09430695808004365
209	0x3fb5ceecca2353b1	0.08518867430696166
210	0x3fbead1fe81a1e11	0.11982917229226354
211	0xbfb95727079cca7d	-0.0989860910019988
212	0xbfadef741ad948b7	-0.05846751048797343
213	0x3fbdef0a04329223	0.11692869760970175
214	0x3fbbc175cc318767	0.10842071757499881
215	0x3fb6bfe7dcbbd1e3	0.0888657487774434
216	0x3fbc220fec0aef99	0.1098947478557747
217	0x3f590481ac7de0ff	0.001526953348699733
218	0x3fbffd4a57e92c37	0.12495865484486122
219	0xbf719e2b145c753f	-0.004301231650768954
220	0x3f8b216068560d0f	0.013247254547201352
221	0xbf9fbe977dba916f	-0.03100048737418731
222	0x3fb38c3671314031	0.0763582254742239
223	0xbf9c17b3e685fa8f	-0.027434168763188323
224	0xbfb413f8e87f7593	-0.07842975307672466
225	0x3fa1050423155907	0.0332413952661899
226	0xbfbe16f3a8c59f93	-0.11753771658334093
227	0x3fa0bf3dffb2d877	0.03270906206437101
228	0xbfad26d99fce07b7	-0.05693702769987346
229	0x3fbc59364bfb4e9f	0.11073626856824113
230	0xbfbb8ac933cb0edb	-0.10758645548326788
231	0x3f92af273c36d2af	0.018246281671695893
232	0x3fbb5027ff6fba17	0.10669183717957541
233	0xbfb93d66068bd3ab	-0.09859311733073521
234	0x3fb62715c36ad75d	0.08653388997012486
235	0x3f8038e6508718ff	0.007921027500640053
236	0xbfbef894a079559d	-0.12098053853818276
237	0xbfbb2fc92ab46c5b	-0.10619790356251839
238	0xbf852fc59fa21eaf	-0.010345024046059718
239	0xbfbca85561921113	-0.11194356567472523
240	0x3f9a0324d980912f	0.02540261819389505
241	0xbfb6c9bcf3d5ed3f	-0.08901577904719192
242	0x3f9569583222b547	0.02090966993335044
243	0xbfb56db06b28fd3f	-0.08370497337545134
244	0xbfacd1d3f3d10dfb	-0.05628836013104529
245	0x3fac0fe92c31126b	0.05480889000367458
246	0x3fb2289203087aa9	0.07093155454684087
247	0x3f986e830275e2c7	0.023859068894554605
248	0x3fbd5c842056938b	0.11469293393618167
249	0xbfb0e2282c484a71	-0.06595088082421242
250	0x3fbd87a6d4d3ea95	0.11535113044730345
251	0xbfa634762979f0bf	-0.04336900001814702
252	0xbfa46a9299c0dc5f	-0.03987558485862829
253	0x3f72e1341487ca9f	0.004609301985044083
254	0xbf844003731079af	-0.009887721013055321
255	0x3fb967714bd9e3bf	0.09923465825876486

transform_generator.8.bias f8 [4]
0	0x3fb7e9ab7f1500d6	0.0934092698344132
1	0xbfbc86b630243868	-0.11143053698853722
2	0x3fb40cb5ba22c57e	0.07831893724757852
3	0x3f97ca756478c2a8	0.023233255631739752
