models/livneh-livneh/QM_SST_2000[1980, 1990]_upscale_1by4_R4noisyStatic1_bci.pth (torch, 73536 bytes, 8 tensors)

transform_generator.0.weight f8 [64, 1]
00000000: 3c62 5070 9fe9 f0bf cf36 300e d166 ecbf
00000010: 5391 55b2 caa3 dbbf fb95 e928 7323 e2bf
00000020: c7d1 c622 3b72 d13f 3f65 01cd bcc5 a7bf
00000030: bfac f078 8c7a ed3f b4c0 12df ce83 ec3f
00000040: 6412 654a 1cf0 eebf fbbe beb2 d082 e7bf
00000050: d97b 112e 54bb e0bf 47b5 5839 f2e7 cfbf
00000060: b698 3735 f2d9 ee3f e43c dd8a 62e6 e83f
00000070: 2762 f30f 005a cfbf 23d8 9cfb 28de d83f
00000080: 29d7 9e2e e9b5 debf 8bd0 b319 ae23 e33f
00000090: 680f 1175 d5f3 de3f 2ff1 42cd 7b0e c0bf
000000a0: 1a53 3b8e eb18 e4bf ef99 e97a e4b3 e53f
000000b0: 13d5 df1a 9008 d8bf 8680 3213 7f00 b2bf
000000c0: 8508 9cd1 85fe edbf 85e8 62c3 a26a edbf
000000d0: 49f8 118c 05f4 ee3f 435d 52ee 3101 dfbf
000000e0: 1fe8 0822 0213 debf dda3 034e 5259 e4bf
000000f0: 1a96 af5d 3626 cbbf 6f29 5819 d70f e1bf
00000100: fc39 093a 3c6c d6bf 798a 49b2 298a c5bf
00000110: 6dca 7b75 4d64 df3f 550f f240 e209 d53f
00000120: ff0e 5455 a32d e63f c83c eebf 33f2 f0bf
00000130: 87fd 273e e5a8 adbf 32c0 4796 106b b83f
00000140: e0e3 2fd1 410e ea3f edbe 8605 6c8b e1bf
00000150: 494f afa0 421a e1bf 2774 0142 0cba e7bf
00000160: 8785 1092 87dc ed3f 457f bf75 5a4d ea3f
00000170: 1d35 35b2 59f0 c5bf 95ab 8895 f5a4 e9bf
00000180: 171b 475c 6c3f e23f df2e 2140 a8f9 c43f
00000190: 2ed2 80c7 4766 dd3f 8d05 ab35 3ed0 d53f
000001a0: 046e 93dc 8380 e4bf 4e3e c301 c732 e73f
000001b0: 50c0 8b5f ef86 c93f fe40 c186 329f f33f
000001c0: 4fcf 2d7e b178 d3bf 136c aaea a544 d0bf
000001d0: 5776 9367 8c2f ee3f 00e1 322b 361a e5bf
000001e0: d1c4 62e3 0d00 e4bf 3a5a a5a6 ecd7 e03f
000001f0: a3b3 2aa7 2d6f dfbf d8cd 99af ec84 da3f
-1.0570368182435592 -0.8875508572689003 -0.4318720571084402 -0.5668273734160602 0.27259710689693545 -0.04643049242504071 0.9212095605957059 0.8910898548984023
-0.9668103650115651 -0.7347186556926028 -0.5228672885676772 -0.24926593589899879 0.964104751529496 0.7781231605712517 -0.24493408945888115 0.3885595757632265
-0.47985295822887736 0.5981054784774796 0.48363243515290444 -0.12544200441869566 -0.6280420091594323 0.6782095337519517 -0.3755226385540748 -0.07032007425960005
-0.9373196691451687 -0.9192670646800855 0.9672878013368599 -0.4844479396210383 -0.4699101765032782 -0.6359035037722794 -0.21210364889627514 -0.5331836218841043
-0.35035615604002124 -0.16827889638360086 0.4904969832706801 0.3287282594903805 0.6930710474557314 -1.0591313836373946 -0.05792919524901224 0.0953836790938574
0.814240368431566 -0.5482692821442164 -0.5344555986762113 -0.7414609231160555 0.9331701138327596 0.8219425487295459 -0.171397411361263 -0.8013866348822939
0.5702420999813026 0.1638689339764516 0.4593676994584567 0.340835144434174 -0.64068787652235 0.7249484095027101 0.19943039098098092 1.2263665450919343
-0.30424153635180046 -0.25418994824002644 0.943304254815028 -0.6594496577954772 -0.6250066224221432 0.5263579611590281 -0.49116078686602743 0.4143630709506545

transform_generator.0.bias f8 [64]
00000000: 1acb 4dba a09c e1bf de04 85d0 303d dcbf
00000010: befd 25ef 2bcb 7f3f 4051 380f cf0e e53f
00000020: 8055 1bb2 0b1a cc3f f0eb 3727 73c1 e6bf
00000030: 1734 0569 1b1a 643f af32 ec38 e441 ea3f
00000040: 4e20 b2b9 c69c e0bf 1c54 319a ebd6 ebbf
00000050: c892 1191 2a51 cd3f bc1c 6e6b ba92 efbf
00000060: 4cad 23f9 bd6c 9f3f 3bd8 ebb5 96da a23f
00000070: 0e08 a6b2 322e e7bf 6ed3 fce6 3d5c e9bf
00000080: b262 dcd8 fe77 ac3f d694 48de 6a63 963f
00000090: 18eb 7017 9337 d43f 141c 2442 a147 e5bf
000000a0: 33ad e152 7823 e53f b6bc 97c6 0b11 e43f
000000b0: aa6a 41d1 3a0f e1bf 4527 80bb 4728 d43f
000000c0: bcb3 a4e0 4a40 efbf 3c02 f13b 7fd8 e9bf
000000d0: 152d 66d6 3345 e43f ff90 32f9 fe60 d73f
000000e0: f877 798e fe61 eabf 22a7 9100 b9a6 a9bf
000000f0: f650 e104 3e9f e73f 9893 98d6 6772 dabf
00000100: 1b77 14af ef35 a23f c8b0 e0f6 741b c73f
00000110: bf90 787d 941d eabf d895 0f61 32db e83f
00000120: 88d5 d648 1b7c cfbf 438f eb81 43ff e0bf
00000130: 4f88 7f82 9399 db3f ab7c 709f bdc5 c03f
00000140: f454 791e e29f c13f 689a a74f 6a85 b33f
00000150: e457 ba78 6cdd d0bf 9ee8 82c6 b521 d9bf
00000160: 91d9 6a33 dfa8 a13f e5fa e7ba 8e67 dd3f
00000170: 3f4c ad88 d579 cebf ca51 333d 5467 e4bf
00000180: 0cce 28ff 42cb f2bf 86b3 a268 a70b eebf
00000190: e429 e73c fc88 e5bf 5912 348b de64 d13f
000001a0: 3acd fc85 9a51 e83f 4dd3 a9dc 0af9 b7bf
000001b0: 43b6 3fe8 637a e83f 5d65 3fea 4564 ac3f
000001c0: afc6 0cfe 9319 cc3f 5054 9349 4985 e3bf
000001d0: 452d 592d 39b3 503f eb88 42d1 7a0f d7bf
000001e0: 2859 af83 dc20 dd3f 71bc 3c64 704e d63f
000001f0: d030 f896 3256 dabf ddb9 75ee e654 d73f
-0.5503696097133315 -0.44123478282206274 0.007762118928780591 0.6580577180161882 0.21954485127086443 -0.7111144796357376 0.0024538550716557517 0.8205433952112652
-0.5191377283927154 -0.8699853908134432 0.22903949817113856 -0.9866611574406288 0.030688255625972702 0.036823949534593635 -0.7243894089917846 -0.7925099860645852
0.055602992985034475 0.021863622490987243 0.31589200295609166 -0.664993886167283 0.6605798357753997 0.6270808104290129 -0.5331091010114808 0.314958508592657
-0.9765982043805859 -0.8076778574687249 0.6334475696070593 0.36529516540237233 -0.8244622023300954 -0.05010011798806448 0.7381887526812807 -0.41323276478424864
0.03556775104719475 0.1805254178483493 -0.8161108446697866 0.7767574210853878 -0.24597493225671152 -0.5311601197722456 0.431248547973273 0.1310345676911074
0.13769175041185344 0.07625450558371372 -0.263514631174415 -0.3926824987971801 0.034491515184913564 0.45944565060191983 -0.23809308217696132 -0.6376134105035416
-1.174624439922698 -0.9389226001418229 -0.672971838904513 0.27178157419283405 0.7599613778060423 -0.09364383590020715 0.7649402176009023 0.0554525230833842
0.21953058151989555 -0.6100202977201068 0.0010192926760222581 -0.3603198092988708 0.4551306997285729 0.3485375384215735 -0.4115110849677537 0.3645570114812509

transform_generator.3.weight f8 [64, 64]
00000000: e63d 450c 5cb6 b2bf b42f c1a6 24bf bcbf
00000010: 5528 62b9 6a4b bb3f eafb 24bb 5ca9 b33f
00000020: bee9 d521 86b8 ac3f 47eb 070c a66a 90bf
00000030: eb36 1563 c457 bebf d4b4 333b 541a b93f
00000040: e8ec a15e 8edc 9cbf 659d c3ce d019 b23f
00000050: d212 34c4 4991 a83f 8dcc fe7d 1f94 b2bf
00000060: 7fe6 a8da 64bc b8bf 8424 3a6a 95eb 933f
00000070: f789 a226 f949 a1bf 5003 c9e0 0a37 d9bf
00000080: 5a4a 2224 e9b4 87bf 5f37 1ccf 301e 95bf
00000090: 82ac ebd4 4d3f 8d3f 3fc9 91b1 a55f 6bbf
000000a0: a128 829b 2f69 99bf 9a04 b538 802f af3f
000000b0: ff4c 36bb 3ec6 b7bf c43f cd24 9771 ad3f
000000c0: cf50 ad1f 0652 af3f 37a9 f06a a4ca 99bf
000000d0: 8854 f207 f37e 9f3f eb39 303e c2f5 aa3f
000000e0: 5fdb 2c4b 3134 813f 0e5c df26 f6b2 b43f
000000f0: 6224 2e20 5ec4 ac3f d776 2b93 09e8 9cbf
00000100: 4a1c a2b6 902d a7bf a8e7 ed9d bfb1 be3f
00000110: 7a84 8841 a5ef eabf f76d 391d f2d7 a4bf
00000120: 4630 76f6 5921 a83f 458c 5a50 5fc6 ac3f
00000130: 98e0 c1a7 8c11 c23f 0586 69d6 1b8b c43f
00000140: 5e88 56e7 4fc8 903f 3cbd 7f2b b77b b3bf
00000150: 681c b787 1bf3 8bbf ce88 2dc0 bc86 86bf
00000160: 9b98 91ad 08d2 9b3f 27d6 a678 99da ae3f
00000170: 0265 6890 73fb 873f 2fbc 731e 9871 b9bf
00000180: b2cd 3843 445c f4bf b34b e9f6 00d3 bdbf
00000190: c668 c6a4 68a9 bdbf b58a 098e b671 b23f
000001a0: 5993 f8e4 7acf 96bf 6ee6 8849 3e07 babf
000001b0: 248e 8ad7 d5d8 b53f e54f 75ef 11e1 973f
000001c0: a78d 860d 1a04 a9bf 3b62 27b3 ecdb a23f
000001d0: 3df6 3317 816d a0bf 6598 3c13 d398 c2bf
000001e0: e93c 186a 760a ae3f 5aa1 33f3 4b74 83bf
000001f0: f3e3 96dc bf54 a63f 92d0 1a7d 43a4 a03f
00000200: c6e2 af1a b5e3 c5bf 3f24 9eef 94ff a2bf
00000210: 0dd8 5c4a b10f babf 5552 ff7c d7e7 c1bf
00000220: ae80 c765 43a6 803f b3b9 1f93 f4ed abbf
00000230: 6551 f912 d433 833f 8b2b d35f 142a c1bf
00000240: 35f9 1d1a 15ff a13f 3fe6 e841 d436 a7bf
00000250: 2882 6b1c 1930 c7bf 315f 7aa9 b4b4 b0bf
00000260: a3a3 355c 0cd2 af3f c406 3740 3091 9e3f
00000270: af2b 59e1 fb13 b43f 6484 d84d e303 a13f
00000280: fdb7 c81c 09f1 b7bf ccdd 2ffe 1154 b8bf
00000290: c666 a61b b35f 973f bb26 681a 95e9 bfbf
000002a0: 4111 8caa f9c1 c0bf 6a8b c878 bfb1 babf
000002b0: 2f64 094a 000a 863f 4802 3e34 9525 a23f
000002c0: 8766 c591 5ed7 94bf edcb a1bb 261f b43f
000002d0: 52a3 0ced bfd4 b1bf de88 e46f 5e16 c1bf
000002e0: fd24 ba9d 20a3 b23f 3dd9 417e 03f1 a33f
000002f0: 7e69 1c65 8b83 9a3f 559c 32ba 1ac1 babf
00000300: 4028 1827 6962 c3bf 5649 4d04 4bc2 8abf
00000310: 93e3 62ea 97e0 ac3f 5629 5af7 6a14 c5bf
00000320: 9796 4865 8695 a93f b3f5 d58c 0e8b a5bf
00000330: bf35 8204 3a34 803f 319d 7189 4c04 b6bf
00000340: 496f 8827 f412 acbf 409d a036 0561 90bf
00000350: 9fa2 67f6 6c13 9e3f b748 700a 973e a4bf
00000360: 61fb 38ff 68d7 c6bf 3f48 71a9 d4e4 953f
00000370: 32b0 cce9 c3dd a83f ab72 6bfa 4380 ac3f
00000380: 7768 b227 cf0f c4bf b310 451e 71a7 a23f
00000390: d704 0908 c517 8abf 5219 3f64 ec63 c4bf
000003a0: 4e07 e7f9 41b8 96bf a4b7 a791 e196 b3bf
000003b0: ba2a 787d 190a a93f 50a1 5ae9 e067 63bf
000003c0: b719 f63f f68d afbf e5c8 9326 c0a7 bd3f
000003d0: 6444 b821 a8ef c4bf 5dfd a815 95be 8ebf
000003e0: 4596 619e fac6 c3bf 6ae4 2bdf 1947 c5bf
000003f0: dd2f 2f41 013f b8bf 1a18 09bd 2038 b9bf
00000400: 4906 0943 b001 b3bf 337e 8210 782b 90bf
00000410: 0895 74ff 622b 8ebf 4fde 60b5 918d c1bf
00000420: 1324 00aa 9c81 94bf 571a 416f 55ad a03f
00000430: f0cd 2ad6 8077 a33f 4081 e91c 0af8 a7bf
00000440: 0736 d41f e36d b43f 3127 7b4d def9 b9bf
00000450: 093c 5798 028a 93bf d3c3 ecd5 aafc a73f
00000460: d338 6844 8806 c0bf b629 0875 e525 bebf
00000470: c710 b65b b357 923f 5431 5fb2 ae1c c4bf
00000480: f8ed 09e3 0e19 ae3f a66e 6948 1561 bbbf
00000490: 0b0c dde3 7486 bebf b99f 84be 8e41 b9bf
000004a0: a2a9 99b9 76ba b73f ef31 8697 6e61 c2bf
000004b0: b37f 4e96 fd67 a03f 405d 8bb5 d066 af3f
000004c0: c75d e58b 2f8f ad3f e336 dcf1 534c b2bf
000004d0: 8b30 7665 0892 c1bf ec5d 8949 4b01 93bf
000004e0: 0761 d84f a554 a7bf 5a22 398f 5b63 933f
000004f0: 6494 5080 efec 53bf 0b4d 9812 04f7 a4bf
00000500: 6e75 1bc5 5245 b43f 8f8f 9455 995b c0bf
00000510: 768e 2d29 13fe b5bf ced3 b5b6 f2f7 a2bf
00000520: eaad 99e9 146a 8ebf f7be fbf5 a18e a33f
00000530: d364 9686 818c b3bf 335b 63f1 fa6e 6dbf
00000540: 40c7 ec92 84b3 aa3f 3b1e 764f 4da5 c1bf
00000550: 9a6b cd09 7b2b a63f a977 af3d 7c9e b93f
00000560: a295 6a82 9d9a 9a3f 78d2 0237 15fe c0bf
00000570: 3b89 d999 a2df b1bf 8f45 4ec9 9d4c 86bf
00000580: 1d2c 264a edee c6bf 0f17 3983 cf10 873f
00000590: 44c3 6d32 be85 b7bf 312d 8fcb 93f2 a5bf
000005a0: b877 14dd b03f 8dbf 5acc 8714 6926 91bf
000005b0: 756a 8bfb d5be c2bf f288 4977 aa07 90bf
000005c0: decd 297c a9a3 b83f 7f9e 0b5a 0a3a 503f
000005d0: 0a76 44fe 9431 c5bf 0b78 6d23 7eb4 a0bf
000005e0: 0f04 c55a 5e15 4ebf b233 d93f dd67 a73f
000005f0: 8f08 1076 fcef 9dbf f213 7bbf 4849 a8bf
00000600: 8bfe 8852 78ad 923f 8e46 9c38 0356 b0bf
00000610: a418 f724 63ab c4bf b3bb a2bf 0c5f bdbf
00000620: 658a 0a84 2581 b0bf 811a 8faf 3260 b2bf
00000630: bd8a 2323 035b c2bf f5bf e32e c17d 91bf
00000640: 18ba 5b52 a6f7 b9bf 9bbd 60bc d1ce a2bf
00000650: 5937 b164 12b6 c6bf 55c7 79c2 3798 bbbf
00000660: f279 c9ff c63c babf a1a9 7e6c a1d6 a5bf
00000670: a3a7 cacf 7757 b2bf c35a c9ea e3e0 bcbf
00000680: 0ded 434a 77b8 af3f d4f8 9449 0287 c9bf
00000690: 989f 142e 954b c7bf 9b98 50f2 985c a1bf
000006a0: 4311 8ece 80fd 923f 9be4 d175 3dd0 a4bf
000006b0: f373 d3db 81d4 ab3f a5b0 8aca b2d9 abbf
000006c0: 0dd2 64e7 d32f b7bf 2b24 1334 d897 aebf
000006d0: 84a8 2359 401c a9bf f552 8be1 a328 803f
000006e0: ed00 2af8 43c6 b2bf 1e99 b1d2 8d3f 613f
000006f0: 8923 1c50 fb36 b6bf 11b8 d6eb fe29 babf
00000700: 2069 1bdf 057f c7bf 04a1 2f41 6113 90bf
00000710: 49d4 a134 1747 a9bf f934 d460 d775 a4bf
00000720: 375a cf46 0045 c3bf a827 67c6 5fcd 94bf
00000730: b6b3 b64b 7f05 a6bf 5d05 37fd fede a7bf
00000740: ad45 c95b 1293 943f 7e73 9919 78d0 b1bf
00000750: 4b20 c405 b8b7 b0bf a3e4 f76d 5a75 b6bf
00000760: 2dc2 f027 dd51 c8bf 073d 2813 02be a3bf
00000770: d0ea cf21 1667 aabf ab77 2d96 6de1 b5bf
00000780: d751 3e91 3b76 9a3f e95f 2192 e7ac bcbf
00000790: c31f b361 fc73 c0bf 6257 eeb5 993a bebf
000007a0: 3ba8 ad7b e6eb b5bf f880 d569 bacb 7a3f
000007b0: 2e1a 215f 14e8 6cbf 50f1 ad52 c9e3 c3bf
000007c0: e73b cab6 0d9c bcbf f3af cc5c 6599 a43f
000007d0: 2f40 3ae5 6a14 ccbf 3ea9 7945 7a69 c0bf
000007e0: 2cf6 92ef e7a8 c7bf 65dc a0e9 30be 873f
000007f0: 6ba7 6f20 2634 bbbf 602a a0b3 cd7a c8bf
-0.0730950860936371 -0.11229161330373821 0.10661952043497654 0.07680301255184899 0.05609530604393197 -0.016031832203206944 -0.1185267202283417 0.09805799908982077
-0.02818510487166473 0.07070641563369902 0.047983460617648924 -0.07257267786080686 -0.09662466371892185 0.01945336781367192 -0.03376749607675216 -0.39398452712707854
-0.011575528540821601 -0.020622980729107506 0.014280899105378223 -0.0033415065959669084 -0.02481531511924884 0.06090927784180984 -0.0928687293110677 0.057507251016999855
0.06117266785318664 -0.025187081362824073 0.03075771080019199 0.05265624055038017 0.008400330645242425 0.08085573624644857 0.05618566649270275 -0.028228902442484518
-0.04526951054963797 0.1198997269219989 -0.8417536048838337 -0.04071003538839684 0.04712945111813886 0.05620096069221651 0.14116056624675788 0.1604952618536545
0.01638913011050424 -0.0761064988325772 -0.013647284583283972 -0.010999178519061206 0.027168403238100863 0.06026153180884491 0.011710074276424457 -0.09938956016024812
-1.2725260377745653 -0.11650091198070704 -0.11586622259929688 0.07204762428004126 -0.022275848603516255 -0.10167302413256049 0.0853398944114408 0.02331951164281056
-0.048859419013094034 0.03683414160667949 -0.03208545120467619 -0.14528883399288187 0.058673572970400496 -0.009499162063051503 0.043615337064188874 0.03250323202283413
-0.17101157954291163 -0.03710618424435851 -0.10180194917197145 -0.13988774875055535 0.008129622024114571 -0.05454983039804819 0.009376198605573103 -0.13409666708897947
0.03514924949466761 -0.045340188069939995 -0.1811553372163115 -0.06525735032698489 0.06214941621403305 0.02985072509705479 0.07842993022602117 0.03323278737321614
-0.0935216613076761 -0.0950328107427289 0.02282600265753023 -0.12465793509195582 -0.1309196551084231 -0.10427471827328608 0.01076126314107925 0.03544298422548714
-0.020352819106256106 0.07860033112392247 -0.06965255296075881 -0.13349514449607275 0.07280162668952879 0.038948163187273434 0.02589242748863673 -0.10450903936235652
-0.15144075783638478 -0.01306589705351217 0.05640101181183534 -0.1646856029295331 0.049968910087313016 -0.04207654446779987 0.00791211439379935 -0.08600309711038247
-0.05483210547046597 -0.015995103320304738 0.02937097791610432 -0.03954002382683213 -0.1784487959102661 0.021380732385587683 0.04856693486212328 0.05566608840829209
-0.1567324584801246 0.036433730073015445 -0.012740649516788256 -0.15929942030761396 -0.022187262418589974 -0.07652101331743083 0.048905178609933 -0.002368869095182337
-0.061629958446292425 0.11584092084720828 -0.163563744034522 -0.015011944507135661 -0.1545098565431308 -0.16623233220142036 -0.09471137849249041 -0.09851269354939554
-0.07424451481440388 -0.015790821082758377 -0.014731191082840059 -0.13713284832350545 -0.02002568042374626 0.032572431403015294 0.03802111257882845 -0.046814266232788615
0.07980174567293129 -0.10146893874766928 -0.019081154392377928 0.046849573720812686 -0.1251993497866751 -0.11776575190757552 0.017912676308257127 -0.15712531766474547
0.058784928526588176 -0.10695012109629917 -0.11923914492676617 -0.09865657950706365 0.09268896132713292 -0.14359838865892935 0.032043385122278244 0.06133129325979292
0.05773304541315443 -0.07147717146673531 -0.1372690673273421 -0.018559624064748023 -0.04556767081902718 0.018933706871651836 -0.0012161578063196949 -0.04094708182324255
0.07918278991879443 -0.12779537848211617 -0.0859081244976155 -0.037047943881510656 -0.01485077226535388 0.03819757583357657 -0.07636270080401468 -0.003592958567519311
0.052150862631960226 -0.13785711650801766 0.04330048079164968 0.1000745440100831 0.025980435452444113 -0.13275399385533482 -0.06981865173432748 -0.010888321596015852
-0.17916647072374384 0.011262532417400743 -0.09188450556918065 -0.04286634311537297 -0.01428163695032568 -0.01674808681304927 -0.14644884855700338 -0.015654243021693888
0.09624728471117502 0.0009904004183968471 -0.1655756227054755 -0.032627050232562814 -0.0009180746761005015 0.04571429638290371 -0.029235787111254793 -0.04743411385928899
0.01823986057047348 -0.0638124478539572 -0.16148032479231234 -0.11473159483533273 -0.06447061990415077 -0.07178036485775331 -0.14340247360003913 -0.017081278311650256
-0.10143508444500815 -0.036734155888889584 -0.17743139187444504 -0.10779140947286454 -0.10248988861847133 -0.042653126234046164 -0.0716471559814225 -0.11280655366986551
0.06195423871573711 -0.19943264572970654 -0.18199410200145105 -0.03390958745903668 0.01854516277991648 -0.040651245720206584 0.05435567673132615 -0.05439528200563019
-0.09057354354155951 -0.059752231938155674 -0.049043665772686956 0.007890014954150962 -0.07333779152577664 0.0021055002194315794 -0.08677645402725721 -0.10220330484182251
-0.1835639323606495 -0.01569892845501021 -0.04937050359232182 -0.03996155793184104 -0.15054324586408693 -0.020314690098338112 -0.04301069068183187 -0.04662319985392103
0.0200922840616095 -0.06958723664270214 -0.06530332699560508 -0.08772816834233992 -0.1899982876798431 -0.03855902179577169 -0.05156773722406671 -0.08547100941129197
0.025841646900134876 -0.11201331441532116 -0.12853960772031145 -0.11808167163539232 -0.08563080329409527 0.006541946580313367 -0.003528632915762906 -0.15538898980220006
-0.11175618851323997 0.040232818201133023 -0.2193730944895846 -0.12821892158837928 -0.1848421020312555 0.011593229417583293 -0.10626447955988076 -0.19124766608031774

transform_generator.3.bias f8 [64]
00000000: 0b56 cef9 7283 ac3f 401a 0eb0 97b3 adbf
00000010: 318e 2bf3 d27f bcbf 468e 5d78 c9e5 9cbf
00000020: c169 4fc8 95f0 91bf c0cc 37ce 6e72 d83f
00000030: d984 39dd 10e3 e33f d86b bc2d 4910 913f
00000040: a29e 9b07 8589 afbf 0ab8 8466 f604 bc3f
00000050: 9deb 5aa9 2ea2 de3f 6982 e016 c873 b33f
00000060: bfa7 f778 d558 aebf cbdc 5c8c 2d57 d23f
00000070: f709 c0ce 3069 9c3f abe1 79c5 bfe0 c83f
00000080: 8c25 6218 9cb0 c73f 0fb2 4a3f 324b a53f
00000090: 5107 82ab 2477 d13f 4f4f 9499 4971 c2bf
000000a0: 8046 a3aa 4d87 babf 4cd1 7e4b 35c0 b9bf
000000b0: 9075 1d33 b1a6 cd3f b71b bb52 c55c 9cbf
000000c0: e825 56c2 9896 b03f 4aa5 074c 0ab2 ad3f
000000d0: da2d 8e66 0eee d93f 3009 c773 6f97 c2bf
000000e0: 96bf ab8c 6f6a cb3f 8908 8427 c412 c4bf
000000f0: eb9c 22c2 07ea e73f 02dc 0d1a ae86 d53f
00000100: cb0e b712 b942 bfbf 0102 8909 b57b c4bf
00000110: 8844 b997 c736 b3bf 9b1f f72d feb9 d53f
00000120: 8535 049d 363e a93f a5ba 6a58 53cc d63f
00000130: 178c 2f50 b7ef afbf 50e4 b175 545d c3bf
00000140: f5f7 1ade bcb6 72bf 2a43 f309 4ac8 ad3f
00000150: fcfc d559 7ea5 acbf a13b 948d b8b4 d23f
00000160: b0c9 de7a 6b92 abbf d4c1 3eff 577c c73f
00000170: 1236 8a74 8d1f 96bf 4467 2e73 eef5 a93f
00000180: 37fe 3c35 4901 c2bf bb33 d43e 1053 823f
00000190: 7c7b 3377 7c3d c03f a395 00ff cbfc b5bf
000001a0: 00c3 5079 0d07 c0bf fc97 ff20 9197 bfbf
000001b0: 44a2 7c22 b54c c73f 410b beff 90c4 bdbf
000001c0: c7f0 6eb6 2f7e c8bf 3239 9b6b 173f d93f
000001d0: 4c89 73c6 a2d2 78bf 4175 f09d 938d a93f
000001e0: 2273 a948 f7b9 c0bf a1f6 0743 8729 7ebf
000001f0: 0d75 0db0 b20d c43f 1ef9 d8bc 0350 cd3f
0.05569037722959188 -0.058010807267284026 -0.11132543980380018 -0.028220317813419514 -0.017519321776356515 0.38198442591165005 0.6214680023951146 0.016663688103203927
-0.061596066645333694 0.10945072176829754 0.47864882029142014 0.07598543699760686 -0.05927149869587777 0.2865709181528017 0.027745020503070674 0.19435879843127898
0.18507720175356857 0.04158932707409601 0.27289692639179913 -0.14408226012221312 -0.10362706581079273 -0.10058911412381127 0.23164954181531217 -0.027697642492764376
0.06479792351287694 0.05799896410082768 0.4051548005597546 -0.14524644044110735 0.21418566101737885 -0.1568226998279594 0.7473181525901088 0.33634522003507084
-0.12211186129485012 -0.16002524343095106 -0.07505462125961249 0.33947710503388756 0.04930277506546602 0.3562210429617301 -0.06237576345281342 -0.15128570315190126
-0.0045688035622202154 0.0581687104364675 -0.05595011564855132 0.29228032899930595 -0.05385146975403943 0.18348216975347376 -0.021604738462476965 0.050704433021748346
-0.1406642446472561 0.00894749347437506 0.12687640972486836 -0.08588862395898515 -0.12521522925955964 -0.12340647750497163 0.1820284288781001 -0.11628061526975576
-0.19135090263251284 0.39447579868728433 -0.006060252991320358 0.04990826895685042 -0.130675230483484 -0.0073638232865939355 0.15666802975003016 0.22900435181686246

transform_generator.6.weight f8 [64, 64]
00000000: 1260 1032 b133 92bf e0cc 2e96 4d66 8c3f
00000010: 746a 4b44 925f a8bf 14ec bee6 d9da a6bf
00000020: cf28 8add 8b38 a73f a3a5 ebda 1e4a af3f
00000030: d816 18ca 691b c5bf fe92 021a 64b8 c0bf
00000040: cb49 6107 5617 943f 6f17 46c0 2d86 c7bf
00000050: 3597 0a04 dfd7 bbbf 0788 080c ddd5 703f
00000060: 6167 7780 8ce5 a9bf 52a0 0bdc c2c8 c1bf
00000070: cff1 405d aafd b43f 5f33 59d7 cf98 803f
00000080: 808f da5c 4893 c03f ece1 a9ed 004b b0bf
00000090: 6f0d 0f76 1c23 8f3f a88b eab4 6432 a63f
000000a0: adc4 a796 2c34 a9bf 3870 be88 0d92 6ebf
000000b0: b718 a25b cfa0 dbbf abae 4e31 718c c13f
000000c0: 6a9d 65fe 6427 8b3f c6d5 3cca 5d91 bebf
000000d0: a100 f0ff 4f18 8bbf 6867 4020 303f b43f
000000e0: ac2c 35e7 8717 b23f 5a7d d1be 3e05 b33f
000000f0: 8ad0 c9b7 4232 d4bf 1afd 5751 34ff acbf
00000100: d3c8 ad05 3402 c3bf 6a23 938f 0aa0 af3f
00000110: aa3b 1cbf 5153 b43f 28be 3ba3 e32c ac3f
00000120: 8f00 f5a8 14e8 bdbf 0479 c56f 3cc6 b83f
00000130: f980 0444 0285 bfbf f422 1e27 554a 81bf
00000140: 9234 c56a 7a54 95bf b30b d6f0 4824 b83f
00000150: 7554 d451 a10a a7bf 8868 11e8 4643 903f
00000160: 5bf2 696d c214 a13f 17ce ce74 b20c c63f
00000170: d574 af60 32aa 9ebf f828 1600 d602 c13f
00000180: 5058 8d8c 0dc6 7bbf 6410 9252 eb0d c3bf
00000190: 75f5 5447 e7de a83f eb14 be2b 4bea aabf
000001a0: 56b5 be66 baee 8bbf 3e07 5d0b f791 c5bf
000001b0: d1b2 89ca b312 a8bf b673 6ac5 78ea 7f3f
000001c0: ec5d 7cd3 2e96 bebf e988 d79c d7c8 adbf
000001d0: aa54 047c 7e45 a73f e1b1 bb4f b685 c43f
000001e0: 379a dbff e3c7 adbf 0cc6 1a7e fdf8 cabf
000001f0: 7cd4 8b3f bf15 9fbf ecc9 b86a d744 ac3f
00000200: bfbf 08b5 dfc3 c2bf c33c 8a08 f2cf a03f
00000210: 99c1 d128 c030 c2bf 93f7 e866 d38e c0bf
00000220: 93d5 e76a 1747 a7bf 15f1 501b 53dc babf
00000230: 941c 42af 9493 96bf 58a9 606d 1ffb a8bf
00000240: bfd0 6888 e0d1 c6bf 9627 0d12 b335 83bf
00000250: 5c48 7b4e 6f11 c9bf 57ce fedb 5102 a73f
00000260: b448 85ce adff b3bf bded adde 51fe c6bf
00000270: c5ad bf33 feed c5bf 23e0 80d6 b41d 9d3f
00000280: 43fb 4684 52c0 a5bf acfe 101b 819a 7d3f
00000290: 2335 fdb6 f789 bdbf c49b b1f3 c327 ae3f
000002a0: a4c5 8ce0 e488 6f3f ba9e 78ee 06b1 8ebf
000002b0: 1eda 6026 ed05 ae3f ef1f d5be 12c7 873f
000002c0: 8340 79a5 8dde a43f d905 49f5 18ce a6bf
000002d0: 4d9c 0931 c02e a0bf 88bf f72c 2488 a0bf
000002e0: bea7 b893 b52d c6bf cd94 330b 3c99 71bf
000002f0: e8b7 22ec e5a0 bdbf 71e9 0e7b 81b9 c1bf
00000300: c868 98cb 61e2 c0bf 9dac a728 29ca abbf
00000310: 9fe0 33db b094 96bf 661e b5c9 584c 83bf
00000320: 31cf b14b ad0f 88bf d53d c17f 8eb8 c0bf
00000330: 7f70 e0a9 7ef0 b2bf c00a e49e 2b09 acbf
00000340: b28f 9bbf b7ab c3bf 4864 b756 7604 babf
00000350: 3fc2 ad26 db52 b9bf 6fb5 698c 384c 603f
00000360: 7f8b b5f4 55c8 b1bf 5709 7691 97b9 c5bf
00000370: d762 b5dc f75d a73f 49bf 33f6 8889 ae3f
00000380: 7a68 2763 9152 b0bf 1956 6737 2851 c7bf
00000390: 4a45 9165 e961 b0bf 1de3 44ca cf48 b1bf
000003a0: 85a3 4846 ac42 aebf 1096 7937 09f8 b0bf
000003b0: 812d 9db5 dde3 aebf e382 8b85 771e ab3f
000003c0: fbb0 0a5a 2e73 9ebf 6835 4145 d23c c5bf
000003d0: aa11 3b65 4e45 c1bf f939 66b5 9c08 a5bf
000003e0: ba3c f561 291a c6bf 200e 1e04 9f15 b9bf
000003f0: b6b7 d070 f317 bebf 493c 6f9c c986 803f
00000400: 01ad 4d78 d440 78bf bd8a af02 0e7e c2bf
00000410: 9dd6 adfe d551 673f 7f24 9e71 81f3 93bf
00000420: dbf5 c87c d1e8 a4bf 28e9 cab3 73a6 b2bf
00000430: 85b3 c59e 6e1a d93f 4277 2fb8 2c4b b63f
00000440: a73c 64f8 1836 a13f 99b7 7ae2 af85 c0bf
00000450: 6416 0cf9 92d4 c83f 3823 2a3d 9d05 afbf
00000460: 9355 4071 5a5b 95bf 77c3 156e 19ac d0bf
00000470: d8b6 7189 16f0 a0bf 731b 39bc 458f a1bf
00000480: 12af 3fb2 ab29 a83f 2a20 8fa8 b342 c3bf
00000490: fc26 360a 9b29 903f 648b 62b0 d60b 92bf
000004a0: afa6 60d5 2747 91bf 5eb2 d9ee 471c b6bf
000004b0: 1974 fea9 a3d6 9fbf 7892 c279 83a6 a33f
000004c0: 8c73 b83a fbdb 993f 4375 2f8d 21f3 ca3f
000004d0: c53f d548 ac5c b5bf 7a45 ecd0 aac8 573f
000004e0: d6dc c14d 0ca3 d1bf 727d 1eb4 32bf b6bf
000004f0: 4866 3be1 e271 c7bf af0f 50c6 1df8 d0bf
00000500: 7771 5d7e 66bd b3bf 963d b011 abb9 923f
00000510: d486 45e8 d4bb c1bf 66d6 d29e 7c55 b4bf
00000520: b55b a008 a4fc c3bf 7815 6848 226b aabf
00000530: b41e 6794 bfc9 b3bf 4c1a 31a6 88a8 c4bf
00000540: f965 4dca d668 a4bf 2681 6aa7 4c2b 9c3f
00000550: a65e 7f09 9e29 a4bf b196 9b44 9db9 c03f
00000560: 2c89 b123 09b6 923f 5de1 085b 7b1a c7bf
00000570: d420 14b8 d205 a03f 46dd 55d0 8957 a63f
00000580: d53a b86b 4f65 b9bf 6a3d 7a04 324c c8bf
00000590: 0ccd cc51 a527 91bf 5f63 ab62 ebb6 c4bf
000005a0: ffa7 6e3f 5b68 c4bf 34e0 c565 8d02 b4bf
000005b0: f14a 7fc8 cdfe c1bf 4367 db28 cfe7 98bf
000005c0: 9ad4 0b18 6f32 9bbf 754a 5aeb d9f3 b63f
000005d0: d70f 9306 52b1 83bf 12ef d479 ebf6 953f
000005e0: 95e1 3a3e fbf9 b13f 8957 9c7c fe6a db3f
000005f0: dc3e dc16 5c17 c8bf 4500 5cf6 ad99 89bf
00000600: 7e5d cce2 40b5 c13f b2f0 67f1 afe7 bebf
00000610: 01d0 a786 8df6 a4bf 4a84 e13a 0de8 bb3f
00000620: de0b 59bd b708 b8bf 99a0 a84d 1e37 73bf
00000630: 8e3b b686 6714 e23f db7f b1a7 4f2a bc3f
00000640: 5bf6 ba28 db43 a13f 085e a53a 7940 c63f
00000650: f1be 5cb0 16b0 c43f 5f91 6fc7 ba8e 75bf
00000660: 737d 8db0 3181 b0bf c579 945a 817b c83f
00000670: 2a38 552a 721c a33f f8b6 cf7c 4693 a83f
00000680: f89c 50e0 d99a c53f a96e e22c 1b16 b63f
00000690: df34 5f4d c05b 9c3f 1f92 13ba b79f 8e3f
000006a0: e621 46be b70a 823f eff5 7837 10c1 babf
000006b0: 8303 32d9 d440 b53f 127b a14b 7609 9fbf
000006c0: f502 35df 322b b53f 84aa 1a2c 06b9 c43f
000006d0: 1ab7 c9f2 d658 bd3f 36e2 f509 41c9 bbbf
000006e0: 1703 ee56 8ee6 bb3f 8d79 5fe3 5d56 91bf
000006f0: 2a9e 4505 20ac c6bf acc0 2bf7 0c69 c73f
00000700: 8e72 a5c4 3692 c0bf 7e76 ab48 bbd1 a3bf
00000710: 5f76 3ab0 63fd 673f f7e4 cefa 64ac 4ebf
00000720: 4470 7de4 a8ac a03f cd80 3cc3 ae79 a03f
00000730: 6d1b 33e0 c1df c4bf ad25 37eb 6a5a 7bbf
00000740: d1c6 2e24 2cb9 bd3f f5dc c3e1 c0a5 c33f
00000750: 3906 9a07 ccbe a8bf 8358 459d eea6 c33f
00000760: 976a 27dd 011c bebf 5de6 4788 a0c7 cd3f
00000770: b43e 71f8 f0ae bc3f d1d6 0c54 c13a c63f
00000780: da68 67ea ea76 373f f5ef 95c0 ff1e bdbf
00000790: 42b0 8e63 786a b53f 80bb 8e8e b10e c23f
000007a0: e819 4404 401d a23f fb86 a240 ea10 a2bf
000007b0: f358 9ea2 304f c43f 2958 6351 4480 95bf
000007c0: 0f4c 3a06 b1eb adbf 8977 4ed9 cf07 c13f
000007d0: e2a2 32fd 07d0 c6bf 7320 bb95 6fef ba3f
000007e0: 4f0c 044c 2c03 aa3f c36e c823 c13e c6bf
000007f0: 20f8 fa35 972f a73f cda0 2a27 ab66 97bf
-0.017775314980184538 0.013867002626147984 -0.04760415157007439 -0.044638451974116006 0.04535328940717564 0.061112369750684147 -0.16489908569217593 -0.13062716741583097
0.01962026996654646 -0.1837823094212427 -0.10876268242517713 0.0041102060936584256 -0.050579443628250294 -0.1389392446938041 0.08199562813474091 0.008103965529835553
0.1294947102916204 -0.06364446451505729 0.015203688004368414 0.04335322102021816 -0.04922618235640051 -0.0037317528094274154 -0.4316900629859321 0.13709845454774458
0.013258732808664592 -0.11940561473314579 -0.013229966161816544 0.07908917224304235 0.07067155260772279 0.0742987838616406 -0.3155676646049491 -0.056634554795886596
-0.14850473668372519 0.06176789286252567 0.07939635196474507 0.055029977489422344 -0.11682252049377183 0.09677484253686336 -0.123123303991182 -0.008442559486654379
-0.020830071226829512 0.09430366401470174 -0.04500297664541445 0.01588164130621597 0.033361507278617274 0.17226248458392554 -0.02994612422104555 0.13289904598452273
-0.006780674863724981 -0.1488622811485839 0.048575618226531704 -0.05256876858678957 -0.013638931522872138 -0.16851699881413568 -0.047017687295782935 0.007791969072653273
-0.1194791094134115 -0.05817292966436744 0.04545207275274639 0.16033057110997986 -0.05816566942467143 -0.21072357804727948 -0.030356395963242452 0.055212718751494666
-0.14660259570655218 0.032836497824172216 -0.14211275094158962 -0.12935869717506118 -0.0454642599105838 -0.10492438713930981 -0.02204735107127627 -0.04879091463256441
-0.17827994022957758 -0.009379767406830369 -0.1958445676050954 0.044939573388003744 -0.07812010089881732 -0.1796362244893838 -0.17132546927255823 0.028433633415460357
-0.04248292793953692 0.0072274249260428185 -0.1153864690542901 0.05889713620927453 0.003849455857925137 -0.014986089851915952 0.05863896459088756 0.011610170792337697
0.04076044697706129 -0.044541149084135596 -0.03160667990305708 -0.03228867577479294 -0.17326993668512886 -0.004296526475831186 -0.11573636069326165 -0.13847368725493994
-0.13190863076380865 -0.0542767393233927 -0.02205158555895592 -0.009422963767647018 -0.011748651382937321 -0.130632221584604 -0.07398215911274696 -0.05475746454796626
-0.15367791038363304 -0.10163058869456265 -0.09892053312592795 0.001989469953790283 -0.06946313118309709 -0.16972632029144094 0.04563879555889166 0.05964305882832705
-0.06375988646269262 -0.1821642179990455 -0.06399401406931307 -0.06751726806841103 -0.05910242422061799 -0.06628472904557037 -0.06033223001449085 0.05296681885898182
-0.0297362558800822 -0.16591862088754827 -0.13492755835444586 -0.04108133043620294 -0.17267339022735034 -0.09798616266748938 -0.11755296234397758 0.008069586836340419
-0.005921201668438459 -0.14447188502443523 0.002846639593765256 -0.01948358779876402 -0.04083876274351513 -0.07285235537975565 0.3922382879744009 0.08708457466806599
0.03361585647700709 -0.12907980497896857 0.19398724709042192 -0.0605897080577677 -0.020856297647772925 -0.260504109864136 -0.033081726339202866 -0.03429620669026336
0.0471929221237969 -0.15047307711051988 0.015783712862265084 -0.017623285785372103 -0.016872999571353627 -0.08636903363521628 -0.03109222149906907 0.038379772771155396
0.025253224810615246 0.21054477113549738 -0.08344532755040664 0.0014516513944652074 -0.27557666390880564 -0.08885495088042264 -0.18316303250940025 -0.2651438175819249
-0.0771087702282268 0.018286393122307475 -0.1385446676386467 -0.07942942502526193 -0.15614748402796655 -0.051598616923039964 -0.0772971856414369 -0.16139324297746993
-0.03986235827933266 0.027508924215568296 -0.039380015048377445 0.1306644997595661 0.0182725360904296 -0.1804956621651951 0.031294426889930144 0.04363661449581939
-0.09920212154268467 -0.18982529848697577 -0.016752799146343242 -0.16183225934835385 -0.15943470570829274 -0.07816394552890032 -0.14058849611190952 -0.024321781986919488
-0.026559577791847568 0.08965837474742407 -0.009615555596958742 0.02144973689176683 0.07022066373145315 0.4284054009343597 -0.1882128821966863 -0.012500151711265181
0.13834391664634532 -0.12072276729299139 -0.04094354885810959 0.1090095776321657 -0.09388302204847274 -0.004691236851194124 0.5649907713976619 0.11002061695171454
0.03372082588383015 0.1738425766331917 0.16162379847946043 -0.00526307068409823 -0.06447134552353422 0.19126908228731856 0.037326400439824006 0.047998621688618515
0.16878817990184536 0.0862748131352712 0.027693752977758442 0.01495307480440383 0.008809504980278281 -0.1045084128790774 0.08302049925442927 -0.030309532514702538
0.08269041013137353 0.16189648774646426 0.11463683535995664 -0.10853964322257856 0.10898675558383918 -0.016931025507682263 -0.17712784058970615 0.18289339131252313
-0.12946209527844527 -0.0387094999511932 0.0029284426726253056 -0.0009360783638988891 0.03256728924927235 0.0321783650708781 -0.16307853171585 -0.006678025867083032
0.11610675700537888 0.15349589370428132 -0.04833066551965399 0.15353186301462438 -0.117614857189816 0.23265463499392328 0.11204439225661639 0.17366806606303567
0.00035804019208075593 -0.11375425769614352 0.08365585737800621 0.14107341252153205 0.03537941028666919 -0.03528530158042816 0.15866668644293433 -0.02099711176637001
-0.05843880845090876 0.13305090056104188 -0.17822360861943937 0.10521600156346426 0.05080545833518412 -0.17379011389936325 0.045284962977788945 -0.022852586999449188

transform_generator.6.bias f8 [64]
00000000: 9426 0109 2da5 b73f e341 3ebb bf5b a0bf
00000010: 7e8a 86bb aea5 c3bf 8ddb 74a2 a641 db3f
00000020: d243 3949 772f d43f e92a ff8e 15dd 75bf
00000030: dbfe 6fc1 070f fb3f 258d 0d19 a544 aabf
00000040: b759 e764 72b3 e63f 6118 8679 0443 93bf
00000050: 2b39 f205 1caa c83f 9ba0 af35 08e5 b73f
00000060: 5a1f 4642 ac9a e23f 9873 fd6b c657 b5bf
00000070: 8ef4 7df0 f427 dd3f 7590 fbf4 6668 cc3f
00000080: 6643 a739 f565 c1bf d4e9 6701 1ebc e63f
00000090: c409 2d86 32d8 e23f e90b 799b ac59 a1bf
000000a0: 5824 5202 2399 b23f 5d56 7d8b 6965 aabf
000000b0: e98d a23f 321e d43f dec0 672f e9dd a4bf
000000c0: 88d9 0fe7 6e74 943f c8e7 8441 14a5 e13f
000000d0: 642e 7b46 10a8 afbf e6d6 c681 5620 ccbf
000000e0: a4e1 0766 5c3a e13f 8948 1dfc 4997 c5bf
000000f0: 30c5 657b 8892 c83f fd3d d530 2334 e13f
00000100: 418e f8d0 ce4a c7bf 656f 8caa 9afa d93f
00000110: ae64 a27f 6c3a a13f 449b 6a5d d7d0 b03f
00000120: 37d2 c90c 3279 a53f ec49 c2ce 57e9 ed3f
00000130: 4ac7 7086 7b6e c5bf 302d a2f2 9b23 a6bf
00000140: 2c28 9acd 1762 943f 60aa 0e5a e5e1 b8bf
00000150: 8909 84e6 c9ab de3f 1f24 8cd3 ce7e c2bf
00000160: 9533 6ddd 8efd c03f 1bec 3f5f da25 9f3f
00000170: 8c20 9c18 ecbf d83f a61a 11ee 5fa9 d03f
00000180: 3706 91b2 4b78 c2bf 16cd 1d8c ceb0 ca3f
00000190: 4c1b d2b1 a04e c4bf b2df 6b83 d23c bcbf
000001a0: c485 28d7 3826 e63f 23f8 df32 8fcb b9bf
000001b0: f930 5bde 1847 bbbf 8339 c505 19b4 8cbf
000001c0: 27a6 c47f a8d0 c3bf 156c 6671 ad9f d43f
000001d0: 46ca 54ea 7903 80bf 6a42 6fcd 89b6 c63f
000001e0: af1e f364 6127 db3f ee99 e561 bc63 b5bf
000001f0: 6bcf f498 24e6 aa3f 1498 c9bf 1117 ec3f
0.09236413450084974 -0.031949988943896356 -0.1534937301303962 0.4258820139397635 0.3153970923495396 -0.005337795460898611 1.691169505705992 -0.051304969127864454
0.7094051333213461 -0.018810338895058346 0.1926913289102655 0.09333850203222697 0.5813809675609989 -0.08337059151149473 0.45556376920269137 0.22193610155148105
-0.13592400851350844 0.7104635264834607 0.5888912792800558 -0.0338872852121524 0.07264918142949861 -0.05155496433023352 0.3143430348811465 -0.04075554565122429
0.019975407460117306 0.5514012603446128 -0.06182909832349706 -0.21973687493089428 0.5383741371907047 -0.1686794739749227 0.19197183633108628 0.5376144365090451
-0.18197045520456537 0.40592066435941937 0.03364886339222416 0.06568666487383462 0.04194027334316213 0.9347342527638012 -0.1674341589401201 -0.043240426414821065
0.01990544502636042 -0.09719689797081221 0.4792351485376903 -0.14449487046684426 0.13273797809452206 0.030417835296230416 0.386714004548147 0.26033781288826174
-0.14429613322322307 0.2085207161104356 -0.1586495273843077 -0.11030307491807781 0.6921657755194066 -0.10076231948912144 -0.106553606306253 -0.014015384186362173
-0.15480524290733053 0.3222459418699953 -0.007819130386086514 0.17744562655436208 0.4242785917126452 -0.08355309858379886 0.05253710143224918 0.8778160806512028

transform_generator.8.weight f8 [3, 64]
00000000: 7dac fae9 33e5 a73f 23c4 23fc f52d abbf
00000010: 8cdd b36e 38f5 b13f 66ac 7c98 7eb4 83bf
00000020: 5d76 5189 be31 be3f 5414 d992 0c6e 8d3f
00000030: 3236 fde9 a869 963f a86b 2ae7 1e03 aebf
00000040: ae4c 007b 87cd cabf 7af2 3300 4f19 863f
00000050: 2430 1614 03c5 a3bf 4eee 39c5 4f41 b93f
00000060: e4d6 7fdf c771 893f e29b 9fdd fdc2 713f
00000070: 08b1 7ece 291e b23f b431 5a65 4dab 9e3f
00000080: e871 8b9e 13f9 b23f 908c 9070 6c2c 93bf
00000090: 2325 e0b4 5ad9 92bf ae25 2ab0 9751 943f
000000a0: d595 6b82 cfee c1bf f03a 7122 eb56 933f
000000b0: b053 6410 bc6c b63f c5a2 fe2d c77f a33f
000000c0: 8b13 8102 4890 b03f e52c 226d 13a7 99bf
000000d0: 8532 c874 314f a53f 67f7 d96a f89f aa3f
000000e0: 2598 7a54 1d73 9ebf f538 9e8c cda0 88bf
000000f0: 1a14 4e30 685b 9c3f 0cae 88c3 01a9 98bf
00000100: 6640 479f 39c3 8fbf 3562 d5f1 693c af3f
00000110: f657 7a43 d17b a0bf 21df c76a 152d c1bf
00000120: 3046 7c1e 112c a33f 5cd9 a2e3 d655 603f
00000130: 362b 1255 3899 983f b6b4 08d0 ebee a63f
00000140: 82df aadd 840c 52bf ba4c 2c07 9c87 9dbf
00000150: 60a1 417a e57b 98bf 8bd0 be0b aae8 80bf
00000160: dcd0 e292 fe06 9b3f ac20 7c1a f625 7ebf
00000170: 0c9c 9f74 cfc6 9c3f 6bf4 e6a3 3e85 b73f
00000180: 6b8b 7298 0210 7f3f b3de a278 6c56 b23f
00000190: f62b 15d2 f557 a53f 05a3 9b10 1498 a23f
000001a0: d51f 49db 2e7e b13f e4af e84f cdab ae3f
000001b0: 6fe5 abbc 9e04 863f d089 0d83 f778 9ebf
000001c0: b983 5693 8ade 9bbf aaa4 ea44 5a75 b13f
000001d0: 88d0 12de 73f8 82bf 0612 22df 6dc9 b23f
000001e0: 283e faa1 9bf8 be3f 549c e6f1 c0ec b13f
000001f0: 3635 eaaf ed82 a33f 1060 fbea cd02 b1bf
00000200: 7ddb d910 ed62 d93f 5608 0ffc a0e6 a5bf
00000210: 2d00 51d0 6c16 ad3f d174 7eb8 67b3 de3f
00000220: bdc6 7315 ef69 e33f 6dc1 4e01 7ef9 c53f
00000230: c1a6 1294 8f70 0e40 0989 49c8 779d aebf
00000240: a749 78e3 c7df e23f f1c4 ad0f 3d04 99bf
00000250: 826a 6304 60b5 f1bf 4619 4b00 7655 fe3f
00000260: 9c57 148c 0dbd e23f bf7f 3aa8 59d9 a0bf
00000270: 49d2 6291 da56 e53f bd7b 3435 7dc5 df3f
00000280: bbc9 3e56 f87a c63f 68c3 2dad e1d7 e13f
00000290: 8f6f f373 a63b e23f a27e d0f6 15c1 c53f
000002a0: 1557 4be7 e2ce c13f f9c2 2d1e 8dd1 c13f
000002b0: 8dd2 70c4 c7fe e03f e271 a497 64f0 973f
000002c0: 6762 b596 1e30 a7bf 6c2c beef 41ad dc3f
000002d0: a08e 5e1e 134e a1bf b68b 47db 2a10 d73f
000002e0: ac1c d7c1 e465 e13f 8282 73ca a6b2 ce3f
000002f0: 0c23 1ca3 4e7e dc3f aff8 ddcc ab99 e03f
00000300: 6ca4 afe7 5467 a83f 546e 402c c8b7 e33f
00000310: 2c8e 57e6 eae3 bc3f 4801 40bb 3535 c4bf
00000320: 2b06 962c 18ae df3f b39f c740 0347 0340
00000330: 5022 2a2e 2c3e a7bf de4d d782 c547 aa3f
00000340: 227a 4a00 e4e9 c23f 8126 6de6 166f 7abf
00000350: 1944 fbf1 aa52 e03f 7e28 c09c f143 c83f
00000360: 6236 77ec 5efc d93f e386 c627 2597 c63f
00000370: 9c99 793f 92d3 db3f c288 b724 8555 da3f
00000380: cb87 036b 8383 67bf 306c 001b b811 e13f
00000390: cb9b 514e ee01 c13f 15c3 84cd 08fb a8bf
000003a0: ef3f 7ab3 0012 e53f ba82 3ce2 4c12 a6bf
000003b0: cab7 a7bc 210a b23f 1f6c 4487 8057 acbf
000003c0: 8e9e 3938 2012 c73f d231 569c edf5 e23f
000003d0: beb1 f5b4 23e5 ea3f ff6f e1f9 60f7 d73f
000003e0: 87dd 2312 d2b7 e23f 5fcc 8fb7 9e53 c6bf
000003f0: 5550 e5d8 4c96 d93f 6261 02c4 ee39 1040
00000400: cf6b b150 a9b4 af3f d574 9351 a3de bb3f
00000410: 7fd8 10b4 449c 883f c91a 8291 596e bdbf
00000420: a1e4 3851 32fc b93f 07e2 2f40 49f9 ac3f
00000430: bf98 52c7 0652 673f 7717 1813 fc03 a83f
00000440: bf01 0cc8 3cb7 a3bf 93d5 65b9 83af b1bf
00000450: bd29 b372 d2bc babf 2f83 a867 2e67 b2bf
00000460: 1b30 6a13 890e b23f 0744 1d3d b95a a83f
00000470: 2713 f9d6 6ee9 9dbf 4f26 f4c9 2b50 823f
00000480: 5101 17cc f865 b8bf a767 68b0 c2d2 bdbf
00000490: a7b9 8ffb 8bb0 b5bf 2705 c7b5 eb9b ae3f
000004a0: ff92 e143 9022 ab3f df04 3244 ef13 b1bf
000004b0: 7fc7 cf31 1555 bebf 2354 4eff fb9c b1bf
000004c0: 677d 82fe 32ae b33f c7b8 c005 f6ec 953f
000004d0: 3978 83a5 2d6e b33f 8d52 40c2 13da b23f
000004e0: af49 b6f9 d62b b13f 537e c585 fe04 a03f
000004f0: f3ce b628 1c63 bb3f db4a c0f3 a141 ad3f
00000500: 6dfd bbb0 0f08 b1bf 2f23 be42 d9ba b9bf
00000510: a796 caae 464f a5bf 674f dad8 68a6 b03f
00000520: 018e ad24 01f5 bf3f b74d 7463 189b acbf
00000530: cb38 0c6c 0a81 aabf d7b0 a426 c04d 9fbf
00000540: 63a6 3e09 2fda a33f c727 1ffa ca4f b9bf
00000550: b3aa 7b93 3ac4 ab3f f7b9 5634 e8b3 bb3f
00000560: 7520 65b0 0163 b53f 6b83 5554 aad1 a13f
00000570: fb29 2207 8e14 b2bf 0fe9 cf2e 2a77 8e3f
00000580: 75ac 10ab 6714 b23f bd80 7a99 4394 bf3f
00000590: 9f6e 3f9e 8e70 a3bf cd50 147b 8909 bcbf
000005a0: df78 9ac6 cd1c 7d3f 5fe1 5b0c b1dd 78bf
000005b0: d161 ec7a dc50 b33f dfee 2228 af68 9e3f
000005c0: 6b55 6ed4 7d99 adbf 2756 090b 00d7 b6bf
000005d0: 77b3 8ac2 48c0 adbf fd58 851c d554 b23f
000005e0: 5b89 1d1b 7aaa b6bf b3f3 7e02 130b bf3f
000005f0: eb2c cd39 e23a b7bf 1f0b ec75 cb0d 783f
0.04667055350486125 -0.0530850286758169 0.07014801695537737 -0.00962160971501742 0.11794653751845759 0.014370058280414856 0.02188743522792986 -0.05861755916449535
-0.20939725404659754 0.01079045981759318 -0.038612457468019806 0.09865282597632438 0.012424050815734451 0.004336349165874305 0.07077275554064866 0.02995034152131533
0.07411310787887937 -0.01872415005722111 -0.018407265939491723 0.019842500807987377 -0.14010042064835085 0.018886255242530348 0.08759665870850486 0.03808424412210835
0.06470155774247936 -0.025051406417827677 0.04161982107698229 0.05200172714556466 -0.029736002236539733 -0.012025457242796448 0.02769243998365676 -0.0240822101206231
-0.015509081052101869 0.061007796068853905 -0.03219465206818477 -0.13418834413436634 0.037445578547828595 0.001994056420780028 0.024021988098449763 0.044791573662544534
-0.0011016175764506368 -0.02883762162953183 -0.023910127245842516 -0.008256271823349223 0.026393869128427436 -0.007360421506526087 0.028102151387340554 0.09187690259473562
0.007583627833045318 0.07163122124881731 0.041686708350049104 0.03631651594861832 0.06833165029195183 0.05990449524355748 0.010750999577328028 -0.02975832688697172
-0.027216115229410785 0.06819690878423282 -0.009262948240895477 0.0733860654600634 0.12098095612076831 0.07001882463247117 0.038108279918655105 -0.06644904124129902
0.3966629662094688 -0.04277518345726665 0.05681171458172716 0.4797000219057966 0.6066813868512423 0.17167639793252523 3.804961354083247 -0.05979513473427473
0.5898169939776395 -0.024430231172520803 -1.10678102220723 1.8958644877871662 0.5855777488638867 -0.03290825060435009 0.6668522681780554 0.4964287776546675
0.17562774859614003 0.5576027281186784 0.5697815193811823 0.16995501090513182 0.1391261700979888 0.13920749639103017 0.5311011158688231 0.023377963786616614
-0.04528899755195397 0.4480748025168342 -0.033798787553022125 0.360361780300248 0.5436881814902299 0.23982701192200656 0.44520917824461104 0.5187586785612178
0.04766335800361152 0.6161843170443242 0.11285274623474412 -0.15787383692805634 0.4950008807573762 2.4096741734428746 -0.0453962141373877 0.051328823301129964
0.1477627755566156 -0.006453599408652645 0.5100912786675763 0.18957348016585124 0.40602849094725546 0.1764875835624969 0.4347882861969994 0.41146973214757676
-0.0028703276403669645 0.5334129836441033 0.1328714258590636 -0.04879024037143701 0.6584475999279656 -0.043108370415443756 0.07046709876860216 -0.0553550877686677
0.1802406572853567 0.5925205281687858 0.8404711279268253 0.3744738044968016 0.58493903677929 -0.17442687952970723 0.39979859524942657 4.05657488121537
0.061925212002016054 0.10886593572236632 0.012016808266803956 -0.11496505548903281 0.10150446398701486 0.05658940228017078 0.0028467304606066553 0.04690540059168218
-0.03850736562708645 -0.06908438946068989 -0.10444369602479404 -0.07188692122191463 0.0705342934035688 0.04756716605209737 -0.02921078860369444 0.00894197664321719
-0.09530596716559116 -0.1164972000773604 -0.08472514049183265 0.059783330859781984 0.05299807385089216 -0.06671042838026463 -0.11848576036552848 -0.06880164130264226
0.07687681878677709 0.021411747075199352 0.07589993754251702 0.07364009373152154 0.06707519146428952 0.0312881029410589 0.10698104852673022 0.057141362194803334
-0.06652925553134077 -0.10050733451329273 -0.041620453678928464 0.06503920835740261 0.12483222146470753 -0.05587078298608666 -0.05176575249616774 -0.030570032461739807
0.038773984793192516 -0.0988737927101787 0.05423148203211294 0.10821391370584608 0.08354197079199983 0.03480274466961116 -0.07062614130169458 0.014875726274102634
0.07062385488886654 0.12335608002695415 -0.03796811753974549 -0.10952052359454285 0.0071075475804305 -0.006070796580154385 0.07545259476717738 0.029696213555083225
-0.05781167238380188 -0.08921814221806611 -0.058107637164858277 0.07160694071112413 -0.08853877222057831 0.12126272974906165 -0.09074224387329692 0.005872530716035467

transform_generator.8.bias f8 [3]
00000000: 7c36 f54a 63a7 b03f 49cb 0239 3891 e23f
00000010: faae 20e8 36a7 b8bf
0.06505413608575766 0.5802270043844625 -0.09630149047069017
