models/livneh-livneh/QM_SST/2000/1980_1990/Wnoisy001d/model.pth (torch, 36864 bytes, 4 tensors)

transform_generator.0.weight f8 [64, 2]
0	0xc00ba81cb5210cf8	-3.4570860052787076
1	0xbfd8226f070bb2a3	-0.37710166633659464
2	0xbfe108d8414ba700	-0.5323296809485498
3	0xbfe43f770e223710	-0.6327471996353058
4	0xbfc08a0ebbb43a65	-0.12921318211779745
5	0xbfc4b7ff038c30d1	-0.1618651168176997
6	0x3fd1cd0a72990fd1	0.27813969794465004
7	0x3fd3817d5323438e	0.30477841490670066
8	0xbff02810bc7973b0	-1.0097815859109964
9	0xbfd8fae7a0ab14ac	-0.39031401338827254
10	0xbff217762ad98c71	-1.1307279275722772
11	0xbfc3fa53efe7f2d2	-0.15607690061724228
12	0x3fda46e8abc0f7fc	0.4105779340060278
13	0x3fca4303276550ef	0.20517005370732685
14	0xbfd7ff353bd0d78b	-0.3749516567362369
15	0x3fafb120b5f78b68	0.06189825269009114
16	0xbfefb58206abb1b0	-0.9909067278181762
17	0xbf6d1b532af6cfcd	-0.0035530685779239014
18	0xbfad7b38444bd39d	-0.0575807174081213
19	0xbfbd95f95175336b	-0.11556967009273726
20	0xbfeb98d8bdf1a580	-0.8624080381243147
21	0x3fc27783235c3695	0.14427222467968606
22	0xbfd0fe84da42a092	-0.2655346042106511
23	0xbfd14832e684fca1	-0.2700316668669505
24	0xbfe3398bae96d958	-0.6007746133753171
25	0xbfe2d03e4e3d0a95	-0.5879203346342644
26	0x3fd3f0480490dff3	0.31154060789003707
27	0xbfd06d89c21243b9	-0.2566856761196124
28	0xbfd6b2455d593ae2	-0.35463079563207434
29	0xbff6ff65d2a777b3	-1.4373529652288937
30	0xbfd675a1e508a8a3	-0.35092971197685524
31	0xbfd8210f138f6d9f	-0.3770177546518542
32	0xbffc920cbaaf9ee2	-1.785656670801409
33	0xbfd863d789b0d0fc	-0.3810938686977037
34	0xbf717b499b6a5cf5	-0.00426796677370266
35	0x3fa407a84af44439	0.03912092127769324
36	0x3fcea4ae7c4038bb	0.23940068308769988
37	0xbfd6eed9f5e04673	-0.3583283330091042
38	0xbfd35c3ab56dac19	-0.30250423162095924
39	0xbf83cc14cbd36c36	-0.00966659781481925
40	0x3fd2b2649107f7a5	0.29213823474116857
41	0xbfc958e023d3b641	-0.1980247664391062
42	0xbfc8c985c0c189ee	-0.19364997779764742
43	0xbfcef46455077123	-0.2418332495862013
44	0x3fd7f9f5bbf2acf4	0.3746313414983
45	0x3fbb8ab6fb2db16e	0.1075853694180233
46	0xbfd22015fe58c334	-0.2832083686690112
47	0xbfd507d7bf4662b6	-0.32860368422692987
48	0xbfa939986790772b	-0.04926754249775763
49	0xbfc8125c8d65a34b	-0.18806034950400838
50	0x3fc78c52e2bf537f	0.18396984168671435
51	0x3fb39bfa902f7c38	0.0765987970366816
52	0xbff6c161a8695e5b	-1.4222122744157761
53	0x3fcaa3cbfc24113a	0.20812368213240423
54	0xbfd321a446c47fa4	-0.2989283267106606
55	0x3fc3682b1455e499	0.1516164635939148
56	0xbffd7ba60167fe5d	-1.8426876120501199
57	0xbfd0bc9d349d13c8	-0.2615120900921366
58	0xbfa88ed0c45166f6	-0.04796459576091465
59	0xbfc5d6cc27527459	-0.1706175987245924
60	0xbffedebe64968a9e	-1.9293807915898138
61	0x3fdbe7295cf54190	0.43598398282940654
62	0xbfd95a9e01193bcc	-0.39615583522111986
63	0x3fc050593d74c736	0.1274520444945268
64	0xbfca735a0301e100	-0.20664525172083614
65	0xbfb525d17b75612e	-0.08260831131099586
66	0xbfa5ce998f5b60e7	-0.04259185671770798
67	0x3fcb4947a6f094bc	0.21317382480007108
68	0xbf3eddcff100704f	-0.0004709847135033794
69	0xbfc96c54cba7e3c7	-0.19861850685245327
70	0xbfac48bd7a519c25	-0.05524246328496244
71	0x3fd22a3942ef2368	0.2838271287587788
72	0xbfd7c318ebc04cb0	-0.3712827970750352
73	0xbfe0b934d43ce26e	-0.5226081986684912
74	0xbfc07da82471d1ae	-0.12883474139711154
75	0xbfd5c308239c23e4	-0.34002879598170765
76	0xbfc58c3415198940	-0.16834116964589363
77	0x3fa53572e92a4880	0.04142340751890661
78	0xbfeee9f4d17b08e1	-0.9660591212671329
79	0x3fb72c6aa88a17a2	0.09052149405223855
80	0x3f96c9230cf2a113	0.022251651444691833
81	0x3f969a4ee2e5c492	0.022073013876653898
82	0x3fc464cc9ff763b9	0.159326150997712
83	0xbfd78090a3632f2d	-0.3672219844418006
84	0x3fd2e8b1d2670ff0	0.29545255229117995
85	0x3fd7c95d9d6bdecb	0.37166538594418047
86	0xbfe5a3031dc5db50	-0.6761489469052808
87	0x3fb2462bec23a952	0.0713832332145661
88	0xbfe8d65a931281a1	-0.7761662361627267
89	0xbfe047a5a85ffa7e	-0.508745983941324
90	0x3fd36847db663579	0.3032397883005938
91	0x3fcbefa53bcc04c5	0.21825089854977456
92	0xbfe2a7cb931602e7	-0.5829828140996057
93	0xbf78db1649642717	-0.006068312699662368
94	0x3fd9e5eabec72310	0.404658018404505
95	0xbf93425850045878	-0.018807773479317252
96	0x3fa8bb7b7cb98cd5	0.04830537698287577
97	0x3fbfcfde72933b4a	0.12426557824367737
98	0xbfece82104db3d4e	-0.9033360571719784
99	0x3fd83cb3f5e0f892	0.3787050152931296
100	0xbfb9d1c6d624cf41	-0.10085718849296389
101	0xbfbd2d9a9522e25e	-0.11397710934660085
102	0x3fc7e73acb22fed7	0.18674406927856665
103	0x3fb89ad2da458a9b	0.09611242131135571
104	0x3fb751340c07ee8f	0.09108281415677254
105	0xbf92e267ae852f12	-0.01844179156004972
106	0xbf9e3acb084bada3	-0.029521152859997134
107	0xbfc302d2ff989cf6	-0.1485236881282856
108	0x3f6805c611f6b671	0.0029324406202338384
109	0x3fc9c0cfbdbc751e	0.2011966396757225
110	0xbfcec2431946b771	-0.24030340894881477
111	0xbfd6c781fabd9403	-0.3559269856107791
112	0xbfe3272400abe679	-0.5985279095759345
113	0xbfda9a6f2b90bbc3	-0.4156759190981882
114	0xbff12e77f52277c7	-1.0738448691913491
115	0x3fc40bcce427ffae	0.15661011829797417
116	0x3fcc3c8889c6699a	0.2205973313073855
117	0xbfcda1b45b6711dc	-0.2314973303129041
118	0x3fdf83ddba0dc43a	0.4924234692508126
119	0x3fc6aa5579c2e59d	0.17707317777039303
120	0xbfabbc9c369cdd80	-0.05417335669192891
121	0xbfceb80bbcb79496	-0.2399916335554379
122	0xbfd4b793fe7c5eba	-0.3237047181332674
123	0xbfc4933b7e8c7234	-0.16074317626125068
124	0x3fc9d1742160994e	0.20170451764824765
125	0x3fcc0f31bb3d4e1c	0.21921369211723707
126	0xbfd7b84a63f9d36a	-0.3706232048346495
127	0x3fc69af97046ff7a	0.17660444242755685

transform_generator.0.bias f8 [64]
0	0xbfcafa11af676585	-0.2107565027679749
1	0xbfe6274eedf030eb	-0.6922983786803604
2	0x3fc9957fbca8e348	0.1998748465719251
3	0xbfb192d7109f9b05	-0.0686468520722024
4	0x3fd3e48964c9fe04	0.3108237728374379
5	0x3fc34200c94d4311	0.15045175389470747
6	0xbfe0f8ada9f4b286	-0.530356246895807
7	0x3fe0ba090b6cbfd2	0.5227093909397758
8	0xbfd602bdbd96d4d9	-0.34391730799263837
9	0x3fbe6cef2b5939a0	0.11884970482171875
10	0x3fcb05421adb3309	0.21109796820965013
11	0xbfda462c75e54f61	-0.4105330611539469
12	0xbfe472540c2b59e0	-0.6389560926134514
13	0xbfc4a91cade12d22	-0.16141088953222843
14	0xbfe33bb9618b998b	-0.6010405450040691
15	0xbfdb4351aea0c3e7	-0.42598383000864576
16	0x3fea62712b1842ff	0.8245168534941455
17	0x3f68b47848396520	0.003015742231394683
18	0xbfda99541707e0ad	-0.41560842751597243
19	0xbfbb4dce7da9f436	-0.1066559845730389
20	0xbfda064d8b08300b	-0.40663469865171525
21	0x3fbbfa8c4d72a1e4	0.10929180994811066
22	0xbfeabd68f5897ba3	-0.8356213374753348
23	0x3fc265e2c1e36f84	0.1437343069763949
24	0x3fa60b8ef3c20eb1	0.04305693364679309
25	0xbfcc7bc8e2b01c29	-0.2225276095270783
26	0x3fca43fb88ff9421	0.20519966306088214
27	0xbfcb67a18ec9fe23	-0.2141000697338181
28	0x3fb5aef268fb6644	0.08470072806394408
29	0x3fc012ae34c18b01	0.1255700833890714
30	0xbf7fe3656b041605	-0.007785221256431556
31	0xbfca299e96097c33	-0.2043951256373205
32	0xbfd95afb1ecbb72b	-0.3961780358066444
33	0x3fb4215b79627407	0.07863399232378764
34	0x3f994af389b7afcf	0.024699979096041432
35	0xbfe6b9e40dc99688	-0.7101917523657031
36	0x3fd467cbcb7c3992	0.31883520957571776
37	0x3fb8b712ce590137	0.0965434793261054
38	0x3fd14ece1c098cfb	0.2704348825265723
39	0x3ff08b5e2ecda9bb	1.0340253666168866
40	0xbfc170db1de38635	-0.13625658950245315
41	0xbfe327df63edc883	-0.5986172630057499
42	0xbfb4f94c9b59de40	-0.08192900460004982
43	0x3fe95da2db69cd60	0.7926801953712292
44	0x3fd638dd8c0e435f	0.347220789693031
45	0xbfb3372f15c0adfa	-0.07506078988142653
46	0xbfd0d84cfa15d618	-0.2632019464720954
47	0xbfe67118cfdda6e2	-0.7013057765845725
48	0xbfe5db77fc77b872	-0.683040612316985
49	0xbfe3b92b6f6440d8	-0.616353719293353
50	0xbfc731a527393e97	-0.1812025491258182
51	0xbfc57fbb00acae35	-0.167960524873125
52	0xbfc77e3b198ea681	-0.18353976009284526
53	0xbfc850492fd1c6f9	-0.18995013079580028
54	0x3fad7fcfa46cca6b	0.05761574632778806
55	0x3fc1edbab83fd41e	0.14006742474126183
56	0x3fd09125c9d32c7d	0.25885910710776
57	0x3fcb8ec57dbebdc9	0.2152945388784089
58	0xbfc3c5f9f4685b17	-0.15447925981489938
59	0xbfe31047edb329de	-0.5957374231887191
60	0x3faed9dae23fb0a3	0.06025585185838735
61	0xbfd0e1d08907c1b5	-0.26378262884011444
62	0xbfb3119931f6fb1a	-0.07448728055804246
63	0xbfc87c6f7ceca631	-0.19129747009110212

transform_generator.3.weight f8 [64, 64]
0	0xbfd14e4b4d2388a2	-0.2704036954220418
1	0x3f977fd18278dfaf	0.02294852598990332
2	0x3f81219230c8eb90	0.008364812959475804
3	0x3f5c219669ba75e1	0.0017169922711340812
4	0x3fa751c66642180e	0.045545768721282895
5	0x3fe7bc3731be319d	0.7417255374471555
6	0x3f49ba64886934ec	0.0007851591952402737
7	0xbfcc97b0e0085f10	-0.22337923945519167
8	0x3fc310ea1df34b62	0.14895369017048227
9	0x3f7ca505e32a8782	0.006993315694360793
10	0x3fc8d9d3d4462472	0.19414756646100134
11	0xbfb0b4b4a97a5f31	-0.06525735032698489
12	0x3fc6b2a617699436	0.17732692855057203
13	0x3f56ad3e8a217c58	0.0013840780962011325
14	0x3fc7083e2a0f6c25	0.17993905118677947
15	0x3fb680c5f284112f	0.08790242358015087
16	0x4001ae216d1fed3c	2.210024693047357
17	0xbf9556a6eb69d7a7	-0.020838363760468017
18	0x3f64f55be53d0973	0.0025584025223974126
19	0xbfa69ca805fc9c89	-0.04416394303398714
20	0xbf4ac97a88126b96	-0.0008174751566402013
21	0xbf9177c912533a74	-0.017058507674671167
22	0x3f86e2355fc45278	0.011173645958970399
23	0xbfa1a32a5c597522	-0.034447978757024225
24	0x3f60d740f95892e2	0.0020557660125340863
25	0x3f59a3f70df7ba6a	0.0015649712221336384
26	0x3fd8cd74e4516e63	0.38754007622421777
27	0xbf6da7e15ca9062d	-0.003620090637270554
28	0x3fb1d8cfbc11f41a	0.06971453038745815
29	0x3f3611e208b041b7	0.0003367592659637946
30	0x3fe048e59dac2f55	0.5088985518973269
31	0xbfb01e710be858f5	-0.06296450176919051
32	0xbfb765137fc377d5	-0.09138604993083217
33	0xbf7660ea05b6d38e	-0.005463518285456893
34	0x3f66134e181a9409	0.0026947522427058818
35	0x3fa959ea98cf2431	0.04951413264604588
36	0xbf3c444832a9f2ff	-0.0004313160194795856
37	0x3f5e50c7db8042c3	0.0018503143055605277
38	0xbfb4318c9e49967c	-0.0788810621685005
39	0xbfe385e5f9346318	-0.6100950114515369
40	0xbf5a7cea8513eeb8	-0.001616696379925493
41	0xbf130f2dc6907806	-7.270542995782567e-05
42	0x3f69e02dd5c9f373	0.003158654710487979
43	0xbfd822fe085637fa	-0.37713576139583405
44	0xbfe41902d2b5f4a6	-0.6280531039661994
45	0x3f612e5e15c01f07	0.0020973050686768943
46	0x3fbb586016533bfd	0.10681725068137378
47	0xbf4f8a0a78bf3ff2	-0.0009625006800835208
48	0xbfb2fa2593b8e3cc	-0.07412943703174263
49	0xbfa9f92250f97f39	-0.05072886694392626
50	0x3fbab8677719b595	0.10437628419614094
51	0x3f752ad37e88445b	0.00516779532382924
52	0x3f48aa617f6a5edf	0.0007527328551359644
53	0xbfb3736bde299d22	-0.07597994016542889
54	0xbf625743d77bac09	-0.0022388768228345274
55	0xbf73fc146e9ba831	-0.004879073918099095
56	0xbfecf84e45b12785	-0.9053107606098229
57	0x3fd5d1421d8fb1ad	0.34089711081358126
58	0x3f533b511cfad447	0.00117381020747344
59	0x3f5b63ee2bd4ef23	0.0016717744723128778
60	0x3f5aa9621d2401be	0.0016272981779935493
61	0xbfbc66010789657b	-0.11093145784379559
62	0x3f59976150a98da2	0.0015619707434318749
63	0xbf97ba96e820bb0f	-0.023172719877204758
64	0x3fd78629d878aa0a	0.36756368770389314
65	0xbf7fb8c23d4d57bf	-0.007744559047599907
66	0x3fb870d60fd6018c	0.09547174345607895
67	0xbfc0228d9da88470	-0.12605447958143
68	0x3fc1bcbcb37e6349	0.1385722996172041
69	0x3faa814721b85a5f	0.05176756178496044
70	0xbfc047ca7090f138	-0.12719088074107687
71	0x3fc2adb4a4ed522a	0.14592607548787956
72	0xbfb62ca657411ca9	-0.08661880140526769
73	0x3fb84440bf24e519	0.09479145685772429
74	0xbfd1faa9c77ed045	-0.28092426759690553
75	0x3fa7fcaad5ecc3d3	0.046849573720812686
76	0xbf723c1e4626d337	-0.004451864488534344
77	0x3fa92646edf60ef6	0.049120155857080336
78	0xbfd890447174e977	-0.3838053806281531
79	0xbfb8d13b7cd2719d	-0.09694263265050158
80	0xbfd8efa4c55568bb	-0.38962668677198636
81	0xbf82d2d9d95cfd3e	-0.009191228814983018
82	0x3fb654671e2d3875	0.08722538458570901
83	0xbf8a17b894ebc171	-0.012740556759553741
84	0x3fc0fba9398df837	0.13268008528024364
85	0x3fcb16472571703a	0.21161736801411896
86	0xbf9612acefb62cad	-0.02155561650355924
87	0x3fca089e49b08ee4	0.20338801000718043
88	0x3fbbc1dd72090cda	0.10842689546648235
89	0xbfb440fd75145076	-0.07911666973478923
90	0xbfe36717b1516feb	-0.6063345397228636
91	0x3f7d897f3a11c41a	0.007211205463236526
92	0x3fcf1633cd435f7a	0.24286506197563168
93	0x3fbb3ee0362ebd0f	0.10642815897766787
94	0xbfeba744d20909b8	-0.864168558335499
95	0xbfb3780efb83eb9e	-0.0760506977129993
96	0x3fb588f9ad88b129	0.0841213272730711
97	0xbfbb99364cf28568	-0.10780658129308096
98	0x3fc26886015342a0	0.1438148027869106
99	0xbf80ad3dd1c7203f	-0.008142931904231541
100	0x3fb6dbe6d6a5b950	0.08929293384946857
101	0x3fbc0af47ba4d00b	0.10954216021201561
102	0x3f7e4447bc7280cf	0.00738933584139563
103	0x3fd2db5a0ff9e79d	0.2946381717698559
104	0x3fc87ce402bf0df6	0.19131136068436633
105	0xbf9692592b906c72	-0.02204264953989505
106	0xbfc4a722bfb03202	-0.16135057792452306
107	0x3fcb12414e830d0a	0.21149460157003147
108	0x3fd462defdeea746	0.318534610729888
109	0xbfbad6bb151ca5a4	-0.10483903184344584
110	0xbfb1dfa299d9893b	-0.06981865173432748
111	0x3fd0627eb72ac404	0.2560116566410786
112	0xbfab142cad7c3937	-0.05288829438915104
113	0x3fb7a7f8848b456f	0.0924067805856532
114	0x3fa5e6d3aa859317	0.042776693883558696
115	0xbfb4c6291e229a2c	-0.08114869104120065
116	0xbfb2a57fe1ef9bac	-0.07283782259001609
117	0x3fa42aa5fd0e39d7	0.0393878814130521
118	0xbfc6da3efdbef2b6	-0.1785353411668404
119	0x3fc41ec16179a2c0	0.1571885801270323
120	0x3fd9e5ea6ae9e5bd	0.4046579402998665
121	0xbfdda94b7f1d65c5	-0.4634579411845972
122	0x3fad1a2439534676	0.056840068814960995
123	0xbfc072d84d24762c	-0.12850478903503537
124	0x3fc3f488d0e50ef3	0.15590009880008146
125	0x3fba0873d496e4f1	0.1016914743439832
126	0xbfc36066391feb15	-0.15137937344828659
127	0x3fa50fe6d49cc0ce	0.041136945203449224
128	0x3fb43cfa301028e9	0.079055439695512
129	0xbf5ee86897d8d3ff	-0.0018864652078154351
130	0xbfba9c30217a4627	-0.10394573991131804
131	0xbfa9022d726931ff	-0.04884473821275392
132	0x3f90687c2231a5df	0.01602357824996214
133	0xbfb26032af8f1a81	-0.07178036485775331
134	0xbfa7690641def6ef	-0.04572314790810405
135	0x3fb3762b75c7b6b7	0.07602187753192423
136	0xbfa45c27cf2380f7	-0.03976559070156498
137	0xbfa2ced1bc60bd9b	-0.036734155888889584
138	0xbfbdf2e1aec5e49b	-0.11698732869071408
139	0xbfbb9837c279c755	-0.10779140947286454
140	0xbf76a8f50f525c7f	-0.0055322239542398
141	0x3fabbf345e00936b	0.05419315001953503
142	0xbfb25777cfcaa7a3	-0.0716471559814225
143	0xbf96607d8239bd17	-0.021852456162773395
144	0x3fbeeddbf5826779	0.12081694358712793
145	0xbfba2819a63b1c77	-0.10217438038226755
146	0xbfb91669f736a8e1	-0.09799825940595809
147	0xbfa15c98f250989b	-0.03390958745903668
148	0x3fb5135f9d23b2a7	0.08232686602031923
149	0x3fa5c899629d998b	0.04254607514194494
150	0x3fabd481dbd373f3	0.05435567673132615
151	0x3f7cdbb4caf22c7f	0.0070454656807995555
152	0xbfb72fd3e764d20d	-0.09057354354155951
153	0xbfae97d83413242b	-0.059752231938155674
154	0x3fa5fd138bf5f18b	0.04294644435410352
155	0x3fb216428593d965	0.07065215836687384
156	0xbfb2c643f82a00ed	-0.07333779152577664
157	0x3fb0b5f3ddeb5d23	0.06527637641862731
158	0xbf93b233fddecd07	-0.019234478349699404
159	0xbfba29feebd6b811	-0.10220330484182251
160	0xbfbfb576a1cf8027	-0.12386266184285032
161	0x3fa8480e76a1b03b	0.047424747449298775
162	0x3f7962fe345c29df	0.0061979226936821055
163	0x3fa65bdbc6e9e403	0.04366957476754154
164	0xbfaa383c87fd0093	-0.05121030006421381
165	0x3fa58dfe8bad627b	0.04209895567936869
166	0x3f976ed668581a97	0.02288374912134347
167	0x3f9234bd6ad73c57	0.017779311796229127
168	0x3fbe356325905d43	0.11800212542617765
169	0xbf87684df1a99dff	-0.011429413735824843
170	0x3f3f419f562777ff	0.0004769338612770068
171	0xbf93aa696f5492af	-0.019204757137361635
172	0xbfb85336bf84d5e9	-0.09501974273447157
173	0x3fae7d0b481df8ff	0.059547760537485665
174	0x3f72b414d8f694df	0.004566270289989321
175	0xbfb5e16d962d77ab	-0.08547100941129197
176	0x3fbebc568c44a237	0.12006131100191274
177	0xbfbcace792215fe9	-0.11201331441532116
178	0xbf9b4d0cfb5f9697	-0.02666111263524459
179	0xbfa741fbd81a0c0f	-0.04542529118500493
180	0xbf94b06b0dd0e877	-0.02020423194719753
181	0x3fb31044ac50d5ab	0.07446698386123411
182	0x3fb2d6a14fbae0b1	0.07358749577076897
183	0xbfae73e2755a968f	-0.05947787935774073
184	0xbfa90199460710db	-0.04884032230214227
185	0x3fa499655cccaff3	0.040232818201133023
186	0xbfbdfcbd7a863f1b	-0.11713775864904756
187	0xbfb0bb2f020760f3	-0.06535619544536413
188	0xbfbfe6789d3d798d	-0.12461046065207011
189	0x3fbabbe8b2592ce1	0.10442976335723443
190	0xbfbb3426206fa76b	-0.10626447955988076
191	0xbfbbfcc7ebefc511	-0.10932588110133092
192	0xbf9312e4a80be93f	-0.018626759297128755
193	0x3f7da29ef66b7f7f	0.007235165546006671
194	0x3f9b57c4623f1517	0.026701992508397412
195	0xbf9a93b49cbb44df	-0.025954076830036917
196	0xbfaed8ddb9d5d1a3	-0.060248307166065794
197	0xbf9a3a036481a8ef	-0.02561192799513717
198	0x3f8beb0bb4d4461f	0.013631907897919735
199	0xbfbd6021be9f73b9	-0.11474810508612067
200	0x3fb927a2800227df	0.09826102853017414
201	0xbfba0032d6c2ef41	-0.10156553023528848
202	0x3fbdcd2fbbf6b52b	0.11641214693982664
203	0xbfb3c684e0530241	-0.0772479102770456
204	0xbfbe1fb785d6a1e9	-0.11767146127261409
205	0x3f946b85705275af	0.019941410999867844
206	0x3fb22c197ad5522b	0.0709854054342222
207	0xbfa91c9f0c0bd277	-0.04904648801849459
208	0xbfb3592f3e9a51c5	-0.07557959822071954
209	0xbf92577bb9b2847f	-0.01791184731394368
210	0x3fb0707afe3d44a5	0.06421631533636914
211	0x3f95bb7b1df016bf	0.02122299547411077
212	0xbf83aaab3ce2e73f	-0.009602868838885946
213	0xbfbdfa8bcccec7db	-0.11710427999676602
214	0xbfba8e9fe49d9339	-0.10373877841409475
215	0xbfb37ce8153a0c87	-0.0761246730635766
216	0xbfb1c62e4e4340db	-0.06943025026999143
217	0x3fbd2096b5b6220f	0.11377851425471185
218	0x3fbd138de9e1ce35	0.1135796257020097
219	0x3fad0b36b5032b77	0.05672617873786739
220	0x3fb5fafef70cfc65	0.08586114436637755
221	0xbf99656c0e489037	-0.024800957080643306
222	0xbfbfd523d55bbee1	-0.12434600790924889
223	0xbf95645f44309ddf	-0.020890701806051012
224	0xbf51ceb2e3373a7f	-0.0010868784855692368
225	0xbfb947cee4810899	-0.09875195578300335
226	0xbfa75217262aa8af	-0.04554817524815868
227	0x3fb73bc7e4739c67	0.0907559330695321
228	0xbfb626d26ff9f6e1	-0.08652987703132055
229	0xbfb72b8fc5e7f7b3	-0.09050844747250046
230	0x3fb290d9dca2bd67	0.0725227512036689
231	0x3f92a14fcb42a5c7	0.018193480282809007
232	0x3fb8574dfdeab319	0.09508216332569609
233	0xbf90990f8d936c37	-0.016208880439858766
234	0xbfaf6ded0d468d77	-0.061385543699794924
235	0xbfbed652e87dba47	-0.12045782257130454
236	0x3fa643aad2c57d27	0.043485010365424785
237	0x3fb03523eff325db	0.06331085785054517
238	0x3fb634976045780f	0.08673997974753454
239	0x3f92e24eb21a1dc7	0.018441419239506176
240	0xbfb8ec284429c8df	-0.0973534742750277
241	0xbfb9a60652b2a635	-0.10018958586683697
242	0xbfafe7e64baead4b	-0.062316128481450926
243	0x3f95b461c7d62537	0.021195915052463845
244	0xbfbecead34ea14ef	-0.12034113447051074
245	0xbfb5289c375949cb	-0.08265091277397756
246	0xbf9dac36d3c0d9f7	-0.028977257418057758
247	0x3f9a30241b4ac0df	0.02557426849915678
248	0x3fafb290eed35693	0.0619092265639384
249	0x3fa1a54a5341ba1b	0.03446419016187382
250	0x3f5af7ee7b52b5ff	0.0016460255549576306
251	0xbfbb317e3d417555	-0.10622395511150746
252	0x3f9d0f99e4bb347f	0.028379826150559225
253	0x3fbdc3fdd0bd3a8b	0.11627184244319204
254	0xbfa5bc9da1e7eb4f	-0.04245464898482131
255	0x3fbac906b34fce45	0.10462991597869926

transform_generator.3.bias f8 [64]
0	0xbf7021c9b189a388	-0.003938472619304252
1	0xbfd67e013de17961	-0.3514407257370263
2	0xbf62139e14f74340	-0.0022066199814862186
3	0xbfa126154953a358	-0.03349367637731032
4	0x3fb72a352f7fac3e	0.0904877892459561
5	0x3f9f3a692fd78bc0	0.03049625734810113
6	0x3fa2fa44b037526c	0.03706564570498902
7	0x3fb803f7c1ee0b38	0.09381054386726084
8	0x3fb4d41f1de05ac4	0.08136171798137598
9	0xbfb5bba24297820c	-0.08489431501175931
10	0xbfa78d1683894f88	-0.0459982905928476
11	0x3fbcf2073a92a348	0.11306805782318208
12	0xbfb993def3e263b4	-0.09991258100707406
13	0xbfb0dda15c9bd8a6	-0.06588181029278192
14	0x3f6bf65e1317ebc0	0.003413375605985064
15	0xbf981ecbfae610c0	-0.023554980457917152
16	0x3fa23a0ccd96e874	0.03559913644444715
17	0xbfb1c2c55eb6f5d6	-0.06937821924562768
18	0x3f90e65654cea208	0.016503666807382827
19	0xbf91bca0ac7737a8	-0.017321119810553093
20	0xbfbace4547c911ba	-0.10470993998121161
21	0x3f876114e95bc590	0.011415637370620485
22	0xbf8fd4bce078f020	-0.015542483902315551
23	0x3fbb0b8d5b6331f8	0.1056450222124069
24	0x3fa484014adaa5f8	0.040069618594610945
25	0xbfacf9180c8b629c	-0.056587935954387464
26	0xbf6d6a6b27fae9c0	-0.0035907833951942247
27	0x3fb3ddd8c9cc330a	0.0776038639707616
28	0x3fb2a48b34e83856	0.07282323877027017
29	0x3f5363e69d974b80	0.0011834861855859191
30	0xbfa8d6aa1f367fb8	-0.048512760458151616
31	0xbfa36e6e4f3341bc	-0.03795189587401945
32	0xbfb5ab42023bc206	-0.08464443735625346
33	0x3fb32ac8055f6c3a	0.07487154132051979
34	0x3fb13df1ca45ff52	0.0673514479476556
35	0x3fa4208098b85f24	0.03931047310123706
36	0xbfb246366d9b33ea	-0.07138385940488914
37	0x3fa879d678c30d74	0.04780454849381047
38	0xbfb3becb50f964b4	-0.07713003851803785
39	0xbfb2f8ee40937616	-0.07411088062823298
40	0xbf99f35fe590e5a8	-0.025342462908360425
41	0x3fb74dec7410cc38	0.0910327704776116
42	0xbfb7f6beddc03a2c	-0.09360878862228422
43	0x3faa1af567fab1d0	0.05098692793157833
44	0x3fb4c21d38836602	0.08108694677084574
45	0x3fb4ad660c582bcc	0.08077085305573845
46	0xbfb3e117c45f7eaa	-0.07765339416755049
47	0x3faffed482258444	0.06249107445433613
48	0x3fa92408c1d39218	0.04910304418607242
49	0xbfb832ab14d2825e	-0.09452313669545151
50	0x3fb4cdd78117034a	0.0812658968125223
51	0xbfbcd4b6305d368e	-0.11262072258724684
52	0xbf9a02f9512834a8	-0.025401969507630767
53	0xbfbd008b9b318344	-0.11328957117940514
54	0xbfa21a1a3c4307d8	-0.035355396133595896
55	0xbfa3b6f333cd7218	-0.038505172799635
56	0xbfb19a5d7897267a	-0.06876167482473675
57	0xbfb6191efe2f173e	-0.08632081704771807
58	0x3fbd34b822df2fae	0.11408568240511727
59	0x3fbff02a6fb48b82	0.12475838877848669
60	0x3f632afbdd3c5f80	0.002339832231779526
61	0xbfb16ef5115934ae	-0.0680993239740981
62	0xbf833e78dfb260a0	-0.009396499945339365
63	0x3fb6d970077558a8	0.0892553346833177
