models/GFDL-ESM4-livneh/QM_FNO1d_layers4/2000/1980_1990/livneh_bci/model.pth (torch, 341428 bytes, 14 tensors)

transform_generator.fc0.weight f8 [64, 3]
-0.5617006733952163 -0.5515038436484437 -0.5557570161644344 -0.5682705664719333 -0.01660223495136437 -0.10332339803158415 0.598056017118109 0.5634846517240545
-0.5557462235985569 -0.4757534895704232 -0.3281698728131254 -0.12424325752297498 0.4470140715519836 0.43090688735666804 -0.1740344072842493 0.18867922008223317
-0.4237439426870999 0.28819443306121095 0.21383263525228652 -0.007669866946109232 -0.5863659981620378 0.2631997406815592 -0.16952277321617906 -0.28444074811682146
-0.591950438765613 -0.582565052251358 0.4125221395105316 -0.4508785705598395 -0.3209368336854357 -0.49203211949068226 -0.35758027824441657 -0.2712636875808265
-0.3831817897755215 -0.281408240174587 0.06304578685965677 0.1955619435990671 0.4747914934843009 -0.4714717472155536 -0.2934660269540773 -0.13158069873609426
0.44842771452362873 -0.5085620538714034 -0.02999832315261483 -0.19128459895282707 0.6238108160633743 0.47002068113014245 -0.06544762194173494 -0.4350664791230203
0.2368180186491461 0.14445671433596746 0.31831067486617426 0.040957534182250774 -0.3971855180625433 0.2955379120460936 -0.07451234634134214 0.5035312862674444
-0.262455813684275 -0.21784092421416337 0.07487133569498777 -0.18830463334483455 -0.6356488585331038 0.1886155400525393 -0.31353083859418734 0.20087795850588508
-0.12182390075651871 0.015474383433919534 0.09287401535033862 0.40939472181123626 0.25905070377943606 -0.4609213970849046 0.01638825748836294 0.520114148891525
-0.18423053447871396 -0.44895743141893313 0.05550567777483212 -0.620195460357393 0.022137667247811167 0.24842781405039668 -0.46766690166288755 -0.2749905548226562
0.054697519641490604 -0.030866760431717242 0.15553895247817856 -0.4651870533828752 0.5361418696140711 0.5072272379850776 -0.23961429266112272 0.323582024092132
-0.4915226470433452 -0.4691561773608603 0.5666250281891655 0.3278185264160061 -0.5386828985567994 -0.06443131512731635 0.43735599156783606 -0.2987144727659804
-0.011413515500336872 0.04413970241311958 -0.5260711386091186 0.583589659123469 -0.10447858386940534 -0.09217440529969873 0.39718475347602333 0.10979289640282133
0.34370042689023944 0.10964097017431648 0.008764251187970435 -0.07192074876502302 0.01928084425887457 0.10457010540635378 -0.03206271020204756 -0.40801904062588185
-0.479675130060467 -0.9110427787877573 -0.38436375222264996 0.2417547821122624 0.5422171748245992 -0.5019283199567938 0.4859250998840054 0.033650036828995894
0.1957792422069491 -0.30024010601082496 -0.21187620037450416 -0.18463461692733563 0.30756388676819996 0.16081420287348094 -0.30911175655900663 0.25028259569782485
-0.23420282736088377 -0.5985538025951548 0.36403476651169925 0.4606037535286072 0.017948590517446763 -0.0186003726168269 -0.4562165609478258 0.5357361448793551
0.028991703695430575 0.38168616184172544 0.29965232759152616 -0.2872349526688044 -0.5126798964413531 0.24452511786650774 -0.08747762893600992 -0.28610169787554396
-0.23914144611974064 -0.018995839162840356 -0.1708316963958733 0.020426324977745134 -0.03023713086842766 -0.00750199812626492 -0.4798282326352072 0.09324606369550376
0.2668899999985099 -0.16807544845394387 0.08267001624709275 0.3190435246203757 0.0019144172835363713 0.2910911837198288 0.1418002040888548 -0.0743195937848188
-0.24902140742309845 0.5566998410189217 0.001912338749512534 -0.21814568592231792 0.44079079537513455 0.19407847901389608 0.47574526290529506 0.6439285710889724
0.08314280988296227 -0.3337825460701709 0.2136638625935468 0.6144812935861586 0.37555712988286305 0.4731758472311459 -0.17907316891795452 -0.4064121246834338
-0.5621402767694789 -0.6081521095259139 -0.15785258875013292 0.09990851046341832 0.07899026359954751 -0.04867132598709627 0.2628958530628703 0.381708246329134
-0.22544239225543455 0.13269482888037637 0.27075261781430043 -0.4450406333869824 0.1796864015967991 -0.26677753302273394 0.15427437272531702 -0.0776186504963129
00000000: caf4 cbb0 73f9 e1bf dfd3 8263 eba5 e1bf
00000010: 7b5c 1ef0 c2c8 e1bf d7d7 48c1 452f e2bf
00000020: 8060 a020 2d00 91bf fd0d 75f7 6673 babf
00000030: 6d58 565f 4623 e33f 0b7d def6 1008 e23f
00000040: da66 e74d acc8 e1bf 0c6c aac3 be72 debf
00000050: 5af3 d035 bc00 d5bf 6b47 cff7 67ce bfbf
00000060: 86b9 8ae8 e09b dc3f da5a 347b fa93 db3f
00000070: 7211 d56b c246 c6bf a90f d803 a426 c83f
00000080: 4007 eee9 9e1e dbbf 44c7 3810 c771 d23f
00000090: c6ef 9c27 de5e cb3f d2de 2b3b 706a 7fbf
000000a0: 85f4 32a0 82c3 e2bf 25c0 a2b9 43d8 d03f
000000b0: e902 7217 ecb2 c5bf f9ef b3f7 4634 d2bf
000000c0: b13c eb0b 42f1 e2bf a3c9 e676 5fa4 e2bf
000000d0: 38b7 8442 c366 da3f 2c64 c1ca 31db dcbf
000000e0: ecaf 30a5 3a8a d4bf a0d1 7249 747d dfbf
000000f0: 4347 3064 98e2 d6bf f320 b05e 625c d1bf
00000100: 198d e0e9 0c86 d8bf 24fc 17b5 9702 d2bf
00000110: df7a b6c8 c423 b03f 04d3 0c7c 2c08 c93f
00000120: cbc7 3bdc fb62 de3f 90d7 d1d5 972c debf
00000130: ea4e 10bb 25c8 d2bf fd9c ede6 a2d7 c0bf
00000140: c6ef 1f28 0ab3 dc3f 15a8 abed 2346 e0bf
00000150: f853 8063 e1b7 9ebf 168d 5d84 037c c8bf
00000160: b343 bc19 42f6 e33f 6172 799f d114 de3f
00000170: a939 d7e3 2cc1 b0bf d0d4 da12 21d8 dbbf
00000180: 0cce 9986 0d50 ce3f 2a5b e1bf 8e7d c23f
00000190: 6625 a1bc 335f d43f ded5 accb 62f8 a43f
000001a0: 0e80 a1ce 7c6b d9bf 86d4 bdd8 17ea d23f
000001b0: 9d2d afba 3d13 b3bf f201 e1a4 ed1c e03f
000001c0: 65d1 1a78 13cc d0bf b578 9d1e 36e2 cbbf
000001d0: 64c2 3792 c42a b33f f65e f3c0 5d1a c8bf
000001e0: 0f76 6446 3c57 e4bf 2782 05d4 8d24 c83f
000001f0: d52a 83a6 e310 d4bf 1090 2273 5eb6 c93f
00000200: 5fd2 9ee5 d92f bfbf 1812 3296 08b1 8f3f
00000210: acf1 936a 97c6 b73f ce64 55eb 8533 da3f
00000220: f442 2f67 4994 d03f 2367 a075 bc7f ddbf
00000230: c5c4 cd57 15c8 903f 95a1 756d c6a4 e03f
00000240: dc5d 41bc dd94 c7bf 0964 4ff3 b7bb dcbf
00000250: 1808 927d 3d6b ac3f f99a 6b26 a4d8 e3bf
00000260: 9a37 5bb3 41ab 963f 4bb1 618c 7bcc cf3f
00000270: 7b14 0428 41ee ddbf 6205 ebfb 7199 d1bf
00000280: 6fa6 1034 5001 ac3f 09cc 593a 899b 9fbf
00000290: 92ed 124d b3e8 c33f df54 33eb 9fc5 ddbf
000002a0: 8747 80fe 1228 e13f 8329 d99d 343b e03f
000002b0: ea1c 515f aeab cebf f225 c360 91b5 d43f
000002c0: 65d9 9267 1b75 dfbf 23cd 9ea1 a706 debf
000002d0: 855c a5cf ca21 e23f b9b2 7e8e fafa d43f
000002e0: f9e8 06eb e33c e1bf 4f62 4f17 927e b0bf
000002f0: a195 1ffc a3fd db3f 0ecb d74e 231e d3bf
00000300: 4260 731e f85f 87bf 3e98 a3a4 7a99 a63f
00000310: be42 f623 93d5 e0bf c402 8738 c4ac e23f
00000320: 30fb d9c4 1bbf babf 445b 4ae8 bd98 b7bf
00000330: d48e a999 796b d93f 9a1b 6223 631b bc3f
00000340: 2b59 4713 30ff d53f 764d 333d 6e11 bc3f
00000350: 8a62 cfe1 fdf2 813f cc7f d9ef 6569 b2bf
00000360: 05e2 1f8e 5bbe 933f 460c dc3e 1bc5 ba3f
00000370: b353 7a07 866a a0bf 938a e8e4 fb1c dabf
00000380: b61c 1451 ffb2 debf eacf 842f 4327 edbf
00000390: b01a 646c 6a99 d8bf 6371 6919 d2f1 ce3f
000003a0: f86f 26d5 d759 e13f 27d2 e4fa cb0f e0bf
000003b0: 67ab 1397 6519 df3f ac24 61df 933a a13f
000003c0: 70db 4151 4b0f c93f 76e6 1047 2237 d3bf
000003d0: ec61 b463 c21e cbbf 58c9 b46c 1ba2 c7bf
000003e0: 7b67 c670 20af d33f e175 094f 8f95 c43f
000003f0: 17b9 4ead 7cc8 d3bf f2ed d14a a104 d03f
00000400: 46a7 12b6 5bfa cdbf 395d e14d 5a27 e3bf
00000410: 6995 317a 584c d73f 5d7e 742a 887a dd3f
00000420: b77d 2085 1d61 923f 80ab 54e0 f90b 93bf
00000430: 3687 4af2 a632 ddbf a357 b120 c024 e13f
00000440: 3ea6 e84c 00b0 9d3f d68a 9ccb 8b6d d83f
00000450: ac41 cbf4 802d d33f 86c2 feb5 0e62 d2bf
00000460: 6d08 91ab df67 e0bf d7c2 245c 994c cf3f
00000470: cd6a 6913 ef64 b6bf 7827 ed7e 7d4f d2bf
00000480: 4ce9 19d9 2f9c cebf 6d9f db2f a573 93bf
00000490: 26fb 9122 d0dd c5bf 690c 0777 a3ea 943f
000004a0: efae d180 7bf6 9ebf da1c b649 6aba 7ebf
000004b0: 8b67 b779 81b5 debf 448c 0d5a f9de b73f
000004c0: e3df 67cb b914 d13f 7563 2f0d 7f83 c5bf
000004d0: fc1b 24b8 dc29 b53f 77af 0f88 356b d43f
000004e0: 2878 eae7 a55d 5f3f 06c2 8eea 3ca1 d23f
000004f0: 565a 9053 8226 c23f 49ff c1e0 9b06 b3bf
00000500: b56b 71f8 eedf cfbf 5cab 5b2f 7cd0 e13f
00000510: 3c7b d518 ee54 5f3f 4261 66a5 32ec cbbf
00000520: e2e5 a098 ea35 dc3f f86d 1c48 90d7 c83f
00000530: 36ee 5942 9c72 de3f 5030 3917 109b e43f
00000540: 4e49 58e1 d848 b53f 3435 d677 b15c d5bf
00000550: b291 1663 5659 cb3f 389a 7eac d4a9 e33f
00000560: ec18 a8c5 2009 d83f ee59 4759 8348 de3f
00000570: 4ffe 0b9e deeb c6bf 70a5 0d00 a802 dabf
00000580: 59a8 0f9b 0dfd e1bf de07 ad69 fb75 e3bf
00000590: 36a8 227d 8334 c4bf 014f 08a9 9a93 b93f
000005a0: 37cb dcb6 b438 b43f 562d bcb2 72eb a8bf
000005b0: dd2d ca20 49d3 d03f 9637 a66c e86d d83f
000005c0: 823e efda 4bdb ccbf 36dc 31e7 24fc c03f
000005d0: 5767 b4c9 0254 d13f 1e72 72b5 8b7b dcbf
000005e0: 4e74 32c9 f6ff c63f 13f9 e812 e212 d1bf
000005f0: d6aa bb3c 43bf c33f 39fa 70dd d0de b3bf

transform_generator.fc0.bias f8 [64]
-0.48210283931438935 0.20819095468596788 -0.13166330466066975 -0.40643189468624513 0.3477929675654238 -0.3046361492052037 0.3936277046310165 -0.3009500524896967
0.5150470707125336 -0.15049040247963055 -0.4987328091258325 -0.4050792731392987 0.6081573340748914 0.48103871275562554 0.28852026757696353 0.37172232264883526
-0.24200838138731903 -0.21928495803097056 0.3017948111660347 -0.6467184536371806 -0.295087452481924 -0.31295809629078375 -0.0018049736453695272 0.0033722458945846198
-0.08193296124924594 0.34030529945191457 -0.09412821891608111 -0.25959513028650016 0.30034520989248786 0.44222826899903356 0.4715501439331283 -0.3825604755178341
-0.39634684114876106 0.1755030267845266 0.16659799964761143 -0.5770189341220313 0.40638909470761914 0.1556433673977314 0.28235876838749857 -0.05300234519988367
-0.049233649115920354 0.2884668188485282 0.3011410232824145 0.08701037436065248 -0.6482008680221968 0.2694708393484235 0.5609596719137997 0.20031106383772626
-0.4909356680545027 0.3422614087312506 0.26186591645346113 -0.5296155565411004 0.23853397118903963 -0.40270890890984234 0.4861415771138513 0.18446301769580445
-0.04411784514829489 0.4898768379094922 -0.5030008161287994 0.2525866885266506 -0.3668931463364953 -0.4638197068030667 -0.3555333918946383 -0.12570626095637372
00000000: b87f 0ade c5da debf 0681 d94e 00a6 ca3f
00000010: 03e9 ccd9 57da c0bf a9a3 eeeb fa02 dabf
00000020: e739 5e6f 3d42 d63f a901 819e 287f d3bf
00000030: 1625 8c41 3231 d93f 050e 4b02 c442 d3bf
00000040: c08c 93fe 437b e03f a185 81fe 4443 c3bf
00000050: 70cf 2804 3deb dfbf 64ed 9a9d d1ec d9bf
00000060: 1693 955e 0676 e33f 694d d998 56c9 de3f
00000070: 837a 5eb6 1d77 d23f f712 be6c 4cca d73f
00000080: 974d b571 21fa cebf 4fb6 9f8d 8711 ccbf
00000090: 1ce1 032f 9b50 d33f 9cec 02e6 eab1 e4bf
000000a0: 17ab 777b b6e2 d2bf e696 2565 8107 d4bf
000000b0: 136f bab1 9b92 5dbf f519 9aba 1ca0 6b3f
000000c0: 95aa 07fd 8ef9 b4bf 1e4b f3e0 8fc7 d53f
000000d0: 7613 e075 c918 b8bf 1602 b2e4 349d d0bf
000000e0: 47e7 7f1d db38 d33f 2cec 2dcc 774d dc3f
000000f0: f17a a7a7 e02d de3f f6d7 c5ee de7b d8bf
00000100: 66d6 2624 bf5d d9bf 21bc 3118 e276 c63f
00000110: a762 0850 1553 c53f ca42 6769 f076 e2bf
00000120: eb18 ce67 4702 da3f 4302 6832 1fec c33f
00000130: 2ba4 fd82 2a12 d23f d056 7d96 1f23 abbf
00000140: 9598 a121 2735 a9bf a0e0 3b88 3d76 d23f
00000150: 2fd8 9eff e445 d33f 1eae 4ad8 4f46 b63f
00000160: db9c 2cbf 0fbe e4bf 9b89 8e9e 023f d13f
00000170: 40d4 a7b2 61f3 e13f 5de1 1afe caa3 c93f
00000180: e0f9 ae6f 7d6b dfbf 45c0 4b65 9ce7 d53f
00000190: 24b3 c642 69c2 d03f eb7f d952 9cf2 e0bf
000001a0: 9cf7 9efa 4788 ce3f e4d6 6496 fbc5 d9bf
000001b0: b882 bb8f f11c df3f f197 29f2 7b9c c73f
000001c0: 44f1 293c 9d96 a6bf 08e8 7861 245a df3f
000001d0: d94d e42a 9518 e0bf 2d1f a85b 612a d03f
000001e0: 1413 2964 2d7b d7bf 2068 fdd9 38af ddbf
000001f0: f6b2 b420 0fc1 d6bf 78e3 da8b 2417 c0bf

transform_generator.w0.weight f8 [64, 64]
0.17263863321980588 0.10274570428737614 -0.11185374936983541 -0.0030257652425223287 -0.023581251246734908 -0.05589793046954256 -0.005196067274419514 0.006890219873813877
0.14325778990315863 0.16720764031738145 0.03990881825321449 0.07247533451273187 -0.2951286303109753 -0.13078844479251478 0.05231397639280115 -0.06412067479763693
0.039305844193797054 -0.033574708481911214 -0.09290214049266865 0.14382263099413103 0.007410447560424711 0.014379569846593098 0.028430608365562923 0.02652888797526072
0.13796743796457878 -0.12471271485459469 0.019503894424484206 0.0649068059040708 -0.1275683461441076 0.07184757955700558 0.06174616479914857 -0.051071943471918145
-0.059025141950964984 -0.01375052429488612 -0.09994050975408152 0.16134063735871448 0.05823463381620169 0.07480261363258128 -0.17992598477523122 -0.1550064254419814
0.10112900204289688 -0.017288241266260797 0.05175018761752431 -0.0716994839880091 0.12221353261299514 -0.1093513441639086 -0.11301744275302597 -0.15019204677564552
0.06130454227164718 -0.014954065120543486 0.0008935528908291087 0.01137178621339826 -0.014036046593112661 -0.05217528811899821 0.10646296812148137 -0.05549880366004671
-0.020755998511028675 -0.12497831870856335 -0.06344495967915777 0.005401306378783154 0.18084666000510916 0.12945032196687825 0.0870184469810395 -0.07358644200207572
-0.09716748143378785 -0.13537567581822227 0.1080920262585245 0.06142485485514493 0.1725144238648835 -0.015112495785605662 -0.09389584226389208 -0.06101983424474924
-0.12463638811889194 -0.10662937400418611 -0.12985494172732046 0.11741622226305255 -0.06028133336188096 -0.06435584266543841 -0.008259207742286365 0.12365926263968999
0.015595859047751128 -0.06482676153785577 -0.07218081945930928 0.10192961525282349 -0.06661041999782934 0.05582127270080741 0.14002233259851907 0.013166993228292963
0.0026082303493726164 0.010001684899697728 -0.16821807624356958 0.08711900707712496 0.14678758617408735 -0.09516692817353761 0.07706855455890874 0.17793791161818395
0.12829017186410188 -0.042684540776717475 -0.052969393287642955 -0.04708988619400263 0.056408956354072615 -0.008416973482741508 0.12641132294130708 0.12824986762443208
0.060664754386659275 0.16157957733541667 0.009481355078877384 0.09274113143912194 -0.05143514190254349 0.10733243187424454 -0.17642192771211715 -0.08887729849338827
0.019595847792427085 -0.0561964077446031 -0.04093567179524969 -0.033346061074465194 -0.08825438357879044 0.04970186527858637 -0.049923942484209484 -0.08466025224642158
-0.039615938815740055 0.05137705971615014 0.022993462359394957 -0.1639974698343711 0.010332372915896804 0.008683042043188365 -0.1468428753808434 0.16480280765307856
0.14378298743659082 0.13931895326154498 -0.17270685872295505 -0.05594778327567842 -0.029580889857140635 0.08097994887294316 0.1098924367366748 -0.1313981514717167
0.018923890341009643 -0.02605589184525972 0.01939159825363714 0.061611944141784544 0.041914770739424394 -0.007450964030780211 0.0981405266785762 0.016654920057800896
-0.09222478556725615 -0.035451789481755626 -0.16713097180980344 -0.008128167541732942 0.08958913500560114 -0.005793397407721417 -0.12116008551123417 0.005219518765852207
0.1801312401778278 0.09895197623824076 -0.05276552474879733 -0.08999162342551018 -0.0010384321119037932 0.046160271518702244 -0.11351843568539445 -0.02971976807493
-0.06409172591324952 -0.06676471987994148 0.046969018315116934 -0.14776884327344664 -0.04004797920988361 0.16476209778938014 0.0364171239344499 -0.08896163332580607
-0.015918023119493703 0.0042318240410262374 -0.00026580012881966106 0.06459670586742042 -0.09971629705729906 -0.002746147188638489 0.13589620769909616 0.1496526258560524
-0.17886963648494486 0.05433645231708694 0.14792727628283706 -0.12898309684514536 0.019098128632076584 -0.01725970931610333 0.13686296385637864 -0.13729652712758086
0.06203372872365543 -0.1591506999464226 0.1543162625083392 -0.007901118454049155 -0.02407944102339208 -0.07915739436294626 -0.02113402937218149 -0.0726249458607135
-0.014077726218577303 -0.02018311668467507 -0.08686049295510774 0.07964439846262769 -0.08312578361799969 0.01802813769151862 -0.004856973980914916 0.025570574332511177
-0.0797821728105242 0.09090432716653751 0.16454491605145483 -0.02840916289468141 0.0451656374699351 0.13789831792768123 0.04907127246934729 0.1517196677374832
-0.11170538172774104 0.09012382601580764 -0.03172966912989072 -0.17039879473857902 -0.04671280254982979 -0.08616575988168108 -0.09115798527253136 0.05086761827090673
-0.03183156510482703 0.010654272630753973 0.10031311002632443 0.05428337350056301 -0.05351584510837832 -0.008266663607914839 0.1405493939316362 -0.047018318429515704
0.011227306836009518 -0.13479240031971146 -0.08462414916104723 -0.06736538288948427 0.10305992445458104 0.11247185759196097 0.10976757225495527 0.0190213186097742
0.24074513630864808 -0.0847963367827267 -0.06098376811095982 0.007330032086056384 -0.1445783811789674 0.0846896454865354 0.07114399496896755 0.1068238587976873
-0.08739208498335037 0.13055010608580958 -0.022398561265535324 -0.09147868629891327 -0.12483125586839049 -0.15411963250942512 -0.05509706013474574 -0.10535207647185367
-0.07653039226039435 -0.11762156032937372 -0.0048986313885011805 0.10627053226507485 0.013234149457461054 0.05705643429442515 -0.1700912002268207 -0.031512437277148656
00000000: 2c44 dad1 0519 c63f 2601 b8df 8a4d ba3f
00000010: fa79 7a83 72a2 bcbf 515c 6258 7dc9 68bf
00000020: 582b 9dfb ae25 98bf b9c0 8f4e a79e acbf
00000030: c1e3 2eb0 7848 75bf f610 5350 eb38 7c3f
00000040: d001 4471 4556 c23f 58f9 6659 0f67 c53f
00000050: b46a 70ba ed6e a43f 35b4 7f57 be8d b23f
00000060: 6521 d331 63e3 d2bf 020e 8afe acbd c0bf
00000070: 062b 76c3 e5c8 aa3f 67d8 4069 366a b0bf
00000080: 6643 b546 e51f a43f 0c1a ce45 b430 a1bf
00000090: 00f8 2447 6fc8 b7bf 27b1 45ac c768 c23f
000000a0: 5461 bbde 6a5a 7e3f 59f8 c531 0973 8d3f
000000b0: 6cba 8ad4 e91c 9d3f 7410 0389 632a 9b3f
000000c0: 5842 fcc0 eaa8 c13f b923 b227 2ced bfbf
000000d0: 248b ca32 d4f8 933f 6653 a580 bb9d b03f
000000e0: cccc 58d9 2854 c0bf 267d 7e5c 9a64 b23f
000000f0: 5879 ee7c 319d af3f 33fc e80d 1a26 aabf
00000100: 116e a41c 8b38 aebf 0bf3 3121 3c29 8cbf
00000110: 2f79 f084 b395 b9bf 4759 7c5c cfa6 c43f
00000120: e761 780f eed0 ad3f 040f 359b 4326 b33f
00000130: 07b5 278e d007 c7bf e0b9 f823 40d7 c3bf
00000140: 488c 731c 97e3 b93f d733 603b 02b4 91bf
00000150: 781d c226 007f aa3f ea5a deba e55a b2bf
00000160: ce91 b3d5 6249 bf3f 1a27 f51e 73fe bbbf
00000170: e275 800c b6ee bcbf 4aa6 8234 7e39 c3bf
00000180: a252 4e18 4f63 af3f e374 14a5 3ca0 8ebf
00000190: 6dee bf38 aa47 4d3f acb6 114f 174a 873f
000001a0: 8d10 a948 eebe 8cbf 93cd 4228 b8b6 aabf
000001b0: 481d 5136 2841 bb3f d6c1 5fd5 566a acbf
000001c0: d4e8 337b 0f41 95bf d0f5 8f3f 94fe bfbf
000001d0: 7103 ebca ed3d b0bf b271 0a24 ae1f 763f
000001e0: 0309 28bd fb25 c73f fdf6 a601 d491 c03f
000001f0: 8ca9 ee47 d746 b63f 4df2 d3a1 8fd6 b2bf
00000200: 8928 fed2 f7df b8bf b715 287a fd53 c1bf
00000210: cd1d bd45 ebab bb3f b05e 871d 1473 af3f
00000220: 2942 4be0 f314 c63f ede9 47d9 4cf3 8ebf
00000230: 74f8 c0d3 8e09 b8bf c321 fae0 fd3d afbf
00000240: 64b9 dc9a 2be8 bfbf 1d14 240a 104c bbbf
00000250: 8fae f833 169f c0bf edc1 a352 fd0e be3f
00000260: 7875 b2e6 31dd aebf ebf8 8ddf 9f79 b0bf
00000270: 32e4 2619 34ea 80bf a28b e228 22a8 bf3f
00000280: 6143 81c4 b8f0 8f3f 34ef b594 7c98 b0bf
00000290: 25e9 f932 717a b2bf 9e36 012c 0f18 ba3f
000002a0: 07a8 7667 610d b1bf e395 5719 9b94 ac3f
000002b0: f131 9c75 40ec c13f 04d9 6aea 4bf7 8a3f
000002c0: deb5 a101 db5d 653f e78d 646c c37b 843f
000002d0: 0df5 0780 2b88 c5bf 3999 4166 6e4d b63f
000002e0: 53ca 0985 efc9 c23f 2c87 2a1c dc5c b8bf
000002f0: c268 61c9 c3ba b33f 8c2f 8f63 abc6 c63f
00000300: 11fb 46f6 cf6b c03f 328f 5c85 bfda a5bf
00000310: c201 b8e7 cd1e abbf aae8 5962 2a1c a8bf
00000320: 0006 7c7d a2e1 ac3f 00a7 b70e eb3c 81bf
00000330: d041 f008 3f2e c03f dee5 94dd 7d6a c03f
00000340: 2c9d 3860 730f af3f 06b6 2dbc a3ae c43f
00000350: c663 e2ef f56a 833f bc6a 86fe e1bd b73f
00000360: 6e4f acf8 b455 aabf 0e35 b364 237a bb3f
00000370: 9b10 e964 fe94 c6bf 7ccc 62a2 a9c0 b6bf
00000380: e59b 9f15 ef10 943f 5fdd d48a c6c5 acbf
00000390: ee65 3337 85f5 a4bf 68ce 8723 bc12 a1bf
000003a0: 5715 33db d697 b6bf 85ec d7db 8572 a93f
000003b0: fd9d 8388 a18f a9bf c763 ab56 4bac b5bf
000003c0: 6956 3a53 8a48 a4bf b0b2 7d0e 184e aa3f
000003d0: 2af0 6b23 998b 973f 0f5e c87c defd c4bf
000003e0: ed5e 1c9e 2329 853f bca0 d72c 6ac8 813f
000003f0: 54a6 b451 bfcb c2bf 8158 9426 4218 c53f
00000400: 7973 611e 7b67 c23f 2c53 fc15 34d5 c13f
00000410: 2a47 0123 421b c6bf d3cc e716 30a5 acbf
00000420: 908c 17ea 734a 9ebf ca81 0a18 1abb b43f
00000430: c79c dc25 e921 bc3f 5bb6 a995 a7d1 c0bf
00000440: caca 82c8 c860 933f 68bf 5f4d 65ae 9abf
00000450: a523 4421 64db 933f 168e 43ca 998b af3f
00000460: ef1f 1753 da75 a53f babc 5fed e684 7ebf
00000470: c027 7fd0 bc1f b93f 61ed dcc3 fc0d 913f
00000480: ab58 e425 0b9c b7bf 7d50 d1a8 bc26 a2bf
00000490: dd30 0935 8c64 c5bf b82c 252e 80a5 80bf
000004a0: 660d ed44 50ef b63f 5fdf 6146 d1ba 77bf
000004b0: baef d9ec 5804 bfbf 5031 67e6 0f61 753f
000004c0: d59d c65c 8a0e c73f 345c d1ad ea54 b93f
000004d0: 8b02 4e36 1504 abbf 9ac9 86e7 b009 b7bf
000004e0: ec6d 6cfd 7f03 51bf 8b38 18b1 51a2 a73f
000004f0: 8108 c350 8b0f bdbf 14c4 b4df db6e 9ebf
00000500: a8d9 bdba 5068 b0bf 0034 6920 7e17 b1bf
00000510: d463 2dbb 520c a83f fc14 9de6 16ea c2bf
00000520: a665 f431 2b81 a4bf 4d18 d0a6 ec16 c53f
00000530: b82c a0e8 43a5 a23f 2fab bb89 30c6 b6bf
00000540: b25c dc72 d04c 90bf 45f7 bc9d 6355 713f
00000550: 1634 4ddc 626b 31bf 4241 21e3 6889 b03f
00000560: 1c44 bdda 0187 b9bf abc1 af8b 167f 66bf
00000570: c8e8 db03 0c65 c13f 6ff8 e736 d127 c33f
00000580: aea1 7943 33e5 c6bf 6f77 5dcb fcd1 ab3f
00000590: 2b1b e9ee 47ef c23f cae5 57a3 8482 c0bf
000005a0: 7aeb 8eb7 758e 933f 825b 347c 87ac 91bf
000005b0: c4fc e5c0 b984 c13f e304 efbe ee92 c1bf
000005c0: 21ec 3b88 e2c2 af3f f4e3 b3d5 0c5f c4bf
000005d0: 216d 5ba2 a2c0 c33f f64c e52a 762e 80bf
000005e0: 9a43 ceee 47a8 98bf 8382 06b4 a843 b4bf
000005f0: 6be4 f1b3 28a4 95bf fc74 5867 8c97 b2bf
00000600: 4dc8 af6d c8d4 8cbf 793d 5e08 e2aa 94bf
00000610: 0d7f 8e40 7d3c b6bf 56e2 b446 9363 b43f
00000620: 7efb 173a bb47 b5bf d0e2 2bd7 f775 923f
00000630: 9c24 7d06 e8e4 73bf ba06 fe31 2c2f 9a3f
00000640: d567 06bf 9a6c b4bf 00c3 3e88 8145 b73f
00000650: 0c00 95cc ce0f c53f bb56 28a6 4a17 9dbf
00000660: d437 ac4f f31f a73f 5b1e d6ee a6a6 c13f
00000670: 919f dbac de1f a93f 46d6 8bd1 8c6b c33f
00000680: d9ce 4e51 b998 bcbf ab0a 54e5 5a12 b73f
00000690: 9f99 7306 df3e a0bf b10a 57b1 a0cf c5bf
000006a0: a015 838e bdea a7bf 2910 ba90 f50e b6bf
000006b0: 16c8 8335 2156 b7bf 0644 cc09 520b aa3f
000006c0: d621 3616 3a4c a0bf a213 1844 e8d1 853f
000006d0: 2451 ecb6 1eae b93f a18d cdc3 07cb ab3f
000006e0: b9d7 1dc9 6d66 abbf 4185 bece 1cee 80bf
000006f0: 0f5a 34c5 85fd c13f 4874 eff7 c812 a8bf
00000700: 5869 769d 57fe 863f 1aae 8f9b e040 c1bf
00000710: d938 19a1 eda9 b5bf 0292 6494 db3e b1bf
00000720: 2a87 0f9d 2262 ba3f 6fed 13a6 f4ca bc3f
00000730: c910 ff44 ba19 bc3f a450 6c15 537a 933f
00000740: 36f0 8e93 bcd0 ce3f f16a 4d75 36b5 b5bf
00000750: ec30 3fb3 4339 afbf 4f71 6981 1806 7e3f
00000760: 19a7 6f5d 8b81 c2bf 44ac ac79 38ae b53f
00000770: 2bd1 b22b 7e36 b23f 70f5 f7f3 ce58 bb3f
00000780: 37c8 eee2 535f b6bf 765e 10aa ddb5 c03f
00000790: 07a3 7300 a6ef 96bf 0554 efad 256b b7bf
000007a0: 272d 79f1 f0f4 bfbf a656 a62e 31ba c3bf
000007b0: 57da c48e ae35 acbf 4326 038b 5af8 babf
000007c0: de8f e8eb 7e97 b3bf 7d4d eb52 721c bebf
000007d0: 5587 bd59 9610 74bf f664 9bac 8b34 bb3f
000007e0: 87a1 e178 811a 8b3f c950 a43e 8036 ad3f
000007f0: f1e1 2767 8cc5 c5bf da92 0bef 6522 a0bf

transform_generator.w0.bias f8 [64]
0.02091555262096122 -0.12169960343225983 0.007640369872869666 0.046978250694201314 0.019610480751945988 -0.06133653280981572 -0.1454557910831164 -0.046947075917929994
0.05533142083039317 -0.06206508090068281 0.08110293472764389 -0.0249526479061906 0.20530759524404746 -0.1322727242917025 -0.005435178653432666 0.056478599317459556
0.01123389120805101 0.07264615031556501 0.15921205451106807 -0.18534482946169373 -0.08864493107000335 0.07769188116296806 0.11125739421870913 0.10700973554472108
0.035706979417631915 -0.04958340547964679 0.03556507248931324 0.13302555644133868 0.043055127903923955 -0.1520585886689038 -0.05094641698442939 -0.042209450265582954
-0.13338475774159606 -0.15070807979571071 0.0009589431185900696 -0.06912279459212667 -0.1631029259239744 -0.12931018373210906 0.07705497634219009 0.07611455269072104
-0.2025040855422921 -0.015605542870387835 -0.07513540571127886 -0.0487013081966318 -0.20795375193099247 0.028881503839923068 -0.02098844907894983 -0.07490470682050653
0.059086709819289436 0.1422016964038296 -0.035727552104194475 -0.005980615285263093 -0.1570382638492701 0.025044303655270186 -0.0860539833005905 -0.06385156454061276
-0.1828367555393333 -0.06282648449355117 0.048017524348736094 0.024841458208413138 0.16597095051314506 -0.1634150920261667 0.03874852238291704 -0.06911641440939766
00000000: 3d6e f0f9 e26a 953f 687f ad88 b427 bfbf
00000010: 97ac bb2b 824b 7f3f 59b3 b584 880d a83f
00000020: 0f2b f415 c514 943f 89b6 ef84 8067 afbf
00000030: 1e9f db9c 4b9e c2bf 7db1 6b77 7209 a8bf
00000040: d9c4 d065 6654 ac3f 5951 6289 fec6 afbf
00000050: 6bcd 4374 29c3 b43f cba0 d2da 2f8d 99bf
00000060: 86c7 98ef 8447 ca3f fe2a 7e08 50ee c0bf
00000070: 6ed3 07a9 3243 76bf cd18 fc51 c3ea ac3f
00000080: 9c61 c35a cb01 873f 7a20 c927 f098 b23f
00000090: 4a83 a083 0f61 c43f 60a5 821e 61b9 c7bf
000000a0: e6de e627 6fb1 b6bf 7d79 c278 9de3 b33f
000000b0: 6d87 9b55 5d7b bc3f d3a7 8472 fd64 bb3f
000000c0: a2e3 ac69 2f48 a23f 3035 eb01 ff62 a9bf
000000d0: 7964 71ce 9535 a23f ee4f 393f fb06 c13f
000000e0: 9f7e 8b5c 520b a63f 7555 b4e4 a776 c3bf
000000f0: 43cf 9715 a615 aabf 1c15 f220 7a9c a5bf
00000100: 1f7c 2472 c012 c1bf ae96 fb00 674a c3bf
00000110: e9fd a1aa 326c 4f3f 506a 2e0e 08b2 b1bf
00000120: 46d9 5c82 8ee0 c4bf 06a7 1571 3c8d c0bf
00000130: 1b3e 62fb dfb9 b33f b46a 8e4a 3e7c b33f
00000140: aef2 5a64 a7eb c9bf 7afc 1d82 ccf5 8fbf
00000150: e837 4dee 123c b3bf d532 f4bb 60ef a8bf
00000160: d2e2 cf81 3a9e cabf 459c cee9 1c93 9d3f
00000170: c528 8df9 fe7d 95bf 974c 1c72 f42c b3bf
00000180: 91ab 9afc 9c40 ae3f dbbd be49 aa33 c23f
00000190: c711 b5b7 e14a a2bf 296d f630 217f 78bf
000001a0: 9403 ba6f d419 c4bf 1717 9ac4 36a5 993f
000001b0: e470 f743 a207 b6bf ed17 807d 9358 b0bf
000001c0: df2a c6de 3167 c7bf b5f2 3880 6515 b0bf
000001d0: b3e7 6cc1 c095 a83f 4a3f 5c0a 0a70 993f
000001e0: 791e 453e 893e c53f 7d6d f625 c9ea c4bf
000001f0: d04f cea8 d8d6 a33f 4151 8103 9db1 b1bf

transform_generator.w1.weight f8 [64, 64]
0.08029153819677892 -0.031754866452749775 0.06881501080469708 0.13853812866902152 -0.09438002286230834 -0.14316164887105223 0.008762700097189852 0.018501129014153316
0.015497682865621957 0.038469277163742904 0.030129417306262146 -0.028068514474697576 -0.03678293103018604 0.17138865280665685 -0.01550685090787952 0.06568324493475715
-0.1642977993231101 0.19709216060699286 -0.023428045432466595 0.028182903298788548 0.09013067028933852 0.06092316616041135 0.02059804629563596 0.012434487522672793
-0.025534063412886394 0.1128794225522862 0.1233800369654521 -0.011372523871255747 -0.15519577464429543 0.0410421838861444 0.04930037301258487 0.03517471475306353
0.01651009831447493 0.026959796615674332 -0.07275147317077985 -0.033134822305212884 -0.1696440054420316 0.08280607230758641 0.048880696946921084 -0.05519919879884395
-0.17027601122527317 -0.06885396036190376 0.14054736063575038 -0.05185517404883844 -0.02176126971316589 -0.12556008524305276 -0.04109433291558314 0.007747194730789409
0.15443615069336672 -0.10250564305508306 0.024028822231702152 -0.0158713078931377 0.10256466550559128 -0.08401433695756118 -0.06748530342152463 0.04274324002184992
0.11237300945181487 0.10170814430189352 -0.010762594098426996 -0.00916730591371046 0.05245216552326245 -0.037132497768377216 -0.046885988345466624 0.004966714188671644
-0.1653339349140796 0.031515002009344935 -0.06905038100661828 -0.09314545813849266 0.026863043553411466 0.04800314578246121 -0.13680039243670417 -0.0044813837082614
-0.02567333706285088 -0.09360842854493356 0.043928788809449344 0.07190154529774757 0.034366791406893624 -0.005428315778168857 0.014706818884741677 -0.12863468974429002
-0.03546986195451884 0.04714884636599933 0.0062251558923694635 0.01941125287946474 -0.05379220301678642 -0.07332865367141006 -0.012373667075342144 -0.18720368460604933
0.15741871150257766 0.0663709715349053 -0.05601757823863677 -0.03898185497247905 -0.007801366207705083 -0.11967032141409674 0.029037717166692067 0.05360533403897731
-0.08742807490085913 0.12976757043202722 0.10799735837524614 0.07861242766434444 0.13406333925384792 -0.18537429645895936 -0.042584399777110024 0.10299319205367992
0.05057624035129589 -0.1662126010189674 0.21389599032044967 0.05184436595190044 -0.18952058340648073 0.07806573114602522 -0.040432742068230734 -0.02144508325721569
0.026061003367609855 0.0030304347963381 0.01168852206514319 0.022959130659572915 -0.08405831323858955 0.1954889337100321 -0.07305221305522062 0.03548503070754875
0.022540077400424813 0.016728566662131062 -0.043634040161276005 -0.14788353156020928 -0.13167688537875302 -0.040495511447736186 0.1119303627988018 0.039260921888686566
-0.10437062928926068 0.026228289666277483 -0.09053134963759298 -0.09171271765458175 -0.04230645449656033 0.06390906973799992 0.1698075264600379 -0.048115782512690636
-0.01880249051034917 -0.13467408066418882 -0.10981487402973533 -0.021222051010404752 0.14858084545974531 0.02732676111625727 0.017064756142106993 -0.013956953797930721
0.17629137049432664 -0.06307860264955963 -0.03391993760060643 -0.1675797695209752 -0.1319003177297379 -0.010857792405125438 -0.06199848307199335 -0.20661940337201146
0.1862593943486541 -0.08911909314055844 -0.15837889188748613 0.20885844893522823 0.08550421560221154 0.03676781813357034 -0.002540858145995652 -0.05617265723525902
-0.07873674641187389 0.024257987508585717 -0.006997053553589759 0.027208687675315747 -0.0034075343932125574 0.11621375163629051 -0.12310928624390201 0.17084798952018446
0.08813915423180176 0.07097102630256731 -0.009193034266014696 -0.09132048386396559 0.060571919539083245 -0.05934655011667665 -0.13895243249800507 -0.03805507608833792
-0.06794294171740552 -0.02114297692195259 0.1464859836308815 -0.11751204570933418 -0.016590399619582988 0.13320806559747572 0.05528962384294321 0.06940266215411814
0.026060481493101077 0.09480593500843254 -0.0415158878960463 -0.15095132494872565 0.10044098142265372 -0.07712026093115186 -0.041339138028349716 0.009770351974203324
-0.061021219236199804 0.019177240975890807 0.06682653234212152 -0.0031415594868863597 -0.027179302044760555 -0.08581477723382783 0.17809777178467937 -0.03426622240824314
-0.1545022039453393 0.01148812077077734 0.1271353554104237 0.06054046060397214 -0.09531071939562018 0.0666354340171764 0.07862632419793643 -0.02726138160315517
-0.10215731294376484 0.09721907291274107 -0.03137004048767527 -0.12371950103685392 0.12683891355237945 0.007296954803277884 -0.0014943496659035808 -0.043167999231655554
-0.039734568798227426 -0.00991918018457324 0.0032897543635860434 0.1988989202698481 -0.04633284098638667 -0.060303735430808636 0.07409507148466661 -0.0038096214417230193
-0.036790458884377965 0.1299933382625699 -0.14050079240703084 -0.08398204867469199 -0.17264138525863232 0.15508903816953143 0.16895684984636827 -0.027383198246526602
-0.12485615884016121 0.006434623893455239 0.051653777013425196 0.018910291048990543 0.19150334871378752 -0.13233706442664053 -0.07101335039697626 -0.11337050234415783
0.16584172045332432 -0.02039717604176485 0.020743053548268452 0.13068015570259595 0.14322708258178388 -0.08564177651824843 -0.06366711476536642 -0.00043196502147461107
-0.09191907277968886 0.16287974154235466 0.041602636069482786 0.04499337669071358 0.042589479657329045 0.00352742809269976 -0.13517080499715642 -0.08809500512989919
00000000: 1861 b37a fc8d b43f 788b ce81 2c42 a0bf
00000010: a74b e14c dc9d b13f 59f5 f00d 9ebb c13f
00000020: 6cdf 9607 4a29 b8bf 45a7 f8f3 1e53 c2bf
00000030: d097 bcb2 2df2 813f 962e 38c0 f5f1 923f
00000040: 95b0 92c8 3fbd 8f3f 9c58 a3be 3eb2 a33f
00000050: 1867 e9f7 3eda 9e3f d850 dd1e febd 9cbf
00000060: 90be a65b 36d5 a2bf 39e4 5a39 10f0 c53f
00000070: 0638 1b4c 0ec2 8fbf 15d3 e3fc 9dd0 b03f
00000080: 39e2 72d5 b507 c5bf 1871 0de0 503a c93f
00000090: e73e c483 85fd 97bf b504 e69f fadb 9c3f
000000a0: 605f 42b9 cd12 b73f 6c9a 743c 5231 af3f
000000b0: 9514 ce7c a717 953f 23ea 04aa 4077 893f
000000c0: 725a 2bfd 9925 9abf 0ee1 4074 aae5 bc3f
000000d0: 82f2 be87 d595 bf3f bad8 cc50 7a4a 87bf
000000e0: a38d 4984 74dd c3bf e945 182b 7b03 a53f
000000f0: f60f 8a03 e63d a93f 0d65 0593 6b02 a23f
00000100: e3f5 41f1 05e8 903f d2a3 1553 599b 9b3f
00000110: 2c1b 012e d79f b2bf 0bbf 5124 0cf7 a0bf
00000120: 1f01 ab0f e5b6 c5bf c8a6 785c c732 b53f
00000130: 7ede 9505 e406 a93f f17e 36c3 1143 acbf
00000140: 95c0 c0b5 9acb c5bf 4b57 f4c3 69a0 b1bf
00000150: 011e bcb6 74fd c13f a017 56e9 c28c aabf
00000160: b12e f316 9648 96bf 21a4 e655 5a12 c0bf
00000170: 6bc3 d8ff 500a a5bf da5d 12c0 85bb 7f3f
00000180: 6129 4654 90c4 c33f 52b8 9350 cf3d babf
00000190: 6d13 96f6 029b 983f 5712 6271 9140 90bf
000001a0: 875a 128c ad41 ba3f bdba a0ad f681 b5bf
000001b0: 33f5 2783 b746 b1bf 5fb0 0924 71e2 a53f
000001c0: eb73 8c40 7ac4 bc3f 8573 8381 8b09 ba3f
000001d0: dc07 62ed b20a 86bf e308 bcf8 4ec6 82bf
000001e0: 8bb7 0d9f 02db aa3f ed64 11df 0703 a3bf
000001f0: 9d38 2bb5 7001 a8bf 5f8d 2430 fa57 743f
00000200: d6fe af91 a929 c5bf 4951 edfd bb22 a03f
00000210: ce23 3328 49ad b1bf 9bcb 7978 61d8 b7bf
00000220: 52b7 2156 fc81 9b3f fd48 7b4a de93 a83f
00000230: f43c ccdd ac82 c1bf 4126 7c47 125b 72bf
00000240: 18ab 417c 1c4a 9abf 48fe 3ad3 b8f6 b7bf
00000250: 2936 948e d57d a63f adef 95c1 2368 b23f
00000260: b676 522a 8698 a13f a662 d56b 003c 76bf
00000270: fff3 1ad1 9b1e 8e3f 3f9a cafc 1977 c0bf
00000280: bf34 2d12 1b29 a2bf eb47 5fc2 e423 a83f
00000290: 5d0e 868f 8c7f 793f f8af 2a21 8be0 933f
000002a0: ad49 79d1 a68a abbf e8df 60a9 aac5 b2bf
000002b0: ba8a 5c7b 5d57 89bf 5d6e 8953 4af6 c7bf
000002c0: c34c d7dc 4b26 c43f 156b 2520 b0fd b03f
000002d0: 4577 1205 56ae acbf 6c09 7d00 6ef5 a3bf
000002e0: 6491 9e4b 53f4 7fbf 997d c6d4 b6a2 bebf
000002f0: 1065 5336 10bc 9d3f 2658 2d89 2872 ab3f
00000300: d090 73b2 af61 b6bf a320 8b47 399c c03f
00000310: c7ac 4602 b7a5 bb3f 7ba5 e0ad f11f b43f
00000320: cf0a d8cc fc28 c13f eab5 674e 58ba c7bf
00000330: 9e96 b958 9fcd a5bf adc9 9407 c35d ba3f
00000340: 1ae3 8604 21e5 a93f b49f c75a 7446 c5bf
00000350: a3ff 959d f160 cb3f ce93 7d40 588b aa3f
00000360: 8d28 d3e1 3542 c8bf c8e3 35a2 1dfc b33f
00000370: 6ac6 bdb1 99b3 a4bf 76bb ff2c b3f5 95bf
00000380: 3fc9 a854 bcaf 9a3f b44d f94a 48d3 683f
00000390: 5821 11e0 26f0 873f c750 4f2d 9982 973f
000003a0: 0511 517a d884 b5bf 21db 8108 c805 c93f
000003b0: 1bfc f8c1 8cb3 b2bf 65e0 c50c 182b a23f
000003c0: d5f3 22fd be14 973f fd27 e41a 4b21 913f
000003d0: fc55 f86e 3357 a6bf bc83 d5f9 d8ed c2bf
000003e0: 1da2 2bc6 c9da c0bf 4b0b 9be2 d3bb a4bf
000003f0: 0378 a6df 77a7 bc3f dfa1 0bef 011a a43f
00000400: 29d7 7597 08b8 babf 2dff 62b9 96db 9a3f
00000410: bdc9 f401 102d b7bf 5e26 f412 7c7a b7bf
00000420: 7ee3 f10c 31a9 a5bf 3847 7144 585c b03f
00000430: a358 61c6 40bc c53f 2c7d a0c0 a1a2 a8bf
00000440: 741b 4dc7 f540 93bf c728 0912 003d c1bf
00000450: 6073 92dc d31c bcbf 20c8 2cbc 3bbb 95bf
00000460: b2e3 0778 b204 c33f b320 33e5 8bfb 9b3f
00000470: 5ca2 2d66 6c79 913f 0342 e9a0 7695 8cbf
00000480: 1c8a 6b33 b790 c63f 850d 7557 eb25 b0bf
00000490: 339b 5a3d f45d a1bf cc2a c8fe 4073 c5bf
000004a0: 0d99 7d0f 1ce2 c0bf 904e 4b3a 9c3c 86bf
000004b0: a842 64e2 43be afbf 48d5 192e 8172 cabf
000004c0: 276e a60b 59d7 c73f 78e5 7c46 82d0 b6bf
000004d0: d548 8470 c245 c4bf 8dc5 d5a7 dfbb ca3f
000004e0: 677f aeb1 9ae3 b53f b2a0 db40 3bd3 a23f
000004f0: 9ea6 81d4 90d0 64bf 647c 829b a9c2 acbf
00000500: 081b d566 1728 b4bf 328a 10fc 15d7 983f
00000510: 3e7e e542 f1a8 7cbf 0d24 ee1e 98dc 9b3f
00000520: 7248 ec18 1eea 6bbf d592 9f36 2fc0 bd3f
00000530: cd5f 4016 1784 bfbf 29cc c9cf 58de c53f
00000540: 5135 eca0 4990 b63f 7dde ee3c 282b b23f
00000550: fe35 302c ccd3 82bf 8d8f a67b c760 b7bf
00000560: 5fde f35a 4803 af3f ae5a c3c7 ab62 aebf
00000570: 7da8 a37c 31c9 c1bf 510e 7e76 f47b a3bf
00000580: 2d98 ab68 b564 b1bf 2cf2 ad29 81a6 95bf
00000590: f42d 827e 0dc0 c23f 6228 35f9 4415 bebf
000005a0: 64ba 2cdf 12fd 90bf 82fc a63e f60c c13f
000005b0: be5a 6dec eb4e ac3f ee0f 3574 5fc4 b13f
000005c0: 6e6c ec4e 99af 9a3f 84f2 53a6 3345 b83f
000005d0: ad4b 8e09 9241 a5bf 9ca8 f87d 5f52 c3bf
000005e0: e370 630a 80b6 b93f afeb 8e46 27be b3bf
000005f0: a9d0 c04b 672a a5bf 57ce 9871 7a02 843f
00000600: 598a f659 2c3e afbf 039e 46db 32a3 933f
00000610: 8e1c ea2a 8b1b b13f 50cf 25e8 53bc 69bf
00000620: 7333 a415 e4d4 9bbf d299 bb0d f5f7 b5bf
00000630: 2d20 a764 e8cb c63f cba4 33a1 578b a1bf
00000640: b475 8d6c bac6 c3bf 0b1e 0678 1587 873f
00000650: fe98 d3a8 f845 c03f e4f6 c1c4 28ff ae3f
00000660: 0f2e c386 4866 b8bf 2fc9 db11 050f b13f
00000670: a5ea 08d3 da20 b43f a1a1 b759 68ea 9bbf
00000680: 6805 244e fb26 babf 5c29 b562 59e3 b83f
00000690: 7701 f0e3 bb0f a0bf 70aa d4ca 14ac bfbf
000006a0: 75a8 c8ec 413c c03f a1f5 d863 69e3 7d3f
000006b0: 5ef2 67bc c17b 58bf ba0f deb1 1d1a a6bf
000006c0: 0ca2 04e3 1658 a4bf 6d8c f7d3 8150 84bf
000006d0: 2345 e96c 1df3 6a3f 0f65 e212 8575 c93f
000006e0: 6edb 8829 f0b8 a7bf d800 0197 21e0 aebf
000006f0: ed48 d204 e5f7 b23f e22c 13f0 5a35 6fbf
00000700: 452d 6df3 32d6 a2bf a58e 4428 9fa3 c03f
00000710: dca2 3912 eefb c1bf 1b46 82f8 d87f b5bf
00000720: 769c cfe7 1c19 c6bf 73ff 7325 f5d9 c33f
00000730: 283e 43c8 60a0 c53f 6801 b753 570a 9cbf
00000740: 5834 ecbe 92f6 bfbf 4e82 f332 315b 7a3f
00000750: 8d9e f925 5d72 aa3f 5cf9 7326 385d 933f
00000760: fd6c e685 2e83 c83f 9d6a e1c1 6bf0 c0bf
00000770: 8cce 8851 ee2d b2bf 3235 e667 d905 bdbf
00000780: 4b67 d42e 4d3a c53f a6db 1e50 ffe2 94bf
00000790: 039b 6fc2 aa3d 953f 8c4a 7d99 20ba c03f
000007a0: 698d cbd9 4355 c23f 2f35 5195 9eec b5bf
000007b0: 2d78 bfef 7c4c b0bf 5962 e7a3 2b4f 3cbf
000007c0: 04a8 7723 0288 b7bf f97b 8d4d 3ed9 c43f
000007d0: 210f b1d2 f04c a53f c1b0 d832 5f09 a73f
000007e0: 4d53 90cc 49ce a53f b825 8289 8de5 6c3f
000007f0: 9d1b 6be5 464d c1bf 7f4f f9ed 648d b6bf

transform_generator.w1.bias f8 [64]
0.012151368415998124 -0.051291732720957536 0.13283780909434892 0.08711862922115167 -0.06893660209389521 0.10133773672368544 -0.03204048098905285 0.017671403098713158
-0.048537407646818846 -0.006620761123204252 -0.022517782476359764 -0.036033256227752546 -0.14774362226217405 -0.1317537407712249 -0.053867438584283146 -0.06814422084103498
-0.031048413503166 -0.14927516219315437 0.059990860027451236 0.043120228969485586 -0.04918088377754405 0.005976045479366809 -0.10034239716746463 0.09047006075174854
0.05789089737726284 0.017630590202261157 -0.11175718324559206 0.26614833145700917 -0.01390350358974997 -0.05515343871486186 -0.07857577646001677 -0.10623579741042566
-0.030152480562059873 0.007339340843470573 -0.06488649597660637 0.011135166292256297 0.130423108736207 0.025583726864634695 -0.06856238991696205 0.07290574730212923
0.1305734863990422 -0.07117804134100197 0.004091617113603686 0.11686102193584712 0.05214650590540346 0.1382922377978203 0.10404849943204252 -0.07383205176440288
0.06377619179446647 -0.07763644180736765 -0.02136670312149141 -0.09328511532334809 -0.18321626043140793 0.138186729180036 -0.167643091219108 0.17177738541752113
-0.12085677582818333 -0.023306707346178696 -0.04106779046521714 0.02681036504995256 -0.06006475792866837 -0.08688560385295498 0.0379907466090428 -0.15685090592352557
00000000: 623d 960f d1e2 883f 6ef1 2ef5 e842 aabf
00000010: 37c3 dd4e d400 c13f f18f 600f 684d b63f
00000020: ea9a 7d43 d4a5 b1bf f331 1419 45f1 b93f
00000030: bcff fd23 9c67 a0bf 9a9b 88c9 7318 923f
00000040: e78f f324 e5d9 a8bf bc0b fb07 5f1e 7bbf
00000050: eef3 41cd e60e 97bf 7f17 2272 f372 a2bf
00000060: b380 e754 43e9 c2bf 2b79 de7b 4edd c0bf
00000070: 95db 134e 8394 abbf 1f74 ec4f e671 b1bf
00000080: dee9 5ac2 27cb 9fbf c3c2 dcd1 721b c3bf
00000090: 1fee c03b 1fb7 ae3f 38a0 70ca da13 a63f
000000a0: 626b d39e 3c2e a9bf 80e9 4a7e 567a 783f
000000b0: 808b 3c12 0ab0 b9bf 0e26 32c0 0b29 b73f
000000c0: 1260 f12d e0a3 ad3f 51c2 4fe1 c00d 923f
000000d0: 8a05 2267 1e9c bcbf 678a df02 9308 d13f
000000e0: 290b bea9 7079 8cbf aca4 154f 123d acbf
000000f0: ef50 27c6 8a1d b4bf 88d1 8aeb 4432 bbbf
00000100: 3e19 a1b7 4ae0 9ebf 22b7 594e db0f 7e3f
00000110: 5aeb 2bc2 669c b0bf fc70 7cb8 08ce 863f
00000120: 9c13 5555 b4b1 c03f 570b c6d8 9e32 9a3f
00000130: cfcf 6d06 4e8d b1bf cc63 5a78 f3a9 b23f
00000140: c87f e7ca a1b6 c03f a4c0 c05f b938 b2bf
00000150: 4e08 0d1b 5fc2 703f 0740 649b 9aea bd3f
00000160: 0dc3 ed62 f2b2 aa3f fcee 505f 8fb3 c13f
00000170: df2c 4226 eca2 ba3f 4085 b947 a8e6 b2bf
00000180: c849 05f2 a253 b03f 025b 8a5a fbdf b3bf
00000190: 2f45 852c 27e1 95bf 4372 8487 88e1 b7bf
000001a0: 04fc 5263 a173 c7bf 2ee4 484d 1ab0 c13f
000001b0: 67dc 172d 5475 c5bf 12c3 4726 cdfc c53f
000001c0: e09a ae3b 78f0 bebf e52e 51a7 b6dd 97bf
000001d0: 3126 ef61 d606 a5bf 545e 5524 2d74 9b3f
000001e0: 3d3e e4d5 cec0 aebf c9a9 0a8b 223e b6bf
000001f0: 8311 79ec 8573 a33f d40e a5c3 b013 c4bf
