models/GFDL-ESM4-livneh/QM_FNO1d_layers4/2000/1980_1990/livneh_bci/model_300.pth (torch, 343628 bytes, 14 tensors)

transform_generator.fc0.weight f8 [64, 3]
00000000: a749 7732 3baf e0bf 7e8f 3fca 0d22 e1bf
00000010: 45c3 4a4b c141 ddbf 768b 302c 8f01 e2bf
00000020: 402d 9c54 1528 a9bf 6fa4 c519 0bfc bcbf
00000030: 2d3b 3cab ae5f e13f 19b0 c949 6924 da3f
00000040: 805c c5a5 2835 dcbf 9093 51fb 1114 ddbf
00000050: 6200 4ceb 92e7 d4bf 500b 925d 6816 c5bf
00000060: 938c 177a 4cf5 db3f 7c52 04ef 3b3e d63f
00000070: a880 90cc 20cd c6bf 28da 1e95 45fa c53f
00000080: 074e 9ee1 e414 d9bf a66d 67c9 d22f d33f
00000090: 8440 8475 1c58 c53f aff3 653a 459c a3bf
000000a0: 24e4 d60a 4f15 e1bf a7c4 dd4b 9e95 cf3f
000000b0: a3f6 d607 bc4f c2bf 5bd8 2a99 f24c c2bf
000000c0: a782 5980 bc54 e2bf 965f e5a5 ed1b e2bf
000000d0: 170c c427 0211 dc3f c477 81c5 c89a dbbf
000000e0: 6c89 d4e2 e252 d5bf 80c9 0ae7 d533 dbbf
000000f0: 1717 d528 00f0 d3bf addf 52a8 5d57 cfbf
00000100: d428 e2d3 d4ad d0bf c8f9 2913 a555 d0bf
00000110: a754 c517 2ecc b33f bb1f 94cb a533 c63f
00000120: 07b7 5961 854e dd3f 6c0a f24a 59cd debf
00000130: 8e19 18f7 f370 d1bf 5b28 0c42 7912 c9bf
00000140: 374d 7d54 cffa da3f 827f b93f b526 e2bf
00000150: d761 da7b b024 873f ca9f 1eed 5550 c5bf
00000160: 62e9 2978 4daf e33f f20a 47fd 173a db3f
00000170: 3ff4 21a4 ff68 b3bf 4ba9 22d2 de90 ddbf
00000180: 72a1 580d 5a13 ce3f 10ab 26fa f3b0 c43f
00000190: c953 8d78 5989 d23f f97f 89cf 2f6a a23f
000001a0: 61d4 62f6 682a dabf ad42 8098 bcee ba3f
000001b0: 87f8 1361 a892 933f f44b 3da8 d954 e03f
000001c0: 9976 efe6 0c9b d2bf 149e 912e 9712 c9bf
000001d0: 36c0 5fac 6630 b73f f9f3 b4d9 65fd cfbf
000001e0: 217e 4bab a1ae e3bf 73b2 edb9 906b c93f
000001f0: ff87 30b2 366e d5bf bb7f f44e 1bde cd3f
00000200: 3367 c638 b5ec b7bf f8ff 6a0f 430c 973f
00000210: b360 2864 025c 853f 92e6 c99b c059 d83f
00000220: 3466 3ba1 a2aa d03f 608b 4678 6b53 debf
00000230: c3ef 8e8f bd95 84bf 1bcf 372a 1db1 e03f
00000240: 02bf 4829 aa45 aebf 0e9d ddd1 51d1 dabf
00000250: c24c b430 a343 c43f 925d 628f 675f e4bf
00000260: ab79 2cee bec0 80bf 0c5f ae0d bac0 c13f
00000270: 5456 6d79 ccc5 debf 8f81 62cc 63d2 d2bf
00000280: 311c fd56 585f d03f 812b c6bd d482 b1bf
00000290: 7913 5b85 d782 c03f c5f7 d2e0 8807 d9bf
000002a0: c033 3506 a36b de3f 02f6 5800 a4b5 df3f
000002b0: d6b5 8b06 4773 cebf d967 0595 eacd d33f
000002c0: b423 7e6b 4225 e0bf 875a 60bf 4875 e1bf
000002d0: 7146 f5f8 8a3f e13f cad4 67a5 bc89 d43f
000002e0: e739 f182 e167 debf 3265 a510 0416 bcbf
000002f0: 3c29 3401 6c0b dc3f f6c2 794a 99d4 d2bf
00000300: f93a d324 e04c 873f 9aed f61d c15e b33f
00000310: 1f5c 88f9 880d dfbf 0241 8114 0811 e33f
00000320: c725 8fc7 99fd b2bf e648 7b64 2e09 b9bf
00000330: 48ff b7c3 4fa1 d83f 475c 9880 0ed6 c03f
00000340: 5cec ae7a bf10 c93f e52e 9926 c224 bc3f
00000350: 8f4e 20de 2dae a43f ecc6 238d e7c6 c6bf
00000360: 6043 1a6c a19b c13f 7fa1 4990 b292 c13f
00000370: 654f d471 de22 cbbf 43eb f15a aa7b d8bf
00000380: b479 a3d1 764c dfbf 3290 8073 28bd e2bf
00000390: 3460 a9f6 67b8 d9bf dee9 3f73 fb0e cc3f
000003a0: 1aac dfed 5d40 dd3f d646 8390 5444 e1bf
000003b0: 5094 9b57 4556 dd3f c546 1c32 96f2 a83f
000003c0: f4be 56de 30f3 cd3f 0d77 91d4 2997 d1bf
000003d0: b797 f20b 5e95 d6bf 2cfc 31f0 bd2c cbbf
000003e0: 00ef 0745 f4ac d13f 581d 68a4 fc72 cb3f
000003f0: d5e7 e7ef 5472 d2bf b52d 5da1 34a3 d03f
00000400: 2377 d58e b708 d1bf 9f65 21a8 4258 e4bf
00000410: c9c7 9266 518f d53f 4749 19c8 3a44 d63f
00000420: dc92 a6a1 b353 adbf 352e be49 0bfb 84bf
00000430: 67fe 43f8 c1ec dfbf c995 fbc8 8204 e13f
00000440: 20eb 62d0 55b3 ab3f f0ce 2b25 039c d23f
00000450: 2009 d70e 0237 d33f 1905 ea43 7b83 d0bf
00000460: 1b43 93e2 a872 ddbf 7e59 2407 5acf c93f
00000470: bee8 2d7e 306a b9bf 6c51 df77 abf9 d0bf
00000480: 7e04 a88d 76d5 c8bf 95be eb29 5a78 73bf
00000490: ad8e a809 feca 98bf feb9 bf67 f52e a93f
000004a0: ad1a 9efe 62a6 53bf c42d b938 c78a d13f
000004b0: 6bfc 0f47 8abe dfbf c859 65de 1eb8 b03f
000004c0: dd87 984c 96fb cd3f 7cb7 a10b 9a4c c7bf
000004d0: 5aaf c671 aec5 ae3f 7f41 0a59 4e84 d63f
000004e0: ec5b 0ce1 29b3 b5bf b9da 8d76 13c7 d13f
000004f0: d195 119a d101 c63f 3528 b5fc 8c3d c4bf
00000500: c9e9 2075 b921 d2bf 2ca4 472b c375 e33f
00000510: 090e 1082 cc6d b23f f6ac a195 aeab c7bf
00000520: 1d69 e6b0 9d55 d93f 38ac 61c1 8daf c23f
00000530: e080 14e8 bdde dc3f e2ca 5612 ee99 e43f
00000540: 3bb9 78e7 f739 a93f d01e 31d9 f32c d6bf
00000550: 4970 1987 8249 d03f dba4 51cb f1b7 e23f
00000560: f3a5 2024 8815 d53f 3803 afd2 2c78 e03f
00000570: e92d dac5 de0e c9bf 7fa7 9320 6661 d8bf
00000580: e9c4 abbf ea2d e2bf f1dc 9721 f95f e2bf
00000590: 3f5a bcbd a9f6 c2bf 618b 75c2 cbc8 b73f
000005a0: bab9 35f6 4fe0 a7bf 4423 75cc 9530 a9bf
000005b0: c79b 68ad 3886 d43f 50e1 c484 67c6 d93f
000005c0: 9eb3 2c9e 13cf c8bf a4c5 2279 09af d03f
000005d0: d441 395b f857 c63f 392b 4a80 092b ddbf
000005e0: cc9d afbc 2f99 d63f e662 3231 8c46 d2bf
000005f0: 6322 1763 aa68 c03f bcb4 3fb4 e01b 9dbf
-0.5213905320800237 -0.5354069662248404 -0.4571383700631951 -0.5626903403357193 -0.04913393647992814 -0.11322087649536326 0.5429299683035872 0.40847236829608985
-0.4407445544106352 -0.4543499902995842 -0.3266341493435957 -0.16474632805701583 0.436846846800287 0.3475484689854864 -0.17813501347064187 0.1717001894118806
-0.39190027268452393 0.29979390781746884 0.16675143945804305 -0.03830162370557077 -0.5338511668879886 0.24675348953636453 -0.14305830366895575 -0.1429732559096831
-0.5728437907055949 -0.5659092178493548 0.43853811152820427 -0.43132228171986875 -0.3331839766634832 -0.42503879130085664 -0.3115234755281206 -0.24485369414264593
-0.2606098241018462 -0.2552273451946374 0.07733429031698567 0.1734511608158281 0.45791754252319133 -0.48128349608319954 -0.27251910333907226 -0.19587627148604522
0.42155822039531493 -0.5672250980969553 0.011300448207564635 -0.16651414945704196 0.615149244971047 0.42542075857288275 -0.07582090146202435 -0.4619671871283983
0.2349655690352495 0.16165017809301974 0.28963314793264466 0.03596639068996405 -0.4088385015596199 0.10520533297700281 0.01911414234654576 0.5103576932837073
-0.2907135253170537 -0.19587983869426806 0.09058229168272267 -0.2499205887815206 -0.6150673242190728 0.1985951335767769 -0.33485190774274537 0.23334065776088928
-0.09345562587841698 0.022507713142431357 0.010429400140353406 0.3804780503629469 0.2604147505313421 -0.473841540772062 -0.010051232284119643 0.5216203522272481
-0.05912524942357146 -0.4190258550138005 0.15831413152827706 -0.6366460609887545 -0.008180133479581317 0.13869405429863269 -0.48082267625918473 -0.29409117659999934
0.2558194016932616 -0.06840257294804354 0.12899297725212103 -0.3910848804042611 0.4753196297286273 0.4954614642518608 -0.23789298839203238 0.30944313576548904
-0.5045482730357578 -0.545566915304179 0.5390066969359407 0.32090679314508164 -0.4750903872235583 -0.10971093565367054 0.4381971370463764 -0.29422600052843906
0.01137709724789947 0.07566458684498514 -0.48520111435340313 0.5958290482031148 -0.07418213960695318 -0.09779634431041337 0.38484567750127896 0.13153249053059055
0.19582360735316484 0.10993588869422018 0.040391381611837855 -0.1779450835379558 0.13756196764418416 0.13728935284894914 -0.21200161512444562 -0.38254794007632514
-0.48904200050847213 -0.5855905776884411 -0.40188025558518636 0.21920722129273335 0.4570536444650216 -0.5395911047473543 0.45839055591051636 0.04872578965854538
0.2339840970648691 -0.2748512817250777 -0.35286666075478074 -0.21230291584285632 0.2761812852984207 0.2144466212050513 -0.2882282584029075 0.25996127851677936
-0.2661570448743637 -0.6357739719198213 0.33687243477754386 0.3479144052590936 -0.057279218180416896 -0.010244453609423146 -0.49882554287612496 0.5318006444401188
0.05410259407786655 0.2907722342490464 0.30023242425171937 -0.2580249942039515 -0.46012327314842744 0.20164037083368308 -0.09927657204198945 -0.2652386351230891
-0.19401437680065564 -0.004753448679124657 -0.024211854304793935 0.049186390795387766 -0.0011993376487865845 0.27409534968748184 -0.49600464763347557 0.06530945710742408
0.2342403291705172 -0.182025199584526 0.06010193957203454 0.3518253201991896 -0.08476506943075862 0.27777563645888 0.1719305040634667 -0.15812837924232928
-0.28330837667786263 0.6081252904233501 0.07198789763793213 -0.1849268179533749 0.39585058474917095 0.14598247473199577 0.4510950819403785 0.6437902792152637
0.04927038860874907 -0.3464936848654192 0.2544866866426259 0.5849541636536303 0.3294391968543941 0.5146698107638263 -0.19576630268816977 -0.3809447591908039
-0.5681051009725283 -0.5742154747121316 -0.14815255894127863 0.09290765283144033 -0.046633242421069324 -0.049198800285529504 0.3206922238772986 0.40273464170197304
-0.19381947730417165 0.26068341092749336 0.17455963568001087 -0.4557517769650761 0.3530997603070005 -0.28555588535668475 0.12819413984677216 -0.028426657678143327

transform_generator.fc0.bias f8 [64]
00000000: bb29 845d 3697 dfbf d457 3e8a f79f ce3f
00000010: 7e34 3186 ac9f cdbf b573 2266 c8c5 d8bf
00000020: de06 d062 7d41 d53f a46e 611c 027f d4bf
00000030: 0d92 a5a6 2499 d63f 9b11 2cf1 2879 ddbf
00000040: 2901 f79c 13c2 e03f fe88 3fdf a989 d0bf
00000050: ec0a 4967 2c34 e4bf 238d 4737 ff01 d9bf
00000060: ff0a 2278 1b5c e33f f72b d877 10bb e13f
00000070: e814 8aec e7fb d23f c899 6c22 693f e43f
00000080: 44db 8a49 e8c0 ccbf 3c8b 5d7f d4aa c4bf
00000090: 53c3 2de6 ac8c d53f 3439 3678 cf12 e4bf
000000a0: fafd 9d09 1190 d2bf 419d dbda 32fb d7bf
000000b0: feed 4a20 66a5 6bbf 1e68 97d2 167c dd3f
000000c0: e099 f346 a22c b6bf b9e7 b614 cb7b d73f
000000d0: a598 6e77 6cb5 c2bf bc4b 05ee e93b d4bf
000000e0: 565d e202 5231 cf3f 285c 3da9 6962 e23f
000000f0: 3244 aec0 c5d8 d93f 1a99 de35 09a3 dcbf
00000100: b6e4 9484 813b ddbf 1b2e 8b69 00a9 c43f
00000110: 6bb6 0f59 5723 d23f 926d 9ac0 3701 dfbf
00000120: 91f9 acf1 5e72 e33f bced 54d4 f5b0 c13f
00000130: fc11 7008 642d d53f bbcc 2add 7bee b5bf
00000140: e9d7 7141 d252 b83f 7c2e 1499 2c84 cd3f
00000150: faca c4cc 2f9b d73f 7b1a ea60 3a91 c63f
00000160: f4cc 71c2 2801 e2bf cbb8 55d6 d07e d93f
00000170: 77ac 9093 312e e03f ca93 76e7 6ca9 c63f
00000180: c06e 9b3f f51b e4bf 7fdf 161e f668 c23f
00000190: 1c76 1e0d 6c91 ca3f f0fd 628a 8286 e2bf
000001a0: e39a 09e0 dc69 cb3f af01 5975 33bf dabf
000001b0: 988a 049b 8d9c e23f 1332 4012 728d c53f
000001c0: 60ae 8251 c5b5 b7bf f881 318b 58c9 df3f
000001d0: c805 b97c e7e9 e1bf c4f8 11f5 325b d23f
000001e0: c1bc fa3b d4c6 ddbf 05ba 0237 4ede e3bf
000001f0: 841a 4046 24c6 e0bf 157d 77bd 098d c5bf
-0.49360427029082715 0.2392568039910531 -0.2314353614077937 -0.3870717046173085 0.3321221795050472 -0.32025196811239653 0.35309711717698705 -0.4605200152584758
0.5236909929008436 -0.25840231706219174 -0.6313688294688666 -0.39074688337696467 0.6049935671183845 0.5540850010596604 0.29662511920498824 0.6327405617092206
-0.22463706580102827 -0.1614633199597736 0.3367111442412824 -0.6272961948286935 -0.2900431245725198 -0.3747069489749784 -0.0033747667933690098 0.4606988007122953
-0.08661855919090256 0.36693074248216423 -0.1461616118587631 -0.31615684742171957 0.24369263783294554 0.5745132737600942 0.40385574165799476 -0.44745092640586537
-0.456756953691705 0.1614075198507273 0.283407055830003 -0.48444932755384074 0.6077112884739099 0.13821289890061716 0.33089543174744995 -0.08567022466268075
0.09501375291605964 0.23059613680412727 0.3688468455977013 0.1763070080962342 -0.5626415059799954 0.39836522036683836 0.5056388742572285 0.1770454530898447
-0.6284128420188253 0.1438281676216739 0.20756292954040212 -0.5789196684708582 0.21416817607242597 -0.41791998347982945 0.5816104915323477 0.16837907687330808
-0.0926173519134692 0.49666417687515674 -0.5598027645102599 0.28681634838711667 -0.4652605615364785 -0.620886905138662 -0.5241872188642707 -0.16836663962656276

transform_generator.w0.weight f8 [64, 64]
00000000: e1da 4ab1 78fd b63f b16c 5c44 ac4e b53f
00000010: 94eb 9729 561f b1bf fede 3b80 c8ee b9bf
00000020: 9d08 03c0 821d b93f 3249 907b 56eb cfbf
00000030: 70ca 32cf 38c3 b93f 77a6 03c2 8ffa bbbf
00000040: 3f80 5cce 3e4f bf3f c33c 818e 7fd4 bf3f
00000050: 8f15 db52 ddd3 bcbf dc61 c48b 8932 a8bf
00000060: 15a3 a9c5 3bb9 b2bf 51ae 5c63 72f2 843f
00000070: f3c2 5e79 bb66 a53f fa50 fed0 0d5e a53f
00000080: 4989 1590 285a 92bf e288 5edc 1b34 bebf
00000090: 966d ae1a 2682 b33f 9445 d50b b12a 813f
000000a0: 0c56 f481 e027 bdbf d250 88d2 b6e4 b6bf
000000b0: 43a8 f72f a333 a83f e0e7 dee8 66e4 693f
000000c0: f6cc 3e66 a3cc b53f a31e 2aa5 f6b1 bbbf
000000d0: ef7b 1bdd 7ed5 b3bf bf21 0d36 f710 ae3f
000000e0: 561f 3f08 ab44 6fbf 2c26 03d2 f96f bc3f
000000f0: 592c 66fb 57df c83f bb51 c7f3 9756 adbf
00000100: 68ca 0472 cf4e babf 4814 82c2 cab9 b83f
00000110: 7e83 8ef3 7c1d 853f 8b34 54ad 8d8f a93f
00000120: 051f e180 92cd c73f 6f7d 6da4 c4f0 b03f
00000130: 5d32 a40f 2c82 c2bf 3ce5 2f15 bb89 c1bf
00000140: 02aa 579d 1569 ae3f 6962 b8c9 e7f9 753f
00000150: aa52 7895 104d c33f 20d6 4190 a85e afbf
00000160: c14c 1461 8dd0 97bf 0a34 78d0 64fe 863f
00000170: 6a72 5965 1c2b 923f 4a24 2ed6 629a a8bf
00000180: a9b1 fcbd 2e6d abbf 68b9 ba3b 2546 9b3f
00000190: e36b beeb d30e abbf 1072 b80b 88db b7bf
000001a0: 3ddb e581 c20d 923f 26ae 0917 e788 c7bf
000001b0: 0916 0002 488c bf3f bb98 ca51 f76c a0bf
000001c0: 97cd 518c 5702 afbf 918f 4cac ba52 90bf
000001d0: 4f32 8d38 0fb1 c1bf 561e b7d9 f6cf 81bf
000001e0: 3e92 3a3d 47ac b03f 3552 4031 ffa8 a03f
000001f0: 9f3c 1b0b f4c7 abbf 2d19 9030 52a3 bcbf
00000200: 662f d60d f0f5 97bf 91ec 45c6 0f47 c6bf
00000210: 8699 08a1 48ec a23f 0287 31a4 610c c13f
00000220: b398 c26f bd28 b83f da4b fbea 0cb4 b43f
00000230: 2b56 e42e b115 a53f 165e 4f56 139d b33f
00000240: cca9 4934 1ee1 aabf 256a ed58 0058 aebf
00000250: 38a9 60ca ada1 a9bf ad99 6cb5 9894 a5bf
00000260: 176e 65c2 750b b33f 0d36 4221 79a8 c4bf
00000270: 459d 0565 3020 b53f e625 7862 5ea8 c33f
00000280: bf2b 99f9 ef6e 833f fc79 6ed2 546b 9c3f
00000290: af8b f44e 3b3e c5bf 823f ee1b ecf8 a2bf
000002a0: 257a 00e0 46c2 b9bf 55ff 08ae 4fc1 c83f
000002b0: 60b1 2149 1f58 aa3f 6909 ebd5 43ac 96bf
000002c0: f05e ff05 465a b73f 6324 7a72 1aa3 9bbf
000002d0: 6062 0d25 fc91 c9bf 9ebd 028d 3492 74bf
000002e0: 0915 be08 3cc2 ab3f e916 5501 cfcd a23f
000002f0: 1c3e 20cf 2578 be3f 66e0 13c1 441c b13f
00000300: 63ba 0a76 8eb7 a53f a876 1f78 9f12 85bf
00000310: 149b 1fe5 696d 87bf 46de 2cf1 ccd8 8bbf
00000320: 6347 cba2 cf73 adbf e2a1 d340 6556 b23f
00000330: fd65 ac61 5924 84bf 9ecc fa1d e57d 81bf
00000340: 2e69 cc4f 61cc c83f 49a5 9264 5f0d 9c3f
00000350: a61a c6ca c29e b7bf 8ce6 a07b 7a3e a8bf
00000360: a570 b3ef 1b2c ac3f 9e57 0254 3f57 c23f
00000370: 46e5 655e fd4d a6bf 7e75 119a 8b3e a73f
00000380: 09d3 0765 6507 8bbf 4895 b233 33bf a33f
00000390: c961 3ff2 94c6 b2bf ba6a 2bea 26f7 c4bf
000003a0: 2ebd b43b 7ef7 c6bf 2c07 2166 2d64 c43f
000003b0: d482 29a9 5689 a43f 9095 8bb7 4ed1 c5bf
000003c0: f467 0e56 ec70 ab3f f63c a761 a0ee b83f
000003d0: cadd ce3b f914 bc3f 9113 3fb2 f9a9 cabf
000003e0: 5636 7e1e 803c c13f ed9b 7737 ff06 693f
000003f0: f179 4167 d66b a9bf ccb9 edb8 1f8f 9b3f
00000400: f07e f3a0 7ef9 453f 1a9a 43b8 cf1d 8ebf
00000410: dea3 5a13 3069 93bf 324a 8897 af3f c9bf
00000420: e62b c2a7 93b1 bc3f c1ea c489 304f b1bf
00000430: 487b 877f fb6d c03f d43c 396c 0c2d aebf
00000440: 945a 4e30 db8a c1bf 90dc d941 8249 c6bf
00000450: f30b b8b1 9785 bdbf c69d 8a22 8396 aa3f
00000460: 1245 16fc 4938 a93f 7282 9753 f63a c13f
00000470: 8eb1 8a5c aa0d 97bf a59a b1a9 dac2 c03f
00000480: 3c90 8bcc bd4a a5bf e382 641c a4a1 c7bf
00000490: 6c2f 61c8 86ab 95bf a119 f18d 5bbb 87bf
000004a0: dde5 1c24 507a 9dbf 1c16 4f12 eaea 953f
000004b0: fe6a e3e7 510f a2bf 5065 77bc 3a98 c3bf
000004c0: 1ab3 776b 58c2 9d3f 4ff2 cd43 ea3c afbf
000004d0: 41da 8aa5 576c c9bf 862f 3a89 675b a2bf
000004e0: 5c33 3b38 c420 c23f 242d 6d69 cc28 ab3f
000004f0: 13e1 9569 2086 a23f 73f5 65f3 f5ef 953f
00000500: c75c 5aaf 8560 9a3f a699 1114 de62 ae3f
00000510: fe9d 038e bdfa c83f 528c 321e 23bd c3bf
00000520: 66a6 0f1d a823 b83f 5a94 15c3 5005 b83f
00000530: e20f b6e9 ea59 bebf f8ed 02d9 f46e b8bf
00000540: 4e18 abb2 912e 86bf 0fd8 9898 e395 ab3f
00000550: 8d94 b2c4 fb5c 9b3f 7fb0 7036 d110 b3bf
00000560: 898c e2be 744b c2bf 9be8 67b9 8110 c23f
00000570: b397 1b3f 00ee c23f 61df 6ee0 ac0d c53f
00000580: 4711 209b f0d2 c3bf 6b88 ed5d a506 65bf
00000590: c57d ada0 8e50 903f fe64 ec46 794a c2bf
000005a0: ca2d 4cc9 d647 bc3f 3182 15a8 6dc5 c3bf
000005b0: 7516 52ad 8bf6 b53f 31d5 8a9b ff9e a8bf
000005c0: 6386 4769 0ea9 b3bf 1a7b a55b efdf 92bf
000005d0: ae68 7f24 8dd7 8a3f 2b90 f7bc 5d12 c6bf
000005e0: 1f05 4b1e dc58 a6bf 4dbf 8395 8572 b9bf
000005f0: 2b35 9b89 efd6 c4bf de53 2b67 d4ed b4bf
00000600: 23a3 4953 92b3 8dbf 89d2 4102 8df2 893f
00000610: 638d a16f 3c6e bbbf 18d1 e0ed e26f b93f
00000620: 6251 7851 5064 b4bf 4834 3831 a14e b23f
00000630: c0dc c74f 51ab b8bf b026 3e67 d634 7e3f
00000640: 1455 33f1 5041 b2bf eac9 b7ec d548 bc3f
00000650: 0501 2638 9b42 c13f 95ae 5e60 7077 b63f
00000660: a0f3 b646 aa26 b6bf 0503 612f 342c b33f
00000670: 8873 72a6 f1b5 a43f 2f02 ff94 ccf1 933f
00000680: 6196 1779 99fd bfbf f5db 4fba acc3 c03f
00000690: ebdd 69d3 7015 b8bf 58c3 0df0 dcd4 b7bf
000006a0: 5824 5053 1962 97bf 84aa 2f09 e41c b4bf
000006b0: 4060 11c1 3c58 abbf 032d 7031 52cc b83f
000006c0: 1d07 2908 da03 b3bf 6577 e048 1b5a a93f
000006d0: c346 fbd3 6d12 c03f 33b8 023b e2be b33f
000006e0: 90a7 e504 4878 a3bf e5b1 0589 6a23 bbbf
000006f0: a295 b5f2 f438 a23f efea 1be4 98ec 89bf
00000700: 36d1 3683 c536 66bf 14ff 6b4d 0078 c6bf
00000710: f229 ff66 ca2c bdbf 4638 232a 4720 adbf
00000720: 39b6 4956 d3bb 99bf cf87 fcf2 794a ba3f
00000730: 1a68 ac37 9645 c13f 8513 bbe2 d568 a53f
00000740: b0ce 6056 f524 853f e4de 2d92 11d6 bcbf
00000750: 8cb6 f6d7 b31d b8bf 3eab e418 7925 a23f
00000760: 1a5a df19 91d2 c4bf 0f7c e62d 4054 a83f
00000770: 35d9 9a1a 90c2 95bf 0d73 e177 6bb2 873f
00000780: 3eac a4c6 6066 773f 5bed 626c 3f42 c33f
00000790: b093 99bd f6bd 913f c5c4 c1b0 91a9 80bf
000007a0: c67a 4eed 1635 a63f 1c16 a643 3872 a5bf
000007b0: 0a7d c229 6bc1 b2bf b8bf 91e8 f95a b3bf
000007c0: 1f93 4ba4 9be5 b3bf 3ca8 b9a1 eb74 c0bf
000007d0: 0f3f af1c bc68 b7bf 5836 9743 7896 c13f
000007e0: 1330 b2d8 b02e b53f ea70 8101 7ae4 b33f
000007f0: 5a24 fa46 8444 bebf bb4d 465a eea0 913f
0.0898051674692897 0.0832317034623198 -0.06688440814461521 -0.10129979258260488 0.09810654819287597 -0.24936944039706926 0.1006350999694321 -0.10929201590229264
0.1223029378711553 0.12433621625062856 -0.11260779641005157 -0.04726056891576366 -0.07313893867252504 0.01022805562714449 0.04179941040582049 0.04173319984616515
-0.017922052187153956 -0.11798261766537935 0.0762046637668646 0.008382208989732111 -0.11388972447124263 -0.0894274009700127 0.04726896248378456 0.0031606683687330633
0.08515378233169088 -0.10818425686204107 -0.0774764337361231 0.0587231877785288 -0.0038169231865800386 0.11108361603978584 0.19431590819690106 -0.05730128145993115
-0.10276505025539395 0.09658496140225836 0.010310150320778307 0.049923350723568204 0.1859610680860372 0.06617383016918209 -0.14459753764858166 -0.13701571020627934
0.05939548059162193 0.005365281507260102 0.1507893304666557 -0.061269061669843916 -0.023256501245737086 0.011227405178056333 0.017742580114246932 -0.048052872319268206
-0.05356737202814383 0.026634771128266094 -0.052847502257655575 -0.09319353376526629 0.017630614450776284 -0.18386543869870414 0.1232342724689134 -0.0320813453047761
-0.06056474292645502 -0.015940586820888895 -0.13821592580133532 -0.008697441596168403 0.06512875790446856 0.03253934360705949 -0.05425989757133575 -0.11186708150498666
-0.023399115414164305 -0.17404362851434432 0.03695895162336442 0.1331903506971273 0.09437164286154846 0.08087235199791057 0.04118112275515914 0.07661553246668293
-0.05249876392629779 -0.059265147071261993 -0.05006163688115567 -0.04214932646418688 0.07439361568452117 -0.16139139293629548 0.08252241579395043 0.15357570465157194
0.009488940052639337 0.027753186553690398 -0.16596165995823983 -0.03705537644338987 -0.1006206795577574 0.19339939115342966 0.051453569104384256 -0.022141513759160434
0.09122121473717093 -0.026989377247933165 -0.19976760682290529 -0.00502224471726667 0.0542162666961677 0.036726445114750046 0.11902080828462441 0.06683759416398657
0.04241604987088434 -0.010289426663742177 -0.011439158730309575 -0.013597107992253343 -0.05752419340355066 0.07163079102213701 -0.009834955495125359 -0.008540906884581919
0.1937371863976493 0.02739476252887599 -0.09226624918492607 -0.04735167273652249 0.05502402592694126 0.14328757860192537 -0.04356376435584734 0.045399057919648364
-0.01319770063944638 0.03856811529230214 -0.07334261812446309 -0.16379248079359404 -0.17942788997013664 0.1593071697880587 0.04011030974357302 -0.17045005762262777
0.053595910553852294 0.09739115127671369 0.10969503126295091 -0.20831223681866765 0.13465882767597986 0.003055094213539436 -0.049650859932388054 0.026913161909243574
0.0006706112198137919 -0.014705298243325383 -0.01895594709518266 -0.19725603961031052 0.1120846066061599 -0.06761458743577987 0.12835639693272527 -0.05893744298065831
-0.13705005510992818 -0.17411831107503817 -0.11531971062508699 0.05192956730507663 0.04925757601007254 0.1346118839419606 -0.02251306714849615 0.13094647680118957
-0.04158585664643552 -0.18462039362295632 -0.0211621341516514 -0.011587825078220261 -0.028786899761348173 0.021403939597595664 -0.0352731319014392 -0.15308317377529557
0.029061681327152568 -0.06101162030879392 -0.19861884673237465 -0.03585361051690854 0.14162495370546935 0.05304564272827353 0.036179554833269865 0.021423190098621214
0.025758827998825475 0.059348049115942644 0.19515199121745747 -0.1542095086525444 0.09429407796383202 0.09383110773849648 -0.11855953412856438 -0.09544306085711429
-0.010831011071228993 0.05387793767697257 0.02672189128920315 -0.07447536067110326 -0.14292773552469765 0.14112874558469887 0.1478882129806017 0.16447983702323213
-0.15487487387157214 -0.0025666456053139905 0.015932301098812624 -0.14289775813157485 0.11047117628566308 -0.15446253497340615 0.08579323750935848 -0.048088062035655084
-0.0767983443288585 -0.01843236920228284 0.013106444050141466 -0.172435490864815 -0.043646696756250096 -0.09940371418246947 -0.16280931681687014 -0.08175399321346741
-0.014502661864030103 0.012669660216695593 -0.10715081906669392 0.09936350162098895 -0.07965566624654266 0.07151229335450282 -0.09636409948130886 0.007374608528957147
-0.07130914581951614 0.11048638371702393 0.1348451637422913 0.08775999405650688 -0.08652748323852544 0.07489324719155029 0.04045062214684153 0.019477078050615212
-0.12496337133742365 0.13097151849044023 -0.09407715951407851 -0.0930917821949725 -0.022835155210519126 -0.07856583809158663 -0.053407572334152054 0.09686769206034644
-0.07427752207970824 0.04951558365449563 0.1255624089304118 0.07713140431107561 -0.038027048681057996 -0.10600915761251135 0.03559079611549555 -0.012658304654441703
-0.002711663977345814 -0.17553714542736343 -0.11396470083779045 -0.05688688649534916 -0.02513056005630274 0.10269891912733374 0.13493612020903428 0.04181545632085374
0.01032439870696264 -0.11264142817332928 -0.09420322439719991 0.03544214657661947 -0.1626759888010419 0.04751778183275956 -0.021250011085350812 0.011570777507750951
0.005712869673781871 0.1504592208128582 0.01732621700502407 -0.00813592739743497 0.043373791187368435 -0.04188705278197011 -0.07326383370899606 -0.07560693672144125
-0.07772228966821303 -0.1285681285547201 -0.0914418764143614 0.13740447330785588 0.08274369516783535 0.07770502602346921 -0.11823298199500823 0.017215465793538814

transform_generator.w0.bias f8 [64]
00000000: a6e5 8af1 58aa be3f f260 8538 b11e 9bbf
00000010: c94b c962 7b32 933f 8390 afcf e822 6dbf
00000020: b71e d637 4f54 a73f ff9f ab02 d16b b73f
00000030: 2fa5 b081 6944 c8bf 0065 b182 9fb4 95bf
00000040: 52f1 fb16 69fe c93f 11cc 9b76 a93d 95bf
00000050: e495 88c0 58c5 a7bf 9830 0037 b4d9 b7bf
00000060: 9dd5 5245 a32f c03f 4d11 23ce bce4 aebf
00000070: f3c8 d115 e318 b53f c0e5 8c4f 3da5 99bf
00000080: df15 f66b 452b b83f de98 fcc9 459e c23f
00000090: 555e ffcf 11f9 ba3f 8230 31db 236c c4bf
000000a0: 79e2 6b34 7a0e 99bf 67c0 9f70 beb3 abbf
000000b0: cb3a 52cb a587 be3f 0466 b3b5 6eac c23f
000000c0: a811 2e50 3313 afbf 88a5 059b cbb3 afbf
000000d0: 70e4 5e8e ea05 c03f cfff e866 81a2 b2bf
000000e0: f0e5 8392 8f6b c13f 277b 8481 99c2 bcbf
000000f0: b608 4e9b 5982 b1bf 726c aab8 92ed a4bf
00000100: c6c5 bc4b 69a3 afbf 6fcb cd55 1a35 c6bf
00000110: d7e5 3dc1 3dfe c03f 97b6 b6cd c948 b1bf
00000120: b29d 96d2 c598 aabf 8e1a c464 69ff c03f
00000130: 3f8d 0420 b44e 773f 5b35 b095 6130 a03f
00000140: d78e 8b51 5ec3 b8bf 3760 a387 a86c a1bf
00000150: 88c6 5a27 f478 ad3f 9943 36d3 cd5a 31bf
00000160: 0032 8a43 1c74 c4bf b7a1 eab5 81e3 703f
00000170: af7d b119 9aca bcbf 4d2d bdfb 19be a23f
00000180: 109f bfb8 e1a7 bc3f 0984 6791 77d6 b63f
00000190: c06a db23 3c2f 433f 2d00 55a0 4b07 b7bf
000001a0: 2dba 100c d790 a2bf 696e 08ec b742 b4bf
000001b0: 8eef 20e5 de0f 57bf 5e65 c50f 8294 cb3f
000001c0: d668 42a8 6911 a3bf 4630 eeac 2ace a43f
000001d0: 7093 5a76 6d8f aebf 766a d777 235e bdbf
000001e0: 2f30 9cc8 5e15 b93f 683f e544 81e8 b9bf
000001f0: 9d24 b483 a8f6 b43f de8e c71c 5715 c8bf
0.1197867955878765 -0.026484269213455876 0.018747260956228282 -0.003556685170666597 0.04556510502430682 0.09148889842219886 -0.18958777267952473 -0.021196834899773087
0.20307649252198218 -0.02074303423337304 -0.04642751074088006 -0.09316564886848011 0.12645378956737555 -0.06033887878723707 0.08241099627210584 -0.025044401150102535
0.09441026578686927 0.14545509684211927 0.1053630001837232 -0.15955017283193135 -0.0244692892547129 -0.05410571217351006 0.11925731862923354 0.14588722107036756
-0.06069336274871101 -0.061918604539481115 0.12518054916089083 -0.07279213678793826 0.13609499601425012 -0.11234435474441949 -0.06839523355123131 -0.04087503914089376
-0.06179360436943741 -0.17349557103770105 0.1327588265956325 -0.06751691124255853 -0.051946813541970185 0.13279454632011717 0.0056902919898534346 0.03161911918878487
-0.09673108569000576 -0.03403212218989931 0.05756342869189007 -0.0002648117544704009 -0.15979340837328948 0.004123217279506645 -0.11246646048811358 0.03660660932527069
0.11193667183362899 0.08921000766669364 0.0005854648258848058 -0.08995506920200631 -0.03626129171640389 -0.07914304268381901 -0.0014075924596132802 0.21546960611412208
-0.037242223538855576 0.04063542710272876 -0.05968801564930615 -0.11471769023720832 0.09798233411510247 -0.10120399410265934 0.08188870635435071 -0.188151253750326

transform_generator.w1.weight f8 [64, 64]
00000000: 48fd 7090 46c7 b33f 1601 5120 93b4 a63f
00000010: 9511 530b 02c9 993f 44be 4dc0 276f b63f
00000020: 5df6 83d2 a31c 763f 7ab1 c45b 4871 a1bf
00000030: 61f5 6c47 2939 bebf 86ff c128 9684 9bbf
00000040: e4f4 f0f3 741c b13f 4dd7 e820 c2e7 adbf
00000050: 2f60 5d7b aa11 a63f 7614 197f 2e6f bcbf
00000060: 3e1c dccd 30ca 97bf 1f45 bc9c 64a2 af3f
00000070: 28d8 449d a712 bdbf fba9 71b5 f4ee 7dbf
00000080: 5475 d2f8 a5d8 a7bf be9f 25be 0782 c23f
00000090: 8800 a18f 3f08 b2bf c3c7 3150 e584 7a3f
000000a0: 9d04 650f bc59 a83f 4ace 4453 bbdc 77bf
000000b0: c683 29e4 2c4d b5bf d645 7a42 b8cd 9bbf
000000c0: 34ba 4f58 60a2 87bf 2444 b6c7 f6b2 7a3f
000000d0: 1e51 b6a6 fa74 a43f 5957 d2ca fa47 b1bf
000000e0: e07f 53b8 c2e1 bebf b650 dfdd 88f0 ad3f
000000f0: 003a d055 abc6 b1bf cf71 45c8 0fc4 7c3f
00000100: 8abb 393a 22cf 97bf aecd 4996 8773 a33f
00000110: 7679 45d3 3543 a8bf e442 e63f 7a68 8d3f
00000120: e47c 5044 9d2a c4bf 4d49 9664 8248 9f3f
00000130: a0de fe62 7ba4 8d3f 2777 17fa aad0 753f
00000140: d46c 8213 ea17 b3bf 613d 303e 662b c9bf
00000150: bd9e 9e01 89f7 bd3f f155 b9b5 e771 b9bf
00000160: 6dca 822d fa7f adbf ac9a cf41 7c47 bfbf
00000170: 182e 9d65 6d03 99bf 5376 9635 982f aa3f
00000180: 43fb 6c50 a05a b63f b59a 2848 d911 b0bf
00000190: 89f6 8857 1a25 973f 8ebe c4bb c0ad a2bf
000001a0: 068a e06c 7767 ad3f ba44 6141 f83e a2bf
000001b0: e583 76eb f892 a43f d500 b1f9 9013 c03f
000001c0: 74a8 848d 0b9d b43f 71e8 3271 3f5f 94bf
000001d0: 5007 d012 64a5 9b3f 31b6 4f1e c14a 47bf
000001e0: 3bed 9206 e431 92bf 00da a256 4e55 b0bf
000001f0: 08e2 6b10 ebef a3bf 2a0b 80f9 c718 8a3f
00000200: 62f1 d100 bb6d c3bf 9cc3 d818 1610 98bf
00000210: 4996 6489 b64f 95bf 097a 25eb 4bc9 a3bf
00000220: 3ad5 a0d3 f7cf bfbf d4be 7c2b 8409 aebf
00000230: c602 27ec 98a9 91bf 101a 7b1c 9c5f b53f
00000240: 2db0 7c8a 5b6b b6bf b1d8 f23d afbb 823f
00000250: fb9c 46e0 1765 8c3f eebd d70d daaa a2bf
00000260: 7364 0b6d a6b0 913f 666a 5c34 5780 b33f
00000270: 92df d987 c161 b83f 2e81 8845 39de 94bf
00000280: 9bec d19e 92e5 b9bf 5005 8e75 de72 ba3f
00000290: e0d0 f5ca fe53 ae3f a70e f12c 4c01 aa3f
000002a0: ee52 2c45 77e6 71bf aaf5 4f69 6705 9cbf
000002b0: 8d04 0902 4673 b23f 884c 797c c42b c1bf
000002c0: 24e9 f5ec 8b0b c03f 18cd e462 2349 c23f
000002d0: 5af7 776e 93e4 973f 1844 661d 63b0 953f
000002e0: 7f96 1cf9 5d71 a9bf 2a0b 3e47 3194 c1bf
000002f0: d09c ff9b 76a2 c13f 205a 6b56 4c14 bf3f
00000300: b413 116a a151 a4bf e9c6 d3c7 0fa9 973f
00000310: 76db da15 2460 b33f 0c08 8669 d413 9c3f
00000320: fba2 bcb9 c922 c03f 2540 64fd a461 c0bf
00000330: ac89 9081 ebe3 7ebf dd46 54bf dde4 9c3f
00000340: 8ae7 76b5 7f14 acbf bda6 30be 7392 a9bf
00000350: 4263 1072 0eed bb3f 8528 06bc 57ba bc3f
00000360: 7f3a 4162 af86 bbbf 5e0e caa6 596b b03f
00000370: c2c0 c17c 713c a4bf 961e 60ab 1905 b2bf
00000380: 8017 e1ff 6243 bc3f 4a37 b0d5 677d a5bf
00000390: 86f2 0557 e242 a33f 2606 0806 163b a73f
000003a0: 1cce 6de7 3f74 a3bf f0a7 6ac5 b609 c23f
000003b0: 5cd7 f7d5 62be c3bf 6e7b 23fa 833e a33f
000003c0: 118b d00b 7899 93bf d0df 4183 7420 953f
000003d0: cf65 ff5e 92f4 b3bf fc02 8960 5c71 c5bf
000003e0: a200 0696 78c7 b1bf cb8d bb67 a439 b03f
000003f0: 9312 b16e 247b bb3f 5266 fed1 fe3f 943f
00000400: 2fa7 87c0 3465 bcbf 2a88 d834 eb29 a8bf
00000410: c53d b0ca aef5 b6bf 9c4f dea5 7150 a6bf
00000420: 1f9d 2dad 7836 c8bf 5966 c98c d5b6 a13f
00000430: 7ce1 2ccb 8d5f c53f 2c1e 3cf4 8b83 ccbf
00000440: 7281 583b f555 a8bf bd9d bc48 d88c a3bf
00000450: 8d07 1608 262f bdbf 1d06 100e 0e9d e13f
00000460: f62b d0a5 4310 bd3f ac36 ebe9 79b0 71bf
00000470: 3760 c55d faa2 96bf 0163 b966 4e15 9a3f
00000480: ce2e d70a 816a c23f 5ae1 9ee7 ea57 7b3f
00000490: 4da2 55bf 5c72 903f 8c8c d598 a0ce c1bf
000004a0: 4b74 4053 782e b5bf 505b cd99 bd98 bb3f
000004b0: 5279 c463 0e3c b03f 8fd8 db8a 89b7 c9bf
000004c0: f3ed 1355 8253 c33f 7c0e d012 81be a8bf
000004d0: 9802 c4ac e82a adbf 98d3 bf6c a21b b53f
000004e0: eb39 d763 67da b03f 1207 8d1f b42a 7c3f
000004f0: b2bd a66c 3b68 b1bf 6f0e c694 6d32 90bf
00000500: 4f3e eff2 372b a6bf cac7 745d 0be1 b53f
00000510: 2cb9 fba9 f5c6 a2bf aadf 64aa be9e 91bf
00000520: 2d38 aff7 d65d a2bf 3121 4762 d230 a53f
00000530: 9413 f7c3 2987 8bbf cddf 116e 0994 bf3f
00000540: fe6c e25e 4cb0 ab3f 1741 e05c 63f8 c53f
00000550: f0a9 f674 185a 80bf f7dd 37c9 0531 a6bf
00000560: b34d ee2f c29c 7a3f 3abd 5aff 24dd b1bf
00000570: 97b8 c0e9 0e4b c1bf 675f d96f 19a2 b5bf
00000580: 3a01 856d 5714 b8bf ffab 3dfb dab0 b0bf
00000590: 1ccc db67 35d8 c73f 7484 560f 8217 b9bf
000005a0: bcd6 113a f551 7a3f 365a e673 9504 b63f
000005b0: e4c1 a2ee 365f b13f 35fb e268 1ed9 ac3f
000005c0: a3e1 6492 9079 953f dd89 34bf 7245 a43f
000005d0: 8307 cd33 f8f1 b5bf 1b60 8a6b 9e3a c6bf
000005e0: 70e6 9682 3d80 8ebf b058 ab86 0406 b9bf
000005f0: cccf c616 342b adbf 0375 2048 3051 c23f
00000600: 6ed2 37e9 b243 b4bf 51e6 148d 2f1b b1bf
00000610: 6405 261f 3de0 b8bf 4ce0 722e 1a88 c4bf
00000620: 33f5 0c55 c304 a43f 12c8 9a2e 05c8 b7bf
00000630: ceff ceea f97b c23f 1a51 42d7 9195 c8bf
00000640: 282c 82e1 bcf0 c1bf 1924 cff6 fcc6 903f
00000650: 5b79 9d05 f471 c53f 9e92 953f 637d b73f
00000660: 7043 baa2 587e af3f 423a 385f 3646 b63f
00000670: 3c2c 30e6 4bfa 943f c85e 3dcf 2cc1 b9bf
00000680: 6a6c 3fca 93fa babf 609a 960a b6d7 afbf
00000690: 0cfc 6493 e383 c6bf 7562 1e06 47c7 b7bf
000006a0: f5d8 51f6 16c2 b13f 8588 af95 a5fe 9f3f
000006b0: 8c51 edbf 00ea 823f 5683 1897 97c6 babf
000006c0: b639 f844 e0ff 963f 77b2 371b ed5d 853f
000006d0: 3313 8c84 0882 b1bf e28e 5c96 53df c13f
000006e0: 01bb 8020 9eb1 a4bf c0b6 bbea 2e69 a0bf
000006f0: acea b412 cd52 b33f 406e 26cf 95a5 b5bf
00000700: df51 98f6 f861 b3bf 4992 01c0 a1df bf3f
00000710: 53ac 8dbc 8c87 bcbf 2948 6737 12f6 82bf
00000720: 760c aa66 e090 b6bf b14d 7fd3 1e54 b33f
00000730: c4b8 4ff4 a501 a23f 5d4e e059 a75e bf3f
00000740: e1e4 6dd7 15fd b6bf 95b1 2ef1 ed95 a4bf
00000750: 0d19 373c c487 bd3f 719d 5bb1 9122 b0bf
00000760: 6d3a bafd 20f7 a13f 266c 259f fd53 bcbf
00000770: 1e2c d1ce 10b7 b1bf f5fc 0329 c325 b0bf
00000780: cf35 35d7 d923 b93f b4b3 5c8d 0445 a23f
00000790: 323f 6cfe 280f a13f 30db eed6 6b1b bc3f
000007a0: e2f9 bb4d 18f1 b73f e9ac c199 b519 6fbf
000007b0: f758 b369 f9a3 abbf e916 b874 f00c a3bf
000007c0: e6de a0ae be3a c4bf c1b9 9564 c80a b63f
000007d0: 94b1 2e9b 3585 c13f b096 4747 edfc 923f
000007e0: 1a0b 86f1 a040 ad3f 29a6 f500 3463 c1bf
000007f0: 87f1 4f55 a2fe 9fbf 0f8d 3811 8b86 b0bf
0.0772594549789477 0.044346425719142754 0.025180847111884914 0.08763359494127437 0.005398406916581414 -0.03406740303248319 -0.11805971139707118 -0.026872965085658083
0.06684046702953911 -0.0584088006184361 0.0431035304633841 -0.11107149699189897 -0.023232233586011335 0.06178583539270676 -0.11356589879582712 -0.007307964223495218
-0.04657477056864914 0.1445932081653591 -0.07043835884633343 0.006474395518226875 0.04755962074205764 -0.005825740565615309 -0.0832088524853268 -0.02715194612262003
-0.01154017705445396 0.006518329605925497 0.03995497975407346 -0.06750457240772557 -0.12063233375692972 0.05847575863268288 -0.06943770260861726 0.007022916459700614
-0.023251089862636166 0.03799079618047628 -0.04738777355190653 0.014359431338364322 -0.15755048595108356 0.030550038709017447 0.014473880728345379 0.005325954321475901
-0.07458365417771812 -0.1966369441656566 0.11705833711186649 -0.09939430414791396 -0.05761701398423189 -0.1221845303221964 -0.024427136733079363 0.051144367734406025
0.08732034648435864 -0.06277235042271452 0.02260247382422745 -0.03648187915893884 0.05743001178804623 -0.03563667104811814 0.04018380998900976 0.1255971163936979
0.08052131848367755 -0.019894591602430404 0.026998103759985626 -0.0007108157120662759 -0.017768443013421047 -0.06380166640415297 -0.038939805750434486 0.012742578794136945
-0.1517862085346549 -0.023498864428066576 -0.020811893592642048 -0.038645145849603386 -0.12426709095673952 -0.058666353519922915 -0.017248525060270102 0.08349013991674092
-0.08757564669639413 0.009147042348882502 0.013864695102553606 -0.036459745588100265 0.017275429158733546 0.07617707279534044 0.09524163786579568 -0.020378966206522957
-0.10115925195161639 0.10331526155461757 0.05923458316365937 0.050791149602927015 -0.00437018003392063 -0.0273643644359162 0.07207143354118468 -0.13414817884276808
0.12535237379399533 0.1428570015792523 0.023332885377377856 0.02118067614498295 -0.0496930471984287 -0.13733497599249606 0.13777048699487304 0.1214034758553244
-0.03968529147872549 0.023105856486785568 0.07568574460570496 0.027419394436499586 0.1260616452139159 -0.12797987339627173 -0.007541580148457443 0.028216805270011903
-0.05484389391081297 -0.04994546600967229 0.10908594403043728 0.11221836414748239 -0.10752388142393875 0.06413803407672833 -0.03952364585791336 -0.0703903239628921
0.11040323969890942 -0.04197239383220948 0.03761966049475966 0.04537266563057711 -0.03799628925380835 0.140921446223103 -0.15424762199080078 0.03758633068513616
-0.019140125008685397 0.02063161898738014 -0.07795061892775056 -0.16752199853547 -0.06944993651086631 0.06337955029044122 0.10734775259431677 0.019775373045922535
-0.11091928196370014 -0.0471948148736064 -0.08968632172058395 -0.04358248853455324 -0.18916233497586973 0.03459803908908716 0.16697857304258068 -0.2227644865563304
-0.04753080701289293 -0.038183936003686615 -0.11400067994511982 0.550421740976336 0.11352942274258723 -0.004318691468780205 -0.022106086705520247 0.02547190191248472
0.1438752463276302 0.0066756416289809 0.016061257532245233 -0.13911826574903718 -0.08274032623781229 0.10779938702522185 0.06341638503770256 -0.20091361313069853
0.15098599580947755 -0.048328431650614484 -0.05696799382167689 0.08245291857731585 0.06583257854001771 0.00687666283266865 -0.06799670603390132 -0.015817367749618002
-0.043298481373878255 0.08546515494961607 -0.03667419147483239 -0.017207125806833957 -0.03587219022266228 0.04138810586624898 -0.013441396992570444 0.12335261285068029
0.05407942446000823 0.17164270434342008 -0.007984343594974214 -0.04334276276852827 0.006497152847163279 -0.06978064760436534 -0.1351030961390662 -0.08450468998614512
-0.09406038688485277 -0.06519859918414282 0.18628566333026775 -0.09801495432340507 0.006425817410777131 0.08600744323334983 0.06785910917347554 0.056343984893365485
0.020971545157608806 0.03959234794662667 -0.08572341217680272 -0.17366390467646017 -0.014893036411069732 -0.09774807250809903 -0.05697024133715409 0.1431026794606752
-0.0791580027942673 -0.06682107157112084 -0.0971716118856612 -0.16040351169590605 0.039098838932185485 -0.09289581668670646 0.1444084545637438 -0.1920645047254162
-0.14015923510700756 0.016384079517397596 0.16754007600952545 0.09175701429701141 0.061510820259292553 0.0870088560552427 0.020486055302211023 -0.10060386714519176
-0.10538600623788033 -0.06219262007953286 -0.1758999318790021 -0.09288448237783505 0.06936782373108825 0.031244838009918858 0.009235387665889737 -0.10459277571545775
0.022460464677402668 0.010433056252588486 -0.06839040027632563 0.13962788431046308 -0.04041761538279865 -0.032052484659158775 0.07548219401079831 -0.08455787951827975
-0.0757136919058392 0.12450610101365912 -0.11144332507471803 -0.009258405986575085 -0.08814814096881371 0.07550232566364092 0.035168825219316996 0.12253805107348499
-0.08979927548888923 -0.04020637101288852 0.1153528830537633 -0.06302748279596472 0.03508856866129837 -0.11065659652142354 -0.06919961022610763 -0.06307620765072726
0.09820329193208653 0.03568281388866215 0.03331878762958097 0.10979341504467466 0.09352256677445994 -0.0037964388739531907 -0.05398539939203489 -0.03720809387963959
-0.15804275061395073 0.08610203223881908 0.136877728245406 0.018542964435161735 0.05713370273863046 -0.13583993956426468 -0.03124478955941037 -0.06455296678955257

transform_generator.w1.bias f8 [64]
00000000: 829b 5d3c fca2 a5bf 85be 7e53 318f bf3f
00000010: 2c23 2497 b961 a3bf 612a 97a6 9d17 b3bf
00000020: c77f c58f 4783 a13f 5e93 e6d8 bb07 b93f
00000030: aa46 9863 f68e 84bf a008 81d7 4fbe d03f
00000040: a0c8 4798 4634 cabf d32f 792e b5f5 c5bf
00000050: ab38 05eb f5f5 773f 6b8d 4b4b 4fbf acbf
00000060: a84c a1da 56f4 a2bf 066e 268e d1b6 923f
00000070: 8a3c 4ba2 d914 b4bf 3d9b ee1d cd00 b7bf
00000080: 97a5 51ea 4caf bebf f2a9 287d 9d29 b1bf
00000090: c1be 368a 8d83 953f f2c4 e3e2 5767 983f
000000a0: 1a1a b1fc f629 b1bf 3d98 9c10 b212 9a3f
000000b0: 65f9 22cb 1d62 c5bf 441a 7334 a276 b33f
000000c0: f2d6 335b 45f3 c83f 77ff 949f 051e b4bf
000000d0: 6131 b7fd 9d3b d33f 4522 94fb 99f3 b43f
000000e0: ec2f bf2e 170d b63f 2cb3 3c0b 5ba7 4b3f
000000f0: 874c 2e7f 93ce 8ebf aa7f b351 43d6 903f
00000100: 5e72 135e 8adb acbf 8126 db1c 2cd1 95bf
00000110: d5fd 0393 e53b b4bf 6dd9 9554 01a5 aebf
00000120: 3ed5 299a 7139 c43f 0737 484e 2e90 61bf
00000130: 0e99 f408 a49b c0bf ee03 c176 33ab acbf
00000140: e41c ac55 e376 ac3f 0043 531c c890 c0bf
00000150: 209a 0436 6304 82bf ae59 0b1d 78c8 92bf
00000160: e0e3 4704 9cdb bcbf 8848 a2fc 8c8e 85bf
00000170: b9fe 01f4 678b be3f de08 310e 7899 c4bf
00000180: e3f1 61ca 6891 b13f 7458 ee32 3628 b1bf
00000190: 0152 ef89 eda4 83bf 5f94 b7ad 930f babf
000001a0: 060f 31ab 289f b5bf 9317 01dd 8c24 973f
000001b0: 0d1b 00e6 8918 b0bf 9a91 9907 3cac bd3f
000001c0: eba3 ec5f 5a01 b9bf f48c cf18 2042 c83f
000001d0: e0d0 fdb2 8aab b0bf 3ca3 7f50 1e04 d03f
000001e0: 3dfd 127d 6075 9cbf 5dcd 58f8 eaea c3bf
000001f0: 110b a77e 543d b33f 0c0e 4800 a2e3 b1bf
-0.04225910412679125 0.12327869690374811 -0.03785495729431995 -0.07457909886503834 0.034204708385686504 0.09777425809313686 -0.010038304247277214 0.2616157154590244
-0.204720329623858 -0.17156090516289044 0.005849800698639533 -0.056147077504443775 -0.03702041071724099 0.018275522519259034 -0.07844314777615771 -0.08985597592127888
-0.11986237259556841 -0.06704124742160625 0.021009646950630016 0.023831723426103353 -0.06704658192857274 0.025461942924401838 -0.167056774318506 0.07602895527370729
0.1949240393948269 -0.07858309885068403 0.30051374222673216 0.08184206382805666 0.08613724604873568 0.0008439249563473076 -0.01504245025515717 0.016442348348277548
-0.05636246107471686 -0.021305741559251693 -0.07903895224807596 -0.05985263974700925 0.15800304439077623 -0.002143946114535281 -0.12974977910307256 -0.05599366020806672
0.05559454365543973 -0.12941838629787838 -0.008797431074140383 -0.01834285428307119 -0.11272597412597873 -0.010525800189757697 0.11931466777059087 -0.1609335011763226
0.0686250204179895 -0.06701983207162404 -0.009591918727815065 -0.10180018416538548 -0.0844598215053872 0.022600365628271012 -0.06287443032497837 0.115909339766921
-0.09767689554122654 0.18951798640691886 -0.0651175200453653 0.250251368152522 -0.027791507371827995 -0.1556066239005344 0.07515457241155966 -0.06987965113517464
