models/GFDL-ESM4-livneh/QM_FNO1d_layers4/2000/1980_1990/livneh_bci/model_100.pth (torch, 343628 bytes, 14 tensors)

transform_generator.fc0.weight f8 [64, 3]
000000 43 80 66 d7 33 fd e0 bf 81 ea 97 eb 45 45 e1 bf
       -0.5309085089720685 -0.5397061921533607
000010 f3 03 82 65 f7 34 dd bf 2b f7 9d f6 cd 0d e2 bf
       -0.4563578120506115 -0.5641851250399886
000020 b5 c9 b0 2c 4b f0 a8 bf 6b 40 c5 a8 fb 07 bd bf
       -0.048708295064347075 -0.11340306158422357
000030 4f 5d 98 55 2b 7a e1 3f 2d 1a e8 98 34 3a da 3f
       0.546163241556238 0.4098025792340277
000040 ed 88 86 a2 57 37 dc bf 2d 1a 4d 4b 43 5c dd bf
       -0.4408778273738239 -0.45875627854948925
000050 93 1c 0d ad 9d 71 d5 bf 74 3c 9e 54 2b a4 c5 bf
       -0.33505956553967414 -0.1690725482153287
000060 51 36 6a 73 fa 20 dc 3f eb b8 37 78 70 4a d6 3f
       0.4395128371332691 0.348293416404785
000070 b4 2a bc 33 4c e6 c5 bf ba 5a 8f 3c ad c8 c5 3f
       -0.17109062696575494 0.17018666703252966
000080 8f a7 61 84 74 38 d9 bf a8 06 50 5d eb 13 d3 3f
       -0.3940707485950207 0.2980907832389712
000090 fc 9e 15 00 a2 8a c5 3f 43 27 7f eb 46 c5 a3 bf
       0.16829323772548566 -0.038614479300646674
0000a0 8a e7 d7 ec 0d f9 e0 bf 81 1a 63 40 eb 92 d0 3f
       -0.5304021478507235 0.2589672211437702
0000b0 e5 c0 7f 48 91 43 c2 bf 24 89 5e 12 74 35 c3 bf
       -0.1426869968413548 -0.1500687684720755
0000c0 45 89 7e 0c 32 85 e2 bf bd 49 cb 60 db 0e e2 bf
       -0.578759216692824 -0.564313592005696
0000d0 68 7e 43 87 a9 62 dc 3f f1 9a c9 ae c3 e1 db bf
       0.44352186402645666 -0.4356545645627384
0000e0 ab fa 83 f9 c6 6c d5 bf 2d e5 1f 41 14 08 db bf
       -0.3347642361331206 -0.4223681102735835
0000f0 09 f5 54 04 2b 0b d4 bf a0 f9 2e 93 01 a1 cf bf
       -0.31318164275201404 -0.247101017825071
000100 60 1b 3c 2e b0 b1 d0 bf 29 a0 07 fc 01 6d d0 bf
       -0.26084522738567806 -0.25665330517085977
000110 71 97 75 74 d8 9e b3 3f 1f 0d 85 71 1c bd c5 3f
       0.07664254039045006 0.1698337129874767
000120 09 3b 88 51 ea 5d dd 3f 5b 59 0b c5 fb da de bf
       0.45885713541149237 -0.4821156906376893
000130 83 13 bd 20 17 73 d1 bf 92 90 9f 6a 24 4b c8 bf
       -0.272649557086247 -0.18979315954414183
000140 f1 4f 71 41 14 17 db 3f d1 64 a9 30 19 b8 e1 bf
       0.423283637913527 -0.5537229490684245
000150 f6 dc ef 14 1f d9 87 bf b6 b2 84 e1 48 80 c5 bf
       -0.011644594980664707 -0.16797743808401372
000160 9f ac 6f c5 59 ad e3 3f 21 62 f4 21 4c 4e db 3f
       0.614910970323212 0.426653893622218
000170 93 fd 2f f3 96 1f b3 bf e4 97 8b 0b db e8 db bf
       -0.07470076977914734 -0.4360873806712091
000180 78 ec 62 ea 1f 12 cf 3f 56 15 ca e9 2a c7 c4 3f
       0.24274062103890848 0.16232811370370354
000190 d3 46 21 d0 10 6f d2 3f 2d cd 60 8d d7 f3 a0 3f
       0.2880289108771709 0.03311036682898769
0001a0 56 4f d5 fe 79 4b da bf dd 98 c1 9d f1 43 bb 3f
       -0.41085672269877216 0.10650549031706498
0001b0 8e 60 ce e6 6e 4f 98 3f 49 d9 1d 82 6e 64 e0 3f
       0.023740513646402443 0.5122597256984501
0001c0 69 fd b6 5a 3a db d2 bf d1 c9 28 a4 2b 44 c9 bf
       -0.2946306119810829 -0.19739289775459537
0001d0 16 b0 99 23 4d 1e b7 3f 2a 00 22 33 eb 81 d0 bf
       0.0903061115183735 -0.2579296111434838
0001e0 59 95 b8 16 a7 bc e3 bf 4d 46 41 57 cf 54 c9 3f
       -0.6167788928766341 0.19790069351670284
0001f0 48 32 80 b2 43 6d d5 bf 1b 15 85 fd 82 e9 cd 3f
       -0.3347939723178439 0.23368871096514784
000200 0c 87 72 3d 7b e5 b7 bf d1 77 2d 6c bf 14 53 bf
       -0.09334535837345131 -0.0011646146164916336
000210 a6 5f 38 7c 4d dd 8f 3f e2 0f 62 ed f4 74 d8 3f
       0.015558820107841442 0.3821384733384986
000220 43 5e f2 88 7e 94 d0 3f 1d 2b 3b 69 60 7d de bf
       0.25906337140756736 -0.4764023807189675
000230 81 59 12 3b cd da 83 bf 3e 76 7e 03 5a b6 e0 3f
       -0.009694674840187602 0.522259718727305
000240 95 76 21 db 2e 14 b5 bf 25 34 cc 9e c9 e8 da bf
       -0.08233921861525524 -0.4204582262762549
000250 b5 ce 21 01 31 74 c4 3f ef 69 d6 81 6e 6d e4 bf
       0.15979588084484467 -0.6383583579911923
000260 26 2f 5c 00 17 40 80 bf cf 73 5f 8f 1d ea c1 3f
       -0.007934741686333856 0.13995713711383792
000270 28 76 a4 05 cb 1c df bf f7 0b b2 82 27 d1 d2 bf
       -0.4861323886014781 -0.2940157677004999
000280 32 c2 5a 9f 96 04 d0 3f ba 53 d2 a3 66 11 b1 bf
       0.2502800518223324 -0.06667176723051585
000290 96 c8 89 72 be b8 c0 3f 35 fd 7b 3e 05 5a d9 bf
       0.1306379374760282 -0.3961194143484648
0002a0 6f 6d 28 3f 3a 95 de 3f ca 52 8c 47 a7 b2 df 3f
       0.4778581253792344 0.4952791403496063
0002b0 36 df 8a 11 50 d5 cf bf ff ea ee 37 ac d4 d3 3f
       -0.2486972890526375 0.3098555132125255
0002c0 d0 30 09 27 79 2f e0 bf c5 79 58 b4 35 77 e1 bf
       -0.5057950746936744 -0.5458019754767568
0002d0 4e 3b ba c0 3c 51 e1 3f 6c 47 54 ed 9c 23 d4 3f
       0.5411666645248745 0.3146736447971452
0002e0 83 d2 c4 eb 0d 7b de bf c4 50 67 89 b2 e3 b9 bf
       -0.47626064323711875 -0.10113063673572059
0002f0 32 0a 62 f9 e0 28 dc 3f 87 1b 7f b1 73 02 d3 bf
       0.43999504426770664 -0.2970246537556069
000300 62 6b 14 77 a5 1f 91 3f 29 81 c6 fe 15 ba b3 3f
       0.016722283738185857 0.07705819578268759
000310 d0 1f 9b e3 dd 39 df bf 52 1a 30 f5 64 23 e3 3f
       -0.4879069063867947 0.5980706013513759
000320 73 0c ca d5 68 fe b2 bf 08 d3 e9 dd 32 8f b8 bf
       -0.0741944810816209 -0.09593503873641052
000330 9d 6c 9e 0a 80 e4 d8 3f f3 2c f7 f5 a3 d5 c0 3f
       0.3889465430926949 0.13151978979144693
000340 91 e8 0e a5 e9 f3 c8 3f 64 9b f3 17 da 46 bc 3f
       0.19494362411007107 0.11045611462360011
000350 00 f6 54 03 a7 8c a4 3f 43 78 31 16 3f 1a c7 bf
       0.04013559261009547 -0.180488477551025
000360 36 c4 77 8d b2 94 c2 3f bb 8d 64 f2 c4 f0 c1 3f
       0.14516288669213545 0.14016019664368948
000370 69 67 25 3b 74 e2 cb bf 52 6d fa a4 72 ef d8 bf
       -0.21784832847589122 -0.38961473570971805
000380 a9 2d cf 1e d3 59 df bf 9c d9 d6 ad de c0 e2 bf
       -0.48985746391982815 -0.5860436816499717
000390 f9 98 38 a0 92 cd d9 bf 03 fe b8 ea c7 cc cb 3f
       -0.40317216536131145 0.21718691788736075
0003a0 d0 8e 8b 5f 95 2c dd 3f 2c 7b 40 5e e0 6d e1 bf
       0.45584616022663926 -0.5446626511437436
0003b0 00 a9 fb 88 eb 4f dd 3f 48 76 24 17 5c 0a a9 3f
       0.45800293328524333 0.048907163453105584
0003c0 57 c2 b7 e1 78 23 ce 3f d3 f8 00 da 03 a6 d1 bf
       0.23545752545716667 -0.2757577542250946
0003d0 1c 7b fc 65 a2 5f d6 bf 61 9c de db c8 0f cb bf
       -0.34958705863566464 -0.21141920791453386
0003e0 a8 55 97 b5 bd c9 d1 3f 9e ba 23 3d e0 b0 cb 3f
       0.27793829663763825 0.21633532510118852
0003f0 ec 07 01 3e f3 78 d2 bf 65 ec 47 d6 16 c4 d0 3f
       -0.28863221221047186 0.26196833539842707
000400 da c5 fd 44 18 fc d0 bf 2a dd 2b 47 8f 6c e4 bf
       -0.2653866456740538 -0.6382519140305807
000410 5f 73 b4 11 46 89 d5 3f 20 ab 1b c7 07 8c d6 3f
       0.3365035221957466 0.3522967762389033
000420 0f ff 50 d8 9f f4 ae bf 4c 86 92 ac d7 e3 88 bf
       -0.06046008601742702 -0.012153325036993533
000430 2d 85 96 5b c1 ba df bf b0 da 4a 3e dd 12 e1 3f
       -0.49577363914621025 0.5335527626655985
000440 b3 36 dc ee 42 88 ab 3f fd 46 3e fc c5 5b d2 3f
       0.053773967416515765 0.2868514025986853
000450 97 ea cd de a4 48 d3 3f 5e 25 31 e6 b8 94 d0 bf
       0.3013088393997036 -0.25907728652653883
000460 38 6e ef 5e c9 d9 dc bf 41 8a 3e 74 ea f2 c9 3f
       -0.45079263945601467 0.2027257030104739
000470 89 6d 8b 1e 29 7e b9 bf 15 35 58 3c 16 f6 d0 bf
       -0.09958130832403901 -0.2650199498464912
000480 ea 22 4a 63 32 19 c9 bf ba 36 77 16 2e c2 73 bf
       -0.19608144615292328 -0.004823856382655195
000490 00 85 2a aa a6 25 a0 bf 42 13 e2 88 cc f2 a7 3f
       -0.03153725459311296 0.04677428408562047
0004a0 06 60 f8 9d 37 63 68 bf c1 03 10 b3 47 31 d1 3f
       -0.002976997973529907 0.2686328171403681
0004b0 53 40 5e 00 47 da df bf 23 24 fd 66 31 40 b0 3f
       -0.4976975921245003 0.06347950710655019
0004c0 1c ee 03 f6 37 e7 cd 3f 48 f7 a1 a6 c5 8e c7 bf
       0.2336187316176258 -0.18404455791817953
0004d0 bd 24 72 fb 0b e2 ae 3f 23 2e c1 de 58 4e d6 3f
       0.060318350261761 0.34853193047885805
0004e0 5e d3 8d 92 71 2a b4 bf 48 64 d5 f5 8c e7 d1 3f
       -0.07877263858774827 0.27975772864516957
0004f0 d9 b4 0f 96 c0 22 c6 3f 25 76 f5 0b eb fb c4 bf
       0.1729355557176067 -0.16393793186118547
000500 23 8c 20 f9 df 38 d2 bf ea ab 5c 7f d1 59 e3 3f
       -0.2847213681108675 0.6047141540087726
000510 33 d2 06 f2 a8 bb b1 3f 98 9f 20 14 f3 e8 c7 bf
       0.06926971348622928 -0.18679655535492823
000520 42 e3 54 56 58 ae d9 3f 09 02 d5 cb 89 f6 c2 3f
       0.4012661784250221 0.14814875080811898
000530 18 3e 83 d7 0c f3 dc 3f 41 27 57 fc 16 59 e4 3f
       0.4523346047035104 0.635875218250682
000540 2c 3b 23 3b 5d d9 a7 3f 7f 52 cf 22 2d 47 d6 bf
       0.04658023211378856 -0.34809425734901106
000550 45 6f 6e ca db 47 d0 3f 86 54 bb 82 11 cb e2 3f
       0.2543858982914922 0.5872886231760652
000560 08 fe 4e 08 64 6b d5 3f 03 72 b8 35 47 54 e0 3f
       0.3346796113146131 0.5102878617504419
000570 0f 7d ce a5 79 28 ca bf a9 9c 34 e9 ae 73 d8 bf
       -0.20436020465874846 -0.38206074499107473
000580 49 3a d2 06 f8 24 e2 bf 2e fe 42 fa e1 78 e2 bf
       -0.5670127995707129 -0.5772561920093204
000590 6c 02 32 65 ad e4 c2 bf 0e 9f 58 6e b4 64 b7 3f
       -0.14760367814234898 0.09138038343428098
0005a0 1b 33 c6 34 32 70 a9 bf a9 6f 9d 4c 9f fc aa bf
       -0.04968411344734688 -0.052708604910292785
0005b0 b2 75 b8 c7 83 c7 d4 3f f8 2f 61 e2 17 e3 d9 3f
       0.3246774149318653 0.4044856749285368
0005c0 08 e7 7e 03 ff c0 c8 bf 46 19 0d c0 4d 7f d0 3f
       -0.19338977499665355 0.25777000193592803
0005d0 74 c1 b3 f3 50 98 c5 3f 23 29 d3 7c b5 4e dd bf
       0.16871082210083055 -0.45792901220251475
0005e0 38 38 11 df cf 7d d6 3f 93 a9 08 41 04 5b d2 bf
       0.3514289549247027 -0.2868052134605474
0005f0 c8 79 77 57 f4 47 c0 3f d7 73 fd e4 76 57 9f bf
       0.12719587584338243 -0.030607087828105364

transform_generator.fc0.bias f8 [64]
000000 26 f2 13 a1 ea 72 df bf d2 a5 f6 64 bc 8e cc 3f
       -0.491388947775507 0.2231059544549639
000010 eb a0 bc e0 d2 8a cd bf 73 cc 0f 9c 4b 23 d8 bf
       -0.23079906438329742 -0.37715425720597934
000020 09 61 b9 cb 1a e7 d4 3f e9 e4 58 f9 3c 33 d4 bf
       0.3266055097096943 -0.3156273303062123
000030 bb 8c 37 17 ff 3d d6 3f cd 1b 7c ae 89 8b dc bf
       0.34753396289142885 -0.44601671256571934
000040 0f b6 fb d2 60 8b e0 3f f5 c0 ac 91 94 42 d0 bf
       0.5170139427916086 -0.2540637419324548
000050 75 6f 55 fe 96 25 e4 bf f8 32 e4 3e 9a 96 d8 bf
       -0.6295886008697226 -0.38419204847086474
000060 06 15 48 8d 1e 4d e3 3f 2d f8 59 e6 20 15 e1 3f
       0.6031639823346786 0.5338291644145606
000070 a5 91 cf ba 23 13 d3 3f 02 5c 74 f9 89 07 e2 3f
       0.2980431866001488 0.5634202835234421
000080 f8 26 c9 f4 ab 1a cc bf 2f 0d 88 de d6 6c c4 bf
       -0.21956395580701105 -0.15957151284974588
000090 91 7d 44 9c 75 61 d5 3f 7b af 28 88 1e c2 e3 bf
       0.3340734506654935 -0.6174461993555121
0000a0 56 e6 92 20 32 a9 d2 bf 99 48 6a b8 d5 f3 d4 bf
       -0.29157689267194564 -0.3273824978761098
0000b0 7d 89 c9 d9 5a 62 66 bf 27 6e 89 f3 0e 74 dd 3f
       -0.002732446139178167 0.4602086427964615
0000c0 8f 44 7e bd fe 3b b5 bf 6b 1c 7d 77 3d e6 d6 3f
       -0.082946702254292 0.35780274075336277
0000d0 7f 6a 4a 1f 1a fb c1 bf b6 f7 43 91 52 10 d4 bf
       -0.14047552612176514 -0.3134962481125244
0000e0 fa e0 14 e6 ec 5a cf 3f 6f 0f 1e 99 62 1b e2 3f
       0.2449623225636584 0.5658429136824291
0000f0 6e 8a 86 32 0c bf d9 3f 0d 57 ff 39 0d 62 dc bf
       0.4022856229222843 -0.44348459876833674
000100 25 a8 0c 50 a0 3f dd bf 09 b4 64 d1 ef a5 c4 3f
       -0.45700843636825744 0.16131398891721485
000110 64 34 ec d2 ae dc d1 3f 9f 6e 8d b3 13 91 de bf
       0.27909441564481186 -0.4776047948305208
000120 e2 59 4f 7a 23 da e2 3f 12 70 b7 51 a2 c4 c1 3f
       0.5891282452456006 0.13881329526964287
000130 aa b2 15 3d cf 3f d5 3f 72 83 d9 fd 1d 11 b5 bf
       0.3320196243792376 -0.08229243705274117
000140 ff fe 9e 7f 59 89 b7 3f e0 d7 77 51 11 49 cd 3f
       0.09193953862904534 0.22879234769760526
000150 7b 09 62 77 e2 6b d7 3f c0 51 eb 20 35 e0 c5 3f
       0.36595975550167 0.17090477092155076
000160 51 b1 5f 6e 5d da e1 bf ae 35 cc 54 5d 9b d9 3f
       -0.5579058795679349 0.4001077011206132
000170 0a 33 13 4c 9c b4 df 3f e2 41 49 82 d0 6e c6 3f
       0.4953985922737024 0.17525678979519826
000180 03 3e 98 30 69 81 e3 bf 25 92 d2 ce 75 41 c2 3f
       -0.6095472287287865 0.14262268637425382
000190 1b bb 36 10 20 a8 ca 3f ab 37 c4 3e f6 52 e2 bf
       0.20825577537240111 -0.5726271844775871
0001a0 72 25 65 7c 47 26 cb 3f 6e be 90 b5 73 71 da bf
       0.21210568975429173 -0.4131745598888078
0001b0 44 82 fe 8c 9a 62 e2 3f 6a 21 a4 b5 1b ed c5 3f
       0.5745365861694798 0.17129846924968756
0001c0 2b f4 77 6c 0c d8 b5 bf ab a3 fe c6 3e 60 df 3f
       -0.08532788894804415 0.49024934228014655
0001d0 34 37 5a a2 44 c6 e1 bf e6 5c bc b4 fc 24 d2 3f
       -0.5554526492066771 0.2835075154302572
0001e0 6d 95 a6 14 82 34 dd bf 8a f2 af 50 9c 72 e3 bf
       -0.45632984177276265 -0.6077405525134776
0001f0 24 43 2c de f1 8b e0 bf 9b d3 a4 91 a5 d1 c5 bf
       -0.5170831050219005 -0.17046041118160535

transform_generator.w0.weight f8 [64, 64]
000000 ca 7c f4 ed fd 1d b7 3f 83 ed 22 9a 33 84 b4 3f
       0.09030139026116327 0.0801422358808193
000010 a0 a7 a1 ac da 26 b1 bf 36 2e e0 5a 94 6b b9 bf
       -0.06699911799083091 -0.09929778307576317
000020 a4 35 91 0f d8 01 b8 3f 59 99 4f 5b 6f ae cd bf
       0.09377813701686094 -0.23188583334485705
000030 3b 31 c1 33 d3 fe b8 3f 56 0b 25 d6 e0 f9 b9 bf
       0.09763832105199281 -0.1014690897764415
000040 a1 7d 53 22 dd 0c bf 3f 12 7c 97 19 44 a8 bf 3f
       0.12129003608742163 0.1236612856368853
000050 dd c9 83 da 7f 5b bb bf 4b 8b bf 88 b9 b9 a6 bf
       -0.10686492047151526 -0.04438571733751092
000060 ad 52 01 11 a1 3e b3 bf 28 2e 27 62 68 ba 5f 3f
       -0.075174395229008 0.0019365329140893593
000070 8d b3 3a e1 d6 0c a6 3f 12 07 89 77 c1 b6 a3 3f
       0.04306670665150767 0.03850369056864457
000080 99 4d 9b e1 c2 35 8f bf 68 b6 e9 6a 8c 77 bd bf
       -0.015239260206192639 -0.11510541544131458
000090 b7 3c 12 9c 10 77 b1 3f f3 5f 41 5e 05 9d 85 3f
       0.06822303591092092 0.010553399981446865
0000a0 c8 7f 34 32 75 05 bd bf 5a 54 91 5b f3 4d b4 bf
       -0.1133645293780311 -0.0793144320062579
0000b0 e1 eb 7d 6a e9 dd a8 3f 4d ae bb b5 2e 31 60 3f
       0.04856805252980912 0.001976577024711357
0000c0 2f ec 88 0d b3 16 b6 3f e5 b4 2c 44 6f 33 bc bf
       0.08628386574211853 -0.11015983023090177
0000d0 d3 8e c5 5b 39 06 b3 bf 5c 55 5e 4f 9c 47 ae 3f
       -0.07431372156639364 0.059140095413719534
0000e0 e7 c9 cc 4d 60 e1 7c bf 13 5f ff 67 16 df bb 3f
       -0.00705087298119842 0.10887279547693778
0000f0 f1 d5 0f a9 df 64 c8 3f ad b3 34 31 96 d6 ac bf
       0.19057842020963237 -0.056324666506362454
000100 cb 43 f4 f1 6c f6 b9 bf 83 8d 4c cc af 58 b8 3f
       -0.10141640574535342 0.09510325181741135
000110 65 09 96 7a b3 1d 81 3f d8 e8 ea 2e ff b8 aa 3f
       0.008357431582002925 0.05219266364788816
000120 76 c1 0b f6 98 34 c7 3f 1e e8 50 b2 36 82 b0 3f
       0.1812926484485719 0.06448690274638166
000130 be 1b 72 d8 7c 75 c2 bf 90 1e 3a 18 d3 6e c1 bf
       -0.14421043938292927 -0.13619459803543466
000140 cf 2e d5 33 b0 4a ad 3f 79 72 d4 e2 18 aa 74 3f
       0.05721045143817848 0.00504502984156529
000150 e2 5e 11 2b 84 d9 c2 3f aa e6 af 20 18 03 af bf
       0.14726307013437806 -0.06057048224461188
000160 f7 f0 ab 28 6b 30 95 bf e4 11 25 6d e3 a8 82 3f
       -0.020692514760399097 0.00911119152863988
000170 17 96 08 17 43 07 90 3f 9b 45 cb e4 dd 7c a9 bf
       0.01565270259938786 -0.049780782870253414
000180 2f a1 da 47 97 be a9 bf af 2a f6 90 f6 99 9c 3f
       -0.050282218476527134 0.027931072805169318
000190 65 bf 13 03 84 4e ab bf 24 14 92 24 33 23 b7 bf
       -0.053333402038218826 -0.090380855968832
0001a0 3e 8b 2a 2b 28 a1 91 3f 9f 22 78 30 5a e0 c6 bf
       0.017216327318816164 -0.1787216889063261
0001b0 51 89 e8 8f c2 16 bf 3f 88 ad e3 b7 6c 4d 9f bf
       0.12144104016673408 -0.03056878921863196
0001c0 da ae 11 cf 77 b4 ad bf da 10 c0 60 05 f6 90 bf
       -0.05801748659800206 -0.01656349566475588
0001d0 e0 77 c2 9d 90 94 c1 bf 39 65 2e 50 f5 5b 85 bf
       -0.13734634116275313 -0.010429302701413167
0001e0 9d 61 6a 02 86 7b b1 3f d2 37 d1 0e 60 d6 a2 3f
       0.06829106863950192 0.03679180317759258
0001f0 47 0d cc 67 78 b1 a7 bf 11 e4 d0 27 2d 56 bc bf
       -0.046275866194287966 -0.11068994733877015
000200 e1 ea e4 2e 78 27 96 bf 01 b6 15 f8 2e e1 c5 bf
       -0.02163493906230485 -0.17093455422893558
000210 81 ed 04 ec 49 e0 a0 3f 77 7f e9 ea 8d 63 c1 3f
       0.032961187420791134 0.1358506581336731
000220 b2 00 84 dc e3 7f b7 3f 91 51 c3 d5 cd 7a b4 3f
       0.09179519780809889 0.0799988409883723
000230 a2 81 39 5f d9 8a a4 3f 90 89 0c 89 2e 1e b3 3f
       0.04012183463487708 0.0746792873947355
000240 b8 a0 4f dd 05 36 a9 bf a1 45 13 b7 2c 25 ac bf
       -0.0492402870802961 -0.05497112021260909
000250 eb 51 f6 3f b1 00 a9 bf a9 62 ae ff 16 08 a5 bf
       -0.04883340745724126 -0.04107734557255089
000260 09 b9 6c 20 cd d6 b2 3f e9 f8 c7 0f 21 86 c4 bf
       0.07359010736101736 -0.160343296723972
000270 c5 22 23 73 e3 4e b5 3f da f6 dc 03 fa 7d c3 3f
       0.08323499260871887 0.1522820013869282
000280 8e 65 95 9f 39 f3 61 3f ee 3e 6b a7 e8 ef 9b 3f
       0.0021911740738402357 0.027282366960945596
000290 92 21 2b 73 79 33 c5 bf f4 cf 3d 5a 71 d0 a2 bf
       -0.16563337443791376 -0.03674654223041776
0002a0 1b b4 f3 e8 46 64 b9 bf c9 c8 2c cb 84 7a c8 3f
       -0.09918635546974068 0.19123897476817422
0002b0 b7 bf 58 1a 3c 81 aa 3f c2 68 f4 c8 7d 33 93 bf
       0.0517672331010312 -0.01875111140280051
0002c0 d1 4b 15 3e f5 57 b7 3f 9a df 9c c7 51 77 98 bf
       0.09118588224127612 -0.02389266758765949
0002d0 7f 0e b8 0a 7e c9 c7 bf 48 0d 52 6b 88 03 75 bf
       -0.18583655856501832 -0.005130322349148848
0002e0 8f e1 7f ba b8 c0 aa 3f 74 63 33 0c 30 79 a2 3f
       0.05225159908872278 0.0360808386701085
0002f0 3c ad 32 68 51 7d bc 3f de f8 e4 c0 8a 27 b1 3f
       0.11128720086951643 0.06700961312614903
000300 3d f1 b9 a5 81 b3 a4 3f 4a 03 1a ee 9e e7 88 bf
       0.04043202541376665 -0.012160531655582969
000310 a7 da ad c4 ca 48 8e bf 31 7b c0 ac 8b 4b 9b bf
       -0.014787277342958772 -0.02665537111181066
000320 d6 7a 7a 25 76 8d ad bf 61 49 98 c5 e5 94 b2 3f
       -0.05771989066601228 0.07258449625104425
000330 2d 40 05 d7 5c 79 80 bf 21 c5 9e dc 0c 49 7e bf
       -0.008043980895905712 -0.00739388488902762
000340 c0 01 78 4d ba ab c8 3f 7f 9b 90 53 91 42 9d 3f
       0.19274071486144173 0.02857424805202013
000350 05 90 46 2a d0 3c b7 bf 1f 1e 05 cf 2a 70 a7 bf
       -0.0907716849529266 -0.045777642985339144
000360 35 c7 47 1d db 0a aa 3f 95 fe 68 b3 39 10 c2 3f
       0.05086407406260066 0.14112015972385863
000370 fe 47 76 e3 95 b6 a6 bf 8e 81 92 85 a3 b0 a6 3f
       -0.04436176683078939 0.044316396765910246
000380 6e cc 60 a1 df 04 8a bf f3 c0 9b a8 c3 db a3 3f
       -0.012704608070725789 0.038786043483812004
000390 af 64 d3 37 b7 2d b2 bf 83 62 f4 b1 8b e2 c4 bf
       -0.07101006615575288 -0.1631636256140788
0003a0 16 44 08 c4 48 da c6 bf 1c 27 2c f1 03 78 c4 3f
       -0.17853650638474566 0.15991257930755232
0003b0 f1 f5 f5 8f 3b b3 a4 3f 25 7f 3b 0b cd cc c5 bf
       0.040429936717355626 -0.17031252907235586
0003c0 bd 02 0c 4f 12 3c ab 3f c5 3a eb dc 9a 45 b6 3f
       0.053192684315950235 0.08699958699728956
0003d0 1c a9 2e 2b 97 06 bc 3f 80 bb 6c e0 53 0e ca bf
       0.10947556308989131 -0.2035622449706942
0003e0 8d 03 f3 44 9f 24 c1 3f 04 72 c3 51 8e 0b 4f 3f
       0.13393011919654577 0.0009474224966897209
0003f0 f9 1a 8d 65 be e0 a9 bf 18 47 1d 95 a5 cc 9c 3f
       -0.050542783638368456 0.02812441561338294
000400 71 fd bf b5 c9 c1 63 3f a7 c2 03 d2 2d ab 90 bf
       0.002411741223113211 -0.016277996009139397
000410 9a f1 3d 3b b0 8d 93 bf 78 6b 3b 9c cd 19 c9 bf
       -0.019095185867159616 -0.19609995010872772
000420 5d 8a 17 fd eb 71 bc 3f 8b 4e 5a fb 75 3e b0 bf
       0.1111133091831475 -0.06345307718793884
000430 e7 15 6b 01 09 66 c0 3f cb 76 27 80 76 de a7 bf
       0.12811386651280474 -0.04661913217908661
000440 72 e6 f2 6b 1f 8c c1 bf f0 cf 2b b8 eb 02 c6 bf
       -0.13708870669306666 -0.17196413510066533
000450 65 49 1f b6 24 1a bd bf dc cf b6 c2 40 b0 aa 3f
       -0.11368016668646914 0.0521259534538385
000460 d8 ce 37 d4 7a 63 a9 3f 14 37 e1 75 c5 e3 c0 3f
       0.04958709564735181 0.1319510293564511
000470 d1 d9 e0 ef 42 c1 97 bf 21 50 db 2a 69 bc c0 3f
       -0.02319817151166054 0.13074984161960493
000480 05 7d 0a e6 22 09 a5 bf 7c 69 78 c9 48 3e c7 bf
       -0.041085329610036005 -0.18158826672954465
000490 3f c1 3e e6 1e 10 98 bf 44 2f 06 f8 d4 6a 86 bf
       -0.02349899559311663 -0.010945953196617737
0004a0 3a 2f 6f 7b 11 ff 9d bf ba 91 2b 97 6c 96 a1 3f
       -0.029293320807297386 0.034350770429031965
0004b0 c3 43 0c d7 17 3c a3 bf 62 fb 8f 49 6d f1 c3 bf
       -0.03756784916016145 -0.15580526439586168
0004c0 c1 10 99 b1 92 07 a0 3f 2e 35 0a 93 a7 5b b0 bf
       0.03130777757590542 -0.06389853801575349
0004d0 71 ca 05 3c c5 57 c9 bf d7 cd 3a 80 25 20 a2 bf
       -0.19799104147712712 -0.03540150823883053
0004e0 b6 c7 ef b7 8f 00 c2 3f 61 c1 cd 81 f6 54 ab 3f
       0.14064213258057884 0.053382590623075606
0004f0 14 5e 00 27 39 3f a2 3f a2 04 9a 62 b9 72 95 3f
       0.035638605128209516 0.020945450442472542
000500 2f 11 63 03 55 6b 9e 3f 5e d3 9f 64 9a 92 ae 3f
       0.02970631440327159 0.05971224287342268
000510 e2 18 cd a0 31 e4 c8 3f d4 a6 cd 1f 84 91 c3 bf
       0.1944639239465636 -0.15287829926392382
000520 8e 89 3a 7d bc d7 b7 3f b4 cb 38 80 1c 42 b8 3f
       0.09313562447872512 0.0947587788621565
000530 a7 e9 e4 94 7a f3 be bf e2 aa 1b 53 5f bd b8 bf
       -0.12090269217598025 -0.09663959292417304
000540 cc c7 95 46 dd 18 84 bf 66 d6 e5 34 2e f5 a9 3f
       -0.009813049999795619 0.05069870372510081
000550 1c 05 aa 79 f8 b2 98 3f a4 b5 b0 62 60 69 b3 bf
       0.024120218683042358 -0.0758266678755804
000560 5d 3a 5f 7b 26 02 c2 bf 8b f3 e6 cb f0 04 c2 3f
       -0.14069062255880996 0.14077577549133155
000570 0e b4 cd 47 60 f0 c2 3f 38 71 29 03 d6 12 c5 3f
       0.14796069627792047 0.16463732866658076
000580 d6 53 19 4e 1f b6 c3 bf 25 f7 df 71 dd 4f 71 bf
       -0.1539954310743769 -0.004226555842249434
000590 b7 22 ca 35 d2 a2 8d 3f ca 7b 7c bb 4d 3c c2 bf
       0.014470712915924151 -0.1424653211078904
0005a0 d9 ef 9a 9c f7 2d bb 3f 9a b8 e4 27 2a a4 c3 bf
       0.10617015431756673 -0.1534474081794926
0005b0 e9 70 1e 4b 8d be b5 3f fa 3c ba 7c 37 07 aa bf
       0.08493884166677258 -0.0508363094096413
0005c0 8d 46 29 e7 4c b0 b2 bf 39 fd c6 c1 50 03 94 bf
       -0.07300263064942154 -0.019543897464015834
0005d0 e8 1e 8f f5 9d d0 90 3f 29 4e 18 a5 f2 41 c6 bf
       0.016420810806976244 -0.1738875681045198
0005e0 b4 e7 f1 83 ee f4 a5 bf ad d5 cd ad 32 6e b8 bf
       -0.04288430557876613 -0.09543148749602066
0005f0 28 de 0f eb 22 68 c4 bf d9 b3 69 5b 1c 07 b5 bf
       -0.1594279907001106 -0.08213975173721567
000600 8a 5d b3 e1 52 f1 87 bf 0a 52 96 f3 e6 72 85 3f
       -0.011690757286870097 0.010473064716998177
000610 83 38 e8 ed f3 3c bb bf bd b9 b6 f6 93 ad b9 3f
       -0.1063988166644965 0.10030483983312073
000620 b7 54 48 c5 a3 4b b4 bf 55 d1 8e 22 cd 10 b3 3f
       -0.07927917067020727 0.07447511762331278
000630 c8 6f 03 22 76 80 b6 bf dd 7f 04 8c 58 55 8b 3f
       -0.08789766626745099 0.013346378109929386
000640 51 fd d8 a5 80 2b b2 bf cb 64 c9 13 41 f5 bc 3f
       -0.07097629593862577 0.11311728222917165
000650 ac e2 59 fe 69 7d c1 3f f9 2d 56 f6 73 ce b4 3f
       0.13663983268249547 0.08127522243574238
000660 0d 20 00 c0 61 c0 b4 bf 02 e7 2d 3e 17 b8 b2 3f
       -0.08106051385414066 0.0731215025715777
000670 a2 e7 72 da d9 af a3 3f 87 0b df c3 e7 46 9c 3f
       0.0384510115777197 0.027614232378037975
000680 a4 9b f3 68 25 69 c0 bf f1 f9 1d 30 27 30 c1 3f
       -0.12820880531873258 0.1342820153185609
000690 01 77 2c 71 05 bc b8 bf e5 cb 43 8b fa 6f b8 bf
       -0.09661897671727716 -0.09545865917225134
0006a0 d9 a9 22 de f3 85 9b bf 12 45 f3 bd a7 f0 b2 bf
       -0.026878176148480513 -0.07398460757692174
0006b0 cd 7c fa 4d 1d 72 ad bf 59 c5 c9 8e c8 e5 b6 3f
       -0.05751124932180005 0.08944371686972853
0006c0 24 73 ca a5 9e 6c b2 bf 81 79 a4 49 dd 3e a7 3f
       -0.0719699053538077 0.045401492347298074
0006d0 46 02 b0 bf ea bd bf 3f 3c 8b 59 c4 d0 c5 b3 3f
       0.12399165325042202 0.07723717492767163
0006e0 f7 1a 77 45 b7 b1 a3 bf a8 d5 65 bb b3 b4 b9 bf
       -0.03846523974384824 -0.10041354489461318
0006f0 a2 c8 2e c0 c9 84 a4 3f 6a bd 8c a3 65 30 8f bf
       0.04007559271794149 -0.015229028752939928
000700 35 28 2a 33 d4 61 3b 3f 05 26 f0 85 40 b8 c5 bf
       0.00041781836186116926 -0.16968542613931006
000710 33 10 bd 7a 32 16 bd bf 6f 4e b6 15 25 15 ac bf
       -0.11361995216890435 -0.0548488224987097
000720 4e 50 1a 4e ab ad 92 bf 56 cc 5c 32 50 19 bb 3f
       -0.018240620271697865 0.10585499982407617
000730 64 44 35 2a c1 3d c0 3f a7 bd f5 ec b4 a4 a2 3f
       0.12688459931317475 0.03641286270692073
000740 bd a5 99 5a 74 0b 91 3f a7 e3 f4 88 95 43 be bf
       0.01664525797824522 -0.11821875184695206
000750 86 01 5d 72 ed 0d b9 bf 46 f8 e0 a4 a4 59 9d 3f
       -0.09786876718590606 0.02866227394428502
000760 8e 1d e3 a6 54 36 c1 bf cc 6b 54 98 d4 65 a9 3f
       -0.13447054051196655 0.04960502967352162
000770 c6 05 e6 5e b5 ad 8f bf a2 76 be ce 5d b0 91 3f
       -0.015468041380475205 0.01727434706082554
000780 57 a1 79 63 68 65 56 3f 88 90 1a 1b f9 a5 c2 3f
       0.0013669509334253893 0.14569009612489858
000790 58 5a be 9b 6a 25 86 3f d7 dd d1 f3 e9 bc 8d bf
       0.010813553693691677 -0.0145204808743377
0007a0 43 11 49 da b4 e8 a3 3f c8 0f 51 1c 34 69 a7 bf
       0.03888478436104716 -0.04572451444303699
0007b0 35 7b 1c ff 87 7d b2 bf f1 5e fa 00 67 87 b4 bf
       -0.07222795465757488 -0.08019107602956034
0007c0 28 b2 81 f2 db 50 b3 bf 5a 46 bb e1 a4 b5 c0 bf
       -0.07545256300517933 -0.13054333707855187
0007d0 22 f4 cd 09 6f 3d b6 bf d7 06 2d 52 bd 52 c1 3f
       -0.08687490453117211 0.13533751022810378
0007e0 22 de 8f bd b5 fa b1 3f cf 18 da 5f a2 a2 b4 3f
       0.07023177984216791 0.08060660209784774
0007f0 60 79 d6 12 09 87 bd bf e1 78 44 c0 c8 88 89 3f
       -0.11534172735125514 0.012467926375901718

transform_generator.w0.bias f8 [64]
000000 da 4d 06 45 d7 06 be 3f 50 7a 5d 5f a8 2b 98 bf
       0.11729188380404967 -0.023604040928484615
000010 48 ea 66 7d cb 36 92 3f cf 4c 88 61 a7 b8 5a bf
       0.017787150887423914 -0.0016309389667455325
000020 3c a5 1b 4e 99 b9 a9 3f cf 8b 63 2c 9b 51 b5 3f
       0.050244131836573364 0.08327646096908768
000030 fb 55 d8 5c f7 39 c7 bf 8d 2b b3 79 d9 3d 94 bf
       -0.18145648988199511 -0.01976718716904773
000040 8d a8 77 62 27 52 ca 3f 0f 37 a2 5b 1e 43 9a bf
       0.205632136421006 -0.02564666208541327
000050 97 8b 00 96 12 6b a4 bf fd 4b 36 17 e7 89 b7 bf
       -0.039879399119192964 -0.0919479781789931
000060 c8 63 d9 5d d0 3b c0 3f 65 3e 8e be 67 b2 ae bf
       0.12682537634353097 -0.05995487404936454
000070 88 f9 07 f5 2a 0d b4 3f 37 f7 e5 dd 2c d5 98 bf
       0.07832592470365374 -0.02425069908485186
000080 a5 36 22 9c 62 c5 b5 3f 7a 65 aa f9 aa c3 c2 3f
       0.08504310905319785 0.1465963095732084
000090 41 ce 5e 1d d8 1f bb 3f 61 d8 fe 7c f4 1a c4 bf
       0.10595465390252291 -0.1570726023034608
0000a0 f4 a7 e3 59 d6 11 98 bf 86 19 18 e5 70 5f ad bf
       -0.023505543934255926 -0.057368782010644145
0000b0 15 c0 41 ca 14 bc bd 3f fd 9b 07 91 06 c8 c2 3f
       0.1161511415282351 0.14672929841546525
0000c0 50 f7 8c 01 87 7c b0 bf ac a9 84 63 72 b7 af bf
       -0.06440013683183321 -0.061946463249415856
0000d0 13 76 47 29 5f 28 c0 3f 19 ed c7 03 92 57 b0 bf
       0.12623204722960732 -0.06383621780689842
0000e0 93 f0 39 56 4c 7e c0 3f 8a 11 29 cc 65 b4 bc bf
       0.12885431490201835 -0.11212764963517521
0000f0 6a 7a f6 43 25 e0 b0 bf 49 8a e7 51 6a 69 a8 bf
       -0.06592018994568041 -0.047679255006887696
000100 0f c8 ba 43 d1 f3 ad bf 92 6b 73 3b 01 82 c5 bf
       -0.05850080444123772 -0.16802993204950362
000110 e8 8c 16 61 d2 bf be 3f ce 78 d0 ed 89 e1 b0 bf
       0.12011446829142225 -0.06594144874586336
000120 8a f9 3e 06 6f 25 ab bf 40 17 0b 32 4f 68 c0 3f
       -0.05301997138257082 0.12818326896211296
000130 0d 57 52 64 cc 48 75 3f f2 a6 7c d2 22 26 9b 3f
       0.005196379094874149 0.026512664887525746
000140 8b 96 d0 81 ef fb b7 bf 9a 02 e9 18 9b 69 a3 bf
       -0.09368798178965158 -0.03791508368567982
000150 cd 9a 4d 00 50 1e ad 3f cf bb 26 8d 3b 3b 42 3f
       0.05687189105701904 0.0005563774851021721
000160 c1 13 32 f1 01 44 c4 bf a1 d7 65 7a 6b f4 81 3f
       -0.15832542683724962 0.008766975090775566
000170 b8 2b 87 1f 80 a6 bc bf b2 91 85 e9 b3 b9 a3 3f
       -0.11191559571959331 0.03852617478949884
000180 53 0e 7c 93 53 4a bd 3f e7 83 30 54 4f 2e b5 3f
       0.11441538191507421 0.08273788266571068
000190 7f 91 00 e4 66 58 0b 3f 4b 7c 76 e5 47 e7 b5 bf
       5.215705869002478e-05 -0.0855603156291959
0001a0 db 06 db 15 69 3d a1 bf 09 d0 33 f2 6a 37 b4 bf
       -0.033671649854580564 -0.07897060788292277
0001b0 b1 55 3b ca 87 2f 66 bf 72 20 e6 5d 68 2d cb 3f
       -0.0027082111499605256 0.2123232325068361
0001c0 5d 55 e2 29 74 5b a2 bf 06 05 49 05 1f 82 a4 3f
       -0.035853986847693455 0.04005524577633861
0001d0 22 bd b9 f9 30 ae ae bf 70 df ff d7 38 ed bc bf
       -0.05992272423179147 -0.11299472115922327
0001e0 7c 51 9d d8 2c f8 b6 3f e0 f4 2a f0 57 c7 b9 bf
       0.0897243527263693 -0.10069799054595618
0001f0 e7 fe 80 d4 72 60 b4 3f 25 da 30 e0 18 e4 c7 bf
       0.07959668815692177 -0.18664847323243908

transform_generator.w1.weight f8 [64, 64]
000000 72 ef 3a 76 0f a8 b3 3f 0c 21 75 a3 eb 04 a7 3f
       0.07678314815978896 0.04495941515284771
000010 f7 fc b7 de b6 b7 99 3f 5a 45 da 62 46 46 b6 3f
       0.02511487707488144 0.08700981057542859
000020 47 0c fa 0b 80 d5 79 3f b2 db 5c fa 82 57 a2 bf
       0.006307125265837383 -0.03582391077218662
000030 57 a2 39 24 7d 0a be bf bf 0d d6 cc 28 4f 9b bf
       -0.11734754690554304 -0.02666915655346513
000040 0f 3e 8c 99 b4 ff b0 3f 0d 43 94 5a f1 ac ad bf
       0.06640175579763528 -0.05796007376387111
000050 3d 6d 60 bb 4d 88 a3 3f de 0c 2d 85 fb c3 bc bf
       0.038149289248588826 -0.1123654556404747
000060 7c ac 8b 2a 08 31 99 bf 9a 20 02 3a b9 24 b0 3f
       -0.024601104351785072 0.06306035677164559
000070 26 9b 67 a6 d4 3d bd bf b4 25 03 56 41 f2 78 bf
       -0.11422471106162088 -0.006090407580083324
000080 8f 6d d4 14 39 0a aa bf a0 8c 8f 05 e6 87 c2 3f
       -0.05085924510259609 0.1447722937728928
000090 06 3d 46 56 50 2e b2 bf 06 d0 0e 99 4a c1 78 3f
       -0.07101919275577381 0.006043712041833521
0000a0 5a e3 39 ec b0 8d a8 3f c1 e8 37 db 55 b9 7c bf
       0.04795601733798689 -0.00701268708825803
0000b0 9f 54 1a b0 c0 89 b5 bf bb d9 81 04 ab a6 9b bf
       -0.08413318919550015 -0.02700297560701313
0000c0 a6 86 8c 92 3e f0 87 bf 9a 1f f0 ce 08 4d 7c 3f
       -0.01168869862300721 0.0069094032360296435
0000d0 d8 1a eb 0f f1 3b a4 3f 3d ac df 8c c8 15 b1 bf
       0.039519818490182324 -0.06673863829898692
0000e0 8f ed 54 40 61 16 bf bf 38 69 b9 0a 49 bb ad 3f
       -0.12143523998832094 0.058069498595346436
0000f0 4f 8c 1f 0b 73 7d b1 bf e4 5b 84 6c ae 64 7f 3f
       -0.06832045575679156 0.007664376586283137
000100 a7 71 00 8b 3d 87 97 bf e4 b2 c9 d8 55 3f a2 3f
       -0.02297683869265801 0.03563946029030321
000110 16 73 c0 d3 9d 4d a8 bf 8a 55 1e 30 a6 ea 8c 3f
       -0.04746716699466995 0.014119432776889668
000120 6f 68 46 06 91 44 c4 bf d9 2a 7a 85 30 25 a0 3f
       -0.1583424835815239 0.03153373364792395
000130 d4 bd 9f 08 ab 6b 90 3f f2 d3 f1 80 2a 0a 74 3f
       0.016035721207968326 0.004892507581748072
000140 6d 46 1e d9 95 39 b3 bf c9 10 79 46 7a bb c8 bf
       -0.07509743262041875 -0.1932213634592073
000150 0e 8b 66 28 b3 14 be 3f a5 99 ca 08 55 66 b9 bf
       0.11750335441915302 -0.09921771492608984
000160 5d 35 ee 42 f7 05 ad bf 84 01 50 12 23 62 bf bf
       -0.05668614093802191 -0.12259120175440869
000170 21 01 5d 83 c8 08 99 bf 9d 5e 2a 6b 63 57 aa 3f
       -0.024447567956714104 0.05144797022984202
000180 79 6a 76 7e 57 9a b6 3f 23 41 1d 94 d8 36 b0 bf
       0.0882925685640802 -0.0633368836981885
000190 e0 f9 2c 24 a4 d6 97 3f ef 8e 8c e5 17 9a a2 bf
       0.02327972861098171 -0.036331888934254646
0001a0 99 d2 65 41 cb 18 ae 3f 0b a5 df 16 15 63 a2 bf
       0.0587829129534942 -0.035912188570202806
0001b0 15 85 a3 f6 48 0a a5 3f f7 79 36 90 9c a9 c0 3f
       0.0410940934250538 0.13017613450661233
0001c0 7e fd 24 e5 d9 78 b4 3f ca cc 9a f5 41 7c 95 bf
       0.07996904224727605 -0.02098181783248946
0001d0 e1 11 24 41 1c d0 9b 3f 88 8c f1 5c c3 fa 6c bf
       0.02716106555546272 -0.003537541931608216
0001e0 1d 3f 42 ac c4 83 90 bf af 75 e3 a6 5c 1f b0 bf
       -0.016127655996171265 -0.06297854494501708
0001f0 e1 bc 61 1d c5 c6 a3 bf 67 44 ff b1 e5 8a 88 3f
       -0.03862586959518822 0.011983675474683332
000200 98 ed 2d c9 84 8a c3 bf 4f 0a d4 dd 29 6d 97 bf
       -0.15266475508893218 -0.02287736336166751
000210 b9 78 50 b9 74 45 95 bf 41 c1 bb ab cf 60 a4 bf
       -0.020772765932740998 -0.03980111094813533
000220 44 62 d6 11 81 65 bf bf 50 c4 1d 2a 60 af ae bf
       -0.12264258084759044 -0.05993175996889788
000230 d3 93 7f a3 0b 44 91 bf dd 23 b4 79 8c 32 b4 3f
       -0.016861135343692112 0.0788963124397379
000240 c7 27 c5 7e 8c 56 b6 bf 18 18 25 66 6a 64 7e 3f
       -0.08725813002561643 0.007419982548816172
000250 94 f9 b0 0e c3 1d 8e 3f 13 a7 71 fc bb e3 a3 bf
       0.014705203901141307 -0.038846849981224583
000260 6e 38 9e db 1c 26 91 3f 17 5c 70 e4 0a e2 b3 3f
       0.016746951012060078 0.07766788556215008
000270 55 bb 77 fa a5 2f b8 3f fd f8 d6 6f d7 ed 92 bf
       0.09447705616888176 -0.018485418511539276
000280 fe c8 83 a4 34 ea b9 bf c0 a9 f8 01 f4 cd ba 3f
       -0.10122994438623675 0.1047050957501261
000290 0c d1 f2 91 4d ea ad 3f d4 37 75 ed be 02 aa 3f
       0.05842821508977822 0.050802198874052046
0002a0 ac cd b6 de 7b 90 71 bf ed b0 39 ef c7 bb 9e bf
       -0.004288181178185562 -0.03001320264449785
0002b0 4c 68 ba a4 c7 0d b2 3f 35 05 89 6b 86 45 c1 bf
       0.07052276393588491 -0.1349342370104211
0002c0 c7 4b 38 f8 c4 11 c0 3f 73 9f e1 bb 66 85 c2 3f
       0.12554227943527804 0.14469608472722548
0002d0 59 00 3c ee 97 d1 97 3f 55 4e b4 c2 90 84 92 3f
       0.023260473170921923 0.018083822139557466
0002e0 02 38 00 d2 9a 9f a9 bf 4c fb 56 9d f7 9f c1 bf
       -0.05004581273543353 -0.1376943128834348
0002f0 3b 58 ab 78 95 d0 c1 3f 02 18 09 76 2a 64 bf 3f
       0.13917797462517165 0.12262215978361726
000300 14 2e 35 c1 a8 d4 a3 bf 72 eb 2f 6b 79 82 95 3f
       -0.038731835923126706 0.021005532424151103
000310 56 de 04 31 04 98 b3 3f 13 b6 51 28 8d 3a 9b 3f
       0.07653833576920852 0.02659054335202
000320 00 16 54 3a 42 08 c0 3f f0 eb d8 b5 0b 2a c0 bf
       0.12525203559941644 -0.1262831342627062
000330 6f 0b b9 d4 f6 f0 7c bf 20 a9 bd 40 63 aa 9c 3f
       -0.007065738852875521 0.027993727518528577
000340 f3 1a ad 9f 80 ab ab bf b3 2b 84 9a 3b bc a8 bf
       -0.05404283475086471 -0.04831110249695971
000350 2c 79 92 ea b9 84 bb 3f 11 a2 20 38 dc d1 bc 3f
       0.10749399163112078 0.11257721300410874
000360 59 a0 06 f6 40 f2 ba bf 7d ae 0f c1 cd 34 b0 3f
       -0.1052589989327556 0.06330572093400551
000370 98 70 d2 00 07 58 a4 bf 4d 40 a0 c4 21 7f b1 bf
       -0.039734095430703664 -0.06834612894476884
000380 b4 4e b5 46 1b 80 bc 3f 26 a8 0f bc cd 0e a6 bf
       0.11132975078845214 -0.04308169289272738
000390 1b f1 25 35 2f 94 a3 3f 7f 0c 1c 93 e7 f0 a6 3f
       0.03823993228704322 0.04480670614977899
0003a0 65 2e 86 e1 4f fb a1 bf c0 6b f4 66 b7 f6 c1 3f
       -0.03512048366527835 0.14034168746078812
0003b0 c3 6b 50 88 ad 4a c3 bf ae 8c 84 0f ef a5 a5 3f
       -0.1507164874645622 0.042281599659213284
0003c0 db 9c e5 6d 7b bc 93 bf e6 94 55 6c 87 8b 91 3f
       -0.01927368982560727 0.017133823382569434
0003d0 cd 62 b4 87 0e 29 b4 bf 23 e1 17 6d 57 af c5 bf
       -0.0787514764127863 -0.16941349818058268
0003e0 b7 ea c4 2d 74 73 b1 bf a2 2e 37 1b 71 3d b1 3f
       -0.06816793553745525 0.06734377779428738
0003f0 0b 64 47 9d 7e 73 bb 3f 71 61 a0 ef cc 72 92 3f
       0.1072310575467698 0.018016054273262087
000400 be bb 58 85 bb 1b bc bf 32 fd cc 80 45 64 a7 bf
       -0.10979816442043863 -0.04568688580774917
000410 61 39 71 e2 43 31 b7 bf c4 5b 6b 8b 98 9a a5 bf
       -0.09059547689796467 -0.04219509794136614
000420 73 95 36 bb 0a 8d c7 bf 82 25 0f 90 ce 49 a0 3f
       -0.18399175778646856 0.031813101849887296
000430 28 38 e0 9f 5b c9 c5 3f 22 7a 02 e5 b2 ad cb bf
       0.17020745569647144 -0.21623836691010562
000440 ec e9 6f 0a 4e 16 a9 bf 24 9d fc b3 12 6a a2 bf
       -0.04899829747587944 -0.035965523215333556
000450 b2 30 52 f5 cd 84 bc bf 37 df 09 86 b0 b4 e1 3f
       -0.11140143622668822 0.5533068292561215
000460 c4 b4 00 3e 48 a7 c0 3f a3 53 1d 4c f5 9a 77 bf
       0.1301050474880069 -0.005763014023462273
000470 bc 10 14 e1 2e ab 97 bf 85 67 91 99 4d c6 9c 3f
       -0.023113949287122834 0.028100216386838923
000480 fa 1e 9a 24 21 76 c2 3f 7c f6 e7 ae 43 dd 7b 3f
       0.144230025169456 0.006802811038594588
000490 1c af c5 e2 8a 5b 92 3f e5 1c 2d 97 ee f3 c1 bf
       0.017927332011296135 -0.1402567136922023
0004a0 ec cd 81 c4 47 ec b4 bf be c7 39 92 66 d7 bb 3f
       -0.0817303519013916 0.10875550336802939
0004b0 5e 39 2c 10 89 27 b0 3f fc 5f e1 d1 86 ef c9 bf
       0.0631032623752836 -0.20262227294983848
0004c0 a3 00 42 06 a4 f5 c2 3f 9a de 56 2a d1 3a ab bf
       0.14812135987813688 -0.05318311349713874
0004d0 0e 15 fe dd fd f4 ae bf 9a 8e 56 d4 d2 e8 b5 3f
       -0.06046288809651844 0.08558385547672245
0004e0 e9 68 67 39 5c c0 b0 3f 14 c6 57 40 9f 6c 84 3f
       0.0654351844927167 0.00997280516728253
0004f0 0c a4 87 95 17 1d b0 bf 3d 97 78 95 c8 6b 8b bf
       -0.06294391060477283 -0.013389174520010644
000500 34 83 36 c4 63 cc a5 bf 5e 79 0d 1f 04 1c b7 3f
       -0.04257499475648388 0.09027124174233367
000510 6c 55 bb 9e f5 e4 a2 bf 6b ab 8e f3 53 07 94 bf
       -0.03690307200092033 -0.019559203854139378
000520 5e e1 7a c9 f2 87 a2 bf 8f a5 d5 ef 5e 1b a4 3f
       -0.03619345387909577 0.03927132299106539
000530 83 f8 33 48 98 29 71 bf 20 d6 f1 04 2f b1 be 3f
       -0.004190058566790114 0.11989110823363847
000540 5d d1 92 c7 69 ba aa 3f 69 97 92 b1 a3 e5 c5 3f
       0.05220346986007727 0.17107053919351792
000550 07 65 54 77 5f 8e 7b bf a3 d7 68 bf 3b 98 a5 bf
       -0.006727574266983233 -0.042177073588774115
000560 3f 5e f1 44 f2 2e 82 3f 2a 9b f3 6a 1d f0 b1 bf
       0.008878605584114683 -0.07007011281130518
000570 05 a5 ff f0 2a 4a c1 bf 28 22 8e 0d 7f 4e b5 bf
       -0.13507591979513492 -0.08322900849282944
000580 a4 0d 55 77 65 44 b8 bf 0d 5a 6f 83 08 a8 b0 bf
       -0.09479364550957442 -0.06506398400174636
000590 6b 0e 8a 25 3f 04 c8 3f 70 d2 9c 0d 35 d6 b8 bf
       0.1876295979783323 -0.09701854307497526
0005a0 e0 79 ff 06 a1 ea 78 3f 8a 71 07 fa 66 01 b6 3f
       0.00608313466361074 0.08595889667726034
0005b0 2b 93 67 4c d5 43 b1 3f 54 d1 2d d6 42 00 a5 3f
       0.06744130244585438 0.04101761688699193
0005c0 14 01 9f 1f 19 9d 94 3f 6d c3 61 e3 f3 b3 a3 3f
       0.02013053184032383 0.038482305056169654
0005d0 92 d3 d0 0d 46 cf b5 bf a3 90 ed d3 6a 50 c6 bf
       -0.08519399487779669 -0.1743291411213522
0005e0 7a b6 dd cf 21 6e 91 bf d3 20 9d 95 bd b4 b7 bf
       -0.01702168303693561 -0.09260163214378574
0005f0 96 ed 95 da 24 ed ac bf 61 48 0d 78 75 48 c2 3f
       -0.05649676483423176 0.14283626901539306
000600 60 39 4f d3 fb d9 b4 bf fe 52 03 65 2d 08 b2 bf
       -0.08145116719172085 -0.07043727604043323
000610 1f 6d e7 1d 5b c0 b8 bf 5b e6 3d 7d 9d c6 c4 bf
       -0.09668511848524418 -0.1623112546474655
000620 5c 3f 50 cb f2 cb a3 3f 1a 3d 48 34 f9 56 b7 bf
       0.03866537792066424 -0.09117085958881824
000630 e0 56 15 e8 c1 7d c2 3f b6 f5 a8 df 30 a5 c8 bf
       0.14446281273074302 -0.1925412265863266
000640 4f d6 7c 7e 35 00 c2 bf c0 6d ef 8c 97 a7 91 3f
       -0.14063137699274583 0.01724087522221196
000650 ed 84 a2 7b 47 74 c5 3f ea 8c 57 8d 4c e3 b7 3f
       0.16761106049401722 0.09331205797893785
000660 a7 14 69 a2 aa 61 af 3f 37 89 a2 55 f4 54 b6 3f
       0.06129201157140445 0.08723380175300553
000670 c6 55 96 b0 7d 78 94 3f 0a ce 7d e8 1b 1b ba bf
       0.019990886595754785 -0.1019761507612246
000680 0d 05 fb 01 5a 9b ba bf 4a df f1 de a4 d1 ad bf
       -0.10393297718384904 -0.05824008199209503
000690 48 a1 69 8d 4a 64 c6 bf 2c 3a b6 ab 76 11 b7 bf
       -0.17493564515030813 -0.09011022274192076
0006a0 88 26 2c 94 10 5f b1 3f 8f e8 83 0a 33 eb a0 3f
       0.06785682313434382 0.03304442885742375
0006b0 d9 49 f0 58 a0 6f 82 3f 83 95 9a 22 36 67 ba bf
       0.009001972879592412 -0.10313738198109061
0006c0 15 3d ac 2e b1 1d 98 3f c8 0a 18 28 ba 8f 82 3f
       0.023550766442949362 0.009063200329369706
0006d0 5c 98 b8 a8 ef 06 b1 bf 33 5b ae 0d 50 d7 c1 3f
       -0.06651208752791277 0.13938332241078796
0006e0 b7 22 c8 ea bb d7 a4 bf 6a e9 05 0e cb f4 a0 bf
       -0.04070842019070169 -0.03311762376957257
0006f0 7d 46 f2 07 b5 53 b3 3f 49 6c b5 4a 6b 35 b6 bf
       0.0754960197830545 -0.08675261091177434
000700 cb 52 54 51 83 ba b3 bf f2 3c b7 cb 8d d2 bf 3f
       -0.0770647119100644 0.12430654738931304
000710 ef c1 9e cd 8e 83 bc bf 73 1c d6 d6 f1 b5 80 bf
       -0.11138241310141671 -0.008159531945024256
000720 ee 4a e2 75 60 7f b6 bf 14 66 7f 75 b6 6f b3 3f
       -0.08788111570383325 0.07592335098834041
000730 ff 84 05 c3 e0 4f a2 3f 46 aa ca 32 ba 6c bf 3f
       0.035765670591681335 0.12275279750853327
000740 0c 91 c4 43 1b e7 b6 bf c2 6f 29 ed da 9d a4 bf
       -0.08946390537727583 -0.040266839456961204
000750 3c 32 b4 63 bc 38 bd 3f 74 83 27 13 54 87 b0 bf
       0.11414697107483901 -0.06456494777331817
000760 78 31 e8 ee ee b1 a1 3f 72 e6 a6 90 93 47 bc bf
       0.034560648597195376 -0.110467169585627
000770 3d 30 44 c9 ac 27 b2 bf 95 82 9e 26 19 0f b0 bf
       -0.07091789163331526 -0.06273038094378543
000780 f1 c6 1d 6b ce fc b8 3f a3 b9 32 8a f4 25 a2 3f
       0.09760751834053473 0.035445825452700384
000790 47 b6 83 a5 80 ae 9e 3f 07 5d 83 54 39 42 bc 3f
       0.02996254930706346 0.11038549722012557
0007a0 08 39 54 b7 80 d0 b7 3f 5c 50 b8 8f 17 88 60 bf
       0.09302525020413921 -0.0020180187400545124
0007b0 0c ba c0 20 e6 4f ad bf 93 9a 86 db 48 4e a1 bf
       -0.057250205515050195 -0.03380038909681562
0007c0 be 18 f7 8b 8f 66 c4 bf cd e9 36 e8 5d f5 b5 3f
       -0.15937990507354088 0.08577525061892928
0007d0 78 d1 e9 c7 b7 94 ba 3f 8c be 62 26 81 be 94 3f
       0.10383175497719843 0.02025796696460573
0007e0 de 4d 0c 41 53 cb ab 3f 9e 5b 6f ce 86 72 c1 bf
       0.054285623255193136 -0.1363075740798338
0007f0 e8 38 20 90 17 d6 9f bf 11 82 53 cd cd 52 b0 bf
       -0.03109013383078088 -0.06376348746153605

transform_generator.w1.bias f8 [64]
000000 f9 d3 5b c7 c4 20 a5 bf a2 ae f2 0b 73 d8 bf 3f
       -0.04126563008859558 0.12439650575350439
000010 40 52 3c a6 1f c0 a4 bf 24 ad 56 53 25 d2 b2 bf
       -0.04052828697436839 -0.07351907047875678
000020 41 3b d3 c5 0b cb a4 3f 4b cb e4 39 10 1b b9 3f
       0.04061161794526536 0.09806920445843763
000030 e7 20 30 db c9 14 82 bf e0 3a a1 67 cc ec d0 3f
       -0.008828713418566682 0.26445303077791316
000040 65 8e 25 d9 4a 5a ca bf 0d 9c 79 46 06 02 c5 bf
       -0.20588050463549049 -0.16412428322948394
000050 ff a7 9d 8c b0 03 75 3f 9f 83 00 9a d8 a1 ac bf
       0.005130471845271599 -0.05592228774936036
000060 76 e9 57 0a a7 1b a5 bf 37 61 e3 f8 ab 2a 94 3f
       -0.04122659684431344 0.019694029870920473
000070 ca be 95 bf fb ac b4 bf 6e 3b d6 3a db 00 b7 bf
       -0.08076451709143409 -0.08985681711622615
000080 b3 d5 30 ca c4 19 be bf 00 60 9e a3 1c 6e b1 bf
       -0.11758069931314345 -0.06808642382236485
000090 28 d7 f6 2e 8f ed 95 3f e8 50 5f 30 e6 3e 96 3f
       0.02141402935168127 0.021724316313183417
0000a0 6d 66 8f c3 06 83 b2 bf be cc 35 db 55 85 9b 3f
       -0.0723118045274533 0.026875821594739994
0000b0 fc 4e 6f 3d 74 1e c5 bf c0 9a f9 8d ff a1 b3 3f
       -0.16499188422914546 0.07669064727961494
0000c0 68 05 12 56 d0 a1 c7 3f 21 46 1e d0 1e d5 b4 bf
       0.1846256656900025 -0.08137695866596363
0000d0 d7 23 43 12 05 5d cb 3f 63 91 99 4b 70 09 b5 3f
       0.21377623931610287 0.08217527242374482
0000e0 48 92 c9 f0 1f fa b6 3f fe a0 20 ff cd d1 0b bf
       0.08975410107229564 -5.306157972057196e-05
0000f0 46 78 26 18 d7 59 8e bf 81 a0 23 f8 a0 a0 91 3f
       -0.014819794106014094 0.017214312691891557
000100 8d 59 0a 9f b9 fa aa bf 3c 4e fc 4d 6d b7 96 bf
       -0.05269413057719694 -0.022184093365537047
000110 23 24 f1 7f 5b de b4 bf d8 5b 1a cc c1 a5 ac bf
       -0.08151790498335791 -0.055952125706589306
000120 70 19 c9 c1 ec 0a c4 3f 0e 4c ae a9 76 3e 66 bf
       0.15658339941201005 -0.002715331805526861
000130 00 cd 7c 4f 4c a5 bf bf e6 ef 09 94 d4 20 a3 bf
       -0.12361599865544193 -0.03735985095133269
000140 be e0 49 68 cd 34 aa 3f 36 f3 38 af d7 00 c0 bf
       0.051184100132503726 -0.12502571159157022
000150 3a b6 11 8f e7 ad 82 bf ca 90 8c ec 7a 17 94 bf
       -0.009120759061455808 -0.019620819747743913
000160 73 72 3c 07 f1 1f bb bf 81 b1 0a 35 88 e1 83 bf
       -0.10595613886511916 -0.009707512015062704
000170 5b 84 eb 9d e3 3c be 3f 09 26 e3 ac ea 20 c3 bf
       0.11811659436672654 -0.14944203798067715
000180 25 b5 1c 52 4f 00 b3 3f 65 2b 79 d4 48 52 b1 bf
       0.07422347788515944 -0.06766181170784831
000190 e7 00 80 f9 bf a9 85 bf 6e 5f e9 a6 f9 fb ba bf
       -0.010577678491245425 -0.10540733647337472
0001a0 4b d0 1a 97 c7 8a b5 bf 84 12 16 b9 2d 62 97 3f
       -0.08414885939674936 0.022835459157720908
0001b0 15 ce bb 4c 1a 9e af bf f8 22 3d 1d 9a ed bd 3f
       -0.06175310312928787 0.11690676893079999
0001c0 d1 38 d1 c1 0d f9 b8 bf d0 c9 ca 3e e5 4e c8 3f
       -0.09755025846354505 0.18990769926092677
0001d0 de e8 e4 8f 29 7e b1 bf f1 8a 74 7e 89 09 cd 3f
       -0.06833133471528494 0.22685354876110567
0001e0 10 cc 8e 2c ba 74 9f bf da b1 b2 37 70 96 c3 bf
       -0.03071871659239994 -0.15302851409559431
0001f0 d0 bb a1 30 2a 2e b2 3f 8f 80 3a 78 33 99 b0 bf
       0.07101691901492235 -0.06483766255633071
