models/GFDL-ESM4-livneh/QM_SST_layers4/2000/1980_1990/livneh_bci/model_600.pth (torch, 74328 bytes, 8 tensors)

transform_generator.0.weight f8 [64, 3]
000000 2e 9e 3a 99 4a 31 da bf e2 54 23 3e c8 d4 f0 bf
       -0.40925850833670807 -1.0519487788454218
000010 e8 04 20 67 6c 64 7c 3f 2c ec 00 76 3a ee e3 bf
       0.006931708763660206 -0.6228306107290158
000020 33 88 9d 7e 42 9a e4 3f 88 00 5d f4 3f 6a e3 bf
       0.6438305352169266 -0.6067199490280624
000030 32 c7 ee d0 43 e0 dd 3f 32 f5 cf 40 b2 26 d1 3f
       0.466813043628565 0.2679868348057709
000040 7a 20 f3 0a 08 c4 a5 bf 2e 68 db ee 49 54 f2 bf
       -0.042511226021418616 -1.14557832053698
000050 f6 b0 3d 34 43 78 e8 bf ab d1 1d 65 8d f0 ec 3f
       -0.7646804828960103 0.9043642973834286
000060 f5 d0 06 05 c3 b8 be 3f 19 ee eb e9 a0 0c d4 3f
       0.12000674126358375 0.3132707867041247
000070 f5 f6 fb d9 e2 33 a7 3f 4d 26 2f 01 a3 47 e5 3f
       0.045317734822658474 0.6649947188499908
000080 39 d1 02 5f ca 67 99 bf 8c 31 56 f3 2f d3 49 3f
       -0.024809991883288893 0.0007881149419275853
000090 e3 9f 1b 4d e4 fc 5e bf 75 e7 75 b3 1b c5 b4 3f
       -0.0018913487914975428 0.08113263255463983
0000a0 95 dd 65 57 6e ce c1 bf ab c4 b8 03 5a da cc 3f
       -0.13911227481342495 0.2254135626003849
0000b0 8f aa 2d b5 a6 90 93 bf af 00 36 e5 40 db be bf
       -0.019106488044978106 -0.12053304286928566
0000c0 2c 61 a8 32 dd 7b d4 bf 81 4e fe 69 59 12 f0 bf
       -0.3200600619034215 -1.0044798031202904
0000d0 b9 0e 10 da c0 c4 78 3f d2 82 a0 89 57 36 f7 bf
       0.006047013594983213 -1.450767076116041
0000e0 e8 35 ed 59 ea e3 9c bf 76 ff 4a e6 47 2e 08 c0
       -0.028213178385433496 -3.022598075069193
0000f0 46 42 1a 9a 14 1e d4 bf 36 86 bc cd b9 9a c5 bf
       -0.3143359665782878 -0.16878435655330443
000100 6e 23 ac e0 bc 3b c3 bf b2 96 c8 4b 1e 17 da bf
       -0.15026055307705682 -0.4076610317300534
000110 5b 58 15 3c 8e 27 e4 3f a0 de 51 e6 c9 cf 96 bf
       0.6298285649779801 -0.022277025873761347
000120 88 59 8e 8e 07 e8 57 bf d2 b3 74 03 1f b1 a8 bf
       -0.0014591287419754868 -0.04822632710634135
000130 a8 52 d9 c9 fb 39 a3 bf ea fc 74 aa 9f 51 c1 bf
       -0.03755175436950725 -0.13530345748038225
000140 b0 26 9b 16 a4 13 c9 3f b8 0d 69 e1 00 d6 b5 bf
       0.1959118948346279 -0.0852966833418155
000150 b5 4a ec 44 83 a2 e8 bf 84 67 62 19 4e c1 ee bf
       -0.7698379846718441 -0.9610968108929545
000160 a8 dc 3d 5c e5 d3 e8 3f cd 04 93 da 43 25 d4 3f
       0.7758662034601871 0.3147744783892222
000170 17 6b 83 0e 8c 20 c8 3f 0b 8e db 7f 7a 50 c1 bf
       0.18849325855884366 -0.13526850932167664
000180 91 3b 47 b6 c6 01 c4 3f 3b 51 60 8d 87 c9 a2 3f
       0.15630420589738184 0.036693798072664006
000190 5b 74 26 35 59 f1 d3 3f 69 11 33 51 68 68 d0 3f
       0.3116057414097832 0.25637252740513944
0001a0 d1 9e fc 97 29 9e c5 bf e0 1c e4 20 d6 24 97 bf
       -0.16888923569898975 -0.022601457364569977
0001b0 25 10 09 00 6d 78 ca bf 98 cd 3e 4b 8c 29 ce 3f
       -0.20680010320404665 0.23564294504249683
0001c0 e3 84 35 eb 6c 64 c5 3f 82 7f 54 63 09 02 c3 bf
       0.16712724194352466 -0.1484996542940245
0001d0 80 4a 16 23 9c 4d 9e bf 38 9e 8e d6 f8 e0 b7 bf
       -0.029592933312935887 -0.09327655065737239
0001e0 04 c9 37 07 25 b8 c1 3f 85 3d 59 a5 02 1f b6 bf
       0.1384321484798151 -0.08641068016844684
0001f0 45 7e 76 db 68 f4 eb 3f db 07 bc 02 8e 32 ce 3f
       0.8735851560958926 0.2359178078987146
000200 f9 d4 b1 73 e3 ad 4f 3f 67 f6 86 12 17 63 78 bf
       0.0009667740445268572 -0.005953874708607288
000210 f1 75 52 34 d3 0f 88 bf ab 1b 8e 6b d1 ce c6 3f
       -0.01174893382477202 0.17818658591951694
000220 e0 30 9c ff 26 7f d0 3f be 2f 84 36 22 e5 c3 bf
       0.25776076280523164 -0.15543010389262507
000230 44 7a 81 73 c5 bb cd bf d6 2e 3b a1 61 5c f3 3f
       -0.23229282512598293 1.2100540445416548
000240 f2 a9 45 5c 8b a9 f1 3f e4 d9 a4 a8 f5 4a c8 bf
       1.1038926700954304 -0.18978758558814868
000250 bb 0c ed 52 19 70 b5 3f 14 73 5c c4 c0 4f 03 c0
       0.08374174379882764 -2.4139418926919323
000260 42 4d 82 16 0e 2b d6 3f ae 9a 9a 0b ae cc 7c bf
       0.3463778705419892 -0.007031135429918107
000270 9c 82 2c 6b 51 62 e0 bf b0 71 07 33 77 1f ea bf
       -0.5120017140616997 -0.8163410183583917
000280 81 af fb 23 9f d9 ea bf f5 a2 3d 5d 09 8f e6 bf
       -0.839065141944488 -0.7049605198963876
000290 1f 39 1c 22 31 b8 e2 3f e9 a7 2e 12 d1 99 e9 bf
       0.5849843660560373 -0.8000264506456435
0002a0 45 88 f1 64 a2 96 d5 3f 86 52 8b dd 4c aa df 3f
       0.3373189912582613 0.4947693027036525
0002b0 23 9f 12 f3 59 d4 cc bf 28 f7 6b fc 47 6d b4 bf
       -0.22523044937883538 -0.07979249870910776
0002c0 20 2d 4a 14 7d af b4 bf 68 41 80 57 1a 51 bc bf
       -0.08080274339061022 -0.11061253200774035
0002d0 84 d0 04 21 d7 52 dc 3f 86 bb 18 27 9e 29 e0 3f
       0.4425561735581669 0.5050802959066096
0002e0 d4 11 64 ca 4d 46 a9 bf f4 17 63 2a f5 10 ba bf
       -0.049364500957412766 -0.10182125363198208
0002f0 a7 03 19 02 53 90 c3 3f e4 ba 30 d4 e5 0b a3 bf
       0.15284192659785598 -0.03720014777387862
000300 50 ac b5 09 5e 50 53 3f 8f 41 12 42 12 37 97 3f
       0.001178829034723678 0.02267101791636744
000310 36 b7 eb 89 da 72 dc bf 35 29 eb db b5 17 d1 3f
       -0.44451011151146547 0.26707216717172183
000320 ed 80 a1 98 58 81 c6 3f ec 5e ed 83 96 64 a3 3f
       0.1758223290698945 0.03787680015983405
000330 4c 0c f1 fa 1a fc c8 3f e9 7f 06 e9 ed a9 c6 3f
       0.19519364598281397 0.17706083181565127
000340 4d 6e c0 e3 c8 5e cb 3f fc ad eb 4d 21 d9 ad 3f
       0.21383010025680207 0.05829719616107451
000350 d7 98 6c fa a3 26 a5 bf 59 48 b9 a1 c2 66 c3 bf
       -0.04131042892395136 -0.1515734948794172
000360 8b ad 46 e9 78 73 9e 3f 9a 0c f5 b0 5e 38 cd 3f
       0.029737366903345424 0.22828277245034628
000370 c9 74 ff 0e 9c e0 9d 3f 72 98 b1 f2 b5 3c f0 bf
       0.029177130141637506 -1.0148219566558763
000380 ca 1d 1e 6b ea d1 f9 bf 7f cc 20 30 b5 e8 d5 3f
       -1.6137489494593518 0.34232835483562235
000390 37 0a 4b 68 32 15 fc bf 61 4e 29 b7 f2 d6 cd bf
       -1.7551750253629856 -0.23312219565797235
0003a0 01 26 3e a7 8f cd 74 3f 24 72 c4 42 36 1b 05 c0
       0.005078850885078535 -2.6382870880318183
0003b0 ae 0b 3f 09 c7 fd e8 3f ad ed f7 53 a3 ab b7 3f
       0.780978696879506 0.0924627380372189
0003c0 63 76 8b 7d 84 c9 b8 3f 3a f5 09 77 92 be 9b bf
       0.09682491364534367 -0.02709416247897887
0003d0 62 d4 8b a5 df cc c0 bf 5d 44 c8 92 62 2c d2 bf
       -0.13125224669753083 -0.2839590485974151
0003e0 00 46 70 08 94 81 c7 bf aa ca 63 d8 6f b4 e2 3f
       -0.183641914482493 0.5845259882319926
0003f0 df b4 03 18 79 e9 d7 bf 13 bc 31 01 36 fa c0 bf
       -0.37362506241954735 -0.13263583238901386
000400 ad 38 e7 39 8f 95 dd 3f f8 03 8a c6 0b 62 f0 bf
       0.4622533860646268 -1.0239370112833495
000410 85 d3 31 c1 d3 23 dd 3f 86 7a 41 84 54 74 c5 3f
       0.45531171671546417 0.16761261422921708
000420 15 f3 4f 1a 59 97 92 bf 82 e2 c8 f5 cc f4 b2 bf
       -0.018155472022033232 -0.07404786110499553
000430 47 8e f4 b2 43 1b df bf 33 03 9d 66 28 b0 d2 3f
       -0.4860390899286568 0.2920018198092748
000440 06 e1 93 3d 82 fd bd 3f 75 d8 64 bd b5 a4 cd 3f
       0.11714948657379773 0.23158904788732895
000450 7e a2 95 ae 78 9d bb 3f 73 16 04 74 9d 74 be bf
       0.10787157308880954 -0.11896690447255213
000460 45 92 32 a5 2f 42 b3 bf e1 a1 c3 83 e9 b6 b2 3f
       -0.07522866995948004 0.07310351817034856
000470 5a 94 9b 65 51 88 bd 3f a3 81 8d 51 8c b9 7b bf
       0.11536129694612055 -0.006768749350925782
000480 b6 f3 55 be f1 e3 86 bf 2c 5e 92 61 75 fd ba bf
       -0.011176956769071694 -0.10542997009394445
000490 48 26 a5 eb 90 6d 9c 3f 02 31 96 d2 91 5f d4 bf
       0.02776171148551601 -0.31833310666185366
0004a0 1f af 0b 45 1a 46 b1 bf ac b8 3c f4 23 7e dc 3f
       -0.06747593103108017 0.44519900180137983
0004b0 1c 75 a9 02 a5 cb da bf 1b 25 ae 7c 0e e6 ee bf
       -0.41867947826342955 -0.9655830798302846
0004c0 da 1c 65 67 81 c7 bb bf ce 2b d8 9d a0 c4 d3 bf
       -0.10851296209613129 -0.3088761846017264
0004d0 59 17 6d f9 c7 63 af bf ae db 8f 37 1d bf b2 3f
       -0.06130814475777297 0.07322867018215959
0004e0 fd 4b 81 2d 6d 40 9a bf f1 bd b2 9b 7a 5d ab 3f
       -0.025636392500313566 0.053447562700394864
0004f0 27 75 85 29 32 40 c5 3f 98 1e 0b 60 92 bd cd bf
       0.16602160479934833 -0.23234777154560926
000500 df 20 6d ad 46 04 eb bf c7 62 d1 e1 6f f8 c8 bf
       -0.8442719828826987 -0.19508169676080042
000510 08 86 13 15 cb 52 ed bf e8 b6 18 5d e4 6c f1 bf
       -0.916356602825716 -1.0890849720557814
000520 e6 2a 9a 56 22 7a d8 3f 3d cb ac fe 09 16 c3 3f
       0.38245447594878923 0.1491100781946332
000530 08 e0 81 15 63 90 be 3f 3c 85 30 06 88 83 d0 3f
       0.11939067149239702 0.2580280361599596
000540 98 33 18 2d 94 e9 cb 3f d3 22 8a 63 03 ed ab bf
       0.21806575967675879 -0.05454264249880727
000550 f6 54 59 55 c7 9d 93 bf cc dd 7d 25 bd 85 c7 3f
       -0.019156565269743596 0.18376888590476737
000560 cc 38 71 1d 83 7b d3 3f c3 11 cc dc f4 30 9b 3f
       0.3044135844728657 0.026553941704166705
000570 91 93 99 49 59 cd fe 3f 09 fd 73 b4 36 4e dc bf
       1.9251339793201832 -0.4422737848507983
000580 59 f7 e5 3e 1c 04 c9 bf bb ab fa ea ea bf e4 bf
       -0.19543793746191332 -0.6484274472653547
000590 0b 2d b4 73 41 0b ec bf f2 aa ef e3 6a 7e fe bf
       -0.8763739833679279 -1.9058636573560617
0005a0 db 96 21 40 91 14 ed bf de a7 c2 2a a0 60 d2 3f
       -0.9087606670916232 0.2871475617963578
0005b0 a2 1d 11 da ea bc e6 3f 5e 8a 31 5d ca 33 ee 3f
       0.7105612048261956 0.9438220806299105
0005c0 30 bb b1 c2 1d 4b b7 bf c5 51 cd 88 78 c5 d8 3f
       -0.09098993304517644 0.38705266341756
0005d0 17 50 77 77 39 91 f4 3f 3d 7a 2c 5c e7 4d c7 bf
       1.2854551951068112 -0.18206493378325375
0005e0 d8 62 1a 6a dc 08 c2 3f a7 71 50 25 90 79 d4 bf
       0.14089541607679368 -0.3199196209332293
0005f0 8f 57 58 b2 e4 f4 d8 3f 59 e5 8a 95 38 c4 c4 bf
       0.38994710365783986 -0.1622381906688968

transform_generator.0.bias f8 [64]
000000 eb 2e 6b 37 96 63 06 40 f8 bf 51 31 9b 70 f6 bf
       2.7986263589462985 -1.4024917532478849
000010 f3 64 59 ca fb f5 da bf 5d 9e d6 02 df 0a fa 3f
       -0.42126364479697925 1.627654086196251
000020 08 7f a7 6a 71 5b b5 bf 67 2b a0 ec ed c6 f7 bf
       -0.08342655996193227 -1.4860667460622723
000030 d3 a7 62 a5 74 2b c7 3f c1 95 21 8d 35 20 e3 bf
       0.18101366115052872 -0.5976817852467137
000040 14 f9 56 de 88 93 06 40 a2 4c da f3 80 50 e0 3f
       2.8220383997242013 0.5098271143673581
000050 89 99 12 35 78 aa e6 bf bf 8b 08 ae 24 db f4 bf
       -0.7083092724395083 -1.3035017774752615
000060 90 8c 24 25 6b 13 8b 3f 19 6e fe c3 56 2a d3 3f
       0.013220631667144184 0.299459163093816
000070 ac 2d a0 94 91 94 d6 3f d8 23 bf ea dc 48 d1 3f
       0.3528179122374364 0.2700722019622481
000080 98 74 2b a9 3a 4f db bf 9c c8 40 55 3f 2f f3 bf
       -0.426710763172943 -1.1990350084493349
000090 89 4a 6b eb e3 0b b7 3f e1 d8 1a a4 a4 81 e7 bf
       0.09002518174683351 -0.7345755772755888
0000a0 8a 51 a3 2a 90 35 f1 bf b1 33 8f 1f 68 06 e2 bf
       -1.0755769410653522 -0.5632820717233838
0000b0 9b 1e 5a 78 e5 3d c6 bf f6 f3 73 f8 c4 6e e9 bf
       -0.17376392723621312 -0.7947716572376737
0000c0 0e 72 db 8c 16 ec 05 c0 8c e5 8b 4b 68 43 c1 3f
       -2.740277386137911 0.13486961067955539
0000d0 8f 17 eb 8e 1e be 03 40 60 dd 74 92 c2 63 f2 bf
       2.4678317227835076 -1.1493554802853723
0000e0 32 d5 2a 14 3a 3f c5 3f 2e 37 2e c8 de e1 9d bf
       0.1659920309518071 -0.02918193909459104
0000f0 65 a3 ba 1b 3f f6 d3 3f a3 7c 89 c8 93 af e6 bf
       0.31190469463267895 -0.7089327732791343
000100 70 12 ab 90 a7 46 df bf 85 f8 1c f2 d3 18 c0 bf
       -0.4886874115730171 -0.12575768777782428
000110 0d 62 ed 36 d4 5b a8 3f a7 9f ea 3f f2 1a e0 bf
       0.047575599389066615 -0.5032893417710412
000120 c1 91 54 83 d5 84 d2 3f 2b 4a c0 ca d5 61 dc bf
       0.2893575460932674 -0.4434713821403046
000130 b6 e4 3e 9e 0f 61 05 40 07 58 74 cc dc 8d fc bf
       2.6723930705016654 -1.7846343981268562
000140 e1 f8 3c 12 60 b3 c8 bf aa 51 a0 30 8f c3 97 bf
       -0.1929740990689828 -0.02320693716326764
000150 68 ef 54 04 48 d2 cc 3f b6 f6 7c ba 4e ce f3 bf
       0.225167276492239 -1.2378680500691366
000160 0c d9 7d a1 74 ab e1 bf 43 d1 bf 58 9e 2c b2 3f
       -0.5521796373493841 0.07099332491617809
000170 02 de 21 5e 82 a4 cb 3f 0e ab f3 23 94 4f c3 3f
       0.21595792385390672 0.1508660483881034
000180 2a 19 d3 dd 0a 5a e5 bf 7d b7 b9 2d 8d 33 d9 bf
       -0.6672415096771023 -0.3937714525735528
000190 f2 ba 0f 25 fe c3 04 40 65 d8 7d e6 de ac e5 bf
       2.595699586432027 -0.6773523809231504
0001a0 ce 67 49 1f 9b ac b0 3f d5 86 9e 20 be d4 00 40
       0.06513375772320204 2.1038782642725473
0001b0 6e fb 2e c8 02 4f d1 3f 92 68 28 80 9e 3b b0 3f
       0.2704474406163432 0.0634097159276357
0001c0 6d 55 e0 ae 9c f6 e9 bf 2c ca ce c1 bf 2a b8 3f
       -0.8113540092041781 0.09440229875216549
0001d0 c5 2d 3a 9f 81 e1 0c c0 a3 50 f2 1d 46 ed 01 40
       -3.6101105155591733 2.2408563937734285
0001e0 09 ce 29 ec cb 44 ed bf 08 e9 79 f1 57 58 00 c0
       -0.9146480190815406 -2.0431364884690346
0001f0 d2 87 0d 11 22 c9 06 c0 ea 4e 03 b2 f6 2e f8 bf
       -2.8482095081571766 -1.5114657357816506

transform_generator.3.weight f8 [64, 64]
000000 93 04 34 24 d4 9f ce bf 04 9c 13 71 49 64 d7 bf
       -0.23925258414968606 -0.36549602549206406
000010 b5 1b 1c 87 64 40 b2 bf 3c d6 e4 d8 31 dd e0 bf
       -0.07129505442217872 -0.5270013080796114
000020 5e 0e 5d 6c c5 09 b1 bf 22 4e 56 21 8d 5b b1 3f
       -0.06655534644692682 0.0678032118215062
000030 bf 70 9b ad 9e 6a a2 3f 22 cd 19 48 7f bd b1 3f
       0.03596969479778655 0.06929774770997146
000040 b5 21 7a 48 69 07 92 bf 9c f9 d9 95 a3 91 d4 bf
       -0.01760639672150584 -0.32138909944469574
000050 ea d4 fc 1f cc 10 9d bf ce a0 a5 f7 25 25 90 bf
       -0.028384389355058305 -0.015766709556744023
000060 0b e8 a2 44 e9 59 b8 bf fc 74 23 77 2e a0 c5 bf
       -0.09512193608944146 -0.16895085160550838
000070 a0 f1 6f 1e b9 96 76 3f 30 f4 e7 48 77 a5 c3 bf
       0.005514834519086881 -0.15348712024561584
000080 cd 04 be cb fd 0c a0 bf 2c 9a 71 80 f6 f9 ba bf
       -0.03134911644065994 -0.10537663112482026
000090 52 f1 4d ac 63 bc ae bf ab ba c1 93 ab 03 b5 bf
       -0.06003104666067095 -0.08208725316374436
0000a0 34 d8 b7 4e b1 15 b3 3f 4b 0a c8 7b cf 3e a5 bf
       0.07454975292043359 -0.04149483095172409
0000b0 2b 3c 98 20 12 e7 8b bf 91 5a 68 f4 39 3e 89 bf
       -0.013624326343260126 -0.012325718661526682
0000c0 df 58 b7 ad bb 68 80 bf 4e 33 09 87 7c c7 e1 bf
       -0.008012262572190952 -0.5556013715191541
0000d0 59 82 f1 58 ad 29 dd bf a4 06 84 8d 50 0c ac 3f
       -0.4556687706554264 0.05478145339476484
0000e0 03 fb cb 48 1a 4a bc bf 16 45 54 38 01 a5 a7 bf
       -0.1105057170607147 -0.04618076145755816
0000f0 ca 7d f4 19 6f 18 b3 bf 6d 45 fc 73 c9 78 c3 bf
       -0.07459158309619976 -0.15212362445212638
000100 67 16 51 34 ae 17 c3 3f 07 6c 7c 21 41 b2 b0 bf
       0.1491601710751411 -0.06521994655160777
000110 8f e1 90 a3 59 56 b3 bf bf 55 bb 83 3d 53 66 bf
       -0.07553634875592351 -0.0027252389389597893
000120 55 c1 3d 76 ed 53 a8 bf 60 df 49 6f 7f ba b6 3f
       -0.047515316661590624 0.08878323046689962
000130 6b 36 c5 a1 62 62 bf bf a0 ea d7 49 56 69 ac 3f
       -0.1225949902484104 0.05549115802201254
000140 08 c8 53 11 ce c5 bb 3f 88 16 e6 fb fe 98 c8 bf
       0.10848701403645589 -0.19216906833405667
000150 0e 5c d1 f9 e5 fa aa 3f 5b 40 63 f4 0e af a0 3f
       0.052695452447260135 0.03258558972595501
000160 bd c7 85 63 d8 06 b6 3f c3 c9 2e 6e c4 f3 92 bf
       0.08604195050955261 -0.01850802347662196
000170 a1 bd 7f d2 db dc c1 bf 3d 1d 93 d8 41 85 b3 bf
       -0.139552572043141 -0.07625209367244153
000180 e1 ca 08 bc 99 c1 bd bf a6 f0 5c 77 f5 c7 b6 bf
       -0.11623535957987087 -0.08898862995278253
000190 06 c3 e5 54 48 02 cf bf b1 1e 20 b6 bd 18 b4 bf
       -0.2422571577585801 -0.07850251861975256
0001a0 0c fe 74 99 be 3e ba bf 39 f2 32 c4 17 fe b4 bf
       -0.10251990553387474 -0.08200214900984627
0001b0 58 ec 11 c1 49 f4 ce bf c7 6d 51 a0 21 01 8b 3f
       -0.2418300812458678 0.013185751633662769
0001c0 2f 31 41 89 38 d2 c1 3f 08 d7 3e eb c3 10 b6 bf
       0.139227931040645 -0.08619331830308508
0001d0 28 7a ba a8 e1 e0 cc bf 85 5e 64 27 43 bd e4 bf
       -0.2256128381604452 -0.6481033105255426
0001e0 b7 d4 7d 36 66 11 bd bf b9 98 6c cd da d0 c3 3f
       -0.1135467417751269 0.15481123953322198
0001f0 41 d2 9d 2b 15 78 94 3f 39 3f 81 e3 bd 5e 9d bf
       0.0199893291350739 -0.02868172360496077
000200 c2 3a 03 13 2c c5 30 c0 0a 5f ab f3 2e 33 b8 3f
       -16.770203769958933 0.09453099678955482
000210 85 ce 44 5e 4c ab 79 bf 16 4a 9f 16 c8 3e 23 c0
       -0.006266878426959392 -9.622620303101069
000220 78 0a 31 7a 07 3c b2 3f 16 92 fd 1b 63 f3 b9 bf
       0.07122847302620439 -0.1013700431190688
000230 7b 86 2c 87 1d 2f 85 3f 39 c0 4f 3c 72 cf c4 3f
       0.010343771636658552 0.16258075661562701
000240 96 0e 35 06 af 3d 23 c0 b4 52 ea 15 07 14 c9 3f
       -9.620475954033548 0.19592369623264505
000250 2d bc db c5 0a 15 c8 bf 8d a3 56 f2 00 c7 d2 bf
       -0.18814215336848986 -0.29339622178900343
000260 9d 46 36 6e e3 bc b3 3f 33 c7 20 fc b8 b8 c0 3f
       0.0771009582588484 0.1306372862905448
000270 57 4b 4a 2f e9 9e f4 bf 5c 90 a2 82 29 ad b9 3f
       -1.288796601035491 0.10029849471408298
000280 73 f5 88 c9 a5 f1 a0 3f 02 1d 21 b5 de 17 b1 bf
       0.03309362492698655 -0.06677047655204052
000290 22 d2 a6 37 7e d6 9b bf dc a9 e4 1c 73 74 b1 3f
       -0.02718541350050619 0.06818313079262545
0002a0 75 76 ca 6d 02 3a a6 3f 2b 8e 48 a3 c9 81 9e 3f
       0.04341132726879674 0.029791975585011492
0002b0 e6 4e 38 2f 9f 3c b5 3f 5b 0b 8c 7b 4e a0 aa 3f
       0.08295626547652155 0.052004292088915625
0002c0 dc e1 24 2e c3 47 bc bf a5 a0 04 00 ae cc db bf
       -0.11047000767292253 -0.4343676567245985
0002d0 05 4f 09 4e 6c 43 31 c0 59 c8 55 4e d3 1e cc 3f
       -17.263371350548386 0.21969071698146328
0002e0 c2 18 5a 04 1e 6c b3 3f 55 85 2a f1 7d 71 c3 3f
       0.07586848837135832 0.15190099979103402
0002f0 34 c3 48 38 84 45 c4 3f e4 5d 5d c4 1a ac c0 bf
       0.15837147472623203 -0.13025221431847378
000300 32 fb 06 cd 05 39 a9 bf f9 05 3e 0c 88 58 ba 3f
       -0.04926317336820886 0.10291338251956707
000310 33 02 e2 0a 54 eb 9f 3f 03 e4 e9 c6 db 5b a6 3f
       0.03117114368842717 0.04366957476754154
000320 78 4e f8 ff e8 82 87 3f 1c e9 d4 2c 86 7c 99 3f
       0.01148016005667006 0.024889084326084818
000330 f9 56 18 d9 86 3f e1 3f 3a 8a 24 be 54 e0 03 c0
       0.5390047302377915 -2.484536633958922
000340 34 66 03 3a a5 cf c8 3f 35 39 8f 3e 00 ca 75 bf
       0.1938368352191887 -0.005319596247274118
000350 a6 4c 22 32 f4 85 87 3f 17 3c bb f5 57 5a c3 bf
       0.011485965518920626 -0.1511945676670343
000360 e9 d5 84 bf 36 53 b8 bf a3 a3 2e ea 6e c1 bc 3f
       -0.09501974273447157 0.11232655732477652
000370 4e e4 2a 5b 87 a9 b0 3f d1 4f 42 33 12 c4 aa bf
       0.06508680320520563 -0.0522771537372645
000380 21 87 55 71 f0 43 c0 3f e8 95 1c a7 6f 4e 8d 3f
       0.1270733407391669 0.014309761321395123
000390 5d 88 b5 9c 0e 89 2d c0 ef ae c9 34 47 a3 c3 bf
       -14.767689606818914 -0.1534203536751799
0003a0 16 53 67 24 08 61 7b bf 89 ab 5c 8c 53 35 21 c0
       -0.006684333615756063 -8.604153047859443
0003b0 f7 12 90 71 58 87 ac bf 5f b3 db 05 cf d0 a8 bf
       -0.05572010408653754 -0.04846808382521916
0003c0 68 88 92 61 01 6e 82 bf eb f7 cc 62 f5 ea bf 3f
       -0.008998881139920381 0.12467893278241575
0003d0 ad cc 7a d9 ca f4 e0 bf 55 f7 8c 15 15 89 2a c0
       -0.5298818824434385 -13.267738984544545
0003e0 60 e4 7e 00 e6 ac ab bf 1c 5a eb ee 2d 3e 88 3f
       -0.05405348545122801 0.011837347844829309
0003f0 93 bb b3 2f 3c cc c3 bf dd 33 a3 5e c4 56 ce bf
       -0.15467026070788545 -0.23702292080852674
000400 0d 2f 07 d7 2d 0a ad bf 7f 7f 6b f6 9e a2 7d 3f
       -0.05671828508238095 0.007235165546006671
000410 4f 7f 2f 31 75 13 a1 bf c8 00 17 c6 ff 0e a5 bf
       -0.03335157609376315 -0.04113005917634066
000420 76 5e 53 8a 20 cc be bf 75 6f 6d dd 8a 0b b6 bf
       -0.12030223252383529 -0.08611362367576965
000430 3b 72 c7 bd a7 c4 a7 bf a4 75 e5 7a ea 62 c6 bf
       -0.04642223540915721 -0.1748936748580664
000440 48 3e d0 d6 a3 2a 67 bf 07 98 2b 48 a2 af c4 bf
       -0.0028279495222774155 -0.16160992168369168
000450 2b b5 f6 bb 2f cd bd 3f ee 3f 46 29 f2 a8 ad bf
       0.11641214693982664 -0.057929580248241894
000460 f1 96 58 6d b9 bf c6 bf 2b e3 5f 7d a7 89 a4 bf
       -0.17772596205866578 -0.04011271863413975
000470 4d 6a 36 b1 eb 64 84 3f ae 87 df 18 02 ee bb bf
       0.009958115907285814 -0.10910046679739935
000480 b7 96 fe 60 68 5c c1 bf 53 8e 76 2b c4 f5 b3 bf
       -0.13563256012019106 -0.07796884595023217
000490 f1 a5 df 3e dc 0c 71 3f b5 41 f2 69 b3 65 b4 3f
       0.00416265519559421 0.07967683159427603
0004a0 9c e8 14 6f b0 d4 b1 bf e5 74 21 ba e8 ac c6 bf
       -0.0696516295619482 -0.17715176666653246
0004b0 7b e8 ab 74 2c f7 c4 bf 26 9d 1b be e2 ed c0 bf
       -0.16379314133502362 -0.13225969584093739
0004c0 31 a6 35 39 e3 92 c0 bf 8f 9d b0 5a 70 1a ac 3f
       -0.1294826535552587 0.0548892126756143
0004d0 10 74 29 48 59 ec c6 bf 54 3c 3f fe 6d 3b 6b bf
       -0.17908779166728594 -0.00332423670804575
0004e0 34 31 a8 2d 4b 6d 9a 3f 92 e7 78 0c fb b8 b5 bf
       0.025807547246629883 -0.08485383085726841
0004f0 c5 46 2b 6e 74 9a c7 bf 84 bd 38 db dc b8 b4 bf
       -0.1844010866102989 -0.08094578125086654
000500 08 ad 8c ad e4 4d af bf 76 09 57 f8 c9 53 c4 bf
       -0.061141153512233315 -0.15880703569389326
000510 59 38 7d 8b d5 08 bb bf 67 9c 73 e4 c7 3b b7 3f
       -0.10560354857918365 0.0907559330695321
000520 7b f5 da 83 52 c3 c2 bf 77 c9 7d 3c 0e 4e c3 bf
       -0.14658576429603073 -0.15081956819228612
000530 28 c8 1f 84 a0 17 89 3f 87 b1 98 07 f5 6e a5 bf
       0.012252096206768995 -0.04186216085176669
000540 2a 4b e3 ae 0d ef a1 3f 98 a6 57 7b c0 85 b3 bf
       0.035026958082786955 -0.07625964175499644
000550 99 e9 67 61 8b 16 bf bf 32 ec 46 b0 42 f2 ae bf
       -0.12143775108407907 -0.06044205095118861
000560 27 7d c5 d2 aa 43 a6 3f 8f a0 a5 36 24 ae 6a 3f
       0.043485010365424785 0.003256865243361835
000570 2b d6 76 e3 65 53 9b 3f 5b ea b1 7c 18 4e a5 bf
       0.026685325630486794 -0.04161144754558129
000580 df c8 29 44 28 ec b8 bf 62 8b 45 10 bd 87 c4 bf
       -0.0973534742750277 -0.16039241117968134
000590 55 c6 2a a6 19 4f bf bf 37 25 d6 c7 61 b4 95 3f
       -0.12230072314084713 0.021195915052463845
0005a0 a3 6e 2c 79 32 17 c7 bf 9a 9c b9 48 3c c0 d2 bf
       -0.18039542118718996 -0.292983122845223
0005b0 33 2d a3 b7 f4 d1 b6 bf 6d a9 34 5c 44 a7 a1 bf
       -0.0891411732038037 -0.034479271178798544
0005c0 2c 38 47 56 2a 1d 5b 3f 93 f3 cb 0b 26 34 9a bf
       0.0016549027869703454 -0.02558955618859533
0005d0 a2 3f 64 20 a0 e7 ad bf 55 75 41 3d 7e 31 bb bf
       -0.05840778727917885 -0.10622395511150746
0005e0 7f 34 bb e4 99 0f 9d 3f ef 64 91 ba 6b ae ac 3f
       0.028379826150559225 0.0560182252163005
0005f0 ea 3c 2e da 17 3e ba bf d3 98 2a 3e 64 10 c5 3f
       -0.10250996662783832 0.16456273112743833
000600 e4 1c d4 29 f3 06 30 c0 d5 54 9b 77 15 ab c9 bf
       -16.027147878918996 -0.20053356495069488
000610 b9 8e ce 43 16 04 be 3f d5 b9 29 18 8b 05 1f c0
       0.11724986224595114 -7.755413415476558
000620 c6 26 e3 36 40 19 c3 3f 83 40 5a 90 31 b8 bd bf
       0.14920809440655186 -0.1160918214247904
000630 10 1c cf ad 6e 71 b3 3f 3b 0d 25 ef fb f0 c7 3f
       0.07594959014305425 0.18704175164212153
000640 81 f5 03 93 eb 19 22 c0 8d 6f 29 68 81 a0 b8 3f
       -9.050625414117123 0.09619911950124856
000650 f9 3f 4a a7 6c 19 d0 bf 1e 9c d7 d3 a6 45 d3 bf
       -0.25155178391378247 -0.3011262005588281
000660 7a bb ca 4d 66 43 c1 3f 1f 06 db 58 5a ce bc 3f
       0.13486937330659626 0.11252369565320251
000670 de e5 31 81 3e 2a f0 bf 4c 33 95 da d1 89 c6 3f
       -1.010313515346176 0.17608092473019565
000680 af 98 7c 17 2a 9a a0 bf 64 96 0e 6c c2 0f b0 3f
       -0.03242618118956508 0.06274047029600066
000690 26 91 db 55 2f 9c 9a bf 66 33 95 ef be 29 d5 3f
       -0.02598642312558854 0.3306729640651639
0006a0 92 ef 7d f0 bf 89 b2 3f 73 4a ec 2f 19 ee ab 3f
       0.07241439458260704 0.05455092153546994
0006b0 ef 6a e3 0b 03 35 bd 3f 11 a5 fb 14 51 0a b0 3f
       0.11409014740221911 0.06265742075233428
0006c0 f7 ab 66 b6 91 be b0 bf 6a e7 63 32 0a ec e1 bf
       -0.06540785506392398 -0.5600634559807365
0006d0 d6 11 ca 5d 96 92 30 c0 96 3e e7 46 89 87 c3 3f
       -16.57260690863935 0.15257373773646482
0006e0 12 32 24 ef c7 45 aa 3f 5c 16 9a 27 06 f3 a4 3f
       0.051313636724533165 0.04091662629529644
0006f0 c5 06 d9 22 b7 e5 ab 3f aa 15 3e ff 79 3b af bf
       0.05448696422946634 -0.061000645072492546
000700 ae 78 02 a8 aa e8 a5 bf 3d c2 56 03 b6 22 c2 3f
       -0.04279073048495384 0.14168429530174534
000710 7f a9 77 62 07 74 c1 3f 95 a3 2c 9b 16 b5 b0 bf
       0.1363534193799971 -0.06526318825184625
000720 04 51 d5 2f b6 d9 b9 3f 16 4d f1 6a d4 05 9a bf
       0.10097826640896207 -0.0254128637573788
000730 71 02 04 6e 43 4c da 3f c5 16 e9 66 75 8a 06 c0
       0.4109047483798696 -2.817606739033041
000740 ac 67 b8 96 02 02 b0 3f e8 f0 a2 5a b1 32 a8 bf
       0.06253067187972644 -0.04726175528910109
000750 1b ec dd 2a 22 8f b5 bf a6 b4 87 65 20 1d d7 bf
       -0.08421529337458404 -0.3611527434830556
000760 0d b7 1f a9 f1 17 bb bf f3 68 a2 ea 4c 0d 90 3f
       -0.10583410624505181 0.01567573721022426
000770 06 34 cc 0a b8 95 bb 3f 4e 7a 32 5d 2e 7d b7 3f
       0.10775327933897935 0.09175386214563128
000780 ee 0b 5a 2f 8d 40 a4 bf eb 31 9e f3 a1 bc 95 3f
       -0.039554988889925244 0.021227388853320688
000790 26 08 2c 95 dd 8c 2b c0 33 bb 58 82 b7 c9 c4 3f
       -13.775128041863422 0.16240590920048134
0007a0 42 e2 65 8d 7c 39 b6 3f f4 5d 0b 1a 70 6c 1f c0
       0.0868146748742982 -7.855896384185588
0007b0 66 d8 54 b5 c3 99 53 bf 28 1d f8 57 f5 d3 a4 3f
       -0.0011963282789344775 0.04067961405604087
0007c0 3d f3 9e 58 31 f9 a0 bf 9c 96 87 50 f1 e3 ab bf
       -0.03315118986890873 -0.05447343929317336
0007d0 3b 74 26 49 ff fd db bf ab 08 e6 f1 7e 95 28 c0
       -0.4373777593953638 -12.291984137850099
0007e0 84 b6 f4 c0 c8 da d0 3f 58 ff f3 56 06 b8 c3 bf
       0.26335352748251517 -0.15405349012143676
0007f0 50 45 a4 94 cf 39 c2 bf 0a 88 17 04 44 8e c8 bf
       -0.1423892474927393 -0.19184160423088797

transform_generator.3.bias f8 [64]
000000 4c 6c bf fe 0f 94 c9 bf e4 22 4f ac 0a 33 e5 3f
       -0.1998310083280067 0.66248067525984
000010 b9 6f 10 8c 50 40 c1 bf bf 8d e9 c2 76 d6 dc 3f
       -0.13477522696564195 0.45058983835607685
000020 0c 3a 42 3d 33 92 da 3f d3 7d 21 f1 37 c6 db 3f
       0.41517334921164273 0.43397329852993244
000030 d0 6c ca 4b 35 34 97 bf db 2f cd 11 64 be a8 bf
       -0.02266009593095647 -0.048327567265544956
000040 68 f4 00 ac aa ce e0 3f 79 f3 7f c0 80 3a 80 bf
       0.5252278670738066 -0.007924085497501331
000050 dc fe 49 71 16 fb c6 bf 8d d4 49 da 15 69 b4 3f
       -0.1795375874680677 0.07972847537333135
000060 e5 c7 46 c1 1f 05 d8 bf 57 fc 3f 70 3e 47 c7 bf
       -0.37531274675995824 -0.18186169129328064
000070 97 05 6e 33 6b 78 d6 3f 49 e3 1a e9 54 75 aa 3f
       0.3510997774356723 0.05167641969223397
000080 f4 84 47 7f 09 c7 d3 3f 30 2f 65 a3 39 ae e1 3f
       0.30902326039911476 0.5525177184403898
000090 10 54 c4 4e f2 6a bc bf 73 5a bd 21 80 d2 d4 3f
       -0.11100687430401046 0.3253479318131333
0000a0 c6 1f 48 01 60 01 f0 3f 2c b7 dc d6 b9 ac e1 3f
       1.0003356981342093 0.5523347088362462
0000b0 60 8e bc 3d 03 dd 9f 3f ad 25 65 82 54 89 d5 3f
       0.031116533892726728 0.3365069650068005
0000c0 14 9e ce 15 14 81 cc 3f 68 c3 57 33 be 77 f5 3f
       0.22268916191863808 1.3417341237620466
0000d0 74 6f 0f 64 c7 ea 8d bf ca d9 27 97 f7 fc e0 3f
       -0.014607961407754756 0.530879779077446
0000e0 d4 20 bc 68 9b 6e f6 3f 5f 71 e3 59 08 86 3d bf
       1.4020036784368601 -0.0004504938496106194
0000f0 6f 78 df 1a ce f9 bd bf ef 09 12 c4 2b 2f b7 3f
       -0.11709297329022815 0.0905635217368752
000100 f0 51 c5 64 16 e3 bd bf f4 a9 35 fc c6 d0 e3 3f
       -0.11674632988189848 0.6192355085343579
000110 e1 11 90 d4 2f f0 78 bf 60 22 cb d8 68 dd 74 bf
       -0.006088435017776978 -0.005093965108877357
000120 17 f2 88 87 9f 44 bb 3f 7c 7f 47 69 1a e4 bf bf
       0.10651585635145754 -0.12457432813925878
000130 bb 78 4d 79 a8 28 d6 3f ce 55 2e 2f 63 0c e2 3f
       0.34623157354316064 0.5640121385101169
000140 11 ed ed a7 e6 e9 d3 3f ae 54 e2 7f a0 93 c3 3f
       0.3111511840758832 0.1529427170213799
000150 ad e1 8c c3 2e 0d b9 bf 36 4a 2f 49 a1 26 b3 3f
       -0.0978574016015787 0.07480819737183073
000160 d7 79 c1 16 36 09 b0 bf 1b 67 ee 01 12 fa d5 3f
       -0.06264055305061987 0.3433880823955506
000170 ac f3 10 b7 89 91 a6 3f a1 76 62 66 4a a4 e9 3f
       0.044079116436911064 0.8013050079059277
000180 ed 7a 40 77 14 eb b6 bf 7d a4 45 f9 62 dd c9 bf
       -0.08952453528807398 -0.20206868335234054
000190 4e ff 83 b7 8b ec a8 bf c2 f3 ce ff 01 10 de 3f
       -0.0486797009962162 0.46972703915872327
0001a0 e6 83 e3 cc 68 5f a6 bf 10 0f ac 5c e2 fc db 3f
       -0.04369666577418467 0.4373098282815002
0001b0 09 94 e8 73 5a da a2 bf aa 23 6f d6 43 3a d0 bf
       -0.03682215371035375 -0.25355621281465324
0001c0 96 d5 fb a2 df 01 e3 3f 32 0c 21 f9 6b 17 c4 bf
       0.5939787085796293 -0.15696477570063078
0001d0 a9 5f 0b 07 a0 13 e5 3f 17 54 71 0c 09 68 e9 bf
       0.6586456430040829 -0.7939496272107388
0001e0 54 1c de 03 bb 90 e1 3f f4 7c 6a 8d 1d 63 b6 bf
       0.5489173007525872 -0.0874498815778571
0001f0 24 ec 46 b5 0d dc de 3f 6f 98 67 22 9a a8 da 3f
       0.4821810026439286 0.4165406547530272

transform_generator.6.weight f8 [64, 64]
000000 8b 7d e5 0c e5 07 c4 3f 7d 3a f8 09 18 93 c6 bf
       0.1564909279795582 -0.17636394964980076
000010 0e fd 6e 88 67 d3 99 3f 5d 60 d4 2e fb 1d b1 bf
       0.025220506384127588 -0.06686372655201596
000020 c5 a7 ab ed 05 0f b1 bf 57 5d ad f9 da 24 c1 bf
       -0.06663548519614355 -0.133937236702631
000030 05 40 ae da 8e 18 b0 bf a6 b1 9e 5b 40 e9 bd bf
       -0.06287472571261794 -0.116840383880748
000040 2d f6 a8 a3 bb 9e 92 3f 7d f4 43 c1 7c 79 c2 bf
       0.018183643211378154 -0.14433249890126723
000050 be 04 6d 55 58 99 c2 bf 67 8a cf 30 8e f5 a4 bf
       -0.14530471965011843 -0.040935939272249304
000060 00 46 6f bc 3b ab a2 bf 40 90 f3 e1 ab ac bb bf
       -0.03646265673854643 -0.1081035067214211
000070 d3 bf 73 ae cd fd a0 bf 81 7e f9 ab e9 72 c4 bf
       -0.03318636660139842 -0.1597568597526227
000080 42 55 b1 53 28 31 95 3f ad 73 aa d1 36 68 c3 bf
       0.0206953335840201 -0.15161786305989491
000090 95 25 c5 14 51 3d ac 3f 8e 74 52 15 40 85 93 bf
       0.05515530947247808 -0.019062997151753573
0000a0 db b7 1c 70 8b 52 ab bf dd 43 92 2c aa 18 bf bf
       -0.05336414092594995 -0.12147010410468746
0000b0 31 66 f4 a3 2e 6a a5 bf 6d 0c ea 50 3d c5 63 bf
       -0.041825730813979674 -0.0024133870677487874
0000c0 df da 2c 0d d9 33 b5 bf 2c f3 9a 26 4c 1e c7 bf
       -0.08282238551769748 -0.18061210522673699
0000d0 ec 3c 6d 1e 07 c8 c7 bf 72 88 aa 82 2b 66 92 bf
       -0.1857918642585682 -0.017967872476795717
0000e0 4d 4f 08 ac ee 83 cb bf 0e 56 b3 07 ab 27 ba bf
       -0.21496375465414488 -0.10216778696061388
0000f0 4b 45 27 9d f1 8a b1 bf 24 51 81 d5 d9 0f af bf
       -0.0685263642001434 -0.06066780787719697
000100 a7 b8 ca 04 b2 46 b4 bf 82 bc c3 1e 12 0d a0 bf
       -0.07920372597684154 -0.031349722152179474
000110 a2 b6 2c 1d 85 18 c2 bf b6 8e a6 39 bf ae b1 bf
       -0.1413732902960208 -0.06907267720685692
000120 d5 98 33 af 62 38 c4 bf 4d 4e e8 82 f8 23 a8 3f
       -0.15797074846995565 0.04714943502417821
000130 ce 71 bf a1 67 c0 b3 bf 48 0c 9c 18 8a f4 c8 bf
       -0.0771546144382633 -0.1949627514041785
000140 2d 76 40 82 7a ae c1 bf 98 ee 83 65 50 3b ad bf
       -0.13813716278029756 -0.057093155281078
000150 bf 6d 65 ab 8c 6d a2 bf 17 e8 2f 55 ee 07 b8 bf
       -0.03599204628218499 -0.09387101726306955
000160 42 df d2 b9 4d 36 7f 3f bf 4d 47 98 3c 14 c6 bf
       0.0076201473395299275 -0.17249257503008938
000170 b5 47 8a c9 ee 8d 9a 3f b6 f3 dd 91 8e cb a1 3f
       0.02593205552199836 0.03475614100077655
000180 38 4b 0a 38 63 26 bf bf fb bd 34 b8 86 62 c7 bf
       -0.12167949789208599 -0.182694282478664
000190 51 37 3d 81 f7 d6 b9 bf 25 0a 30 95 67 ee c8 bf
       -0.10093638329746325 -0.1947755316214891
0001a0 3b 3b 69 f0 66 2a c4 bf a8 bb 94 28 78 24 c0 bf
       -0.15754400957890788 -0.1261129568242414
0001b0 7e 28 8c f7 47 b6 9e bf 72 1e 13 61 51 a0 ae bf
       -0.029992222293949038 -0.0598168784140939
0001c0 79 05 83 de 5e f0 b2 bf ad 05 31 d8 9b 8a a9 3f
       -0.07398026401917503 0.04988562597328481
0001d0 cd 67 32 af dd 49 b0 bf f2 47 b3 13 2a 9f 91 bf
       -0.06362710501926401 -0.017208726360713862
0001e0 9f 4a bd e1 6e a9 73 3f 30 43 22 be 35 c7 87 3f
       0.004800255901346389 0.011610431542324301
0001f0 6e a8 b2 d2 50 df c6 bf 6e b4 4a ac 3b b9 8c bf
       -0.17869005477888628 -0.014025179095677322
000200 e6 fd b7 f9 78 24 b8 3f c3 16 90 18 32 80 c3 bf
       0.09430652710579288 -0.15234972190244464
000210 8d d8 9b c6 30 71 ad bf ad de 35 c3 c0 88 aa 3f
       -0.05750420021461009 0.051824592427633355
000220 82 2e 5e 58 b7 34 bc bf 13 78 01 f1 91 38 c2 bf
       -0.11017938525599827 -0.14235138194902727
000230 a2 42 02 f0 bf f4 a0 bf a6 9d a5 fb 5d c5 8c bf
       -0.03311729244990615 -0.01404832290854936
000240 ac d0 5d e7 b6 4e a1 3f 58 50 18 b8 22 cb 9c 3f
       0.03380366873071358 0.0281186509001404
000250 40 ba ae 71 2b d3 9e 3f ed 9a 03 8c b3 7a be bf
       0.030102423490172336 -0.1190597740966088
000260 9b 0a e9 d8 40 2f c7 bf c0 44 99 ec 5c 0d 81 bf
       -0.1811295565731442 -0.008326269121570085
000270 37 c3 72 cd cd 26 ba bf 52 fe 26 26 0b 9e ae bf
       -0.10215460077121184 -0.05979952660299816
000280 1c 24 2e ee 71 c0 c4 bf ee 99 9d 4b 30 2e 71 3f
       -0.1621229565610357 0.004194439557841252
000290 14 9d be 97 7d f7 c0 bf 74 47 a7 81 80 2b bb bf
       -0.13255281361964733 -0.10613253751151125
0002a0 5b 82 79 c1 8c 04 b8 bf 28 a7 05 b2 30 54 c5 bf
       -0.09381942485334475 -0.16663178150639024
0002b0 0a d5 c4 2f 5d 7a c1 bf 93 c3 bd dd 87 85 c0 bf
       -0.13654675323929438 -0.1290750344010375
0002c0 8d dd cb e6 ed 7b be bf 42 56 a7 79 b7 61 ac 3f
       -0.11907851109196184 0.05543301925687817
0002d0 fa d2 87 42 b2 cb b0 bf fe a5 ad 5b 64 9f c6 bf
       -0.06560815929681132 -0.17673925854187184
0002e0 81 7a 2c 97 29 db 8c bf 82 b1 d1 3e 4e 3b c3 bf
       -0.014089894224125434 -0.15024736468638983
0002f0 c7 94 88 7b 19 9a c1 bf 8b 42 23 fa f5 27 8c 3f
       -0.1375152447882668 0.013748094268892138
000300 54 c7 8a 7f 50 41 c0 bf 75 19 08 3f 7a 1b b6 bf
       -0.1269932387127094 -0.08635677374704705
000310 b7 73 0e 43 e4 15 b0 bf d6 fa 6c ba cc 28 bd bf
       -0.06283404004211844 -0.11390380431565048
000320 55 ef 3c 8d 50 6b 84 3f 81 bc b3 ba 24 c5 c1 bf
       0.00997031146072628 -0.13882884136498677
000330 db 16 83 4c b0 5f c7 bf d9 c9 6a 08 f9 ea c0 bf
       -0.18260768638554378 -0.13217080031388553
000340 56 f2 22 39 44 09 8a bf 20 aa 4d 09 c0 a0 9f bf
       -0.01271298694006721 -0.03088665062697704
000350 46 69 5b 10 8a 7e c5 bf c5 91 19 a6 76 77 de bf
       -0.16792417334256465 -0.47604147167865235
000360 25 c6 ae 72 4f f8 c0 bf f4 c2 46 32 f2 7f ad 3f
       -0.13257783031217332 0.057616776120431284
000370 d6 56 94 8e 3f ba 7b bf d5 cf 96 38 84 97 a5 3f
       -0.0067694170659444355 0.042171604068613235
000380 0d c7 4c a2 5f 97 80 bf 4d 49 a1 fe 95 80 bf bf
       -0.008101222172260525 -0.12305581537774408
000390 15 b3 95 f6 12 11 af bf 7e 88 f0 37 73 ca d7 bf
       -0.06067713985507887 -0.37173157179689287
0003a0 17 5f ac 6a b0 a8 a6 bf 5f ff e1 dd 71 e7 a9 bf
       -0.044255745908399806 -0.05059390862970647
0003b0 ec 61 55 ab e5 3d a6 3f 17 37 ba 2b 0b 7b c7 bf
       0.043440987744080534 -0.18344249377371888
0003c0 64 f4 ec 99 67 55 b1 bf 11 72 01 55 05 f1 b6 bf
       -0.06770942218732184 -0.08961518597920583
0003d0 98 e8 b0 e6 c3 99 c5 bf 9e 18 e5 41 b4 22 c1 bf
       -0.1687550426884783 -0.1338715860130763
0003e0 fb 42 46 73 9e 4c a5 3f 45 63 ab 52 bb f5 c6 bf
       0.04160018117102556 -0.1793741372737491
0003f0 08 eb aa 64 32 ab be bf d0 99 62 71 ba 86 c2 bf
       -0.11979975660043973 -0.14473658119568578
000400 41 ec 74 b9 be 47 94 3f d4 d0 7d 3c fd 93 b0 bf
       0.019804935521488657 -0.06475813605158304
000410 79 e9 6a 26 a6 6e b6 bf 97 2a 15 8b 52 23 ba bf
       -0.08762587011270807 -0.10210147758076925
000420 b5 64 33 9f 69 61 96 3f e0 5d d9 ac bb dd a7 3f
       0.021855974523394568 0.046613564347975034
000430 46 97 00 42 fb 35 bd bf 2e af c6 f3 40 b4 bf bf
       -0.11410494195351104 -0.12384420348706435
000440 65 c9 27 c7 ec 8e 96 3f ed da 2a 9f d2 d5 a1 3f
       0.022029590278131467 0.034834463052382116
000450 12 a4 57 15 d5 23 c6 bf c9 8f 89 ac 8d 6c bd bf
       -0.17296851675135422 -0.11493764364564564
000460 7c 6a f3 3e 48 fb b1 3f e2 ca 47 62 d2 43 63 bf
       0.07024051224599676 -0.00235167589766526
000470 61 41 96 a3 2e 49 f0 bf 1d c6 b3 67 59 27 71 3f
       -1.017866744052377 0.004187916983242637
000480 d7 c2 59 5f 42 a8 d6 3f fd 4c 4d 16 57 6d c9 bf
       0.35401973067841425 -0.19864929760897346
000490 c8 0f 4f f1 92 0b 5d bf 4d 89 1b e3 e4 bd 69 bf
       -0.0017727789865924371 -0.0031423063709194233
0004a0 1c 50 11 da db e7 dc bf 53 6a 8c db 3c 3f 67 3f
       -0.45165153785387857 0.002837771284601312
0004b0 4c fd a7 db 3b ca c9 3f ae ce 69 cb 9a cd c0 3f
       0.20148418641472643 0.13127455646791958
0004c0 b9 a8 f2 67 3e de c4 3f b5 b7 30 1f cf 73 9b 3f
       0.16303234172420902 0.02680896404142859
0004d0 1c 70 a4 8c 75 3e c3 bf 9e 5e b1 fa 52 a8 9f 3f
       -0.1503436028223185 0.0309155431280873
0004e0 c8 d5 0f e8 47 b1 c8 bf 90 16 34 3b 0c d0 b0 bf
       -0.1929101832499056 -0.06567455716511916
0004f0 66 77 dc 0b 18 b0 af bf 6d 44 14 71 7f 74 e5 bf
       -0.061890365074062356 -0.6704709251954576
000500 d0 0d 2e 67 90 00 c5 bf fc bc 7d 79 91 96 c8 bf
       -0.16407971418457956 -0.19209497863946712
000510 91 e8 67 02 bb c5 b0 3f f1 ed da 45 68 66 c1 bf
       0.06551712807405098 -0.13593772326372247
000520 37 f7 68 b7 e4 ee b0 3f 61 94 73 e8 8d fd b9 bf
       0.06614522435935731 -0.1015251820095542
000530 ab 2c c2 42 27 48 93 3f 85 7c 76 44 46 45 bc bf
       0.018829930734267347 -0.1104320447106933
000540 c6 22 72 67 66 4c b6 bf 5b 0b 6b 4d a9 03 da bf
       -0.08710327172787932 -0.4064734703098815
000550 15 97 4f 00 e9 35 c7 bf 70 b1 8f 45 a5 f6 d6 bf
       -0.181332707549864 -0.3588040522870619
000560 50 4a b5 c0 44 e4 92 bf c5 59 83 61 4f 48 ce bf
       -0.018448900472615215 -0.23658172856694484
000570 6d 91 ec a4 b9 dc 6b bf 0c c7 da e8 a0 3a ca bf
       -0.003401148401638013 -0.20491420144895078
000580 47 2c d4 b8 5e e7 c2 bf de e1 18 13 15 2e b7 bf
       -0.14768585228771 -0.09054691044082783
000590 3e f8 62 4a 15 dd b1 bf cf 22 b4 25 a4 15 ce bf
       -0.06977971139983283 -0.23503543702124438
0005a0 d6 75 34 73 76 1d c1 bf 6a 01 aa 42 c1 06 b5 bf
       -0.13371163010826476 -0.08213432195225825
0005b0 19 36 76 0a de ff c2 bf 30 2e d1 a2 58 a4 ea bf
       -0.14843345175579328 -0.8325617961904239
0005c0 15 56 87 c5 99 24 a3 3f b3 8d 74 83 cf 35 b7 bf
       0.03738861595381252 -0.09066483458860013
0005d0 40 ed 6e 6d 32 1d e7 bf cb b2 c2 20 0e 89 f6 bf
       -0.7223140847558298 -1.408460739107954
0005e0 94 6a 66 a2 3e 00 c3 bf ed ba 9d c4 3b dc c5 bf
       -0.1484449665993749 -0.17078349209210533
0005f0 f0 d1 ce 07 35 79 92 3f 3e e5 47 69 1d 6f ba bf
       0.018040493585162964 -0.10325797863324213
000600 0e f3 5d c3 e6 4e 9b 3f 52 e6 6a c5 46 33 c1 3f
       0.02666817252564884 0.13437733306436656
000610 e9 9b 7a 16 29 2b c0 3f 7f 10 d7 f7 82 e1 ca 3f
       0.12631715390781942 0.2100070676953045
000620 ca c0 29 55 65 fe c6 3f 5c b5 c5 f0 0f 1d a7 3f
       0.17963854463915246 0.04514360250582669
000630 6e 3a a8 14 e6 38 af bf a8 9d 1c 71 09 ed a3 bf
       -0.06098097803270695 -0.038917822892752085
000640 53 1f d4 51 7d b8 b9 3f 53 6a 87 cc cd 72 ac bf
       0.10047133682030322 -0.05556338426295739
000650 29 79 40 a0 04 ef aa 3f c5 76 87 7b da 5d b9 3f
       0.05260481315802885 0.09908833995674644
000660 fd 32 63 1f e1 5d a2 3f d1 77 0a 93 2d e6 a6 bf
       0.03587249286792902 -0.044724868964507565
000670 c0 48 5b f2 2c 4f aa 3f a3 e4 8b 83 a5 0d c2 3f
       0.05138531168417293 0.1410414593044936
000680 0e fc 7a c9 7d 93 b6 3f 15 88 13 cc 91 ed c2 3f
       0.08818803948359763 0.1478750463930402
000690 63 a3 96 be 1b bb 96 bf fa 2a d4 72 5b 74 95 bf
       -0.02219813681373085 -0.020951680072395874
0006a0 6a a4 ac 0e 30 c1 d3 3f 0b 50 15 7c 64 f9 ce 3f
       0.30866624291463174 0.24198585566284722
0006b0 05 5e bf 80 05 7e c1 3f 6e 37 17 8f 23 10 b5 3f
       0.13665837084293755 0.08227751010346449
0006c0 19 d7 c8 db 6e 6c b3 3f 65 63 50 ad e3 01 d1 3f
       0.07587330690224937 0.26574031758496225
0006d0 9e 90 06 e0 65 18 8d 3f b1 15 50 27 ae 61 c5 3f
       0.014206691645832156 0.16704346580097032
0006e0 2b 4b 72 a8 b1 e9 c9 3f 3f 89 e4 a0 fc e4 b0 3f
       0.20244427418637065 0.06599406173748877
0006f0 a7 86 78 68 64 f2 bf 3f 74 95 63 c4 f7 ee ae 3f
       0.12479236174160722 0.06041692993475581
000700 85 db 5d 92 a5 b6 c5 3f f4 81 9a 8a d2 73 cd 3f
       0.16963643690879962 0.23009711997748605
000710 7f 22 a8 10 a7 15 83 3f d4 c9 58 a3 dd df bd 3f
       0.009318642803024744 0.11669717061958035
000720 67 66 1d 50 49 3a cb 3f 16 88 10 f4 4f d6 b4 3f
       0.2127162591157685 0.0813951464520247
000730 7a 0f 95 b7 92 98 cc 3f 02 dc 51 5c 5f 2f c6 3f
       0.22340616191842938 0.17332069404412215
000740 b3 11 a1 b1 c4 38 cd 3f 69 70 71 9c 83 76 c8 3f
       0.22829493211078286 0.1911167634851865
000750 f1 55 05 62 08 58 c3 3f 3b a1 cd ac 6d 18 7a 3f
       0.15112404619382816 0.006370953004854403
000760 84 09 fc 6e ff 63 c2 3f 31 b5 52 1d 44 6e c9 3f
       0.143676690284405 0.19867755348006136
000770 4b bc 4b 85 ce 90 8b bf 44 3f 5d 7c 25 12 c2 3f
       -0.013459790652147549 0.14117878506157855
000780 52 8c c0 74 cd 5c 9a bf cc f0 0d 61 bb d4 64 bf
       -0.02574463868235128 -0.0025428447483460733
000790 c7 dd 81 dd a7 06 b3 3f aa 17 58 78 2a 0d fa bf
       0.07432030828373747 -1.6282143307630386
0007a0 94 0e 26 77 e2 a2 c2 3f 8e b4 43 31 f2 f0 c6 3f
       0.14559584443860685 0.17922809033862958
0007b0 c8 02 05 72 27 e6 c9 3f 99 c4 40 b8 07 63 c8 3f
       0.20233624522554394 0.19052216049889095
0007c0 86 e8 65 de 23 f5 cf 3f 30 08 87 82 97 7e c2 3f
       0.24966858252793517 0.14448827622806126
0007d0 a5 cf f4 51 ba d2 c5 3f a9 d4 04 56 01 1c e6 3f
       0.17049340249797953 0.690918605809789
0007e0 0a 73 e5 8f 40 90 a4 3f 85 4f b3 58 9d 19 b3 3f
       0.04016305691286533 0.07460959830797094
0007f0 99 32 7b b0 7b 81 c5 3f 95 29 9d ed 18 dc cc 3f
       0.16801401250122153 0.2254668388580511

transform_generator.6.bias f8 [64]
000000 87 6b 5d a3 c6 c8 bc bf 75 af 02 67 f1 2e c5 bf
       -0.11243859756852546 -0.165495086000529
000010 b7 87 3e 3d 75 bc c6 3f e9 b1 35 4e c1 5e bf 3f
       0.17762628069345762 0.12253959807794214
000020 9d 4c 13 b4 c6 89 87 bf 6d 37 4f 1d 80 8f b6 3f
       -0.011493255968537059 0.08812714305460441
000030 0d 0d 10 13 c7 75 e7 bf c8 d8 83 3b 8c 72 c1 bf
       -0.7331271526640265 -0.136308220920631
000040 17 06 73 40 ef ea 7b bf 4b 44 eb 6f c2 cc d3 3f
       -0.006815847947281315 0.309372529312047
000050 62 59 11 fc 35 ac c2 3f 28 e0 fb c2 6e 3c bd 3f
       0.14588045890804852 0.1142033792528997
000060 95 c9 f5 cf c8 c8 a1 bf 97 38 65 9c 2a 54 c6 bf
       -0.03473498858047034 -0.17444355617994198
000070 06 fa 1d 52 80 eb c7 3f 5c 98 2b fd 00 e8 d9 3f
       0.18687442788719028 0.4047853920332096
000080 27 fc 0d 9f cb f0 bd 3f f7 27 6f 07 b1 7c d6 3f
       0.116955496150681 0.3513605663871426
000090 88 fd 51 7d 21 62 bf 3f 02 91 ce 22 25 8f b5 3f
       0.12259110745980284 0.08421547031190715
0000a0 9d da a5 e0 14 52 a2 3f 23 27 bc f3 00 79 d4 3f
       0.03578248255046399 0.3198854809021318
0000b0 87 42 cb f7 3f aa cf 3f ca cc ae e2 a6 1b ba 3f
       0.24738311385455722 0.10198443445442532
0000c0 bd 8d d6 31 20 c6 c6 bf 9d 22 01 e7 a3 9a cd 3f
       -0.17792131837368955 0.23128174571526908
0000d0 02 df ff fb 0e 80 c4 bf 50 2f 5e a9 92 ad b9 bf
       -0.1601580362764637 -0.10030476221998907
0000e0 d3 ac c0 f5 6f d8 a0 3f 98 42 7e 48 68 ef 83 bf
       0.03290128588590737 -0.009733977043454176
0000f0 f8 a0 9c 00 9b b7 c3 bf fd 33 a7 ea 5a 6c b5 3f
       -0.15404069452166147 0.08368461827122071
000100 9d 06 57 f5 cd 18 cf 3f 28 ec 6d 21 77 97 c5 3f
       0.24294447402467237 0.16868485576910186
000110 32 b6 95 31 4b 6c c3 3f 79 25 e8 93 25 0e c4 bf
       0.15174236222394338 -0.15668172571194441
000120 93 25 ac a1 7d eb b3 3f 06 63 d3 4a 84 7f bd 3f
       0.07781205365258463 0.11522700144577067
000130 89 50 19 49 1b e2 ca 3f 4d 1a e2 5c bb 30 55 bf
       0.21002522534638882 -0.0012933568682754915
000140 ef e1 7f 3a bf 98 b1 bf 6f 0a 78 1d a3 51 d1 3f
       -0.06873698404513794 0.27060773732970395
000150 fc 34 f2 9e df 70 a0 bf 6a e8 f0 4c 1e a4 72 bf
       -0.03211115660915628 -0.004551046716239163
000160 05 49 37 ad cb 3a b6 bf dc 57 07 30 e8 5b a6 3f
       -0.08683464983849738 0.043669944632412444
000170 a6 ca 9b 96 aa 9c ad 3f ae a8 f9 15 e4 a8 d5 bf
       0.057835894474825 -0.33843328615206303
000180 14 7c 2c cf 3c f7 c1 bf a2 fa 9e fe f6 af 91 bf
       -0.14035759082705168 -0.01727281502803158
000190 13 04 13 ff aa d3 b6 3f ce 44 c1 46 fe 04 da 3f
       0.08916729667090832 0.4065547648397797
0001a0 46 21 54 6e c1 5f b5 3f 9d 64 f9 ac 96 75 ca 3f
       0.08349236434526572 0.2067135185814423
0001b0 bd e5 94 c3 62 b0 c3 bf 10 61 b2 39 4e b4 cb 3f
       -0.15382036733516982 0.21643998925424812
0001c0 47 9c aa 04 c6 73 c6 3f ac 98 ee ec a9 37 c4 3f
       0.17540812709668982 0.15794872349687716
0001d0 74 60 a8 c1 df 1c ca 3f 4d e9 e7 dc 6d 7a df bf
       0.20400616603797384 -0.491847482422277
0001e0 82 ab c5 0f 3e 26 d9 3f aa ea 64 4e c1 f2 ca bf
       0.392959132578362 -0.21053329780428004
0001f0 6f 0e 06 fc 38 66 d5 3f 9f a8 2f 66 48 7f c6 bf
       0.3343641720932515 -0.1757593630748646
