models/GFDL-ESM4-livneh/QM_SST_layers4/2000/1980_1990/livneh_bci/model_500.pth (torch, 74328 bytes, 8 tensors)

transform_generator.0.weight f8 [64, 3]
000000 e4 85 55 e3 ab 8a e0 bf bb 6f 82 e4 5e 7f ed bf
       -0.5169276657217634 -0.9217981780125152
000010 5d 14 cf a5 6e 0b ba bf 53 fa 58 2f 29 43 d7 bf
       -0.10173694179600674 -0.3634741747263536
000020 c5 00 85 e2 58 c3 de 3f 42 3f b4 45 d1 fa d7 bf
       0.4806730472664749 -0.374683683462525
000030 31 e9 6d 88 8e c6 e0 3f 4e d5 f6 38 24 f2 da 3f
       0.5242378868709122 0.42102914393338586
000040 36 45 e5 8b af 60 c8 bf c1 08 98 f8 7e 14 e5 bf
       -0.19045061426963067 -0.658751950774125
000050 a4 ce 96 e5 a5 69 f0 bf 5b b9 8d 10 a1 cf e0 3f
       -1.0257929771732188 0.5253453563034712
000060 95 54 cf 98 65 9b cf 3f bd 2c 5d 42 a2 3e da 3f
       0.2469298359052671 0.4100728653035722
000070 ad 75 90 3c e2 a7 bb 3f d9 d6 f3 14 c4 4b e5 3f
       0.10803045252438066 0.6654987725475748
000080 24 6e 0f ab 60 f4 99 bf 46 97 dc a4 f6 b2 3e 3f
       -0.025346289101305555 0.0004684307249241858
000090 34 73 55 d3 51 90 c0 3f c3 bd 6e 24 ff d9 cb 3f
       0.1294042856124179 0.21759022978720396
0000a0 18 ed 0e e0 7e 9f d1 bf ab c4 b8 03 5a da cc 3f
       -0.2753598392552745 0.2254135626003849
0000b0 8f aa 2d b5 a6 90 93 bf af 00 36 e5 40 db be bf
       -0.019106488044978106 -0.12053304286928566
0000c0 17 fd 2a a6 a1 a1 e4 bf 64 87 fb f1 d9 21 f0 bf
       -0.6447304006068489 -1.0082644894068489
0000d0 2f bf 50 f7 85 03 d2 bf 97 46 84 41 e1 73 f4 bf
       -0.2814650454702016 -1.2782909926649262
0000e0 01 2b a3 18 7e bd 99 bf 16 6b 9d a9 5d f1 05 c0
       -0.025136919263597516 -2.742854428402448
0000f0 46 42 1a 9a 14 1e d4 bf 36 86 bc cd b9 9a c5 bf
       -0.3143359665782878 -0.16878435655330443
000100 6e 23 ac e0 bc 3b c3 bf 28 1c 38 c6 f2 53 d1 bf
       -0.15026055307705682 -0.2707487998708893
000110 5b 38 be 00 d2 b4 df 3f fc a4 1c 72 e3 e4 b8 3f
       0.49541139671862816 0.09724256072935938
000120 ff 83 1c 48 26 13 c0 3f d2 03 45 ab 9c 8d d4 bf
       0.1255843975168602 -0.32114330983682493
000130 de af e0 db 51 5e b0 bf b7 e7 0c a1 4d 88 c3 bf
       -0.06393920534236439 -0.15259714473523697
000140 45 f6 3d 0b 0e 5e d7 3f 9c a9 40 7a 41 5b ca bf
       0.36511565301757215 -0.20590990514149332
000150 eb 4d 6a 2e 18 0f e4 bf d8 7e cb 0d c1 24 e6 bf
       -0.6268425852344398 -0.6919865865165447
000160 82 0e 77 e4 b2 14 e4 3f be 71 bc 88 10 e4 da 3f
       0.6275267088135055 0.42016995766769216
000170 d9 31 d1 ac 23 7d cb 3f ef 52 c2 0a 9a eb cc bf
       0.21475645006502367 -0.22593999410005192
000180 9d 42 f4 ae f9 b4 d1 3f 98 27 58 4b 64 a6 a3 3f
       0.27667085728993773 0.038378843495663506
000190 88 4b 4a 40 a3 a5 db 3f 69 11 33 51 68 68 d0 3f
       0.4319847228845721 0.25637252740513944
0001a0 d1 9e fc 97 29 9e c5 bf e0 1c e4 20 d6 24 97 bf
       -0.16888923569898975 -0.022601457364569977
0001b0 18 23 3c b0 c4 88 c1 bf d0 a0 34 85 84 45 db 3f
       -0.13698633771152724 0.426118021091054
0001c0 36 a9 40 f6 ea 8c a3 3f 82 7f 54 63 09 02 c3 bf
       0.0381844926453873 -0.1484996542940245
0001d0 80 4a 16 23 9c 4d 9e bf 38 9e 8e d6 f8 e0 b7 bf
       -0.029592933312935887 -0.09327655065737239
0001e0 33 0c 92 4e b4 69 d6 3f 13 f5 1b c0 3c e1 c0 bf
       0.35020167992496737 -0.13187369709331928
0001f0 21 5a a8 e2 f1 cd ee 3f c6 f6 dd 2c 05 80 cf 3f
       0.9626397540003532 0.24609436693929448
000200 d9 7a 76 82 9f ef b0 bf 05 96 81 d8 91 38 a4 bf
       -0.06615635810019728 -0.03949409263513463
000210 84 5c 70 b2 ca 5a bc 3f e2 a0 ba 65 f7 a3 ce 3f
       0.11076037269991629 0.23937885730015923
000220 ec b2 04 ef 74 6d d8 3f f0 12 b8 93 84 b2 af bf
       0.38168071118961566 -0.06190885832987714
000230 90 ca 35 4c f9 86 c6 bf 78 84 91 14 d7 6c f0 3f
       -0.1759940740699517 1.026572304101391
000240 0f 69 cc 7f 77 19 f3 3f d9 08 ca fa 5f d3 d2 bf
       1.1937174789550828 -0.29415130129940575
000250 4e dc 73 c9 b1 f7 87 bf 98 aa 28 a6 a6 22 ff bf
       -0.011702908478112086 -1.9459597101764867
000260 2b c2 e5 d6 13 31 d1 3f 95 44 b3 4c 8d 3d ca 3f
       0.26862045274814034 0.2050034164917959
000270 91 e3 45 ad 6b 9e e3 bf cd f8 a2 b2 58 0b e7 bf
       -0.6130884536970475 -0.7201350678440349
000280 71 e7 08 97 04 2e e8 bf 98 cd 3b 2f 93 5e e0 bf
       -0.755617423047836 -0.5115447924167027
000290 a3 8d c7 09 4f 7b db 3f da 09 81 7e b8 0b e6 bf
       0.42940116839437276 -0.6889307471067767
0002a0 3e db 00 65 44 20 db 3f 76 55 95 95 d5 39 e1 3f
       0.42384443153007456 0.5383098527478711
0002b0 ca 53 d5 df 93 f0 cf bf 4c 36 76 15 a9 ae 8e 3f
       -0.24952934674607113 0.014981575934849854
0002c0 e3 b5 80 90 a9 ec d5 bf eb 12 d2 a2 34 e9 c8 bf
       -0.34256972419356496 -0.19461687040543238
0002d0 d1 e5 35 93 7c df dd 3f 33 45 2d 3e f5 15 d8 3f
       0.4667655408480558 0.37634020873982194
0002e0 89 4a 1c fb bf 05 c4 bf ab c7 7e 6e 7c 66 b6 bf
       -0.15642547379737362 -0.08750131318700365
0002f0 87 48 7e 09 e1 2f c5 3f fd b2 c4 f0 ad dc a7 bf
       0.16552365268268351 -0.04660552562777374
000300 50 ac b5 09 5e 50 53 3f 8f 41 12 42 12 37 97 3f
       0.001178829034723678 0.02267101791636744
000310 36 b7 eb 89 da 72 dc bf 6f 0c fb d9 6a ad db 3f
       -0.44451011151146547 0.43245955741094283
000320 18 2d b4 3a af 1d ce 3f eb 18 71 02 6c f0 6a bf
       0.23528089872738955 -0.003288470226411202
000330 c8 6b c0 f9 a5 4f d8 3f ff 94 22 1f 4c 43 d0 3f
       0.37986134900864643 0.2541075042775702
000340 65 08 9c fd cd 01 d2 3f fc ad eb 4d 21 d9 ad 3f
       0.2813601471572212 0.05829719616107451
000350 d7 98 6c fa a3 26 a5 bf 59 48 b9 a1 c2 66 c3 bf
       -0.04131042892395136 -0.1515734948794172
000360 ba 89 6d 92 be d2 91 bf 1a b5 9d 02 56 10 d1 3f
       -0.01740548866963263 0.26662206893418416
000370 7e 44 b3 aa 36 fd 35 3f 06 13 f0 40 9b f8 e7 bf
       0.0003355272735464167 -0.7490974682155815
000380 75 02 bc 31 5c 37 f2 bf d2 5a c9 48 4e e9 d8 3f
       -1.1385156576872337 0.38923985584316967
000390 21 c1 5b 60 b5 e8 f9 bf e5 17 4c 93 8f 14 c6 bf
       -1.6193135990143406 -0.17250246708152797
0003a0 34 31 1e 49 76 f8 a3 3f 3f 8c a4 ae 75 e4 02 c0
       0.039004990029840064 -2.3615525859800353
0003b0 df 1e 56 b4 33 b1 e8 3f 81 cc 1b 04 0b 37 ce 3f
       0.771631099910305 0.236054780012271
0003c0 ce d6 3b 09 15 1c c0 3f 23 7a 9e db 04 03 ba bf
       0.1258569998823788 -0.10160856591981164
0003d0 17 1d 55 38 8d 9b c4 bf a3 e3 6f 7d 41 61 cb bf
       -0.16099705935105454 -0.213905512093132
0003e0 f2 c6 2e 9f df a2 b2 bf a5 c8 42 b7 da 4c df 3f
       -0.0727977527265258 0.4890658178002332
0003f0 ae fa 80 f8 62 05 d2 bf 8a 08 a8 41 e8 1e b0 3f
       -0.2815787722392241 0.06297160723628017
000400 88 8a e5 f3 a5 b0 df 3f b0 0c e1 ea 6b 00 e1 bf
       0.4951567537120032 -0.5313014590723437
000410 5c 00 46 94 32 a4 d9 3f 2d b2 5b 07 48 e8 b5 3f
       0.40064682464435974 0.08557558231013536
000420 15 f3 4f 1a 59 97 92 bf 82 e2 c8 f5 cc f4 b2 bf
       -0.018155472022033232 -0.07404786110499553
000430 47 8e f4 b2 43 1b df bf fd bb e6 30 70 63 db 3f
       -0.4860390899286568 0.42794422889249956
000440 5a 71 74 60 41 33 c6 3f ec b6 df 8d 3b 73 d1 3f
       0.17343919000348756 0.27265824179526876
000450 16 ab 33 4f ed af cb 3f b2 25 00 63 bd 6e c7 bf
       0.21630636565472433 -0.18306701025021038
000460 83 48 8f 96 f1 01 cb bf 74 8e 7a 8f 67 8f cc 3f
       -0.21099681712673055 0.2231263590411917
000470 3e 64 a3 09 bf da c5 3f 8e 7a 36 3b e6 01 b3 bf
       0.17073810549371332 -0.07424773164391693
000480 b6 f3 55 be f1 e3 86 bf 2c 5e 92 61 75 fd ba bf
       -0.011176956769071694 -0.10542997009394445
000490 48 26 a5 eb 90 6d 9c 3f 61 d4 fe 33 6c 44 b7 bf
       0.02776171148551601 -0.09088779706401474
0004a0 fc 19 27 50 3b 39 bc bf 77 c0 15 1b 07 b7 bc 3f
       -0.11024828631261835 0.11216778193716147
0004b0 a9 3c fd 8e 6d 1e d7 bf b8 cb 77 03 08 5b eb bf
       -0.36123217548169834 -0.8548622195943301
0004c0 12 12 ba 4d d1 11 c3 bf ce 2b d8 9d a0 c4 d3 bf
       -0.14898124976402066 -0.3088761846017264
0004d0 59 17 6d f9 c7 63 af bf ae db 8f 37 1d bf b2 3f
       -0.06130814475777297 0.07322867018215959
0004e0 93 18 e3 a6 07 6f b8 3f b3 13 ba 9a 17 e1 c2 3f
       0.09544418167488038 0.1474942689420949
0004f0 c7 85 12 30 0b 1b d2 3f 54 37 2f ef 88 1c d9 bf
       0.2829006165939884 -0.3923666320596244
000500 b2 a1 e6 a8 50 b2 e9 bf 72 17 51 37 aa b6 49 3f
       -0.8030169772001072 0.000784714806862692
000510 94 2f 5b 5c 78 b5 e2 bf 84 5d 19 f7 ce e8 e1 bf
       -0.5846521190483025 -0.5596690012124985
000520 fb 45 46 30 5b b6 e4 3f 40 e7 a5 4a 29 35 d0 3f
       0.6472602789746696 0.25324470796441645
000530 36 77 6e c8 48 01 cf 3f dc a9 5f 90 9d 0b e1 3f
       0.242226693980166 0.532667905788283
000540 98 33 18 2d 94 e9 cb 3f d3 22 8a 63 03 ed ab bf
       0.21806575967675879 -0.05454264249880727
000550 f6 54 59 55 c7 9d 93 bf 56 b6 87 96 b7 76 d3 3f
       -0.019156565269743596 0.30412091922958007
000560 b7 ae 8b 3e b0 04 d9 3f 85 15 2a 7b 8e a7 e0 3f
       0.3909111605450834 0.52045368247552
000570 c2 89 2a ab 8a 56 fe 3f 63 dc 00 db 42 00 db bf
       1.8961283384493162 -0.4218909395889964
000580 1b d0 0a b3 a8 87 ba bf 70 88 5e e9 85 25 e4 bf
       -0.10363249179027927 -0.6295804555886786
000590 8f b0 ea 28 e9 93 ea bf 4c 27 2b 33 50 4b fd bf
       -0.8305555152087595 -1.8308870314380838
0005a0 20 84 c3 a4 6d 36 e7 bf fb 26 ec f6 af f3 c5 3f
       -0.7253940790216156 0.17149924809228154
0005b0 ae bf 18 78 79 46 e7 3f 5d 95 db d9 5a f0 ec 3f
       0.7273528428686313 0.9043401961359155
0005c0 51 22 d0 60 ab fb c4 bf eb f2 06 7c da d5 99 bf
       -0.1639303419799654 -0.025229848690048334
0005d0 c0 e2 99 a6 26 e0 f4 3f 7a 18 11 c3 47 d0 c2 bf
       1.3047243602615453 -0.14698121094460587
0005e0 7b e9 c0 27 39 b2 c4 bf 45 a0 92 3d 57 c1 c3 bf
       -0.16168894234744954 -0.15433779245836568
0005f0 6b 8e 15 19 68 3a d6 3f 79 ad 3b 4a 57 cd c5 bf
       0.34731485795621236 -0.17032900929130415

transform_generator.0.bias f8 [64]
000000 3e 02 70 3c 67 33 07 40 5e cc 0d 74 91 2e f3 bf
       2.9000992509538994 -1.1988691838603454
000010 81 af 40 8a 3f b7 d0 bf 57 c4 a2 c6 6a b0 f4 3f
       -0.2611845827220734 1.293070579453589
000020 b7 12 aa 16 e0 ab bd 3f 72 e0 d3 a1 dd c4 f7 bf
       0.11590385964707194 -1.4855629273788762
000030 30 03 42 f8 6a 56 d5 3f c1 95 21 8d 35 20 e3 bf
       0.33339952701503517 -0.5976817852467137
000040 7e 91 c6 3e ad 97 05 40 bf 14 65 c9 c4 b7 d0 3f
       2.6990609077785725 0.2612163511988221
000050 89 99 12 35 78 aa e6 bf b5 7b b8 59 9e 4b f2 bf
       -0.7083092724395083 -1.143461561652413
000060 35 2f 58 67 13 85 c6 3f 47 c9 a4 c6 a1 75 d5 3f
       0.17593615099064555 0.335304683673844
000070 3d ac 01 f1 40 76 b9 3f 69 34 e4 b3 c8 1d db 3f
       0.09946065792034715 0.42369287078401513
000080 a8 09 0c 7f 71 d3 c9 bf 9c c8 40 55 3f 2f f3 bf
       -0.2017652387949742 -1.1990350084493349
000090 df 6f 2b b7 4a ba cb 3f e1 d8 1a a4 a4 81 e7 bf
       0.21662267631370377 -0.7345755772755888
0000a0 0a 1f d0 a4 d8 60 ea bf ac 5d f5 63 eb b0 e0 bf
       -0.8243220538142577 -0.5215966179193194
0000b0 20 99 6c f5 a9 55 a2 bf df 4f 5c 59 5d 77 e6 bf
       -0.03580981369877834 -0.7020708794902893
0000c0 c3 4e 60 50 39 0f 05 c0 b6 94 6e ea ac f3 ce 3f
       -2.63243353647144 0.24181138464806445
0000d0 df 7c cd 97 23 52 03 40 c6 6a 7b 60 5c 47 ef bf
       2.4151069507203 -0.9774610409179665
0000e0 fc 17 a9 a3 7e e1 d2 3f d5 b3 c0 b2 0d ed b1 3f
       0.2950131033179557 0.07002339948731102
0000f0 23 01 12 1a 7c 3e d7 3f 04 ef ed 1e a3 85 e6 bf
       0.3631887678711953 -0.7038131336298368
000100 70 12 ab 90 a7 46 df bf 0c 79 1f 51 e0 be b5 3f
       -0.4886874115730171 0.0849437902502112
000110 59 b5 6f 19 c5 1e d1 3f a7 9f ea 3f f2 1a e0 bf
       0.2675030468370401 -0.5032893417710412
000120 b1 7b 8a 54 38 cf d9 3f 6a 69 76 5f 2c 97 d1 bf
       0.4032727075190748 -0.2748518879176546
000130 67 a0 77 e8 02 61 03 40 42 1d 84 82 d9 85 f9 bf
       2.4223688279635556 -1.5951781366619149
000140 ca 5e 2b d2 87 94 c0 bf 70 c8 a9 59 61 c4 b3 3f
       -0.12953279268434975 0.0772152751831372
000150 f9 f9 c9 27 5b 6f d6 3f 33 5d b1 59 60 c1 f1 bf
       0.3505466354908147 -1.1097110274911983
000160 0c d9 7d a1 74 ab e1 bf c4 20 5c 92 4a b1 d1 3f
       -0.5521796373493841 0.2764460019393591
000170 9e 09 e1 22 54 36 d9 3f c6 72 7c 3c e4 af d4 3f
       0.39394095808179397 0.32323556811188003
000180 2a 19 d3 dd 0a 5a e5 bf ce 5b ec 3e 39 e8 af bf
       -0.6672415096771023 -0.062318600588859505
000190 34 f4 0d 89 2a f3 04 40 65 d8 7d e6 de ac e5 bf
       2.6187334735282324 -0.6773523809231504
0001a0 af dd f1 36 36 df c6 3f ea fd 16 14 3e cb fe 3f
       0.17868688280917186 1.9246197495229986
0001b0 aa 32 8b be db 73 d1 3f 5a 8f 94 f7 25 fa c6 3f
       0.27269643409526145 0.17950892056353035
0001c0 6d 55 e0 ae 9c f6 e9 bf e4 cf 76 e7 a2 3d cf 3f
       -0.8113540092041781 0.2440684919544075
0001d0 11 2c 81 16 b7 8e 0a c0 51 a6 e3 37 60 ae 01 40
       -3.3196851499719817 2.2101444593761603
0001e0 7a 33 cd c1 92 84 ed bf 1c 48 e8 d3 43 a5 fc bf
       -0.9224332604586458 -1.7903478887205955
0001f0 32 48 65 e8 35 a0 04 c0 09 8a 89 ec c3 ba f8 bf
       -2.578227820959932 -1.5455970039116684

transform_generator.3.weight f8 [64, 64]
000000 93 04 34 24 d4 9f ce bf 04 9c 13 71 49 64 d7 bf
       -0.23925258414968606 -0.36549602549206406
000010 b5 1b 1c 87 64 40 b2 bf 3c d6 e4 d8 31 dd e0 bf
       -0.07129505442217872 -0.5270013080796114
000020 5e 0e 5d 6c c5 09 b1 bf 22 4e 56 21 8d 5b b1 3f
       -0.06655534644692682 0.0678032118215062
000030 bf 70 9b ad 9e 6a a2 3f 22 cd 19 48 7f bd b1 3f
       0.03596969479778655 0.06929774770997146
000040 b5 21 7a 48 69 07 92 bf 9c f9 d9 95 a3 91 d4 bf
       -0.01760639672150584 -0.32138909944469574
000050 ea d4 fc 1f cc 10 9d bf ce a0 a5 f7 25 25 90 bf
       -0.028384389355058305 -0.015766709556744023
000060 0b e8 a2 44 e9 59 b8 bf fc 74 23 77 2e a0 c5 bf
       -0.09512193608944146 -0.16895085160550838
000070 a0 f1 6f 1e b9 96 76 3f 30 f4 e7 48 77 a5 c3 bf
       0.005514834519086881 -0.15348712024561584
000080 cd 04 be cb fd 0c a0 bf 2c 9a 71 80 f6 f9 ba bf
       -0.03134911644065994 -0.10537663112482026
000090 52 f1 4d ac 63 bc ae bf ab ba c1 93 ab 03 b5 bf
       -0.06003104666067095 -0.08208725316374436
0000a0 34 d8 b7 4e b1 15 b3 3f 4b 0a c8 7b cf 3e a5 bf
       0.07454975292043359 -0.04149483095172409
0000b0 2b 3c 98 20 12 e7 8b bf 91 5a 68 f4 39 3e 89 bf
       -0.013624326343260126 -0.012325718661526682
0000c0 df 58 b7 ad bb 68 80 bf 4e 33 09 87 7c c7 e1 bf
       -0.008012262572190952 -0.5556013715191541
0000d0 59 82 f1 58 ad 29 dd bf a4 06 84 8d 50 0c ac 3f
       -0.4556687706554264 0.05478145339476484
0000e0 03 fb cb 48 1a 4a bc bf 16 45 54 38 01 a5 a7 bf
       -0.1105057170607147 -0.04618076145755816
0000f0 ca 7d f4 19 6f 18 b3 bf 6d 45 fc 73 c9 78 c3 bf
       -0.07459158309619976 -0.15212362445212638
000100 67 16 51 34 ae 17 c3 3f 07 6c 7c 21 41 b2 b0 bf
       0.1491601710751411 -0.06521994655160777
000110 8f e1 90 a3 59 56 b3 bf bf 55 bb 83 3d 53 66 bf
       -0.07553634875592351 -0.0027252389389597893
000120 55 c1 3d 76 ed 53 a8 bf 60 df 49 6f 7f ba b6 3f
       -0.047515316661590624 0.08878323046689962
000130 6b 36 c5 a1 62 62 bf bf a0 ea d7 49 56 69 ac 3f
       -0.1225949902484104 0.05549115802201254
000140 08 c8 53 11 ce c5 bb 3f 88 16 e6 fb fe 98 c8 bf
       0.10848701403645589 -0.19216906833405667
000150 0e 5c d1 f9 e5 fa aa 3f 5b 40 63 f4 0e af a0 3f
       0.052695452447260135 0.03258558972595501
000160 bd c7 85 63 d8 06 b6 3f c3 c9 2e 6e c4 f3 92 bf
       0.08604195050955261 -0.01850802347662196
000170 a1 bd 7f d2 db dc c1 bf 3d 1d 93 d8 41 85 b3 bf
       -0.139552572043141 -0.07625209367244153
000180 e1 ca 08 bc 99 c1 bd bf a6 f0 5c 77 f5 c7 b6 bf
       -0.11623535957987087 -0.08898862995278253
000190 06 c3 e5 54 48 02 cf bf b1 1e 20 b6 bd 18 b4 bf
       -0.2422571577585801 -0.07850251861975256
0001a0 0c fe 74 99 be 3e ba bf 39 f2 32 c4 17 fe b4 bf
       -0.10251990553387474 -0.08200214900984627
0001b0 58 ec 11 c1 49 f4 ce bf c7 6d 51 a0 21 01 8b 3f
       -0.2418300812458678 0.013185751633662769
0001c0 2f 31 41 89 38 d2 c1 3f 08 d7 3e eb c3 10 b6 bf
       0.139227931040645 -0.08619331830308508
0001d0 28 7a ba a8 e1 e0 cc bf 85 5e 64 27 43 bd e4 bf
       -0.2256128381604452 -0.6481033105255426
0001e0 b7 d4 7d 36 66 11 bd bf b9 98 6c cd da d0 c3 3f
       -0.1135467417751269 0.15481123953322198
0001f0 41 d2 9d 2b 15 78 94 3f 39 3f 81 e3 bd 5e 9d bf
       0.0199893291350739 -0.02868172360496077
000200 b5 63 11 15 06 b4 2c c0 15 18 4b 60 2e d2 a1 3f
       -14.35160890424036 0.03480667996841206
000210 d9 1a e8 50 21 6a 9a 3f eb 2a 1f d8 f0 2f 1d c0
       0.025795479357863058 -7.296817185308764
000220 a7 65 89 2c 14 fc ba 3f a6 bb aa 1c 63 f3 b9 bf
       0.10540891730615574 -0.10137004327655905
000230 8b 1d 3d 91 ae 14 a7 3f 39 c0 4f 3c 72 cf c4 3f
       0.04507966540273419 0.16258075661562701
000240 c7 91 e2 96 d0 39 1f c0 f1 28 91 cc 56 7e c3 3f
       -7.806459767893506 0.15229306210159835
000250 2d bc db c5 0a 15 c8 bf 52 7b 85 31 7e f8 c7 bf
       -0.18814215336848986 -0.1872709028056883
000260 6d 52 9d 47 ad 03 b4 3f ab 0e c3 2b 54 7e c5 3f
       0.07818110464479285 0.16791774880231478
000270 21 f8 7a 97 29 0f f0 bf ff 32 88 b1 f5 35 b9 3f
       -1.0037017743302459 0.09847961029317885
000280 c9 7c 17 8b b0 d8 a6 3f 02 1d 21 b5 de 17 b1 bf
       0.04462196061990082 -0.06677047655204052
000290 29 f9 88 ce cd c8 9a 3f dc a9 e4 1c 73 74 b1 3f
       0.026156631213092005 0.06818313079262545
0002a0 5e 73 5f 36 1c 85 c3 bf 13 15 5f 2d c9 81 9e 3f
       -0.15249970107006566 0.029791968721629546
0002b0 68 7e af 06 7a 30 bf 3f f2 c7 4d 67 ff a7 9e bf
       0.12183344519825712 -0.02993773525253824
0002c0 dc e1 24 2e c3 47 bc bf 61 47 85 e3 d2 ec b8 bf
       -0.11047000767292253 -0.09736364416792533
0002d0 a7 cb 9a 2d a2 80 2f c0 2e ca ec 23 5e 2c cb 3f
       -15.75123732103914 0.2122914958395809
0002e0 e0 65 31 53 17 ab a8 3f 76 82 8a 2c 2b 7c c3 3f
       0.048180321603193965 0.15222682642799484
0002f0 b1 ae 53 18 c6 e7 b5 3f aa dd 25 50 d7 c3 bb bf
       0.08556783765714716 -0.10845704752670451
000300 32 fb 06 cd 05 39 a9 bf 54 52 f6 f6 a0 98 bf 3f
       -0.04926317336820886 0.12342268018103059
000310 f8 f5 07 d0 53 ee b1 3f 03 e4 e9 c6 db 5b a6 3f
       0.07004283741840556 0.04366957476754154
000320 09 b5 4e 36 fc 58 a0 3f 53 19 ea b2 cb fe a7 3f
       0.031928903226210954 0.04686581191076535
000330 8b 69 54 31 7b 28 e2 3f d8 13 bd 65 05 c4 02 c0
       0.5674415553542514 -2.3457134197546843
000340 44 46 98 ea 62 19 c9 3f fc 17 c3 7b e1 91 ba bf
       0.19608723120522786 -0.10378846427474281
000350 37 e9 29 b7 60 69 96 3f ab cf 7f 57 32 ae a7 3f
       0.02188635938589664 0.04625088995081169
000360 e9 d5 84 bf 36 53 b8 bf 26 8d ad da 17 a8 c0 3f
       -0.09501974273447157 0.1301297967685084
000370 e1 bd 3e f6 53 17 b4 3f 15 27 1f 7f 18 31 93 bf
       0.07848095666735545 -0.01874197269334051
000380 21 87 55 71 f0 43 c0 3f b3 47 34 a6 9b dc b4 bf
       0.1270733407391669 -0.08149121101112548
000390 a1 54 08 da da de 28 c0 ef ae c9 34 47 a3 c3 bf
       -12.4352634558839 -0.1534203536751799
0003a0 88 01 65 ac e1 05 a1 3f 07 ee f6 6f 66 b8 1a c0
       0.03324799756456104 -6.680078267523192
0003b0 32 af b6 65 e2 ad 8a bf 05 2a 7b 70 94 43 75 bf
       -0.01302697060494715 -0.005191402283978967
0003c0 68 88 92 61 01 6e 82 bf fe 95 9f 39 40 dd c0 3f
       -0.008998881139920381 0.1317520409931347
0003d0 aa 6f 6f 06 76 6c da bf d4 9b e3 25 c3 0e 28 c0
       -0.4128699362606719 -12.028832611116663
0003e0 60 06 8f 2c 3d 35 c6 bf 2f a8 01 47 74 57 b7 3f
       -0.17349972415654502 0.09117819531971415
0003f0 f8 ff 62 76 02 c3 c3 bf 97 53 0c 07 88 27 c7 bf
       -0.15438872128106573 -0.18089390129230473
000400 0d 2f 07 d7 2d 0a ad bf 7f 7f 6b f6 9e a2 7d 3f
       -0.05671828508238095 0.007235165546006671
000410 4f 7f 2f 31 75 13 a1 bf c8 00 17 c6 ff 0e a5 bf
       -0.03335157609376315 -0.04113005917634066
000420 76 5e 53 8a 20 cc be bf 75 6f 6d dd 8a 0b b6 bf
       -0.12030223252383529 -0.08611362367576965
000430 ea 41 75 cc a1 c4 a7 bf a4 75 e5 7a ea 62 c6 bf
       -0.0464220583040776 -0.1748936748580664
000440 29 4c a6 d1 6a 72 a3 3f 07 98 2b 48 a2 af c4 bf
       0.037982309429161205 -0.16160992168369168
000450 2b b5 f6 bb 2f cd bd 3f ee 3f 46 29 f2 a8 ad bf
       0.11641214693982664 -0.057929580248241894
000460 f1 96 58 6d b9 bf c6 bf 2b e3 5f 7d a7 89 a4 bf
       -0.17772596205866578 -0.04011271863413975
000470 12 e7 55 3c 8c ef 84 3f ae 87 df 18 02 ee bb bf
       0.010222526160521581 -0.10910046679739935
000480 b7 96 fe 60 68 5c c1 bf 53 8e 76 2b c4 f5 b3 bf
       -0.13563256012019106 -0.07796884595023217
000490 f1 a5 df 3e dc 0c 71 3f b5 41 f2 69 b3 65 b4 3f
       0.00416265519559421 0.07967683159427603
0004a0 9c e8 14 6f b0 d4 b1 bf e5 74 21 ba e8 ac c6 bf
       -0.0696516295619482 -0.17715176666653246
0004b0 7b e8 ab 74 2c f7 c4 bf 26 9d 1b be e2 ed c0 bf
       -0.16379314133502362 -0.13225969584093739
0004c0 31 a6 35 39 e3 92 c0 bf 8f 9d b0 5a 70 1a ac 3f
       -0.1294826535552587 0.0548892126756143
0004d0 10 74 29 48 59 ec c6 bf 54 3c 3f fe 6d 3b 6b bf
       -0.17908779166728594 -0.00332423670804575
0004e0 7e 40 fd 3f 51 6d 9a 3f 98 a2 50 c4 f8 b8 b5 bf
       0.025807637720675285 -0.08485369484754768
0004f0 c5 46 2b 6e 74 9a c7 bf 84 bd 38 db dc b8 b4 bf
       -0.1844010866102989 -0.08094578125086654
000500 08 ad 8c ad e4 4d af bf 76 09 57 f8 c9 53 c4 bf
       -0.061141153512233315 -0.15880703569389326
000510 fd e8 8b 01 d2 08 bb bf 67 9c 73 e4 c7 3b b7 3f
       -0.10560333764798098 0.0907559330695321
000520 e6 fe 5b dc 50 c3 c2 bf 77 c9 7d 3c 0e 4e c3 bf
       -0.14658556709036147 -0.15081956819228612
000530 b5 bf b2 2d 1d 88 89 3f 87 b1 98 07 f5 6e a5 bf
       0.012466648060893573 -0.04186216085176669
000540 03 2c b2 01 10 ef a1 3f 98 a6 57 7b c0 85 b3 bf
       0.035027027327565484 -0.07625964175499644
000550 99 e9 67 61 8b 16 bf bf 32 ec 46 b0 42 f2 ae bf
       -0.12143775108407907 -0.06044205095118861
000560 27 7d c5 d2 aa 43 a6 3f 15 8d a2 46 a9 ae 6a 3f
       0.043485010365424785 0.003257113091494577
000570 09 7b 43 b4 81 53 9b 3f 25 ec 04 ca 11 4e a5 bf
       0.02668574011556316 -0.041611247931051566
000580 df c8 29 44 28 ec b8 bf 62 8b 45 10 bd 87 c4 bf
       -0.0973534742750277 -0.16039241117968134
000590 55 c6 2a a6 19 4f bf bf 37 25 d6 c7 61 b4 95 3f
       -0.12230072314084713 0.021195915052463845
0005a0 a3 6e 2c 79 32 17 c7 bf 9a 9c b9 48 3c c0 d2 bf
       -0.18039542118718996 -0.292983122845223
0005b0 cb 8c b0 d6 c1 d0 b6 bf 6d a9 34 5c 44 a7 a1 bf
       -0.08912288180777066 -0.034479271178798544
0005c0 2c 38 47 56 2a 1d 5b 3f 93 f3 cb 0b 26 34 9a bf
       0.0016549027869703454 -0.02558955618859533
0005d0 a2 3f 64 20 a0 e7 ad bf 55 75 41 3d 7e 31 bb bf
       -0.05840778727917885 -0.10622395511150746
0005e0 7f 34 bb e4 99 0f 9d 3f ef 64 91 ba 6b ae ac 3f
       0.028379826150559225 0.0560182252163005
0005f0 ea 3c 2e da 17 3e ba bf d3 98 2a 3e 64 10 c5 3f
       -0.10250996662783832 0.16456273112743833
000600 03 cc 77 72 b2 d4 2b c0 ff 62 8d a1 14 c8 c9 bf
       -13.915423943637512 -0.2014184750394392
000610 1e f1 bf d7 2a 8b c3 3f f0 1d 90 76 13 a0 18 c0
       0.15268455061585312 -6.156324245973778
000620 8a c0 16 a7 a0 a1 c6 3f 6c 0a 9b 90 31 b8 bd bf
       0.17680748137127394 -0.11609182148371539
000630 e6 65 e6 7d 3b 6e c1 3f 3b 0d 25 ef fb f0 c7 3f
       0.136176525568586 0.18704175164212153
000640 31 1a 5d c9 78 ce 1d c0 db ad d3 6b ed b2 c0 3f
       -7.451632639224543 0.13046043171867336
000650 f9 3f 4a a7 6c 19 d0 bf 52 27 0e 6d e7 84 c0 bf
       -0.25155178391378247 -0.1290559084412118
000660 f1 81 1c 72 33 62 c1 3f f8 60 7a 92 36 ab c3 3f
       0.13580935546725884 0.1536625113701644
000670 da 3d 91 a2 40 85 e7 bf 28 76 cc 61 59 cd c6 3f
       -0.735016171945911 0.17814175868345328
000680 44 b0 5b 07 21 87 a2 bf 64 96 0e 6c c2 0f b0 3f
       -0.036187202594959916 0.06274047029600066
000690 ad ae fe 40 b0 3b a7 3f 66 33 95 ef be 29 d5 3f
       0.045377262052480695 0.3306729640651639
0006a0 ef 6c 94 41 0c 51 b8 bf 7d 79 f9 25 19 ee ab 3f
       -0.09498669243878387 0.054550920377312
0006b0 9b 9e f8 89 c3 03 c5 3f 8d 61 3e 9b 21 8c af bf
       0.1641773627936701 -0.0616159917837563
0006c0 f7 ab 66 b6 91 be b0 bf 65 4c 41 fb ec 48 d1 bf
       -0.06540785506392398 -0.27007603203418845
0006d0 a1 3a bc 11 94 9e 2e c0 24 ea 36 27 8c 44 cb 3f
       -15.309723428942847 0.2130294028737164
0006e0 8c 3f e7 2b cf f3 a0 3f 5e ca 9a 36 13 27 a5 3f
       0.03311011706284636 0.04131374398766206
0006f0 29 c8 66 f7 83 ac 67 bf 90 43 48 d6 06 92 a2 bf
       -0.002889878985308254 -0.03627034536123752
000700 ae 78 02 a8 aa e8 a5 bf d7 ea 56 b2 f6 ca c6 3f
       -0.04279073048495384 0.17806895931229036
000710 f6 6d 50 b4 66 ac c6 3f 95 a3 2c 9b 16 b5 b0 bf
       0.17713626675036637 -0.06526318825184625
000720 5f 01 78 16 5e 9d c1 3f 39 d6 4b f9 37 1b 70 bf
       0.13761497590167956 -0.003932207725247099
000730 52 b7 50 cb c6 f8 dd 3f 34 b1 0f 6d 9f f7 03 c0
       0.4683091149807882 -2.4959095497526054
000740 4a 85 54 ac 6c 92 b0 3f 87 c3 f2 dc 5b c6 bc bf
       0.06473426062850254 -0.11240171570058353
000750 71 d0 34 cb 51 1c af bf 74 5f a6 54 db cd c5 bf
       -0.06076293569131586 -0.17034474976821523
000760 0d b7 1f a9 f1 17 bb bf 11 aa ca 4d 91 97 a0 3f
       -0.10583410624505181 0.03240636896710581
000770 d8 a6 ad 30 3d 6c bd 3f 48 41 56 60 92 a0 bf 3f
       0.11493284643588753 0.12354388095832747
000780 ee 0b 5a 2f 8d 40 a4 bf 51 34 be 13 d1 04 a0 bf
       -0.039554988889925244 -0.03128674856189007
000790 ae 55 59 bd 8a b6 27 c0 33 bb 58 82 b7 c9 c4 3f
       -11.85652724948417 0.16240590920048134
0007a0 b0 a9 d8 4a d0 fd c1 3f e4 3b 51 17 8b 05 18 c0
       0.14055827765089424 -6.005413402875067
0007b0 6f ba 0e d2 64 4b a3 3f 47 ad b4 78 44 82 bb 3f
       0.03768458427599774 0.10745647379797162
0007c0 3d f3 9e 58 31 f9 a0 bf 53 8c c8 4b 33 5e a2 bf
       -0.03315118986890873 -0.035874941826727146
0007d0 53 04 f1 81 63 a3 d3 bf 01 cc 22 9d c8 ac 26 c0
       -0.3068474549255075 -11.337468061921756
0007e0 98 ce 7f 84 9c d5 c3 3f 15 b1 a9 76 a4 d7 b6 bf
       0.15495640248956444 -0.08922794243853034
0007f0 80 b1 11 b0 c3 17 c2 bf e8 83 8d 5a 76 16 c0 bf
       -0.141350232096908 -0.1256854955818476

transform_generator.3.bias f8 [64]
000000 4c 6c bf fe 0f 94 c9 bf c9 2a 7c ee 35 f5 d7 3f
       -0.1998310083280067 0.3743414715724325
000010 45 99 58 6e 4a 40 c1 bf 64 9c c8 d9 ea a7 ca 3f
       -0.13477449787132847 0.20824943193403833
000020 df 4a 5b 8a 9f 4a c5 3f c2 ab e8 a3 32 df c8 3f
       0.16633981948560625 0.19431145671236832
000030 0e 9f 8a 44 16 34 97 bf db 2f cd 11 64 be a8 bf
       -0.022659633572998543 -0.048327567265544956
000040 f7 a9 20 34 f2 f8 c8 3f f1 b1 cb 39 83 3a 80 bf
       0.19509723229687356 -0.007924103928837108
000050 75 c5 ed be 02 fb c6 bf 79 3d 5d 1b 55 9d b9 3f
       -0.1795352394361022 0.10005695264884719
000060 2c c1 b4 90 2b 41 be bf cb 64 2b 90 22 47 c7 bf
       -0.11818191798079586 -0.18185836829687782
000070 9d ae b8 11 f9 e3 d3 3f c8 3f 91 09 b3 a2 aa 3f
       0.31078936319929956 0.05202254764355946
000080 ab 41 6a 0e df de c7 3f ca 5e e9 ea 90 52 d5 3f
       0.18648899272785732 0.3331644338663692
000090 10 54 c4 4e f2 6a bc bf 45 87 26 de 4f 15 d2 3f
       -0.11100687430401046 0.2825507802427761
0000a0 c1 c0 ce a4 1c e5 dd 3f d4 4c 64 70 a9 45 d1 3f
       0.4671088799905299 0.2698768231941362
0000b0 bf 60 71 24 b1 25 a9 3f 0e c1 4a 18 d7 38 d5 3f
       0.049115691851228764 0.33159425136820253
0000c0 e0 7b 73 3a bd e6 c9 3f 40 f3 c1 58 75 f0 e0 3f
       0.20235410074289373 0.5293528302714563
0000d0 64 fa 57 89 fb d5 a3 bf cb fb 3a 91 8c bf d0 3f
       -0.038741932406982454 0.2616912287011785
0000e0 e4 e2 5e c2 d2 04 eb 3f 7b 97 a5 cc 54 36 13 bf
       0.8443387790967702 -7.328884672616429e-05
0000f0 02 49 c8 b2 cd f9 bd bf 78 0a 36 2c aa c8 b1 3f
       -0.11709294905475434 0.06946815089581004
000100 06 51 b4 53 04 e3 bd bf c8 3f fe 04 da 9a d4 3f
       -0.11674525302470692 0.32195139396298744
000110 e3 62 7d 9c 64 d3 78 bf 60 22 cb d8 68 dd 74 bf
       -0.006060975087017725 -0.005093965108877357
000120 83 7a 9b b8 c6 aa 98 3f cf c3 09 47 e7 e3 bf bf
       0.024088959710633972 -0.12457128032998742
000130 e0 13 00 2e 4d 2f b7 3f 3c 15 02 d1 b1 2d d6 3f
       0.09056551335386542 0.3465389767737468
000140 d4 1d ab 76 63 96 c1 3f a2 40 7f 6e 3f 51 af 3f
       0.13740199369770656 0.0611667463668948
000150 ad e1 8c c3 2e 0d b9 bf d5 e3 a0 57 fa 27 b3 3f
       -0.0978574016015787 0.07482876433722592
000160 68 85 e5 be 37 09 b0 bf 6f 9d 62 7f 66 74 c5 3f
       -0.06264065180359568 0.16761475772839726
000170 72 8a ea 93 80 92 a6 3f 76 a9 9c 6b 34 2d de 3f
       0.04408647351853724 0.47150908001881164
000180 ed 7a 40 77 14 eb b6 bf 7d a4 45 f9 62 dd c9 bf
       -0.08952453528807398 -0.20206868335234054
000190 e6 62 b3 be 27 f0 a8 bf c2 b9 1a 71 f7 87 d9 3f
       -0.04870723917855972 0.39892374081946624
0001a0 61 1a 2b 1c b8 26 a6 bf 59 26 a5 2d 2a 21 cc 3f
       -0.04326415389873684 0.2197621081234498
0001b0 c6 69 b4 dc 63 d6 a2 bf 83 fb 7c cd 77 d0 b5 bf
       -0.0367919165530171 -0.08521221892168111
0001c0 66 1c e6 bf 05 c7 d5 3f 32 0c 21 f9 6b 17 c4 bf
       0.34027236690639595 -0.15696477570063078
0001d0 00 c6 81 ef 0e 90 d8 3f 39 d2 f5 b2 f8 d0 da bf
       0.38379262341831577 -0.4190046069773277
0001e0 a3 48 07 7c 40 6f cf 3f ae bb 39 76 cb 61 b6 bf
       0.24558263832165492 -0.08742972980847583
0001f0 18 b7 22 39 2d 91 c8 3f 08 2d c7 48 0a 6d d0 3f
       0.19193043985199476 0.2566552839968641

transform_generator.6.weight f8 [64, 64]
000000 8b 7d e5 0c e5 07 c4 3f 7d 3a f8 09 18 93 c6 bf
       0.1564909279795582 -0.17636394964980076
000010 0e fd 6e 88 67 d3 99 3f 5d 60 d4 2e fb 1d b1 bf
       0.025220506384127588 -0.06686372655201596
000020 c5 a7 ab ed 05 0f b1 bf 57 5d ad f9 da 24 c1 bf
       -0.06663548519614355 -0.133937236702631
000030 05 40 ae da 8e 18 b0 bf a6 b1 9e 5b 40 e9 bd bf
       -0.06287472571261794 -0.116840383880748
000040 2d f6 a8 a3 bb 9e 92 3f 7d f4 43 c1 7c 79 c2 bf
       0.018183643211378154 -0.14433249890126723
000050 be 04 6d 55 58 99 c2 bf 67 8a cf 30 8e f5 a4 bf
       -0.14530471965011843 -0.040935939272249304
000060 00 46 6f bc 3b ab a2 bf 40 90 f3 e1 ab ac bb bf
       -0.03646265673854643 -0.1081035067214211
000070 d3 bf 73 ae cd fd a0 bf 81 7e f9 ab e9 72 c4 bf
       -0.03318636660139842 -0.1597568597526227
000080 42 55 b1 53 28 31 95 3f ad 73 aa d1 36 68 c3 bf
       0.0206953335840201 -0.15161786305989491
000090 95 25 c5 14 51 3d ac 3f 8e 74 52 15 40 85 93 bf
       0.05515530947247808 -0.019062997151753573
0000a0 db b7 1c 70 8b 52 ab bf dd 43 92 2c aa 18 bf bf
       -0.05336414092594995 -0.12147010410468746
0000b0 31 66 f4 a3 2e 6a a5 bf 6d 0c ea 50 3d c5 63 bf
       -0.041825730813979674 -0.0024133870677487874
0000c0 df da 2c 0d d9 33 b5 bf 2c f3 9a 26 4c 1e c7 bf
       -0.08282238551769748 -0.18061210522673699
0000d0 ec 3c 6d 1e 07 c8 c7 bf 72 88 aa 82 2b 66 92 bf
       -0.1857918642585682 -0.017967872476795717
0000e0 4d 4f 08 ac ee 83 cb bf 0e 56 b3 07 ab 27 ba bf
       -0.21496375465414488 -0.10216778696061388
0000f0 4b 45 27 9d f1 8a b1 bf 24 51 81 d5 d9 0f af bf
       -0.0685263642001434 -0.06066780787719697
000100 a7 b8 ca 04 b2 46 b4 bf 82 bc c3 1e 12 0d a0 bf
       -0.07920372597684154 -0.031349722152179474
000110 a2 b6 2c 1d 85 18 c2 bf b6 8e a6 39 bf ae b1 bf
       -0.1413732902960208 -0.06907267720685692
000120 d5 98 33 af 62 38 c4 bf 4d 4e e8 82 f8 23 a8 3f
       -0.15797074846995565 0.04714943502417821
000130 ce 71 bf a1 67 c0 b3 bf 48 0c 9c 18 8a f4 c8 bf
       -0.0771546144382633 -0.1949627514041785
000140 2d 76 40 82 7a ae c1 bf 98 ee 83 65 50 3b ad bf
       -0.13813716278029756 -0.057093155281078
000150 bf 6d 65 ab 8c 6d a2 bf 17 e8 2f 55 ee 07 b8 bf
       -0.03599204628218499 -0.09387101726306955
000160 42 df d2 b9 4d 36 7f 3f bf 4d 47 98 3c 14 c6 bf
       0.0076201473395299275 -0.17249257503008938
000170 b5 47 8a c9 ee 8d 9a 3f b6 f3 dd 91 8e cb a1 3f
       0.02593205552199836 0.03475614100077655
000180 38 4b 0a 38 63 26 bf bf fb bd 34 b8 86 62 c7 bf
       -0.12167949789208599 -0.182694282478664
000190 51 37 3d 81 f7 d6 b9 bf 25 0a 30 95 67 ee c8 bf
       -0.10093638329746325 -0.1947755316214891
0001a0 3b 3b 69 f0 66 2a c4 bf a8 bb 94 28 78 24 c0 bf
       -0.15754400957890788 -0.1261129568242414
0001b0 7e 28 8c f7 47 b6 9e bf 72 1e 13 61 51 a0 ae bf
       -0.029992222293949038 -0.0598168784140939
0001c0 79 05 83 de 5e f0 b2 bf ad 05 31 d8 9b 8a a9 3f
       -0.07398026401917503 0.04988562597328481
0001d0 cd 67 32 af dd 49 b0 bf f2 47 b3 13 2a 9f 91 bf
       -0.06362710501926401 -0.017208726360713862
0001e0 9f 4a bd e1 6e a9 73 3f 30 43 22 be 35 c7 87 3f
       0.004800255901346389 0.011610431542324301
0001f0 6e a8 b2 d2 50 df c6 bf 6e b4 4a ac 3b b9 8c bf
       -0.17869005477888628 -0.014025179095677322
000200 e6 fd b7 f9 78 24 b8 3f c3 16 90 18 32 80 c3 bf
       0.09430652710579288 -0.15234972190244464
000210 8d d8 9b c6 30 71 ad bf 43 b0 e0 e8 33 89 aa 3f
       -0.05750420021461009 0.0518280240797542
000220 82 2e 5e 58 b7 34 bc bf 13 78 01 f1 91 38 c2 bf
       -0.11017938525599827 -0.14235138194902727
000230 a2 42 02 f0 bf f4 a0 bf a6 9d a5 fb 5d c5 8c bf
       -0.03311729244990615 -0.01404832290854936
000240 ab 74 df 8b c5 4e a1 3f 58 50 18 b8 22 cb 9c 3f
       0.03380410511429351 0.0281186509001404
000250 40 ba ae 71 2b d3 9e 3f ed 9a 03 8c b3 7a be bf
       0.030102423490172336 -0.1190597740966088
000260 9b 0a e9 d8 40 2f c7 bf c0 44 99 ec 5c 0d 81 bf
       -0.1811295565731442 -0.008326269121570085
000270 37 c3 72 cd cd 26 ba bf 52 fe 26 26 0b 9e ae bf
       -0.10215460077121184 -0.05979952660299816
000280 1c 24 2e ee 71 c0 c4 bf d7 2a 6d a2 5f 2e 71 3f
       -0.1621229565610357 0.004194615909748753
000290 14 9d be 97 7d f7 c0 bf 74 47 a7 81 80 2b bb bf
       -0.13255281361964733 -0.10613253751151125
0002a0 5b 82 79 c1 8c 04 b8 bf 28 a7 05 b2 30 54 c5 bf
       -0.09381942485334475 -0.16663178150639024
0002b0 0a d5 c4 2f 5d 7a c1 bf 93 c3 bd dd 87 85 c0 bf
       -0.13654675323929438 -0.1290750344010375
0002c0 8d dd cb e6 ed 7b be bf 93 e0 89 3e ba 61 ac 3f
       -0.11907851109196184 0.055433101781944626
0002d0 fa d2 87 42 b2 cb b0 bf f3 b0 82 b9 58 9f c6 bf
       -0.06560815929681132 -0.17673787172441954
0002e0 81 7a 2c 97 29 db 8c bf 82 b1 d1 3e 4e 3b c3 bf
       -0.014089894224125434 -0.15024736468638983
0002f0 c7 94 88 7b 19 9a c1 bf 8b 42 23 fa f5 27 8c 3f
       -0.1375152447882668 0.013748094268892138
000300 54 c7 8a 7f 50 41 c0 bf 75 19 08 3f 7a 1b b6 bf
       -0.1269932387127094 -0.08635677374704705
000310 b7 73 0e 43 e4 15 b0 bf d6 fa 6c ba cc 28 bd bf
       -0.06283404004211844 -0.11390380431565048
000320 e2 a8 34 5a 62 6b 84 3f 81 bc b3 ba 24 c5 c1 bf
       0.009970444085940892 -0.13882884136498677
000330 db 16 83 4c b0 5f c7 bf d9 c9 6a 08 f9 ea c0 bf
       -0.18260768638554378 -0.13217080031388553
000340 56 f2 22 39 44 09 8a bf 20 aa 4d 09 c0 a0 9f bf
       -0.01271298694006721 -0.03088665062697704
000350 46 69 5b 10 8a 7e c5 bf c5 91 19 a6 76 77 de bf
       -0.16792417334256465 -0.47604147167865235
000360 25 c6 ae 72 4f f8 c0 bf 2e 50 e7 79 f7 7f ad 3f
       -0.13257783031217332 0.05761693347054152
000370 d6 56 94 8e 3f ba 7b bf d5 cf 96 38 84 97 a5 3f
       -0.0067694170659444355 0.042171604068613235
000380 0d c7 4c a2 5f 97 80 bf 4d 49 a1 fe 95 80 bf bf
       -0.008101222172260525 -0.12305581537774408
000390 15 b3 95 f6 12 11 af bf 7e 88 f0 37 73 ca d7 bf
       -0.06067713985507887 -0.37173157179689287
0003a0 17 5f ac 6a b0 a8 a6 bf 5f ff e1 dd 71 e7 a9 bf
       -0.044255745908399806 -0.05059390862970647
0003b0 ec 61 55 ab e5 3d a6 3f 17 37 ba 2b 0b 7b c7 bf
       0.043440987744080534 -0.18344249377371888
0003c0 64 f4 ec 99 67 55 b1 bf 11 72 01 55 05 f1 b6 bf
       -0.06770942218732184 -0.08961518597920583
0003d0 98 e8 b0 e6 c3 99 c5 bf 9e 18 e5 41 b4 22 c1 bf
       -0.1687550426884783 -0.1338715860130763
0003e0 fb 42 46 73 9e 4c a5 3f 45 63 ab 52 bb f5 c6 bf
       0.04160018117102556 -0.1793741372737491
0003f0 08 eb aa 64 32 ab be bf d0 99 62 71 ba 86 c2 bf
       -0.11979975660043973 -0.14473658119568578
000400 41 ec 74 b9 be 47 94 3f 56 32 2e 23 c6 67 ac bf
       0.019804935521488657 -0.05547923259209557
000410 cc a2 95 c1 ae 6e b6 bf 66 a4 b5 f0 2a e0 b8 bf
       -0.08762638307747322 -0.09717052818963764
000420 ef fb a8 2d 35 e3 93 3f 8f 3d d7 d0 5f cb a7 bf
       0.01942141619860743 -0.04647349762273755
000430 d3 7c 4c d4 b4 36 bd bf 2e af c6 f3 40 b4 bf bf
       -0.11411600287509609 -0.12384420348706435
000440 e3 7c 1a 0a 15 de 98 3f ed da 2a 9f d2 d5 a1 3f
       0.024284676305453067 0.034834463052382116
000450 5d a4 57 15 d5 23 c6 bf b1 27 42 27 69 78 bd bf
       -0.1729685167513563 -0.11511857231576418
000460 9b 69 31 82 1c 57 df 3f d5 57 63 2f cc 44 63 bf
       0.48969185556566125 -0.002352141188661764
000470 98 fc 72 e1 1d 48 f0 bf b8 1c bb 06 a3 26 71 3f
       -1.0176066214187696 0.004187237569289674
000480 cf f0 c6 f0 94 3c d0 3f 83 96 99 a7 47 60 c9 bf
       0.25369761956586684 -0.19825072940436791
000490 c8 0f 4f f1 92 0b 5d bf f6 f6 99 a1 fa 94 70 bf
       -0.0017727789865924371 -0.004048327473012972
0004a0 b7 59 bb e6 e0 ae dd bf 82 77 b6 2e 59 13 42 3f
       -0.4637987378349879 0.0005516229115760526
0004b0 7b 1a 5b 39 05 c1 a4 3f bd d0 c4 6b 35 cc c8 3f
       0.04053512883324558 0.19373195421360903
0004c0 53 5f 87 b0 18 48 c5 3f 1e 0d 6f 1f 73 c5 c6 bf
       0.16626270885057667 -0.17790068659642427
0004d0 70 56 e2 e4 cd 4b c3 bf 80 de e7 fd 44 20 b3 bf
       -0.1507508628462122 -0.07471114348288133
0004e0 85 42 01 fe cb f4 c6 bf 5b 80 1d 12 de cf b0 bf
       -0.17934560682853742 -0.06567180578486058
0004f0 81 c4 9b 42 18 b0 af bf be 1f 38 c1 21 e2 d6 bf
       -0.061890371447483446 -0.35755199307504515
000500 a9 df fc e7 9a 00 c5 bf a0 18 fd 29 14 e5 c8 bf
       -0.16408096625832272 -0.19449092912890809
000510 91 e8 67 02 bb c5 b0 3f f1 ed da 45 68 66 c1 bf
       0.06551712807405098 -0.13593772326372247
000520 07 77 f2 33 e4 d4 ad 3f cd 02 10 ef e7 fd b9 bf
       0.0582648576175711 -0.10153054796684131
000530 a1 fe 49 4f 9b dc b2 bf a4 d0 bd 61 90 cd be bf
       -0.07367869077460877 -0.12032415758386833
000540 84 85 76 32 2a c4 bb bf cb d1 ca 02 ec 58 cc bf
       -0.10846198780065747 -0.2214636815675831
000550 15 97 4f 00 e9 35 c7 bf 76 1d 13 c3 35 f6 d6 bf
       -0.181332707549864 -0.3587774662996347
000560 50 4a b5 c0 44 e4 92 bf 73 dd 5e 0d dc 13 cf bf
       -0.018448900472615215 -0.2427935662542314
000570 f7 d4 1b ee b9 dc 6b bf 1d 1a 5a 59 c3 09 cb bf
       -0.0034011489341262374 -0.21123544562233657
000580 47 2c d4 b8 5e e7 c2 bf de e1 18 13 15 2e b7 bf
       -0.14768585228771 -0.09054691044082783
000590 7c 92 43 8f 15 dd b1 bf e6 cb cd 38 f4 b4 c1 bf
       -0.06977972743659139 -0.1383347775805241
0005a0 0f 40 cc d5 77 1d c1 bf 16 79 5b 08 19 e0 bb bf
       -0.13371179522846474 -0.10888821081195874
0005b0 19 36 76 0a de ff c2 bf 8a 60 03 ab cf 8e e4 bf
       -0.14843345175579328 -0.6424330082036402
0005c0 01 9a ee 80 b0 9f a7 3f b3 8d 74 83 cf 35 b7 bf
       0.046140208948873614 -0.09066483458860013
0005d0 f7 f4 05 5c 6d 20 e7 bf e0 97 2b da a4 c0 f3 bf
       -0.72270839665694 -1.2345322153355411
0005e0 f7 6f da f7 ca e7 c2 bf b4 9b 89 f0 59 dc c5 bf
       -0.14769875623903747 -0.17078708882328686
0005f0 69 2d 51 8b 40 32 62 bf d9 3d 34 e6 a3 73 c8 bf
       -0.0022212277058650154 -0.19102905979569476
000600 0e f3 5d c3 e6 4e 9b 3f 01 84 91 ac bb 62 ba 3f
       0.02666817252564884 0.10306904757591441
000610 9b 89 4f 7f 29 2b c0 3f 8a a2 61 75 e2 04 cc 3f
       0.12631720272390798 0.21889906627190597
000620 7b 03 ad 31 83 62 c3 3f 15 4f b7 93 45 e7 a1 3f
       0.15144386220529413 0.03496758869337505
000630 4a 71 ca 21 ce 38 af bf a8 9d 1c 71 09 ed a3 bf
       -0.06098026430592769 -0.038917822892752085
000640 9b 78 f8 0a 7f 8f b9 3f 41 b5 cc dd cd 72 ac bf
       0.09984582918011357 -0.05556338627352853
000650 98 c1 95 d7 03 ef aa 3f 26 9b 91 a5 65 e8 ba 3f
       0.05260478979733135 0.10510859768110645
000660 2c 6f d9 8b dd 09 be 3f d5 0a 3f d9 2a e6 a6 bf
       0.11733803428927264 -0.044724787730520944
000670 6c 76 54 2b 49 cc 79 bf aa 85 68 e7 ce 0d c2 3f
       -0.00629833776227216 0.14104639338715447
000680 b5 95 35 07 a4 d2 b2 3f 88 bd 70 fe ab 4e c1 3f
       0.07352662254341776 0.13521337436530367
000690 63 a3 96 be 1b bb 96 bf 7e 2b 70 31 94 b7 94 bf
       -0.02219813681373085 -0.02023154784914593
0006a0 88 b8 14 74 20 d7 cf 3f e3 ab 2a f9 f3 00 c7 3f
       0.24875264804854091 0.17971658388464026
0006b0 12 a8 0a 91 48 15 b5 3f bd f1 c3 9f 04 94 b7 3f
       0.08235600987487171 0.09210232639811174
0006c0 8c e1 5e bd d0 bb a9 3f 14 14 e4 f0 c5 2a a2 3f
       0.05026104270604312 0.035482583671218176
0006d0 f4 6c 22 a4 8a d4 8b 3f bf 29 b5 a5 11 db c0 3f
       0.013588984617220558 0.13168545333094347
0006e0 85 ce 6b 60 87 17 c0 3f 7f 36 ee 29 f2 e4 b0 3f
       0.1257180424505472 0.06599343799299538
0006f0 a7 86 78 68 64 f2 bf 3f 95 6b da 21 a9 f4 c4 3f
       0.12479236174160722 0.16371645119656067
000700 08 d6 02 59 a6 b6 c5 3f 7c 9a 87 9e 52 5a cb 3f
       0.16963652940982876 0.2136939310141378
000710 a7 69 1b d2 1a 17 83 3f d4 c9 58 a3 dd df bd 3f
       0.009321412598571067 0.11669717061958035
000720 75 79 96 1a 41 3e c9 3f 1c 4a b5 54 55 d6 b4 3f
       0.19721235082847569 0.0813954669768368
000730 a9 25 52 3a 2c a0 c8 3f 8f 6a 32 bf ce 29 c6 3f
       0.19238808486651962 0.17315086684978495
000740 2b c6 9e 87 85 17 cc 3f 1f 15 73 f2 66 97 c2 3f
       0.21946782228546743 0.14524542654377456
000750 f1 55 05 62 08 58 c3 3f 6a 0c 20 99 86 f3 79 3f
       0.15112404619382816 0.0063357599010514885
000760 19 7d a9 68 ff 63 c2 3f 1b ce 73 90 d1 25 c9 3f
       0.1436766873402824 0.19646663239801473
000770 bb 72 05 fb c4 90 8b bf b1 49 04 5f bb 4d bb 3f
       -0.013459719572602826 0.10665484494919643
000780 52 8c c0 74 cd 5c 9a bf cc f0 0d 61 bb d4 64 bf
       -0.02574463868235128 -0.0025428447483460733
000790 ea 4e 76 34 db 06 b3 3f 3e be a6 fe 6b b9 f3 bf
       0.07432336836637501 -1.2327690074270232
0007a0 11 d7 be 03 34 aa c2 3f 31 a6 f7 3f e4 fb c3 3f
       0.14581918890842663 0.15612462161452492
0007b0 2e 83 1a f2 4c e6 c9 3f e6 29 cc 33 31 ea b5 3f
       0.2023407156130132 0.08560473932826759
0007c0 62 fa b6 6c 49 67 d0 3f 30 08 87 82 97 7e c2 3f
       0.25630412689853277 0.14448827622806126
0007d0 f8 02 95 93 53 65 c2 3f fa eb 55 e0 3c d6 dc 3f
       0.14371723848491746 0.45057603748108443
0007e0 6a 20 85 cf 27 91 a1 3f 6e 35 22 72 a7 19 b3 3f
       0.034310573656114965 0.07461020027604601
0007f0 4c d3 74 bb 17 14 bc 3f 03 f0 ba 54 9d 2d c9 3f
       0.10968159033366226 0.19670454632967002

transform_generator.6.bias f8 [64]
000000 87 6b 5d a3 c6 c8 bc bf 8c 27 66 17 f1 2e c5 bf
       -0.11243859756852546 -0.16549504892855926
000010 42 a8 2a 03 17 a7 c5 3f 4c df 0a 1b 2a 8e c8 3f
       0.16916167883511163 0.1918385154765424
000020 c4 3d a6 df 48 7d 89 bf 6c 3b 25 1a e5 9b ae 3f
       -0.012445992779958177 0.059783133927900106
000030 63 1c 87 12 71 fc d2 bf e4 63 3a 2f c7 f9 c8 bf
       -0.29665781792977536 -0.19512262159403726
000040 46 29 d1 d0 68 f2 b1 3f 27 9d ba 9d b0 63 e0 3f
       0.07010512445518655 0.5121691780704268
000050 9f 5a 62 f4 23 f6 cd 3f 39 cd f8 2d 5f e9 c1 3f
       0.23407411034414324 0.13993444199295782
000060 e9 a9 e6 e3 da 29 a5 bf 86 f8 5f f7 b8 2a c6 bf
       -0.041334953613233534 -0.17317878798343517
000070 3f bc e8 9f 4f cd c9 3f ff e4 8f ec e3 6a e6 3f
       0.2015780955129873 0.7005481357911377
000080 c7 48 cf 3d 7c 08 c8 3f 0e 8c a1 f9 d0 74 de 3f
       0.18775895135929074 0.4758799016764791
000090 63 e3 db 0d d0 cc c9 3f a0 f2 3f 17 b7 c8 ae 3f
       0.20156288792329766 0.06012508543787942
0000a0 06 c0 a6 c6 91 15 b5 3f 60 1d 3f 2f 4a 4d db 3f
       0.0823603734959307 0.42659239400787463
0000b0 0d 13 3e 94 97 cb d0 3f 2d 03 3a f8 46 dc c1 3f
       0.2624262759857608 0.13953482742729176
0000c0 47 a9 80 7b 59 c4 c6 bf cd 30 42 75 0e a0 e0 3f
       -0.1778671124496418 0.5195381441312975
0000d0 02 df ff fb 0e 80 c4 bf 50 2f 5e a9 92 ad b9 bf
       -0.1601580362764637 -0.10030476221998907
0000e0 5f 73 6c 77 bc 61 ac 3f 9c 49 52 42 a3 eb 8b bf
       0.05543316800888109 -0.013633037053556056
0000f0 eb 51 3d a4 9f b7 c3 bf 94 da 5f e7 81 a5 b3 3f
       -0.1540412475539051 0.07674419306554575
000100 ef ab 8f c5 99 d7 d2 3f 56 8a a5 3f 6e c7 ce 3f
       0.29440922062957403 0.24046114070650287
000110 41 1d 06 db 4b 51 d1 3f 79 25 e8 93 25 0e c4 bf
       0.27058693303157005 -0.15668172571194441
000120 8f 5a 28 1d cc 54 a3 3f 5c db 60 d3 6c d0 cb 3f
       0.03775632720878718 0.21729812928398473
000130 f3 25 37 6d 81 67 ce 3f b8 34 e8 43 ff 12 ba 3f
       0.23753373940262143 0.10185237319838591
000140 2d 9a ee e6 24 65 b1 bf 1e 2a 7b 0e d5 b0 d9 3f
       -0.06794958723057994 0.4014179841439346
000150 81 c3 f9 4c 33 74 a0 bf 28 58 5e c1 63 a5 72 bf
       -0.032136538645210606 -0.004552259129829074
000160 ff 35 16 ee 3f 3e b6 bf cc bc a3 c9 ee c3 be 3f
       -0.08688735544838976 0.1201771967205218
000170 42 e7 b8 9c fa f3 b3 3f 0b 4f 53 51 9e 6c d2 bf
       0.07794157339313038 -0.2878795427507021
000180 1f 96 1a 01 a6 f2 c1 bf 88 ff d0 eb 2d 67 8c bf
       -0.14021754316233712 -0.013868674048467047
000190 f9 53 76 22 2d 24 c6 3f c5 4d 22 94 df a1 e1 3f
       0.17297901327825096 0.5510099309198543
0001a0 c7 6b 30 f8 82 38 d6 3f be aa 49 a7 19 98 b6 3f
       0.3471991943094363 0.08825836500333659
0001b0 9f 9a ed 0d ef b1 c3 bf a6 d0 e3 56 82 f6 e3 3f
       -0.1538676088341235 0.6238414475506218
0001c0 9c e3 fc 51 93 d1 cd 3f bf 83 91 6d 30 65 cf 3f
       0.23295823577225583 0.24527554845829333
0001d0 7f e5 e2 1a 73 a4 dd 3f b2 9e fb 4e c0 3b c3 bf
       0.46316220880142817 -0.1502609620722431
0001e0 4c 3b 9c d8 06 ad d8 3f 6f cd 38 f2 c0 f2 ca bf
       0.3855607142767681 -0.21053325488319838
0001f0 84 f2 00 68 ad 22 d6 3f 17 99 c5 3a 5b 68 c6 bf
       0.3458665385876787 -0.17505970353813247
