models/GFDL-ESM4-livneh/QM_SST_layers4/2000/1980_1990/livneh_bci/model_100.pth (torch, 74328 bytes, 8 tensors)

transform_generator.0.weight f8 [64, 3]
0	0xbff97c9a6bb2a430	-1.5929207045503624
1	0xbfe59befc881e341	-0.6752852359923979
2	0xbfd5e6f6dcd2b9c4	-0.34222194256554084
3	0xbfdb74748ca3461d	-0.42898286565932314
4	0x3fe87330a575c76b	0.7640612823144982
5	0x3fd15bc786774e91	0.2712267697472522
6	0x3fdd23c895394643	0.4553090531599972
7	0x3fdc54edc46afc3a	0.4426836412566818
8	0xbfd9928502f69f50	-0.3995678452433724
9	0xbfe4d5caa6535942	-0.6510976074739931
10	0xbfd10f5aa80094ea	-0.26656214148017787
11	0xbfb7b99fd0253e2d	-0.09267615157772786
12	0x3fd7b5f37f6ca7f1	0.37048041766922696
13	0x3fda1fc171c9b1e1	0.4081882106027291
14	0xbfb7dad7977cd6b4	-0.09318301628521902
15	0x3fcfbc5e3d78c0b6	0.24793603898570432
16	0xbfe418c8ffcf5481	-0.6280255314146787
17	0x3fc1eaa5354465ce	0.13997330761848875
18	0x3fc1fb867bdeb0d6	0.14048844383558529
19	0xbfbbb12c622edea6	-0.10817220112846346
20	0xbfde4da548f53acf	-0.47348911404416766
21	0x3fd402c37589b8ff	0.3126686714011981
22	0xbfc44a9d6379852a	-0.15852706296122082
23	0xbfd3a895debd4c4b	-0.3071646380605599
24	0x3fa89ebef05f4374	0.04808613476018922
25	0xbfe589dd48219e46	-0.6730791481795186
26	0x3f968c3fe4ef8a97	0.0220193847161548
27	0xbfed67382b4f1333	-0.9188500257374471
28	0xbf992da4bb613bf8	-0.024588178574330016
29	0xbffb73bc61fab415	-1.7157558276478586
30	0xbfd41e149a1a4246	-0.3143359665782878
31	0xbfc59ab9cdbc8636	-0.16878435655330443
32	0xbfc33bbce0ac236e	-0.15026055307705682
33	0xbfb2c4e2f8eaae3a	-0.0733167512614096
34	0x3feb924ef7295435	0.8616099192973993
35	0x3fd4904f9912db52	0.3213080401287033
36	0x3fd425e0ba33523e	0.3148118799556733
37	0xbfe44e8a2011268d	-0.6345873476322638
38	0xbfc045c9f08db7e1	-0.1271297859743177
39	0xbfbb330952058889	-0.1062475037811358
40	0x3fde4e57110f04eb	0.4735315004910052
41	0xbfd92637676b99eb	-0.3929575452770268
42	0x3f8e55ed2a8b6c0e	0.014812329159601869
43	0xbfd97dfc60ffcb3d	-0.39831456635072354
44	0x3fdc5f1902f1f40e	0.4433043030510938
45	0x3fdaab95e90d5907	0.4167227531337549
46	0xbfc292ddfbaa2474	-0.14510702884971105
47	0xbfdd511390f298e8	-0.4580735126022675
48	0x3fd29566ede48fc5	0.2903687785312708
49	0x3fcb42672c95b9c0	0.21296395947451963
50	0x3fc3c3b2273d4d82	0.15440966526021432
51	0x3fb566344d13b8e5	0.08359076387180016
52	0xbfe3855818e5dd8a	-0.6100273596083963
53	0x3f8b0defde29d0a3	0.013210176436793402
54	0xbfb042297f098e8e	-0.06350955344674444
55	0x3fe1ab6175132674	0.5521704947106643
56	0xbfcd330306dd57f3	-0.22811925730883295
57	0xbfc3020963547f82	-0.1484996542940245
58	0xbf9e4d9c23164a80	-0.029592933312935887
59	0xbfb7e0f8d68e9e38	-0.09327655065737239
60	0xbfcaf8796288702d	-0.21070782958202142
61	0x3fe68778a68f1d43	0.7040370228868728
62	0x3fcb94fa99b60f12	0.2154839754622278
63	0x3fcc3102286c40a2	0.2202456185700657
64	0xbfcece88e55d43b1	-0.2406779403632107
65	0xbfbdce64e1c9c018	-0.11643057358173825
66	0x3fcc6cf4b33cfefb	0.22207506896847193
67	0x3fe20798302b0e64	0.5634270611557892
68	0x3fbfb4fd778561c3	0.12385543983453488
69	0xbfe4539652ff409d	-0.6352035161053383
70	0xbf7e7e27a52d01c0	-0.007444529403813183
71	0x3fe0a9f93b3c9f35	0.5207487256020388
72	0xbf7002d712d674ba	-0.003908958560171866
73	0xbfebe40ceabe69e5	-0.871588190540305
74	0x3f46e160bf070a97	0.0006982538598595153
75	0xbfe0ce58eff33df8	-0.5251888929869315
76	0x3fe201b014d9d607	0.5627060324902126
77	0x3fc89586e29a618a	0.19206319870569316
78	0xbfd6368cbc4a4128	-0.3470794523973546
79	0xbfdd0ef2b8d3cf02	-0.4540373616175516
80	0xbfb31ce68a9c1e4d	-0.07465973743466599
81	0xbfac625cd8e9ae53	-0.05543794772969748
82	0x3fc149a1047e5345	0.13505947799117216
83	0xbfd39de2cdee935d	-0.30651159391918786
84	0x3fe1d51b26d748f3	0.5572639235126914
85	0x3fe50cc721c2a950	0.6578097972281203
86	0xbfd94e036c87f3ce	-0.3953865585206672
87	0x3fc974a1078b60a0	0.19887173527127278
88	0xbfe4fee9cbe4c256	-0.6561173422142683
89	0xbfd983373dc54ddb	-0.39863377601906586
90	0x3fe135ccb33e3d64	0.5378173352091093
91	0x3fd3b2c87f7ddee7	0.3077870602642023
92	0xbfdf9bf5f97980b2	-0.49389409411197527
93	0xbfac5262e0dc5a9c	-0.055316057156393955
94	0x3fdf95a69a13e5c7	0.4935089592614443
95	0xbfc0710d86c48d20	-0.12845009880502634
96	0x3f6607af7e35a95a	0.002689211616304349
97	0x3fa071801a43fe1d	0.03211593933701471
98	0xbfdc85bbd06307e9	-0.4456624541309098
99	0x3fe138b281b6a745	0.5381710561243628
100	0xbfc13d050c6492da	-0.13467467408295059
101	0xbfc0889f7defa6ad	-0.12916940354562226
102	0x3fdccfade4959f61	0.45017573664380534
103	0x3fc683077cf66426	0.17587369538958447
104	0x3fc19e4188a2c1c1	0.13764208957355886
105	0x3fadd9214debadfc	0.05829719616107451
106	0xbfa526a3fa6c98d7	-0.04131042892395136
107	0xbfc366c2a1b94859	-0.1515734948794172
108	0x3fb60bb76a9fead5	0.08611627915517357
109	0x3fc4d5f86016ed35	0.1627798527896204
110	0xbfb547c0d123a545	-0.08312611680925837
111	0xbfd1727cfaa901ab	-0.27261280516179437
112	0xbfe68ed32efc047b	-0.7049346845307264
113	0xbfe368b9d0b3b72a	-0.6065339161120609
114	0xbfd0e99b51bc6bb3	-0.2642582224086098
115	0x3fcd4335cb8b282d	0.2286135906090875
116	0x3fe0a88f2990927b	0.5205760776339753
117	0xbfe01f2801d62fe3	-0.5038032565948892
118	0x3fd2696b4feb19bb	0.28768427662398793
119	0x3fcf5216c9e18a08	0.24469265801879225
120	0x3fcf93aab516365f	0.24669393388869573
121	0xbfd31aaf61717214	-0.29850372806484526
122	0xbfd5ec133701f43e	-0.3425338780578534
123	0xbfc67092a43872e6	-0.17531044977740534
124	0x3fd6e1daff32344a	0.3575351230763927
125	0x3fd4ac0848a1291d	0.323000021865157
126	0xbfcafb051e7b832b	-0.21078552235032907
127	0x3fdb522de08cf1d9	0.4268908207775702
128	0xbfd1de1096c4b6d6	-0.2791787597987939
129	0xbfe0eb1a5c575fd6	-0.5286990932026991
130	0x3fe9d05f7d5391f6	0.8066861579687259
131	0x3fd23a2292c97f9f	0.2847982820003327
132	0xbf9297591a4ff315	-0.018155472022033232
133	0xbfb2f4ccf5c8e282	-0.07404786110499553
134	0xbfdf1b43b2f48e47	-0.4860390899286568
135	0x3fde79d81ab2d305	0.4761867771842819
136	0xbfa7db637628ead4	-0.04659567658787514
137	0x3fd619cc4137138f	0.34532457703272085
138	0x3fcaa590682f247b	0.2081776150428459
139	0xbfda7d6ca3ede078	-0.4139052964087635
140	0xbfdae3a4e0aa3440	-0.4201442903511783
141	0x3fd1ce0bbf00bb8d	0.2782010426771471
142	0xbfa00f6b4939859e	-0.03136763829094068
143	0xbfdb914a67ad67d2	-0.4307428371881744
144	0xbf86e3f1be55f3b6	-0.011176956769071694
145	0xbfbafd7561925e2c	-0.10542997009394445
146	0x3f9c6d90eba52648	0.02776171148551601
147	0x3f3db9d458be2f36	0.0004535811829036064
148	0xbfd067229659d977	-0.2562948673506961
149	0x3fc5c74c0c71a8e6	0.1701445637475622
150	0xbfd8dff6e37c65d7	-0.38866970267699
151	0xbfe04f6ac94e2647	-0.5096944743865571
152	0xbfc65abc6896b30b	-0.17464404208058001
153	0xbfd3c4a09dd82bce	-0.3088761846017264
154	0xbfaf63c7f96d1759	-0.06130814475777297
155	0x3fb2bf1d378fdbae	0.07322867018215959
156	0x3fc276aa325db828	0.14424636325151252
157	0x3fdd4b9480902019	0.45773804240207167
158	0x3fbdbea1c227f73f	0.1161900614751774
159	0xbfd8d063973c96a3	-0.3877190567894592
160	0xbfc1d8ca9eee2c7c	-0.1394284511592082
161	0x3fe5df1aa74a534c	0.6834843890561415
162	0xbf610e5cfc84a82e	-0.002082044233380229
163	0xbfdeb5c6a15b3f95	-0.47984472043480625
164	0x3fde9573ddae0daa	0.47787186287333816
165	0x3fd3674da622d666	0.30318013405062627
166	0x3fe3dd6a0d234a11	0.6207781082724201
167	0x3fe05b6a24c9ff03	0.5111590117012103
168	0x3fb3cdd55a4b3eb6	0.07735951857034248
169	0xbfdf9076a37ad688	-0.49319234814479573
170	0x3fc0f3da8e78de77	0.1324418254532593
171	0x3fdc60b6781b2880	0.4434028790389064
172	0x3fcefae49759f0ab	0.24203164472772207
173	0x3fe0ec4d09325b00	0.5288453273413722
174	0x3fcfeea8308f6ec4	0.24947073336703884
175	0xbff220b70b470f23	-1.132987064412142
176	0xbfe73350bba0794c	-0.7250140823923998
177	0xbfd728c7a1e611f4	-0.361864002327166
178	0xbfdfc3ad70339bf2	-0.49631820637881596
179	0xbfdd2d4f6cf2940e	-0.45589051856433194
180	0xbfeb7ef7191bfeec	-0.8592486849229011
181	0x3fc9b99af97e27ef	0.20097672636285277
182	0x3fe6c9db3f747cc5	0.7121406783443481
183	0x3fd9abc377455103	0.40110861442123297
184	0xbfe03c522cb1cf3a	-0.5073634026470935
185	0x3fc19f8894c21bbd	0.13768107665620546
186	0x3fde5bc576f8bd7b	0.47435127847980824
187	0xbfe8aa4556c1a7a6	-0.7707850164854235
188	0x3fbb9430a197b9c6	0.10772994942792655
189	0xbfca490fb06cfe24	-0.20535465349711146
190	0x3fe6336afc83cf0d	0.6937766010218823
191	0x3fd056002842a1ad	0.25524906093280714

transform_generator.0.bias f8 [64]
0	0x3fe4d860effad35a	0.6514134108643745
1	0xbfd6ebbe4066ded7	-0.35813862122766466
2	0xbfd1243d2c160a60	-0.26783685021670145
3	0xbfdc90a184e0345f	-0.4463275716414667
4	0x3fd06a4022a6b0cb	0.2564850176229469
5	0xbfd0da42e3571d33	-0.26332161141586424
6	0x3fd21d49bb3774ed	0.2830375984465963
7	0xbfd1e6a1104e6c07	-0.27970148651519405
8	0x3ff63139e810b321	1.3870181145713973
9	0x3fdb4044c22e7a11	0.4257976433090401
10	0xbfe6aa7835129989	-0.7083092724395083
11	0xbfe58ceeb9352d9d	-0.6734536759699271
12	0x3fdc54db0acd2d0d	0.44267917685347485
13	0x3fd6ab0fe731d3c7	0.35419080331422176
14	0x3fdbb59cbe634c7a	0.4329597338921257
15	0x3fdab0ca2225be02	0.41704037985525144
16	0xbfaf3af022ae45c4	-0.06099653647755646
17	0xbfd2fe2ca4474ac0	-0.29676357310124146
18	0x3fd2107606ee4bba	0.2822547023471845
19	0xbfe781a4a41ad8e1	-0.7345755772755888
20	0xbfdfafacd61e7791	-0.49509735975322494
21	0xbfc6551a6f784da2	-0.17447214548938655
22	0x3fc0f51de19f3aac	0.13248036877344782
23	0x3fbcd44984c2481b	0.11261424533066171
24	0xbfe8f185d8e2b271	-0.7794827686353313
25	0xbfced5975a98509a	-0.24089328692992212
26	0x3ff88d66913af7f6	1.5345216439304727
27	0xbfda15002894413b	-0.40753177607350083
28	0x3fdbb0fcae8cd80c	0.4326774315444488
29	0x3fd8d6ab97c6a3cd	0.3881024343668827
30	0x3fdb96b53c71ea03	0.43107348349408897
31	0xbfe0cf667749c831	-0.5253174142692442
32	0xbfdf26f2c2bf4573	-0.48675221460606294
33	0x3fcaf35093606fe9	0.21055037685516645
34	0x3fd692cd5b34b6dc	0.3527100935633436
35	0xbfe01af23fea9fa7	-0.5032893417710412
36	0x3fdd938becec0356	0.46213052880198313
37	0x3fafb3c90dc97ec1	0.06191852849292224
38	0x3fcd3e24d996a80a	0.22845898270071557
39	0xbfdc117c40b45cf3	-0.43856722182086044
40	0x3fb3f4c6a9b72128	0.07795373576584963
41	0x3fc3a4a5425ce84b	0.1534620832479184
42	0x3fda80a36e991084	0.4141014652307222
43	0xbfd79970abb0d3dd	-0.36874024168656466
44	0xbfe1ab74a17dd90c	-0.5521796373493841
45	0x3fd5213927be46e6	0.3301527870290627
46	0x3fdc6df7367cd87d	0.44421177216589297
47	0x3fd6b866471d5f82	0.3550048536758298
48	0xbfe55a0addd3192a	-0.6672415096771023
49	0x3fc17c8bfe4044e6	0.1366133681736194
50	0x3ffaad62ab46c7e4	1.6673304262626454
51	0xbfe5acdee67dd865	-0.6773523809231504
52	0x3fd194dec773aae0	0.27471131780354874
53	0x3fc7d4532900b927	0.18616714002696108
54	0x3fdd064dfe032264	0.45350980573542743
55	0x3fd333b2558c2dcf	0.30003031114821693
56	0xbfb7535b23bf63c6	-0.09111566183800254
57	0x3fdb164bd136a9d1	0.4232358496762148
58	0xbff5e93d5cb8da1b	-1.3694432851749585
59	0x3ff81d8559f3b75a	1.5072072519064563
60	0xbfdc2f5309a86782	-0.44038845008037
61	0xbfe1b43152dad33b	-0.5532461755998165
62	0xbfecca40672fefc9	-0.8996889129043605
63	0xbfe28b5643c824ed	-0.5795089076865715

transform_generator.3.weight f8 [64, 64]
0	0xbfcb96dc3aabdbfe	-0.21554139008341616
1	0xbfd7644971139c04	-0.36549602549206406
2	0xbfb25b4190343267	-0.07170495768168338
3	0xbfda4457f25c523a	-0.41042135875730745
4	0xbfb125bc74007068	-0.06698205787728428
5	0x3fb03f8622f749ee	0.06346929887448713
6	0x3fa4e43b787b8dc4	0.040803774316170244
7	0x3fa5f230973fc9f8	0.04286338659575856
8	0x3fbac267dc516f09	0.10452889565334202
9	0xbfdced4023783631	-0.4519806238539302
10	0xbf9d10cc1ffcd4ea	-0.028384389355058305
11	0xbf902470820ea483	-0.015764005601941477
12	0xbfbae2565fc2a8e5	-0.10501613462352884
13	0xbfc583fde3ec9b5a	-0.1680905688201289
14	0x3f91dd63e05a406b	0.017446098869698206
15	0xbfc3f2d0813992ee	-0.15584760961350902
16	0xbfa066950ad71773	-0.03203264005018882
17	0xbfbbb694401cf2a7	-0.10825468602429088
18	0xbfae97f1af9ee1df	-0.05975299137884681
19	0xbfb503ab93c1baab	-0.08208725316374436
20	0x3fb3724e76f95686	0.075962928816205
21	0xbfa736727b969b9f	-0.04533727415701282
22	0xbf8be5fd7f8f4932	-0.013622265296281275
23	0xbf910bbaa65b0a23	-0.01664630546907565
24	0xbf9f8548d4eb0c6a	-0.030781877513402035
25	0xbfe1c77c8709334e	-0.5556013715191541
26	0xbfdd29ad58f18259	-0.4556687706554264
27	0x3fac0c508d8406a4	0.05478145339476484
28	0xbfbc03b2a6c3f59b	-0.1094314248220684
29	0xbf8bf44b8b1a5127	-0.01364954965837535
30	0xbfb0d7e5345370fd	-0.06579430129517401
31	0xbfc378c973fc456d	-0.15212362445212638
32	0x3fc317ae34511667	0.1491601710751411
33	0xbfb0f4e1fd04eeff	-0.06623661448696437
34	0xbfb305b5d1042285	-0.07430588105138199
35	0xbf66533d83bb55bf	-0.0027252389389597893
36	0xbfa6113e8031eb90	-0.043100312374881544
37	0x3fb8d589ab426d39	0.09700832778110148
38	0xbfc02878cc5cbfcc	-0.12623510340335853
39	0x3fac695649d7eaa0	0.05549115802201254
40	0x3fc26087ab3eb580	0.14357086049623646
41	0xbfc8a5afc714cb9e	-0.19255635472071914
42	0x3fabe022107bc781	0.054444374572894645
43	0x3fa0af0ef463405b	0.03258558972595501
44	0x3fb606d86385c7bd	0.08604195050955261
45	0xbf8e8441a85e55ac	-0.014900696707438175
46	0xbfc0015949404e82	-0.12504116131514215
47	0xbfb3d23e2f0fe6a3	-0.07742680214860313
48	0xbfbdc199bc08cae1	-0.11623535957987087
49	0xbfb75b4902ae216d	-0.09123665156778822
50	0xbfcf024854e5c306	-0.2422571577585801
51	0xbfb418bdb6201eb1	-0.07850251861975256
52	0xbfba3d4816bf93eb	-0.10249758296374949
53	0xbfb0f78e9577c32b	-0.06627741955868476
54	0xbfcc4709f2185e2c	-0.22091793366483736
55	0x3f8ad84bfd42a8fa	0.013107865969079747
56	0x3fc1d439e4ebba3b	0.13928912809156366
57	0xbfb630f05b47e926	-0.0866842482427371
58	0xbfc8ab6359cb67ff	-0.19273034939288888
59	0xbfe4cc3721a7512f	-0.6499286324783834
60	0xbfbde4ec6c598df2	-0.11677434582957583
61	0x3fc2d48344bd6f94	0.1471103749889805
62	0x3f8fde898f16a9db	0.01556117504045045
63	0xbf9d5ebde3813f39	-0.02868172360496077
64	0xbfd08b4dafd507f1	-0.2585024087057937
65	0x3fd4a7f80b8b39ab	0.3227520096524141
66	0xbf840f5b8e8e44f9	-0.009794917381244593
67	0xbfc783a5843dc4f0	-0.18370503384679848
68	0x3fbc9580c6cae9e0	0.11165623524986001
69	0x3f928060440351f9	0.01806784072035048
70	0x3fa8c2f04b0d7d00	0.048362263833718444
71	0x3fc6187cdf043405	0.17262230767701695
72	0xbff242f8db99c26d	-1.141350610556539
73	0xbfe85507602b6340	-0.7603794935522288
74	0xbfc8150ac5dbbc2d	-0.18814215336848986
75	0x3fd3b8a39ff9d45a	0.30814447996755734
76	0x3fb6b5bd0efbd3ab	0.08871060958683923
77	0x3fc29d9031aa1d9f	0.14543344903016206
78	0xbfa9faaa2e6da76e	-0.05074054543258809
79	0x3fb2ba813d9aa358	0.07315833810811279
80	0x3fcc302c72752fd0	0.22022014225728848
81	0xbfa9536da98a1f39	-0.049464632936233995
82	0xbf7022c2e00801f5	-0.003939400893159907
83	0x3fb174731ce4a9dc	0.06818313079262545
84	0x3fe067aba7eef4bb	0.5126550941419262
85	0x3fc23fdbe83ed7f7	0.14257382240401714
86	0x3fc373f67ef18fbf	0.15197640608232452
87	0xbfd740e1905593da	-0.3633350286020779
88	0xbfb5d829c9afca36	-0.08532963918677514
89	0x3faed1d310ee9dfb	0.0601945837182107
90	0xc015bbfd890bedf0	-5.433584348061672
91	0x3fbff4c0a337e7d4	0.12482837662528762
92	0x3f9808fa2fc4d506	0.023471745648937968
93	0x3fc491d3613fc840	0.16070024727338428
94	0x3fb32ef69935b442	0.07493535271142185
95	0x3fbe8b24c20b88c1	0.11931066262653457
96	0xbfa93131227b0f32	-0.049203429659910106
97	0x3fc21258656d2616	0.14118485405406095
98	0x3fb9d75f194ff864	0.1009425579831898
99	0x3fa65bdbc6e9e403	0.04366957476754154
100	0x3fa54342f0dd152b	0.04152878942708534
101	0x3fba5595d2403ceb	0.10286842711524329
102	0x3fb14186489678d8	0.06740607521212227
103	0xbfa467f7fc615ca7	-0.03985571819128469
104	0x3fcb3fa2cfc613a7	0.21287951607896824
105	0x3fd1ba0b7b02f9d1	0.27698027623037286
106	0x3fb80802fe4b72f4	0.09387224872939354
107	0x3fd86ce4f2e66bcc	0.3816463825293652
108	0xbfb85336bf84d5e9	-0.09501974273447157
109	0x3fc3aed092cf3026	0.15377242248939743
110	0x3fb8e0606252d415	0.09717371368863355
111	0x3f84dc9f4c996c61	0.010186428570866992
112	0x3fc043f071558721	0.1270733407391669
113	0xbf916a1b0fe7c1a1	-0.017006323667318694
114	0xc00960c575486e2b	-3.1722516215065943
115	0xbfc3a34734c9aeef	-0.1534203536751799
116	0x3fb44cd2d971e60c	0.0792972355719927
117	0xbff802c19a0a4d8f	-1.5006729142377002
118	0x3fc4d23fd7c66190	0.1626663020695216
119	0x3fa4d2a8834e2924	0.040669694927674166
120	0x3f9b0ca3d1839d52	0.026415404951788908
121	0x3fc18a47fc9a4a79	0.13703250726810604
122	0xbfc367d1e399fe6a	-0.15160583127361643
123	0xc00db8741fb13bef	-3.7150652385675964
124	0xbff3a9d8a419a682	-1.2289663705982155
125	0x3fc98b3ccd00453f	0.19956169137780397
126	0xbf97b7d83365a089	-0.023162248742125278
127	0x3fcae7c6771c4f2f	0.21019821945139358
128	0xbfad0a2dd7072f0d	-0.05671828508238095
129	0x3f7da29ef66b7f7f	0.007235165546006671
130	0xbfa11375312f7f4f	-0.03335157609376315
131	0xbfa50effc61700c8	-0.04113005917634066
132	0xbfbecc20855d4df5	-0.12030223136871838
133	0xbfb60b8653a91123	-0.08611335318079631
134	0xbfa7c4a1b0786d6c	-0.046422055045890115
135	0xbfc662ea7ae575a4	-0.1748936748580664
136	0x3fa38f8de15b4ab0	0.03820460678038751
137	0xbfc4afa2482b9807	-0.16160992168369168
138	0x3fbdcd2fbbf6b52b	0.11641214693982664
139	0xbfada8f229463fee	-0.057929580248241894
140	0xbfc6bfb96d5896f1	-0.17772596205866578
141	0xbfa489a77760706b	-0.04011271793589873
142	0x3f84ef8c3c55e712	0.010222526160521581
143	0xbfbbee0218df87ae	-0.10910046679739935
144	0xbfc15c6860fe96b7	-0.13563256012019106
145	0xbfb3f5c42b768e53	-0.07796884595023217
146	0x3f710cdc41b30ab3	0.004162655236714374
147	0x3fb465b369f241b5	0.07967683159427603
148	0xbfb1d4b06f14e89c	-0.0696516295619482
149	0xbfc6ace8a529c3c8	-0.17715175690275786
150	0xbfc4f72c74abe87b	-0.16379314133502362
151	0xbfc0ede2be1b9d26	-0.13225969584093739
152	0xbfc092e33935a631	-0.1294826535552587
153	0x3fac1a705ab09d8f	0.0548892126756143
154	0x3fbd138de9e1ce35	0.1135796257020097
155	0xbf6b3b6dfe3f3c54	-0.00332423670804575
156	0x3f9a6d51598dcb6c	0.02580763920873201
157	0xbfb5b8f8c450a298	-0.08485369484754768
158	0xbfc79a746e2b46c5	-0.1844010866102989
159	0xbfb4b8dcdb38bd84	-0.08094578125086654
160	0xbfaf4de4ad8cad08	-0.061141153512233315
161	0xbfc453c9f8570976	-0.15880703569389326
162	0xbfbb08d2018be8fd	-0.10560333764798098
163	0x3fb73bc7e4739c67	0.0907559330695321
164	0xbfc2c350dc5bfee6	-0.14658556709036147
165	0xbfc34e0e3c7dc977	-0.15081956819228612
166	0x3f89881d2db2bfb5	0.012466648060893573
167	0xbfa56ef50798b187	-0.04186216085176669
168	0x3fa1ef105cb7b612	0.03502703792387875
169	0xbfb385c07b57a698	-0.07625964175499644
170	0xbfbf168b56c06495	-0.12143774860341446
171	0xbfaef242b046ec32	-0.06044205095118861
172	0x3fa643aad2c57d27	0.043485010365424785
173	0x3f6aaeabccc340a2	0.0032571177926926246
174	0x3f9b538209ca1fd4	0.026685745093828775
175	0xbfa54e119fc04303	-0.04161124301038479
176	0xbfb8ec284429c8df	-0.0973534742750277
177	0xbfc487bd10458b62	-0.16039241117968134
178	0xbfbf4f19a62ac655	-0.12230072314084713
179	0x3f95b461c7d62537	0.021195915052463845
180	0xbfc71732792c6ea3	-0.18039542118718996
181	0xbfb5289c375949cb	-0.08265091277397756
182	0xbfb6d0a5503e10ac	-0.08912118157428733
183	0xbfa1a7445c34a96d	-0.034479271178798544
184	0x3f5b1daae0d375fb	0.0016550225002939223
185	0xbf9a3425e37e93f5	-0.025589553842696195
186	0xbfade7a020643fa2	-0.05840778727917885
187	0xbfbb317e3d417555	-0.10622395511150746
188	0x3f9d0f99e4bb347f	0.028379826150559225
189	0x3facae6bba9164ef	0.0560182252163005
190	0xbfba3e17da2e3cea	-0.10250996662783832
191	0x3fc510643e2a98d3	0.16456273112743833
192	0xbfda96c2fc22e6a9	-0.41545176146210366
193	0x3fab2cba488ef9da	0.05307562003826023
194	0x3fbe49e44bc70793	0.11831499910388592
195	0xbfc5df6a405ff214	-0.17088058608341383
196	0x3fc65e27079f594f	0.17474830505552538
197	0xbf76c67eda321105	-0.0055603938263895135
198	0x3fc07b9050020161	0.12877086550362107
199	0x3fc9120e75b84d93	0.19586354015391957
200	0xbff2589d39426bcb	-1.1466343151757765
201	0xbfedd02ef44548dc	-0.9316630144988056
202	0xbfd0196ca74a3ff9	-0.25155178391378247
203	0x3fd80029592c08f6	0.3750098582096507
204	0x3fc28bf97b62272b	0.14489668392735075
205	0x3fbca043916069bc	0.11182043360933042
206	0x3fbb97d3c904f3c0	0.10778545053194843
207	0x3fc3cf1aa4cf9463	0.1547578148594396
208	0x3fbcac8abd3bb79c	0.11200778121903315
209	0x3fb4d696d012c292	0.08139937000192735
210	0x3f8544fe455db011	0.010385500423318235
211	0x3fd529beef953366	0.3306729640651639
212	0x3fdf421085c13321	0.48840725957852454
213	0x3fc2562672de38a4	0.1432540951613578
214	0x3fc9baa75fa75862	0.2010087220248265
215	0xbfd48b5831259bb9	-0.32100491332533526
216	0xbfa4e6e6a95a971c	-0.040824134991721744
217	0xbfa8ac3c222b035c	-0.04818904797639931
218	0xc01451aa736eab10	-5.079751781110431
219	0x3fb81c458e7af9c6	0.09418139198803663
220	0x3f85537d4a925424	0.010413149679417151
221	0x3fa987d68b2e63b8	0.049864487161534965
222	0xbf92ef66e13544ff	-0.01849137067376194
223	0x3fc4d25917c08f64	0.16266931209349444
224	0xbfa5e87991e3d2da	-0.04278926759608277
225	0x3fc8ad20c7095c44	0.1927834483965133
226	0x3fc93c6c53a42f26	0.1971564682393076
227	0xbfb0b5169b2ca395	-0.06526318825184625
228	0x3fc1d70f5683cc3f	0.13937560772282784
229	0x3fa901510359c6f0	0.04883816877271652
230	0xbfabc698f2338383	-0.05424955326612404
231	0xbfb8f1857d12b716	-0.09743532470266944
232	0x3fb46d60527483d9	0.07979394925179352
233	0x3fcb2ac013ffddd2	0.21224213577782663
234	0xbf7fd84f57ebf8f5	-0.007774648604707436
235	0x3fc954c37a614602	0.19789927936157886
236	0xbfbb17f1a91fb70d	-0.10583410624505181
237	0x3fa49300b3a30288	0.04018404190856467
238	0x3fc0db521e89daea	0.1316931389917138
239	0x3fc1b4cb8a97ed3f	0.1383299280858896
240	0xbfa4408d2f5a0bee	-0.039554988889925244
241	0x3f94beb827deeb04	0.020258786614912885
242	0xc0085c1efcce1879	-3.044980979003466
243	0x3fc4c9b78258bb33	0.16240590920048134
244	0x3fc80e1da8cb7371	0.18793078176431835
245	0xbff32c3306b26ab6	-1.1982908498381852
246	0x3fc89e392da70dd5	0.19232859353188184
247	0x3fc25742233bff43	0.14328791351726453
248	0x3f69b40aa59c1329	0.003137608332396975
249	0xbfa6b715908d1162	-0.04436557187594549
250	0xbfa866d98213a5a9	-0.04765968048907194
251	0xc00bff11476c6839	-3.4995446758230426
252	0xbfeffb665915007e	-0.9994384517558641
253	0x3fa1349089390a2a	0.03360416102488657
254	0x3f6b488f429ee1c5	0.003330497555875863
255	0x3fd2eb4b7d451a67	0.2956112597789002

transform_generator.3.bias f8 [64]
0	0xbfc6ef34184f28a6	-0.17917491137479152
1	0x3fc825cf1a5ac6f4	0.18865383898587818
2	0xbfc1404a5ebed538	-0.13477449060671076
3	0x3f9c98698083187e	0.027925156086688656
4	0x3f92db2bad52b763	0.01841419453983607
5	0x3fae2989566acd5a	0.05891064815423404
6	0xbf9733f6a7c64697	-0.022659162511962618
7	0xbfa8be6411cd2fdb	-0.048327567265544956
8	0xbfb4ba243a0e33e6	-0.08096529404993155
9	0xbf800ed7dea53b76	-0.00784081123552281
10	0xbfc6f95923c93341	-0.17948450324402113
11	0x3fb8d4b1d20c2eb8	0.09699546220889033
12	0x3fb06006a018e7e3	0.06396523865342334
13	0xbfc747125b0da1a2	-0.1818564362140594
14	0xbf646fb58cd2bbed	-0.0024946733379560466
15	0x3faaaade7d54bee6	0.05208487777633568
16	0x3fc0251f7776e4ce	0.12613290150856077
17	0x3fb4e816b1fe50b9	0.08166639180700742
18	0xbfbc6ae933d8cfd4	-0.1110063315944097
19	0x3fba782cf5d0319d	0.10339623452472897
20	0x3fc5952beb40fcd0	0.16861485468868986
21	0x3fc1c77366cb1e37	0.13889925498209418
22	0x3fa9c224615052ec	0.05030931175148176
23	0x3fc6627d69933a0e	0.17488067297968296
24	0x3fcb26b6e97cdf7f	0.2121189727856709
25	0xbf792a3bb427cf4c	-0.006143792360024335
26	0xbfa3d584957de8ba	-0.0387383873448512
27	0x3fc2719dbc7300f9	0.14409228994009718
28	0xbf8bcf9449cdcedc	-0.013579519750897821
29	0xbf111b9715e888de	-6.526097920603625e-05
30	0xbfbdf9cda4ecad98	-0.11709294582822449
31	0x3f97f777fe574f8c	0.023404955767389476
32	0xbfbdc8b50fafa863	-0.1163437999054238
33	0x3fba020440fa8e9f	0.10159327112574566
34	0xbf78bc858256b866	-0.006039163131772529
35	0xbf74dd68d8cb2260	-0.005093965108877357
36	0x3f9252e416f4b82a	0.017894328976744735
37	0xbfbfe3d70c84f1fe	-0.12457031303069496
38	0xbf93cd8a9c530b51	-0.019338765898975045
39	0x3fbc109d2d1822b4	0.10962850905355986
40	0xbf52263ad527ceb6	-0.001107747510670371
41	0x3faf4fd4585e813c	0.06115592554783908
42	0xbfb90cb9d71993de	-0.09785043240988453
43	0x3fc58c2b66a6237d	0.1683401347366064
44	0xbfb0091e912f5a08	-0.0626391510444152
45	0xbf79132e0075e888	-0.00612180680706776
46	0x3fa692813583f3af	0.04408649233116734
47	0x3fc8e09cc7838869	0.19435462705502296
48	0xbfb6eb1477407aed	-0.08952453528807398
49	0xbfc9dd413b9d711a	-0.20206466112984672
50	0xbfa8e8439f69dcf1	-0.04864703484502709
51	0x3fc5ceba7a1bad8a	0.17037135088262928
52	0xbfa61f0beeb7a3d7	-0.04320561684637141
53	0x3fb805844bf18dc9	0.09383417944041307
54	0xbfa2d53b4780092e	-0.03678307769588894
55	0x3fcbca5275dce30b	0.21711188082715469
56	0x3fc13395e4e3cf5a	0.1343867652536755
57	0xbfc4176a5fba8950	-0.15696458505869737
58	0x3fa108f14d64beaa	0.03327135152573864
59	0x3fbb16ec3340f142	0.1058185219889696
60	0xbf96023ef364e16a	-0.021492942433924446
61	0xbfb641b421688221	-0.08694005790358307
62	0x3fab41c0fdd72f41	0.05323603724136073
63	0x3fc618f65f6dacee	0.17263679179755037

transform_generator.6.weight f8 [64, 64]
0	0x3fc407e50ce57d8b	0.1564909279795582
1	0xbfc6931807fb6609	-0.17636394872424457
2	0x3f99d367886efd0e	0.025220506384127588
3	0xbfb11dfae082ca5a	-0.06686370831702373
4	0xbfb10f075390c53d	-0.06663556852506232
5	0xbfc124dafa8c9e25	-0.1339372371087261
6	0xbfb0188edaae4005	-0.06287472571261794
7	0xbfbde9405b9eb1a6	-0.116840383880748
8	0x3f929f81ff23c492	0.018186598966114582
9	0xbfc2797cc143f47d	-0.14433249890126723
10	0xbfc29958556d04be	-0.14530471965011843
11	0xbfa4f58e30cf8a67	-0.040935939272249304
12	0xbfa2ab39cb8d1f90	-0.03646259889370562
13	0xbfbbacabe1f39040	-0.1081035067214211
14	0xbfa0fdcdae73bfd3	-0.03318636660139842
15	0xbfc472e9abf97e81	-0.1597568597526227
16	0x3f94c232b2b11325	0.02027205672881673
17	0xbfc36836d5145fb2	-0.15161786464954968
18	0x3fac3d5114c52595	0.05515530947247808
19	0xbf93853c2581e547	-0.019062938489218053
20	0xbfab528b701cb7db	-0.05336414092594995
21	0xbfbf18aa2c9243dd	-0.12147010410468746
22	0xbfa56a2e9ff916d6	-0.04182573035045116
23	0xbf653953d4504a38	-0.002590812424849955
24	0xbfb53509e6db1819	-0.08284055601242847
25	0xbfc71e4c269af32c	-0.18061210522673699
26	0xbfc7c8071e6d3cec	-0.1857918642585682
27	0xbf92662b82aa8872	-0.017967872476795717
28	0xbfcb83eeac084f4d	-0.21496375465414488
29	0xbfba27ab07b3560e	-0.10216778696061388
30	0xbfb18af19d27454b	-0.0685263642001434
31	0xbfaf0fdacd3ead68	-0.06066783671789261
32	0xbfb446b204cab8a7	-0.07920372597684154
33	0xbfa00d0f597eb1b5	-0.031349639582319545
34	0xbfc218851d2cb6a2	-0.1413732902960208
35	0xbfb1aebf39a68eb6	-0.06907267720685692
36	0xbfc43862af3398d5	-0.15797074846995565
37	0x3fa823f882e84e4d	0.04714943502417821
38	0xbfb3c067f3aa1146	-0.07715463351093374
39	0xbfc8f48a189c0c48	-0.1949627514041785
40	0xbfc1ae7a7b11f81b	-0.13813715943609925
41	0xbfad3bedfcda6786	-0.05709785186372955
42	0xbfa26d8cab656dbf	-0.03599204628218499
43	0xbfb807ee396e64f4	-0.0938710108006438
44	0x3f7f364db9d2df42	0.0076201473395299275
45	0xbfc6143c98474dbf	-0.17249257503008938
46	0x3f9a8deec98a47b5	0.02593205552199836
47	0x3fa1cb94625bbffa	0.034756314283981696
48	0xbfbf2663380a4b38	-0.12167949789208599
49	0xbfc76286b834bdfb	-0.182694282478664
50	0xbfb9d6f7813d3751	-0.10093638329746325
51	0xbfc8ee6795300a25	-0.1947755316214891
52	0xbfc42a66f0693b3b	-0.15754400957890788
53	0xbfc024782894bba8	-0.1261129568242414
54	0xbf9eb647f78c287e	-0.029992222293949038
55	0xbfaea06eac26cf94	-0.05981775142154713
56	0xbfb2f05ede830579	-0.07398026401917503
57	0x3fa98a9bd83105ad	0.04988562597328481
58	0xbfb049ddaf3267cd	-0.06362710501926401
59	0xbf919e81c0752596	-0.017206218120269755
60	0x3f73a8c3089b2bf8	0.004799615717000265
61	0x3f87c735be224330	0.011610431542324301
62	0xbfc6df50d2b2a86e	-0.17869005477888628
63	0xbf8cb4dfc4a93044	-0.014016864956964643
64	0x3fb82478f9b7fde6	0.09430652710579288
65	0xbfc3bf8ee77878fe	-0.154283392927887
66	0xbfad7130c69bd88d	-0.05750420021461009
67	0x3faa88e799d60e53	0.051825749901607175
68	0xbfbc348ff07ed08c	-0.1101770364901446
69	0xbfc230df8bcc676b	-0.14211649252029743
70	0xbfa0f4bea3360288	-0.03311725370713697
71	0xbf8cc55dfba59da6	-0.01404832290854936
72	0x3fa14fb84878de98	0.033811339232156346
73	0x3f9ccb80212572d8	0.028120042822922325
74	0x3f9ed32b71aeba40	0.030102423490172336
75	0xbfbe7ab38c039aed	-0.1190597740966088
76	0xbfc72787120e6e4a	-0.18089378720911703
77	0xbf810d5cec9944c0	-0.008326269121570085
78	0xbfba26c3f8aaf370	-0.10215401478758479
79	0xbfae9e0b2626fe52	-0.05979952660299816
80	0xbf238b713dd33991	-0.00014911420195180524
81	0x3f712e75dc6d499b	0.004194698710153234
82	0xbfc0f77d97be9d14	-0.13255281361964733
83	0xbfbb2adc86e29d71	-0.10612276356788698
84	0xbfb80c8506477083	-0.09394103434846283
85	0xbfc554392915f868	-0.16663279062408098
86	0xbfc139ca1583afe0	-0.13457609224803857
87	0xbfc00ad9f06bbe8e	-0.1253311561517773
88	0xbfbc539708df7935	-0.11065048185944167
89	0x3fac61ba3e89e093	0.055433101781944626
90	0xbfb0cbb24287d2fa	-0.06560815929681132
91	0xbfc6583c95741e76	-0.17456776902712406
92	0xbf8cb4b16162823e	-0.014016519340942609
93	0xbfc33b4e3ed1b182	-0.15024736468638983
94	0xbfc19a197b8894c7	-0.1375152447882668
95	0x3fa94aa6aab514dc	0.04939766725377989
96	0xbfc04149b9136afc	-0.12699243103892133
97	0xbfb636ff7c147d15	-0.08677670268342681
98	0xbfb015e4430e73b7	-0.06283404004211844
99	0xbfbd28ccba6cfad6	-0.11390380431565048
100	0x3f846b625a34a8e2	0.009970444085940892
101	0xbfc1c524bab3bc81	-0.13882884136498677
102	0xbfc7581531fc555d	-0.18237557354647552
103	0xbfc0e8b8ec540224	-0.13210212268315147
104	0xbf89e1964f53ddb3	-0.012637304588209419
105	0x3fa8a1327f3c5ec1	0.048104837447849665
106	0xbfc57e8a105b6946	-0.16792417334256465
107	0xbfac181ba7e0b2da	-0.054871429674994324
108	0xbfc0f84f72aec625	-0.13257783031217332
109	0x3fad89bb13b1669d	0.05769142737763142
110	0xbf7bba3f8e9456d6	-0.0067694170659444355
111	0x3fa597955686a418	0.04217211419319983
112	0xbf80975fa24cc70d	-0.008101222172260525
113	0xbfbf8095fea1494d	-0.12305581537774408
114	0xbfaf1112f649aee4	-0.06067713982051062
115	0xbf956fabb02e54f7	-0.020933802250131497
116	0xbfa6a8b06aac5f17	-0.044255745908399806
117	0xbfa9cb30a55e0827	-0.05037834185260719
118	0x3fa63de5ab5561ec	0.043440987744080534
119	0xbfc12fa13008b614	-0.13426604123508012
120	0xbfb155611b3fe5e2	-0.06770903506539797
121	0xbfb6f10555017211	-0.08961518597920583
122	0xbfc5998a87cd6043	-0.1687482035729336
123	0x3f69c27e61e5aa76	0.0031444996267755944
124	0x3fa54db34e665b91	0.041608432121555634
125	0xbfc6f5bb52ab6345	-0.1793741372737491
126	0xbfbeaab17dc96fab	-0.11979207344978586
127	0xbfc25faa5b0cdb9b	-0.14354447789966404
128	0x3f94ad5d3b1c9aa9	0.020192581875699975
129	0x3fbb3ab60f6b968c	0.10636461140128456
130	0xbfb66eadd4aa2ebc	-0.08762632791529773
131	0x3fc0d14a69e10a8f	0.13138704461933456
132	0x3fa2e8a2b560807b	0.03693111862253403
133	0x3f88222d4c57ab87	0.01178393735150053
134	0xbfbd35de71161de5	-0.11410322438143046
135	0xbfbfb440f3c6af2e	-0.12384420348706435
136	0x3fade41f2d10184e	0.05838105607112763
137	0x3fa1e40cb5c8c716	0.03494300574347002
138	0xbfc623d7f20e4ace	-0.17296885794765732
139	0xbfbd9433f53f2453	-0.11554264771906846
140	0xbf73aa0cd65f04c3	-0.004800844331783685
141	0xbf63451552d39572	-0.0023522774196062463
142	0xbfc4ba079d73db81	-0.1619271773158424
143	0x3f7127d59c366451	0.004188379683364011
144	0x3fbab5c15f61313a	0.10433586672406117
145	0xbfc101fb4c8ba7e9	-0.13287297475409268
146	0xbf5d0d6677d05cc2	-0.001773214403561416
147	0x3f8c60f9f5eed3a6	0.013856842820908554
148	0xbfa3f10b4d9bb69f	-0.038948395942367535
149	0x3fb139e38f11c6a5	0.0672895645418757
150	0xbf8d71a8ba508d92	-0.014376943765518378
151	0x3fbb16aec6ab8acb	0.10581486082405005
152	0x3fc09c1b2593365f	0.12976397833556327
153	0xbfc0aaa643d7086a	-0.1302078086137642
154	0xbfc34bcaaad2e7a7	-0.15075047818191686
155	0xbfbb6ce2c2bd7e29	-0.10713021520995682
156	0x3facd4bf2119db95	0.05631062773766541
157	0xbfb0cfd40d3265cc	-0.06567120859326464
158	0xbfafb0183d954bee	-0.06189037086246417
159	0xbfbbf77f37881048	-0.1092452536177585
160	0xbfc4f31265420361	-0.16366796440345424
161	0x3fa347322bbf187c	0.03765255722059721
162	0x3fb0c5f015ede662	0.06552029166587084
163	0xbfc1666845daedf1	-0.13593772326372247
164	0x3fadb0a9a9b42e2a	0.057988454786109436
165	0xbfb9fde9b080ea8a	-0.10153065261048702
166	0xbfbac3f917918f01	-0.10455281091122616
167	0x3faa8c9bc6e17b3d	0.051854007747115884
168	0xbfa55ef47e6b8e4d	-0.04174007456984139
169	0x3f7cbf1cf20d6023	0.007018197124885747
170	0xbfc73616a6b1ff12	-0.18133814944666732
171	0x3fb92be2328149be	0.09832586033852572
172	0xbf92e44330fbf2ce	-0.018448877205616658
173	0x3fa88dc5e72fbbf3	0.04795664260006296
174	0xbf6bdcbdfab8f6a8	-0.0034011564764842746
175	0xbfa355e9ed25b5fe	-0.03776484508385279
176	0xbfc2e75eb8d42c47	-0.14768585228771
177	0xbfb72e13c68aa004	-0.09054683301167193
178	0xbfb1dd07898f84f0	-0.06977889164365414
179	0xbfda1362a1e5a846	-0.4074331837679249
180	0xbfc13349d8c7c744	-0.13437769970874502
181	0x3f74e3cfba21abd2	0.0051000704134862174
182	0xbfc2ffddc1b459b6	-0.1484334178755497
183	0xbfaa59cd53f8fc48	-0.051466385365067924
184	0x3fbc1fe80bdd70c2	0.1098618535010614
185	0xbfb735cf6cb3c75c	-0.09066482929099834
186	0xbfbc422c2d53e48f	-0.11038471323617415
187	0xbfb951129ca911cc	-0.0988933212730167
188	0x3fb0fc11980de038	0.06634626352558903
189	0xbfc5834367ef9589	-0.16806833815568847
190	0x3fae9cb17273d3cb	0.059789223881956476
191	0xbf96e7f76ef1dbc5	-0.022369257113009206
192	0x3fa4939781e2f3b4	0.04018853626755661
193	0x3fb551dbfb568354	0.08328032385044298
194	0x3fc02b29af04d527	0.12631722493976236
195	0x3fc91c01a11d9443	0.19616718642206096
196	0x3fc135b7c561f494	0.1344518388540662
197	0x3fa2b74b823fe35f	0.03655467953644264
198	0xbfaf38f60a5a0e7d	-0.06098145367016359
199	0xbfa3ed09711c9da8	-0.038917822892752085
200	0x3fb52b7ba8a4c521	0.08269474856640048
201	0xbfac632b4ccd5881	-0.0554441004994013
202	0x3faaef0d0ae55d1d	0.052605063991615554
203	0x3fbae5a7355abd0e	0.10506672909354028
204	0x3fb75286f1b16dac	0.09110301399908022
205	0xbfa6e628678d2b36	-0.04472471489005729
206	0x3fb412a098dc3315	0.07840923053681721
207	0x3fc20dd873b38e0f	0.1410475315998245
208	0x3fb71f944c8dfb0d	0.09032561177262384
209	0x3fc32b821dd05b83	0.14976526695019396
210	0xbf96bb06110733c3	-0.022197813786806863
211	0xbf76a96d0db6abbe	-0.005532670965673723
212	0x3fb7a5da36673c37	0.09237445667462017
213	0x3fc21dc2106f22ac	0.14153314402053263
214	0x3fbccab06011b5a4	0.11246778817595399
215	0x3f7d6cae74dc5ad6	0.007183724852231696
216	0x3fa9b9b9d7569750	0.050245101486594224
217	0xbf9d2d85d92ba8a5	-0.02849396837238118
218	0x3f8bd4bebb962c2d	0.013589372729958605
219	0x3fb9aae302374e8c	0.10026377491095156
220	0x3fb680edf4e23283	0.08790480831721408
221	0x3fb0e4f464c6bfba	0.06599357090340066
222	0x3fbff264693f027e	0.12479236192212714
223	0x3fc8d884b1cd4dc7	0.19410761529671403
224	0x3fc5bd26331f0685	0.16983487602378858
225	0x3fc818806d8a5edd	0.1882477316728374
226	0x3f831c7fcceae626	0.009331701699340899
227	0x3fbddfdda358c9d4	0.11669717061958035
228	0x3fc92fa1a68f7195	0.1967660964281889
229	0x3fb4d65a2e216437	0.08139575601798375
230	0x3fc81e6b12fbaefd	0.1884282915774448
231	0x3fc5481b65da700a	0.16626303170494366
232	0x3fcc3935eeaa8462	0.2204959311830264
233	0x3fc77c202899482a	0.18347551329003525
234	0x3fc3583ccd518d88	0.15113029504128073
235	0x3fb3261ad1426aa0	0.07480018242714914
236	0x3fc263ff81b2d54d	0.14367669899881222
237	0x3fcb30eb52bfb2e2	0.212430396465968
238	0xbf8b90c4fb0572bb	-0.013459719572602826
239	0x3fbec7531a1363d5	0.12022895228018567
240	0xbf9a5ccd74c08c52	-0.02574463868235128
241	0xbf64d495ad168df3	-0.0025427745210480023
242	0x3fb30706dbae6e2f	0.07432597029986064
243	0xbf978e1a0003887c	-0.023003011942713134
244	0x3fc2b2eca7d336a1	0.1460853404482139
245	0x3fc13a9c8db5d037	0.13460118216937797
246	0x3fc9e652604816a7	0.20234136296510494
247	0x3f995b0dc324897a	0.02476140502506883
248	0x3fcb854a7f2aeb82	0.21500521859510618
249	0x3fc27e984cc97dca	0.1444883704125302
250	0x3fc94ecaef86f893	0.19771706290879773
251	0x3fcfb2dfa42b5f67	0.24764628902516536
252	0x3f9f4111ee86c3cb	0.03052166002607119
253	0x3fb32016d79be0e6	0.07470839275254412
254	0x3fb245ceb8ab1bce	0.07137767799859704
255	0x3fc51a02dffec64c	0.16485629975572846

transform_generator.6.bias f8 [64]
0	0xbfbcc998cc1ed63d	-0.11245112403306563
1	0xbfc4ebda939432dd	-0.16344768720627814
2	0x3fb374b5d8e92d49	0.07599960847544653
3	0x3fba4e1ce7f37b0f	0.1027544084822518
4	0xbf89b4ad9feb8b11	-0.012551647608636725
5	0x3f9d211aa63c25e3	0.028446594616104447
6	0x3f81938523722822	0.008582153457855016
7	0xbfc817f5a4117492	-0.18823118697301716
8	0x3fb0482749824fd9	0.06360097450880121
9	0x3f9077239c6e4288	0.016079479620716458
10	0xbf8f5ffc633a4555	-0.015319797304331454
11	0x3fa682b0dbe8e04f	0.04396584209865805
12	0xbfa4aff9b7031e16	-0.040405086126664866
13	0xbfc6225eb8dae0ab	-0.1729238894092807
14	0x3fbc93f2eed92040	0.11163252192739126
15	0xbfc0b912d532dcdd	-0.1306479969987099
16	0x3fc3c80d2cb971f4	0.15454258617218353
17	0x3fc7ea39ed7e860a	0.18683551880262456
18	0x3fc4b21f651c028c	0.1616858714769659
19	0x3f993da135752cc7	0.024649161231803853
20	0x3f8fb4cabbf52500	0.01548155199147283
21	0x3fbc4732fb224c6e	0.11046141272736218
22	0x3fc185930001fec1	0.1368888616598181
23	0x3fae628adfd4585f	0.059345569441732186
24	0xbfc691fed6c38351	-0.17633042799482238
25	0x3fb8384d541e09b7	0.09460910133024113
26	0xbfc47fcce0d9dc6c	-0.1601501558213586
27	0xbfb8ac91a4264f09	-0.09638319261130958
28	0xbf35fb907f9177e6	-0.00033542897978644374
29	0xbf902cdeb98cd5f9	-0.015796165537912164
30	0xbfc3a203ffb967bb	-0.153381824364997
31	0x3fa0b198dfac5c31	0.032604958824031256
32	0x3f9f9ea4bc4e6f11	0.030878614419278586
33	0x3fc9d5461f45f9f1	0.20182110335367967
34	0x3fc1b7dbbbbb41ae	0.13842341105056505
35	0xbfc40e2593e82579	-0.15668172571194441
36	0x3f8b353adbf6ac8e	0.013285121762996146
37	0x3fcb8fe9b9a1c87c	0.2153293758779603
38	0xbf749bc336c6b51a	-0.005031359247749801
39	0x3fb5cb4713924f4d	0.08513302066631674
40	0xbfb1825be2f582ae	-0.0683953694438155
41	0x3fcd622fa65ff8b3	0.2295589029672037
42	0xbfa074404b3eda42	-0.03213692587398899
43	0xbf72a56e6fe5a563	-0.0045522989224563186
44	0xbfb60eb758e31037	-0.08616205139247844
45	0x3f99748dc1706388	0.024858679706173642
46	0x3f6f49ce11c9f844	0.0038193726343811758
47	0xbfc1ee0728f32522	-0.14007653712750662
48	0xbfc1f194d08c7f02	-0.14018497641608724
49	0x3fa4bc80e8116f46	0.040500667885423655
50	0x3fc631c9b956b514	0.17339440870038259
51	0xbf773cc22bb671a1	-0.005673178176405364
52	0x3fb6edc9c85cdc96	0.08956586019199828
53	0x3f6d887cea97f7e3	0.0036051215909074104
54	0xbfc3be1a0f81d70c	-0.15423894650637526
55	0xbfb693bb44503509	-0.08819170396619226
56	0x3fc78dbb5995ff23	0.18401281236946784
57	0x3fcc08249a164e0f	0.21899850391183448
58	0x3fa9d998056b6f77	0.05048823419721676
59	0xbfc34a0cfaa3bd08	-0.15069734800588486
60	0x3fba2867f56921cf	0.10217904798003662
61	0xbfca1ed4e3c693e1	-0.20406590577945763
62	0x3fb6cfda5e84e729	0.08910908515545359
63	0xbfc537f84d6c071a	-0.16577056675310403

transform_generator.9.weight f8 [4, 64]
0	0xbfa6137f071c59e0	-0.043117494218836816
1	0x3fa8f9ad6fa76c90	0.0487798880382907
2	0xbfb335895a981484	-0.07503565274972074
3	0xbfcd5ea793531347	-0.2294511288984273
4	0x3fa3000b167d3eaf	0.03710970544363811
5	0xbf84199b3e2ef99d	-0.009814465365590769
6	0xbfaeb83743eb9fbc	-0.05999920562845726
7	0xbf9d9a7e5261d23d	-0.028909658220486845
8	0xbfc2460aec7f7e9a	-0.14276253268962052
9	0xbfc8ef8c695d8747	-0.1948104395369745
10	0xbfcbf15b33662d79	-0.2183031083080598
11	0xbfc747cf4ebfc20b	-0.18187896104019816
12	0x3f51d426e7236c58	0.0010881786261538653
13	0xbf90b0598b4e4d2e	-0.016297721030764815
14	0xbfc19c6876ad324b	-0.1375856952166877
15	0xbfaa2d282a69b949	-0.05112576978432288
16	0xbfc9a64f10e4a885	-0.2003878433691321
17	0xbfd0301c55025a7b	-0.25293644239119545
18	0xbfc8b9d61e40228d	-0.1931712768275883
19	0xbf97637ed9820e00	-0.02284048273624073
20	0xbf870029db1b1969	-0.011230780600624173
21	0xbfc8fc4f0803e75e	-0.19519985095376574
22	0xbfcdb4ca4adfc7b1	-0.23207977920497805
23	0xbfc7b943777500e5	-0.1853412946020462
24	0x3f90edac48e99a66	0.016531650495745252
25	0xbfd5d7c5ed0e5242	-0.34129474782938385
26	0x3f8b7e521d8db55b	0.013424531485464788
27	0x3f86bb15f91c74a1	0.011099025406617282
28	0xbf8884eb8d599bba	-0.011972275019798907
29	0xbfa6f83a5c841175	-0.044862579148715755
30	0x3fa804c3f1627ced	0.046911357131870314
31	0xbf9003bddfa319fa	-0.015639273428655877
32	0xbfc774ebbb462811	-0.1832556404518191
33	0xbfcaaade3ec715e7	-0.2083394819766646
34	0xbfc40546bc287121	-0.15641102015877897
35	0xbf9616cc66c5fc1a	-0.021571344158925233
36	0x3faadda78f6f796f	0.05247233987732868
37	0xbfc48431789c32d2	-0.1602842177311659
38	0xbfc555bf2041a900	-0.16667927813552552
39	0xbfc042fe39966ba8	-0.12704446613210263
40	0xbfa0c601d98a1cf2	-0.032760675244441276
41	0xbfe19b9ee2fe6fc8	-0.5502466615175701
42	0xbf9a49254c5e5253	-0.02566965368858327
43	0x3fa8a769dad5ce58	0.04815226360633734
44	0x3f96c6db41327616	0.022242952207866727
45	0xbfa2ea3af9985c8f	-0.036943285911712136
46	0xbfc7a1120eb05b0d	-0.18460298268538403
47	0xbfaafb31a69385cb	-0.052697707733169695
48	0x3f718fb095d22dbf	0.004287423883521268
49	0x3faf5de64b3d6887	0.06126327198462982
50	0xbfc32e5d0e13a606	-0.1498524016126767
51	0xbfd09654298a26e2	-0.2591753392849637
52	0xbfb257a5256ae13e	-0.07164985812676591
53	0xbfbda8333739717e	-0.11584777925731335
54	0x3f821f028e7c96ac	0.008848209355686386
55	0xbfe23e90f0586037	-0.5701374716036359
56	0xbfc59c64c552bbc3	-0.16883525500221994
57	0xbfc8df5b8837a079	-0.19431633139834384
58	0xbfc991588c299378	-0.19974810451381209
59	0x3f866004a2942f0b	0.010925327502739465
60	0xbfcace8fa7826336	-0.2094287460247643
61	0x3f9fff53f7fc1f07	0.031247436533731434
62	0xbfcacfeeaf101d2c	-0.20947059200282447
63	0xbfabc2d4f47e82a1	-0.05422082409427743
64	0xbfccf6e8b9ef2f78	-0.2262850673563397
65	0xbfb57df7f7435a14	-0.08395337855049717
66	0xbfc94f60a6fd5226	-0.1977349105242336
67	0xbfac1fccae19bcd7	-0.05493011117220597
68	0xbfc4642860302a7a	-0.15930657097517892
69	0x3f95567f6dc79caa	0.020837775302336915
70	0xbfb8cb7362a8383b	-0.09685441168423463
71	0xbfa5549d1af6b7bd	-0.04166117624423247
72	0xbfb2a63881602659	-0.07284882696708318
73	0xbfb3c5ef6e8d119d	-0.07723900269508595
74	0xbfc43caa7e3ee6e0	-0.15810137905446364
75	0xbfc580ff51af78c1	-0.16799918640658087
76	0xbfb2de7366381840	-0.07370682950576768
77	0xbf7201f1d828c5a0	-0.004396385864809643
78	0xbfaf46a718db47cb	-0.06108591249871117
79	0xbfb7a086c7d547bb	-0.0922931897996752
80	0xbfcb66ef8d4f85e4	-0.21407884979184566
81	0xbfb0e120317a3f58	-0.06593514640758025
82	0xbf71c36f60cb74c7	-0.004336772032471354
83	0xbfc8364ce47b8d87	-0.18915711552027067
84	0xbfbfce8e5c91652a	-0.12424554595908846
85	0xbf970d2352b87ade	-0.02251105492006899
86	0xbf901da6058731d1	-0.0157381001352393
87	0xbfa6b37d09b5e17d	-0.044338138041839927
88	0x3fa9519e4d36517f	0.04945082371264941
89	0xbfbbb7af36bee282	-0.10827155195773666
90	0x3fafa3d258ce3ab6	0.06179673513462573
91	0xbfb19d34ca7f2e28	-0.06880502647180065
92	0xbfb206aa86d8aa2a	-0.07041421692034847
93	0xbfbcc8ff06adee84	-0.11244195855209155
94	0x3f909c7f07e096c3	0.01622198567942835
95	0xbfba83df9e3abc3e	-0.10357473004363357
96	0xbfceb8360fc8f1a2	-0.23999667902706984
97	0xbfb9014d5f905143	-0.09767612059687729
98	0xbfcf4b1ad2641b7c	-0.24447951577186788
99	0xbfad5ed9b4d31892	-0.057364276240648895
100	0xbfc0e7a6aa18f1e4	-0.13206942849673375
101	0xbf87b24288fa5cd8	-0.011570472531543904
102	0xbfcdbd093326f590	-0.23233141896882303
103	0xbfb9bc513aa6fa26	-0.10052974397601896
104	0x3fa03521a7545911	0.03165536086651078
105	0xbfdc81e6ece939b2	-0.44542859207003993
106	0x3f57a04bfefbae37	0.0014420263432225586
107	0xbfaab4afdbf4af0f	-0.05215978202826765
108	0xbfc7646130c70565	-0.18275084382734544
109	0xbfc7245b76a529d8	-0.1807970361063116
110	0xbfc235064e44ef45	-0.1422431833433341
111	0xbfc7a8ff8de9b3e3	-0.18484491757717966
112	0xbfa5be58a3077a22	-0.04246785154440526
113	0xbfc371adaa1eac72	-0.1519066887534311
114	0xbfbba3c13aee0a2b	-0.10796745003430235
115	0xbfd52b34d4fc0c34	-0.3307621078421932
116	0xbfc2c196578f3476	-0.14653281474457786
117	0xbfb1a1237ff5821a	-0.0688650309944098
118	0x3f6598e740efd4b4	0.002636386554054038
119	0xbfc72bc6599437e0	-0.18102340101216807
120	0xbf839568c503cc53	-0.009562319290557541
121	0xbfc81170364809ae	-0.18803217554530022
122	0xbfa17a68df34618b	-0.03413703655877772
123	0xbfbab99c649eee4e	-0.10439469772875862
124	0xbfc68b9d1f01b611	-0.17613567365644703
125	0xbfb7ad97cacb8aa7	-0.09249256802608362
126	0xbfc1f10555b2cfbf	-0.1401678722810384
127	0x3fa3f9cf6d5f5679	0.03901527605164019
128	0xbf8411ab75425d5b	-0.00979932738873284
129	0xbfc4e536162ac1fd	-0.163244973014585
130	0x3fb1babdd89ab798	0.06925570047562102
131	0x3fcab05dbd07efd5	0.20850726823834856
132	0x3f97ab4d5c1280db	0.023114403481145778
133	0x3f9fc6e4b4c81638	0.03103215554621938
134	0x3f76880080798748	0.005500795326584491
135	0x3fd7836fc810cd5b	0.36739725625667113
136	0xbfaeee89ed990115	-0.060413656476614154
137	0x3fd55b2f7dfb35b5	0.3336905222211855
138	0x3fd3f9b5ae7e6540	0.31211607017901954
139	0xbf8c49c3bb09ab52	-0.013812569756927271
140	0xbfc653604ac14a19	-0.1744194378866986
141	0xbfc1c25bd0a820f3	-0.13874385536497122
142	0xbf96443c5e8ae823	-0.021744673986838003
143	0xbfc05f911b213058	-0.12791646790208477
144	0x3fb9fb71b4792154	0.10149298339923024
145	0x3fc62b3ce8649437	0.17319451663311877
146	0x3fbf05a768fc0f40	0.12118002236462377
147	0xbfa297d49987a3a0	-0.03631462453979073
148	0xbfc7bbd6137b1c54	-0.1854198069688403
149	0x3fce92741b83f455	0.23884440749671634
150	0x3fa64b71949461e5	0.043544339549217694
151	0x3fc8dd3456f17253	0.19425062413474112
152	0xbfc6df29429e3bac	-0.17868533852421586
153	0xbfd5b524d5d616a5	-0.3391811455006553
154	0xbf9f1b44063add78	-0.0303774479677634
155	0xbfba4c48c5706810	-0.10272650547304374
156	0xbfc315a97072ba1f	-0.14909856787331052
157	0xbfc62f3ffbebf7bf	-0.17331695366732267
158	0xbfbf1c0e4c4df7a6	-0.12152184832481669
159	0xbfc027961620aa64	-0.1262080772442743
160	0x3fdb2f0109d2d710	0.42474389991126404
161	0x3fd3e9a3da0dc635	0.31113525671307524
162	0x3fcdc1c8c44de6d7	0.23247632584734987
163	0x3f60449e3b08409d	0.0019858446542074374
164	0xbfb3544f242f8169	-0.07550520547329644
165	0x3fc769e68e9033c6	0.18291933022592682
166	0x3fc41d548a9faf1a	0.1571450878976684
167	0x3fb6b89864ed9e84	0.08875420059268363
168	0x3f96d30b4c624fd2	0.02228944448195575
169	0x3fc8f63de0aa83d8	0.19501470060370596
170	0xbfc20145574e9090	-0.14066378367454435
171	0xbf93d2edd53a72c2	-0.019359317912505565
172	0xbfc56fb3b4c16dea	-0.16747137380558225
173	0x3f9ccaf83c07d214	0.02811801782987018
174	0x3fc90a54750d4bc6	0.19562774386812815
175	0xbf9d288c68f006b7	-0.02847499266136452
176	0x3fa4519c189ba413	0.03968513298406875
177	0xbfa7763ba9ba5b19	-0.04582392165064259
178	0x3fc0e4016faef57d	0.1319581790284409
179	0x3fd35c7a1987b4dc	0.30251934521841206
180	0xbfccea6f540f5387	-0.2259043846558166
181	0x3fc9e1460ec688f4	0.2021873066087846
182	0x3f96769dbf6481cf	0.02193685990016708
183	0xbf9f69020fe0bb30	-0.030674011439425886
184	0xbf89c70d7af5b418	-0.012586694064078016
185	0x3fc89142eaa7ccc0	0.19193302591120265
186	0x3fd4869a3c537507	0.3207154835816514
187	0xbfb3e58367bed748	-0.0777208450589032
188	0x3fca64433bd956d5	0.20618477270425353
189	0xbf96825c49a626d1	-0.021981660838298837
190	0x3fd6ba71e01ca8ff	0.3551296890824602
191	0xbfb0389619d503fb	-0.06336343889871891
192	0xbfb00ba4ec8268ef	-0.06267767690806968
193	0xbf7c0de2f4ce7a3f	-0.006849180744124938
194	0x3fa5735362bfe777	0.041895490459821376
195	0xbfb7cc3304e4338b	-0.09295958394450403
196	0xbfb4fb95ed078555	-0.08196389233446173
197	0x3f91d05c483295f7	0.0173963946405333
198	0x3fbd3bed68daf809	0.11419566926903725
199	0x3fb39668ada6f91d	0.07651380767399414
200	0xbfb8394dc722b5f7	-0.09462438689907758
201	0xbfa376dee2bf154b	-0.03801628606701487
202	0x3fb621cf8b0db219	0.08645341057644663
203	0xbfb288a94c29c483	-0.07239778623058339
204	0xbfbe092c6043f645	-0.11732747411948548
205	0x3fbd4066a39850e5	0.1142639302636926
206	0x3f8821929debe33f	0.01178278488576867
207	0xbfa5024e41b0f78f	-0.041033216017679945
208	0xbfbb17db186f79a3	-0.10583276125496481
209	0xbfb5f4f1f7c0a9d3	-0.08576881693503617
210	0xbf8f98be2095596f	-0.015428052300802545
211	0x3f9f8d117aba7eef	0.030811570277932295
212	0x3fb092683a281dc3	0.0647339956268445
213	0xbf90e505448dfa37	-0.01649864417003696
214	0x3f9f8827b78c3077	0.030792828157288867
215	0xbfa32bbdf68e5d83	-0.03744310030668443
216	0xbfbc4934beb0fa0d	-0.11049203544187254
217	0x3fa4c37d6cf093fb	0.0405539699061492
218	0x3f8b0b352d01812f	0.013204970775576001
219	0xbf80990fa130d88f	-0.00810444079079911
220	0x3f5f60c00aeee97f	0.0019151568810530093
221	0x3fb75cdcf79b99a1	0.09126072926628705
222	0xbfb573ffaf30cf8d	-0.08380125071636098
223	0xbfb8674678aa8647	-0.09532585569334016
224	0x3fb895a4fc3fcf55	0.09603339346341262
225	0x3fbb39cead909e09	0.10635081994461627
226	0x3fa335ac966f4997	0.037518876422512885
227	0x3fa308c63569a5d3	0.037176317234137855
228	0xbfaeb648fd1d88e3	-0.05998447503840667
229	0xbfb9af516f9dc7d9	-0.10033139204986642
230	0x3f9b9fa9c0174067	0.026976253842633826
231	0x3f9444242cec3d3f	0.019791188470717144
232	0x3fbd9e4e4f892841	0.11569680635253211
233	0x3fac6deeaa9cb33b	0.055526216818498196
234	0x3fb8de5935ef998b	0.09714276854319885
235	0xbfb35b61d369fb73	-0.0756131306788868
236	0xbfba86cbed4d3365	-0.10361933272834063
237	0xbfb63764c26986a9	-0.08678273912803526
238	0x3fa504812d5b587f	0.041049992357941704
239	0x3fa67cac58853c4b	0.043919931226462504
240	0x3f37e984d3d6dbff	0.0003648709569818442
241	0x3fa0d68d4194c017	0.03288690019178391
242	0x3fb3893eeb50a1dd	0.07631295437807446
243	0x3fbd6f84793f8b4b	0.11498287162934877
244	0x3fb17fb9412fb42d	0.06835515824759915
245	0xbfae64aacb469eeb	-0.05936177951235585
246	0xbf7f120105f8e51f	-0.00758552932489323
247	0xbfb5273098174253	-0.08262923920779856
248	0xbfb13795b9ff89b5	-0.06725440779658849
249	0xbfb5ed6d2aa6f961	-0.08565408984484214
250	0x3fb3b994c555ea3d	0.07705049340976529
251	0x3fb370591188d677	0.07593304327095916
252	0x3fa963175e23135b	0.04958413147099946
253	0x3fb3abc12ab64a67	0.07683951657080855
254	0x3f8bb7f0fc22db1f	0.013534434027275886
255	0xbfb8ad68b06d5a91	-0.0963960104685191

transform_generator.9.bias f8 [4]
0	0xbfbcd3231a48b469	-0.11259669677447594
1	0xbfb2678c5b95d53d	-0.07189252124756691
2	0xbfd38bbf2c15992c	-0.30540446572412594
3	0x3fb158cc9e19277e	0.06776121959515355
