models/QM_Poly2_1000[1980, 1990]_upscale_1by4_Wnoisy001d_bci.pth (torch, 39828 bytes, 6 tensors)

coeff_generator.0.weight f8 [64, 1]
-0.9437461070193813 -0.8141245861273457 -0.8128829334921852 -0.9548947504080949 -0.007711285337413764 -0.04643049242504071 0.8504163213161916 0.7974500839533012
-0.7728581834770885 -0.7347186556926028 -0.7459480839996151 -0.24926593589899879 0.7450945407073455 0.8010571627070511 -0.24493408945888115 0.28492825701309343
-0.88383550913561 0.4624188629130399 0.18675108766751666 -0.12544200441869566 -0.790475164051645 0.30680535521843766 -0.3755226385540748 -0.3218273665348825
-0.9373196691451687 -0.9192670646800855 0.8037625006978436 -0.6356932661512557 -0.4699101765032782 -0.6790779357443835 -0.43623447900478635 -0.5331836218841043
-0.4886147235322365 -0.3048093254786027 0.22881656960317118 0.25559778210190737 0.7580607705251872 -0.8749537039174858 -0.32145733302070945 -0.07533741206643414
0.8085425333389197 -0.8154291928346322 -0.08455420694681223 -0.48368732785045143 0.9027470280558951 0.7513161372460979 -0.23144395336544285 -0.8013866348822939
0.325295989704444 0.1638689339764516 0.3585839536099601 -0.1160000465016598 -0.7522910025291036 0.21282761255155755 0.05835918595915735 1.0569263850084074
-0.5947768631267726 -0.25418994824002644 0.311024928776051 -0.38692840664103334 -1.0378842994400923 0.5056894818621073 -0.49116078686602743 0.20156636304881195
00000000: 9404 2c09 2b33 eebf e32a 0901 4f0d eabf
00000010: 526a da11 2303 eabf c6fe 836f 7f8e eebf
00000020: 325c 5965 de95 7fbf 3f65 01cd bcc5 a7bf
00000030: 9934 014a 9c36 eb3f 44b3 d809 b684 e93f
00000040: ac5c cf15 41bb e8bf fbbe beb2 d082 e7bf
00000050: c459 2984 cede e7bf 47b5 5839 f2e7 cfbf
00000060: a084 9881 d0d7 e73f ecb4 81a1 42a2 e93f
00000070: 2762 f30f 005a cfbf 12f6 64ba 433c d23f
00000080: 94fd d867 6148 ecbf fcf5 5049 4598 dd3f
00000090: f71f 03ab 75e7 c73f 2ff1 42cd 7b0e c0bf
000000a0: 98dd 3c92 924b e9bf 92a7 b9ed b2a2 d33f
000000b0: 13d5 df1a 9008 d8bf 7368 8ecf d198 d4bf
000000c0: 8508 9cd1 85fe edbf 85e8 62c3 a26a edbf
000000d0: 05f3 c722 6cb8 e93f b106 8d67 9957 e4bf
000000e0: 1fe8 0822 0213 debf 56a2 aea6 01bb e5bf
000000f0: 59a4 2d05 44eb dbbf 6f29 5819 d70f e1bf
00000100: f98f 7ab0 7645 dfbf 1d92 1cf9 fe81 d3bf
00000110: 6740 9d81 dc49 cd3f 6db3 c3cc b65b d03f
00000120: e028 39a9 0842 e83f 91de fae8 9eff ebbf
00000130: 7288 18c7 c192 d4bf a598 fd08 5049 b3bf
00000140: 67b3 4397 94df e93f a4b5 6df6 fe17 eabf
00000150: f665 9331 58a5 b5bf 50de a6b1 bbf4 debf
00000160: e0f5 41bc 4de3 ec3f aeba cd23 c80a e83f
00000170: 17e0 4799 f49f cdbf 95ab 8895 f5a4 e9bf
00000180: 0b3c 5345 a6d1 d43f df2e 2140 a8f9 c43f
00000190: 9e02 681c 0af3 d63f b521 0fd6 2db2 bdbf
000001a0: 7000 9e94 c412 e8bf 171f cc69 ef3d cb3f
000001b0: 5145 3b56 41e1 ad3f f53f 1ea4 2be9 f03f
000001c0: ab80 f17c 6908 e3bf 136c aaea a544 d0bf
000001d0: 195e 551a d5e7 d33f 06aa 1a5d 6fc3 d8bf
000001e0: 7808 3291 2c9b f0bf 0bed 50b5 9b2e e03f
000001f0: a3b3 2aa7 2d6f dfbf fd57 a234 edcc c93f

coeff_generator.0.bias f8 [64]
-0.23218543865023344 -0.17688087324354615 0.2856794460620384 0.8588967132326365 0.4194911291284356 -0.7111144796357376 0.054530220136688616 0.9994884566804692
-0.4414418224853417 -0.8699853908134432 0.34772970760341326 -0.9866611574406288 0.18337718996993987 0.22681485329971146 -0.7243894089917846 -0.3402965264282934
0.33166805697776913 0.0891759528914783 0.4183630084735609 -0.664993886167283 0.7235358756409906 1.0109443477947455 -0.5331091010114808 0.3753461458038819
-0.9765982043805859 -0.8076778574687249 0.9180615293938782 0.39058068694598974 -0.8244622023300954 -0.06863696911122 0.8215350546155666 -0.41323276478424864
0.05360068920093733 0.14796619069103198 -0.883261261619084 0.8632353660282963 -0.2059982201427452 -0.3230188738008503 0.5420448767942894 0.04550493333521283
0.45235581768764677 0.16102878466541876 -0.131606840793501 -0.20247791518209812 0.09720576127856193 0.2496674387986507 -0.17804461022859952 -0.6376134105035416
-0.9584335094890173 -0.9389226001418229 -0.6382486429691285 0.562623759316581 0.7807911909678918 -0.8090406260395568 0.8616042793114143 0.20587791340826642
0.3349508634109437 -0.6100202977201068 -0.3977325235627316 -0.2873802589528403 0.6824845906989643 0.3734747753795274 -0.4115110849677537 0.6125227158955998
00000000: f419 cea0 40b8 cdbf d339 ef4e 08a4 c6bf
00000010: 5774 7e71 9248 d23f eb3b bff5 147c eb3f
00000020: 4d66 2452 f1d8 da3f f0eb 3727 73c1 e6bf
00000030: bff2 4290 62eb ab3f 1282 4537 cffb ef3f
00000040: c650 aa33 9540 dcbf 1c54 319a ebd6 ebbf
00000050: 7e46 801a 3441 d63f bc1c 6e6b ba92 efbf
00000060: 2f6b e05c e778 c73f 92ab 95e4 4408 cd3f
00000070: 0e08 a6b2 322e e7bf 41ec fc14 6bc7 d5bf
00000080: 863b 76a8 0c3a d53f 692f 4239 3cd4 b63f
00000090: e201 d0a3 75c6 da3f 141c 2442 a147 e5bf
000000a0: 7e8b 6bb5 3427 e73f f5ab fdfa d32c f03f
000000b0: aa6a 41d1 3a0f e1bf 8a11 3ad7 ab05 d83f
000000c0: bcb3 a4e0 4a40 efbf 3c02 f13b 7fd8 e9bf
000000d0: 63cc 8e92 c260 ed3f 9f76 3823 46ff d83f
000000e0: f877 798e fe61 eabf aa16 a141 3192 b1bf
000000f0: 04ed 02e2 034a ea3f 9893 98d6 6772 dabf
00000100: e479 52ae 8c71 ab3f 5b41 f75e 8ef0 c23f
00000110: 0a49 0f1f ad43 ecbf aaf2 3ac6 9f9f eb3f
00000120: e50d 4651 265e cabf 2bc9 bd5a 57ac d4bf
00000130: 6077 597f 6e58 e13f f879 f630 6c4c a73f
00000140: 08ec c7d0 65f3 dc3f fe21 ed59 979c c43f
00000150: daa8 9132 7ed8 c0bf a047 efdb cbea c9bf
00000160: ce98 ac0d 7ae2 b83f ab15 4246 1af5 cf3f
00000170: 7098 1471 2aca c6bf ca51 333d 5467 e4bf
00000180: aeaa 54c0 7cab eebf 86b3 a268 a70b eebf
00000190: e899 086b 886c e4bf 0cf4 c68a 0301 e23f
000001a0: 97c8 c6ce 3dfc e83f 5a35 bf2a a9e3 e9bf
000001b0: bc8e 3723 4392 eb3f 1f53 871c 355a ca3f
000001c0: 607c 07bf d56f d53f 5054 9349 4985 e3bf
000001d0: 947a 501d 7374 d9bf 41fb 6d2b 7064 d2bf
000001e0: 926e a2ec e9d6 e53f 7db4 88be 02e7 d73f
000001f0: d030 f896 3256 dabf b784 1a3d c999 e33f

coeff_generator.2.weight f8 [64, 64]
-0.12556414030354876 -0.18243729858645738 0.029377695119210744 0.03414179991539482 -0.0639858540444316 -0.016031832203206944 -0.16528562880874964 0.04484781053455075
-0.06425511340431676 0.07070641563369902 -0.006696993308034704 -0.07257267786080686 -0.16203871602287442 -0.022518732564867222 -0.03376749607675216 -0.13535909274408275
-0.09672373757250323 -0.04893711204789842 -0.08811778306040076 -0.0033415065959669084 -0.0779320577950916 -0.018066188271094737 -0.0928687293110677 -0.029367427327618108
0.06117266785318664 -0.025187081362824073 -0.03202092214094741 -0.0027545599733112525 0.008400330645242425 0.014187795298046686 -0.014630350395129905 -0.028228902442484518
-0.1300901229641945 0.05552881561536578 -0.007788968226379949 -0.11841865779089504 0.04330602669487084 -0.010177894327430345 0.05433952709107603 0.06242027035940706
-0.05818243719798118 -0.14786710626744687 -0.022099530234690145 0.05791284973422041 0.006588017117355586 0.030782679581782577 -0.04652797029297933 -0.09938956016024812
-0.11487956076001883 -0.11650091198070704 -0.0793019150070964 -0.02433417330310778 -0.05908283964528955 -0.026555036417053004 0.008078101268004139 0.012694737836751208
-0.11894229507244614 0.03683414160667949 -0.017289225361835813 -0.17223858830553926 -0.003956706011514696 -0.10668570044793492 0.043615337064188874 -0.060587758808202115
-0.11095751730962446 0.02294852598990332 -0.041747059956627856 -0.02411553657716911 0.12436132002563902 -0.05454983039804819 0.12330554976694638 -0.018665980724571176
0.09520242821317344 -0.045340188069939995 -0.06565621411474835 -0.06525735032698489 0.17673374383945356 0.1439443694466891 0.07842993022602117 0.14795750260558838
-0.033466782102468305 0.018779971848080976 0.13675546678021852 -0.12465793509195582 -0.015252444439544256 0.010941826476757033 0.01076126314107925 0.1521135031292615
-0.020352819106256106 0.07860033112392247 0.047100336688287475 -0.01704208238201072 0.07280162668952879 0.09900290281060138 0.14206706531292035 -0.10450903936235652
-0.09138604993083217 0.10323303709376092 0.05640101181183534 -0.04891025971721836 0.1628904846387691 0.01797800474099703 0.12397141289107828 0.03073448550872603
0.05984475442927808 0.044059737225480504 0.08940937878909934 0.020484506987736375 -0.05949531927928516 0.1348272902233399 0.10681725068137378 0.05566608840829209
-0.11020332933133677 0.036433730073015445 0.09562199113940711 -0.043692914772849964 0.09437045575654135 -0.07589443555470608 0.16533888225011414 0.11232269871596554
0.05396792578771306 0.11584092084720828 -0.057109734767631766 0.045038722862128254 -0.0374443424701133 -0.05087637874553649 -0.09471137849249041 0.017302860240775854
-0.06375517318092101 -0.007744559047599907 -0.003680340002044063 -0.12063321960941349 0.008701285260142409 0.032572431403015294 0.0980149810509267 0.009784018431971546
0.09001175434002452 -0.10146893874766928 -0.0029411153052654178 0.046849573720812686 -0.065530830285552 -0.05597349446891072 0.017912676308257127 -0.09694263265050158
0.06602771419450155 -0.04583596210549081 -0.06768882212819331 -0.09865657950706365 0.10213234356331265 -0.09346770394552785 0.032043385122278244 0.07084835180861083
0.05773304541315443 -0.07147717146673531 -0.07652716888607798 -0.00624830264161516 -0.04556767081902718 0.027445474642833253 0.01118757188816291 -0.04094708182324255
0.0841213272730711 -0.11837078804914665 -0.008870452612475875 -0.0027252389389597893 0.046486533077420615 0.042608921180060925 -0.07001551071986688 0.013546088679909666
0.11170056719099526 -0.12463617739059586 0.04492240634741334 0.07289932275093504 0.08604195050955261 -0.07142789228511955 -0.06981865173432748 -0.010888321596015852
-0.11623535957987087 0.011262532417400743 -0.0292210919147606 -0.021282548777161233 0.010332155087102028 0.041114620390026384 -0.12163212966410537 0.04466894279247915
0.10458042434855376 0.0009904004183968471 -0.10317725797719039 -0.03620807069541212 0.008909709238242412 0.1016914743439832 -0.029235787111254793 -0.0006369066491887231
0.019000360669997385 -0.06194154423333004 -0.1640008189374017 -0.10889981723938728 -0.044031500777675224 -0.07178036485775331 -0.10577822694682334 0.015966798502920845
-0.09982066972707962 -0.036734155888889584 -0.17704240771694424 -0.10779140947286454 -0.06558730299569968 -0.005861929019911708 -0.0716471559814225 -0.08190753518822612
0.060761864561009064 -0.16222945942167719 -0.15805333843446417 -0.03390958745903668 0.02227178699369701 -0.017509003885984288 0.05435567673132615 -0.05300961334592155
-0.09057354354155951 -0.059752231938155674 -0.017108634675180083 0.010597079340461547 -0.07333779152577664 0.0052212973930309435 -0.07928955737663083 -0.10220330484182251
-0.18391774086874485 -0.0126303315770194 0.0061979226936821055 -0.016385504260108156 -0.11126537909339387 -0.017956123346145922 -0.03717132990553364 -0.04227576723021124
0.0579470463883719 -0.07148449276167583 -0.05957814516423708 -0.0792598361628743 -0.15507482177418908 -0.0005073184999757056 0.004566270289989321 -0.08547100941129197
0.12006131100191274 -0.11201331441532116 -0.08671619166075434 -0.10548037021235011 -0.08025931097388284 0.07446698386123411 0.013532416743363475 -0.119532958398233
-0.10889540132848112 0.040232818201133023 -0.17719283767448932 -0.1254112744708786 -0.18466553967851 0.04437468432798413 -0.10626447955988076 -0.16938096012941367
00000000: 77b9 135a 7c12 c0bf 0bed 7ffb 1a5a c7bf
00000010: 6352 13bf 2f15 9e3f 455b 20b4 087b a13f
00000020: d207 877e 6061 b0bf 47eb 070c a66a 90bf
00000030: 78be 1d59 1428 c5bf 2c11 16cf 4af6 a63f
00000040: 9f1c acea 0573 b0bf 659d c3ce d019 b23f
00000050: cc27 d573 4e6e 7bbf 8dcc fe7d 1f94 b2bf
00000060: 9785 0045 afbd c4bf f865 a78f 260f 97bf
00000070: f789 a226 f949 a1bf 1caa 465e 7253 c1bf
00000080: f3eb 9e09 e3c2 b8bf f1e1 9cff 480e a9bf
00000090: f1c0 7014 e38e b6bf 3fc9 91b1 a55f 6bbf
000000a0: e836 8af7 5af3 b3bf dfa2 265f f17f 92bf
000000b0: ff4c 36bb 3ec6 b7bf c254 c2af 7e12 9ebf
000000c0: cf50 ad1f 0652 af3f 37a9 f06a a4ca 99bf
000000d0: cd29 c4da 0b65 a0bf 7bfc 0120 bb90 66bf
000000e0: 5fdb 2c4b 3134 813f f7a9 75a6 7d0e 8d3f
000000f0: 6a0f cf63 84f6 8dbf d776 2b93 09e8 9cbf
00000100: 83f8 d40b cba6 c0bf ca72 1bde 456e ac3f
00000110: 5f85 d43c 53e7 7fbf 53b7 7266 af50 bebf
00000120: a293 bf20 352c a63f cb47 3ada 25d8 84bf
00000130: 5ff9 78f7 63d2 ab3f e82d 9ab7 8cf5 af3f
00000140: ea0d efa1 16ca adbf da52 c930 4fed c2bf
00000150: 63b7 755e 42a1 96bf d2d6 40c7 c0a6 ad3f
00000160: 1151 0861 09fc 7a3f 5917 59a8 7e85 9f3f
00000170: e7e4 839d 83d2 a7bf 2fbc 731e 9871 b9bf
00000180: b170 7134 bf68 bdbf b34b e9f6 00d3 bdbf
00000190: e134 775b 214d b4bf 5155 0cba 0eeb 98bf
000001a0: 990a 1020 1b40 aebf 7742 d253 3e31 9bbf
000001b0: 492e 1466 408b 803f 709b b8de b2ff 893f
000001c0: c084 7293 0073 bebf 3b62 27b3 ecdb a23f
000001d0: 1350 0246 44b4 91bf f7d4 f0ff e90b c6bf
000001e0: 30a0 b52e e834 70bf 81ee 5f0a c14f bbbf
000001f0: f3e3 96dc bf54 a63f 1103 3dd5 5b05 afbf
00000200: c116 173c b667 bcbf afdf 7882 d17f 973f
00000210: 5f8c 6fe2 de5f a5bf 989e b243 beb1 98bf
00000220: 2ec3 65ba 24d6 bf3f b3b9 1f93 f4ed abbf
00000230: de11 aad7 f390 bf3f e708 0ac3 2c1d 93bf
00000240: e5e4 acb3 2f5f b83f 3fe6 e841 d436 a7bf
00000250: a3ea 667c d8ce b0bf 315f 7aa9 b4b4 b0bf
00000260: 9eee f118 369f c63f 70c2 9be3 c46c c23f
00000270: af2b 59e1 fb13 b43f 68c5 717d 45f0 c23f
00000280: bbd1 43dd 8e22 a1bf 7915 a193 0e3b 933f
00000290: 7364 af00 3481 c13f bb26 681a 95e9 bfbf
000002a0: 5a4a 6a70 ac3c 8fbf cd69 0217 ab68 863f
000002b0: 2f64 094a 000a 863f 972e 9c8c 7478 c33f
000002c0: 8766 c591 5ed7 94bf edcb a1bb 261f b43f
000002d0: 8cdf 690b 891d a83f 3226 f2c9 7a73 91bf
000002e0: fd24 ba9d 20a3 b23f 5dd5 c715 4158 b93f
000002f0: c0c8 adeb 402f c23f 559c 32ba 1ac1 babf
00000300: d577 c37f 1365 b7bf a438 2ff6 7a6d ba3f
00000310: 93e3 62ea 97e0 ac3f 5940 d9fb c30a a9bf
00000320: 8032 2d6c 98d9 c43f cfc0 a379 d368 923f
00000330: 618f 012c 97bc bf3f 9d3a 7a68 dc78 9f3f
00000340: f3c7 38be f8a3 ae3f 7f57 e874 ff8e a63f
00000350: f5d7 da75 88e3 b63f 7719 59fe e3f9 943f
00000360: aba3 23a5 2b76 aebf ba0b 0f49 0542 c13f
00000370: fd3b 5316 6058 bb3f ab72 6bfa 4380 ac3f
00000380: c56e 630f 4936 bcbf b310 451e 71a7 a23f
00000390: 2cdf b8cc ae7a b83f 3e59 08f0 ea5e a6bf
000003a0: 78d6 2e85 a928 b83f 47e5 a756 d16d b3bf
000003b0: 63be 0212 d329 c53f 6e62 952d 2ec1 bc3f
000003c0: e415 9518 afa1 ab3f e5c8 9326 c0a7 bd3f
000003d0: c96d 38b6 7c3d adbf 7b2e 7ec3 500f a73f
000003e0: f0a1 a8a4 e72b a3bf cbb4 b3fd 770c aabf
000003f0: dd2f 2f41 013f b8bf 7a10 724b d7b7 913f
00000400: 954b c34f 4252 b0bf bf57 4d3d c2b8 7fbf
00000410: bf54 4d7e 3b26 6ebf 1d9b 0895 d1e1 bebf
00000420: dffa 00bd fad1 813f 571a 416f 55ad a03f
00000430: fbbc 2182 8217 b93f 8f9e 82b9 a409 843f
00000440: b15f 25a5 020b b73f 3127 7b4d def9 b9bf
00000450: ff9d 9841 f717 68bf d3c3 ecd5 aafc a73f
00000460: b3c7 f4e4 a0c6 b0bf 5ba5 5fd0 8ea8 acbf
00000470: c710 b65b b357 923f 9d71 d27c 3bd1 b8bf
00000480: 2d53 1839 31e7 b03f 1393 72ac cf77 a7bf
00000490: f368 58fd 0d54 b1bf b99f 84be 8e41 b9bf
000004a0: 25e0 7763 5825 ba3f f1a1 addb 7fed b7bf
000004b0: b37f 4e96 fd67 a03f 1955 fe19 1e23 b23f
000004c0: c75d e58b 2f8f ad3f e336 dcf1 534c b2bf
000004d0: 3d05 9fd7 4897 b3bf 1f1c 05f8 d197 79bf
000004e0: 0761 d84f a554 a7bf 8f81 0ea0 aa1a 9c3f
000004f0: 8feb 0c7b 82e9 863f 0b4d 9812 04f7 a4bf
00000500: 29b1 88ad f988 b53f 8d0b 7947 8c4d bebf
00000510: ff6c f8fe ab2a 82bf bf55 bb83 3d53 66bf
00000520: 373c 8b36 15cd a73f a7ef f825 d6d0 a53f
00000530: 372b c158 89ec b1bf 6f90 f33e 0dbe 8b3f
00000540: 75ac 078b 6898 bc3f 2983 ca11 28e8 bfbf
00000550: 9751 3dd4 1100 a73f 09a6 1daf 87a9 b23f
00000560: bdc7 8563 d806 b63f 4505 632d 1949 b2bf
00000570: 3b89 d999 a2df b1bf 8f45 4ec9 9d4c 86bf
00000580: e1ca 08bc 99c1 bdbf 0f17 3983 cf10 873f
00000590: b75c 8248 22ec 9dbf 6fcb e4ab 17cb 95bf
000005a0: 6f07 9261 0629 853f 47dc ecbb f90c a53f
000005b0: 8dd7 0c83 4823 bfbf 6395 e100 d9de a63f
000005c0: b1fb 605e c8c5 ba3f 7f9e 0b5a 0a3a 503f
000005d0: 03f7 b324 d369 babf d3e1 f93e dd89 a2bf
000005e0: ff67 5cee 403f 823f f1e4 96d4 7308 ba3f
000005f0: 8f08 1076 fcef 9dbf ffa0 4b9d c2de 44bf
00000600: 5066 c29e d474 933f 48e5 7d55 cdb6 afbf
00000610: d43a ed94 fafd c4bf 3b63 95c1 dbe0 bbbf
00000620: bbf6 aaff 4b8b a6bf 811a 8faf 3260 b2bf
00000630: 968f 5d29 4814 bbbf 8745 91b5 9959 903f
00000640: d24f f1ef d88d b9bf 9bbd 60bc d1ce a2bf
00000650: ac1e 935b 53a9 c6bf 55c7 79c2 3798 bbbf
00000660: 4e3d 6659 54ca b0bf aa72 e996 ad02 78bf
00000670: a3a7 cacf 7757 b2bf 2fed ed68 e4f7 b4bf
00000680: 1f5c 44da 2d1c af3f 73f9 5457 efc3 c4bf
00000690: 1ec1 cc7f 173b c4bf 9b98 50f2 985c a1bf
000006a0: 3aae 0b53 6ace 963f daa8 4d5c e1ed 91bf
000006b0: f373 d3db 81d4 ab3f 4c80 6377 1324 abbf
000006c0: 0dd2 64e7 d32f b7bf 2b24 1334 d897 aebf
000006d0: beed a209 ed84 91bf 1a6b 9ae9 ebb3 853f
000006e0: ed00 2af8 43c6 b2bf b36c bb58 ed62 753f
000006f0: 63d1 d807 524c b4bf 11b8 d6eb fe29 babf
00000700: 36bd 17d5 9d8a c7bf 31cb 7c68 eedd 89bf
00000710: df29 5c34 fe62 793f 31d9 b393 5cc7 90bf
00000720: 5a17 624c e37b bcbf 5c78 230a 1763 92bf
00000730: 6210 96dc 1e08 a3bf a589 555b 2ba5 a5bf
00000740: 9194 463a 3cab ad3f c321 95c6 ce4c b2bf
00000750: 6ecf 12d2 0681 aebf 74b3 3464 5f4a b4bf
00000760: 8001 fae3 7dd9 c3bf f9c5 da2e b29f 40bf
00000770: df94 f6d8 14b4 723f ab77 2d96 6de1 b5bf
00000780: 37a2 448c 56bc be3f e95f 2192 e7ac bcbf
00000790: 9c73 3747 0833 b6bf 9f98 6ef4 c200 bbbf
000007a0: f812 d5cb df8b b4bf abd5 50ac 4410 b33f
000007b0: 01e9 c93a e2b6 8b3f 7252 1d43 b699 bebf
000007c0: c3ff 63ab 91e0 bbbf f3af cc5c 6599 a43f
000007d0: f7dc 7241 41ae c6bf 1f78 3305 7a0d c0bf
000007e0: a906 cfd2 1ea3 c7bf 1704 eb53 47b8 a63f
000007f0: 6ba7 6f20 2634 bbbf a213 297a 46ae c5bf

coeff_generator.2.bias f8 [64]
-0.12238030205258948 0.05857377186154213 -0.08589278761882452 -0.01070685489590906 0.12002939335957763 0.1823572178853889 -0.1450587208159974 -0.025160453103545068
-0.0708074062797086 -0.07938933219390909 0.09326717047553645 0.11090784568415482 -0.0017250805878671338 0.026930608370857187 0.164072968830806 0.08739035841960817
0.004351033214391642 0.034802486215640784 0.13699569611450524 -0.022909185474394734 -0.037779525515493934 0.016772278176580967 0.13515392617701166 0.10409460503179203
-0.02886985575552962 -0.14228679786374868 0.1387324727468925 -0.11217624345682886 0.03924364571198932 -0.02793816538016149 0.029580719602663896 0.013282177799806682
0.032743765940826744 -0.024331851968983072 -0.003978974694220844 0.09558861128949979 0.01978825756699211 0.1711381080556811 0.07579285098572437 -0.030447469022278628
-0.17363594777650282 -0.11394155727756129 0.08059190663499054 0.0254443814209152 0.06140815399734617 -0.14703283141393544 -0.01717536229804799 0.0527017929112852
-0.1517098350329203 0.12214419574151632 0.06010163838589986 -0.025833593462854826 -0.13662679788404708 -0.0858363176565411 -0.0011561338944590675 0.007189654325210527
-0.032607622253724565 0.18028105905111041 0.04643758513908805 0.11043849169212913 -0.06353759265374298 -0.1173747344439797 0.10454304391819891 0.09964044519308798
00000000: ac8f fdc2 5054 bfbf b3ed 18a5 61fd ad3f
00000010: f4fd c8d9 11fd b5bf 02b3 f7bc 79ed 85bf
00000020: 48c1 090f 3fba be3f eeee 8037 7b57 c73f
00000030: 36c0 f3be 4891 c2bf 9ad7 ed6c a9c3 99bf
00000040: f032 4926 6f20 b2bf 1893 6cf9 db52 b4bf
00000050: 689e fb76 5be0 b73f 8250 15e2 7464 bc3f
00000060: 007a 4d2d 8343 5cbf 4c5b db88 b293 9b3f
00000070: a799 a4d1 5700 c53f 17df 65eb 365f b63f
00000080: da02 c195 63d2 713f d538 3ba8 a1d1 a13f
00000090: 3c95 4031 1389 c13f 6de5 8f69 8175 97bf
000000a0: 944a 1885 d657 a3bf 16c7 fd88 c02c 913f
000000b0: 0a9a 6d4e b94c c13f 9934 4dac f1a5 ba3f
000000c0: cbae 3d39 0f90 9dbf 3d1a bd2b 7436 c2bf
000000d0: a4a9 ab54 fcc1 c13f c803 0911 95b7 bcbf
000000e0: dc4e d13d be17 a43f a5dd 788a d29b 9cbf
000000f0: 1071 247d 684a 9e3f 069b 28ba af33 8b3f
00000100: c23a ba77 cac3 a03f 8fe2 d4f1 72ea 98bf
00000110: a0c1 eee2 414c 70bf e7c3 5bc7 7e78 b83f
00000120: 4456 617c 5f43 943f 4967 9980 dae7 c53f
00000130: fd18 4108 2967 b33f 3061 c90e 9f2d 9fbf
00000140: e815 8ee6 b339 c6bf 7195 291e 462b bdbf
00000150: 53cf 51d3 aba1 b43f 9e74 4788 170e 9a3f
00000160: c8ae 40ba e370 af3f a539 2ec9 f8d1 c2bf
00000170: 8ce0 770d 6b96 91bf a233 fdb9 bafb aa3f
00000180: 5a56 f955 3a6b c3bf 1d25 1b8e d744 bf3f
00000190: dd5e 9b56 a4c5 ae3f 7896 3e1c 1f74 9abf
000001a0: d4a7 55a6 fc7c c1bf 60d7 2471 5ef9 b5bf
000001b0: 0751 0e51 2df1 52bf ce24 2423 e672 7d3f
000001c0: fb31 5c3e f2b1 a0bf da3b 5b22 7313 c73f
000001d0: d487 f4ca aac6 a73f 068a 096e b245 bc3f
000001e0: 74af 83ea ff43 b0bf 9e46 d045 450c bebf
000001f0: 2028 a73a 55c3 ba3f d693 7645 0982 b93f

coeff_generator.4.weight f8 [4, 64]
-0.0487979172429985 -0.03820522176087777 -0.002206619981486218 -0.09354251858727478 0.030998051725117104 -0.029348243192067722 -0.022989433264304127 0.03379489470838657
0.021306639096494304 -0.14494106110752575 -0.045998290592847595 0.053163223949354965 -0.09991258100707405 -0.12593582043499918 -0.05618201963743168 -0.08343051307394506
-0.02440106219109791 -0.12943329826796182 -0.039496293666626506 -0.06205791149848196 -0.1047099399812116 -0.047172672842956245 -0.07521752305939161 0.04658529520235467
-0.01930669326259475 -0.1166301137413387 -0.06336778944000274 0.07760386397076159 0.012768160094831504 -0.05868099912894473 -0.04851276045815161 -0.09800697488342727
-0.14454484294309827 0.014997804166965835 0.06735144794765559 -0.020459679240105288 -0.13143893817623134 -0.011558309259136867 -0.13701829811038732 -0.13327572931505746
-0.0853382776331143 0.030977691464920687 -0.15348976699679845 -0.009019561503950467 0.02106892850023774 0.020715774041367742 -0.13765831036853085 0.0024433623267179293
-0.010952034765756069 -0.1545146354554049 0.021349055710070286 -0.11262072258724683 -0.08542720608089575 -0.1733372491615816 -0.0953484116202899 -0.09838471059779984
-0.1278711031040361 -0.14608775010914168 0.11408568240511725 0.12475838877848668 0.0023398322317795257 -0.06809932397409808 -0.06799913183814055 0.02956262207456301
-0.14482632967809322 0.033227850712760396 -0.07472072069306072 -0.1292198947655023 -0.04537950718397559 -0.10184961959660199 -0.02193766776662651 -0.04779684813532352
-0.17646058696377903 -0.003083656673864549 -0.11455806692074898 0.04644773338738272 -0.017416770100816045 -0.17580367751817763 -0.17092277750129617 0.03380543126723559
-0.04127352834552568 0.007978466265167624 -0.11054340835652574 0.058983592987489473 0.06390445054800538 -0.014811842284721424 0.05915651567538454 0.011618588547891641
0.050405474984515794 -0.041989830443331363 -0.027787497542916824 0.0417331465881055 -0.1698473084594184 -0.0033477262017715696 -0.055684266036819995 -0.13362378141532769
-0.13189525578282546 -0.05373051524456372 0.03800345820673067 -0.0032926602953800145 -0.005121676745721055 -0.12333500060333392 -0.07330976099832061 -0.054756113450839555
-0.15209926055227657 -0.09545543026466975 -0.09796011618371633 0.0036177293829903596 -0.06946311015405757 -0.16504020445649376 0.047124185289966196 0.06048374328506197
-0.06375989432216957 -0.181471152543515 -0.06116390710260752 -0.007462494479916259 -0.058325687317186535 -0.06616064718003742 -0.0569524085521068 0.05390004572498604
-0.029641059881387218 -0.16237073013364225 -0.07487277121665252 0.018973728403162523 -0.11261843974400877 -0.013406475645721975 -0.11118115435076363 0.012712385535091868
0.02175964583356428 -0.14447199095481866 0.08526230123263374 -0.018942419020346574 -0.0418702903849978 -0.09419626466888391 -0.0628770549881277 -0.11303932087548803
0.031182837295489166 -0.14372313327473304 -0.06991432076643798 -0.0386288713034408 0.03919859141458428 -0.10786298615508015 -0.031604875164380666 -0.157468366159565
0.0609606287531235 -0.14870115932482508 0.055238255431052596 -0.017438932428435014 0.04318149655555963 -0.08304114375176222 -0.01757051645014998 0.03824832191821859
-0.03970200144448246 -0.15620193314657682 -0.16046798399371817 0.08327968486755387 -0.18254658897769407 -0.08607243248520295 -0.008343933024905574 -0.016172089765138013
-0.07838639047976953 0.020563574337655058 -0.0793652854487751 -0.0648546375918088 -0.13782691889638274 0.04771704466855932 -0.07638243769465031 -0.16098612925503164
-0.1051722316310716 -0.011520488748424262 -0.035949712885289475 -0.057787279920964114 0.01756025582916223 -0.14387654635927713 0.036417310840261376 0.046208991624646555
-0.10156092017101855 -0.18256074449405857 -0.08403652897369676 -0.10177853939849717 -0.15722417155104748 -0.07908798244544891 -0.029570983180761744 -0.02027250523236099
-0.027576699362280774 0.049887156392297814 0.015144316062882522 0.08189901122159009 0.09044153559447472 0.07435964806852478 -0.16937161697514674 0.018782106904850132
-0.01864646201655328 -0.15425614327132806 0.0025508779299865942 0.05185815194231263 -0.11017053689202806 -0.14210315809598786 -0.03311863682431209 -0.011145716109455686
0.03382283770575637 0.028120181916529274 0.09016482002270258 -0.119059773874162 -0.1208366856094527 -0.008324184489065715 -0.10215866602938807 -0.05979769060938268
0.0119144826164082 0.0041947127522725365 -0.13255281496096236 -0.1061227862949852 -0.033765710113356516 -0.1666329304442212 -0.13457610574520001 -0.1253033996617773
-0.11057622531224275 0.05545302942089086 -0.06560485661149616 -0.11451192871456121 -0.0032145275685905804 -0.1502451166789706 -0.07745473696582326 0.04948419863556249
-0.12699264114059072 -0.08591661476108399 -0.0027789638463144024 -0.1139038075141025 0.00998040881856705 -0.13882885863531752 -0.18237295637095569 -0.13202548286331844
-0.012631344157641026 0.04889012238258925 -0.16792418959796598 -0.04910288922551844 -0.13257786130414884 0.05770684424547619 -0.006769564223316767 0.04217716925033412
-0.008098863236082115 -0.12305645367299665 -0.0606767338711275 0.0810217607845189 -0.0442557491800596 -0.05034650330052604 0.043444881165382816 -0.13334237655149647
-0.06718175993592101 -0.08961518821440444 -0.10863695414941847 0.07257541693110962 0.10168192060839966 -0.11932018817668698 -0.11977946009515983 -0.1434373261615304
00000000: 0bdb 5765 0afc a8bf 09b1 ff83 a28f a3bf
00000010: 3f43 f714 9e13 62bf 4629 1e0a 67f2 b7bf
00000020: 30ac 9809 f4bd 9f3f b9e7 d142 770d 9ebf
00000030: bd54 18c0 8a8a 97bf 5dac 167f 904d a13f
00000040: 59b0 6d58 68d1 953f 4af5 a6be 6d8d c2bf
00000050: 874f 8983 168d a7bf 28c0 6cc8 3538 ab3f
00000060: b363 e2f3 de93 b9bf 60e5 143b aa1e c0bf
00000070: 6697 eec1 e3c3 acbf c41e 24bd b35b b5bf
00000080: 36ca 6490 97fc 98bf f982 8933 4591 c0bf
00000090: da05 39b3 db38 a4bf 5226 b0f8 0dc6 afbf
000000a0: b911 c947 45ce babf 0235 403e 0427 a8bf
000000b0: 7c4f a0a1 7441 b3bf a1bb bc1e 07da a73f
000000c0: 8c82 a040 22c5 93bf 7970 3f9c 78db bdbf
000000d0: 86be 4317 df38 b0bf 0933 ccc9 d8dd b33f
000000e0: 0095 4c70 3126 8a3f 7c93 4f98 6f0b aebf
000000f0: b77f 361f aad6 a8bf 8a7a e72f fc16 b9bf
00000100: 027f 9f06 7280 c2bf 817d 4533 2bb7 8e3f
00000110: 51ff 45ca f13d b13f 8340 e4d4 61f3 94bf
00000120: 09a6 71ba fdd2 c0bf e0d0 1e02 e2ab 87bf
00000130: 7f39 abca d089 c1bf bf1d 61d9 2d0f c1bf
00000140: 58fc 87b7 bad8 b5bf c059 fdae 9db8 9f3f
00000150: eecd c27c 8da5 c3bf 4c46 780d d978 82bf
00000160: 942b 7bdb 1793 953f ca74 1310 8436 953f
00000170: 3d19 879a c99e c1bf f313 2329 1a04 643f
00000180: e00b 2639 056e 86bf cc64 04b5 22c7 c3bf
00000190: 200a 4de0 86dc 953f 8d36 5d30 b6d4 bcbf
000001a0: 8b5c 4eb0 8ede b5bf aeee 293c ea2f c6bf
000001b0: 247b a2e5 c068 b8bf 57a8 718a bd2f b9bf
000001c0: 3ab7 f78e 145e c0bf 6551 88de 00b3 c2bf
000001d0: ad2f df22 b834 bd3f 818b b46f 2af0 bf3f
000001e0: 7f5f 3cdd fb2a 633f ad34 5911 f56e b1bf
000001f0: 70b5 661f 6468 b1bf 311e fafb a945 9e3f
00000200: 8a97 c84e ab89 c2bf c65e 41a8 3d03 a13f
00000210: b3d2 b5ab e520 b3bf 9754 010b 478a c0bf
00000220: 270d 8796 fb3b a7bf b806 4711 d112 babf
00000230: 39c5 6ef6 d376 96bf e6a9 2f17 d478 a8bf
00000240: 326d 05b1 4296 c6bf da75 1f92 e542 69bf
00000250: 97e7 ea6e ad53 bdbf 9f88 be4f ffc7 a73f
00000260: 2f98 f0a7 b3d5 91bf 5d82 ba22 bc80 c6bf
00000270: fd38 c12d cce0 c5bf a49d 700b f24e a13f
00000280: e27e decc cd21 a5bf 7ef6 729d 0357 803f
00000290: 9efd ada3 924c bcbf d380 c3f5 1833 ae3f
000002a0: 152b 2cc5 0a5c b03f fbae a6d1 ab55 8ebf
000002b0: d798 5748 c349 ae3f f403 b68e 7ccb 873f
000002c0: 4618 3215 bfce a93f 2e92 09e9 b07f a5bf
000002d0: b2ef bc64 5374 9cbf c79a 8207 0c5e a53f
000002e0: 33cb 927d 8ebd c5bf c6a9 aed1 b06c 6bbf
000002f0: c34f 0feb a582 acbf 93c6 9285 951a c1bf
00000300: 68da 0a99 f1e1 c0bf 3e96 8beb 9082 abbf
00000310: cfff 4374 3075 a33f 1fc6 2289 35f9 6abf
00000320: 7a15 faa1 77fa 74bf 2920 0bf2 e192 bfbf
00000330: 0d22 f7b1 6dc4 b2bf 340a 0e49 fe08 acbf
00000340: 06ae e812 fd77 c3bf 915d 365f c46f b8bf
00000350: b648 5207 ea13 b9bf 5bd5 57ac eda2 6d3f
00000360: 16df 639a 55c8 b1bf be38 5594 0920 c5bf
00000370: bf93 5745 a920 a83f 3ab0 b2a6 b9f7 ae3f
00000380: 91fe e884 9152 b0bf e5c0 ab5c 723a c7bf
00000390: 5c0e 6729 e050 afbf 3f1d ce1b fe90 7ebf
000003a0: 2b8c 164f dddc adbf f6a2 eb77 e7ef b0bf
000003b0: 0ec8 51b8 dd28 adbf 7a8f 486b c998 ab3f
000003c0: 82c2 3cdb 395a 9ebf 9535 e067 90c8 c4bf
000003d0: 8b85 bca7 dc2a b3bf ef29 e65b d96d 933f
000003e0: 4987 a0e3 8fd4 bcbf 8fbc 9fb3 da74 8bbf
000003f0: 0b39 de3d 5e76 bcbf e9d6 0481 f308 8a3f
00000400: 842a e91c 2948 963f d862 2be6 0e7e c2bf
00000410: 8538 600b c0d3 b53f 284e cc38 a465 93bf
00000420: 5253 c1cf 0570 a5bf e380 2814 3f1d b8bf
00000430: e2c1 d7ee b518 b0bf 5d80 521a 25f0 bcbf
00000440: f4bf 85c9 64ee 9f3f fffb 8b06 8565 c2bf
00000450: 77c2 36a9 e7e5 b1bf dbfd dbd5 29c7 a3bf
00000460: 438d 5978 d611 a43f ff26 fc9d e89c bbbf
00000470: 7a4a 73a2 832e a0bf 4eaa 6765 ec27 c4bf
00000480: c430 ad45 3b36 af3f 58b5 16bc a308 c3bf
00000490: 9801 2149 3048 ac3f cc41 d4f1 82db 91bf
000004a0: d736 ff96 e21b a63f 82e1 a234 2f42 b5bf
000004b0: a8e0 1b66 01fe 91bf 8100 88b7 4895 a33f
000004c0: 4360 941b d253 a4bf 14e0 37c9 6cfe c3bf
000004d0: df6e a703 378a c4bf 7f65 ed42 d151 b53f
000004e0: 11e9 d3c6 af5d c7bf 0372 9cca d708 b6bf
000004f0: 8f24 b2bb 9f16 81bf 71d3 9892 6a8f 90bf
00000500: 84e5 8f67 2111 b4bf 348d 131d 9e0e 953f
00000510: 89b0 7089 4851 b4bf 6b64 7343 509a b0bf
00000520: 678e 95fe 4fa4 c1bf 2260 a054 5e6e a83f
00000530: d424 e3a7 cc8d b3bf 5847 2188 319b c4bf
00000540: 9983 4d3f 91ec babf c070 44d3 0d98 87bf
00000550: 402b 4932 0068 a2bf 114b c55a 4b96 adbf
00000560: 668a fbd1 50fb 913f 9323 a3f2 8b6a c2bf
00000570: 9566 222e 4aa5 a23f 9334 9e77 b4a8 a73f
00000580: 3daa af7e e5ff b9bf 9454 9185 265e c7bf
00000590: aa83 9cff 6a83 b5bf 93b4 268a 280e babf
000005a0: a3e9 79f1 eb1f c4bf 811d 1c2a 1c3f b4bf
000005b0: 7310 b016 db47 9ebf d985 eccb 50c2 94bf
000005c0: f90a 92f7 103d 9cbf c305 6432 cf8a a93f
000005d0: 5fd5 aeb1 fb03 8f3f d37e c566 55f7 b43f
000005e0: bd0a 942d 2d27 b73f 97ac 98e0 3b09 b33f
000005f0: cab2 e319 f8ad c5bf f80e a0db 9d3b 933f
00000600: dd55 30e2 0e18 93bf 575a 4751 aabe c3bf
00000610: 7fd6 2129 94e5 643f 3718 3fd5 268d aa3f
00000620: 111c efe4 2234 bcbf 6d1d 57b0 6f30 c2bf
00000630: d7d7 180c edf4 a0bf fbe4 71b1 90d3 86bf
00000640: 25b8 9b1b 3a51 a13f f399 c176 89cb 9c3f
00000650: b34a 3fa9 0a15 b73f b805 0f8b b37a bebf
00000660: 8f81 d92c 27ef bebf cfd7 2b21 450c 81bf
00000670: b165 9901 1227 babf 0156 168b cd9d aebf
00000680: 1c68 7dc9 9e66 883f dddc 64a1 792e 713f
00000690: 6302 a09a 7df7 c0bf e252 7fe8 dc2a bbbf
000006a0: 937f 5339 bd49 a1bf c3e7 5855 3a54 c5bf
000006b0: 7ad4 7f32 ca39 c1bf 65fe cf19 f109 c0bf
000006c0: c763 6e37 b94e bcbf 2759 a7e7 5664 ac3f
000006d0: cfea 9ad9 7acb b0bf 6bb7 d45c a750 bdbf
000006e0: 7319 ef58 5a55 6abf 868b 4263 3b3b c3bf
000006f0: 1741 30da 12d4 b3bf dbf4 9d2d fe55 a93f
00000700: 3c08 447c 4b41 c0bf 85f6 949a a1fe b5bf
00000710: 3f23 c6da e8c3 66bf 0cb7 29c8 cc28 bdbf
00000720: e4c7 cfcb 9b70 843f 7a33 cadf 24c5 c1bf
00000730: 1ee0 a43d ff57 c7bf d67a 9105 36e6 c0bf
00000740: 4f22 7e50 76de 89bf dd18 7649 2008 a93f
00000750: a1e9 4333 8a7e c5bf 73b5 b98e 0324 a9bf
00000760: f0ca 3cb5 4ff8 c0bf ba51 9461 c08b ad3f
00000770: 0836 280f 67ba 7bbf 63d6 22f5 3e98 a53f
00000780: 03b8 de05 2396 80bf a756 16b4 a080 bfbf
00000790: 928c 3557 0511 afbf cd76 d594 d7bd b43f
000007a0: d2d3 c686 b0a8 a6bf 1195 4952 04c7 a9bf
000007b0: b15e 914f 683e a63f ffd3 3aed 5c11 c1bf
000007c0: 4000 d0e5 d232 b1bf 8b12 9b5e 05f1 b6bf
000007d0: 2b74 35a5 a1cf bbbf 3b72 3672 4d94 b23f
000007e0: 1188 9b8b d307 ba3f 0fb0 f891 c48b bebf
000007f0: 105c d7df dda9 bebf c5d9 7180 275c c2bf

coeff_generator.4.bias f8 [4]
0.025221262044913224 -0.009600662019616124 -0.08764125399861977 0.04690126742582348
00000000: 3545 963e 9ad3 993f a052 270b 83a9 83bf
00000010: 305a b43f a86f b6bf d33f 7863 7103 a83f
