models/QM_Poly2_1000[1980, 1990]_bci_Wnoisy001d.pth (torch, 39698 bytes, 6 tensors)

coeff_generator.0.weight f8 [64, 1]
0	0xbfee332b092fe2fd	-0.9437461070475305
1	0xbfea0d4f0108fcbc	-0.814124586126034
2	0xbfea032311d9a932	-0.8128829334866963
3	0xbfee8e7f6f83a0c1	-0.9548947504054227
4	0xbf7f95de652bfeea	-0.007711285334835097
5	0xbfa7c5bccd01653f	-0.04643049242504071
6	0x3feb369c4a04f507	0.8504163213434887
7	0x3fe984b609d70dc7	0.7974500839413218
8	0xbfe8bb4115cf15e9	-0.7728581834750773
9	0xbfe782d0b2bebefb	-0.7347186556926028
10	0xbfe7dece842a015b	-0.7459480840043783
11	0xbfcfe7f23958b547	-0.24926593589899879
12	0x3fe7d7d08197a8dd	0.7450945407010995
13	0x3fe9a242a17d6b11	0.8010571626758481
14	0xbfcf5a000ff36227	-0.24493408945888115
15	0x3fd23c43ba64f613	0.2849282570130935
16	0xbfec486167dbd593	-0.8838355091563009
17	0x3fdd98454951c67d	0.4624188629160029
18	0x3fc7e775ab06c046	0.1867510876741127
19	0xbfc00e7bcd42f12f	-0.12544200441869566
20	0xbfe94b92923ae111	-0.7904751640371918
21	0x3fd3a2b2edb89f2f	0.3068053552146805
22	0xbfd808901adfd513	-0.3755226385540748
23	0xbfd498d1cf8df364	-0.321827366533219
24	0xbfedfe85d19c0885	-0.9373196691451687
25	0xbfed6aa2c362e885	-0.9192670646800855
26	0x3fe9b86c22c80154	0.8037625006982503
27	0xbfe45799678c5090	-0.6356932661460792
28	0xbfde13022208e81f	-0.4699101765032782
29	0xbfe5bb01a6ada347	-0.6790779357371343
30	0xbfdbeb440533bd2d	-0.43623447902696705
31	0xbfe10fd71958296f	-0.5331836218841043
32	0xbfdf4576b07455ff	-0.48861472350958474
33	0xbfd381fef91a4ef8	-0.30480932547037254
34	0x3fcd49dc819d4067	0.22881656960317118
35	0x3fd05bb6ccc327d6	0.2555977820999237
36	0x3fe84208a9390b4f	0.7580607705243468
37	0xbfebff9ee8ea6143	-0.8749537037975091
38	0xbfd492c1c71a6ea1	-0.32145733302761853
39	0xbfb3495008fa843c	-0.07533741206363315
40	0x3fe9df94974420c3	0.8085425333420279
41	0xbfea17fef66f0e17	-0.8154291928444221
42	0xbfb5a558319057eb	-0.08455420694403386
43	0xbfdef4bbb1a62d70	-0.4836873278479379
44	0x3fece34dbc41fdc4	0.9027470280561194
45	0x3fe80ac823ce7fb4	0.7513161372516977
46	0xbfcd9ff49947e017	-0.23144395336544285
47	0xbfe9a4f59588ab95	-0.8013866348822939
48	0x3fd4d1a645533c0b	0.325295989704444
49	0x3fc4f9a840212edf	0.1638689339764516
50	0x3fd6f30a1c68029a	0.35858395360995987
51	0xbfbdb22dd6160aa3	-0.11600004650794431
52	0xbfe812c4949f8a5d	-0.7522910025402997
53	0x3fcb3def69cc1f17	0.21282761255155755
54	0x3fade14156538057	0.058359185970176135
55	0x3ff0e92ba41e3f7e	1.056926385008381
56	0xbfe308697cf3adeb	-0.5947768631426106
57	0xbfd044a5eaaa6c13	-0.25418994824002644
58	0x3fd3e7d51a555e24	0.3110249287760516
59	0xbfd8c36f5d1a8f8b	-0.38692840664065703
60	0xbff09b2c9132a4fb	-1.037884299448989
61	0x3fe02e9bb5535ea9	0.5056894818798884
62	0xbfdf6f2da72ab3a3	-0.49116078686602743
63	0x3fc9cced34ad97c6	0.20156636306927406

coeff_generator.0.bias f8 [64]
0	0xbfcdb840a0bc8100	-0.23218543861822383
1	0xbfc6a4084ef00740	-0.1768808732450058
2	0x3fd24892717ce75c	0.28567944605639695
3	0x3feb7c14f5bf484d	0.8588967132329884
4	0x3fdad8f152234c3a	0.4194911291244271
5	0xbfe6c1732737ebf0	-0.7111144796357376
6	0x3fabeb629072f440	0.05453022015851916
7	0x3feffbcf37476798	0.9994884566942686
8	0xbfdc409533aaeffd	-0.4414418224876043
9	0xbfebd6eb9a31541c	-0.8699853908134432
10	0x3fd641341a81bc00	0.34772970760872113
11	0xbfef92ba6b6e1cbc	-0.9866611574406288
12	0x3fc778e75ceed08d	0.18337718999612598
13	0x3fcd0844e4a71c83	0.22681485333143678
14	0xbfe72e32b2a6080e	-0.7243894089917846
15	0xbfd5c76b14fcec38	-0.3402965264282929
16	0x3fd53a0ca87c17ff	0.33166805699909213
17	0x3fb6d43c3946c04a	0.08917595289563099
18	0x3fdac675a3ce0316	0.41836300846630203
19	0xbfe547a142241c14	-0.664993886167283
20	0x3fe72734b56928b4	0.723535875623631
21	0x3ff02cd3fafdf33a	1.0109443477987967
22	0xbfe10f3ad1416aaa	-0.5331091010114808
23	0x3fd805abd739b7fb	0.3753461458026092
24	0xbfef404ae0a4b3bc	-0.9765982043805859
25	0xbfe9d87f3bf1023c	-0.8076778574687249
26	0x3fed60c2928eb738	0.9180615293932766
27	0x3fd8ff462336f2d5	0.3905806869404789
28	0xbfea61fe8e7977f8	-0.8244622023300954
29	0xbfb1923141a9607f	-0.06863696911875826
30	0x3fea4a03e205fa91	0.8215350546377796
31	0xbfda7267d6989398	-0.41323276478424864
32	0x3fab718cae1efe37	0.05360068917752552
33	0x3fc2f08e5ef219e6	0.14796619068165667
34	0xbfec43ad1f0f490a	-0.883261261619084
35	0x3feb9f9fc63b3f1e	0.8632353660304692
36	0xbfca5e265146f861	-0.2059982201444113
37	0xbfd4ac575ae487dd	-0.32301887394180345
38	0x3fe1586e7f5ad2c5	0.5420448768041629
39	0x3fa74c6c30ef647e	0.045504933331991446
40	0x3fdcf365d0c74755	0.45235581768530625
41	0x3fc49c9759f380d1	0.16102878467700646
42	0xbfc0d87e32930ee6	-0.13160684079604507
43	0xbfc9eacbdbf0b66c	-0.20247791518470437
44	0x3fb8e27a0da7c861	0.09720576127418347
45	0x3fcff51a463ea96e	0.24966743879242465
46	0xbfc6ca2a71149870	-0.17804461022859952
47	0xbfe467543d3351ca	-0.6376134105035416
48	0xbfeeab7cc054aaae	-0.9584335094890173
49	0xbfee0ba768a2b386	-0.9389226001418229
50	0xbfe46c886b0899e9	-0.6382486429691286
51	0x3fe201038ac7d156	0.5626237593228705
52	0x3fe8fc3dcec83c92	0.7807911909784642
53	0xbfe9e3a92abf355a	-0.8090406260395568
54	0x3feb92432335d40e	0.8616042792988325
55	0x3fca5a351c841ae7	0.20587791340241
56	0x3fd56fd5bf0c7fa9	0.3349508634291803
57	0xbfe3854949935450	-0.6100202977201068
58	0xbfd974731d507a79	-0.3977325235627301
59	0xbfd264702b6e15f8	-0.28738025895321995
60	0x3fe5d6e9eca3b3ed	0.6824845907082114
61	0x3fd7e702be844fcf	0.37347477536354473
62	0xbfda563296f830d0	-0.4115110849677537
63	0x3fe399c93d183446	0.6125227158787616

coeff_generator.2.weight f8 [64, 64]
0	0xbfc0127c5a135c02	-0.1255641403028847
1	0xbfc75a1afb7fa308	-0.1824372985859315
2	0x3f9e152fbf155935	0.02937769511967155
3	0x3fa17b08b42139ca	0.0341417999157901
4	0xbfb061607e86ab9d	-0.06398585404410402
5	0xbf906aa60c07eb47	-0.016031832203206944
6	0xbfc52814591e01ed	-0.16528562880922895
7	0x3fa6f64acf16879a	0.044847810534761126
8	0xbfb07305eaabae35	-0.0642551134039245
9	0x3fb219d0cec39d65	0.07070641563369902
10	0xbf7b6e4e73cd5f2c	-0.006696993307592252
11	0xbfb2941f7dfecc8d	-0.07257267786080686
12	0xbfc4bdaf4500dba0	-0.16203871602348574
13	0xbf970f268faa6175	-0.022518732565545336
14	0xbfa149f926a289f7	-0.03376749607675216
15	0xbfc153725e46ab88	-0.13535909274409286
16	0xbfb8c2e3099e6bef	-0.09672373757204843
17	0xbfa90e48ff9df3ed	-0.04893711204838511
18	0xbfb68ee3147075c2	-0.08811778306013365
19	0xbf6b5fa5b191c93f	-0.0033415065959669084
20	0xbfb3f35af789cac4	-0.07793205779470741
21	0xbf927ff15f255a24	-0.018066188270802766
22	0xbfb7c63ebb364cff	-0.0928687293110677
23	0xbf9e127eafc0b4e8	-0.029367427327248757
24	0x3faf52061fad50cf	0.06117266785318664
25	0xbf99caa46af0a937	-0.025187081362824073
26	0xbfa0650bdac3be85	-0.03202092214075684
27	0xbf6690bb1ff3dd7e	-0.002754559972909908
28	0x3f8134314b2cdb5f	0.008400330645242425
29	0x3f8d0e7da67a03a6	0.01418779529854126
30	0xbf8df68463cbed8b	-0.014630350394773802
31	0xbf9ce809932b76d7	-0.028228902442484518
32	0xbfc0a6cb0bd4b906	-0.1300901229637434
33	0x3fac6e45de1c54a5	0.05552881561576698
34	0xbf7fe7533cd4855f	-0.007788968226379949
35	0xbfbe50af667263f9	-0.11841865779059892
36	0x3fa62c3520bfa288	0.043306026694897304
37	0xbf84d825da355610	-0.010177894326868248
38	0x3fabd263f779c2d9	0.05433952709143392
39	0x3faff58cb79afb35	0.06242027035977175
40	0xbfadca16a1f04e16	-0.058182437198549916
41	0xbfc2ed4f30c90d70	-0.14786710626695365
42	0xbf96a1425e759b7e	-0.02209953023466537
43	0x3fada6c0c741de68	0.05791284973468863
44	0x3f7afc0960ff0192	0.006588017116826344
45	0x3f9f857ea85675b8	0.030782679581184275
46	0xbfa7d2839d83e4e7	-0.04652797029297933
47	0xbfb971981e73bc2f	-0.09938956016024812
48	0xbfbd68bf347170b1	-0.11487956076001883
49	0xbfbdd300f6e94bb3	-0.11650091198070704
50	0xbfb44d215b77351c	-0.07930191500709721
51	0xbf98eb0eba0ad345	-0.0243341733027649
52	0xbfae401b200f358c	-0.059082839644911095
53	0xbf9b313e53d24277	-0.026555036417053004
54	0x3f808b406616f736	0.008078101268320741
55	0x3f89ffb2deb3bc49	0.01269473783619736
56	0xbfbe730093720b05	-0.11894229507201366
57	0x3fa2dbecb327623b	0.03683414160667949
58	0xbf91b44446025cb2	-0.017289225361847023
59	0xbfc60be9fff0bde0	-0.1722385883053752
60	0xbf7034e82eae5422	-0.003956706011099905
61	0xbfbb4fc10a5fc680	-0.1066857004477928
62	0x3fa654bfdc96e3f3	0.043615337064188874
63	0xbfaf055bd53c6147	-0.06058775880791472
64	0xbfbc67b63c1716c1	-0.11095751730962446
65	0x3f977fd18278dfaf	0.02294852598990332
66	0xbfa55fdee26f8c5f	-0.041747059956627856
67	0xbf98b1e2e419dbdc	-0.02411608235567174
68	0x3fbfd624ba4d03c0	0.12436132000313105
69	0xbfabedf4931fb9b3	-0.05454983039804819
70	0x3fbf90f3d7a156a6	0.12330554975900529
71	0xbf931d2cc3478dfd	-0.018665980738559174
72	0x3fb85f2fb3ace4e5	0.09520242821317344
73	0xbfa736d441e8e63f	-0.045340188069939995
74	0xbfb0cfb6b7aae9a1	-0.06566946014473853
75	0xbfb0b4b4a97a5f31	-0.06525735032698489
76	0x3fc69f3618ed0cd0	0.17673374383057316
77	0x3fc26cc4e39634f3	0.1439443694365888
78	0x3fb413fbe1592baf	0.07842993022602117
79	0x3fc2f0457d71c604	0.1479575026055927
80	0xbfa1228edd43d1bb	-0.033466782102468305
81	0x3f933b0e937d31b0	0.018779971839920584
82	0x3fc1813400a6ecf8	0.13675546676481765
83	0xbfbfe9951a6826bb	-0.12465793509195582
84	0xbf8f3cf6c771a176	-0.01525299831537617
85	0x3f8668ab1662a481	0.010941826458593209
86	0x3f860a004a09642f	0.01076126314107925
87	0x3fc3786d7bb8cc92	0.15211266080004698
88	0xbf94d75e91c56687	-0.020352819106256106
89	0x3fb41f26bba1cbed	0.07860033112392247
90	0x3fa81d890b4c10d3	0.04710033667473259
91	0xbf9173ed083fb8aa	-0.01704378474089966
92	0x3fb2a3209dba24fd	0.07280162668952879
93	0x3fb9584115c7d55d	0.09900290281060138
94	0x3fc22f3e270ae22e	0.14206673532841435
95	0xbfbac11aba329c55	-0.10450903936235652
96	0xbfb765137fc377d5	-0.09138604993083217
97	0x3fba6d1cdc91848a	0.10322742829295542
98	0x3face097ea62e393	0.05640101181183534
99	0xbfa90ac3fc06cf30	-0.048910259737935724
100	0x3fc4d9986c2bae6d	0.16289048463601166
101	0x3f9268d379a3c0cf	0.01797800474099703
102	0x3fbfbc8ea6e930a0	0.12397090506527997
103	0x3f9f7763309db1ef	0.030728864519390994
104	0x3faea3f8be2154fc	0.05984475441861467
105	0x3fa68eff74e8577f	0.044059737225480504
106	0x3fb6e38875dad7f5	0.08940937878909934
107	0x3f94f9e3fe591977	0.020484506987736375
108	0xbfae762ba535d664	-0.059495319287560716
109	0x3fc142054909451b	0.13482729021283366
110	0x3fbb586016533bfd	0.10681725068137378
111	0x3fac8043fa6b72ab	0.05566608840829209
112	0xbfbc36490f636ec5	-0.11020332933133677
113	0x3fa2a7711e4510b3	0.036433730073015445
114	0x3fb87aaeccb8df74	0.09562199113940811
115	0xbfa65eeaf0504930	-0.043692914805563254
116	0x3fb828a1bb90693a	0.09436999158098028
117	0xbfb36dd156a7e547	-0.07589443555470608
118	0x3fc529d311f41975	0.1653388822234764
119	0x3fbcc12e2d8c057f	0.11232269870744992
120	0x3faba10e37ddd692	0.053963131255767696
121	0x3fbda7c02693c8e5	0.11584092084720828
122	0xbfad3d7cb6386af7	-0.057109734767626756
123	0x3fa70f50c37e2e7b	0.045038722862128254
124	0xbfa32c0fd13a6871	-0.03744553975157395
125	0xbfaa0c77fdd0ffa4	-0.050876378758857116
126	0xbfb83f01412f2fdd	-0.09471137849249041
127	0x3f91b7d74b2667d5	0.017302860223573042
128	0xbfb052424fc34b95	-0.06375517318092101
129	0xbf7fb8c23d4d57bf	-0.007744559047599907
130	0xbf6e263b7e4d54bf	-0.003680340002044063
131	0xbfbee1d195089b1d	-0.12063321960941349
132	0x3f81d1fabd00fadf	0.008701285260142409
133	0x3fa0ad556f411a57	0.032572431403015294
134	0x3fb917828221bcfb	0.0980149810509267
135	0x3f8409a4b9829e8f	0.009784018431971546
136	0x3fb70b02a5255fb1	0.09001175434002452
137	0xbfb9f9de4d7b2731	-0.10146893874766928
138	0xbf6817f741989dff	-0.0029411153052654178
139	0x3fa7fcaad5ecc3d3	0.046849573720812686
140	0xbfb0c6a0e4f4c7b3	-0.065530830285552
141	0xbfaca88ed05fa55b	-0.05597349446891072
142	0x3f9257b35bb610c7	0.017912676308257127
143	0xbfb8d13b7cd2719d	-0.09694263265050158
144	0x3fb0e7313918532d	0.06602771419450155
145	0xbfa777cfac729313	-0.04583596210549081
146	0xbfb1540dfd5868f3	-0.06768882212819331
147	0xbfb9418ebe849fb9	-0.09865657950706365
148	0x3fba25586377e025	0.10213234356331265
149	0xbfb7ed7fdbada1f1	-0.09346770394552785
150	0x3fa067fd964e7fb3	0.032043385122278244
151	0x3fb2231e19fe5519	0.07084835180861083
152	0x3fad8f2f8be55dc7	0.05773304541315443
153	0xbfb24c53f1dc36e3	-0.07147717146673531
154	0xbfb39748d79f053d	-0.07652716888607798
155	0xbf7997d1f8051c1f	-0.00624830264161516
156	0xbfa754a54fd86107	-0.04556767081902718
157	0x3f9c1aaaa00e818f	0.027445474642833253
158	0x3f86e9827b0ceb8f	0.01118757188816291
159	0xbfa4f70412984d0b	-0.04094708182324255
160	0x3fb588f9ad88b129	0.0841213272730711
161	0xbfbe4d8c47790b8d	-0.11837078804914665
162	0xbf822aabfef86cff	-0.008870452612475875
163	0xbf66533d83bb55bf	-0.0027252389389597893
164	0x3fa7cd15368b3c37	0.046486533077420615
165	0x3fa5d0d625f8efa7	0.042608921180060925
166	0xbfb1ec8958c12b37	-0.07001551071986688
167	0x3f8bbe0d3ef3906f	0.013546088679909666
168	0x3fbc98688b07ac75	0.11170056719099526
169	0xbfbfe82811ca8329	-0.12463617739059586
170	0x3fa70011d43d5197	0.04492240634741334
171	0x3fb2a987af1da609	0.07289932275093504
172	0x3fb606d86385c7bd	0.08604195050955261
173	0xbfb249192d630545	-0.07142789228511955
174	0xbfb1dfa299d9893b	-0.06981865173432748
175	0xbf864c9dc94e458f	-0.010888321596015852
176	0xbfbdc199bc08cae1	-0.11623535957987087
177	0x3f8710cf8339170f	0.011262532417400743
178	0xbf9dec2248825cb7	-0.0292210919147606
179	0xbf95cb17abe4cb6f	-0.021282548777161233
180	0x3f8529066192076f	0.010332155087102028
181	0x3fa50cf9bbecdc47	0.041114620390026384
182	0xbfbf2348830cd78d	-0.12163212966410537
183	0x3fa6ded900e19563	0.04466894279247915
184	0x3fbac5c85e60fbb1	0.10458042434855376
185	0x3f503a0a5a0b9e7f	0.0009904004183968471
186	0xbfba69d324b3f703	-0.10317725797719039
187	0xbfa289dd3ef9e1d3	-0.03620807069541212
188	0x3f823f40ee5c67ff	0.008909709238242412
189	0x3fba0873d496e4f1	0.1016914743439832
190	0xbf9deffc7610088f	-0.029235787111254793
191	0xbf44dec29d4ba0ff	-0.0006369066491887231
192	0x3f9374d49ec26651	0.01900036066999739
193	0xbfafb6cd557de546	-0.06194154423333002
194	0xbfc4fdfa94ed32ae	-0.1640008189373438
195	0xbfbbe0dbc1954139	-0.10889981723926646
196	0xbfa68b4bffaa68ef	-0.04403150077742334
197	0xbfb26032af8f1a81	-0.07178036485775331
198	0xbfbb1448295b1a36	-0.10577822694458736
199	0x3f905999b5933304	0.01596679850335915
200	0xbfb98dd8eff14fd0	-0.09982066972707959
201	0xbfa2ced1bc60bd9b	-0.036734155888889584
202	0xbfc6a9535b931467	-0.17704240771687127
203	0xbfbb9837c279c755	-0.10779140947286454
204	0xbfb0ca54596365b7	-0.06558730299311476
205	0xbf7802ad96c4e801	-0.005861929017834556
206	0xbfb25777cfcaa7a3	-0.0716471559814225
207	0xbfb4f7e468edee44	-0.08190753518822996
208	0x3faf1c2dda447ea4	0.06076186456107038
209	0xbfc4c3ef5753a77b	-0.16222945941927577
210	0xbfc43b177fcc8d31	-0.15805333843409522
211	0xbfa15c98f250989b	-0.03390958745903668
212	0x3f96ce6a530c3552	0.022271786993816996
213	0xbf91ede15c4c607d	-0.017509003885692643
214	0x3fabd481dbd373f3	0.05435567673132615
215	0xbfab241377633578	-0.05300961334578863
216	0xbfb72fd3e764d20d	-0.09057354354155951
217	0xbfae97d83413242b	-0.059752231938155674
218	0xbf9184ed09a0d472	-0.017108634674702868
219	0x3f85b3ebe99b3df3	0.010597079340555182
220	0xbfb2c643f82a00ed	-0.07333779152577664
221	0x3f7562ed58bb94f6	0.005221297393039883
222	0xbfb44c5207d8a461	-0.07928955737647093
223	0xbfba29feebd6b811	-0.10220330484182251
224	0xbfc78a9dd517b7b3	-0.1839177408687057
225	0xbf89ddee687c10a0	-0.012630331576936549
226	0x3f7962fe345c29df	0.0061979226936821055
227	0xbf90c75c93b2ba06	-0.0163855042598531
228	0xbfbc7be34c6118dc	-0.11126537909248974
229	0xbf9263170a23785e	-0.01795612334614593
230	0xbfa3081edc95ba42	-0.03717132990538065
231	0xbfa5a52b5b555249	-0.0422757672301129
232	0x3fadab3c3a4a7b9f	0.05794704639014658
233	0xbfb24ccec69517e1	-0.07148449276164072
234	0xbfae8106d212cf6e	-0.05957814516423708
235	0xbfb44a5f6434b373	-0.07925983616287428
236	0xbfc3d97de3f8b780	-0.15507482177184428
237	0xbf409fb22de68252	-0.0005073184982401036
238	0x3f72b414d8f694df	0.004566270289989321
239	0xbfb5e16d962d77ab	-0.08547100941129197
240	0x3fbebc568c44a237	0.12006131100191274
241	0xbfbcace792215fe9	-0.11201331441532116
242	0xbfb63308473773b4	-0.08671619166075467
243	0xbfbb00c2f46e5c8f	-0.10548037021213673
244	0xbfb48bdfcbd4eeef	-0.08025931097375481
245	0x3fb31044ac50d5ab	0.07446698386123411
246	0x3f8bb6e23acbddf6	0.013532416743585945
247	0xbfbe99b6431a985b	-0.11953295839575288
248	0xbfbbe091ab63e7e9	-0.10889540132839638
249	0x3fa499655cccaff3	0.040232818201133023
250	0xbfc6ae414172dd90	-0.17719283767449356
251	0xbfc00d7a0533781f	-0.1254112744708786
252	0xbfc7a31ed2cef91f	-0.1846655396784138
253	0x3fa6b84753ec0f95	0.04437468432845929
254	0xbfbb3426206fa76b	-0.10626447955988076
255	0xbfc5ae467a28e7bb	-0.16938096012910173

coeff_generator.2.bias f8 [64]
0	0xbfbf5450c2fd34d0	-0.12238030205226669
1	0x3fadfd61a4de35a4	0.05857377183483983
2	0xbfb5fd11d9c8fdf4	-0.08589278761882452
3	0xbf85ed79bcf5b8fd	-0.010706854895684343
4	0x3fbeba3f0ccc532d	0.12002939283804599
5	0x3fc7577b377dbce2	0.18235721787957632
6	0xbfc29148bef3c037	-0.14505872081599744
7	0xbf99c3a96d65185c	-0.02516045313066005
8	0xbfb2206f264932ee	-0.07080740627970858
9	0xbfb452dbf95a96f3	-0.07938933217755188
10	0x3fb7e05b76fb9e68	0.09326717047553645
11	0x3fbc6474e1f818e0	0.11090784565758183
12	0xbf5c43832d4d7a00	-0.0017250805878671338
13	0x3f9b93b288de45e0	0.02693060837152028
14	0x3fc50057d1a46c28	0.16407296883048272
15	0x3fb65f36ef2e487a	0.08739035930037345
16	0x3f71d263958cb2c2	0.004351033211418
17	0x3fa1d1a1a83b38d5	0.034802486215640784
18	0x3fc18913313c8a23	0.13699569610715043
19	0xbf9775816885606c	-0.022909185413795205
20	0xbfa357d685184a94	-0.037779525515493934
21	0x3f912cc088ed907f	0.016772278172894502
22	0x3fc14cb94e714e41	0.13515392618374913
23	0x3fbaa5f1ac14c1c0	0.10409460498045231
24	0xbf9d900f39801443	-0.028869855770626406
25	0xbfc236742bbb7fe4	-0.14228679786083298
26	0x3fc1c1fc54b39d8e	0.13873247276135853
27	0xbfbcb795110903c8	-0.11217624345682886
28	0x3fa417be3dd14edc	0.03924364571198932
29	0xbf9c9bd28a7640cd	-0.027938165379567437
30	0x3f9e4a687d247110	0.029580719602663896
31	0x3f8b33afba289b02	0.013282177799806675
32	0x3fa0c3ca78c924ee	0.0327437660640245
33	0xbf98ea72f27bb732	-0.024331852006915962
34	0xbf704c41e2eec1a0	-0.003978974694220844
35	0x3fb8787ec751e0fa	0.09558861128050813
36	0x3f94435f7c615644	0.01978825756699211
37	0x3fc5e7da80951585	0.17113810804782417
38	0x3fb36729084bdbc1	0.07579285099551127
39	0xbf9f2d9f09632fdd	-0.0304474687080044
40	0xbfc639b3e688fc0d	-0.17363594776722416
41	0xbfbd2b461e299571	-0.11394155727756129
42	0x3fb4a1abd3610946	0.08059190664883883
43	0x3f9a0e1787567314	0.025444381366116778
44	0x3faf70e3ba1bacdf	0.061408153980517126
45	0xbfc2d1f8c92e39a5	-0.14703283141393544
46	0xbf91966b0cf8c4d2	-0.017175362269146906
47	0x3faafbbab9f35813	0.05270179290680246
48	0xbfc36b3a55f9565c	-0.15170983503292035
49	0x3fbf44d78e360fa7	0.12214419576599643
50	0x3faec5a44a625850	0.06010163696298376
51	0xbf9a741f1c3e9678	-0.025833593462854826
52	0xbfc17cfca6460b1e	-0.13662679785564874
53	0xbfb5f95e70ee82a8	-0.0858363176071274
54	0xbf52f12d4ef45c64	-0.0011561338868142585
55	0x3f7d72e623e4ce22	0.007189654336162062
56	0xbfa0b1f21cff6cbd	-0.032607618369831816
57	0x3fc713732277b763	0.1802810591029199
58	0x3fa7c6aacaf487d4	0.04643758513908805
59	0x3fbc45b26e098a06	0.11043849169212913
60	0xbfb043ffea83af74	-0.06353759265374298
61	0xbfbe0c4545d0469e	-0.1173747344439797
62	0x3fbac3553aa85e66	0.10454304391930122
63	0x3fb98209453a2736	0.09964044513813239

coeff_generator.4.weight f8 [4, 64]
0	0xbfa8fde85dc88552	-0.04881216187301142
1	0xbfa436bfbe69c386	-0.03948020171527049
2	0xbf62139e14f7433f	-0.002206619981486218
3	0xbfb7f279c937619b	-0.09354363596447117
4	0x3f9f99ebb448305b	0.030860598448313997
5	0xbf9e1b161bcfa304	-0.029400201270536122
6	0xbf978a8ac01f4581	-0.022989433265882212
7	0x3fa14c4152facb3b	0.03378490579543444
8	0x3f95d168585c9123	0.02130663909260123
9	0xbfc28d7f63adfc58	-0.14494316451234357
10	0xbfa78d1683894f87	-0.045998290592847595
11	0x3fab3356ff4cf1bb	0.053126066841716356
12	0xbfb993def3e263b3	-0.09991258100707405
13	0xbfc01eaca5e67575	-0.12593610859486729
14	0xbfacd3058f808e01	-0.05629746796355662
15	0xbfb55ea15c81c8aa	-0.08347519405814077
16	0xbf99002ce980b4c2	-0.024414731742741898
17	0xbfc0914533898464	-0.1294332982679719
18	0xbfa4bf7db01b2cbb	-0.04052346014722149
19	0xbfb0e27e7bd9bbf9	-0.06595602534956403
20	0xbfbace4547c911b9	-0.1047099399812116
21	0xbfa8588ace6a7a35	-0.0475505234692161
22	0xbfb347b9bf720ab0	-0.07531319545709425
23	0x3fa7bb0cb417e5bb	0.046348950370837604
24	0xbf93f21a071ba4d1	-0.019478232082211392
25	0xbfbddbaa43860bab	-0.11663307331586618
26	0xbfb03d5bae81a405	-0.06343625078592659
27	0x3fb3ddd8c9cc3309	0.07760386397076159
28	0x3f8a26317062604d	0.012768160097309212
29	0xbfae11a68a3a163e	-0.058728412984276876
30	0xbfa8d6aa1f367fb7	-0.04851276045815161
31	0xbfb916fc2fe79322	-0.09800697488351465
32	0xbfc28191ae788f97	-0.14457913416947285
33	0x3f8e9f9b9195707c	0.014952865009654419
34	0x3fb13df1ca45ff51	0.06735144794765559
35	0xbf9505d1da01a585	-0.020530013018662103
36	0xbfc0d2fdba7582ec	-0.1314389381832578
37	0xbf8806902029e287	-0.011731267911487165
38	0xbfc18b29ec083432	-0.13705944085123317
39	0xbfc115bf67f5c7fc	-0.13347618652511517
40	0xbfb5d9b09e4211b8	-0.08535293449137427
41	0x3f9fb89daefd56e1	0.030977691464918137
42	0xbfc3a6f7a9cca7aa	-0.15353294173229176
43	0xbf827ef9218a15e0	-0.009031244598427912
44	0x3f9590ad44ab3aa9	0.021059710804190477
45	0x3f953684101376f4	0.020715774041369664
46	0xbfc19f32d08d5284	-0.1376708525009641
47	0x3f6400236533316d	0.0024414721789069367
48	0xbf866e053936d531	-0.010952034767664461
49	0xbfc3c79fff083a5e	-0.15452957108250848
50	0x3f95d38922ad308e	0.021314757100569674
51	0xbfbcd4b6305d368d	-0.11262072258724683
52	0xbfb5df0a848154ea	-0.08543458685865671
53	0xbfc62ff8917e0ee4	-0.17333895782586872
54	0xbfb869c2bb26d1a0	-0.09536377972728483
55	0xbfb932998a76b0df	-0.0984283412023532
56	0xbfc065e449cdf9d8	-0.12810948947658463
57	0xbfc2b557ebaefff1	-0.14615916259754116
58	0x3fbd34b822df2fad	0.11408568240511725
59	0x3fbff02a6fb48b81	0.12475838877848668
60	0x3f632afbdd3c5f7f	0.0023398322317795257
61	0xbfb16ef5115934ad	-0.06809932397409808
62	0xbfb18052d8c72098	-0.06836431305339585
63	0x3f9e31c6b55036d7	0.029486756149757234
64	0xbfc289ab410cd0a2	-0.14482632328293216
65	0x3fa1033d6fc9ceca	0.03322784413913167
66	0xbfb320e5abb5d2b3	-0.07472072069306072
67	0xbfc08a4708677ca2	-0.12921989355433988
68	0xbfa73bf977615289	-0.04537944395329869
69	0xbfba12d0aca7665a	-0.10184959616835823
70	0xbf9676d3f66ed968	-0.021937667766644436
71	0xbfa878d3f591617f	-0.047796844221639205
72	0xbfc69642b1057364	-0.17646058696382305
73	0xbf6942e51b074d2c	-0.0030836558073389555
74	0xbfbd53ad6eeae797	-0.11455806692074898
75	0x3fa7c7ffdcf99369	0.04644774982879236
76	0xbf91d5b3a7f0982f	-0.017416770100816045
77	0xbfc680bc22d32054	-0.17580367756295578
78	0xbfc5e0cbc9ee51dc	-0.17092273101719868
79	0x3fa14ef2aced9e5e	0.033805450066947115
80	0xbfa521cd99a5c726	-0.04127352238255204
81	0x3f8057039d72f673	0.007978466265167605
82	0xbfbc4c8c98804ad7	-0.1105430481259576
83	0x3fae334aa1e3c85b	0.058985073339400805
84	0x3fb05c0ac52c2b15	0.06390445054800538
85	0xbf8e559c2cb6be53	-0.014811725725706248
86	0x3fae49c4889d075f	0.059156552959861435
87	0x3f87cb8570d1c577	0.01161865473315758
88	0x3fa9cec10529e777	0.05040553272279074
89	0xbfa57fb0e088c13f	-0.04198982945342999
90	0xbf9c74515024d229	-0.027787466541854187
91	0x3fa55e0c07829ac7	0.0417331465881055
92	0xbfc5bd8e7d92c775	-0.1698473084593918
93	0xbf6b6ca5f21e3b77	-0.0033477059486765564
94	0xbfac82a5eb0f4fc3	-0.055684266036819995
95	0xbfc11a958592c6af	-0.13362378141532846
96	0xbfc0e1f17d77ba46	-0.13189524294235094
97	0xbfab8290456e85fa	-0.05373049590640373
98	0x3fa375307443ffcf	0.03800345820673067
99	0xbf6af924678171e4	-0.0032926283857206296
100	0xbf74fa77a1fb7cf7	-0.005121676745800877
101	0xbfbf92e0b2d98e9e	-0.12333492628527629
102	0xbfb2c46d628b158c	-0.07330974250642991
103	0xbfac08fbf4cbe905	-0.054756044037235475
104	0xbfc377fd04c2b601	-0.15209925396395366
105	0xbfb86fc45f365d83	-0.09545543026466956
106	0xbfb913e9b75766be	-0.09796009756191901
107	0x3f6da2f111f8b588	0.0036177357103698883
108	0xbfb1c85596bfff70	-0.06946310930652344
109	0xbfc52009945538bb	-0.16504020445649367
110	0x3fa820a972baab12	0.0471241905737171
111	0x3faef7b9ab02411f	0.06048374378690568
112	0xbfb0529184e9049c	-0.06375989432219104
113	0xbfc73a7253231af6	-0.18147114810400183
114	0xbfaf50dfaa003328	-0.06116389227108804
115	0xbf7e90fe1bce1d3f	-0.007462494479916259
116	0xbfaddcdd336d85a7	-0.05832568409710897
117	0xbfb0efe775d308f8	-0.06616064669200117
118	0xbfad28dd7d8f8c80	-0.05695240171169136
119	0x3fab98ca0bd3a687	0.05390006441468836
120	0xbf9e5a345f6ca2b0	-0.02964097816871697
121	0xbfc4c89024371bdb	-0.162370698626744
122	0xbfb32adca7bc858b	-0.07487277121665252
123	0x3f936dd95be629ef	0.018973728403162523
124	0xbfbcd48fe3a08749	-0.11261843974400877
125	0xbf8b74dab39fbc8f	-0.013406475645721975
126	0xbfbc765badbd067e	-0.11118100158366848
127	0x3f8a08fa0d48690a	0.012712434320793626
128	0x3f9648291e401830	0.021759645911537173
129	0xbfc27e0ee2761225	-0.14447198922802432
130	0x3fb5d3c00b603885	0.08526230123263374
131	0xbf9365a438ae581d	-0.018942419013534207
132	0xbfa57005c91dfdf9	-0.041870289612230445
133	0xbfb81d3f12eaec1e	-0.09419626438004555
134	0xbfb018b5eed7c1f1	-0.06287705498812791
135	0xbfbcf0251a1852e7	-0.11303932082257583
136	0x3f9fee64c985bf63	0.031182837295488663
137	0xbfc265850685cea0	-0.14372313326349673
138	0xbfb1e5e7a936c277	-0.06991432076643798
139	0xbfa3c729d41ea488	-0.03862887110091956
140	0x3fa411d678598d43	0.03919859141458428
141	0xbfbb9ce89dfbf8e5	-0.10786298615491637
142	0xbfa02e839d5644fa	-0.031604874569106614
143	0xbfc427ec64e4996b	-0.1574683659211574
144	0x3faf363b4650adcf	0.060960628827469436
145	0xbfc308a3bc16b556	-0.14870115932482503
146	0x3fac48306de72c93	0.055238259712120506
147	0xbf91db81e1456779	-0.017438916563470273
148	0x3fa61be296ff36d7	0.04318149655555963
149	0xbfb5422f2c20b961	-0.08304114177074019
150	0xbf91fe015dc258ea	-0.017570515964131873
151	0x3fa39548bc9fa176	0.03824832251104031
152	0xbfa453d214f39f17	-0.03970200067288781
153	0xbfc3fe6cc933b02c	-0.15620193313896047
154	0xbfc48a3702d25fea	-0.16046798360616715
155	0x3fb551d142ed657f	0.08327968486755387
156	0xbfc75dafc6d3e906	-0.18254658897769377
157	0xbfb608d7c984a1b0	-0.08607243223071381
158	0xbf81169fbbb2248f	-0.008343933024905574
159	0xbf908f6a9298d372	-0.016172089765138016
160	0xbfb4112166fc93e9	-0.07838639034578389
161	0x3f950e9e213c58b3	0.02056357457976139
162	0xbfb451488970b089	-0.0793652854487751
163	0xbfb09a5041c4202f	-0.06485463719957417
164	0xbfc1a44ffe958e88	-0.13782691889638365
165	0x3fa86e5e5cc9a47c	0.04771704561864795
166	0xbfb38dcca6e915e1	-0.07638243746722352
167	0xbfc49b31864de0e9	-0.16098612840483575
168	0xbfbaec913ef53805	-0.10517223155076756
169	0xbf87980dd34470bd	-0.011520488748424257
170	0xbfa26800304911ac	-0.035949712652413396
171	0xbfad964b5a30f7b9	-0.05778727985351346
172	0x3f91fb50d23f7433	0.017560255844603922
173	0xbfc26a8bf2a32393	-0.14387654635927713
174	0x3fa2a54a2eb70c11	0.03641731090785794
175	0x3fa7a8b477b28abb	0.046208991633894546
176	0xbfb9ffe57eafaa4e	-0.10156092017101878
177	0xbfc75e26857c5663	-0.18256074445587264
178	0xbfb5836afed0360d	-0.0840365287878841
179	0xbfba0e288a26b493	-0.10177853939849717
180	0xbfc41febf163f3fb	-0.1572241715111032
181	0xbfb43f1c2a17c2bb	-0.07908798244148844
182	0xbf9e47db153ec100	-0.029570983096790293
183	0xbf94c250c7e0ad4d	-0.020272504996836905
184	0xbf9c3d10e2012ff5	-0.02757669810698356
185	0x3fa98acf35ce3a38	0.04988715678984018
186	0x3f8f03fbb1aed55f	0.015144316062882522
187	0x3fb4f75566c57ed3	0.08189901122159009
188	0x3fb7272d2d940abd	0.09044153559447472
189	0x3fb3093be098ac97	0.07435964806852478
190	0xbfc5adf815a34d41	-0.16937161499536482
191	0x3f933b9de1b7303c	0.018782107259355238
192	0xbf93180ee22e69a9	-0.018646462016116114
193	0xbfc3beaa5143ac23	-0.1542561432646333
194	0x3f64e5942921d67f	0.0025508779299865942
195	0x3faa8d26d53f270a	0.05185815194233896
196	0xbfbc3422e4ea155b	-0.11017053688745675
197	0xbfc2306fb0563640	-0.14210315809434526
198	0xbfa0f4ed0c18d7d7	-0.03311863682431209
199	0xbf86d390b16f3b37	-0.011145716109152921
200	0x3fa1513a1b9bb821	0.033822837705756344
201	0x3f9ccb8976c1e19d	0.028120181916592924
202	0x3fb7150aa93f4ab3	0.09016482002270258
203	0xbfbe7ab38b0dc520	-0.11905977387302302
204	0xbfbeef272cd9818f	-0.1208366856094527
205	0xbf810c45212bd692	-0.008324184489065165
206	0xbfba27120195c065	-0.10215866602607233
207	0xbfae9dcd8b136278	-0.05979769060804058
208	0x3f88669ec981165e	0.011914482616826646
209	0x3f712e79a164dcdb	0.004194712752272535
210	0xbfc0f77d9a93e1ed	-0.13255281493890383
211	0xbfbb2adce82736fa	-0.10612278621485052
212	0xbfa149bd39537f93	-0.033765710113356516
213	0xbfc5543a5551fd10	-0.16663293043163963
214	0xbfc139ca327e576f	-0.13457610574249254
215	0xbfc009f119cec766	-0.12530339965956755
216	0xbfbc4eb93769cbbf	-0.11057622530806464
217	0x3fac6456e7a7682b	0.05545302942091753
218	0xbfb0cb7ad998732d	-0.06560485660925215
219	0xbfbd50a75cd4b76b	-0.11451192871456121
220	0xbf6a555a58ef195e	-0.0032145275685905713
221	0xbfc33b3b6341c229	-0.15024511667753984
222	0xbfb3d412da304117	-0.07745473696582326
223	0x3fa955fe2d9df4d9	0.04948419863556248
224	0xbfc0414b7c43a890	-0.12699264113991093
225	0xbfb5fea19a93768c	-0.08591661475971984
226	0xbf66c3e8dac6233f	-0.0027789638463144024
227	0xbfbd28ccc82743cf	-0.11390380751187411
228	0x3f84709bcbcfc7e0	0.009980408818567044
229	0xbfc1c524dfc73684	-0.13882885862988215
230	0xbfc757ff3da42a9f	-0.18237295636966608
231	0xbfc0e636058edfd4	-0.13202548285857907
232	0xbf89de76507a2d65	-0.012631344157191202
233	0x3fa90820497618dd	0.04889012238258925
234	0xbfc57e8a3343311d	-0.16792418959665492
235	0xbfa924038eb8e6b6	-0.0491028892251512
236	0xbfc0f84fb53cc333	-0.13257786130409385
237	0x3fad8bc0619451ba	0.05770684424547619
238	0xbf7bba670f217cc0	-0.006769564222934565
239	0x3fa5983ef522f5ae	0.04217716925038971
240	0xbf80962305deb7fd	-0.008098863236082105
241	0xbfbf80a0b4162f38	-0.12305645367285656
242	0xbfaf110557333dc5	-0.06067673387007803
243	0x3fb4bdd794d576cd	0.0810217607845189
244	0xbfa6a8b086c65574	-0.04425574917983513
245	0xbfa9c70452498d72	-0.050346503300512505
246	0x3fa63e684f9267e8	0.04344488116585393
247	0xbfc1115ced3a18d5	-0.1333423765501666
248	0xbfb132d2e5c760a7	-0.06718175992807805
249	0xbfb6f1055e988fdf	-0.08961518821212121
250	0xbfbbcfa1a535742b	-0.10863695414941847
251	0x3fb2944d7236723b	0.07257541693110962
252	0x3fba07d38b9b8811	0.10168192060839966
253	0xbfbe8bc491f8b00f	-0.11932018817668698
254	0xbfbea9dddfcae391	-0.1197794600838178
255	0xbfc25c2780710359	-0.14343732616000684

coeff_generator.4.bias f8 [4]
0	0x3f99cce8e501c86a	0.0251957311415442
1	0xbf83a9818549fe87	-0.009600650673063938
2	0xbfb66fa83f1b38be	-0.08764125385934826
3	0x3fa803716379f84d	0.04690126742660592
